code/selfparking/mla/results/run_overnight_01/Car/Car-5000045.onnx (onnx, 710352 bytes, 10 tensors)

network_body._body_endoder.seq_layers.0.weight f4 [256, 108]
00000000: cbdd 743d 323a aebc 8f31 bcbc a86d 4fbd
00000010: f62c 343d 068a be3d f548 483e 6906 16be
00000020: 64e2 d43c 0035 1b38 fac1 7d3d 0ca2 6a3d
00000030: 1780 6b3b 0ad1 ef3d 071d 0d3d a265 323c
00000040: 480c af3d 429c 14be c85a 16be 5bf8 093e
00000050: 1e54 33be 211b 13be 47f6 c9bd 15f0 7ebd
00000060: f0fd b33d 6dea a13d 5303 2f3e bae8 9f3b
00000070: 5db8 003c 46f3 be3c 1e28 32be 8a6c dcbd
00000080: 2912 a33c 7163 1f3d 9ddd b13d ea68 e73d
00000090: c78d 44bb 30ce 70be 8c53 14bd 8def 90bd
000000a0: 1f3f 65bc d753 ef3d 0118 be3d 90c5 6f3d
000000b0: c526 f83d 92c7 e03d 7505 003d 139f 1abd
000000c0: 9ea7 7a3e c2a9 823c 3cee 95bd ae45 8abd
000000d0: 19cc 66bd e742 453d a80f 77bc a0b2 0bbe
000000e0: ce06 cd3d d91e cebd 4e6d 783e 246c e83b
000000f0: 58e6 20be 44cc b73d c4af 473d 30f4 77bd
00000100: e981 043d 5faa 51be 5b0e 213e 6c47 debc
00000110: 8264 0339 e5c5 bebc b1c9 1cbc 78af 2d3e
00000120: 5a1c 15bd 8ecf a5bd f8ad 913c c82f 4fbd
00000130: 4fbb 4e3e 19ae 03be 6570 61bb 6eff 213d
00000140: 4987 c9bc 21a9 d1ba e0fa 48be 4210 adbc
00000150: 20cf d63d 23c3 a4bc 1d8f a2bc d64c 4dbd
00000160: 7b95 dcbd 3d79 a13d 206d 9bbd 96d4 603e
00000170: 2f66 afbd 0d64 92bb c8fb 5b3e 8ea4 9dbd
00000180: efce a73c 133c 653d 5422 86bd 8af0 393d
00000190: 0427 59be b4ac a83d 501c 1c3e 1054 4a3d
000001a0: ca5e cfbb cc75 fabd de8b 02bd d3fa 2b3d
000001b0: 83d6 50bd 577e 4e3b fe4e 17bd 2e01 b13a
000001c0: ab4f 283d 8426 243d dd8c eb3c 084b 963c
000001d0: b092 2b3d 6f32 dabd 0be4 1bbe d0de eebc
000001e0: 0ea1 dfbd 4847 adbc 5c57 1ebe 1b56 5abd
000001f0: dd76 763b 283f 373e d29d 77bc dc7e 903d
00000200: 0210 b1bc 55c7 a1bd c8cd a4bd 34e4 643b
00000210: 8ef9 8f3d 2bc6 bf3b c2e7 7b3c 14cc 06bd
00000220: 526e 3abd 5ff0 443e 6e5f 0abe f099 efbd
00000230: 3fd6 6abd aa16 c83d f639 4abb 8993 ffbd
00000240: b3c0 d8bb 0b56 aa39 579b 4cbe e27b 523d
00000250: 4205 783d 1c28 a53d 44be 513e 6769 0ebe
00000260: d505 b7bc b19b c8bd 9600 a4bc ab7d 8ebd
00000270: c2f4 073e a7c6 03be eac0 153e 3e02 513d
00000280: b6a4 67be 49bb 403e a2cf 903a 8d55 99bd
00000290: 2b07 953b 256a 013d a415 97bc a331 ae3d
000002a0: 6c71 da3c 9139 d6bc 6c68 fd3d 5a93 083d
000002b0: 0ab7 4ebc b899 9ebd cf32 e8bd d83a 623d
000002c0: 8d39 8abd 4339 fe3d f87f b43d d31d d43d
000002d0: 7a7b 5cbd f484 0ebd 7108 763d 2903 823c
000002e0: 4fb7 803c 6567 99bd cf2b 3a3e e94f d63d
000002f0: fe02 063e f56f 183c db59 9e3d aa11 043e
00000300: 43e1 debc 8a0a dcbd e172 fbbc 7233 8dbd
00000310: 3b6a 153d 49f6 093e bb25 f7bd 81ab bbbd
00000320: 1c0f 66bd 621b 9fbd 9eda 52bc ce10 1c3d
00000330: 3027 23bc 86b6 473d a5ca abbd 83b6 023e
00000340: f8d1 ec3c 9d45 713d 864c efbd dad5 983a
00000350: 772a c1bb a6fe 883c 371c a43d 455c 7f3d
00000360: 3503 343e 73c2 4e3c aa9c 0f3e 3d25 04be
00000370: 1739 3bbe 0936 133e 0ad5 683c 3d0a cc3d
00000380: 9584 8bbd 5300 713d 5da4 fb3b f3d0 d03d
00000390: 3405 6dbd 6ba2 d9ba 51f7 35be 53f4 d2bd
000003a0: acad 2fbd ad45 f53d d093 bbbc e778 8a3d
000003b0: 6269 013e c30f 0a3e 356b e43d 2155 423c
000003c0: ba72 42bd 9b75 1a3e 53ba f5bd 18b4 18b9
000003d0: 4bd3 c53b e2b7 d0bd a964 463e 5855 443d
000003e0: f3fc 143e f1fc 4f3d cd20 dcbb 9e49 02bd
000003f0: 7532 57bb 0cbb 96bc 97de a1bb 892a 2e3d
0.05978183 -0.021267984 -0.02297285 -0.050641686 0.04398819 0.0930367 0.19559081 -0.14650883
0.025986858 3.700424e-05 0.06195257 0.057283446 0.0035934502 0.11709793 0.03445151 0.010888489
0.08547264 -0.14512733 -0.14683068 0.13473646 -0.17512557 -0.14365818 -0.09861427 -0.06224068
0.08788669 0.07906041 0.17091112 0.004880038 0.007856456 0.023309361 -0.17398116 -0.1076289
0.01990612 0.038913194 0.086848475 0.11299308 -0.0029991732 -0.23516154 -0.03621249 -0.07076941
-0.0139921 0.11685913 0.09281922 0.05853802 0.1211677 0.10975565 0.031255204 -0.03774936
0.24478003 0.015950087 -0.0732083 -0.067515716 -0.056346986 0.048159506 -0.015079416 -0.13642359
0.100110635 -0.100644775 0.24260446 0.0070929695 -0.15712869 0.089745075 0.048751608 -0.06053561
0.032350454 -0.20475148 0.15728132 -0.027133666 0.00012530576 -0.023287723 -0.009569571 0.16961467
-0.03640399 -0.080962285 0.01778315 -0.050582677 0.2018864 -0.12859382 -0.0034399268 0.039550237
-0.024600642 -0.0015995839 -0.19626951 -0.021125916 0.10488725 -0.02011258 -0.019843632 -0.050122105
-0.10770699 0.078844525 -0.07589173 0.21956095 -0.08564412 -0.0044674934 0.21482766 -0.07697402
0.020484416 0.055965494 -0.06549516 0.04539541 -0.2120629 0.082360655 0.15245175 0.049396574
-0.0063284384 -0.12229499 -0.03187167 0.04198725 -0.050985824 0.003150841 -0.036940567 0.001350438
0.041091602 0.040075794 0.028753692 0.018346325 0.04188794 -0.10654151 -0.1522371 -0.02915898
-0.109193906 -0.021152154 -0.15463012 -0.053304773 0.003760747 0.17895186 -0.015113311 0.070554465
-0.021614078 -0.07899348 -0.08047062 0.0034926059 0.07030021 0.005852481 0.01537508 -0.032909468
-0.045515366 0.1923232 -0.13512966 -0.11699283 -0.057333227 0.09769948 -0.0030857301 -0.12479312
-0.0066147684 0.00032489034 -0.19981132 0.051387675 0.06055189 0.08064291 0.20482737 -0.13907395
-0.022341648 -0.09795321 -0.02001981 -0.06957563 0.13276961 -0.12868749 0.14624372 0.05102753
-0.22621426 0.18821444 0.0011048208 -0.07487021 0.0045479736 0.031595368 -0.018442936 0.08505561
0.026665412 -0.026150497 0.123734325 0.03334365 -0.012616882 -0.07744163 -0.11337816 0.0552319
-0.06749258 0.124132656 0.088134706 0.10357251 -0.053828694 -0.034794763 0.060066644 0.015870648
0.015712408 -0.07490424 0.18180774 0.104644604 0.13087079 0.009304036 0.07731982 0.12897363
-0.027207023 -0.10744198 -0.030694427 -0.06894578 0.036478262 0.13472857 -0.120677434 -0.09163571
-0.056166753 -0.07768895 -0.012869505 0.038101964 -0.0099580735 0.048758052 -0.08388261 0.12764935
0.028908715 0.05890428 -0.116845176 0.0011660412 -0.005894955 0.016722988 0.08013194 0.062343854
0.17579348 0.0126196025 0.14024606 -0.1290483 -0.18283497 0.14376082 0.014210949 0.0996289
-0.068123974 0.0588382 0.0076795057 0.10196104 -0.05786629 -0.001660419 -0.17770125 -0.103005074
-0.042890236 0.1197618 -0.02289763 0.067613415 0.12637857 0.13482575 0.111532606 0.011861117
-0.047472693 0.15083925 -0.11998429 -0.0001456294 0.006037151 -0.10191323 0.19374336 0.047932953
0.14549617 0.050778333 -0.0067177773 -0.031808488 -0.0032836471 -0.018399738 -0.004939865 0.042521033

network_body._body_endoder.seq_layers.0.bias f4 [256]
00000000: 121f 0a3c 0e5f a13b 0c75 8d3a 0274 213c
00000010: b481 583c 8030 abbb 12e8 06bc a0e5 44bc
00000020: b92e 903c 3bca 523c 2807 42bb a8dc bdb9
00000030: 7775 d0bb f5bb 8b3c 161e e73b 6a1d 2b3c
00000040: b9bc 073b 4d43 733c 55f9 aa3c 30ca 1fbc
00000050: b513 143c 609b 8a3c 5f75 b83c 17ef d63b
00000060: dcb4 093b 5ec2 433c 9502 8c3b 0956 1a3c
00000070: 5953 af3b c523 02bc 0a70 8a3c 0848 1e3b
00000080: e8dc 0a3c 0b08 38ba 89bb b33b d5eb a23a
00000090: 9033 0ebb cdfa 043c 6fc9 a83b a1a7 9d3c
000000a0: 2105 863b d894 51bb 7055 ad3b 92c0 663c
000000b0: cf4f 3a3c 76a9 fd3b 59cb ef3b 6239 133c
000000c0: 258b 60bb c292 c43b 9641 94bb 602a 9dbc
000000d0: 9af9 d03a 6c0d 943c 61f7 4e3c 8ef1 d83b
000000e0: 2c84 6f3c 3d5b f63b 26b8 dbba ec86 c0bb
000000f0: 6fb4 943a af2e e53c 983b 863c 7c0f e43b
00000100: 5f5e c2ba b845 5c3c e698 c33a 214c 3aba
00000110: 872b 06bb 23e1 a43b c8dd d7bb 7fc2 0b3c
00000120: 4323 c0ba f992 6dbc 9354 ca3c ea5d 523c
00000130: 4288 413c 5124 2e3c 0674 20bc 5f00 113b
00000140: b03a 103c dadd 5b3c c194 9d3c 3142 7bbb
00000150: 420f 283b 6aee 853c bef6 993b 9148 a23c
00000160: 6b97 f43b f364 17bc 2029 743c 3461 ce3b
00000170: 5e98 d8bb 952b c73b 6c0e 42bc 1620 a8bb
00000180: 3b5f 7c3c 508b 19bb a161 8bbb 6681 a7bb
00000190: e6dc 06bb 40c9 563c 7e2c 46bb e9da e2bb
000001a0: 7026 aabb 130c 94ba 3210 a03b 2f22 2d3c
000001b0: 6aed 583b a32a f93a 8be0 c33c 22f4 e13a
000001c0: 8fea 063c 4f05 d43b afe0 5d3c b630 573c
000001d0: e9fb 183c ee80 133c 3f72 543c 1821 c53b
000001e0: 1002 cf3b 055a 383c 4bbf 9cbb 6409 823b
000001f0: 3f5b 363a d427 2abc b45b 693b bd7b ae3a
00000200: 7feb 613c f6d3 6eb8 4a18 72bb 36e5 d43b
00000210: 33c3 023c 8694 7a3c 5d44 093c 728e a83c
00000220: 4d01 de3c ecb2 153b 888f 8b3b edee 50ba
00000230: d4e3 cb3b 4f30 063c 9cac 6b3b f773 b6ba
00000240: 5d67 2a3b f303 45ba 588a 843c a5a7 80bb
00000250: 8c8d 4cba b004 063a 7589 a7bb c76f e53b
00000260: cfa6 b23b b1ec 8e3c 278c 1c3c 9564 a73b
00000270: 4b33 c93c fb8d c83b e12f 903b be54 8e3c
00000280: f443 40bb 0386 2f3b 3b42 e3b9 5f09 7a3c
00000290: c0ad 0c3c b91e d73b 6232 503a 8d55 17bb
000002a0: b642 693b cbf4 203a 1e3b 3ebc 8dee 5b3b
000002b0: 26b6 5ebb 79b7 6b3c 133a e6bc 8994 8b3c
000002c0: 3122 c83b 6a06 b73c 29f9 cbba 3e82 dd3c
000002d0: af1d 303c 2d8b a33b 082b 0c3c a5cf 4b39
000002e0: 3e88 b7bb 59fd 163c f530 453c 03a0 4c3b
000002f0: ad12 263c 8bdf e53a 8722 a9bc b62b c73b
00000300: 2833 a53b bc09 bb3b ed3b 06bc 5ba0 113b
00000310: 4eb9 413c a868 0e3a cdb2 df3a 0cf2 bb3c
00000320: 1bf9 9c3c 95fb c23b f5a1 043c f2c6 a03b
00000330: bb01 483a f462 133b 369f 143c bbe7 033c
00000340: a3d8 3fbb c62f 983b 6ea1 f03b 009e b2bb
00000350: d080 2f3a 8620 32bb c3ab 013c fc37 343c
00000360: 6bcd 903c eeeb ad3b 7a2c 413b 10ed a53c
00000370: dadf 7ebb df36 8cbb f082 a13b 845c 773c
00000380: 2e28 123c 0209 573c 6458 aa3c b33f fabb
00000390: 92b1 5a3c 0791 193b cecc 883c 0e90 983b
000003a0: 475f 23ba 7430 173c 743d debb 4c0a 21bb
000003b0: 83c7 0ebc d43a 233c 2e44 74bb bcbe ea3b
000003c0: ab0c 6f3c 4688 5c3c caab f2ba 4db0 1dbb
000003d0: ef5c 453b 2ff8 54ba 9202 383b 2681 e73b
000003e0: 4e1d acbb c6d2 17bb 8ade 173b c47f 2d3b
000003f0: bf59 5d3c 273d cebb 6927 3d3c 77d0 423c
0.008430259 0.0049246615 0.0010792329 0.009854319 0.013214517 -0.0052242875 -0.008234041 -0.0120176375
0.017600404 0.012865598 -0.0029606316 -0.0003621329 -0.006361659 0.017057398 0.007053147 0.010444025
0.0020711853 0.014847589 0.020870844 -0.009752795 0.009037902 0.016919792 0.022516904 0.0065592634
0.0021012342 0.011948196 0.0042727687 0.009419926 0.005350512 -0.007943098 0.016899128 0.002415182
0.00847552 -0.00070202415 0.0054850024 0.0012429903 -0.0021698214 0.008116436 0.005150966 0.01924497
0.004089967 -0.0031979587 0.005289726 0.014083998 0.011371567 0.0077411486 0.007317942 0.008985849
-0.0034262624 0.00599894 -0.00452442 -0.019185245 0.0015943528 0.018072806 0.012632222 0.0066205924
0.014618915 0.0075182007 -0.0016763255 -0.005875459 0.0011345277 0.027976362 0.016385838 0.0069598537
-0.001482915 0.013444357 0.0014922887 -0.0007106681 -0.0020472722 0.005031721 -0.0065877177 0.008530258
-0.0014658946 -0.014500373 0.024698531 0.012839774 0.011812272 0.010628776 -0.009793287 0.0022125465
0.008803055 0.013419593 0.01923597 -0.0038339014 0.002564386 0.016349036 0.0046986034 0.019809993
0.0074643395 -0.009240377 0.014902383 0.0062982086 -0.0066099605 0.0060781934 -0.011844259 -0.005130778
0.015403564 -0.0023428984 -0.0042535816 -0.005111861 -0.0020578443 0.013109505 -0.0030238922 -0.006923069
-0.0051925704 -0.0011295102 0.004884743 0.010567232 0.0033100494 0.0019009899 0.023910781 0.0017238895
0.008234634 0.0064703594 0.013542338 0.013134172 0.009337404 0.009002907 0.0129666915 0.006015908
0.0063173845 0.011251931 -0.004783546 0.0039684046 0.0006956346 -0.010385472 0.0035607638 0.0013312023
0.013789057 -5.6941026e-05 -0.0036940747 0.0064970506 0.007981109 0.0152942 0.0083781155 0.020575736
0.02710023 0.0022842241 0.0042590536 -0.0007970173 0.0062222276 0.008190229 0.0035961038 -0.0013920058
0.002600155 -0.0007515542 0.016179249 -0.003926235 -0.00078030745 0.0005112393 -0.0051128217 0.0070018503
0.005452014 0.017446848 0.009554899 0.005108426 0.024560591 0.006120441 0.004400239 0.017374393
-0.0029337378 0.0026782758 -0.0004334616 0.015261023 0.008586347 0.0065649417 0.0007942078 -0.0023091764
0.0035592741 0.00061399926 -0.011610774 0.0033558935 -0.003398308 0.014387005 -0.028103864 0.0170386
0.0061075916 0.022341926 -0.0015561926 0.027039643 0.010749265 0.0049909563 0.008555181 0.00019436942
-0.005600958 0.009215676 0.012035598 0.0031223304 0.010136289 0.0017537934 -0.020646347 0.006078209
0.0050414987 0.0057079475 -0.008192998 0.0022220823 0.011823965 0.0005432465 0.0017066837 0.022942565
0.019161751 0.005950401 0.008095254 0.0049065286 0.00076296524 0.00224894 0.009071162 0.008050854
-0.0029273413 0.004644367 0.0073434627 -0.005450964 0.0006694915 -0.002718003 0.007914486 0.010999676
0.017676076 0.005307666 0.0029475973 0.020254642 -0.003889075 -0.004279002 0.004928939 0.015097741
0.008920712 0.013124706 0.020794101 -0.007636988 0.013348 0.002343239 0.016699221 0.0046558445
-0.0006232154 0.009227861 -0.006782228 -0.0024572788 -0.0087145595 0.009962756 -0.0037272084 0.0071638506
0.014590423 0.0134602245 -0.0018514332 -0.0024061382 0.0030115207 -0.00081241404 0.0028077704 0.0070649562
-0.005252517 -0.0023166402 0.0023173415 0.002647386 0.013510167 -0.006293911 0.011545041 0.011890522

network_body._body_endoder.seq_layers.2.weight f4 [256, 256]
00000000: de87 f03c cc65 4c3d 212f 9e3a 0af7 3d3c
00000010: 1f42 833d d0ca c2bb 318a 6cbc 8e21 4d3d
00000020: 62c3 903d 56fa 943d cf0b 7c3c 7b3d b73d
00000030: 6bd7 703d 7719 bfbd 792f 43be 8685 043e
00000040: ddba 183c cdfe 61bd cc07 1fbd ff1a 34bd
00000050: 13ca b7bc 74bc 7cbd c326 c83d a89b 11be
00000060: 892b d3bc c4d2 0b3e e66d c03b f6a2 d33c
00000070: c897 b33c 3bf5 343d 6ffe debd 1682 3ebd
00000080: 323f 0b3d f574 c1bd 26fa aabd 0447 8e3d
00000090: 5633 ca3d e1d9 36bd 1236 bbbd 5dc9 483d
000000a0: e8da 0ebc fd16 523d e79f 0dbd a9cc acbd
000000b0: 9050 b9bd e553 f8bb d82d 5abd dbe8 d53c
000000c0: c4d8 c23d fe86 1d3d e631 babb 9df3 943d
000000d0: ed2a a93d dcfb a6bc 9c9f 37bc 28b5 77bd
000000e0: 083a 183e c3e7 94bc 189c 043c bcb8 c1bc
000000f0: fd5f d33d e35b 173c de24 8bbd 9c7b bf3d
00000100: 71de 173d 6df4 fc3d eb41 06bd 02ef f53d
00000110: 5996 c03b 2dec 8ebd a628 20bd b126 01bd
00000120: 3d1f 15bd 3e90 24bd 66d5 13be a40b 2c3d
00000130: b9da c33d a038 6b3c 5bad 81bd 80d2 21bd
00000140: 702d e03d e9dd 34bd bde7 c9bc 3604 adbc
00000150: eca9 cd3d 4fab 943d 8e9d 983d 61f7 a0bc
00000160: cf4b 30bd 5905 8fbd fb6a 853d ab6e b03d
00000170: 043f 1ebd 3fa5 053d 8481 ccbb c0cf 0a3c
00000180: bc34 a5bd 2dd7 a73d a44a 8f3d 6c6d 823d
00000190: e82f 153d 9ea5 753c c4f4 62bb afe2 debd
000001a0: 3464 e53c da35 ccbc eba5 1abe aaa1 d5bd
000001b0: cc36 68bd 1562 b0bd 4144 8cbd 518e 1dbd
000001c0: f25c 893c 31e2 dd3c 2629 6b3d 0815 9dbb
000001d0: 96fb d83d 7a7e 583d 8e9a c8bc c8f5 1fbc
000001e0: 7f9e 023e 2326 723b 4ba9 c4bc 913c 48bd
000001f0: 3188 023e 9324 fbbc 34ed 7c3d 2ac6 e8bd
00000200: bc5e 39bc d8d9 87bc b4ae b8bd bfcf a9bc
00000210: 8cef d7bc db84 2fbc 0dda 66bd 3e03 c6bd
00000220: fabf 8c3d a3c7 733d a0b2 e23b c552 84bd
00000230: 0be0 853d b486 ea3d a4c4 9bbd 9f7b c5bc
00000240: fbaa b63b 61c2 2abd 6b83 f73d 43b9 dbbd
00000250: 6603 1b3d 4160 c73d 0f65 51bd 45f6 9fbc
00000260: 1c3d eb3d 4f96 2f3d d99d e93d f0ee 093c
00000270: aca5 42bd 97be 4e3d 7acd 66bd d475 6e3d
00000280: 5de2 383d a4d6 163e 364b 4a3d 7e84 723d
00000290: 98e2 8b3d 123d bc3c 27b8 c53b 0504 973c
000002a0: 582c eabd dc72 9a3c 2eaf 1fbd f216 1d3d
000002b0: bf01 60bc 8d6c 7bbd 3d59 97bc 2130 cd3c
000002c0: 767c b03b af65 a8bd 595e 8abd c4fb dbbb
000002d0: 8062 bb3d 89f1 86bc 398c e7bd 5ede 803d
000002e0: f816 493d 6da9 4a3e 875d 27bd fe64 a1bd
000002f0: 989f 093d 66f3 d0bc fd7a 283d 043e f83d
00000300: 54a1 94bc 0d86 0bbe 2690 823d 5afb e63c
00000310: b2bf 68bd 2934 d93d be2a 4dbb 5851 89bd
00000320: 602d 1cbd 2314 39be b788 ae3d 0469 36be
00000330: 404b 8a3b b7b3 213c 9ca2 a0bc 1079 03be
00000340: db1f 17bd cfa0 133e 7978 9dbb 3639 063d
00000350: d866 94bd f881 383d 4ff6 a33d acb9 653d
00000360: 44a5 0c3e 8e81 113d d3aa f6bb 6d82 953b
00000370: 9d9b 523d 3e4a 4b3d f956 19bc dc1a c3bd
00000380: d048 adbb a798 04bd 03b0 453d badf bcbd
00000390: f748 b7bd 001a 1b3c e3f5 f1bc f042 3abd
000003a0: 3d9e 573d 97b5 583d 7e76 703d ffcb ae3c
000003b0: ea13 a63c 4126 72ba 628e 1f3d fee7 e3bd
000003c0: 8843 843d 7795 aabd 5d4a b2bd 9538 db3c
000003d0: f8e4 46bc d64a d8bd 994e 733b fb91 08bd
000003e0: 7c3f 53bd 5057 03bc 1a2c 253d bc22 da3c
000003f0: c77f 59ba aca9 343d 2786 c73d 85fd c8bd
0.029361662 0.04990177 0.0012068489 0.011594543 0.06409096 -0.0059445873 -0.014437244 0.05008083
0.07068516 0.0727431 0.015383675 0.08947273 0.05879919 -0.09331029 -0.19061078 0.1294156
0.009321895 -0.055174638 -0.038825795 -0.043971058 -0.022435224 -0.06170316 0.09773018 -0.14219534
-0.025777595 0.1365462 0.005872476 0.025834542 0.02192296 0.044179182 -0.10888373 -0.04651078
0.033995815 -0.09446136 -0.08348493 0.06947139 0.09873073 -0.04464138 -0.091411725 0.04902016
-0.0087191835 0.051291455 -0.034576323 -0.08437473 -0.09048569 -0.0075783604 -0.053266376 0.02611201
0.09514001 0.038458817 -0.005682218 0.07273028 0.082601406 -0.020383768 -0.011207487 -0.0604755
0.14865887 -0.018176919 0.008093856 -0.023647659 0.10321043 0.009238216 -0.06794141 0.093497485
0.03707737 0.12351308 -0.032777708 0.12008478 0.005877298 -0.06978641 -0.039101265 -0.03153104
-0.036406744 -0.040176623 -0.14436874 0.04200329 0.095632024 0.014356762 -0.06331893 -0.03950739
0.109461665 -0.044156943 -0.024646634 -0.021120172 0.10042176 0.07259237 0.07451926 -0.01964921
-0.043041047 -0.06983442 0.065145455 0.08614858 -0.038634315 0.032628294 -0.0062410254 0.008472383
-0.08066699 0.081953384 0.069966584 0.06368527 0.03642264 0.0149930995 -0.0034630755 -0.1088308
0.028001882 -0.024928022 -0.15102355 -0.104312256 -0.056692883 -0.08612458 -0.06848956 -0.0384658
0.016767953 0.027085396 0.05741229 -0.004793767 0.10594861 0.052854992 -0.02448776 -0.009763189
0.12755774 0.0036949 -0.024006506 -0.048885886 0.12747265 -0.030657088 0.061749652 -0.11365922
-0.01131409 -0.016583368 -0.09017697 -0.020728944 -0.026359342 -0.010712828 -0.056360293 -0.09668587
0.06872554 0.05951656 0.0069182664 -0.064610995 0.065368734 0.11451474 -0.076058656 -0.024106799
0.0055745817 -0.04168928 0.12085613 -0.10728695 0.037845038 0.09735156 -0.051121768 -0.01952661
0.11486265 0.042867955 0.1140706 0.008418784 -0.04752128 0.05047473 -0.0563483 0.05821784
0.04513775 0.14730316 0.049388133 0.059208386 0.06830329 0.02297834 0.0060339156 0.018434534
-0.11434239 0.018853597 -0.038985424 0.03835196 -0.013672291 -0.06138282 -0.01847517 0.025047364
0.0053859306 -0.082225196 -0.06756277 -0.0067133624 0.09149647 -0.016472595 -0.11306042 0.06292413
0.04909417 0.19791193 -0.04086068 -0.07880591 0.033599466 -0.025506686 0.041132916 0.121212035
-0.018143333 -0.13625355 0.063751504 0.028196026 -0.05682344 0.10605652 -0.0031305994 -0.06704968
-0.03812921 -0.18074088 0.0852217 -0.17813498 0.0042203963 0.0098695075 -0.019608788 -0.1283915
-0.036895614 0.14416812 -0.004805621 0.032769404 -0.072461784 0.045045823 0.08005964 0.056085274
0.13734919 0.035523944 -0.007527688 0.004562667 0.051417936 0.04963135 -0.009359115 -0.095266074
-0.005288221 -0.032372143 0.04826356 -0.0922236 -0.08949464 0.009466648 -0.029536193 -0.045473993
0.052641142 0.052907553 0.058706753 0.021337507 0.020273168 -0.00092372677 0.038954146 -0.111282334
0.06458193 -0.083292894 -0.0870559 0.026760379 -0.012139551 -0.10561149 0.0037125705 -0.033342343
-0.051574215 -0.008016422 0.04032526 0.02662789 -0.00082969334 0.044107124 0.097423844 -0.0981398

network_body._body_endoder.seq_layers.2.bias f4 [256]
00000000: 6e8f d03b 457b 1d3c 9e4b a43c ba9c 943b
00000010: 1804 5739 67f2 183b 19c9 533c b9db 23bc
00000020: b12c 753c ef8c 553b c1eb 20ba 0459 913a
00000030: 9a4c 803a 7316 d23b 10d1 0aba f6fa 3fbb
00000040: 100b 0cbc 2277 213c 7f21 803c 0210 583c
00000050: b7dd 1bbc 69dc f439 18bb 3cba c850 18bc
00000060: 120e 8cbb 4675 063c 482e 313c ecb3 733b
00000070: 18f3 16bb da1c 983b 631c 2f3c 9699 8d3b
00000080: 7204 27bb e808 0abc 26f1 74bb d24f 903c
00000090: 972c e63b 5082 c73b 77ce a53b c5e8 903b
000000a0: 7c02 343c 2a69 863a a776 b63b b295 09bb
000000b0: f41d 9a3c 77e9 f6bb c8d2 943c 5df5 923b
000000c0: 2965 ba3a f311 3c3c 6005 9e3c 5331 2e3b
000000d0: e252 7a3c 38e5 203a 2c03 7d3c c715 9ebb
000000e0: c5a4 4e3c ea56 863c 0997 fcbb 0b02 643c
000000f0: b893 dbbb 98b3 db3b 8b85 1dbc 701e fdbb
00000100: d602 823c 130b 50bb 6b98 8c3c 8aa9 243b
00000110: a858 c739 89b9 ac3b 5a7e 6f3c a156 423b
00000120: 2b23 223c f3c5 e93b f7ef 8f37 7fe6 c43b
00000130: 3f51 0d3c 6465 0f3c 69e4 ad3c 81f1 4e3b
00000140: 1e46 723c 1315 90ba ddb0 0f3c f0e2 a03b
00000150: 58e1 16bc 7a10 833b 3d03 08bb 63db f5ba
00000160: ebb2 143c d331 b83b d6fe 1d3c 72e6 23bc
00000170: 10c5 c7bb 76a9 b3bb 2aa4 293c 63fd a0bc
00000180: 7609 bbbc 2a1a 1cbb ad34 4bbc aac4 c13b
00000190: 0bd9 853b 4b90 643b f138 94bb 3b14 d03b
000001a0: e707 af3c ba35 0f3c e44e 273b b6fa 3a3b
000001b0: 19af 0c3b 9e8b 65bb 7a88 5c3c b7ab 033c
000001c0: 084e ba3b c728 403c 2a2f f03a a45c f4ba
000001d0: 5486 9c3a b752 193c fdce 2d3b e034 04bc
000001e0: baba fa3b ae34 d9ba b3c5 913c d331 2c39
000001f0: 3a1f 38bb 5f89 c53b 44b5 46bb 5669 973c
00000200: c5f2 8f3b bf94 7b3b 0a8a 08bb 0b54 d8bb
00000210: 1d1d 8e3c 31a2 83bc 2d1f 613a ac21 013c
00000220: aa11 7d3c 6411 df3b 3a22 3f3c ba94 00bc
00000230: 8e97 be3b 5675 eb39 619d 873c c24e f23a
00000240: 3a0e 193c 74e1 de3c 8bf7 1cbb 252c 5c3c
00000250: 1f71 033c 2dbe 1b3c 1b02 88bb 2c05 11bb
00000260: 8089 7f3c 0191 34bc e4e6 a83b fa10 403b
00000270: 15e0 f9ba bbd9 0c3c f0c3 803c 16db 85bb
00000280: 6a19 ca3b 63e0 40ba 2ecd acba 0510 b03c
00000290: 76da 80bc f9eb 583c 5277 9c39 9a6b 1dba
000002a0: be9f 263c 1895 833a 9f73 2b3c 25e5 0ebc
000002b0: 0ef9 863b c66a f8bb 661c 713b da8e 0a3c
000002c0: 0932 f73b 3884 dc3b 362c 5738 6d0c 29bc
000002d0: 2cce a8bb a4b0 6d3c e259 3c3c 79b3 8fb9
000002e0: 7883 27ba d7bc d93b 07b0 863c af89 443c
000002f0: 48ff a43c 27c6 b9bb 1e46 573c c1ca cebc
00000300: c855 debb cc7b f23b 741d 483c 2400 afb9
00000310: b1b9 0fbb 43ec 333c 1f35 edbb 0402 713c
00000320: 4b10 cdbb 9d18 713b c0b9 5fbb aae2 0bbc
00000330: 16ff 10bc fbcf d03b c8c5 f83b 4e64 893c
00000340: db66 273c abdc 56ba 37dd 4b3c 2417 cf3b
00000350: c829 81bc a45b 17ba e832 89bb 3b09 783c
00000360: 33b4 573c 7234 bc3b 3353 623c 587a 0fbc
00000370: dd4d eab9 e5bc d0ba 4580 e1bb 82e3 73bb
00000380: b728 ae3b 3ad1 9b3c ba65 74ba a44a 5fbc
00000390: e5ed 173a d991 9ab9 488c 15ba 8ea2 c6b9
000003a0: dba9 a9bb 6165 f5ba da8d e33a f4d2 8abb
000003b0: 2141 97bb c22c ab3b 92f4 5f3c 3aea 8c3b
000003c0: 867c 213c 52fb 5ebb fc0c 8c3b 0189 bc3b
000003d0: 56b0 f23b 0258 433c 9792 af3b a6cf 94bb
000003e0: cdcb a6bc 89bc c53a 49a0 4abc 5524 e53b
000003f0: 0e32 89ba 458c 493b 844f de3b 082b 903b
0.0063647544 0.009611909 0.020055588 0.004535285 0.00020505523 0.0023337842 0.012926363 -0.010001116
0.014964269 0.0032585224 -0.00061386457 0.0011089151 0.0009788454 0.0064113676 -0.0005295435 -0.0029293871
-0.008547559 0.009855064 0.015640972 0.01318741 -0.00951331 0.00046703525 -0.000719951 -0.0092966035
-0.0042741382 0.008206671 0.010814257 0.00371861 -0.0023033079 0.0046421112 0.01068792 0.0043212874
-0.0025484827 -0.008424975 -0.003737518 0.017616186 0.0070243585 0.0060885325 0.005060013 0.0044222795
0.01098692 0.001025473 0.0055683437 -0.0020993766 0.01881311 -0.0075351554 0.018166915 0.004484816
0.0014220822 0.011478889 0.019289672 0.0026579692 0.01527855 0.0006137672 0.015442651 -0.0048243734
0.012612526 0.016398866 -0.0077084345 0.013916503 -0.006700959 0.006704759 -0.009614359 -0.0077245757
0.015870493 -0.0031744882 0.017162522 0.0025125467 0.00038022292 0.005271141 0.014617527 0.0029653686
0.00989608 0.007134193 1.715867e-05 0.0060089226 0.008625328 0.008752201 0.021227079 0.0031577053
0.014787225 -0.0010992609 0.008770195 0.0049098656 -0.009209 0.003999767 -0.0020753883 -0.0018757399
0.0090758605 0.005621174 0.009643277 -0.010003673 -0.0060964897 -0.005482848 0.010354081 -0.019652074
-0.02283166 -0.0023819306 -0.012402696 0.0059133368 0.0040847114 0.0034876044 -0.0045233895 0.006350068
0.021366073 0.008740837 0.00255292 0.0028530783 0.002146667 -0.0035025845 0.013460273 0.0080365455
0.0056855716 0.011728472 0.0018324603 -0.0018643332 0.0011941888 0.0093581 0.002652108 -0.008069247
0.007651654 -0.0016571486 0.017794466 0.00016421759 -0.0028094784 0.006028339 -0.0030320445 0.018482845
0.004392954 0.003838822 -0.002083423 -0.0066018156 0.017347867 -0.01606855 0.00085877144 0.007881563
0.015446106 0.006807493 0.011665875 -0.007847959 0.0058164066 0.00044910115 0.016554536 0.0018486606
0.009341771 0.027207114 -0.0023951258 0.013438259 0.008022576 0.009505791 -0.0041506416 -0.0022128327
0.015596747 -0.0110209 0.0051544774 0.0029306994 -0.0019063974 0.008596833 0.01571843 -0.004084955
0.0061675804 -0.0007357655 -0.0013183707 0.021492014 -0.01572917 0.013239854 0.0002984354 -0.00060051086
0.010169921 0.001003894 0.010464578 -0.0087216245 0.004119045 -0.0075810878 0.0036790608 0.00845691
0.0075438065 0.006729629 5.130117e-05 -0.010317904 -0.0051515307 0.014507446 0.011496039 -0.00027408803
-0.0006390135 0.006644826 0.016441358 0.011995717 0.020141259 -0.0056693736 0.013139276 -0.025243165
-0.0067851283 0.0074000116 0.012214053 -0.00033378706 -0.002193075 0.010981622 -0.0072389985 0.014709953
-0.006258046 0.0036788352 -0.0034137815 -0.008537928 -0.00884988 0.0063724495 0.0075919367 0.016771462
0.010217394 -0.0008196334 0.012442878 0.0063198972 -0.015766993 -0.00057738484 -0.0041869767 0.015138919
0.013165521 0.0057435567 0.013813782 -0.008757196 -0.0004468997 -0.0015925436 -0.006881746 -0.0037214463
0.005314912 0.019020665 -0.000932302 -0.013628636 0.0005795642 -0.00029481834 -0.00057048025 -0.00037886616
-0.005177719 -0.001872223 0.0017361001 -0.0042365734 -0.0046159183 0.0052238414 0.01366915 0.004300383
0.009856349 -0.003402431 0.004274009 0.005753637 0.007406275 0.011922838 0.005358051 -0.004541355
-0.020360852 0.0015086095 -0.0123673165 0.0069928565 -0.0010467188 0.0030753773 0.0067843813 0.004399661

action_model._continuous_distribution.log_sigma f4 [1, 6]
00000000: 52fd b6be 63db 89bd a6e2 0fbf d5be 8a3d
00000010: c3be f13d 4c13 a33d
-0.35740143 -0.06731298 -0.56205213 0.067746796 0.11803963 0.07962665

action_model._continuous_distribution.mu.weight f4 [6, 64]
00000000: 91f8 423d 9dcc 773d 6ee0 8039 d056 463d
00000010: 39fe bcbc 18ae 023d af33 af3d a7ce abbd
00000020: c5d3 a0bd 7605 e6bd f191 833d fbd9 a5bd
00000030: 8506 dc3d 0a0a 93bb 7c96 2abd 6dd7 29bc
00000040: 71bc 12be 146f e0bd b78d a6bd 5c22 803a
00000050: a218 84bd 73cd 223c f6d9 bd3c 5805 813c
00000060: 341f d4bb 72d0 f0b9 bf47 e33d aa0b 47bd
00000070: 68c8 ee3d f02f dd3d 2206 61bd 8507 823d
00000080: 6b10 e43d 0d1f 65bd f9c3 403c 9dc7 8abd
00000090: 68b0 883d 90e9 9a3d ba59 e83d 6333 c43d
000000a0: f377 f93d cc83 c4bd 4979 823d c6a0 5c3c
000000b0: 236e 52bb ca41 d6bc 5520 243d 05d3 acbd
000000c0: d4d1 32bd 17f5 9e3d 74a2 11be 9bfa 36bd
000000d0: 89a4 09be bf39 913d 8048 fabb 52b1 293d
000000e0: c33c af3c 1dce 703b 979c 84bd 6685 e53d
000000f0: 22a9 23bc 59f5 923d d549 56bd 7857 d93d
00000100: 6af7 073c 7d92 133d ca77 22bd 3a44 25bd
00000110: 4435 dabd 8a0c fbbd 17b0 1fbe 350b 513d
00000120: 9ef9 29ba ccfd 2fbc 8553 90bd cefa 31bc
00000130: af74 f7bc 39b2 dd3d 3ffa 8dbd 971d f93c
00000140: 5872 22bd 6502 19bd e29c 8cbd b361 5bbd
00000150: 6087 8b3c a0a1 d3bc 3b4e 053e d721 41bd
00000160: a28d 6ab8 47ea 203d a774 393c 5d62 393d
00000170: 96fa 3ebd 81a7 893d 5637 183d 0463 943d
00000180: 4190 04be 8c59 813b 5e97 b5bd 041f 41bd
00000190: c29a da3d ac1d c63d 00ec bd3b 3e64 283d
000001a0: 84c0 7f3d acbf 1b3d 6c16 32bc 0d5c 85bd
000001b0: 4634 85bc ea01 033e ea43 08be 087c 243d
000001c0: d18f c0bd 0374 c73d 3fa4 843d 17d3 3bbc
000001d0: 4d62 293d 7e52 01bd 7137 e23c c8c6 ccbd
000001e0: ddb8 5ebd 8bdb cf3d ca3a f43b 59d9 003d
000001f0: da66 eb3c cf62 b03b 26c7 d5bd fb40 80bc
00000200: 7946 733d 943b 323d 2fab c7bc f4c4 3dbb
00000210: 247d 8b3b 90d1 183d f2b7 fcbb b187 86bd
00000220: 3aec a6bd 3f38 cdbd 4151 b93d b152 313c
00000230: eeb4 4039 b380 6dbc 23a7 79bd f964 e3bd
00000240: 1556 4bbc db05 07bd d278 403d 7829 01bc
00000250: 1500 523d 9137 5c3d eec3 4cbd 66e8 f53c
00000260: 95f6 4e3d 08b7 8c3d 9694 b03c cda1 cabb
00000270: c276 acbc 51cb c4bc 060d dbbc 56a2 073d
00000280: 33c0 583d 373f 9bbd 8c03 563d e4a0 cdbc
00000290: 8be2 053e c2b7 4cbb c240 3d3d 2100 8b3c
000002a0: 244e d13c 9549 32bd bb6c 40bd 69b9 c53d
000002b0: f3e6 c2bd 8201 d83b 294c 473b 4511 ba3b
000002c0: a809 f93c 163f d0bc 8f49 b6bd e2f3 99bd
000002d0: 07ea f9bc 1659 66bd 7f4b 02bd 9082 333d
000002e0: f3c4 babd 5602 063c 3a25 44bd b68e 843b
000002f0: 0e69 b9bc fb89 cabd fd62 0abd 0cb6 bcbb
00000300: f285 cebc d728 923c 6a90 353c 148c d9bb
00000310: ba66 2cbc b392 debc ee76 f2bc 1a3c 973d
00000320: bce0 abbc 87eb 033b e319 78bc 251c d73c
00000330: 8065 1e3b 758a 303d 9e67 dabc a436 8d3d
00000340: beee a2bc 3e37 f4bc 048c ca3b 6f30 2abd
00000350: fb63 233c 11f6 09bd 3849 193c 9321 b3bd
00000360: 35fa a5bd 8b31 4d3b a73b 0f3d 179f 1c3c
00000370: bff3 c5bc 12b7 513d 0caa 373d 258f 413d
00000380: d9dd 26bd 4564 f63c db42 84bd b5e8 4ebc
00000390: 175b 80bd a8f5 eb3c 696f 153d 18d6 243d
000003a0: 1f12 c6bb b46d 873c db79 71bc 556b 14bc
000003b0: 6575 dfbc daa2 bbbc 4c3d 05bd 6d25 ca3c
000003c0: 1de8 a53a fc3b 293d a791 c73c ad38 28bc
000003d0: d4d1 01bd 7ff5 993c 8885 bd3c d21e 0b3b
000003e0: d1dc 263d b15d 30bc bf79 18ba 2846 39bc
000003f0: 0fbc 68bd 7da2 f53b d4dd d93c ff9a 3ebd
0.047600333 0.06049787 0.00024581276 0.048422635 -0.023070442 0.03190431 0.0855478 -0.08389025
-0.07852892 -0.1123151 0.064243205 -0.08098217 0.10743431 -0.0044872807 -0.04164742 -0.010366303
-0.14329697 -0.109586865 -0.08132499 0.0009775865 -0.06450011 0.009936678 0.023175221 0.015749618
-0.0064734463 -0.0004593167 0.11097669 -0.048595108 0.11659318 0.10800159 -0.05493749 0.063490905
0.11135944 -0.055937815 0.0117654735 -0.067763545 0.06674272 0.0756408 0.11345239 0.09580114
0.121810816 -0.09595451 0.063707896 0.013466066 -0.0032109104 -0.026154418 0.040069897 -0.08438686
-0.04365714 0.07761591 -0.14222127 -0.04467259 -0.13441671 0.07091092 -0.007638037 0.04142887
0.021391278 0.0036743947 -0.0647518 0.11207084 -0.009989055 0.071757026 -0.052316505 0.106123865
0.008298734 0.036028374 -0.03966502 -0.04034827 -0.10654691 -0.12258251 -0.15594517 0.05103608
-0.0006484034 -0.010741662 -0.0704718 -0.010863019 -0.030207006 0.10825009 -0.06932496 0.030409617
-0.039659828 -0.0373558 -0.068658605 -0.05355997 0.017032325 -0.025833905 0.13018124 -0.047151413
-5.5921853e-05 0.039285924 0.011319316 0.045259822 -0.046625696 0.06721402 0.037162147 0.07245448
-0.12945653 0.0039474424 -0.088667616 -0.04714872 0.10674049 0.09673628 0.0057959557 0.041111223
0.062439457 0.03802459 -0.010869604 -0.06511698 -0.016260277 0.12793699 -0.13307157 0.040157348
-0.09402431 0.09738924 0.0647664 -0.011463902 0.041353513 -0.03157281 0.027614327 -0.09998852
-0.054375518 0.101492964 0.0074532973 0.03145728 0.028735567 0.0053828727 -0.10438375 -0.015655985
0.05939338 0.04351385 -0.024373619 -0.0028956505 0.0042568613 0.03730923 -0.0077123577 -0.0656885
-0.081505254 -0.10020494 0.09048701 0.010822938 0.00018377948 -0.014496016 -0.06095041 -0.111032434
-0.01241066 -0.03296457 0.046990223 -0.007883422 0.05126961 0.05376393 -0.04999154 0.030018043
0.050528128 0.06870848 0.021555226 -0.006183839 -0.021052722 -0.02402273 -0.026739608 0.0331138
0.05291767 -0.07580417 0.052249476 -0.025101133 0.130747 -0.0031237458 0.046204336 0.016967835
0.025549956 -0.043527205 -0.046978693 0.09654505 -0.09516706 0.0065919766 0.0030410385 0.005678328
0.030400112 -0.025420707 -0.08900749 -0.0751722 -0.0305071 -0.056237303 -0.03181028 0.043825686
-0.09119596 0.008179268 -0.047887065 0.004045333 -0.022633102 -0.09889599 -0.03378581 -0.0057590064
-0.025210354 0.01784174 0.011081794 -0.006639013 -0.010522539 -0.027169561 -0.029597726 0.0738451
-0.020981185 0.00201294 -0.015142891 0.026258538 0.0024169385 0.043100793 -0.026660737 0.068951875
-0.019889232 -0.029811498 0.006181242 -0.041550096 0.009972568 -0.033681933 0.009355836 -0.08746638
-0.08104364 0.0031310047 0.034969 0.009559414 -0.024164079 0.05119998 0.044839904 0.047255654
-0.040738914 0.03007711 -0.06458064 -0.012628724 -0.06267374 0.028803661 0.036483202 0.04024324
-0.0060446407 0.016531803 -0.014738525 -0.009058793 -0.027277658 -0.022904802 -0.03252916 0.02467605
0.0012657676 0.04131697 0.024361445 -0.010267419 -0.03169425 0.01879382 0.023134962 0.0021228087
0.04073793 -0.010764525 -0.00058164814 -0.01130823 -0.05681997 0.0074961768 0.026595034 -0.046534535

action_model._continuous_distribution.mu.bias f4 [6]
00000000: e198 d33c bd6e f63b d89a 833c 8c0b f1bb
00000010: 65ee 083c ff99 a43c
0.025829734 0.0075205253 0.016065046 -0.007356113 0.008357619 0.020092962

onnx::LSTM_101 f4 [1, 256, 256]
00000000: 63a0 d03d 8421 57bd 42c7 1cbb 2a23 0dbe
00000010: f2e9 6ebd 29a2 853d 1166 d73d b5cd 9dbd
00000020: d467 79bd c6eb 5fbd 2f3e d93d 22d4 c73d
00000030: 3fa4 d13c 8998 1b3b e4ca 88bd 7626 26be
00000040: 73a2 52b9 767b 37bd 6314 90bd f455 4c3d
00000050: 1010 b2bb 4642 b8bd 5cfe 343c e924 313d
00000060: 5153 203d 6362 c6bd 90a1 e13d c744 b1bd
00000070: f8b1 613b 85fe 84bd f6d5 68bd d09a bfbd
00000080: b0b6 e3bd 89a2 2c3d 2bef 873d 243d 433e
00000090: 9b92 313d f98f ecbd 6309 323b 99b8 6dbd
000000a0: 494f e5bc a2ee cdbd 1c5a 033d 0daf 293e
000000b0: 0a05 08be 5a15 e03d 7074 143e e106 073e
000000c0: 7594 6dbd bd33 c3bd 3bd7 c3bd 7d0c 383c
000000d0: e53d 273e 2a94 3fbd 3f8a 7ebc 72b6 bebd
000000e0: 3d70 403c 0d6b b7bd 7b40 d03d 4291 52bd
000000f0: fc86 c0bd ef6e dabc 7b79 05bd 796e d43c
00000100: 9daa 3e3d bf1d fc3c 592f b83c 8106 243d
00000110: ddc4 99bc 28c9 69bd 20d6 35bc 9dd5 f43d
00000120: a80f 56bd ce08 0abe 5cad ae3d 31be b9bd
00000130: 802c 753c 6a55 253b 69a6 153e bd4e 0cbe
00000140: ec37 8cbd 5429 c5bd 3f01 3e3e 9f58 ff3d
00000150: 4f73 ff3d 9a1e e1bd 108c e63c ee0a a8bc
00000160: 717a 713d 91cc 163d 24b9 2dbd 1e4a 04bd
00000170: a7f3 e4bc 553f 7abd 5944 aa3d 7fec 283d
00000180: 8bde 103d 1fe1 c8bd 0317 933d 9aeb 5fbd
00000190: 500a 12be 5583 5d3d d6c6 62bd 66a0 f0bd
000001a0: e9f8 b53d 71eb 643c 0864 bd3d 84bb 7aba
000001b0: 01ce e9bd 7592 303e 13f6 ad3d 56e8 7c3d
000001c0: 9c9d a13d bca2 043e 8e7e 5abc f6f6 413c
000001d0: c0d3 9cbd 36b8 b73d e39d b3bd 6f68 a7bc
000001e0: 2067 1d3e 4ef5 9ebd 7894 2b3c e391 8ebd
000001f0: fcdc e83d 4b89 bd3c 2fad a7bd 2aa1 cd3c
00000200: 58d6 ca3d cf8b 923b c090 6dbd 6196 b33c
00000210: ffcf 403d c788 3f3d f803 c43c c50b 963d
00000220: f592 113c 6def 86bd e193 c13d ad26 893c
00000230: d4e3 1abe 1499 59bc 56b8 a9bd 8549 dcbd
00000240: 52c5 9dbc 9a44 843d 8a5f f13c 2a54 acbc
00000250: b1cf 1ebd 049b 6bbd efc4 25bd 5732 f1bc
00000260: 0dd7 c7bd 9acc 683d b26a c3bd 55a4 c33c
00000270: bf24 87bd 1732 4bbd 2b94 f43b 98fd 8e3d
00000280: b4c3 efbd a85d 353e 9519 a93d e6be 013e
00000290: a72c 5bbd 1096 3e3c 1d58 a93d c8d0 5c3b
000002a0: fcbc ac3c 9720 6ebb 3747 393e 682d e13d
000002b0: e787 28be 403d c8bc 1e1a 4f3d 3400 753d
000002c0: b327 9c3d f485 033d 33f3 963d 8a10 0e3e
000002d0: 1dc3 fabd 0328 fcbd b28d 9ebd 8ac2 26bd
000002e0: 7561 dc3c 0d71 233d 067b 493a b160 5dbd
000002f0: 2f95 9abb d689 673d f8f5 64bd 7e10 323c
00000300: 2839 06be 2ab8 dabd d7c2 58bd 1379 b3bd
00000310: bbe0 0fbe e3ad f6bd 6826 b83d b19b 143e
00000320: 5ae7 ea3d a052 07bd 087a c3bd f071 32bd
00000330: e199 aebd b465 a43d b9c7 ea3d 2c2d c0bd
00000340: c491 c7bd 7b89 7abd 12fb 90bd a830 7abc
00000350: c966 a83c a836 20bd 240f f8bc ed0c 02bc
00000360: 8b28 33bc 6201 ddbd cfa7 4bbc da41 f8bc
00000370: 2722 333d 1f7c c1bb 3c58 cebd 358c ddbd
00000380: 5756 10be 8865 f4bc 27bd 903d 033b 82bd
00000390: da78 bdbd 82b4 ef3d 88f1 0fbe 74a8 f0bc
000003a0: acbf 313d 7d69 9fbc 5a07 183e 24de 7d3d
000003b0: 7501 db3d 7b03 fbbd 728b 613c 2c27 53bd
000003c0: fd14 d03d 1c45 cb3d 8c30 f03d d8f3 9ebd
000003d0: 44d1 26bc 963a eeba 5bc2 a23c 3b8b 9fbd
000003e0: 4f37 cebc 53cb 833c 17df d93d acf9 013d
000003f0: 1e7c 97bc 32e9 393d 303d c1bd cd62 373e
0.10186841 -0.052522197 -0.0023922478 -0.13782945 -0.058328576 0.0652507 0.105175145 -0.07705251
-0.060890034 -0.05466821 0.10607564 0.09757258 0.025591014 0.002374204 -0.06679323 -0.16225609
-0.00020087678 -0.044795476 -0.070351385 0.04988666 -0.0054340437 -0.08997016 0.011046972 0.04324809
0.039141957 -0.096867345 0.11017144 -0.08655696 0.0034438353 -0.06493858 -0.056844674 -0.093557
-0.11118829 0.042147193 0.066374145 0.19066292 0.043352704 -0.11550898 0.002716624 -0.058037374
-0.027991908 -0.10055281 0.032068357 0.16570683 -0.13283172 0.109415725 0.14497542 0.13186218
-0.058002908 -0.09531353 -0.09562536 0.011233446 0.16332205 -0.04677216 -0.01553589 -0.093121424
0.01174551 -0.08955965 0.10168549 -0.05140806 -0.09400746 -0.026664225 -0.032586556 0.025931584
0.04654943 0.030775903 0.022483515 0.040045265 -0.01877063 -0.057076603 -0.011098415 0.11954806
-0.052261025 -0.13479921 0.085291594 -0.09069479 0.014964223 0.0025227913 0.14614262 -0.13701911
-0.06846604 -0.09627023 0.18555163 0.12468075 0.12473165 -0.10992165 0.028142959 -0.020513024
0.05895466 0.036816183 -0.042412892 -0.032297246 -0.027948214 -0.061095554 0.083138175 0.041241165
0.035368484 -0.098085634 0.071821235 -0.054668047 -0.14261746 0.054080326 -0.055365406 -0.117493436
0.088853665 0.013972149 0.09247595 -0.0009564685 -0.11416245 0.17243369 0.084942006 0.06174501
0.0789139 0.12952703 -0.013335837 0.011838665 -0.076575756 0.08970682 -0.08770349 -0.02043554
0.1537137 -0.07761632 0.010472409 -0.069614194 0.113702744 0.023136755 -0.08187329 0.025101263
0.09904164 0.004472233 -0.057999372 0.021922292 0.04707336 0.0467613 0.023927674 0.073264636
0.008885135 -0.065886356 0.09452034 0.016742075 -0.15125972 -0.013281126 -0.082871124 -0.1075621
-0.019259129 0.06458397 0.029464502 -0.021036226 -0.03877229 -0.05752088 -0.040471014 -0.02944295
-0.097578146 0.05683575 -0.09541835 0.02388207 -0.06598806 -0.049608316 0.007463952 0.06981963
-0.11707249 0.17711508 0.082568325 0.12670478 -0.05350938 0.011632457 0.082687594 0.003369378
0.021086209 -0.0036335343 0.18093573 0.10994989 -0.16458093 -0.024443269 0.050562017 0.059814647
0.076247595 0.03211017 0.07370605 0.13873497 -0.12244246 -0.12312319 -0.0774187 -0.04071287
0.02690194 0.039902736 0.00076858734 -0.05404729 -0.004717491 0.056527935 -0.055898637 0.01086819
-0.13107741 -0.10679658 -0.05292019 -0.087633274 -0.14050572 -0.12044885 0.089917004 0.14512517
0.11469908 -0.03303778 -0.0954476 -0.04356569 -0.08525444 0.08027211 0.11463875 -0.09383616
-0.097445995 -0.061166268 -0.07079138 -0.01527039 0.020556824 -0.039114624 -0.030280657 -0.007937652
-0.010934959 -0.107912794 -0.012430145 -0.030304838 0.043733742 -0.005904689 -0.10075423 -0.10817758
-0.14095436 -0.02983357 0.07067328 -0.06358912 -0.09251566 0.11704351 -0.1405698 -0.0293772
0.043395683 -0.01945948 0.14846554 0.061979428 0.10693637 -0.12256523 0.0137661565 -0.05155103
0.10160253 0.09925291 0.117280096 -0.07761353 -0.010181729 -0.0018175419 0.019868067 -0.07790228
-0.025172858 0.016088163 0.10638254 0.031732246 -0.0184918 0.045388408 -0.09435499 0.17908783

onnx::LSTM_102 f4 [1, 256, 64]
00000000: 14f1 0a3e 4c69 583e 21f7 6a3d 421f 8cbd
00000010: a9a0 19be 0130 33be a5e1 2ebd 6215 2b3e
00000020: 2e59 05be 2643 523e b315 eb3c 7145 13be
00000030: f057 20be 4208 443e 283f 4d3e 103d e4bd
00000040: 4b93 4fbd 9863 ed3d f454 3ebe c18a 55bd
00000050: 3433 0cbd 6fd3 683d dfcf 03be d42e 103e
00000060: 7db1 053e 651a c33d 4acd 823d 88f9 643d
00000070: ba04 e3bb 03a9 0cbe c70c 18be 23b2 95ba
00000080: 0c16 39be a512 3e3e 49b2 2cbc 7cc7 72bb
00000090: a3b6 913c 5e81 6c3d d93e 1abe d95a bfbd
000000a0: 2a7d e73d b8ae 2f3e 53f5 ff3b e7f9 193d
000000b0: 02c2 3a3e 2b8c 28be e0aa 19be afcb 393e
000000c0: 3862 2ebd 12ba 40be 3611 323e cb13 3ebe
000000d0: 7ade fabd bab2 053d 7d2f 3b3e 917b dfbd
000000e0: f857 4abd 164d 713d 1487 10be 5e2a 4a3d
000000f0: b9f9 c63d 09a4 babd 7363 77bd 9bc8 abbd
00000100: dedc 1c3e b647 f1bd ab77 573d 4710 ed3d
00000110: cb82 10be 06e7 b83d 96e4 efbc bb5e d7bd
00000120: 77ea d93c a7d0 c23d 1741 083e e881 27bd
00000130: d104 ccbd 05f6 babd 1409 2d3e 44d0 22be
00000140: b4d8 3b3e 71e1 e23d c0b6 1dbd 3b5d cf3d
00000150: 5787 0dbe fb41 0f3e 5418 7d3e f194 883d
00000160: 0bf5 b3bd e894 5e3e 425b d33d 2d0b 64bd
00000170: 246e 57bd e71b 293e aa69 b73d d118 1fbe
00000180: 2aab 403e 837e ae3d 9434 133d ca05 1d3e
00000190: 0535 223e ff56 b8bd 79ae b63a 56fa 5f3e
000001a0: 5e14 743c ae67 fd3d 85b7 40bd b599 cabd
000001b0: bba4 eabc 62c4 783d 43d0 05be f410 dabd
000001c0: dc60 babd d1bc 553e ff3f d1bd 8521 42bd
000001d0: 2976 863d b25c 76bd c1ae b23d bc3f 29be
000001e0: 39d8 60be 818e 7bbc cd03 59be 9dde 143e
000001f0: d7c4 1e3d 371c 093e 7a93 27be 1056 673d
00000200: bfa8 34be 683e 193e d94e 21bd 0292 973d
00000210: a07e 1fbd f408 16be 4def 0dbe aedd 0cbe
00000220: 0c7e d3bd b2ad 333e d433 69bd f733 aa3d
00000230: a880 1ebe e1e3 d43d 0863 1b3b 39e5 1bbe
00000240: 5c87 0e3c b07e 49be cb8b f8bc e3b9 c2bd
00000250: ed71 13be 3461 033d aec5 20be 4f6f 7c3d
00000260: dd7f 203e 2ed1 f63d b946 5bbe 4c9c 16be
00000270: 139a 55be 40b1 493d 9659 6a3d ccd6 88bd
00000280: 2f83 3f3c ffcf fbbc 9744 e8bc 8d42 433d
00000290: 459b 1bbe 38f8 24bd 5b55 1fbd 2e4d 1c3e
000002a0: 770c d2bd 9000 e5bd 16bc 22be 5986 04be
000002b0: afd4 f2bc 7e68 853c 0253 21be 9e62 debd
000002c0: 5ff7 943d 3ea9 ccbd 7357 1e3e c777 79ba
000002d0: f7d6 3cbe 09c5 f93d bf6b 3dbe e9fb d5bd
000002e0: c9ef 20be f848 c83c dda5 4b3e 59e5 283e
000002f0: 9b65 e13c 1b89 c13d 52f7 3d3e 7c49 ad3c
00000300: 080f 12bd 0ba2 123e c7e1 303e be5b 4a3e
00000310: e0e7 113d 1e5e 903c 1750 963d ff6d 90bd
00000320: 9b13 71bc c132 0ebe b92d 73be 1981 34be
00000330: 3278 873d 07b8 f3bd c3ca 0cbe c352 843d
00000340: 117c bebd f3bb 203e 43b1 c4bb 1679 e6bd
00000350: 9335 1f3c ecd8 693d 67e6 013e a483 80bd
00000360: e6ab cc3d d30c c1bd f0cb 4dbe 400a 153e
00000370: a359 d6bd db23 ef3d 2ab6 7d3d 5911 b4bd
00000380: c1f2 4dbe ada6 4dbc 94ea 033e 0cea d3bd
00000390: 0d45 a6bd 4bbb 9b3c b746 e03d 61a5 d53d
000003a0: 1dbd 1abe 6a73 2a3d c2be a33d bdcc b7bd
000003b0: daf9 343e 8928 dbbd 2e8d 24be 88b3 f33d
000003c0: 31ac d23d bd24 59be 00fa a33d fbaf 34bc
000003d0: 4b47 97bd 1b82 363e 5c23 713e 0394 0abd
000003e0: 49fe fd3d f463 863d 0664 853d 5ad3 f2bd
000003f0: 43ad 0e3e 2822 8dbc e3e4 e93d d9ca 4bbd
0.13568527 0.21133918 0.057364587 -0.068418995 -0.15002693 -0.17498781 -0.04269566 0.16707376
-0.130223 0.20533428 0.02869687 -0.14381959 -0.15658545 0.19143775 0.20043623 -0.11144459
-0.05067758 0.115912616 -0.18587095 -0.05213428 -0.03422852 0.056842264 -0.12872265 0.14080364
0.13055988 0.09526519 0.06386812 0.055902034 -0.0069280537 -0.13736348 -0.14848624 -0.0011420887
-0.18074816 0.185618 -0.010540553 -0.0037045171 0.017787283 0.05774056 -0.15063037 -0.093435
0.1130317 0.17156494 0.0078112273 0.03759184 0.1823807 -0.1645972 -0.1500659 0.18144105
-0.042574137 -0.1882098 0.17389378 -0.18562238 -0.12249465 0.03264115 0.18279834 -0.1091224
-0.0494003 0.058911406 -0.14114028 0.04935681 0.097155996 -0.091133185 -0.060397577 -0.08387872
0.15318629 -0.11781256 0.05260436 0.1157537 -0.14112394 0.09028439 -0.029283803 -0.10516115
0.02660106 0.095124535 0.1330608 -0.040895373 -0.09961856 -0.09128956 0.16897994 -0.1589976
0.18344384 0.11078156 -0.038504362 0.10125204 -0.1382116 0.13990013 0.24716312 0.06669033
-0.087869726 0.2173649 0.103201404 -0.05567472 -0.052595273 0.1651455 0.08955701 -0.1553681
0.18815294 0.08520224 0.035938814 0.1533424 0.15840538 -0.09000968 0.0013937495 0.2187284
0.014897434 0.12373291 -0.047050018 -0.098925985 -0.028643003 0.06073416 -0.13067727 -0.10647765
-0.09100506 0.20872809 -0.102172844 -0.047395248 0.06565506 -0.060146995 0.08724738 -0.16528219
-0.21957482 -0.0153538 -0.21192856 0.14538045 0.03876194 0.1338967 -0.16364852 0.05647856
-0.17642497 0.14965212 -0.039381836 0.07400896 -0.03893912 -0.14651853 -0.13860817 -0.13756439
-0.10326776 0.17546728 -0.056934193 0.08310693 -0.15478766 0.10395027 0.002371015 -0.1522416
0.008699264 -0.19677234 -0.030340096 -0.09508111 -0.14398928 0.032075122 -0.15700409 0.06162959
0.15673776 0.120516166 -0.21413697 -0.1470806 -0.20859556 0.049241304 0.057214342 -0.06681594
0.011688991 -0.030738829 -0.028353019 0.04767089 -0.1519595 -0.040275782 -0.03889976 0.15263817
-0.10256284 -0.11181748 -0.15892062 -0.12941875 -0.029642431 0.016285177 -0.15754321 -0.108586535
0.07273745 -0.09993218 0.15463047 -0.00095164444 -0.18441378 0.121957846 -0.18498133 -0.10448439
-0.15716471 0.024448857 0.1988749 0.16493739 0.02751427 0.09449979 0.18551376 0.021153204
-0.035658866 0.14319627 0.17273627 0.1976156 0.035621524 0.017623004 0.07339495 -0.0705223
-0.014714147 -0.13886549 -0.2374791 -0.17627372 0.06614722 -0.11900335 -0.13749222 0.06461098
-0.093010075 0.15696697 -0.0060025766 -0.11253564 0.009717363 0.05709164 0.12685548 -0.062751085
0.099937245 -0.09426274 -0.20097327 0.14554691 -0.104663156 0.11676761 0.061941303 -0.08792371
-0.20112135 -0.012551946 0.12882453 -0.10347375 -0.08118639 0.019010207 0.10950988 0.10431934
-0.15111203 0.041613974 0.079953685 -0.089745976 0.17673436 -0.10701091 -0.16069481 0.11899477
0.10286749 -0.21205421 0.08006668 -0.011028285 -0.07386645 0.17823069 0.23548645 -0.03383256
0.12402017 0.06562033 0.065132186 -0.11856718 0.13933282 -0.017228201 0.1142061 -0.049753997
