code/selfparking/mla/results/test_08/Car/Car-2999978.onnx (onnx, 692944 bytes, 10 tensors)

network_body._body_endoder.seq_layers.0.weight f4 [256, 91]
0	0xbcbfceb1	-0.023413988
1	0xbd3fc45c	-0.046818122
2	0xbe1929e7	-0.1495739
3	0x3d261d44	0.040555254
4	0x3cdebe73	0.027190423
5	0xbc371803	-0.011175158
6	0xbd8d61d1	-0.069034226
7	0xbe25a2ac	-0.16175336
8	0xbb714e8d	-0.0036820502
9	0x3d43d89c	0.047813997
10	0x3e50043e	0.20314118
11	0x3d1ab916	0.037774168
12	0x3c0860fe	0.008323906
13	0x3e6dafb2	0.23211554
14	0x3af56afb	0.0018723899
15	0xbe76c82d	-0.24099799
16	0xbdbe7559	-0.09299726
17	0x3c69942a	0.0142565165
18	0x3bc8b235	0.0061247596
19	0xbc46cbae	-0.012133522
20	0x3de9427a	0.113896325
21	0xbd00b313	-0.03142078
22	0x3e580db2	0.21098974
23	0x3e20ce16	0.15703616
24	0xbc9380f6	-0.01800583
25	0xbe47692e	-0.19473717
26	0xbda45318	-0.080236614
27	0xbd337526	-0.043812893
28	0xbe375eb0	-0.17907214
29	0x3cbb96fd	0.022899145
30	0x3d8d5293	0.069005154
31	0xbcad5e83	-0.02116323
32	0xbbd96a9a	-0.0066350223
33	0xbcad5dae	-0.021162834
34	0xbd6ec861	-0.058296565
35	0xbd8866b4	-0.06660214
36	0x3e933e61	0.2875853
37	0xbc5d27db	-0.013498272
38	0xbe0080e9	-0.12549175
39	0xbd957aa1	-0.0729878
40	0xbc58eb52	-0.0132396985
41	0xbd5bf0af	-0.05369633
42	0xbc42cc0e	-0.011889471
43	0xbd29aed0	-0.04142648
44	0xbd01fb97	-0.031734075
45	0x3df5fbca	0.120109156
46	0xbe80d05a	-0.2515896
47	0x3c639f39	0.013892942
48	0xbc6a145e	-0.0142870825
49	0xbcd99b8f	-0.026563434
50	0xbdbe1a1f	-0.09282326
51	0xbdea62f9	-0.11444659
52	0xbe3e0cd3	-0.1855958
53	0xbe3305fd	-0.17482753
54	0x3e35abbf	0.17741297
55	0xbcd8ca5d	-0.026463682
56	0x3d9762e7	0.07391911
57	0x3e126175	0.1429499
58	0xbdc34366	-0.095343396
59	0x3d8c8a78	0.06862348
60	0xbcad086b	-0.021122178
61	0x3e21a936	0.15787205
62	0x3ddf9ac0	0.10918188
63	0x3be42b8e	0.0069632
64	0x3d6bfa59	0.057611797
65	0x3e42fbea	0.1904141
66	0x3cb1ebad	0.021718824
67	0x3d48b8ca	0.049004354
68	0xbe375a0a	-0.17905441
69	0xbd4472b6	-0.04796096
70	0xbc9a0ba3	-0.018804377
71	0x3dbcb165	0.09213523
72	0x3d285e9e	0.04110586
73	0xbc93e71b	-0.018054536
74	0xbca2ecfc	-0.019888394
75	0xbdb7ebb8	-0.08980507
76	0x3dcfa0d5	0.10138098
77	0x3cb8dbab	0.022565683
78	0x3ce232dc	0.027612142
79	0x3a63fbbb	0.00086968736
80	0xbd196761	-0.037452105
81	0x3dc857bd	0.0978236
82	0xbe3c89c2	-0.18411925
83	0x3dc98bd4	0.09841123
84	0x3cd3ff9b	0.025878718
85	0xbc8d566c	-0.017253123
86	0x3e0a38fe	0.13498303
87	0x3c8d531e	0.017251547
88	0xbe54c1bc	-0.20777029
89	0x3e0c3cd3	0.13695078
90	0xbdcb7ada	-0.099355415
91	0xbd86e758	-0.06587094
92	0xbd0c7cf1	-0.03429884
93	0x3dfd8164	0.12378195
94	0xbbf777b8	-0.0075521134
95	0xbc8ccb3f	-0.017186759
96	0xbd7aafa0	-0.061202645
97	0x3c163429	0.009167709
98	0xbd8f69ae	-0.07002579
99	0xbe3304d7	-0.17482315
100	0x3e44d701	0.19222642
101	0x3d47d8ce	0.048790745
102	0x3db40c63	0.08791425
103	0xbe2f7c8c	-0.17137355
104	0x3dc9a599	0.09846038
105	0x3cc5f8e2	0.024166528
106	0xbe8d641a	-0.27615434
107	0xbe420096	-0.18945536
108	0xbd89ad30	-0.06722486
109	0xbc0df9c4	-0.008665506
110	0x3e671c70	0.22569442
111	0x3cff23e9	0.031145053
112	0xbd3bbbcf	-0.045833405
113	0x3d73a2f6	0.059481584
114	0xbe1e66a4	-0.15468842
115	0x3e0e5848	0.13900864
116	0x3d8191f1	0.06326664
117	0x3ddadd36	0.10686724
118	0xbd9bcaf6	-0.07607071
119	0x3d9596f4	0.07304183
120	0x3dde923b	0.10867735
121	0x39888f5e	0.00026046758
122	0xbe6a4d3a	-0.22881022
123	0x3b94486d	0.0045252354
124	0x3db86608	0.09003836
125	0x3d06c142	0.03289915
126	0xbd291e96	-0.041288935
127	0xbdd2c8b2	-0.10292186
128	0x3db62d71	0.08895386
129	0x3d6b0bec	0.057384416
130	0xbdcc89b2	-0.09987201
131	0x3d17e2ac	0.037081406
132	0x3e086f9c	0.13323826
133	0x3dcdc416	0.10047166
134	0xbd8947ba	-0.06703134
135	0x3caa69a8	0.020802334
136	0xbd019e3e	-0.031645052
137	0x3cc7e669	0.02440186
138	0x3d238edf	0.039931174
139	0xbda8ab7a	-0.082358316
140	0x3bf2ee65	0.0074136727
141	0xbb482d89	-0.003054472
142	0x3c93b9ea	0.018032987
143	0xbdce5e63	-0.100765966
144	0xbce83385	-0.028344879
145	0x3dab540c	0.0836564
146	0x3d97a419	0.07404346
147	0xbcee55aa	-0.029093582
148	0xbe3a399e	-0.18186042
149	0xbe4c868c	-0.199732
150	0xbda8c252	-0.08240189
151	0x3d164493	0.03668649
152	0xbe0c3ad4	-0.13694316
153	0xbdd47787	-0.103743605
154	0x3ba69032	0.0050831074
155	0xbe256cf6	-0.16154847
156	0x3d81d5e3	0.06339624
157	0x3c1ee817	0.009698889
158	0xbc942a42	-0.018086556
159	0x3dcd81ba	0.10034509
160	0x3d671105	0.056412715
161	0x3c4bee77	0.012446991
162	0x3d0271fc	0.031846985
163	0xbd2d4aad	-0.042307544
164	0x3ca6e6a8	0.020373657
165	0xbde3bb38	-0.111196935
166	0xbc03b3bd	-0.008038458
167	0xbe14ee5d	-0.14544053
168	0xbdce3260	-0.10068202
169	0x3dade7cc	0.08491477
170	0x3dd881db	0.10571643
171	0x3bb19ac3	0.0054200604
172	0x3e220098	0.15820539
173	0xbc5c104e	-0.013431622
174	0x3dc7b90e	0.09752093
175	0x3d629dbd	0.055326212
176	0xbde0fe2b	-0.10985979
177	0xbc15c6e8	-0.009141661
178	0x3cdd78da	0.027035166
179	0x3d069451	0.03285629
180	0x3ca2a388	0.019853368
181	0x3dd65c05	0.1046677
182	0x3ce05aec	0.027387105
183	0xbd0e7ddb	-0.034787994
184	0xbe12405e	-0.14282367
185	0x3e40562f	0.18782876
186	0x3e1b562a	0.15169588
187	0x3c3f736f	0.011685236
188	0x3d8e059f	0.06934666
189	0xbd9e1fea	-0.07720931
190	0x3e20e533	0.15712433
191	0xbc479462	-0.012181373
192	0x3db16271	0.08661354
193	0x3ca675d8	0.020319864
194	0x3d88846b	0.06665882
195	0x3dcf520a	0.101230696
196	0x3c9af9e4	0.018917985
197	0x3dfd2964	0.1236141
198	0xbe02da69	-0.1277863
199	0x3d686e9d	0.056746114
200	0x3df8595a	0.121264175
201	0x3ca2cb89	0.019872444
202	0x3d0dbb56	0.034602486
203	0x3e47fd7a	0.19530287
204	0xbe24698e	-0.16055891
205	0x3d5896b4	0.052878097
206	0xbd157702	-0.036490448
207	0xbc3cd2b7	-0.011524848
208	0x3e2c08f4	0.1680029
209	0x3da6a0d5	0.08136145
210	0x3d6e6089	0.05819753
211	0xbc91e626	-0.017809939
212	0x3ddea657	0.108715706
213	0xbcf7f214	-0.030266799
214	0xbc97f238	-0.018548116
215	0xbd2b4377	-0.041812386
216	0xbe0b713b	-0.13617413
217	0xbcac6118	-0.021042392
218	0x3e2893d5	0.16462643
219	0xbd403675	-0.046926934
220	0x3e19a2af	0.15003465
221	0xbdb1a60b	-0.08674248
222	0x3d9ca29e	0.07648204
223	0x3de0dc4f	0.109795205
224	0x3d0c42f0	0.034243524
225	0xbc3eaad4	-0.011637408
226	0xbd3d21c0	-0.046174765
227	0xbd60b2fb	-0.05485819
228	0x3e511b4d	0.2042057
229	0x3ddd9b29	0.1082061
230	0xbbe09f38	-0.006854918
231	0x3db46169	0.08807642
232	0xbd6f95b6	-0.058492385
233	0x3e18b6f4	0.14913541
234	0x3d54f1d9	0.051988456
235	0xbd8bf06c	-0.06832966
236	0x3e08cd5c	0.13359588
237	0x3d29ff96	0.04150351
238	0xbd106d4f	-0.035260495
239	0xbd5d89d7	-0.054086532
240	0xbd2a1ef1	-0.041533414
241	0xbd84556a	-0.06461604
242	0x3c1cdf63	0.009574744
243	0x3e268482	0.16261485
244	0xbd30e12c	-0.04318349
245	0xbdace3a4	-0.084418565
246	0xbdeec098	-0.11657828
247	0x3bd2afd4	0.0064296518
248	0xbcc1e659	-0.023669409
249	0xbc56b143	-0.013103786
250	0xbd4a0a9b	-0.04932652
251	0x3c980544	0.018557198
252	0xbe137a83	-0.14402203
253	0xbcf00ce3	-0.02930302
254	0xbe053acd	-0.13010712
255	0x3e0b6dd0	0.13616109

network_body._body_endoder.seq_layers.0.bias f4 [256]
0	0xbb97d919	-0.0046340344
1	0x3ba7b802	0.005118371
2	0x3c9f2886	0.019428503
3	0x3c2cae5b	0.010539616
4	0xbb49e52f	-0.003080677
5	0xbb019882	-0.001977474
6	0xbb44955f	-0.0029996259
7	0xba2fae8a	-0.00067017286
8	0xbc395b96	-0.01131334
9	0x3a5766ba	0.00082169066
10	0x3cb9faf1	0.022702666
11	0xbbf8892d	-0.007584712
12	0x3c4399c8	0.01193852
13	0xbc25b6b6	-0.010114362
14	0xbb83a83b	-0.0040178574
15	0xbc183d0a	-0.009291897
16	0x3be1662e	0.006878636
17	0xbb8e1a19	-0.004336607
18	0x3c948d94	0.018133916
19	0xbb1fa8ca	-0.002436208
20	0x3c0aa872	0.008463012
21	0xba59cf21	-0.00083087577
22	0x3bdaa1ae	0.0066721058
23	0x3b5d1412	0.0033733887
24	0xba8e7820	-0.001086954
25	0xbc438b32	-0.011935042
26	0x3bf138f7	0.007361527
27	0x3c366ead	0.011134786
28	0xbbea9bd5	-0.00715969
29	0xbc201bcd	-0.009772253
30	0xba8aa789	-0.0010578494
31	0xbc4da356	-0.012551149
32	0xbb37aa68	-0.0028025154
33	0x3c97e57a	0.01854204
34	0x3b2664db	0.0025389704
35	0x3be8910d	0.0070973695
36	0xba94e7c1	-0.0011360572
37	0x3be45ae6	0.0069688438
38	0x3c10b725	0.008832728
39	0x3b83daed	0.0040239007
40	0x3c998b78	0.018743262
41	0x3ac75ed6	0.0015210758
42	0x3ac7c547	0.0015241288
43	0xbbf6fbe8	-0.007537354
44	0xb8d31e5a	-0.000100669175
45	0x3bdfa6c6	0.006825301
46	0xbbec1cef	-0.0072055976
47	0x3b92f283	0.004484476
48	0xbc6f1265	-0.014591788
49	0x3c8d2ea3	0.017234152
50	0x3c26d61d	0.0101828845
51	0x3b3bcb4f	0.0028655117
52	0x3bb93aa2	0.0056527415
53	0xbc1b79c9	-0.009489485
54	0x3bf94fd2	0.0076083923
55	0xbb5f9d7e	-0.0034120972
56	0xbb53f935	-0.0032344584
57	0x3bb1e15d	0.0054284767
58	0xbc6cf330	-0.014462277
59	0xbc55c485	-0.013047342
60	0x3c004c15	0.007830639
61	0xbb7fb85f	-0.0039019806
62	0x3c2ad2ab	0.010426204
63	0x3cd63148	0.026146546
64	0x3bcb9e2d	0.0062139244
65	0xbc3c8561	-0.011506409
66	0xbaece33b	-0.0018073091
67	0x3be88c23	0.0070967837
68	0xbb8396be	-0.0040157726
69	0xbb936e3f	-0.0044992263
70	0xbc4bb27f	-0.0124326935
71	0x3b542c37	0.0032374987
72	0xbbf198eb	-0.0073729656
73	0x3c2be165	0.01049075
74	0xbbce53f0	-0.006296627
75	0xbb7b54e8	-0.0038350169
76	0x3c3c8c3b	0.011508043
77	0x3b3bb4b7	0.002864165
78	0x3cc2c2dd	0.023774559
79	0xbc521dae	-0.012824459
80	0xbb5cdc84	-0.0033700773
81	0x3a9d9230	0.0012021717
82	0xbc3f9071	-0.011692152
83	0xba6f3391	-0.00091248105
84	0x3c19a46c	0.00937758
85	0x3c1989d1	0.009371237
86	0xbbb4ef45	-0.005521687
87	0x3b14d8e2	0.002271228
88	0x3ad6448f	0.0016347336
89	0x3be89967	0.007098365
90	0xbba6a6b2	-0.0050857896
91	0x3c52f7c9	0.012876459
92	0x3ba7e8fa	0.0051242085
93	0xbc9cf08f	-0.019157676
94	0x3c21541f	0.009846716
95	0x3c6265a4	0.013818178
96	0x3cab301a	0.02089696
97	0xb9f821e3	-0.00047327494
98	0x3c8aba1a	0.016934443
99	0xbc2f68b4	-0.0107061155
100	0xbc5392ed	-0.012913448
101	0xbad60a4a	-0.0016329971
102	0xbc1b835e	-0.00949177
103	0x3be10e06	0.006868127
104	0xbb8f8fe1	-0.0043811654
105	0xbbc650c7	-0.00605211
106	0xbb73b118	-0.0037184414
107	0x38575328	5.133744e-05
108	0x3b3b0e76	0.0028542555
109	0x3b35a550	0.0027716942
110	0x3bd25a44	0.006419452
111	0xbb4ac008	-0.0030937213
112	0xbb5636a6	-0.0032686382
113	0xbc7e6106	-0.015526062
114	0x3ae2181c	0.0017249617
115	0xbaaf151f	-0.0013357735
116	0x3afb7ad0	0.0019186381
117	0xbaf8cecb	-0.0018982528
118	0xbaa85ee7	-0.0012845666
119	0x3b9a5082	0.0047093043
120	0xbb45bc9a	-0.003017223
121	0xbb209e4b	-0.0024508412
122	0x3c3ad3d8	0.011403047
123	0x3bdc7fff	0.0067291255
124	0xbc3f787d	-0.0116864415
125	0x3bb6c1a4	0.005577283
126	0x3a55fe5f	0.00081632094
127	0x3b5f7168	0.0034094695
128	0xbc4ceeef	-0.012508138
129	0x3c162c3a	0.009165818
130	0xbab4f905	-0.0013807124
131	0xbb7e1994	-0.003877257
132	0xbbc97b19	-0.0061487076
133	0xbc165bc1	-0.009177149
134	0x3a186548	0.0005813432
135	0xbab1cb65	-0.0013564645
136	0xbc492c24	-0.01227859
137	0x3c187a83	0.009306553
138	0x3c30a689	0.010781893
139	0x3a493d5d	0.00076766853
140	0x3c85e7df	0.016345916
141	0x3c239e19	0.009986424
142	0xbbbcbde0	-0.0057599396
143	0xbba9b61d	-0.0051791803
144	0xbb6862eb	-0.003545935
145	0x3bbbae41	0.00572756
146	0xbb637e12	-0.0034712595
147	0xbbc0075f	-0.0058602537
148	0xbc143009	-0.009044656
149	0x3b6e0b83	0.003632278
150	0x3c30496b	0.010759692
151	0xbc96a351	-0.018388422
152	0xbc678ef6	-0.014133206
153	0x3c87de02	0.016585354
154	0x3c330b20	0.010927945
155	0xbc26003b	-0.010131891
156	0x3b33e563	0.0027449958
157	0x3bb90ee6	0.005647528
158	0xbbccf100	-0.0062543154
159	0xbb901e8c	-0.0043981727
160	0x3addd280	0.0016923696
161	0x3b0657db	0.0020499143
162	0xbbb09f7c	-0.005390106
163	0x3bcf4def	0.006326429
164	0xbb36a7d9	-0.002787104
165	0x3c3dfbb5	0.011595656
166	0x3996ad44	0.00028739322
167	0x3b4a3f33	0.0030860424
168	0xbb6d901b	-0.0036249224
169	0x3af8cf12	0.001898261
170	0x3c06c020	0.008224517
171	0x3c370df4	0.01117276
172	0x3c84ef16	0.016227286
173	0x3aa84d24	0.0012840373
174	0xbc12997a	-0.0089477245
175	0xbb982343	-0.0046428754
176	0x3b672a26	0.0035272925
177	0xbb7dd8a1	-0.0038733857
178	0x3b77aa5b	0.0037790749
179	0xbad2481d	-0.001604322
180	0x3b86d16c	0.0041143205
181	0xba937b9d	-0.001125205
182	0x3bf58465	0.0074925893
183	0xbaa88816	-0.001285794
184	0x3c656963	0.014002177
185	0x3c72492f	0.014787956
186	0x3c32c906	0.010912186
187	0x3b8a6e5d	0.004224582
188	0x3bf83333	0.007574463
189	0x3ad77abb	0.0016439775
190	0x39f14173	0.00046015866
191	0x3bd46468	0.006481696
192	0x3ac1f144	0.0014796634
193	0xbbeba70a	-0.0071915435
194	0xbbb3748a	-0.005476539
195	0x3c688de5	0.014193987
196	0x3b883564	0.0041567553
197	0xba826faa	-0.0009951491
198	0xbc1f0ffb	-0.0097084
199	0x3b2a8b38	0.0026022922
200	0x3b9d0917	0.0047923434
201	0xba7013e0	-0.0009158235
202	0x3ba06204	0.004894497
203	0xbb2048c0	-0.0024457425
204	0x3c7c3191	0.015392677
205	0x3c6c2df0	0.014415249
206	0xbb606f30	-0.003424596
207	0x3c836c1f	0.016042767
208	0x3b94ba4c	0.00453881
209	0x3c21341a	0.009839082
210	0xb8d3e00c	-0.00010102996
211	0x3b103986	0.0022006943
212	0x3c024d89	0.007953056
213	0xb3877c00	-6.308983e-08
214	0x3ba0cf9a	0.0049075605
215	0x3c036477	0.008019558
216	0xbbd6759b	-0.0065447814
217	0xbb9cdae9	-0.0047868383
218	0xbc2592b2	-0.010105776
219	0xbc0e2c70	-0.008677587
220	0x3b352846	0.0027642413
221	0x3bd5a864	0.006520318
222	0xbc01cdb2	-0.007922577
223	0xba937f94	-0.0011253231
224	0xbb976cc9	-0.0046211225
225	0xbc08f441	-0.008359016
226	0x3b0bc9d7	0.0021330023
227	0xbc0ebc6f	-0.008711918
228	0x3c18741d	0.009305027
229	0x3c9052b5	0.017617563
230	0x3b5d3d8d	0.003375861
231	0x3cd7ccf1	0.02634284
232	0x3c0b2453	0.008492547
233	0xbbfea074	-0.0077705923
234	0xbad78006	-0.0016441352
235	0x3b29ed8f	0.002592895
236	0xbc84cf28	-0.016212061
237	0x3b455efb	0.0030116427
238	0x39e38c31	0.00043401265
239	0xb80dcdaa	-3.380856e-05
240	0xbbe8232f	-0.0070842723
241	0xbbd16af2	-0.0063909227
242	0x3c8be122	0.017075125
243	0x3c41917c	0.011814471
244	0xbbb4254e	-0.005497611
245	0x3ca4427a	0.02005123
246	0x3c0e35ec	0.008679848
247	0xb8d53917	-0.00010167265
248	0x3aa0b271	0.0012260211
249	0x3c2f3ca7	0.010695613
250	0x3b52eb02	0.0032183533
251	0xbc73bdd8	-0.014876805
252	0x3bd4140e	0.0064721173
253	0xbc70d012	-0.014698045
254	0x3bbb9f37	0.005725767
255	0x3ab0749c	0.0013462487

network_body._body_endoder.seq_layers.2.weight f4 [256, 256]
0	0x3d2f5cd1	0.042813126
1	0xbce166ee	-0.027514901
2	0xbced376c	-0.028957091
3	0xbc39cc97	-0.011340282
4	0x3d1d0817	0.038337793
5	0xbc1a8109	-0.009430178
6	0x3d71d7f6	0.059043847
7	0x3bec8e6e	0.0072191274
8	0x3d718eab	0.05897395
9	0xbda81b64	-0.08208349
10	0xbd44bdec	-0.048032686
11	0x3d4b608b	0.049652617
12	0x3d43c7bf	0.047797915
13	0x3db66809	0.08906562
14	0xbb57f0cb	-0.003294992
15	0x3d8e5771	0.06950272
16	0xbd8b9051	-0.068146355
17	0xbcd592d0	-0.026070982
18	0xbb811613	-0.003939399
19	0xbd8151bc	-0.06314418
20	0x3cce68ae	0.0251964
21	0xba657c04	-0.00087541365
22	0x3e450f6d	0.19244166
23	0xbcf100b8	-0.029419288
24	0x3dc0b496	0.09409444
25	0x3d1aaaa0	0.037760377
26	0x3dbca8b9	0.09211869
27	0xbd63fd92	-0.055661745
28	0x3d7f17cc	0.062278554
29	0x3dc1abe3	0.09456613
30	0x3da702ef	0.081548564
31	0x3d8473a8	0.06467372
32	0xbdbb2888	-0.0913859
33	0x3b1b608b	0.0023708667
34	0x3a677e09	0.00088307314
35	0xbda7eb6e	-0.081992015
36	0xbd5a4302	-0.05328656
37	0xbbb453e3	-0.005503164
38	0x3d2e074a	0.04248742
39	0xbc941a93	-0.018079078
40	0x3de6ea82	0.112751976
41	0x3cd5b00e	0.026084926
42	0x3c37c73b	0.011216934
43	0xbd8f40d0	-0.06994784
44	0xbb0637d6	-0.0020480058
45	0xbd3b6c6b	-0.045757692
46	0x3d555e52	0.052091904
47	0x3d713750	0.05889064
48	0x3dd3e1f0	0.103458285
49	0x3d13dc81	0.03609896
50	0x3cc4d1ca	0.024025816
51	0x3d96beb5	0.07360593
52	0x3c2e7be9	0.01064966
53	0xbe3c1059	-0.18365611
54	0x3dd80d23	0.10549381
55	0x3da31b42	0.079641834
56	0xbd5d4f77	-0.05403086
57	0xbd3a57d6	-0.045493923
58	0x3c0a853c	0.008454617
59	0x3d94f0f4	0.07272521
60	0xbd79b443	-0.060962927
61	0xbd83a4e4	-0.06427935
62	0xbca06a39	-0.0195819
63	0xbd91d167	-0.071200185
64	0x3d32da6d	0.04366534
65	0x3d39ac6c	0.04533045
66	0x3b774445	0.00377299
67	0x3dc49d95	0.09600369
68	0xbd666bd5	-0.05625518
69	0x3e07417f	0.13208579
70	0x3d5cf5b8	0.053945273
71	0xbdb26594	-0.08710781
72	0xbde86723	-0.11347797
73	0xbd2cb9cc	-0.042169377
74	0x3cfe4e7a	0.03104328
75	0x3db8dd3d	0.09026573
76	0xbca99f6f	-0.020705907
77	0xbc6c13e4	-0.014409039
78	0xbd525644	-0.0513518
79	0xbd8299b2	-0.06376971
80	0x3b7e5545	0.0038808149
81	0x3d91ab6d	0.07112775
82	0x3c3fafb7	0.0116996085
83	0xbcb75f99	-0.022384452
84	0xbd88a036	-0.06671183
85	0xbd486f5a	-0.048934318
86	0x3a894d70	0.0010475349
87	0x3e02d5ba	0.12776843
88	0x3d38e900	0.04514408
89	0x3da152db	0.078771316
90	0xbd70f380	-0.05882597
91	0x3d1e2cb5	0.038616855
92	0xbd840d6d	-0.06447873
93	0xbdb2268a	-0.08698757
94	0xbbd2e104	-0.0064355154
95	0xbd12478b	-0.03571276
96	0x3d90ea11	0.070758946
97	0x3d6b70d5	0.057480652
98	0x3d5302fd	0.05151652
99	0xbd39a744	-0.045325533
100	0x3d831071	0.0639962
101	0x3d8da21e	0.06915687
102	0x3c89bfd2	0.0168151
103	0x3cde8b4c	0.027166031
104	0xbc46e66e	-0.0121399
105	0xbc686907	-0.014185197
106	0xbcc0dd0e	-0.023542907
107	0x3d4e38f4	0.050347283
108	0x3cc93d9c	0.02456551
109	0xbd3db61b	-0.046316247
110	0xbddf60aa	-0.10907109
111	0xbd143a22	-0.036188252
112	0xbd52730b	-0.051379245
113	0x3dc8f668	0.09812623
114	0x3d696977	0.056985345
115	0xbc4204b7	-0.011841944
116	0xbd443b98	-0.047908396
117	0xbae11298	-0.0017171679
118	0x3c0ea45e	0.00870618
119	0x3cb1e33c	0.0217148
120	0x3d93a1a2	0.072085634
121	0x3e2c386f	0.16818403
122	0x3cf9563e	0.030436631
123	0xbcff8e58	-0.031195804
124	0xbc7c8894	-0.015413422
125	0x3cfce841	0.030872466
126	0x3de5648f	0.11200821
127	0xbd47f546	-0.048817895
128	0xbdc3a88a	-0.09553631
129	0xbc9a7983	-0.01885677
130	0x3d687fba	0.056762435
131	0xbadc2fea	-0.0016798947
132	0xbe243760	-0.16036749
133	0x3d0d89d0	0.034555256
134	0x3a04fa04	0.00050726556
135	0x3c6cfbab	0.014464299
136	0xbd4c5dec	-0.04989426
137	0xbd922e0c	-0.07137689
138	0xbd753bda	-0.059871532
139	0xbdce4def	-0.100734584
140	0x3dd66b1e	0.1046965
141	0xbda3a920	-0.079912424
142	0xbcb07c65	-0.021543691
143	0xbd169589	-0.0367637
144	0x3c132f17	0.008983395
145	0xbdc79376	-0.09744923
146	0x3c7b166f	0.015325173
147	0xbdaf263d	-0.08552215
148	0x3d4cd078	0.0500035
149	0xbcb02f88	-0.02150704
150	0xbcc6f29c	-0.024285607
151	0xbdd51e9c	-0.10406229
152	0x3d50a603	0.05093957
153	0xbdb18b9d	-0.08669207
154	0x3cb92ca2	0.02260429
155	0x3bf183e4	0.007370459
156	0x3d213f19	0.039366815
157	0x3d1e60b1	0.03866643
158	0x3d6ece8d	0.05830245
159	0xbca4fd8a	-0.020140428
160	0xbd843402	-0.06455232
161	0xbcf8ae97	-0.030356688
162	0xbc54873c	-0.0129716955
163	0xbc86de8c	-0.01646354
164	0xbdea4c03	-0.11440279
165	0xbd5b8e01	-0.053602222
166	0x3d9ad193	0.07559504
167	0x3c0b591a	0.00850513
168	0xbb805dd1	-0.003917434
169	0x3d65179c	0.05593072
170	0xbd111fb9	-0.035430644
171	0x3d56f6a4	0.05248131
172	0xbb7a54f2	-0.0038197604
173	0xbd8d11f9	-0.06888194
174	0xbd5d2a7c	-0.053995594
175	0x3e23c2e9	0.15992321
176	0xbd43d465	-0.047809977
177	0x3daea946	0.0852838
178	0x3d137724	0.036002293
179	0xbca79d2f	-0.020460693
180	0xbd324430	-0.04352206
181	0xbe15f47c	-0.14644045
182	0x3da9c089	0.08288676
183	0xbd735bc1	-0.059413675
184	0x3d490bfe	0.049083702
185	0xbcfb0be9	-0.030645328
186	0x3d6efd96	0.058347307
187	0x3d5f9522	0.054585584
188	0xbbb82b83	-0.0056204214
189	0xbb7f254b	-0.003893214
190	0xbbac906a	-0.005266239
191	0x3d80dbcc	0.06291923
192	0x3d2f1896	0.042748056
193	0x3d82a35e	0.06378816
194	0xbd6b6b36	-0.05747529
195	0xbcefac5a	-0.029256988
196	0x3d58dd10	0.052945197
197	0x3d3d50f3	0.046219777
198	0x3d64d27b	0.055864792
199	0x3dd33e7b	0.103146516
200	0xbe02ae53	-0.12761812
201	0x3be0cb56	0.006860177
202	0x3b033911	0.0020023028
203	0x3cdf9b61	0.02729577
204	0x3d0d5455	0.034504253
205	0xbcfbc61d	-0.030734116
206	0xbd64ab45	-0.055827398
207	0xbcb64f3c	-0.022254579
208	0xbc958ac9	-0.018254654
209	0xbd255d53	-0.040372204
210	0x3d6f97b1	0.058494274
211	0xbdb3ac6a	-0.0877312
212	0xbd2f8ca5	-0.04285874
213	0xbc4259e8	-0.011862256
214	0x3d4b1ce9	0.049588118
215	0xbd316a9c	-0.04331456
216	0x3d58389c	0.052788362
217	0xbd42c7c8	-0.047553807
218	0xbdd45516	-0.10367791
219	0x3db8a2c1	0.09015418
220	0x3c828a50	0.015935093
221	0x3bfae3d0	0.007656552
222	0x3e189734	0.1490143
223	0x3dfc3dc3	0.123164676
224	0xbd8bb068	-0.06820756
225	0xbcaf3ca0	-0.021391213
226	0xbdc526f0	-0.09626567
227	0x3d92f71b	0.07176038
228	0x3dc31088	0.095246375
229	0xbd887d98	-0.0666458
230	0xbd4f497a	-0.050607182
231	0x3d38dcae	0.04513233
232	0x3c71c120	0.014755517
233	0x3d26067e	0.040533535
234	0xbe1be055	-0.15222295
235	0x3d5795f3	0.052633237
236	0x3dcfcce7	0.10146504
237	0x3c23702a	0.009975472
238	0x3d74af89	0.059737716
239	0xbcf4af66	-0.029868793
240	0xbd177c60	-0.036983848
241	0xbca63029	-0.020286636
242	0xbb861d22	-0.0040928284
243	0x3daf15ed	0.08549104
244	0x3c1e1574	0.0096486695
245	0x3c9bdef7	0.019027216
246	0x3d00ec11	0.03147513
247	0x3df0dd64	0.11760977
248	0x3bc7cb6a	0.006097247
249	0x3d3db8e1	0.046318892
250	0xbcacac25	-0.021078179
251	0xbd803963	-0.06260946
252	0x3c843ca2	0.016142193
253	0xbccadd6f	-0.02476379
254	0xbc0bd608	-0.008534916
255	0xbbdd679a	-0.006756735

network_body._body_endoder.seq_layers.2.bias f4 [256]
0	0xbc45b1e5	-0.012066339
1	0x3c8812c3	0.016610509
2	0xbbbb784f	-0.005721129
3	0x3c2d800a	0.010589609
4	0x3b7c21e2	0.0038472344
5	0xbb176eba	-0.002310677
6	0xbc3fe207	-0.011711604
7	0x3c9815a7	0.018565012
8	0xbb68210b	-0.0035420086
9	0x3bcb5121	0.0062047397
10	0xbbea194f	-0.0071441303
11	0x3c514d0e	0.012774719
12	0x3b865da8	0.00410052
13	0x3a606b12	0.00085608766
14	0x3ba4dd7f	0.005031287
15	0x3a4ebb25	0.0007886163
16	0x3baf3379	0.005346712
17	0xbb12d9b8	-0.0022407603
18	0x3b29e975	0.0025926505
19	0x3b49bfd5	0.0030784507
20	0xba119aaa	-0.0005554358
21	0x3b74f497	0.0037377232
22	0xbac44bb7	-0.0014976178
23	0xbc0c0436	-0.008545926
24	0xbb877bf0	-0.0041346475
25	0xbb3b83bc	-0.0028612455
26	0x3bd9c647	0.006645951
27	0x3badd8cd	0.0053053857
28	0x3b3ce9fa	0.0028825984
29	0x3b2efa84	0.0026699612
30	0xbc87a15e	-0.016556438
31	0x3a1ecf4e	0.00060581125
32	0x3a9ab1ad	0.0011802219
33	0x3c0a85a2	0.008454712
34	0x3c437fc3	0.011932316
35	0x3991af3e	0.0002778712
36	0xbb1ea314	-0.002420609
37	0xbc243732	-0.010022925
38	0xbc4b4e14	-0.012408752
39	0x3c1dec01	0.009638787
40	0x3c62ee3c	0.013850745
41	0xbc0f406a	-0.008743385
42	0x3a056a8e	0.0005089425
43	0x3c006be5	0.007838224
44	0xbc46df46	-0.0121381935
45	0xbc212333	-0.009835052
46	0xbb05042e	-0.002029668
47	0xbab023b8	-0.0013438379
48	0xbac646e3	-0.0015127327
49	0x3c06f0d1	0.008236126
50	0xbb17b3ac	-0.0023147864
51	0x3abe863d	0.0014535856
52	0xbafdd10a	-0.0019364667
53	0x3be976f3	0.0071247756
54	0xbc421745	-0.011846368
55	0xbc6c6260	-0.014427751
56	0x3c299a6b	0.0103517575
57	0x3b683593	0.0035432323
58	0xbc47fc96	-0.012206217
59	0x3c47e505	0.012200599
60	0x3b856893	0.004071304
61	0x3a590714	0.0008278948
62	0x3aafafd6	0.0013403844
63	0x3c67abc1	0.01414007
64	0x3b580ae3	0.0032965473
65	0x3ba0ad0b	0.004903441
66	0xbc456b7a	-0.01204955
67	0xbc7c69c2	-0.015406074
68	0x3b14f8b9	0.0022731258
69	0x3c3ffa24	0.011717353
70	0x3c4cb890	0.012495175
71	0xbb8607dc	-0.0040902924
72	0x3baae171	0.005214863
73	0xbb7fec60	-0.0039050803
74	0xbb2f8220	-0.0026780441
75	0xbbcaf0b3	-0.0061932444
76	0xbc1b26ba	-0.009469682
77	0xbc5feac5	-0.013666813
78	0xbb6b99f7	-0.0035949924
79	0xba42765c	-0.00074181496
80	0xbb535c54	-0.0032251077
81	0x3c72a601	0.014810086
82	0xbc848e9a	-0.016181279
83	0x3be69109	0.0070363325
84	0xba79e822	-0.00095331867
85	0xbb3e3491	-0.0029023031
86	0x3ba46271	0.005016618
87	0x3b848e8f	0.0040453146
88	0xbaf4bb40	-0.0018671528
89	0x3c68a797	0.014200113
90	0x3b238b37	0.0024954805
91	0x3be43cd4	0.006965259
92	0xbb402eb0	-0.0029324703
93	0xbc0ceeae	-0.008601828
94	0x3c372007	0.0111770695
95	0x3b873ce5	0.0041271322
96	0x3c75adf2	0.014995085
97	0x3b254daf	0.0025223305
98	0x3cbaf207	0.022820486
99	0xba960ee7	-0.0011448533
100	0xbc429860	-0.011877149
101	0xbaa000d6	-0.001220728
102	0xbbe2b10e	-0.006918079
103	0xbbd3039c	-0.0064396393
104	0x3b475a76	0.003041891
105	0x3c0496f2	0.008092629
106	0x3b289adc	0.002572707
107	0xbb3cc8e9	-0.0028806275
108	0x3ca27da4	0.0198353
109	0x3b8a2587	0.0042158994
110	0xbb1caa60	-0.0023905262
111	0x3c16934e	0.009190394
112	0xbb028e7d	-0.0019921355
113	0xbb09b74c	-0.0021013794
114	0x3c2f05cb	0.0106825335
115	0x3abd1128	0.0014424669
116	0xbc5f9c9b	-0.0136481775
117	0xbc4106a2	-0.011781367
118	0xbba8a621	-0.0051467572
119	0x3bfdf23b	0.0077498234
120	0x3aa2840c	0.0012398972
121	0xbbe1b8c6	-0.006888482
122	0xbbe513d3	-0.0069908886
123	0x3bdbba95	0.006705592
124	0xbc0ab9fe	-0.008467196
125	0x3b59d0ef	0.0033236106
126	0xb879ee7e	-5.958834e-05
127	0xbbb6ddfc	-0.005580662
128	0x3c041823	0.008062395
129	0xbb6639d4	-0.0035129683
130	0x3c803c08	0.015653625
131	0xbb8dd40f	-0.004328258
132	0xbb4a576a	-0.0030874857
133	0x3aec4679	0.0018026374
134	0x3b2aa937	0.0026040801
135	0xbc46b8ab	-0.012128989
136	0x3c908291	0.017640384
137	0xbb7ecff6	-0.0038881279
138	0xbbb4d262	-0.0055182436
139	0xbb1fe9db	-0.0024400863
140	0x3a4a0a9a	0.0007707268
141	0xbb352ae2	-0.0027643968
142	0x3c08e03e	0.008354245
143	0xbbec47d5	-0.0072107115
144	0x3bbcb34c	0.0057586785
145	0xbc22deff	-0.009940862
146	0xb9c4cc00	-0.00037536025
147	0xba5daa85	-0.00084558903
148	0xbc01f4f7	-0.007931939
149	0x3c7c9e8a	0.015418658
150	0x3c1251b8	0.008930616
151	0xba9cf220	-0.0011974014
152	0xbb595842	-0.0033164178
153	0xbbacbfd3	-0.0052718907
154	0xbc202ea3	-0.009776744
155	0x3c00b69a	0.007856036
156	0x3b11ea6d	0.0022264973
157	0x3a36bbfd	0.00069707615
158	0x3c5c6fea	0.013454417
159	0x3c6f860b	0.014619361
160	0xbba561ea	-0.0050470727
161	0xba0aa476	-0.0005288789
162	0x3b6235f6	0.0034517027
163	0x3bec36b0	0.0072086677
164	0x3b30b8b5	0.0026965563
165	0x3b6a9a88	0.0035797674
166	0x3baa2be7	0.005193222
167	0xbc40c6e6	-0.011766171
168	0x3bdb22a5	0.0066874796
169	0x3c427824	0.011869464
170	0x397706e4	0.00023558323
171	0xbaf05922	-0.001833711
172	0xb962fbeb	-0.00021646886
173	0xbc8ea2cb	-0.01741161
174	0xba8bd6c8	-0.0010668868
175	0x3bf53ad0	0.0074838176
176	0xba858691	-0.0010187199
177	0x3c74c1a7	0.014938748
178	0x3c5994a3	0.013280067
179	0x3bc6887c	0.0060587507
180	0x3be02f2e	0.0068415618
181	0xbb96f895	-0.00460727
182	0x3b1dddda	0.0024088533
183	0x3b88b2cd	0.0041717053
184	0xbac921c4	-0.0015345146
185	0x3c5b2788	0.013376124
186	0xbbd979e0	-0.006636843
187	0x3c100be5	0.008791898
188	0x3b689039	0.0035486354
189	0xbbebf58d	-0.007200903
190	0x3c3de000	0.01158905
191	0x38bbe7b3	8.960012e-05
192	0x3c043ac3	0.0080706505
193	0xbc5c4ecc	-0.013446521
194	0x3c1561cf	0.009117558
195	0x3b4bce04	0.0031098137
196	0x3a915618	0.001108828
197	0xbbbfe3b3	-0.0058560013
198	0xbc87bb89	-0.016568916
199	0x3bb5c62e	0.0055473065
200	0x3bb165b2	0.0054137344
201	0xbbca4fe7	-0.006174076
202	0xbbf7458b	-0.007546132
203	0x3c01786b	0.007902245
204	0x3c20aec6	0.009807294
205	0x3c8902e0	0.016725004
206	0xbbd78c40	-0.0065779984
207	0x3a922a5d	0.0011151541
208	0x3b408665	0.002937698
209	0xbb519dd2	-0.0031984937
210	0xbafa61d8	-0.0019102646
211	0xbb5ccb38	-0.0033690464
212	0xbba1e030	-0.0049400553
213	0xbb1b19ce	-0.0023666504
214	0x3be2224d	0.0069010616
215	0x3c479803	0.0121822385
216	0x3c4108b5	0.011781861
217	0xbbbb6d99	-0.005719852
218	0x3b75195e	0.0037399153
219	0xbba593b9	-0.0050530103
220	0x3b809c5f	0.003924891
221	0xbba8e697	-0.0051544416
222	0xbc0b85c3	-0.008515778
223	0xbb558e35	-0.0032585983
224	0x3c6aef6c	0.014339309
225	0x3a8b4597	0.0010625598
226	0xba7662cb	-0.00093988766
227	0xbc0cd347	-0.008595294
228	0x3a2ff0f5	0.00067116256
229	0xbb3a8fd2	-0.0028467071
230	0xbba1df58	-0.0049399547
231	0xbc224c29	-0.009905853
232	0x3b7205b5	0.0036929671
233	0xbb2297ac	-0.0024809642
234	0x3ab1ebfa	0.0013574355
235	0x3a3d1b71	0.0007213867
236	0xba6c6571	-0.00090178015
237	0x3bc80554	0.006104151
238	0x3a1a4c99	0.0005886048
239	0x3c1f13b8	0.009709291
240	0x3bdf94de	0.0068231663
241	0x3bc1e433	0.005917096
242	0xbb5f1f71	-0.003404584
243	0x3bb88027	0.0056305113
244	0xbb0977fd	-0.002097606
245	0xbc7cce6e	-0.015430076
246	0xbbd0b60a	-0.006369357
247	0x3b50e180	0.003187269
248	0xbbb4a425	-0.0055127316
249	0x3aa56ab0	0.0012620296
250	0xbc05dcdb	-0.008170332
251	0xbb3d2b78	-0.002886502
252	0x3ba1ae78	0.0049341284
253	0xbc3b82ff	-0.011444806
254	0xbb3b6f36	-0.0028600222
255	0xbb421db6	-0.002961976

action_model._continuous_distribution.log_sigma f4 [1, 6]
0	0x3d2f4670	0.042791784
1	0x3db32f24	0.08749226
2	0x3d9222e0	0.07135558
3	0x3d9a21a4	0.07525948
4	0x3d563e69	0.052305613
5	0x3dabea21	0.08394266

action_model._continuous_distribution.mu.weight f4 [6, 64]
0	0x3c6dd8bf	0.014517008
1	0x3d2cf833	0.04222889
2	0x3aa2321d	0.0012374554
3	0xbb927ee7	-0.0044706943
4	0xbd0287f3	-0.031867933
5	0xbc83ee50	-0.016104847
6	0x3b06b3cc	0.0020553945
7	0xbbc2b375	-0.005941803
8	0xbc538bec	-0.012911778
9	0x39b600ed	0.00034714435
10	0x3b46d61b	0.003034002
11	0x3d83549c	0.06412622
12	0xbbaca48e	-0.00526864
13	0x3c9d86a3	0.019229239
14	0xbcec4499	-0.028841304
15	0xbd18cc3d	-0.03730415
16	0xbc990331	-0.01867828
17	0x3c750b2a	0.014956275
18	0x3c38db9b	0.011282827
19	0x3ac13fb8	0.0014743721
20	0xbd1a4eb1	-0.037672702
21	0xbc84f629	-0.01623066
22	0x3d223288	0.03959897
23	0xbbc6dd01	-0.006068826
24	0x3cca12b7	0.024667127
25	0x3ca6d103	0.020363336
26	0xbc462c36	-0.012095502
27	0x3ce938f9	0.02846955
28	0x3c9a9e0a	0.018874187
29	0x3d514c72	0.051098295
30	0xbd32b611	-0.043630663
31	0x3c518e57	0.012790284
32	0x3d6959a7	0.056970265
33	0xbc6be005	-0.014396672
34	0x3a329dbb	0.0006813665
35	0xbbe3d101	-0.0069524054
36	0xbbd5276c	-0.0065049436
37	0x3d2662b1	0.040621463
38	0x3d251e5c	0.040312156
39	0xbd0a9037	-0.03382894
40	0xbd1342d7	-0.035952415
41	0xbd427b95	-0.04748114
42	0xbd23c1bd	-0.039979685
43	0xbc305c62	-0.010764213
44	0xbc84fac9	-0.016232865
45	0x3c4a44b5	0.012345483
46	0xbcee1a75	-0.02906535
47	0xbb2e839c	-0.0026628738
48	0xbcac2fec	-0.021018945
49	0x3b891fdc	0.004184706
50	0x3d8b07c8	0.067885935
51	0x3d36560a	0.044515647
52	0x3c068035	0.008209278
53	0xbc8f9351	-0.0175263
54	0xbcd11b28	-0.025525644
55	0xbd231644	-0.039816156
56	0x3d05300a	0.032516517
57	0xbc614126	-0.013748443
58	0x3c8680ce	0.01641884
59	0xbd178370	-0.036990583
60	0xbc9d13f0	-0.019174546
61	0x3c947bb7	0.018125398
62	0xbce7ede2	-0.028311674
63	0xbb8c9d7f	-0.004291236
64	0x3c9d0af0	0.019170254
65	0xbc2b4e90	-0.0104557425
66	0x3d097c1e	0.033565633
67	0xbd1af938	-0.03783533
68	0xbca4d56c	-0.020121299
69	0xbaa8d1f9	-0.001287996
70	0x3d00d337	0.03145143
71	0xbc2fe3e6	-0.010735488
72	0xbad510ce	-0.0016255619
73	0x3cd38b05	0.025823126
74	0x3cbf94aa	0.023386318
75	0xbca94f2a	-0.020667631
76	0x3b37e7b2	0.0028061685
77	0x3c5f4de8	0.013629414
78	0xbcd27b0c	-0.025693439
79	0x3b1d105d	0.0023966052
80	0xbc9426fe	-0.018085
81	0x3d3143bc	0.043277487
82	0x3cfcc213	0.03085426
83	0xbc8db15c	-0.017296486
84	0xbd886ec6	-0.06661753
85	0xbd1b0b76	-0.037852727
86	0x3c6257e9	0.013814905
87	0x3c0c32e9	0.00855706
88	0x3b756f41	0.0037450346
89	0x3d3c2fcc	0.04594402
90	0x3d8d1efd	0.06890676
91	0xbbfc691f	-0.007702961
92	0x3c9ab650	0.018885761
93	0xbc5c3b7b	-0.013441916
94	0x3b7ad826	0.0038275807
95	0xbd35a006	-0.044342063
96	0xbce69788	-0.028148428
97	0xbd379a2a	-0.044824757
98	0xbb9313e1	-0.0044884537
99	0xbd3f7ed4	-0.046751812
100	0xbc99b995	-0.01876525
101	0x3bcf79b7	0.006331648
102	0x3c969d65	0.018385598
103	0xbd0a8790	-0.03382069
104	0x3cb619a5	0.022229025
105	0x3bbe2641	0.0058029
106	0xbd0b82f0	-0.03406042
107	0xbc0cbc2b	-0.008589785
108	0xbc3b3e9f	-0.011428504
109	0xbd06949e	-0.032856576
110	0xbd38a330	-0.045077503
111	0xbca14018	-0.019683883
112	0xbbf50fd1	-0.007478692
113	0xbbf7db7e	-0.0075640073
114	0x3a94d45f	0.0011354795
115	0xbc1841b2	-0.009293007
116	0x3a66b63e	0.000880096
117	0x3cdc6ea3	0.026908224
118	0x3b2f1a78	0.0026718657
119	0x3d091a96	0.03347262
120	0x3ca4d8e8	0.02012296
121	0xbd0c014d	-0.034180928
122	0x3ca1c6d4	0.019748129
123	0xbcfdc952	-0.030979786
124	0xbcae724c	-0.021294735
125	0x3c68abb2	0.014201092
126	0x3b4e8014	0.0031509446
127	0xbcb07341	-0.021539332
128	0x3b591ffa	0.0033130632
129	0xbc847fdc	-0.01617425
130	0xbd674692	-0.056463785
131	0x3c65d8d3	0.014028746
132	0x3d13b25a	0.03605876
133	0x3c8f3494	0.017481126
134	0xbce06d02	-0.027395729
135	0x3d286a3e	0.041116945
136	0x3cf5db00	0.030011654
137	0x3c7614b4	0.015019584
138	0xbcb4f623	-0.022090023
139	0xbd3d5221	-0.046220902
140	0x3d43e340	0.047824144
141	0xbcc43edf	-0.02395576
142	0xbc50f214	-0.012753028
143	0xbd3b0916	-0.045662962
144	0xbc185c3e	-0.009299336
145	0xbc8b2417	-0.016984982
146	0xbcb64161	-0.022247972
147	0xbba3bbee	-0.004996768
148	0xbc73a5ee	-0.014871104
149	0x3bf10ec0	0.0073564947
150	0x3ba2c39c	0.004967166
151	0x3d00e440	0.031467676
152	0xbd3351d6	-0.043779217
153	0xbb585427	-0.0033009143
154	0x3c103e4a	0.008803913
155	0x3b9f9d46	0.0048710434
156	0xbb548417	-0.0032427364
157	0xbd9593cf	-0.07303583
158	0xbc4858d9	-0.012228214
159	0xbca81c96	-0.020521443
160	0xbce6b8a0	-0.028164208
161	0x3d622ebb	0.055220347
162	0xbcfa73bf	-0.03057277
163	0xbc8b353a	-0.016993154
164	0x3cfab0d5	0.030601898
165	0x3c19fcb4	0.009398628
166	0x3d3e40fd	0.046448696
167	0x3d10cbed	0.03535073
168	0xbcc11f90	-0.02357462
169	0xbd2cf909	-0.042229686
170	0xbca5e301	-0.020249845
171	0x3cd46d71	0.025931092
172	0x3c4d99cb	0.012548874
173	0xbc35d688	-0.0110985115
174	0x3c55e5d2	0.013055282
175	0x3d00e348	0.031466752
176	0x3cf8fb13	0.030393159
177	0x3bc3271a	0.005955589
178	0xbc8c17c3	-0.017101174
179	0xbc3e36ad	-0.011609715
180	0xbcb34063	-0.021881288
181	0x3c955fca	0.018234152
182	0xbd5ba378	-0.053622693
183	0xbd4c69ea	-0.049905695
184	0xbbefcf36	-0.0073184026
185	0x3b6fb9f3	0.003657934
186	0xbccb02dd	-0.024781639
187	0xbd147daf	-0.036252674
188	0x3d4c345d	0.049854625
189	0xbbdb1736	-0.0066861166
190	0xbcd8ff94	-0.026489057
191	0x3cffe277	0.031235917
192	0xbcf00031	-0.029296966
193	0xbbde9ccf	-0.0067935954
194	0x3cc6eee3	0.024283832
195	0x3d13d834	0.03609486
196	0xbca6655a	-0.020312
197	0xbb16c74f	-0.002300698
198	0x3b0bc91c	0.0021329587
199	0x3d20dbcb	0.03927211
200	0x3c9edfba	0.01939379
201	0x3d38071b	0.04492865
202	0x3c91f75c	0.017818145
203	0x3d7c80ff	0.061646458
204	0xbc6c22ee	-0.014412625
205	0xbd80fcf6	-0.062982485
206	0xbd58ea61	-0.052957896
207	0xbd4509f4	-0.048105195
208	0xbd2ce351	-0.042208973
209	0xbd4dc182	-0.05023337
210	0x3cbec207	0.023285879
211	0xbc42b05c	-0.011882868
212	0xbca40c3d	-0.020025367
213	0x3c2e2be6	0.010630583
214	0xbd0df526	-0.03465762
215	0x3cd9ef87	0.026603473
216	0xbcc10298	-0.023560807
217	0xbd084aad	-0.03327434
218	0x3c44ef95	0.012020011
219	0x3d1c37b9	0.03813908
220	0xbd8dc318	-0.06921977
221	0x3d00376d	0.03130286
222	0x3cf48968	0.029850677
223	0xbd2a5879	-0.04158828
224	0x3cf5519c	0.029946141
225	0xbcd0688e	-0.02544048
226	0xbc9d069e	-0.019168194
227	0xbbcd9782	-0.0062741647
228	0xbca39c8a	-0.019972105
229	0x3d06462d	0.03278177
230	0x3cae1fab	0.021255335
231	0xbcf31ecc	-0.029677771
232	0xbbd8afba	-0.006612745
233	0xbd14273a	-0.036170222
234	0x3da390d5	0.07986609
235	0xbcd9c9eb	-0.02658554
236	0xbd4f1e81	-0.0505662
237	0x3c440b5a	0.011965597
238	0x3d5ca839	0.053871367
239	0xbb9cf8f8	-0.0047904216
240	0x3c8dc45f	0.017305551
241	0xbd0da597	-0.034581747
242	0xbc3149b5	-0.010820796
243	0xbda2ac08	-0.079429686
244	0xbd8159c8	-0.063159525
245	0xbcc29f13	-0.023757493
246	0xbcbdf67e	-0.023188826
247	0xbd2fc41b	-0.04291163
248	0xbc3ef7d0	-0.011655763
249	0xbc20f49a	-0.009823943
250	0xbd8b734a	-0.06809099
251	0xbcfd7f10	-0.030944377
252	0x3cc781fc	0.024353974
253	0xbd02b2ad	-0.03190868
254	0xbd3b0cb1	-0.0456664
255	0xbc2cf02b	-0.010555307

action_model._continuous_distribution.mu.bias f4 [6]
0	0x3c0ae57e	0.008477567
1	0xbbe9c1a7	-0.007133681
2	0x3bb6be1b	0.0055768616
3	0x3cee4e5c	0.029090099
4	0xba0b4eef	-0.0005314191
5	0xbcb3fcb9	-0.021971093

onnx::LSTM_101 f4 [1, 256, 256]
0	0x3db75502	0.08951761
1	0x3d930d86	0.07180314
2	0x3da388b2	0.07985057
3	0xbdb6d70a	-0.08927734
4	0xbdd680d5	-0.104737915
5	0x3d0a7062	0.033798583
6	0xbdaade9a	-0.08343239
7	0x3d4fd3db	0.05073915
8	0x3da2e393	0.079535626
9	0x3da5701e	0.08078025
10	0x3c40ab85	0.011759643
11	0xbd8ca0b7	-0.068665914
12	0xbcac11ea	-0.021004636
13	0xbdd70ef1	-0.10500897
14	0x3bba6451	0.005688228
15	0x3d467138	0.048447818
16	0x3d369f3a	0.044585444
17	0x3e03fc3a	0.12889186
18	0x3d80b942	0.06285335
19	0xbc83ffd5	-0.016113201
20	0xbcd20aff	-0.025640009
21	0x3e0d1467	0.13777314
22	0x3dfcbec3	0.123410724
23	0x3d724d6d	0.05915587
24	0x3ddad45d	0.10685036
25	0xbe19a3af	-0.15003847
26	0x3dab97c9	0.0837856
27	0x3d8ff975	0.07030002
28	0x3d5b406e	0.05352824
29	0xbde8dcb0	-0.11370218
30	0xbd344aea	-0.044016756
31	0x3b0ea1c0	0.002176389
32	0x3bc9ba6f	0.006156258
33	0x3d859cd3	0.065240525
34	0x3c6a707e	0.014309047
35	0x3dceee09	0.10103995
36	0x3cad5cb0	0.02116236
37	0xbdd90535	-0.10596696
38	0xbdc17a53	-0.094471596
39	0x3c40c1b9	0.011764937
40	0xbd9b83a3	-0.07593467
41	0xbd2216f5	-0.039572675
42	0xbd250e84	-0.040297046
43	0xbdb7156f	-0.08939635
44	0xbde6ad60	-0.112635374
45	0xbce44247	-0.027863635
46	0x3ce54abd	0.02798974
47	0xbd47cdbe	-0.048780195
48	0x3e126162	0.14294961
49	0x3da50afb	0.08058735
50	0x3d8256e1	0.06364227
51	0x3e069b3e	0.13145158
52	0x3d8933a2	0.06699301
53	0x3cea7fb8	0.028625354
54	0x3db2bec7	0.08727794
55	0xbd012b7b	-0.031535607
56	0x3dec583c	0.11540267
57	0xbd7bbd76	-0.06145998
58	0xbd1b5fe2	-0.037933238
59	0x3c90302b	0.017601093
60	0xbe00a2b3	-0.12562065
61	0x3e019bd8	0.12657106
62	0x3b36497a	0.0027814792
63	0x3d23798c	0.039910838
64	0x3d99a390	0.075019
65	0x3de85218	0.11343783
66	0x3da95621	0.08268381
67	0xbd0b44f5	-0.03400131
68	0xbdc846d7	-0.09779137
69	0x3d9b79e8	0.07591611
70	0x3cbf8db4	0.023382999
71	0x3d2d4f1a	0.042311765
72	0x3e09d347	0.13459502
73	0x3d0c2737	0.034217086
74	0xbd01cd24	-0.031689778
75	0x3dc94c1f	0.09828972
76	0x3c52929f	0.01285234
77	0xbd8a08f8	-0.06739992
78	0x3d30965a	0.043112136
79	0x3e0ceeb2	0.1376293
80	0x3dd150ae	0.102204666
81	0xbd6a494c	-0.057198808
82	0xbdedc0fe	-0.11609076
83	0x3d32d042	0.04365564
84	0xbdf414bd	-0.11918018
85	0x3d9c6309	0.07636077
86	0xbc8be00c	-0.017074607
87	0x3df9a9ba	0.12190576
88	0x3db49bcb	0.08818778
89	0xbcb9fa0b	-0.022702238
90	0xbdbd2ec2	-0.09237434
91	0x3df13e5d	0.11779473
92	0x3de78016	0.11303727
93	0xbdf2385d	-0.11827157
94	0x3e01b48b	0.12666528
95	0xbda21817	-0.07914751
96	0x3b58adf5	0.003306267
97	0xbd43188a	-0.047630824
98	0x3d555b15	0.052088816
99	0xbdc27f09	-0.09496886
100	0x3d3367c9	0.04380015
101	0xbca7dce7	-0.020491077
102	0x3e011650	0.12606168
103	0x3d9a0d5a	0.07522078
104	0xbd7703da	-0.060306408
105	0x3db03e5c	0.08605644
106	0x3d91cca2	0.07119109
107	0xbdc49e9f	-0.09600567
108	0xbd817a4a	-0.06322153
109	0x3d0b4f51	0.03401119
110	0x3d399eed	0.04531758
111	0x3e0347dd	0.12820382
112	0xbd73cb9d	-0.059520353
113	0x3d13e0d3	0.03610308
114	0x3beb4029	0.0071792793
115	0xbdd7c048	-0.105347216
116	0x3c423a23	0.011854681
117	0xbb18ac81	-0.002329618
118	0x3d7d9047	0.06190517
119	0xbdc6db15	-0.09709755
120	0x3c0e8489	0.008698591
121	0x3c51540d	0.012776387
122	0x3d880981	0.06642438
123	0x3cdbb413	0.026819265
124	0x3d89d7f0	0.0673064
125	0xbc31de4f	-0.010856225
126	0xbdb3d5ba	-0.087809995
127	0x3daf1874	0.08549586
128	0x3e02f905	0.12790306
129	0xbdaddba5	-0.084891595
130	0x3c315e92	0.01082577
131	0xbd81caf0	-0.063375354
132	0xbd9d6562	-0.07685353
133	0xbd39adf6	-0.045331918
134	0x3bc89c2b	0.0061221323
135	0xbe0b1918	-0.13583791
136	0xbdb97329	-0.09055168
137	0x3de37ac1	0.11107398
138	0x3d81c05e	0.06335519
139	0x3d075fb2	0.033050247
140	0x3de79018	0.113067806
141	0xbdc6b155	-0.09701792
142	0x3ca143be	0.019685622
143	0x3ce3fff4	0.027832009
144	0x3d5ef9da	0.054437496
145	0x3dedb63e	0.116070256
146	0xbdd2ccf1	-0.10292996
147	0x3ddd5859	0.108078666
148	0xbde421a8	-0.11139232
149	0xbe063813	-0.13107328
150	0x3daa96f9	0.08329577
151	0x3d034dbb	0.03205655
152	0x3dd36925	0.10322789
153	0xbd805708	-0.062666
154	0xbd11f0f9	-0.0356302
155	0xbd8b710e	-0.06808673
156	0x3de2c296	0.110722706
157	0x3d966cc1	0.07344962
158	0xbdeaf7ea	-0.11473067
159	0x3cedb336	0.029016118
160	0x3ca2f4e0	0.019892156
161	0xbdc99676	-0.09843151
162	0xbdd64aa5	-0.10463456
163	0x3db41398	0.087928
164	0xbd14530d	-0.036212016
165	0x3e0461a0	0.12927866
166	0x3dada6ce	0.08479081
167	0xbc934f1c	-0.017982058
168	0xbcd26cba	-0.02568661
169	0x3d5e5de7	0.05428877
170	0xbc09e2dc	-0.008415904
171	0xbd566ba2	-0.05234874
172	0x3cfa6fee	0.03057095
173	0x3d97d30b	0.074133
174	0xbda98957	-0.082781486
175	0xbd924779	-0.071425386
176	0xbddeddc4	-0.10882142
177	0x3df1ac21	0.11800409
178	0x3d9cbdf2	0.07653417
179	0xbe00b22d	-0.12567969
180	0x3d07c21b	0.033144098
181	0xbd4ea83c	-0.05045341
182	0xbd57c9ab	-0.05268256
183	0xbd250130	-0.040284336
184	0xbda5fbbc	-0.08104655
185	0xbcea22e8	-0.028581098
186	0xbd0a025b	-0.033693653
187	0x3c281f0b	0.0102613075
188	0x3d910cfd	0.070825554
189	0xbd86137d	-0.06546686
190	0xbd8f8d65	-0.07009391
191	0x3d2267d2	0.039649792
192	0xbd5da3e2	-0.05411137
193	0x3c903315	0.017602483
194	0xbde21a3b	-0.11040159
195	0x3d8c5532	0.06852187
196	0xbdf0e567	-0.11762505
197	0x3dfe8b46	0.12428908
198	0x3d0b6d3a	0.034039713
199	0xbde24495	-0.11048237
200	0xbda00bf1	-0.07814778
201	0x3d88d596	0.06681363
202	0x3c6928c8	0.014230914
203	0xbda20a2f	-0.079120986
204	0xbdb9af0d	-0.090665914
205	0xbdf0b611	-0.117534764
206	0xbb1903d7	-0.0023348236
207	0x3da10987	0.07863145
208	0xbc545867	-0.01296053
209	0x3dbda898	0.09260672
210	0xbd225c95	-0.039639074
211	0xbc24ce17	-0.010058901
212	0x3dbac346	0.09119277
213	0xbc91918e	-0.017769601
214	0x3da6ae4c	0.08138713
215	0x3d942be5	0.07234935
216	0x3db3bcd3	0.0877625
217	0x3d7832d4	0.06059535
218	0xbcd10486	-0.025514852
219	0x3dd9ff6a	0.106444195
220	0xbdea385c	-0.11436531
221	0x3da55ef6	0.08074753
222	0xbd94531a	-0.07242413
223	0x3dfcc6b9	0.12342591
224	0xbd529681	-0.051413063
225	0xbda448ad	-0.08021674
226	0xbd54f12f	-0.051987823
227	0x3d052ff0	0.03251642
228	0x3e00a8e8	0.12564433
229	0xbcb9bf0b	-0.022674104
230	0x3c98aa59	0.018635916
231	0xbdf6b8f1	-0.120469935
232	0xbdc158b4	-0.09440747
233	0x3c579bf7	0.0131597435
234	0x3d4823d2	0.048862286
235	0xbc8f9e56	-0.017531555
236	0xbd000b6c	-0.031260893
237	0x3a6a33e7	0.00089341257
238	0x3d7cdb7f	0.061732765
239	0xbdf1e122	-0.11810519
240	0xbe083e69	-0.13305058
241	0xbe034d93	-0.12822561
242	0xbcae6c40	-0.021291852
243	0xbd0b0895	-0.03394373
244	0x3dc80423	0.09766414
245	0xbcc32303	-0.023820406
246	0x3d28371d	0.041068185
247	0xbdb32308	-0.08746916
248	0xbc0c2b37	-0.008555225
249	0xbd1511aa	-0.0363938
250	0x3dadd8a4	0.084885865
251	0x3d96a3a4	0.07355431
252	0xbe030444	-0.12794596
253	0x3da53183	0.08066084
254	0x3c11f22c	0.008907836
255	0x3df603a1	0.12012411

onnx::LSTM_102 f4 [1, 256, 64]
0	0xbd4f498d	-0.050607253
1	0x3c4fd708	0.012685545
2	0xbe56eebe	-0.2098951
3	0xbe1f5ada	-0.15562001
4	0x3dee328a	0.11630733
5	0x3d9c5b7b	0.07634636
6	0x3dfafee8	0.12255651
7	0x3e070a8c	0.13187617
8	0x3e15ad1f	0.14616822
9	0x3e4983fc	0.19679254
10	0xbe4d7eb6	-0.20067868
11	0x3d8ec457	0.069710426
12	0xbdab4171	-0.08362091
13	0xbe439dfc	-0.19103235
14	0x3d891d33	0.066950224
15	0xbe351cb7	-0.17686735
16	0xbc4377e6	-0.0119304415
17	0x3ca1c97e	0.0197494
18	0x3d8af485	0.0678492
19	0x3e280fc4	0.16412264
20	0xbe04d7dc	-0.12972969
21	0x3d308e0c	0.043104216
22	0xbe3af5d4	-0.18257838
23	0x3d96e221	0.073673494
24	0xbe480c79	-0.19536008
25	0xbc08b4c7	-0.008343882
26	0xbd699366	-0.057025336
27	0xbe2249a8	-0.1584841
28	0xbe166c50	-0.14689755
29	0xbe3da851	-0.18521239
30	0x3e5692ab	0.20954387
31	0xbd509a02	-0.050928123
32	0x3e391e78	0.18078029
33	0xbdbaae88	-0.091153204
34	0xbda6d62b	-0.08146318
35	0xbe01220e	-0.12610647
36	0x3de8a293	0.113591336
37	0x3e0fd6a5	0.14046724
38	0x3d7330c5	0.059372682
39	0xbe48080c	-0.1953432
40	0xbdbf8213	-0.093509816
41	0xbe0b660d	-0.13613148
42	0x3e5b654e	0.21425363
43	0xbd0428ef	-0.0322656
44	0x3dd39c4d	0.103325464
45	0xbdc6f0f8	-0.0971393
46	0x3c56df8a	0.013114819
47	0x3e4c14a3	0.19929747
48	0xbca43428	-0.020044401
49	0xbcad974d	-0.02119031
50	0xbb089cba	-0.002084537
51	0x3e360cf4	0.17778379
52	0x3e0f1268	0.13971865
53	0x3c189416	0.00931265
54	0x3e0640ef	0.13110708
55	0x3e20e0fd	0.15710826
56	0x3e4c86ba	0.19973269
57	0xbd2d44ed	-0.04230206
58	0x3e40ac13	0.18815641
59	0x3d9868b3	0.07441845
60	0xbe5315e4	-0.2061382
61	0x3d67d665	0.056600947
62	0x3e235b20	0.1595273
63	0x3dcae6f0	0.09907329
64	0xbddeaf0f	-0.108732335
65	0xbe1dcacc	-0.15409392
66	0x3b1010f0	0.0021982752
67	0x3dd642a0	0.104619265
68	0xbe139447	-0.14412032
69	0xbdcb0603	-0.09913256
70	0xbe3ac5ae	-0.18239471
71	0xbe058539	-0.13039102
72	0xbc226745	-0.009912317
73	0xbceacefb	-0.02866315
74	0x3e3d5cfe	0.18492505
75	0x3db24486	0.08704476
76	0x3dc37714	0.09544197
77	0xbc69c93a	-0.014269168
78	0x3d4e5e5a	0.05038295
79	0xbe27f839	-0.16403283
80	0xbd97baa2	-0.07408644
81	0x3cf1d5bb	0.02952086
82	0xbe524408	-0.20533764
83	0x3cac95cc	0.021067522
84	0xbde2d734	-0.11076203
85	0xbe25d54a	-0.16194645
86	0xbd68f69a	-0.056875803
87	0xbe5d2403	-0.21595769
88	0x3d2ee6f0	0.042700708
89	0x3db6f6f9	0.08933825
90	0x3d6476e7	0.055777457
91	0x3d0b5c4f	0.03402358
92	0x3e422706	0.18960199
93	0xbcff6073	-0.03117392
94	0x3da97e1f	0.08276009
95	0xbc8fc287	-0.017548813
96	0xbe02559b	-0.12727968
97	0x3d899231	0.06717337
98	0xbddab77f	-0.1067953
99	0xbe189a24	-0.1490255
100	0xbe391d82	-0.18077663
101	0xbe3baa40	-0.18326664
102	0xbd2973ba	-0.04137013
103	0x3e4b721f	0.19867752
104	0xbe3b09a1	-0.18265392
105	0xbd0ad28d	-0.033892203
106	0xbdb15ab2	-0.08659877
107	0x3dc64bd1	0.096824296
108	0xbe16590a	-0.14682403
109	0x3df98687	0.12183862
110	0xbd89780e	-0.06712352
111	0xbe309c37	-0.17247091
112	0xbd05e927	-0.032693055
113	0xbddb28b1	-0.10701121
114	0x3e54334d	0.20722695
115	0xbda990f4	-0.08279601
116	0x3e3ca4bc	0.18422216
117	0x3dfe6436	0.124214575
118	0xbe4ba501	-0.19887163
119	0xbd9f2938	-0.07771534
120	0x3da666c2	0.08125068
121	0xbd89121e	-0.06692909
122	0x3be6f566	0.0070482967
123	0x3e1d59f9	0.15366353
124	0xbdeea674	-0.11652842
125	0x3e41354a	0.18867984
126	0xbd1a94cf	-0.03773957
127	0xbd9e19a9	-0.07719738
128	0xbd7a69aa	-0.061135925
129	0xbd82bcb1	-0.06383646
130	0xbd2e5e2c	-0.042570278
131	0x3da9c6b6	0.08289854
132	0xbe1d8ffe	-0.1538696
133	0x3e3e08ab	0.18557994
134	0x3df0404f	0.11731016
135	0x3db2f0e3	0.08737352
136	0x3d94c218	0.07263583
137	0xbe3b3eed	-0.18285723
138	0xbca5640a	-0.020189304
139	0xbe437388	-0.1908704
140	0xbd4b85c8	-0.04968813
141	0x3e44e537	0.19228064
142	0xbdd3af26	-0.10336141
143	0x3e3cffe8	0.18456995
144	0xbe364ee0	-0.17803526
145	0xbc7a685f	-0.015283673
146	0x3e417ec7	0.18896018
147	0xbe28792e	-0.16452476
148	0x3e6b6130	0.22986293
149	0xbe196523	-0.14979987
150	0xbdf87d5a	-0.12133284
151	0xbd8016e4	-0.06254366
152	0xbc684c1f	-0.014178305
153	0x3d934799	0.071913905
154	0xbe1d73a9	-0.15376152
155	0x3e24c796	0.16091761
156	0x3d4e8faa	0.050429977
157	0xbe016ee2	-0.12639955
158	0x3d704d28	0.058667332
159	0xbe3d1794	-0.18466026
160	0xbc174523	-0.009232792
161	0xbe45946b	-0.19294898
162	0x3cec73fc	0.0288639
163	0x3e5a17bd	0.21298118
164	0x3e012770	0.126127
165	0xbd3ff231	-0.04686183
166	0x3da2896c	0.079363674
167	0x3de9c90e	0.11415301
168	0x3e33f21f	0.1757283
169	0xbda0a3bd	-0.078437306
170	0xbe067710	-0.13131356
171	0x3d4077f9	0.046989415
172	0xbe19587e	-0.14975163
173	0xbb226548	-0.0024779607
174	0xbc8bb429	-0.01705368
175	0xbdcba520	-0.099436045
176	0xbe33bc84	-0.17552382
177	0xb9b91ba7	-0.00035306552
178	0x3dff33eb	0.124610744
179	0x3e1a9c84	0.15098768
180	0x3e5ce6f0	0.2157247
181	0x3e0d2492	0.13783482
182	0x3e35ecb7	0.17766081
183	0x3d04d7cf	0.032432374
184	0x3e1e5de2	0.15465501
185	0xbd846e5d	-0.064663626
186	0x3e700626	0.23439845
187	0x3d602354	0.05472119
188	0x3d1c05d5	0.0380915
189	0xbdfb15d6	-0.12260024
190	0x3e3d7bb3	0.18504219
191	0x3c86858e	0.016421106
192	0x3d1cdbf6	0.03829571
193	0xbe2f81e8	-0.17139399
194	0xbd9c241a	-0.07624073
195	0xbe47c491	-0.19508578
196	0x3e33314d	0.17499276
197	0x3d4ed8c2	0.050499685
198	0xbdf30924	-0.11866978
199	0xbcc75f77	-0.024337513
200	0xbd479f94	-0.04873617
201	0x3c748d5b	0.01492628
202	0x3cbe1d11	0.02320722
203	0x3dbc899a	0.09205933
204	0x3e395247	0.18097793
205	0x3e18517c	0.14874834
206	0xbdaad2fe	-0.08341025
207	0x3e0daafb	0.13834755
208	0x3e5432f5	0.20722564
209	0x3d506d21	0.050885323
210	0x3de624e1	0.11237503
211	0xbe0f057a	-0.13966933
212	0x3ca98e0d	0.020697618
213	0x3e0b3961	0.13596107
214	0xbe55a7fe	-0.20864865
215	0xbe111465	-0.14167936
216	0x3dc7e19b	0.09759828
217	0x3e1b128e	0.15143797
218	0xbd615462	-0.055012114
219	0xbd91b642	-0.07114841
220	0x3e3f5664	0.18685299
221	0xbe45bf1b	-0.19311182
222	0xbd9d3258	-0.07675618
223	0x3c9b1f3e	0.018935796
224	0xb8bfcea4	-9.1460795e-05
225	0xbe4566c8	-0.19277489
226	0xbe233358	-0.15937555
227	0x3e5899a9	0.21152367
228	0xbdec99bf	-0.11552762
229	0xbdc676bd	-0.09690616
230	0x3d97b1c9	0.07406957
231	0xbe422f5b	-0.18963377
232	0x3e415952	0.18881729
233	0x3d87573c	0.066084355
234	0xbdaa2af9	-0.08308978
235	0x3e2eb8a8	0.17062628
236	0x3d3e5d91	0.04647595
237	0xbc3b44e6	-0.011430001
238	0x3db1b35e	0.0867679
239	0xbe1cdc73	-0.1531847
240	0x3e462ddb	0.1935343
241	0x3bb86617	0.0056274044
242	0x3dfd4552	0.123667374
243	0xbe0fbe40	-0.14037418
244	0x3dd68cac	0.1047605
245	0xbc65064b	-0.013978551
246	0x3d833210	0.06406033
247	0x3e4fa8e8	0.20279276
248	0x3cad48bb	0.021152845
249	0xbe0362b8	-0.12830627
250	0xbe150545	-0.14552791
251	0xbdd81546	-0.105509326
252	0x3e2f7a7d	0.1713657
253	0x3e544285	0.207285
254	0x3d8d416d	0.068972446
255	0xbdd5e77b	-0.10444542
