code/selfparking/mla/results/test_08/Car/Car-1499946.onnx (onnx, 692944 bytes, 10 tensors)

network_body._body_endoder.seq_layers.0.weight f4 [256, 91]
00000000: 36f9 e0bb 5cc4 3fbd aeaf 1dbe 3183 1f3d
00000010: 30f9 ea3c 0318 37bc 3fda 91bd 50ed 26be
00000020: 7061 60bb 9cd8 433d e058 4e3e 5bb2 153d
00000030: 2c32 0b3c b2af 6d3e 303c 48b9 20e4 77be
00000040: 1dd9 c2bd 2a94 693c ffec c13b d8d6 57bc
00000050: 7a42 e93d 13b3 00bd ae4f 553e 6943 1f3e
00000060: f680 93bc 2e69 47be f1ad a6bd bc2a 38bd
00000070: 3463 41be e8f6 d63c 1307 8e3d e165 c3bc
00000080: 3ed7 85bb 9e11 babc b8e5 47bd 1c4a 81bd
00000090: 50df 913e 410f 15bc 93d0 05be ce36 96bd
000000a0: f60e 5dbc c021 77bd 1d77 55bc 6c30 43bd
000000b0: 6917 fbbc fe38 f83d a9e0 81be cfb0 4b3c
000000c0: d84f 75bc 8f9b d9bc f874 c0bd d2bd ecbd
000000d0: d30c 3ebe 8233 34be 4f7e 343e 5dca d8bc
000000e0: 0e08 953d 2d34 113e 4fcc c2bd 6e2a 8a3d
000000f0: c819 b6bc 36a9 213e 807e db3d b147 b93b
00000100: b95f 833d 7cbb 413e b36a a83c cab8 483d
00000110: 5287 38be 4c28 49bd 987a c4bc 2b11 bd3d
00000120: 0a34 253d 1be7 93bc 1758 acbc 9146 babd
00000130: cf02 c23d 1ee3 bf3c 9df6 e03c a4cc cbb8
00000140: 8757 1ebd 1245 c83d b8b6 3dbe 4e31 c73d
00000150: 0396 ca3c 3baa 8dbc 7499 0b3e 5131 813c
00000160: 5f6e 5bbe 1d72 0a3e da7a cbbd bc6b 58bd
00000170: f17c 0cbd 92b4 f33d 8961 27bc a081 a1bb
00000180: a0af 7abd b37d c6ba f73b 9abd aa97 29be
00000190: 01d7 443e 8457 2e3d cc2e ae3d ed13 34be
000001a0: 99a5 c93d b96d 733c f7cd 8fbe 0ce8 41be
000001b0: 30ad 89bd feba 28bc 81ec 643e e923 ff3c
000001c0: cfbb 3bbd 646d 6a3d 23e3 20be 4858 0e3e
000001d0: f191 813d 3adf d53d f2c8 a0bd 0252 9d3d
000001e0: b26d d43d d9d0 3abb e001 6cbe 7a53 c43b
000001f0: b9fb bd3d d1fd 993c 4f18 06bd eba1 cebd
00000200: 9719 b33d e4bf 663d dc41 c6bd cdf0 123d
00000210: 1099 0f3e 171e d23d e7f7 9abd 8d1d b33c
00000220: 4ad5 f3bc 8c0c 273d 2897 173d 0d2f a7bd
00000230: 65ee f23b 49f6 b3bb ec83 7f3c 635e cebd
00000240: 1259 fcbc 3e51 a63d 19a4 973d cd26 01bd
00000250: 9db8 3cbe 8cf6 4dbe d464 adbd bee4 0c3d
00000260: d43a 0cbe e855 dabd fed7 283b 5d97 22be
00000270: cfa7 793d f5e9 ed3b 422a 94bc be83 c83d
00000280: 1515 5d3d 4891 5239 8337 063d 5384 31bd
00000290: a8e6 a63c 34b9 e8bd 94a3 2bbc 9a58 11be
000002a0: b560 d0bd 052c ae3d 7b9e d43d 8fa2 4a3b
000002b0: 8f66 173e affc 81bc 6fbb c23d b7a2 583d
000002c0: 6802 dabd b905 4dbc 74ad ca3c 9a0c 1f3d
000002d0: 20b2 1dbb 055c d63d 5397 de3a db7d 0ebd
000002e0: fd7f 12be b59c 3a3e 870d e33d 6f73 3f3c
000002f0: adac b73d 4a5c 9bbd 293c 0a3e 6294 47bc
00000300: f798 b73d 301d 8d3c 12e7 1e3d 0a52 cf3d
00000310: c7a9 153d 2392 fb3d fe81 16be 9d6e 683d
00000320: 3cba f63d 6e9e 6e3c 56bb 0d3d 7afd 473e
00000330: 6aa5 26be fecc 403d 0277 15bd b7d2 3cbc
00000340: c2ae 243e a2ec 973d 49cc dd3c d950 e7ba
00000350: 63e7 dd3d 19d8 0ebd 109d d5bc 2992 58bd
00000360: 9fd1 c0bd 8504 06bd 7a85 173e baf1 41bd
00000370: e008 113e f145 c5bd 8995 a83d d2a2 ab3d
00000380: f613 ab3c 8bba 16bc 8b06 5abd 6c37 80bd
00000390: ed24 543e e324 c53d 971f 91bc 6961 b43d
000003a0: 077f 86bd c25c 113e d9f1 543d 1df7 9abd
000003b0: ba61 013e 96ff 293d a0d5 2dbd 29f2 7abd
000003c0: b302 10bd 9fc3 97bd 9e51 fb3a 8284 263e
000003d0: 8fb6 3bbd 25f3 b9bd de1e e4bd b0fd 77ba
000003e0: 2cea fcbc 43b1 56bc ec72 67bd 1e69 3a3c
000003f0: 7c06 0bbe fae6 16bd 7293 0dbe d06d 0b3e
-0.0068656458 -0.046818122 -0.15399048 0.038943473 0.028683275 -0.011175158 -0.07121705 -0.16301465
-0.0034237765 0.047813997 0.2015109 0.036547046 0.008495849 0.23211554 -0.00019095908 -0.24208117
-0.09514067 0.0142565165 0.0059181447 -0.013173781 0.113896325 -0.03142078 0.20831177 0.15553059
-0.01800583 -0.19473717 -0.081386454 -0.04496263 -0.18885499 0.026240781 0.06934943 -0.02385229
-0.0040844968 -0.022713479 -0.04880306 -0.06312963 0.28490686 -0.009097875 -0.13067846 -0.07334672
-0.0134923365 -0.06033492 -0.013028887 -0.0476536 -0.030650811 0.121202454 -0.25366715 0.012432291
-0.0149726495 -0.026563434 -0.0939731 -0.11559643 -0.1855958 -0.17597774 0.17626308 -0.026463682
0.07276927 0.1418006 -0.09511625 0.06746374 -0.02222909 0.15787205 0.10717487 0.0056542982
0.06414742 0.18919176 0.02055869 0.049004354 -0.1802037 -0.049110696 -0.023984239 0.0923179
0.04033283 -0.018054536 -0.021038098 -0.09095491 0.09473192 0.023423728 0.027461344 -9.7179116e-05
-0.03865769 0.09778799 -0.18526733 0.09726201 0.024729734 -0.017293086 0.13632756 0.015770586
-0.21428822 0.13520093 -0.099355415 -0.05283712 -0.03429884 0.118996754 -0.010216125 -0.0049287826
-0.061202645 -0.0015143662 -0.07530969 -0.16561761 0.19222642 0.04256393 0.085050195 -0.17585726
0.09846038 0.014857703 -0.28086826 -0.18936175 -0.06722486 -0.010298489 0.22355844 0.031145053
-0.045833405 0.05723323 -0.15711646 0.13900864 0.06326664 0.10442968 -0.07850827 0.076816574
0.10372485 -0.002850583 -0.2304759 0.0059913965 0.09276528 0.018797787 -0.032738026 -0.10089477
0.08745115 0.056335345 -0.096805304 0.035874177 0.14023232 0.102596454 -0.07566815 0.021864677
-0.02976479 0.04078345 0.03700939 -0.08163271 0.0074136727 -0.005492006 0.0155954175 -0.100765966
-0.03080419 0.081209645 0.07404346 -0.031531144 -0.184298 -0.20113581 -0.08466497 0.034397833
-0.13694316 -0.106609166 0.0025763507 -0.15878053 0.06095105 0.007260556 -0.018086556 0.09790753
0.053975184 0.00020081282 0.032767784 -0.043339085 0.020373657 -0.1136345 -0.010476012 -0.14193955
-0.101746954 0.0850449 0.1038179 0.0030919646 0.14785217 -0.01586756 0.09508406 0.052889552
-0.1064499 -0.012513571 0.024740912 0.038830377 -0.002406247 0.1046677 0.0016982354 -0.034787994
-0.14306636 0.18223841 0.110865645 0.011685236 0.08968482 -0.07585962 0.13499512 -0.012181373
0.089647226 0.017225832 0.038794585 0.101230696 0.036538865 0.12283733 -0.14698026 0.056746114
0.1204724 0.01456414 0.034602486 0.19530287 -0.16274038 0.047070496 -0.036490448 -0.011524848
0.1608229 0.07418181 0.02707495 -0.0017647996 0.10835149 -0.034874056 -0.02607587 -0.052873764
-0.09414982 -0.032719154 0.14797011 -0.04734967 0.14163542 -0.09632481 0.082316466 0.08380665
0.020883542 -0.009199749 -0.053228896 -0.06260571 0.20717211 0.09626176 -0.017715259 0.08807642
-0.06567197 0.1419554 0.051988456 -0.07566664 0.12634936 0.04150351 -0.042440057 -0.0612661
-0.035158824 -0.07410359 0.0019174104 0.16261485 -0.0458284 -0.09079579 -0.111387 -0.00094601046
-0.03087338 -0.013103786 -0.056506082 0.011377601 -0.13576692 -0.03684137 -0.13825777 0.13616109

network_body._body_endoder.seq_layers.0.bias f4 [256]
00000000: 9085 bdbb f7b0 2f3b a4af 483c 63a2 9c3b
00000010: 2868 b1b8 cd3d 27bc e632 8fbb 3630 40bb
00000020: e4f0 08bc 8318 be38 1423 563c e292 22bb
00000030: 55ec 273c ec08 8fbb 5946 3cba 45e2 42bc
00000040: d51d c13b e56e 953a 3b23 a63c 255b 2eba
00000050: 0895 143c b39d aebb f8b6 3cb8 9f93 61ba
00000060: 6470 3a3b 3914 5bbb e1f9 823a 08d7 ed3b
00000070: fb73 2dbc fcdb 18bc 1b70 fa3b 9c1b 15bc
00000080: 91f5 a13b 14df 553c 80dd 353c f345 a239
00000090: 107c 97bb 8d4e 933b 0583 3c3c bfce b7bb
000000a0: 61f0 2e3c da1b f63a 4589 eeba 5c70 13bc
000000b0: 1094 3d3b 1306 ab3b f6b9 eaba 8821 283a
000000c0: 4c20 15bc b4a2 1e3c 2f64 033c 2019 cfbb
000000d0: e004 be3b 4ef8 82bb 0600 0b3b 3537 18bc
000000e0: d81c 01bc 8b88 a93a 836f a3bb e944 c7b9
000000f0: 43ae df3b 2b8f 33b9 ac13 853b 9845 b33c
00000100: cbc7 5cbc b82e 00bc 38ab 543b 3202 113c
00000110: 4414 3f3b 9776 473a 58d2 fdbb e414 603b
00000120: 7fa2 3fbb f712 003b 0df1 043b 39f0 82bb
00000130: b93b 8e3b 9753 7d3b f06a b43c 7c8a e2bb
00000140: 50fc 493a 72b1 313b 9e74 84bb 58ea 8a39
00000150: 7313 d83b 7fb1 033b 7ffb c4ba bbf3 dc3b
00000160: 0e2c 513b 95be 913b 792e 77bb 1014 073c
00000170: 87cf d33b a59b 58bc a22f fa3b 0ba3 373c
00000180: 4f07 743c c9ba 2eba 5c77 7d3c 1e3d 86bb
00000190: 2de4 73bb a178 28bc c747 14bc 8a50 cb3b
000001a0: 7f31 14bb 70df bcbb c71b a23b 11cb 81bb
000001b0: 7bc8 eb3b 415a 07bb 1c83 ab3b 64ba 703b
000001c0: 4ff1 5e38 d830 2dbc 9389 2b3c cbb6 6bba
000001d0: be19 e23b 1c90 ca3b 7027 403b 2daa c23b
000001e0: f241 9bbb 5373 fbbb d2fc 203c 4e67 003b
000001f0: b837 b1bb 1bb1 e83b 31c3 c0ba 2d21 5bba
00000200: 1041 29bc 63b8 aa3b adfe b5bb e363 fabb
00000210: 6be0 0cbb 9dec f1ba 477a a13a e146 8ebb
00000220: 0468 f4bb fc35 ae3b 585d 543c e112 bcbb
00000230: 4eba ac3c 91c2 f73b 1773 e8bb d29e 78bb
00000240: 614c 0abb becf 493b 9f50 94ba dd7b 1fba
00000250: 3a14 0a3a af2d 723b 4d95 463a 6648 f4bb
00000260: 5179 79bb f066 663c 1354 cc3b 1960 cdba
00000270: 00fa 363b 6e0f ea3b 714f 8639 5328 c2bb
00000280: c9bd 903a b3ce a03b 1bc8 c939 12a5 103c
00000290: 7974 ddbb a0b0 0e3b b792 f839 2558 983b
000002a0: de0d e6ba 81f7 af3b 5493 edba 7073 843b
000002b0: c3b4 b53a bcd9 8f3b 6fc4 52bc 14cf 31bb
000002c0: 7719 223b 2c87 d2b9 f3a6 9ab9 c302 a1bb
000002d0: 3c4f 903b 4799 9e3b 80b5 313a 04a7 0bbb
000002e0: 2e08 133c 09d6 343c 7fb2 f03b 0ea2 113b
000002f0: f205 f73b 3d16 403b 0a6a 50bb 35f0 893b
00000300: 4695 91ba a8b7 0dbc 0530 f7b9 8773 423b
00000310: a5df 003c e47b 9db9 2b77 f3bb 3724 f9bb
00000320: ea89 773b abbb 923b 472d 433b ebca 933b
00000330: 869e 483c 9b27 6e3c 8a18 4538 f256 633c
00000340: e61a 4b3c 3d17 683c 45d1 13bb e818 863b
00000350: 8e7b 773a a629 51bb 1003 ed3b 65c2 ed3b
00000360: 75da f8bb 61a6 cabb 4d18 39bc 2e2c 91bb
00000370: 6832 213b 236d 633c 98c9 ad3a c286 453a
00000380: af6b b1bb 1e1b 6cbb acbf 293b a366 a2bb
00000390: 6eb6 643c 7bda 033c a36c 2e3a ff7c a43c
000003a0: 1b21 0b3b c79c 7fbc 0224 8cbb af6d 3b3b
000003b0: 0eb9 3fbc d940 0cbb 0e26 3d3c e57b 76bb
000003c0: c1a2 dcbb 454f 15bc f462 8a3c f791 f23b
000003d0: 6751 1bba 571c 833c d7a2 b33b c281 44ba
000003e0: 3a14 8a3b c2c5 f43b a4ec f2b9 fdf0 57bc
000003f0: 9c51 7b3c 2c22 e2bb 6b12 f43a 2590 f2ba
-0.005783744 0.002680836 0.012248907 0.0047801 -8.459418e-05 -0.010207606 -0.0043700812 -0.002932561
-0.008358214 9.064472e-05 0.013069887 -0.0024806787 0.010249217 -0.0043650772 -0.00071821135 -0.011894767
0.005893449 0.0011400847 0.020280471 -0.0006651155 0.009068735 -0.005328858 -4.4993096e-05 -0.0008605066
0.0028448338 -0.0033428802 0.0009992683 0.0072582997 -0.010586734 -0.009329792 0.0076427585 -0.009100821
0.004942604 0.013053674 0.011100173 0.00030951164 -0.0046229437 0.004495448 0.011505847 -0.005609363
0.010677428 0.0018776611 -0.0018198868 -0.0089989565 0.0028927363 0.00521923 -0.0017908204 0.0006413688
-0.009101938 0.009682346 0.008019491 -0.006320134 0.005798921 -0.0039968854 0.002120973 -0.009290506
-0.007880412 0.001293437 -0.0049876585 -0.0003800758 0.0068261935 -0.00017124104 0.004061183 0.02188377
-0.013475369 -0.007823639 0.0032450687 0.008850621 0.0029156366 0.0007608919 -0.007746022 0.003419214
-0.0029241142 0.0019542554 0.002028528 -0.003995922 0.0043406156 0.003865456 0.022023648 -0.0069134813
0.0007705139 0.0027113822 -0.004042222 0.0002649601 0.0065941154 0.002009481 -0.0015028565 0.006742922
0.0031917128 0.004447768 -0.003771691 0.008244529 0.006463948 -0.013220702 0.007635073 0.011208306
0.014894321 -0.00066654064 0.015470352 -0.004096641 -0.003721486 -0.010282666 -0.009050316 0.0062046694
-0.002261251 -0.0057639405 0.004947159 -0.003960975 0.00719553 -0.002065316 0.0052341353 0.0036732191
5.315366e-05 -0.010570727 0.010469812 -0.0008991777 0.0069000414 0.00618173 0.0029320382 0.0059406967
-0.004738086 -0.00767366 0.009825902 0.0019592824 -0.0054082535 0.0071011907 -0.0014706609 -0.00083591306
-0.0103304535 0.005209969 -0.0055540414 -0.007641302 -0.0021496068 -0.0018457357 0.0012319767 -0.0043419455
-0.0074586887 0.005316494 0.012961708 -0.005739555 0.02108493 0.007561036 -0.007093798 -0.003793646
-0.0021102654 0.003079399 -0.0011315531 -0.0006083826 0.0005267296 0.00369535 0.0007575348 -0.0074549196
-0.0038066695 0.014062628 0.0062356084 -0.0015668898 0.0027920008 0.0071429526 0.0002561766 -0.005925217
0.0011042889 0.004907453 0.00038486798 0.008828418 -0.0067582694 0.0021772757 0.00047411557 0.0046491795
-0.001755174 0.005370081 -0.0018125572 0.0040420815 0.0013863075 0.0043899696 -0.012864216 -0.0027131485
0.0024734417 -0.00040155032 -0.00029497556 -0.0049136593 0.0044039767 0.0048400494 0.000677906 -0.0021309266
0.008974118 0.011037358 0.007345497 0.0022221836 0.0075385505 0.002931013 -0.0031801485 0.004209543
-0.0011107109 -0.008649744 -0.0004714729 0.002967091 0.007865821 -0.0003003768 -0.0074299774 -0.007603194
0.0037771412 0.004477938 0.0029781626 0.0045102737 0.012244826 0.01453581 4.6991314e-05 0.01387571
0.01239655 0.014165697 -0.0022555154 0.0040923245 0.00094407133 -0.0031915694 0.007233031 0.0072558396
-0.0075944015 -0.0061843847 -0.011297298 -0.0044303155 0.0024596695 0.013881001 0.0013258932 0.0007535034
-0.005414448 -0.0036026905 0.00259016 -0.004956083 0.01395951 0.008047695 0.00066537614 0.020079134
0.002122945 -0.0156013435 -0.0042767534 0.0028599312 -0.011701835 -0.0021400957 0.0115447175 -0.0037610468
-0.006733269 -0.009113138 0.016892888 0.0074026543 -0.00059249107 0.016004724 0.0054820585 -0.0007496142
0.004213837 0.0074698636 -0.00046334148 -0.013180015 0.015339281 -0.0069010463 0.0018621212 -0.0018506093

network_body._body_endoder.seq_layers.2.weight f4 [256, 256]
00000000: 99ff 2b3d 3611 92bc 5726 8ebc 3f54 8b3b
00000010: 69fa 483d a953 0abc 0dfb 683d addf 67bb
00000020: 4489 323d fbaa b5bd 3bba 56bd ee55 433d
00000030: df23 873d e6f2 c03d 646f a33b ff74 833d
00000040: 60c5 6bbd afda 90bc 22ee 89bb d591 5cbd
00000050: be10 f13c 6e23 f6bb 6502 413e 03ca cabc
00000060: 6d87 ac3d dc5d e13c 484c ac3d 773f 86bd
00000070: c024 833d 296e ba3d 1de6 c03d d3ba 933d
00000080: cc50 b0bd dfd0 e2ba 6d19 413c 4916 9dbd
00000090: cf3a 42bd ab11 ccbb 5e60 553d 3697 c2bc
000000a0: 68af e13d c7a8 013d ac8c d43b c11a 82bd
000000b0: 4a17 283b f800 2cbd 9ee8 4a3d e48a 7b3d
000000c0: 61b4 e63d a8cf d33c 87b0 3d3d 47a7 8b3d
000000d0: 55b6 9c3c 7b1e 45be e369 ce3d a582 803d
000000e0: 5dae 61bd 8e02 19bd fb7d 463c f184 883d
000000f0: 2580 a4bd c44a 89bd 0ba0 90bc 9918 9cbd
00000100: 2803 1b3d 722c 183d f683 113c a3b8 af3d
00000110: 3609 52bd 79be fc3d c52b 3f3d 5701 b8bd
00000120: 9c18 f8bd 24c9 2bbd 68b9 083d 8838 b93d
00000130: a512 d8bc 0f12 bebc 89d9 4bbd 082a 76bd
00000140: 8019 b53b 0e93 a13d e90b c33c ae86 93bc
00000150: 5acd 98bd 7d99 3cbd b3e6 3f3b 781c 0b3e
00000160: 29ab 503d 0ee4 b63d 72cc 58bd 281d 173d
00000170: cdde 55bd ea20 c0bd 52bc 6eba 6a39 15bd
00000180: f1b1 953d f92a 4f3d 8b41 203d 7e58 34bd
00000190: 0ecd 903d ca09 8f3d e2fd 8c3c 3347 123d
000001a0: 16d3 cdbc 5d58 10bc 58ea 6dbc 8fc6 7a3d
000001b0: 0c41 053d 28d5 72bd 43ca c3bd 269e 24bd
000001c0: 80eb 78bd 06f1 bc3d e41e 4b3d 4a77 5dbc
000001d0: e517 5abd 97d0 31bc 6ee2 7d3c 4ff1 163d
000001e0: 69b6 8a3d 9927 273e 5cbb f63c e803 06bd
000001f0: 2016 95bc a1eb 323d f724 dc3d 0688 5fbd
00000200: 51be c1bd e2c9 cc39 5f12 483d ab87 9438
00000210: 5b31 22be 67ec d93c 046c 4e3a 572b 303c
00000220: 1ebb 3cbd 61dc 5dbd 1375 11bd d771 cfbd
00000230: 798e cb3d f090 a9bd 76bd 64bc b196 dcbc
00000240: 1310 5c3b e0c3 babd ba69 103d b6f2 b7bd
00000250: 785d 6d3d 9042 45bc 7a3b a0bc 8470 dcbd
00000260: 87b7 5c3d 86e7 88bd acc6 fc3c e90b 863c
00000270: 8ccd 203d 3c19 0a3d b2de 273d 058a 9abc
00000280: 5367 aabd b8a3 6dbc 72a7 09bc 4ab0 eabc
00000290: 4678 eebd 890b 49bd f15c 993d 1cdb ac3a
000002a0: 1570 f23b 83d1 583d c898 0fbd 2361 383d
000002b0: 0b0d 493b 85f3 83bd 1cb6 25bd 072b 193e
000002c0: 1be9 09bd 0c60 c83d f56f 4b3d 72df ccbc
000002d0: fe1e dfbc 1552 0fbe 90be b33d 427c 54bd
000002e0: 3cb9 e73c bcef 0fbd d2df 6f3d 9303 483d
000002f0: 60e9 a7bc fccb 11ba bd1a aabb cc1a 853d
00000300: c60c 653d 1723 633d f8f0 23bd 069c a3bc
00000310: 1278 833d e49e 4b3d d5a2 463d 3e49 d83d
00000320: 5e24 edbd c8c1 903c edc0 94bb 071f 013d
00000330: 1949 203d 8d19 1bbd 35ee 7cbd a755 d5bc
00000340: 2309 10bb c622 47bd 233b 813d a927 b5bd
00000350: b540 abbc 7573 8fbb 444d 1f3d 73f4 22bd
00000360: b24d 613d 3214 4ebd fea5 d6bd f99b 9e3d
00000370: f0e3 423c c882 ea3c 7382 153e 334c 073e
00000380: fb42 61bd e44f b3bc 27c7 ccbd cbc3 7b3d
00000390: eefe a03d 46ad 85bd 0ccc 38bd 80b7 803d
000003a0: 1753 8e3c aeea 323d 1ee5 14be d408 813d
000003b0: bd3f c43d 7787 983c 5f4f 5c3d c95a abbc
000003c0: f0c7 ddbc d2f3 9fbc 1f61 023b d179 9c3d
000003d0: 5716 c63c 4ec2 8b3c e7d8 2e3d cfe3 ed3d
000003e0: dbe7 3bbb 7eba 183d a99d 50bc f3ef 64bd
000003f0: dd76 6f3c d74b aebc ed60 f93a b9ef 49bc
0.041991804 -0.017830472 -0.017352266 0.0042519863 0.049066935 -0.008442798 0.056880046 -0.0035381124
0.043587938 -0.088705026 -0.052423697 0.04768937 0.06598639 0.09421329 0.004987644 0.064187996
-0.05756128 -0.017682401 -0.004209296 -0.053850014 0.029426929 -0.0075115478 0.1884857 -0.02475453
0.08424268 0.027510576 0.08412987 -0.06555074 0.06403494 0.09103043 0.094188906 0.07213368
-0.08609161 -0.001730468 0.011785847 -0.07670266 -0.047419365 -0.006227692 0.052093856 -0.023753744
0.11019784 0.0316551 0.006486496 -0.06352759 0.0025648647 -0.04199311 0.049538247 0.061411753
0.11264873 0.025855854 0.046310928 0.06819015 0.019129911 -0.19249909 0.1007879 0.062749185
-0.055097926 -0.037355952 0.012114997 0.066659816 -0.08032254 -0.067037135 -0.01765444 -0.07621879
0.037844807 0.03715176 0.00888156 0.085801385 -0.051278315 0.12341017 0.0466726 -0.089846306
-0.12114069 -0.04193987 0.033379942 0.090439856 -0.026376078 -0.02320197 -0.049768005 -0.060098678
0.0055267215 0.078893766 0.02380939 -0.018008556 -0.07461043 -0.046044815 0.0029281795 0.13585079
0.05094448 0.08930217 -0.05292935 0.03689304 -0.052214433 -0.09381278 -0.00091070414 -0.036431707
0.0730933 0.05057809 0.039125007 -0.044029705 0.07070361 0.06984289 0.017210905 0.035712432
-0.025125068 -0.00881013 -0.014521204 0.061224516 0.032532737 -0.059285313 -0.09560063 -0.040189885
-0.060771465 0.09225659 0.049590006 -0.01351721 -0.053245444 -0.010852954 0.01549588 0.036851224
0.06773073 0.16323699 0.030118637 -0.03271857 -0.018199027 0.043681744 0.10749238 -0.05457308
-0.09460128 0.00039060327 0.048845645 7.08246e-05 -0.1583914 0.026601983 0.0007874372 0.0107525205
-0.046076886 -0.054165248 -0.03551204 -0.10129135 0.09939284 -0.08279598 -0.013961187 -0.026927324
0.0033578917 -0.091193914 0.03525708 -0.0898184 0.057950467 -0.0120397955 -0.01955961 -0.10763648
0.053885963 -0.066847846 0.030856453 0.016363101 0.039258525 0.03371547 0.040983863 -0.018864641
-0.08320489 -0.014504366 -0.0084017385 -0.028648514 -0.11644034 -0.049083266 0.0748843 0.0013187858
0.007398615 0.05293418 -0.035057813 0.04501451 0.003067794 -0.06442932 -0.040456876 0.1495782
-0.033669572 0.097839445 0.049667317 -0.02500889 -0.027236458 -0.13996156 0.08776581 -0.051876314
0.028286569 -0.035140738 0.05856306 0.048831534 -0.020497024 -0.0005561707 -0.0051911757 0.06499252
0.055920385 0.055453386 -0.040024728 -0.019971859 0.06419386 0.049712077 0.048495132 0.10560845
-0.11579202 0.017670527 -0.0045396 0.03152373 0.03913221 -0.037866164 -0.06175061 -0.026041819
-0.0021978102 -0.048617147 0.063101076 -0.08845455 -0.020904878 -0.004377777 0.038892046 -0.039783906
0.055005737 -0.05031223 -0.10480879 0.07744593 0.011895165 0.028626814 0.14600544 0.13212661
-0.05499552 -0.02188868 -0.09998923 0.06146602 0.07861124 -0.0652719 -0.04511647 0.06285
0.017373605 0.04368084 -0.14540526 0.06300512 0.095824696 0.018619282 0.05378663 -0.020917313
-0.027072877 -0.019525442 0.0019894314 0.07640422 0.024180574 0.017060425 0.042687323 0.11615717
-0.0028672132 0.037287228 -0.012732902 -0.055892896 0.014615742 -0.021276398 0.0019026079 -0.012325221

network_body._body_endoder.seq_layers.2.bias f4 [256]
00000000: df65 cfbb 115b 4d3c 6016 a0bb 1292 223c
00000010: ef4a bc3b 2305 dbba 0d35 4bbc 0f80 213c
00000020: 6180 07bb 9dbb 9b3b ed6f 13bc 4b3e c93b
00000030: eb57 303b 25dc 0b3c e61f c23b 02fd deba
00000040: 4e0b af3b c393 f9bb ac75 5938 ac1f 163c
00000050: 5148 8abb d6b1 743b 428d 013c cd88 e3bb
00000060: b476 fbbb 8244 a8ba 6fd9 d43b 7e39 883b
00000070: 63b4 053b 95be cabb 2dcd 5bbc b96a 93ba
00000080: aadd 0f38 00e4 2a3c e434 8c3b 172f e8bb
00000090: b26c c539 cf27 f2bb 40af c1bb 1844 6a3b
000000a0: 5375 0f3c 2687 e3bb 0db8 b83b 73b7 cc3b
000000b0: 6161 0fbc 47c7 bcbb 3494 6dba 2e1d a3bb
000000c0: d3e2 a53b e9c1 3b3a 742e 7d3b da7d a23b
000000d0: a0a3 10bb 10b1 763b e9bc 4abc 7fb8 2cbb
000000e0: a74c b73b 065e 3cba 28e3 61ba a044 223c
000000f0: 610f 61bb eee7 a43b 6442 9aba bd36 233c
00000100: 0db4 6ebb 7398 553b 3b39 26bc 980f 10bc
00000110: e0a2 89bb 3083 c13b 2c97 023c 760e 8cb9
00000120: a756 473b a3fe f2ba 089b 523b 7e2a f4bb
00000130: 5a30 5bbb 92c9 2bbc 269e 70b9 7640 a4ba
00000140: ce0a 13bb ac5a 423c 9493 0dbc 89a7 0f3c
00000150: c162 d6ba 0cb9 7cbb 64fd 9b3b 181b 6839
00000160: 2708 06bb 1e6e a03b 1712 4138 53dd 563b
00000170: 2314 6ebb 99aa 1fbc 0249 073c 39a4 da3b
00000180: df78 003c ffd6 6e3b 9b09 aa3c f864 74bb
00000190: ccee fabb bcc0 303a 9301 17bc 56cf 6f3b
000001a0: 1efb 1ebb 182a cc3a 8694 23bb a271 1aba
000001b0: 9bf5 923c 3653 2d3b 936a 60bb 1435 da3b
000001c0: 3d64 e039 efac 03bb 3080 c9ba c89d 333c
000001d0: c949 c8bb a8ef 21bc 3155 ed3a fbe2 f43b
000001e0: 83cb 353b 9809 07bc c4ab b9bb c6ad 423a
000001f0: f109 3fbb a626 8abb e3e5 f63b e159 edbb
00000200: 12bd 4bb9 e434 04bb 65b5 f43b 94ed 7a3b
00000210: bde1 21bc 0556 25bb 2092 db3b f838 fcbb
00000220: e6cb 433c c3c1 00bc 50b4 32bb b64c e4bb
00000230: 7a27 cebb 9b1c feba b820 12ba ef5d b0bb
00000240: c7d0 1d3b 51fb 12bc 6336 003a b138 ae3b
00000250: f44c debb c8a3 7d3c 3563 efba 51d7 61bb
00000260: caec aabb 89f7 b7bb 6a6d 2ebb 81cb 073c
00000270: 6a5b fb3b f0f9 0e3b 47fc 3f3c f565 9f3b
00000280: 3ca9 b0bb 9b82 9ab8 a1e7 973b 3f1e 173a
00000290: f85c f939 f117 1d3b 8754 04ba 2f06 26bc
000002a0: d73b 05bb d234 b63b 05a3 21bb af65 f63a
000002b0: d0ff ba3b f56d 8abc 402c 063b 90d9 c63b
000002c0: 9a71 0fba 5ff3 993c af72 3c3c 2d11 743b
000002d0: dfda ab3b 34ab 5dbb fb8b 0a3b 005e 253b
000002e0: 73b6 0e3b 2db6 153c 0568 d1bb 9592 6f3c
000002f0: a2db 993b e133 b7bb b2bc 8a3b 513e 2437
00000300: 7750 983b 800a 08bc c8aa de3b e609 5d3b
00000310: 4d0b 1cbb 287d 81bb ee92 0bbc 520a 47ba
00000320: 21fa 133c 4df4 74bb 5e0f 48bb be98 d13a
00000330: 9530 0d3b 8b93 2a3c f022 2abb 4aef adba
00000340: d518 773b 8737 713a dc28 cb39 259b 8abb
00000350: 030b 06bb 840f 5d39 91a4 25b9 7fb1 ec3b
00000360: 3479 283c b928 f6ba 57b1 0ebb 966b 99bb
00000370: d74d 653b 4fc4 04b9 dc52 e8bb 13c3 19bb
00000380: ca68 123c aa64 a63b d184 af3b 1af6 33bc
00000390: d292 e3ba 71bc edba b078 6f3a e1c6 0cbc
000003a0: 6e47 c43a a65f b3bb 0073 0fbb ad57 cabb
000003b0: c4ed 563b 7935 b73b 672c 35bc 70ec e83b
000003c0: 56de 74ba 673f 8e3a 2050 8e3a 0265 223b
000003d0: 40e8 ad3b 3bee 13bc 9e76 38bb fc9b 4e3b
000003e0: 3fea e0ba 7898 1d39 7bb9 7dba 16b4 ccbb
000003f0: 633b 073c 956e d3bb 0f37 353b 8147 2b3b
-0.0063292827 0.012533919 -0.00488548 0.009922521 0.0057462375 -0.0016709905 -0.012402785 0.009857192
-0.0020675885 0.00475259 -0.008998853 0.006141459 0.0026907872 0.008536373 0.0059242127 -0.0017012658
0.005341924 -0.0076164915 5.1846422e-05 0.009162825 -0.0042200466 0.0037337444 0.007907214 -0.006943798
-0.0076740626 -0.00128378 0.0064956467 0.004157244 0.0020401708 -0.00618727 -0.013415617 -0.0011247016
3.4300298e-05 0.010430336 0.004278766 -0.0070856917 0.00037655752 -0.0073899995 -0.005910784 0.0035746153
0.008756 -0.006943601 0.005637175 0.006247455 -0.008751244 -0.0057610604 -0.00090629165 -0.0049778437
0.00506244 0.0007162379 0.0038632425 0.0049588503 -0.0022070184 0.0037642159 -0.012374141 -0.0026355085
0.0055938545 -0.00071856414 -0.0008616918 0.009904057 -0.0034341442 0.005032531 -0.0011769054 0.009961781
-0.0036423237 0.0032592088 -0.010145481 -0.00879278 -0.0042003244 0.0059055313 0.0079706125 -0.00026713655
0.003041664 -0.0018539022 0.0032135863 -0.0074513545 -0.0033445568 -0.01048507 -0.00022947098 -0.0012531418
-0.002243686 0.011862438 -0.008641142 0.008767971 -0.0016356335 -0.0038562445 0.004760431 0.00022135337
-0.0020451637 0.0048959395 4.6031633e-05 0.0032785728 -0.003632792 -0.0097452635 0.0082571525 0.006672409
0.007841318 0.0036444066 0.020756533 -0.0037291627 -0.0076578613 0.0006742587 -0.009216684 0.0036592088
-0.0024258564 0.001557651 -0.0024960353 -0.00058915664 0.01793938 0.0026447303 -0.003424321 0.0066591594
0.00042799293 -0.002009209 -0.0015373286 0.010962911 -0.0061123115 -0.009883799 0.0018107054 0.0074733472
0.002773971 -0.008242033 -0.005666228 0.0007426407 -0.0029150213 -0.004216033 0.007534729 -0.0072433804
-0.00019430023 -0.0020173127 0.007467913 0.003828858 -0.00988048 -0.0025228274 0.006700769 -0.007697221
0.011950469 -0.007858696 -0.002726812 -0.0069671525 -0.006291327 -0.0019387187 -0.00055743335 -0.0053822915
0.002408074 -0.008971051 0.0004890917 0.0053168167 -0.006784076 0.015480943 -0.0018263819 -0.0034460614
-0.0052162157 -0.0056142253 -0.0026615509 0.008288265 0.0076708095 0.0021816455 0.011717862 0.004864449
-0.005391268 -7.3676194e-05 0.0046357666 0.00057647 0.00047562248 0.002397057 -0.0005047996 -0.01013331
-0.0020329857 0.005560496 -0.0024663818 0.0018798615 0.0057067648 -0.016898135 0.0020473152 0.006068416
-0.0005471945 0.018792806 0.011501952 0.0037241683 0.0052445973 -0.003382397 0.0021140564 0.002523303
0.0021776229 0.009137672 -0.006390574 0.01462235 0.0046953717 -0.0055909012 0.00423392 9.789671e-06
0.004648264 -0.008303285 0.006795261 0.0033727824 -0.0023810447 -0.0039516874 -0.0085189175 -0.00075927854
0.009031803 -0.003737706 -0.0030526738 0.0015990955 0.002154385 0.010411154 -0.0025960766 -0.0013270166
0.003770401 0.00092016946 0.0003874962 -0.0042299205 -0.002045334 0.00021081982 -0.00015796932 0.0072233076
0.010282803 -0.0018780447 -0.0021773183 -0.0046820147 0.0034989023 -0.00012661632 -0.0070899557 -0.002346222
0.0089361165 0.005077918 0.005356409 -0.010983968 -0.0017362481 -0.0018137825 0.00091351103 -0.008592338
0.0014974901 -0.0054740487 -0.0021888614 -0.0061750025 0.0032795528 0.0055910912 -0.01105795 0.0071082637
-0.0009340992 0.0010852636 0.0010857619 0.0024779444 0.0053072274 -0.009028967 -0.0028146873 0.003152608
-0.0017159655 0.00015029486 -0.0009678823 -0.006247054 0.008253905 -0.0064523914 0.0027651226 0.002613515

action_model._continuous_distribution.log_sigma f4 [1, 6]
00000000: f611 fb3c ae2f 683d 05a7 203d d6eb 623d
00000010: 9041 1e3d aa4f 723d
0.030648213 0.056686096 0.039221782 0.055400692 0.038636744 0.059158005

action_model._continuous_distribution.mu.weight f4 [6, 64]
00000000: 0685 983c a832 3c3d 150b 3e3b 2f72 35bc
00000010: 1768 fdbc 2dd1 94bc 6788 b53b 7083 21bc
00000020: d257 9ebc e154 9cbb a24f f33b cb03 753d
00000030: c3c5 e2bb 5fc4 c23c 978d cdbc 1afb f8bc
00000040: 83cc 94bc e572 a53c c4d2 173c ee48 113b
00000050: 95fc 01bd f75e bcbc aeca 353d b548 51bc
00000060: 0ef5 be3c 0d6f d93c 666f 47bc 6b7b c43c
00000070: c24c cf3c 8ad7 2f3d 4ebb 32bd dad6 023c
00000080: 543b 563d 6081 13bc c924 db3b 58a4 a2bc
00000090: 560b d1bb c002 0b3d c68c 0f3d cdea d8bc
000000a0: bf4b 05bd 31ab 2abd 869b 39bd 7ec8 fdbb
000000b0: c6b8 a9bc 4ce7 353b b8ca 06bd 56aa 3dbc
000000c0: 3d66 bcbc 1ea8 a63b 65f3 963d 7c5c 3b3d
000000d0: ca47 5a3c a214 38bc f54f 99bc c00b 13bd
000000e0: f82f e13c 0ab8 efbb 37a5 ae3c 565d e6bc
000000f0: 97da abbc e014 a53c 869b e8bc 0c0d 0dbc
00000100: 50e7 b53c 40ba 31bc 6062 133d f93b 15bd
00000110: b818 dfbc e27f 21bb fe88 c73c 8e87 5fbc
00000120: 5cac d1bb 69a8 dc3c a298 c33c 51cc b6bc
00000130: 24fe 99ba c53d 723c d74d c7bc ea20 613b
00000140: 2224 7ebc 079c 343d 0d65 e43c 1f42 9fbb
00000150: 578d 87bd f903 1abd 0d08 863b c637 163c
00000160: a4d8 213c 7482 393d bc59 913d 7b6f 4fbc
00000170: 4975 a13c c673 2fbc 08a5 0b3c 6228 36bd
00000180: bfe7 e4bc efff 42bd a89e 80bb 1cd8 20bd
00000190: 67af a7bc 7b81 c53b ee4d 763c 2ea7 23bd
000001a0: 7af6 023c 50e0 183c 8287 0fbd 84f7 00bc
000001b0: 556b 45bc 186d d4bc 9206 41bd d492 7bbc
000001c0: 20d4 30bc 99dd 35bb d349 d83a 99c0 d4bb
000001d0: 1473 ea3a f7c2 e13c e09a c03b 1eef 143d
000001e0: ade8 ac3c 1f8e 11bd 1611 ad3c 4de9 e0bc
000001f0: e20f d7bc fd6f 9d3c 019d 91bb 8424 b0bc
00000200: 0b1c 0a3c a0f2 19bc 6814 67bd 3692 793b
00000210: ad21 373d 856f 353c 9506 99bc ddac 063d
00000220: 8f9a b23c 54b3 f63b b619 aebc 779d 58bd
00000230: 59e7 303d 7c83 75bc a376 a7bb c5c1 2cbd
00000240: 9acd 9abb acbc 04bc 8825 58bc c3dd b13a
00000250: 0d4c 55bc 9c1d 32bb 542d 573c f841 b63c
00000260: b82d 1dbd be69 e83b 78ce 1b3c 8dd1 f8ba
00000270: 55dd cb3b 489d a5bd 9d13 a1bc dfb7 f3bc
00000280: 10b8 07bd ab89 6f3d 0f64 aebc 302a d1bc
00000290: 9d8e 193d 1b00 283b 8dc0 1f3d b41a 3a3d
000002a0: 6ff3 8dbc 0916 08bd 95dd d3bc b0bd 013d
000002b0: 4abe b63b ce64 8dbc 670e 7d3b 4abc ac3c
000002c0: ff7b b53c 3e7f 533c b8c9 2fbc 4c85 b7bb
000002d0: 2b06 54bc 8600 e83c 15b9 38bd a688 29bd
000002e0: 588f 29bc a3f3 173c b0fb 83bc ff3f 0cbd
000002f0: ad7e 283d b673 9dba 99d9 cebc 7f2f 003d
00000300: c6d6 dbbc 42fd cdbb 3e7a de3c 5e82 ee3c
00000310: c0e3 8bbc fd85 e6bb a649 d03b fc59 093d
00000320: eca1 813c 115b 2f3d 823c a33c 1bda 643d
00000330: 533c 9abc d04f 71bd c4ed 41bd 37bc 29bd
00000340: 490e 22bd 965d 37bd 8334 ef3c 127d 29bc
00000350: 921f 7abc 6dda 8f3b bd9f 05bd 8ff5 a63c
00000360: 348c a2bc 51e2 dcbc 1030 523c 4b20 0b3d
00000370: 4209 82bd 4246 c13c 9a27 dd3c a855 45bd
00000380: 25fa cd3c e0ef d2bc a85b 63bc 7edf 04bc
00000390: 459f 80bc 71ce e03c de69 883c 023a bcbc
000003a0: eaca 833a 44e3 e7bc 4139 a23d 9587 c9bc
000003b0: bdbf 6dbd c5e1 8eba 3e74 483d 0ac8 46bc
000003c0: 2cf1 823c 248d 09bd 4c0a fdbb ce30 adbd
000003d0: c49f 6abd 1401 8bbc 1a2f 82bc 144e 1abd
000003e0: 9cb5 a6bc 6517 0dbc 113c 80bd 0f2b b8bc
000003f0: 4dc4 c33c 05b3 eebc fa47 3cbd a22b a8bc
0.018618118 0.045946747 0.0028998305 -0.011074587 -0.030933423 -0.018166149 0.005539942 -0.009857997
-0.019328985 -0.0047708605 0.0074252645 0.05981807 -0.0069205477 0.023775278 -0.02509193 -0.030393172
-0.018163925 0.020196388 0.009266559 0.0022168714 -0.03173502 -0.022994502 0.044382744 -0.012773682
0.02331021 0.026542211 -0.012172556 0.023984632 0.025305156 0.042930163 -0.04363566 0.007985795
0.052302673 -0.009003013 0.0066877347 -0.019853756 -0.006379525 0.03393817 0.03504636 -0.02647915
-0.03254294 -0.041667167 -0.045314334 -0.007744848 -0.02071799 0.0027756272 -0.03290817 -0.011576256
-0.02299797 0.005085959 0.073706426 0.045742497 0.01332278 -0.011235388 -0.018714884 -0.035899878
0.027488694 -0.0073156403 0.021319015 -0.028120678 -0.020978255 0.020151556 -0.028394472 -0.008609068
0.022205025 -0.010847628 0.03598249 -0.036434148 -0.027233467 -0.0024642874 0.024357315 -0.013643159
-0.0063987207 0.026935773 0.023876492 -0.022314223 -0.0011748713 0.014785235 -0.02432911 0.0034351894
-0.015511544 0.04409411 0.027880216 -0.004860177 -0.06618755 -0.037601445 0.004090315 0.009168571
0.009878311 0.045290425 0.070971936 -0.012660856 0.019709246 -0.010708755 0.008523233 -0.044472106
-0.027942536 -0.04760736 -0.0039251633 -0.039268598 -0.02046938 0.006027398 0.015033228 -0.039954357
0.007993335 0.009330824 -0.03504134 -0.007871512 -0.012049516 -0.025930926 -0.047125407 -0.015354831
-0.010792762 -0.002775049 0.0016501494 -0.006492686 0.0017887079 0.027558787 0.0058778375 0.036360852
0.021107042 -0.035535928 0.021126311 -0.027454996 -0.02625269 0.01921844 -0.004443765 -0.021501787
0.0084295375 -0.009396225 -0.056415945 0.0038081533 0.04470985 0.011073952 -0.018679896 0.0328797
0.021802215 0.007528702 -0.021252494 -0.052884545 0.04318938 -0.014984962 -0.005110578 -0.04217698
-0.0047242166 -0.0081016235 -0.013192542 0.0013570118 -0.01301862 -0.0027178293 0.013133366 0.022248253
-0.03837368 0.0070926836 0.009509675 -0.001898335 0.006221453 -0.0808664 -0.019662673 -0.029750763
-0.03313452 0.0584809 -0.021287946 -0.025532812 0.037489522 0.0025634828 0.03900199 0.045435622
-0.017327992 -0.03322414 -0.025862494 0.03167504 0.0055768834 -0.017259981 0.003861332 0.021085877
0.022153853 0.012908755 -0.010729246 -0.005600607 -0.012940924 0.028320562 -0.045098383 -0.041390084
-0.010349117 0.009274396 -0.016111225 -0.03424072 0.041136432 -0.0012012634 -0.025250243 0.031295296
-0.02683581 -0.006286294 0.027157899 0.029114898 -0.017076373 -0.0070350156 0.006356436 0.03353308
0.01582428 0.042811457 0.019926313 0.055872064 -0.018827593 -0.058914006 -0.04734589 -0.04143926
-0.039564405 -0.044766985 0.029199844 -0.0103447605 -0.015266316 0.004390052 -0.03262304 0.020380763
-0.019842245 -0.026963385 0.012828842 0.033966344 -0.06349422 0.023593072 0.026996423 -0.04817739
0.025143692 -0.025749147 -0.013876833 -0.008109925 -0.015700946 0.027442189 0.016652044 -0.022976879
0.001005498 -0.02830661 0.079210766 -0.024600783 -0.058044184 -0.0010901025 0.048938982 -0.012132654
0.01598414 -0.033581868 -0.0077221747 -0.084565744 -0.05728127 -0.016968288 -0.0158916 -0.037672117
-0.02035027 -0.008611535 -0.06261457 -0.02248147 0.023897314 -0.029138098 -0.04596708 -0.020528618

action_model._continuous_distribution.mu.bias f4 [6]
00000000: 3f2d 3c3b bea9 04bc 2d8c 38bb 5760 c33c
00000010: 2e93 efbb 1206 0bbc
0.0028713492 -0.00809711 -0.0028159723 0.02384965 -0.0073112464 -0.008485334

onnx::LSTM_101 f4 [1, 256, 256]
00000000: 7db3 b23d 51b4 a23d d7f1 a53d 9731 abbd
00000010: d80f d0bd 0b40 ea3c 1588 b3bd c89b 813d
00000020: 11d9 9b3d d9fe b23d eaf7 0c3c e27c 68bd
00000030: 8a2c 74bc c6cf d5bd a194 dd3b cd33 5b3d
00000040: a0bc 263d 1047 053e bb43 8d3d 2903 1bbc
00000050: e04a a5bc d8ce 103e 15bb fa3d 238e 563d
00000060: 7f1d d23d 67f2 12be 03ed 9b3d 47bb 923d
00000070: 3187 803d 42e1 f3bd a4b6 4cbd 1676 e93b
00000080: 8ff8 b83b c368 9d3d 7e0d b63c fe59 c73d
00000090: ed3d c23c 7a8e debd 9d96 d4bd 76f2 933c
000000a0: 15ec 88bd 57e1 35bd f824 3cbd 72c9 a2bd
000000b0: 15d1 fcbd 21f2 01bd b864 be3c b797 55bd
000000c0: f34c 143e 15c1 9e3d d14d 833d 96fc fb3d
000000d0: e2b0 953d 0e0e 153d ba0b aa3d d38a 12bd
000000e0: 1bc0 ff3d 9c08 77bd affd 3cbd eab9 c73c
000000f0: db6c 02be 1edf 063e 770c fb3b bc87 473d
00000100: 89b1 9a3d 7b09 fc3d 72ee a13d 7717 21bd
00000110: 73a6 bfbd 229a af3d a245 df3c 456f 2b3d
00000120: dccc 0d3e ed0c 083d b411 23bd 2ee7 c23d
00000130: 0d96 713c 67e4 93bd e66b 203d 39a1 083e
00000140: 2947 db3d a3e8 67bd d894 f9bd 509e 413d
00000150: db60 eebd 28be 953d 1c21 93bc bd5d ff3d
00000160: 8a3d ba3d dbed 85bc 921b a8bd bc33 003e
00000170: 6bf4 f33d b7a0 febd 5b66 0c3e d84e a1bd
00000180: 8ff0 a33c 7580 4abd ea7b 773d 47ae bfbd
00000190: c697 363d 89eb ccbc ecf8 053e a848 943d
000001a0: e4e8 70bd 67c7 c73d 5810 9b3d fad8 c0bd
000001b0: 896f 66bd bbf0 1f3d 36cd 623d 2125 093e
000001c0: 8d5f 8dbd c9ce e53c 5d45 3a3c af51 dabd
000001d0: d751 0b3c 15eb 20bc 45d3 843d 26ae c5bd
000001e0: 84f0 853c 0c43 133c 5a80 8a3d bc88 ec3c
000001f0: 1303 863d a867 ea3a ca1c b8bd bbab ad3d
00000200: cdde 063e 07de b5bd 53d9 c33c 2337 89bd
00000210: 7f4c a0bd 8003 0dbd 9107 133c 13f4 0ebe
00000220: b240 aabd 63e6 d83d 6d04 683d 66cd fb3c
00000230: 7940 e13d 38a3 c1bd 083e cb3c f570 d83c
00000240: 929e 8a3d 6451 e23d 6079 d9bd c1fe ec3d
00000250: b7f4 e5bd cfe1 fbbd fa94 af3d 2f37 f33c
00000260: 604d d63d 1d7d 8fbd 5550 1cbd 0e7a 81bd
00000270: cdbb e93d 6b0e 9d3d e6a6 ddbd fc40 193d
00000280: 6cd3 553c d9d2 ccbd 4875 c1bd 584d c73d
00000290: 3662 0bbd 955d 0a3e 756f bf3d aaef b5bc
000002a0: 9311 efbc 81de 5a3d 8853 1e3b d68b 3ebd
000002b0: 9d87 ec3c 5499 903d 7620 9ebd f7af 91bd
000002c0: 4d88 e3bd 14a3 013e 337d 9d3d 018a e6bd
000002d0: 3e5e 223d e479 6abd 3c9f 5dbd 6eee 17bd
000002e0: bb34 a1bd 63eb adbc 1c72 15bd 5566 ca3c
000002f0: 6346 983d f432 8ebd 7cf1 81bd 6273 283d
00000300: defd 37bd e42f 443c ef51 cabd 999e 813d
00000310: 4b03 ebbd e783 ff3d 3d5d 003d 57c2 dbbd
00000320: 9294 9fbd f945 863d a69d 243c 069c 97bd
00000330: 0c5c aabd a40f debd d227 e4bb 2f2c 9a3d
00000340: b10a 0fbc 75f7 b63d cfe0 13bd 7410 b8ba
00000350: 228d b43d 260d c5bc a580 b63d e536 9f3d
00000360: 0fb7 ca3d 82f6 803d 8364 eebc 1a14 d83d
00000370: cae4 eebd d651 9c3d 6bf5 93bd d485 ee3d
00000380: 846c 35bd b8fb aabd cfc0 68bd 96f0 ea3c
00000390: 370d 013e 07aa e2bc be47 b53c a9d6 fdbd
000003a0: acb1 b4bd 3a04 3c3c 189b 3f3d 9bbb 8abc
000003b0: 0366 03bd 3a30 f839 2e77 6c3d e7f3 f1bd
000003c0: 2a25 0abe 236d ffbd 616c f1bc 1e96 c8bc
000003d0: f24d c53d 1036 0fbd e0bb 163d 35d0 b3bd
000003e0: a3b7 9cbc 54e7 14bd 6516 a73d 3e00 9d3d
000003f0: 1365 f1bd 8402 943d b0a6 343c 7b43 f03d
0.08725641 0.07944549 0.08102768 -0.08359068 -0.10159272 0.028594991 -0.0876619 0.06328541
0.076097615 0.087400146 0.008604029 -0.056759723 -0.014903197 -0.1044002 0.0067621027 0.053516198
0.04070723 0.1301539 0.06897684 -0.009461203 -0.020177305 0.14141405 0.12242714 0.052381646
0.10259532 -0.14350282 0.07613566 0.071646266 0.06275786 -0.11908199 -0.049978867 0.0071246726
0.005644865 0.07685997 0.02222323 0.097339615 0.02371117 -0.10867019 -0.1038029 0.01805995
-0.06685654 -0.044404354 -0.045933694 -0.07948579 -0.12344567 -0.031725053 0.023241386 -0.05214664
0.14482479 0.07751671 0.06411327 0.12304036 0.07309128 0.036390357 0.08303018 -0.035776924
0.12487813 -0.060310945 -0.04614037 0.024380643 -0.12736838 0.1317105 0.007661398 0.04871343
0.075533934 0.12306496 0.07906808 -0.03932902 -0.093579195 0.085743204 0.027254883 0.04185416
0.13847679 0.033215452 -0.039811805 0.0951675 0.014745248 -0.07221299 0.0391654 0.13342752
0.10706932 -0.056618344 -0.12186593 0.04727012 -0.116395675 0.0731166 -0.017960124 0.12469051
0.09093769 -0.01634877 -0.082083836 0.12519735 0.119118534 -0.12432998 0.1371092 -0.078763664
0.020012168 -0.049438912 0.060420908 -0.09359413 0.044578336 -0.025014656 0.13083237 0.072404206
-0.05881585 0.0975483 0.07571477 -0.09416385 -0.056258712 0.039047938 0.055371486 0.1339307
-0.069029905 0.028052704 0.011369077 -0.10660111 0.008503399 -0.009821673 0.06485609 -0.09652357
0.016350038 0.008988153 0.06762762 0.028873794 0.06543555 0.0017883675 -0.08989866 0.084800206
0.13170929 -0.08880239 0.02390734 -0.066999696 -0.078270905 -0.034427166 0.008973972 -0.13960294
-0.08313121 0.10590818 0.056644846 0.03073759 0.10998625 -0.0945496 0.024809852 0.02642105
0.06768526 0.1105068 -0.106188536 0.11572028 -0.11228316 -0.12298929 0.08573337 0.0296894
0.10463977 -0.07006285 -0.038162548 -0.06322108 0.11412773 0.07668766 -0.10822849 0.03741549
0.013050895 -0.100011535 -0.09446198 0.09731549 -0.034029208 0.13512261 0.093474306 -0.022209007
-0.029183185 0.053434853 0.0024158675 -0.046520077 0.02887326 0.07060495 -0.07721035 -0.07113641
-0.11109982 0.12659866 0.076898955 -0.11256791 0.039640658 -0.05724515 -0.054106936 -0.03709262
-0.07871386 -0.021230405 -0.036485776 0.024706999 0.074353 -0.06943312 -0.063448876 0.041125663
-0.04491984 0.011974309 -0.09878909 0.06329078 -0.114752375 0.1247633 0.03133892 -0.10730427
-0.077920094 0.06556315 0.010047352 -0.07402806 -0.08318338 -0.10842827 -0.0069627548 0.075279586
-0.008730576 0.089339174 -0.036103066 -0.0014042989 0.088159814 -0.024054121 0.08911256 0.07774142
0.09898197 0.06297018 -0.029100662 0.10550709 -0.11664732 0.076327965 -0.07224544 0.116466194
-0.04429294 -0.08348793 -0.0568245 0.028679173 0.12602697 -0.027668966 0.022128936 -0.12394459
-0.08822951 0.011475617 0.04677877 -0.01693516 -0.032079708 0.00047338178 0.057730846 -0.11814099
-0.1349074 -0.12471988 -0.029470624 -0.024485644 0.096340075 -0.034963667 0.036800265 -0.08779947
-0.019130534 -0.036353424 0.08158568 0.07666062 -0.117868565 0.07227042 0.0110260695 0.11731621

onnx::LSTM_102 f4 [1, 256, 64]
00000000: e813 51bd 0454 563c 7725 57be 11dd 1dbe
00000010: ce90 ee3d 2a83 9b3d 522a fa3d 8c8e 073e
00000020: d8dd 163e 95f2 493e 4f68 4dbe cf30 903d
00000030: bca1 abbd 7c67 44be 5175 883d 2775 38be
00000040: d114 3cbc 0b49 963c 9b84 8a3d c602 283e
00000050: 5d5c 04be 4849 303d b153 39be 106a 9f3d
00000060: 7032 48be 5c38 3ebc 00bb 67bd 5f0d 22be
00000070: be46 17be 492c 3ebe 8c1d 563e a81b 4bbd
00000080: 6209 3a3e de32 babd b56f abbd b580 01be
00000090: 7250 e93d b51b 113e e48f 773d 1df6 47be
000000a0: 7e8f c1bd 7be6 0dbe b95a 5d3e 40e4 00bd
000000b0: 24a4 d33d 69b7 c5bd 43b8 5a3c e456 4c3e
000000c0: 7d07 a6bc 26df b2bc b2fe 03bb b21d 333e
000000d0: 2df2 0a3e 4cfe 243c 38ad 043e 9272 1e3e
000000e0: 25b3 4c3e dd0b 29bd 779b 3f3e 2664 993d
000000f0: 64a8 52be 6b2f 6b3d f842 233e b139 cd3d
00000100: 84cd e4bd 7e39 21be 796c 0c3b 79c0 d83d
00000110: 3c81 11be 5fdd c7bd 5691 37be 59d2 04be
00000120: c5a5 fcbb ab9f dfbc 683d 393e 8e8f b53d
00000130: 9b58 c53d 356b 70bc 120d 4c3d 7e83 28be
00000140: f85f 97bd 3456 e93c c400 4fbe 41b2 b33c
00000150: d5fc e6bd 4cc2 24be 20fc 6abd c279 5bbe
00000160: d5fd 2a3d 2035 b53d 305e 663d 4afb 103d
00000170: 24ff 403e 6621 f5bc 5de6 ab3d 1aa2 82bc
00000180: 5b8b fdbd 253e 823d b2d4 dcbd 00f0 16be
00000190: 0cf7 39be d9dc 39be d3f4 22bd d952 4a3e
000001a0: fe41 3cbe 9b0b 12bd 7000 adbd d9d8 c23d
000001b0: 47ad 14be fea6 fe3d b7da 85bd aca4 2fbe
000001c0: 1f42 01bd 365a debd 9456 4f3e 8845 b8bd
000001d0: d012 3c3e 04c4 fb3d 8ee5 4dbe 651f a1bd
000001e0: 1354 a73d 8b9c 91bd 31d5 b93b ad52 1b3e
000001f0: ac3c edbd 3180 3f3e d4a6 28bd 051e 99bd
00000200: 6fff 81bd c7eb 84bd 7c2b 35bd eebf b73d
00000210: 9dca 1dbe 1a5b 403e 9cfe e13d 032d bd3d
00000220: 3a10 a13d e5d3 35be 8b2d a9bc b4aa 3fbe
00000230: 4596 3ebd 7330 3e3e c06a ddbd 0cda 3d3e
00000240: 8c34 39be 35df aebc 134d 3b3e f9c2 2cbe
00000250: e682 683e 312a 12be d713 02be 8ca5 64bd
00000260: 6978 b6bc 8b0a 843d 3809 1dbe 3d64 293e
00000270: 537a 323d 2066 fcbd 2a7e 753d af3d 37be
00000280: c558 98bb a422 47be eeb5 b63c d7b5 623e
00000290: 0324 ff3d 96ba 1fbd 34c3 b03d fcef dd3d
000002a0: 7ce0 323e 7fa1 b2bd fc58 00be 724d 393d
000002b0: b7be 13be ea06 f03a 7053 52bc e342 d1bd
000002c0: 60e6 2fbe 7867 8abb 6f04 fc3d 22c6 183e
000002d0: a3c0 543e 2988 063e 3819 2e3e e68f d53c
000002e0: 7a0c 233e dea7 8dbd f58a 6a3e 88dc 4b3d
000002f0: ceaf 2d3d 9fe6 ffbd fd70 3b3e 99f8 8e3c
00000300: 4762 263d 9d76 2ebe 1d2d 9bbd 2296 4bbe
00000310: d1ef 333e f7d5 473d 30f3 f7bd 9da5 debc
00000320: 7936 4fbd 3436 4f3c 24c1 c53c d509 b73d
00000330: 4e76 383e 7262 1a3e 2465 a6bd 5226 113e
00000340: 3711 553e f9fd 5a3d 4d89 e03d d153 0ebe
00000350: e87b b73c 3f2d 073e 454c 54be d22f 14be
00000360: 375a cd3d 6020 1e3e 16fc 61bd 3172 96bd
00000370: 4c0c 433e 0d7d 49be f8a3 9ebd 8804 873c
00000380: ddea 0dbb 87d7 43be 4afb 1fbe 626a 543e
00000390: f5f8 e7bd 5b27 cdbd 5d9e 923d 20db 3dbe
000003a0: ae1e 443e 365a 8e3d 7a9c aebd 6f3b 303e
000003b0: 67e9 343d 0c75 80bc e700 ac3d 185d 20be
000003c0: 2451 443e 02cd ec3b 082e 003e 2ca8 0ebe
000003d0: ffce db3d 3a54 23bc 643a 8a3d 2663 523e
000003e0: 4db8 9b3c 77f9 febd c287 12be eb71 cfbd
000003f0: f79f 2e3e 32a6 553e 871b 913d 7eb8 dcbd
-0.051044375 0.013081554 -0.21010385 -0.15416361 0.11648713 0.07593377 0.12215103 0.13237971
0.14733064 0.19721444 -0.20059322 0.070405595 -0.08380458 -0.19180101 0.06663001 -0.1801344
-0.011479572 0.018345376 0.06763574 0.16407308 -0.12925859 0.043038636 -0.18098332 0.07783902
-0.1955049 -0.011610117 -0.05657482 -0.15825413 -0.1477308 -0.18571581 0.20909709 -0.049586922
0.18167642 -0.090917334 -0.08370916 -0.12646754 0.11392297 0.14170726 0.06043996 -0.19527479
-0.09451197 -0.13857453 0.21616639 -0.031467676 0.10334042 -0.09654123 0.0133495955 0.19955021
-0.020267243 -0.021834921 -0.0020140824 0.17491797 0.13568945 0.010070395 0.12956703 0.15473393
0.19990213 -0.04127108 0.18711649 0.07489805 -0.20572048 0.05741827 0.15943515 0.100207694
-0.111720115 -0.15744588 0.002142696 0.10583586 -0.14209455 -0.0975902 -0.17926535 -0.12970866
-0.007710191 -0.027297815 0.18089831 0.088652715 0.09636041 -0.014673998 0.049817152 -0.1645641
-0.073913515 0.028483488 -0.20215136 0.021935584 -0.11278693 -0.16089743 -0.05736935 -0.21433166
0.04174598 0.088480234 0.056242168 0.035395898 0.18847328 -0.029923152 0.08393548 -0.015946437
-0.123800956 0.063595094 -0.10782756 -0.1473999 -0.18160647 -0.18150653 -0.039784264 0.19758166
-0.18384549 -0.0356556 -0.08447349 0.09514017 -0.14519225 0.12434195 -0.06535857 -0.17152661
-0.0315572 -0.1085705 0.2024787 -0.08997637 0.18366551 0.122932464 -0.201071 -0.07867316
0.08170333 -0.07109936 0.0056711663 0.15168257 -0.11583838 0.18701245 -0.041174725 -0.07476429
-0.06347548 -0.064902835 -0.044230923 0.089721546 -0.15409322 0.18784752 0.11034891 0.09237101
0.07864423 -0.17756613 -0.0206516 -0.18717462 -0.046530027 0.1857317 -0.108113766 0.1854021
-0.18086451 -0.021346668 0.1829112 -0.16871251 0.22706184 -0.14273907 -0.12702881 -0.05582194
-0.022274213 0.064473234 -0.15335548 0.16542144 0.04357369 -0.12324166 0.059934773 -0.17894624
-0.004649254 -0.19446808 0.022303548 0.22139679 0.124580406 -0.0389963 0.08630982 0.10836789
0.17468446 -0.08722209 -0.12533945 0.045239873 -0.1442822 0.0018312607 -0.012837276 -0.10217836
-0.17177725 -0.00422376 0.12305533 0.14919332 0.2077661 0.13137878 0.17001808 0.026069593
0.15922728 -0.06916784 0.2290457 0.049770862 0.04240399 -0.12495159 0.1830482 0.017452525
0.04062107 -0.17037435 -0.07576964 -0.1988149 0.17571951 0.048788037 -0.12106931 -0.02717858
-0.05058906 0.0126472 0.024139948 0.08937422 0.1801388 0.15076616 -0.0812476 0.14174774
0.20807348 0.053464863 0.10963688 -0.13899161 0.02239795 0.13200854 -0.2073222 -0.14471367
0.10026973 0.15442038 -0.05517205 -0.07345999 0.1904766 -0.1967661 -0.07746118 0.016481653
-0.0021654882 -0.19125186 -0.15623203 0.20743707 -0.11326782 -0.10017272 0.07159112 -0.18540621
0.19152328 0.069508 -0.08525939 0.17210172 0.044167902 -0.015680812 0.083986096 -0.15660512
0.19171578 0.0072265873 0.1251756 -0.1393134 0.10732841 -0.009968812 0.067494184 0.20545635
0.01900878 -0.124499254 -0.143096 -0.1012915 0.17053209 0.2086418 0.070853285 -0.107773766
