code/selfparking/mla/results/test_04/Car/Car-44046.onnx (onnx, 692944 bytes, 10 tensors)

network_body._body_endoder.seq_layers.0.weight f4 [256, 91]
0	0x3d5926b9	0.053015444
1	0xbdaa5771	-0.083174594
2	0xbdd01107	-0.10159498
3	0x3d7186a0	0.05896628
4	0x3d4d6a30	0.050150096
5	0xbe4da03f	-0.2008066
6	0xbdd3fe1f	-0.10351204
7	0xbd781cbf	-0.06057429
8	0xbdd33148	-0.10312134
9	0xbe07ee3b	-0.13274471
10	0xbe2ad970	-0.16684508
11	0xbd303f13	-0.043028902
12	0xbdd9439e	-0.106086
13	0xbd5ba303	-0.053622257
14	0x3ddb1385	0.106970824
15	0xbdba48a1	-0.09095884
16	0x3dfe26fe	0.12409781
17	0x3cb5be13	0.022185361
18	0xbc9bb9d8	-0.019009516
19	0xbdd47e93	-0.103757046
20	0xbe2d37a1	-0.16915752
21	0x3e31d6f3	0.17367153
22	0xbdb2bedf	-0.08727812
23	0x3e00857d	0.12550922
24	0xbd838b04	-0.064229995
25	0x3cc8e954	0.024525322
26	0x3d93e859	0.07222051
27	0x3db58bd5	0.088645615
28	0x3dba63b8	0.09101051
29	0xbda184ee	-0.078866825
30	0xbd4ab1e4	-0.049486056
31	0x3db3d81a	0.087814525
32	0x3d998956	0.07496898
33	0xbd8dff2e	-0.06933437
34	0xbdf11165	-0.11770896
35	0x3e37b5c3	0.1794043
36	0xbbac9a28	-0.0052674003
37	0xbdcc41d7	-0.099734955
38	0x3d9ab210	0.07553494
39	0xbdc61c28	-0.09673339
40	0xbe128191	-0.14307238
41	0x3ce5fedd	0.02807563
42	0xbda58b0c	-0.08083162
43	0xbd283f66	-0.041076086
44	0xbcc0b69c	-0.023524575
45	0xbe83e3ad	-0.2575964
46	0x3ddcc408	0.107795775
47	0x3dc01c0c	0.093803495
48	0x3d7672f5	0.060168225
49	0x3e86f706	0.2636034
50	0x3c2068fb	0.009790654
51	0x3e664e7e	0.2249088
52	0x3d8a9d2c	0.067682594
53	0x3e193959	0.14963283
54	0xbe11162d	-0.14168616
55	0x3e2a67b3	0.1664112
56	0xbe85ac40	-0.2610798
57	0xbdbd157b	-0.09232613
58	0xbb998156	-0.0046846075
59	0xbe3523ab	-0.17689388
60	0xbdc45b8f	-0.09587776
61	0x3da54255	0.080692925
62	0xbc5981c5	-0.013275568
63	0xbddda782	-0.10822965
64	0x3c02a61f	0.007974177
65	0xbdf7b4d2	-0.120950356
66	0x3d3ed5fc	0.04659079
67	0x3c46f679	0.012143725
68	0x3df0c72d	0.1175674
69	0xbe1ee47c	-0.15516847
70	0xbccd826f	-0.02508661
71	0x3e06599b	0.1312012
72	0x3df15a8b	0.11784848
73	0x3e7c805d	0.24658342
74	0xbddb034c	-0.10693988
75	0x3d81b45a	0.063332275
76	0x3c9f5e0e	0.019454028
77	0x3e4d6b36	0.20060429
78	0x3db71966	0.08940391
79	0xbd977c30	-0.07396734
80	0x3d4c46e4	0.049872294
81	0x3cc05b53	0.023481047
82	0x3d28d153	0.041215252
83	0x3c9ecc67	0.019384576
84	0xbdbb21a5	-0.091372766
85	0xbdc46d0e	-0.09591113
86	0xbe16c6d0	-0.14724278
87	0x3d5ba41e	0.05362331
88	0x3c51bae6	0.012800908
89	0x3e298671	0.16555192
90	0xbd234c62	-0.039867766
91	0xbdf106f7	-0.117689066
92	0x3cf0f18f	0.02941206
93	0xbd9424a5	-0.07233552
94	0x3dc95dac	0.098323196
95	0x3dc8d0d4	0.09805456
96	0xbdef607e	-0.11688326
97	0xbd9dc86e	-0.077042446
98	0xbcc5a1f8	-0.024125084
99	0x3dc9f0bc	0.098603696
100	0x3ddfee59	0.10934133
101	0xbe2a61c6	-0.1663886
102	0x3d9c58ac	0.076341
103	0x3d7a314d	0.061082173
104	0x3dbccc03	0.092186
105	0x3d2ccda3	0.042188298
106	0xbdaf9bdc	-0.0857465
107	0x3de4b76d	0.11167798
108	0x3e708815	0.23489411
109	0x3d5cd535	0.053914268
110	0x3d01ff29	0.03173748
111	0xbde989c3	-0.11403229
112	0x3cd25651	0.025675924
113	0xbdf6f205	-0.1205788
114	0x3d9310fa	0.071809724
115	0x3e0e3787	0.1388837
116	0xbd7c0685	-0.061529655
117	0x3baa9afc	0.005206464
118	0x3d621a7e	0.055201046
119	0xbd82f223	-0.0639384
120	0x3e0923ff	0.13392638
121	0xbe305d36	-0.17223057
122	0x3ba2328f	0.0049498747
123	0x3d4429c3	0.04789139
124	0xbd2ffca4	-0.042965546
125	0x3d942192	0.072329655
126	0xbce34ea8	-0.027747467
127	0x3dcbc1e1	0.09949089
128	0x3e5703c2	0.20997527
129	0x3dd65041	0.10464526
130	0x3d9964c6	0.07489924
131	0x3e0b27d3	0.1358941
132	0xbe4c1ed2	-0.19933632
133	0xbd0594f9	-0.032612775
134	0x3e0e86ce	0.13918611
135	0x3e293e08	0.1652757
136	0xbd77363e	-0.060354464
137	0xbd934876	-0.07191555
138	0xbe6cdc86	-0.23130998
139	0x3e3731f2	0.17890146
140	0xbbc27395	-0.0059341886
141	0x3de2e1b3	0.11078205
142	0x3e414f8a	0.18877998
143	0xbdb56a06	-0.08858113
144	0x3d5c9d59	0.053860996
145	0x3da7f84c	0.08201656
146	0x3e2d692c	0.16934651
147	0xbdda8d9b	-0.1067154
148	0xbd8fc842	-0.07020618
149	0xbdfc8b97	-0.12331312
150	0x3daca7c4	0.08430436
151	0x3e0da989	0.13834204
152	0xbe1dc69d	-0.15407796
153	0x3d22a9aa	0.039712586
154	0x3ae9b7ad	0.0017831229
155	0x3d87190d	0.06596575
156	0xbdb0befe	-0.08630179
157	0xbe0791a4	-0.13239151
158	0xbd577e2e	-0.05261057
159	0x3da9477b	0.08265587
160	0x3b1ddf6b	0.0024089466
161	0xbe0c2701	-0.13686754
162	0xbda73ae0	-0.081655264
163	0x3e057550	0.13033032
164	0x3e015ffa	0.12634268
165	0xbe280b0a	-0.16410461
166	0x3beb1491	0.0071740826
167	0x3d284a9c	0.041086778
168	0xbe390e4f	-0.18071865
169	0x3dba3ed7	0.09094017
170	0xbcb2d9b5	-0.021832326
171	0x3d7d737f	0.061877724
172	0xbd20104a	-0.039078034
173	0xbc317f83	-0.010833624
174	0x3b30f6a5	0.002700248
175	0x3d8467d5	0.06465117
176	0xbe07a8da	-0.13248006
177	0xbd926de9	-0.0714987
178	0x3d2684e9	0.040654097
179	0x3d7090ea	0.05873195
180	0xbd89b5d9	-0.06724138
181	0xbdead9f9	-0.11467356
182	0x3cc5f32d	0.024163807
183	0x3da35e09	0.0797692
184	0x3db15335	0.086584486
185	0x3dae2417	0.08502977
186	0x3dc1421a	0.09436436
187	0xbd2af288	-0.041735202
188	0xbde33883	-0.11094763
189	0xbdd1b4c9	-0.1023956
190	0x3dcc8165	0.099856175
191	0xbd93e050	-0.072205186
192	0xbcd68e6e	-0.026190963
193	0xbe1e4101	-0.15454485
194	0xbe0a442a	-0.13502565
195	0xbda9a2f5	-0.08283035
196	0x3d724b4c	0.05915384
197	0xbc040ffe	-0.008060453
198	0xbdb0ad15	-0.08626763
199	0x3d8d21bb	0.06891199
200	0xbe210874	-0.15725881
201	0x3df37a87	0.118886046
202	0x3c9374bc	0.018
203	0x3d59380f	0.053031977
204	0x3db726f8	0.089429796
205	0x3d448c94	0.04798563
206	0xbdd6e208	-0.10492331
207	0x3bae9436	0.0053277267
208	0x3d057633	0.032583427
209	0x3c43f6e9	0.011960723
210	0x3d924300	0.071416855
211	0x3c0efc8f	0.008727207
212	0x39b4d98f	0.0003449437
213	0xbd74f212	-0.05980117
214	0xbcfa5583	-0.030558353
215	0x3dc19024	0.09451321
216	0xbb5a17d0	-0.0033278354
217	0x3e2a45f4	0.16628247
218	0x3df3cd14	0.1190435
219	0x39336413	0.00017108051
220	0xbd6799b0	-0.056543052
221	0xbc739bca	-0.014868686
222	0x3e285e39	0.16442193
223	0x3e41aaf3	0.18912868
224	0x3d8884b5	0.06665937
225	0x3c1f9b2d	0.009741587
226	0xbcacf0c7	-0.021110905
227	0xbdd4650d	-0.103708364
228	0x3dbe215c	0.092837065
229	0xbc6f2c8c	-0.014598023
230	0xbe11aaad	-0.14225264
231	0x3def9574	0.11698428
232	0x3b31ea08	0.002714755
233	0xbb07e364	-0.00207349
234	0x3d869d62	0.06572987
235	0x3d05cd9a	0.03266678
236	0xbd948d5e	-0.07253526
237	0x3e2f8712	0.17141369
238	0xbd9bead7	-0.076131515
239	0x3ddcf72a	0.1078933
240	0x3df609aa	0.12013562
241	0x3d9162af	0.070989005
242	0x3d377e91	0.044798438
243	0x3c183154	0.0092891045
244	0xbad47692	-0.0016209653
245	0xbe0b277d	-0.13589282
246	0x3db1f5b1	0.0868944
247	0x3c828892	0.015934262
248	0x3d23f031	0.040023986
249	0xbc906ebc	-0.017630927
250	0xbddae941	-0.10689021
251	0xbe062050	-0.13098264
252	0x3c39584e	0.011312557
253	0x3e398870	0.18118453
254	0x3e59ff37	0.21288763
255	0x3daa2b94	0.08309093

network_body._body_endoder.seq_layers.0.bias f4 [256]
0	0x3b37f447	0.0028069185
1	0x3ae555eb	0.0017496919
2	0xba173152	-0.0005767542
3	0xba4c8f8b	-0.0007803372
4	0xbb09b851	-0.0021014402
5	0xbaeaa8c0	-0.0017903075
6	0x39cee675	0.00039463086
7	0xbade2c26	-0.0016950413
8	0xba561648	-0.00081667723
9	0xbaaac0fb	-0.0013027483
10	0xb85bab65	-5.2373292e-05
11	0xbb5a8253	-0.003334184
12	0x3a95768b	0.0011403126
13	0xbaf9e57e	-0.0019065586
14	0x3adfdcd1	0.0017079358
15	0x3acfd061	0.0015854948
16	0x3b40e8be	0.00294356
17	0xbaea725f	-0.0017886868
18	0x3b1de615	0.0024093438
19	0xba5a5e9a	-0.0008330137
20	0x3a31c595	0.0006781456
21	0x3a832b0c	0.0010007336
22	0xba075099	-0.00051618513
23	0x3b0c0166	0.0021363138
24	0xb9bc04c5	-0.00035861708
25	0x3b585d3a	0.0033014552
26	0xbb5dd856	-0.003385087
27	0xb9c0de04	-0.00036786508
28	0xb98204ee	-0.00024799205
29	0x3a420492	0.0007401194
30	0x39ae63ed	0.00033262317
31	0xb93b6252	-0.00017870337
32	0xba83a897	-0.001004475
33	0xbafb9336	-0.0019193653
34	0xbb2732f8	-0.0025512557
35	0x39defdd9	0.0004253227
36	0x3ad3233b	0.0016108522
37	0x39e1622e	0.00042988494
38	0xbb6db667	-0.003627205
39	0xb9d42cc4	-0.00040469144
40	0x3a44a827	0.00075018633
41	0xba7002a7	-0.00091556687
42	0xba869770	-0.001026852
43	0x3b3b93db	0.0028622064
44	0x3ae3b826	0.0017373606
45	0xba8b8547	-0.0010644578
46	0xba33f02c	-0.00068640965
47	0x39809bb8	0.00024530082
48	0x3a75b3cb	0.00093727995
49	0xbb00182b	-0.0019545655
50	0xbb312704	-0.0027031312
51	0x3b27e3eb	0.0025618027
52	0x3a97503f	0.0011544301
53	0xbabec503	-0.0014554564
54	0xbb1a0905	-0.0023503911
55	0xbb026f13	-0.0019902631
56	0xbb25150e	-0.0025189552
57	0x3a2f42d3	0.0006685678
58	0xba8804b9	-0.0010377384
59	0xbad852c8	-0.0016504163
60	0x3a6d476f	0.0009051477
61	0x3b3313c0	0.0027325004
62	0x39bde332	0.00036218163
63	0xbaae3fd8	-0.0013294173
64	0xbadcc39f	-0.0016842968
65	0xbb169f83	-0.002298326
66	0x3a068b97	0.0005132495
67	0x3a83d4d3	0.0010057933
68	0xbac04a80	-0.001467064
69	0xbac89c9d	-0.0015305463
70	0x3b99f0e4	0.004697906
71	0x3a0efbe5	0.00054544053
72	0x3a3d518a	0.0007221928
73	0xb9073d79	-0.00012897504
74	0xbad6ac16	-0.001637819
75	0xbb08ea37	-0.0020891556
76	0xbb22917f	-0.002480596
77	0x3b28dd37	0.002576662
78	0xbb1f4f66	-0.00243088
79	0x3b031c85	0.0020006013
80	0xb9b34de8	-0.00034199585
81	0xbafbf91d	-0.0019224022
82	0xb98ae403	-0.00026491293
83	0xba5d6557	-0.0008445582
84	0xb9ab826c	-0.00032712833
85	0xba6b4d8d	-0.00089760945
86	0xbaf93166	-0.0019011914
87	0x3b5c9da0	0.0033663288
88	0xbb3bdf04	-0.0028666863
89	0xbabca59d	-0.0014392618
90	0x3973dede	0.0002325731
91	0x3b1226b7	0.0022300908
92	0x397b4872	0.00023964213
93	0xb87818ac	-5.9150785e-05
94	0x3b56e091	0.003278766
95	0x3a9fbd42	0.001218714
96	0x3ae09495	0.0017134125
97	0x3a882b93	0.0010388963
98	0xbaaa223c	-0.0012980173
99	0xbb03f8f0	-0.0020137392
100	0xb9a0ba0c	-0.00030656194
101	0xbad45c8a	-0.0016201895
102	0x3b172e8d	0.0023068518
103	0xba83b72c	-0.0010049096
104	0xbb1f6af5	-0.0024325226
105	0x3b65a4e3	0.0035040907
106	0xba7c97e1	-0.0009635669
107	0xbb17414b	-0.002307969
108	0x3b62df3d	0.0034617924
109	0x3ac4a42d	0.0015002541
110	0xbb8bcd55	-0.004266421
111	0xbb05e3f1	-0.0020430053
112	0xbb338eba	-0.0027398304
113	0xbb4760b7	-0.0030422637
114	0x3b1033fe	0.0022003646
115	0xb9e45062	-0.0004354744
116	0x3b87069b	0.0041206605
117	0xbb491d76	-0.0030687726
118	0x3b0e42f1	0.002170738
119	0x381414d1	3.5305336e-05
120	0x3aee2cdc	0.0018171328
121	0xba7e6b4f	-0.0009705321
122	0xbb53187f	-0.0032210646
123	0x3ace4436	0.0015736881
124	0xbb23ad49	-0.0024975112
125	0x3ace9cbf	0.0015763267
126	0xb9b3d933	-0.00034303367
127	0x3b144760	0.002262555
128	0x3a78e784	0.0009494948
129	0x3a4de3c7	0.0007854071
130	0xbae754d1	-0.0017649179
131	0x3b02cd85	0.0019958925
132	0x3b7bc3c0	0.0038416237
133	0xbaaeb751	-0.0013329779
134	0xbb8b5499	-0.004252028
135	0xb9c87a1e	-0.00038237957
136	0xba81ad48	-0.0009893561
137	0x3a5507cb	0.00081264664
138	0x3a549c93	0.00081104896
139	0x3b54264b	0.0032371457
140	0xbb11d38d	-0.0022251338
141	0xbb5a7abb	-0.0033337313
142	0xbb1ac88f	-0.0023618077
143	0xbb9ba48c	-0.00474984
144	0xbacc1216	-0.0015569355
145	0xbb316ba9	-0.0027072227
146	0xbb38fc0b	-0.0028226401
147	0xba967a47	-0.0011480533
148	0x3ac68785	0.0015146589
149	0xb9bc641c	-0.00035932742
150	0x3b371241	0.0027934464
151	0xbb8d7fa2	-0.0043181935
152	0x3aca5494	0.0015436583
153	0xbb2d3d72	-0.002643433
154	0xbb63edff	-0.0034779308
155	0xbadb827d	-0.0016747263
156	0xba8a588b	-0.0010554952
157	0x3a670c15	0.0008813751
158	0x3a834dc8	0.0010017687
159	0xba613800	-0.00085914135
160	0x3b6e632c	0.003637503
161	0xba5d97e6	-0.00084531156
162	0x39a29ebc	0.00031017314
163	0x3a94c6cd	0.0011350751
164	0xbb2be1fa	-0.0026227222
165	0xba30dd6a	-0.00067468605
166	0x3a8d861d	0.0010797415
167	0xbaeaeebf	-0.0017923935
168	0x3a22d992	0.000621223
169	0x3a6ddaf8	0.00090734614
170	0xbb66885b	-0.003517649
171	0x3b1fd6bd	0.0024389469
172	0x3ade296f	0.0016949604
173	0xba62c902	-0.00086511683
174	0x3a0f71dc	0.00054719835
175	0x3aa8fb7d	0.0012892332
176	0xbb72c23f	-0.003704205
177	0x3a94639e	0.0011321192
178	0x3b55345e	0.0032532434
179	0x3b4b2d41	0.0031002315
180	0x3a766014	0.0009398472
181	0xb96a35e3	-0.00022336053
182	0x3a84c46d	0.001012934
183	0xbb4641b7	-0.0030251571
184	0x3ae36e94	0.001735168
185	0x3aad007c	0.0013198997
186	0x3b2d7484	0.0026467154
187	0x3aca395d	0.0015428473
188	0x3b04c63e	0.0020259763
189	0xb9d6cef9	-0.00040971467
190	0xb81a18c0	-3.673951e-05
191	0x398a5568	0.00026385044
192	0xb9a26067	-0.00030970873
193	0x39f1ef2a	0.00046145293
194	0xba95c85d	-0.0011427511
195	0x3b3db3df	0.0028946323
196	0x3ae22152	0.0017252362
197	0x3ab34b50	0.0013679061
198	0xba9074e9	-0.001102117
199	0xba8b4358	-0.0010624928
200	0x3b4df363	0.0031425587
201	0xba9ecf2a	-0.0012116183
202	0xba5619eb	-0.0008167314
203	0xbafaf3b4	-0.0019146116
204	0x3b01b274	0.0019790204
205	0xb91f16ab	-0.00015171866
206	0x3b1fb3ed	0.0024368719
207	0xbb136c97	-0.0022495145
208	0xba816a0b	-0.0009873522
209	0x3af3b5f5	0.0018593656
210	0xbb7ddcaa	-0.0038736262
211	0x39f7764e	0.00047199655
212	0x38451260	4.6985573e-05
213	0xbace5fa4	-0.0015745056
214	0xb9e4a29b	-0.000436087
215	0x3994e957	0.00028402611
216	0x3a8d6cda	0.0010789887
217	0x374ef3ec	1.2335349e-05
218	0xbacdb402	-0.0015693905
219	0xbade28a8	-0.0016949372
220	0x3aef04ef	0.0018235723
221	0xbb441032	-0.002991688
222	0x3b2f889b	0.0026784304
223	0xbae5ad8e	-0.0017523037
224	0x3b216ca7	0.0024631412
225	0xba6bcf37	-0.0008995416
226	0x3a8eaa7d	0.001088455
227	0xbb21b7ef	-0.0024676283
228	0x3a1b7c60	0.0005931314
229	0xba94fb27	-0.0011366353
230	0xbb2505ad	-0.0025180385
231	0x3ba4fff4	0.005035395
232	0x3b594026	0.0033149808
233	0x39c5e985	0.00037748754
234	0x3b00b99e	0.0019641886
235	0x397a5917	0.00023875046
236	0xba87d641	-0.0010363535
237	0xbb69c434	-0.0035669925
238	0x3b748f53	0.0037316873
239	0x3a88f19d	0.0010447983
240	0x3ac83bb9	0.0015276588
241	0x3b7b6129	0.0038357473
242	0xbaa1b03b	-0.0012335846
243	0x3ad8e456	0.0016547542
244	0xb9a6545d	-0.00031724843
245	0x3b01a09c	0.0019779569
246	0x3a2d39be	0.00066080305
247	0xbb32d4fc	-0.0027287593
248	0xba82c4e5	-0.0009976892
249	0x3b5665d5	0.0032714505
250	0x39c62ece	0.00037800375
251	0x3affd98e	0.0019519792
252	0x3acb2057	0.0015497309
253	0xbaa167c8	-0.0012314254
254	0xbb143023	-0.00226117
255	0x3a09a529	0.0005250746

network_body._body_endoder.seq_layers.2.weight f4 [256, 256]
0	0x3d05bff2	0.032653756
1	0xbdc9a64d	-0.098461725
2	0x3d2fc3cc	0.042911336
3	0x3d3ee77f	0.04660749
4	0xbd800a5e	-0.062519774
5	0x3dba66c8	0.09101635
6	0xbd392105	-0.045197506
7	0xbcafd096	-0.021461766
8	0x3d4595e9	0.04823867
9	0x3d9d9a52	0.0769545
10	0x3ca7a388	0.02046372
11	0xbd9a8996	-0.07545774
12	0xbd2a9d0c	-0.041653678
13	0x3dbda5a4	0.09260109
14	0xbdfe0d47	-0.12404876
15	0xbd2ad1ca	-0.041703977
16	0x3d0dca59	0.034616802
17	0x3d6d3739	0.057913993
18	0xbcf6f550	-0.030146271
19	0xbdd98e71	-0.10622872
20	0x3d9b5584	0.0758467
21	0x3b985ca8	0.0046497174
22	0x3db99c7a	0.09063049
23	0x3cb04422	0.021516863
24	0xbcb005a6	-0.021487068
25	0x3c32b617	0.010907671
26	0xbd84975d	-0.06474183
27	0x3dbf419e	0.09338687
28	0x3c441068	0.011966802
29	0x3ca67138	0.020317659
30	0x3d3bfc3a	0.04589484
31	0x3cf1a5cc	0.029498003
32	0x3d9762c0	0.07391882
33	0xbd00364a	-0.031301774
34	0xbd85245a	-0.06501074
35	0x3cec01f8	0.028809533
36	0x3d79c7bf	0.06098151
37	0x3d191e73	0.037382554
38	0xbcc7ebd1	-0.024404438
39	0xbdad5f26	-0.08465414
40	0x3c532b4f	0.012888744
41	0xbdbe3dad	-0.092891075
42	0x3d16f1c9	0.036851678
43	0x3ba2e4a6	0.0049711047
44	0x3d1ab885	0.037773628
45	0xbd3938c8	-0.045220166
46	0xbc092a40	-0.00837189
47	0x3d2c75c1	0.042104486
48	0xbc1959dc	-0.009359803
49	0x3d84d9ed	0.064868785
50	0xbd7a9ada	-0.061182834
51	0x3d3d34ce	0.046192937
52	0xbc91ba43	-0.017789012
53	0x3c02fad4	0.007994372
54	0xbcfa36a0	-0.030543625
55	0x3e268119	0.16260184
56	0x3cd24986	0.025669824
57	0xbddb58e9	-0.10710318
58	0xbd82a33a	-0.06378789
59	0x3dd98615	0.10621277
60	0xbb401043	-0.0029306568
61	0x3d47d10d	0.04878335
62	0x3c213c30	0.00984101
63	0xbd520d9a	-0.051282503
64	0xbd4258b6	-0.047447883
65	0xbd9c1c6c	-0.076226085
66	0x3d73d92f	0.059533294
67	0x3d8ac27a	0.06775375
68	0xbccee7ad	-0.025256956
69	0xbdd4aa65	-0.10384063
70	0x3d96a897	0.07356375
71	0xbd48a4cc	-0.048985288
72	0x3d0243d8	0.031802982
73	0xbbab44b3	-0.0052266954
74	0xbbf3a96b	-0.0074359677
75	0xbd05bf76	-0.032653295
76	0x3d5351f9	0.051591847
77	0x3d02f6ec	0.031973764
78	0x3e31a38d	0.17347546
79	0xbcbb4dbb	-0.022864213
80	0xbdb88fef	-0.09011828
81	0xbdeae26f	-0.1146897
82	0x3e3dd3d9	0.18537845
83	0x3d361bb6	0.04446002
84	0xbdc4bb4b	-0.09606036
85	0x3d61d20f	0.055131968
86	0xbd945c55	-0.072441734
87	0xbcf8f682	-0.030390982
88	0x3d47ca12	0.048776694
89	0x3c120e18	0.008914493
90	0xbdd96465	-0.10614852
91	0x3c173b7a	0.009230489
92	0x3db3befa	0.0877666
93	0xbd971b9a	-0.073783115
94	0x3e135eb8	0.14391601
95	0x39fd8276	0.0004835312
96	0xbc96aa3a	-0.018391717
97	0xba86edd7	-0.001029427
98	0xbcdf0407	-0.0272236
99	0xbd8b80ed	-0.068117
100	0xbc7355d7	-0.014852009
101	0xbda7a9bd	-0.08186672
102	0xbd595344	-0.053057924
103	0x3ad77e2f	0.0016440804
104	0x3dcc9174	0.099886805
105	0xbd335d83	-0.04379035
106	0xbd149605	-0.036275882
107	0xbd85167d	-0.0649843
108	0x3d5a2f75	0.053267915
109	0x3d1eff17	0.03881749
110	0xbd2c71cd	-0.042100716
111	0xbd164a10	-0.036691725
112	0xbd86fd07	-0.0659123
113	0xbdcf243f	-0.10114335
114	0xbca9e4b6	-0.02073894
115	0xbd92a0a4	-0.07159546
116	0xbd7779f1	-0.060419027
117	0x3d885170	0.06656158
118	0xbce83085	-0.028343448
119	0xbd741b45	-0.05959632
120	0xbce9568d	-0.028483653
121	0x3d188104	0.037232414
122	0xbc04dc56	-0.008109173
123	0x3d29a357	0.04141554
124	0x3df20646	0.11817603
125	0xbd0c3d84	-0.034238353
126	0x3d5cfc51	0.053951565
127	0xbcd5b0c5	-0.026085267
128	0x3e0297d6	0.12753233
129	0x3d9fe51d	0.07807372
130	0x3cd1caa3	0.02560932
131	0xbc9c72e8	-0.01909776
132	0x3d4431f2	0.047899194
133	0xbd5a9bfa	-0.053371407
134	0x3cd32aec	0.025777303
135	0xbd6f1ba0	-0.058375955
136	0xbd4292e3	-0.047503363
137	0xbbdbc388	-0.0067066588
138	0xbdb18455	-0.086678185
139	0x3d1e617b	0.038667183
140	0xbcdcd3a0	-0.02695638
141	0xbd0fb6ee	-0.035086565
142	0x3b8e5969	0.0043441546
143	0x3cbe477f	0.023227451
144	0xbcf73492	-0.030176435
145	0x3c868651	0.016421469
146	0x3cd7aa6f	0.026326386
147	0xbda77a10	-0.081775784
148	0x3d74a742	0.059729822
149	0xbd7ed529	-0.062215004
150	0x3d3ab2bc	0.04558061
151	0x3dac45cb	0.084117495
152	0x3c6c994c	0.014440846
153	0x3da97685	0.08274559
154	0x3dbe813e	0.09301995
155	0xbc00f2fb	-0.007870431
156	0xbafab001	-0.001912594
157	0x3c81ea40	0.01585877
158	0xbb9f554a	-0.004862462
159	0x3c89b0e9	0.01680799
160	0xbdaf0b55	-0.08547083
161	0xbd50fff6	-0.051025353
162	0x3c0ebe2c	0.008712333
163	0xbd997c7b	-0.07494446
164	0xbd58c748	-0.052924424
165	0x3e04924e	0.12946436
166	0x3d1b9f88	0.037993938
167	0xbcf4b0d9	-0.029869484
168	0xbda843b9	-0.08216042
169	0xbd188977	-0.03724047
170	0xbdb132bf	-0.08652257
171	0xbd106f88	-0.035262614
172	0xbd87bb00	-0.06627464
173	0xbc7666cc	-0.015039157
174	0xbd0991cb	-0.033586305
175	0x3dd7b7a9	0.10533077
176	0xbc3618b4	-0.011114288
177	0xbbcc816a	-0.0062410133
178	0xbd8a4bfe	-0.067527756
179	0x3d1f4fdc	0.03889452
180	0x3d8cbee2	0.068723455
181	0x3dddb51d	0.1082556
182	0xbc49bb6c	-0.012312751
183	0x3ce4e34e	0.027940419
184	0xbc95e8db	-0.01829951
185	0xbd87eba3	-0.06636741
186	0x3c3b71f7	0.011440746
187	0xbd649d5f	-0.055814143
188	0x3c07608a	0.008262763
189	0x3d913d85	0.07091812
190	0xbad9395e	-0.0016572883
191	0x3d8c6cf5	0.068567194
192	0xbdc769c6	-0.097369716
193	0x3db2d985	0.08732895
194	0x3d05da28	0.032678753
195	0x3d992401	0.0747757
196	0x3c9df64e	0.019282486
197	0xbba7b05d	-0.0051174597
198	0x3bbabd56	0.00569884
199	0xbdee4ea9	-0.11636097
200	0xbe251fcf	-0.16125415
201	0x3e0e5b8d	0.13902111
202	0xbd9912ec	-0.07474312
203	0xbc86a9b6	-0.016438346
204	0x3d1335d3	0.035940003
205	0xbdd135e5	-0.10215358
206	0xbb1df304	-0.0024101147
207	0xbd80b79b	-0.0628502
208	0xbd0c9889	-0.034325156
209	0x3caa971a	0.020824004
210	0xbd3084e9	-0.043095503
211	0x3b185f93	0.0023250326
212	0x3d7ba633	0.061437797
213	0xbd4cc938	-0.049996585
214	0xbdf6a4d4	-0.12043157
215	0x3e091239	0.13385858
216	0x3c8446fd	0.016147131
217	0x3c4a2496	0.012337824
218	0x3d8e5f0b	0.06951722
219	0x3afbf61b	0.0019223125
220	0x3d466a0a	0.04844097
221	0xbccbf45d	-0.024896795
222	0xbbbc3ff1	-0.005744927
223	0xbd7952dd	-0.06087004
224	0x3d19f954	0.037591293
225	0x3cd30096	0.025757115
226	0xbdb6812e	-0.08911358
227	0x3c9ad5e4	0.01890082
228	0x3cfae521	0.030626835
229	0xbd92aced	-0.07161889
230	0x3d70c5e8	0.058782488
231	0x3dd0a230	0.10187185
232	0xbd764dfd	-0.06013297
233	0xbb600005	-0.00341797
234	0x3d06055a	0.032719947
235	0xbd5cc6e3	-0.05390061
236	0x3b555869	0.0032553917
237	0x3d3515a8	0.044210106
238	0xbdb748e3	-0.08949449
239	0x3bd90283	0.006622614
240	0x3dec781c	0.115463465
241	0xbd2b0e01	-0.041761402
242	0x3d54ee28	0.051984936
243	0xbd90e690	-0.07075226
244	0x3cb56c53	0.02214638
245	0xbc970f22	-0.018439833
246	0x3c04dd3b	0.008109386
247	0x3da4f7c9	0.08055074
248	0x3d0ce2d3	0.034396004
249	0xbcbcef76	-0.023063403
250	0x3cc1443a	0.023592103
251	0xbdaf4f28	-0.0856002
252	0x3d57d718	0.052695364
253	0xba0a5ff9	-0.0005278583
254	0xbd5648e1	-0.052315596
255	0xbc7cffee	-0.015441878

network_body._body_endoder.seq_layers.2.bias f4 [256]
0	0x3b30e05a	0.0026989193
1	0x3abb2783	0.0014278743
2	0xb9bd9755	-0.0003616164
3	0x3a91cb7e	0.0011123267
4	0x3add27b7	0.0016872798
5	0xb89c41b0	-7.450895e-05
6	0xba9d45c9	-0.0011998947
7	0x38f7c239	0.000118140546
8	0xba864f91	-0.0010247101
9	0xbb205008	-0.0024461765
10	0xbb40a465	-0.0029394862
11	0x3b50471b	0.0031780663
12	0x3b43c028	0.0029869173
13	0x3a6e6ef8	0.0009095515
14	0x3aa57554	0.0012623467
15	0x3afcba78	0.0019281646
16	0xba46b49e	-0.00075800146
17	0x3b0c32ff	0.00213927
18	0xb88541a3	-6.35416e-05
19	0xbade24db	-0.001694824
20	0xbae3ca8c	-0.0017379089
21	0x3b680994	0.00354061
22	0xbaaf2eae	-0.0013365352
23	0xbaf5c1d2	-0.001874978
24	0xba757129	-0.00093628705
25	0x3afc9618	0.0019270806
26	0x39b3d4a9	0.00034299985
27	0xbaab003f	-0.0013046338
28	0x3974a2d3	0.0002333031
29	0xbad41080	-0.0016179234
30	0x3b239f4a	0.002496677
31	0x3ad52e32	0.0016264378
32	0xb9ae19e8	-0.00033207168
33	0xba1fa18b	-0.00060894404
34	0xbb13ede1	-0.0022572207
35	0xbb49db27	-0.003080079
36	0xbaf8151d	-0.0018927191
37	0xb9a0ab4a	-0.00030645198
38	0xb9b3cebe	-0.00034295575
39	0x3af836a1	0.0018937179
40	0xbb63d4f7	-0.0034764388
41	0xbb0d3947	-0.0021549033
42	0x3a64b093	0.00087238214
43	0xbabcbe6a	-0.001440001
44	0x3b198f69	0.0023431426
45	0xb8cd2cc8	-9.783503e-05
46	0xb8f5e3be	-0.00011724931
47	0xb8bc7c11	-8.987648e-05
48	0xbb1a19b0	-0.0023513846
49	0x3b6b83b7	0.0035936662
50	0xbaba3a02	-0.0014207962
51	0xbb71a8a0	-0.003687419
52	0xbb228866	-0.0024800538
53	0xbaedd596	-0.0018145319
54	0x3aec293c	0.001801766
55	0xba6fca3c	-0.0009147262
56	0xbade3ebe	-0.0016955954
57	0x3ad73d80	0.0016421527
58	0x39b63eb9	0.00034760477
59	0xbb13ca5b	-0.0022551033
60	0xbb5f6053	-0.0034084513
61	0xba8fdc47	-0.0010975682
62	0x39f28db8	0.00046263426
63	0xbabc8243	-0.0014382083
64	0x39b11ae3	0.00033780103
65	0x3b79a77f	0.003809422
66	0x39f26bef	0.00046238254
67	0xba8338b9	-0.0010011412
68	0xbb1ab7d2	-0.00236081
69	0xbb312ad9	-0.0027033596
70	0x3a61eee8	0.00086186687
71	0x3b06a9d7	0.002054801
72	0x3ad9d5d6	0.0016619514
73	0x39cf88b3	0.00039583966
74	0xba221aa0	-0.0006183777
75	0xba33c9bf	-0.00068583706
76	0x3acd72a0	0.001567442
77	0x38708aba	5.7349658e-05
78	0x3a05dac7	0.0005106148
79	0xbb150ad2	-0.0022742045
80	0x3b62af4d	0.003458935
81	0x35ac0e80	1.2819219e-06
82	0xba4b8149	-0.00077631004
83	0xba82c0ef	-0.0009975712
84	0xbaf3e105	-0.001860649
85	0x3b5cd2eb	0.0033695053
86	0x3b561645	0.0032667082
87	0x3b72ba25	0.003703722
88	0xba38aca5	-0.0007044769
89	0x3af117cf	0.0018393936
90	0xbb146404	-0.0022642622
91	0x381dc885	3.7618465e-05
92	0xba07cbc0	-0.00051802024
93	0x3b2084a2	0.0024493118
94	0xba98fae4	-0.0011671451
95	0xb9ce394a	-0.00039334066
96	0x3b3dc139	0.002895428
97	0x3a9154c2	0.0011087882
98	0x3a09a6d6	0.0005250996
99	0x3b360b2e	0.002777766
100	0x3b3bdaf4	0.0028664442
101	0x3b10d055	0.0022096832
102	0xbb24a53c	-0.0025122901
103	0xba2ae9f0	-0.0006519845
104	0xba12228d	-0.00055746065
105	0xba0b2adc	-0.0005308816
106	0xbb2505c8	-0.0025180448
107	0x3ac4ffd2	0.0015029854
108	0x3b258781	0.0025257769
109	0xbb1a5cd1	-0.0023553858
110	0xbada47d4	-0.0016653487
111	0x3b7acd28	0.0038269255
112	0x3aba59cf	0.0014217439
113	0x3ac353ec	0.001490233
114	0x3ab3a43c	0.0013705562
115	0x3b0c68ce	0.0021424773
116	0x3a8885a2	0.0010415802
117	0xba3e6f2c	-0.00072644907
118	0xb9b0f549	-0.00033752088
119	0xba9420fa	-0.0011301332
120	0xbb36b1d1	-0.0027876983
121	0x38cd0eb8	9.777903e-05
122	0x3b16ad25	0.0022991386
123	0xbb239e7f	-0.0024966297
124	0xbb1bb333	-0.0023757934
125	0x38ada8ff	8.280761e-05
126	0xba796dbc	-0.0009514948
127	0x3b957ebd	0.0045622275
128	0x3abf1040	0.0014576986
129	0xba857250	-0.0010181163
130	0x3a1a17fe	0.0005878209
131	0xba408ea6	-0.0007345475
132	0xbb4543a7	-0.0030100138
133	0x3a0d4855	0.00053895015
134	0xbb099e4f	-0.00209989
135	0x3b2e7ad3	0.0026623502
136	0x3ab5f48c	0.0013882085
137	0xbac272ed	-0.0014835276
138	0xba8298cb	-0.0009963749
139	0xbab8d980	-0.0014102906
140	0xbae2c400	-0.0017300844
141	0xbaae5a33	-0.0013302028
142	0xba066298	-0.0005126386
143	0xba8de2e7	-0.0010825068
144	0xb9d2d996	-0.00040216435
145	0xba059437	-0.0005095633
146	0x3aa5a634	0.0012638033
147	0xba64f3e9	-0.0008733855
148	0xba5e9391	-0.0008490617
149	0xba8ea32b	-0.0010882368
150	0x3b8dd316	0.004328142
151	0x3b388a36	0.0028158552
152	0xbb07f2fa	-0.002074419
153	0xbb45cd4b	-0.0030182179
154	0x3a26cad3	0.00063626206
155	0x3a7e2cc8	0.0009696004
156	0xbaaeda2b	-0.0013340166
157	0x3a8a2b43	0.0010541457
158	0xbaf0c2a8	-0.0018368559
159	0x3af7b2c5	0.0018897882
160	0xbb0c4361	-0.0021402466
161	0xba8113ed	-0.0009847857
162	0xbb164ece	-0.0022935155
163	0x3b22b302	0.0024825935
164	0x3aa6c046	0.0012722097
165	0xb85e5829	-5.301103e-05
166	0xbb024e3e	-0.0019883062
167	0xba027d18	-0.0004977747
168	0xbb537314	-0.0032264637
169	0xbac95b0f	-0.0015362221
170	0xbb2d6e69	-0.0026463515
171	0xba53d0b3	-0.000808011
172	0x3b9c2f90	0.004766412
173	0x39237f9e	0.00015592432
174	0xbb299aca	-0.0025879615
175	0x3a834380	0.0010014623
176	0xbace1658	-0.0015723212
177	0xbaa169d3	-0.0012314863
178	0xbac7a99d	-0.0015233044
179	0xba41e60f	-0.0007396647
180	0xbb8c756e	-0.0042864596
181	0xbb0471c5	-0.0020209413
182	0xb8d6d2e4	-0.000102435966
183	0x3b6c2224	0.0036031092
184	0x3afacb3b	0.0019134054
185	0x3aab77d5	0.0013081977
186	0x3b28d165	0.0025759574
187	0x399eb066	0.00030267535
188	0xbaa48ca6	-0.0012554124
189	0x3a535b46	0.0008062612
190	0xbbaf0c4c	-0.005342042
191	0xba7f6b9c	-0.0009743513
192	0x3a2d318a	0.0006606808
193	0xbb0398db	-0.0020080123
194	0xba3710a7	-0.00069833774
195	0xb923cdc0	-0.00015621539
196	0x3a2dfff6	0.00066375674
197	0xb9ab2a47	-0.0003264716
198	0xbabc66ed	-0.0014373936
199	0x3b64eb5a	0.003493032
200	0x3aad291b	0.0013211103
201	0x39cbcfb9	0.00038873943
202	0xbba1a330	-0.0049327835
203	0xb8d1c4c3	-0.00010002546
204	0x391460cd	0.00014150441
205	0x3a3c0946	0.0007173013
206	0xbb231f59	-0.002489051
207	0x3ac85652	0.0015284515
208	0x38b051ce	8.407571e-05
209	0x3a7c7a6b	0.0009631279
210	0xba3c4bab	-0.0007182906
211	0x3a57bdd0	0.00082298834
212	0x399fad0d	0.00030455776
213	0xba28a6c3	-0.0006433541
214	0x3aa898b2	0.001286289
215	0xbb3245c8	-0.0027202237
216	0x3ad8df9c	0.0016546133
217	0x3a7ae218	0.0009570434
218	0x3a4ff63c	0.0007933115
219	0x38c30959	9.300066e-05
220	0xba0c8823	-0.0005360862
221	0x3b7f0b36	0.0038916594
222	0xb8ecd4e2	-0.000112930094
223	0x3ac74a63	0.0015204664
224	0x3a1134f4	0.00055392017
225	0x39eb5208	0.0004488381
226	0x39d88015	0.0004129416
227	0xbb20a1d7	-0.0024510527
228	0xbb3abf7a	-0.0028495477
229	0xbacd4bc6	-0.0015662841
230	0xbb06e0b6	-0.0020580715
231	0xbaede2c4	-0.0018149246
232	0xbac78c86	-0.0015224374
233	0xba9943ab	-0.001169314
234	0x3b0833b4	0.002078277
235	0x3a2114d7	0.0006144768
236	0xb9931a7d	-0.0002805776
237	0x3ba23401	0.004950047
238	0x3a2f2e03	0.00066825765
239	0xba1f365f	-0.00060734706
240	0xbab9e179	-0.0014181576
241	0xba34aa39	-0.000689182
242	0x3a066ef1	0.0005128226
243	0xbabdb9d3	-0.0014474936
244	0xbb0e9152	-0.0021754098
245	0xb9ff6ae7	-0.0004871704
246	0xbb6a9020	-0.0035791472
247	0xbb0ab4f1	-0.0021164978
248	0x38a51dc1	7.873355e-05
249	0xbabc8e6e	-0.0014385709
250	0xb9e9f4f3	-0.00044623725
251	0x3b04f7e9	0.0020289368
252	0xb9a6539c	-0.0003172428
253	0x3a21e169	0.00061752513
254	0xba448f4f	-0.0007498161
255	0x3a51ba3a	0.0008000467

action_model._continuous_distribution.log_sigma f4 [1, 6]
0	0x3b5e3a50	0.0033909269
1	0x3a81177b	0.0009848917
2	0x3b9eebd4	0.0048498902
3	0x3c017ecd	0.007903767
4	0x3b74757e	0.0037301476
5	0x3bb7aafc	0.0056050997

action_model._continuous_distribution.mu.weight f4 [6, 64]
0	0x3cfdd297	0.030984206
1	0xbd8025dd	-0.06257222
2	0x3d4243c4	0.047427908
3	0xbd812ebf	-0.06307744
4	0x3a0d71e9	0.0005395697
5	0xbc2437a0	-0.010023028
6	0xbbc40e75	-0.0059831687
7	0x3bddee74	0.0067728106
8	0xbd20ca5b	-0.03925548
9	0xbcd4cbb7	-0.025976045
10	0x3cb9f620	0.02270037
11	0x3b752788	0.0037407596
12	0x3d3edd67	0.046597864
13	0xbb29e56a	-0.0025924095
14	0x3cb932bb	0.022607198
15	0xbd214301	-0.03937054
16	0xbb9b3d28	-0.004737515
17	0x3cb4c038	0.022064313
18	0x3c461a78	0.012091272
19	0xbb1abe22	-0.0023611863
20	0x3c5c09ed	0.013430101
21	0x3d06260b	0.032751124
22	0x3c7512a4	0.014958058
23	0xbc126fb6	-0.008937767
24	0xba637a1c	-0.00086775585
25	0xba5d519e	-0.0008442643
26	0xbaf57564	-0.0018727002
27	0x3d3072d1	0.043078247
28	0x3c305e69	0.010764697
29	0xbce0bd7e	-0.027434107
30	0xbc87723d	-0.016533965
31	0x3c892e55	0.016745726
32	0xbd881eca	-0.066464975
33	0xbc04afdf	-0.008098572
34	0x3c489d03	0.012244466
35	0x3d3f069d	0.046637166
36	0xbcd7ee49	-0.02635874
37	0xbc825927	-0.015911652
38	0xbc329407	-0.01089955
39	0xbc9a43e7	-0.018831206
40	0x3cc66793	0.02421931
41	0xbc7a7dd2	-0.015288787
42	0xbcaab7f6	-0.020839673
43	0x3bb27ea1	0.0054472242
44	0xbbab64a6	-0.005230504
45	0x3cd50000	0.026000977
46	0xbcf0fd28	-0.02941759
47	0x3c0f8607	0.008759982
48	0xbca8ed91	-0.020621093
49	0xbccac6b5	-0.024752954
50	0x3b36d2d9	0.002789667
51	0xbb8d320e	-0.0043089455
52	0x3b9d6bfe	0.0048041334
53	0xbd3df984	-0.046380535
54	0x3c7fa943	0.01560432
55	0x3c7183cc	0.0147408955
56	0x3c0ebe89	0.008712419
57	0x3c94fac3	0.018185979
58	0xbb417a1d	-0.0029522248
59	0xbb875f6d	-0.0041312487
60	0x3cde23d2	0.02711669
61	0xbd110f84	-0.035415187
62	0x3c0a5749	0.008443662
63	0x3b724cc8	0.0036972035
64	0xbd02cd7b	-0.031934243
65	0xbc91c895	-0.01779584
66	0x3d600032	0.054687686
67	0x3b1c2418	0.0023825224
68	0x3cf7b20e	0.03023627
69	0xbc2dfe4c	-0.010619711
70	0xbd0866c7	-0.03330114
71	0x3c8b8cd2	0.017034922
72	0xbc7543c0	-0.014969766
73	0x3b971928	0.004611153
74	0xbba1a0d3	-0.004932502
75	0x3c559577	0.0130361235
76	0x3cd3f182	0.025871996
77	0x3c0470dc	0.008083548
78	0x3cbf15c6	0.023325812
79	0xbcc21097	-0.023689551
80	0xbd410550	-0.047124207
81	0xbb5fefd1	-0.0034170041
82	0x3c4fbf50	0.01267989
83	0xbc987c09	-0.018613832
84	0xbce0cbab	-0.027440866
85	0xbcfae9c4	-0.030629046
86	0xbd33adbf	-0.04386687
87	0x3bc7c328	0.0060962625
88	0xbccff635	-0.025385955
89	0x3d131efa	0.035918213
90	0xbc9d135e	-0.019174274
91	0x3c27cad9	0.010241234
92	0xbcaa1756	-0.02076308
93	0x3c931d20	0.017958224
94	0xbd1c164e	-0.03810721
95	0xbb693456	-0.0035584173
96	0xbd35bd83	-0.044370186
97	0x3d2c98df	0.042137977
98	0xbceb33a2	-0.028711144
99	0x3c8c0a11	0.017094644
100	0xbd20dcc8	-0.039273053
101	0xbc07982d	-0.008276028
102	0x3c1c8a2b	0.009554426
103	0xbc5e7356	-0.013577303
104	0xbc47a681	-0.012185694
105	0x3c8068c7	0.015674962
106	0xbbeb3066	-0.0071774004
107	0x3cc34c05	0.02383996
108	0xbca3b0cd	-0.019981766
109	0xbb11f560	-0.00222715
110	0x3c066ab3	0.00820415
111	0x3c6affa3	0.014343175
112	0x3b126c62	0.0022342433
113	0x3cfca056	0.030838173
114	0xbc173a72	-0.009230243
115	0xbc9e6107	-0.019333376
116	0x3b79a781	0.0038094225
117	0xbd22245b	-0.039585453
118	0xbcaea797	-0.021320147
119	0xbb8b1da8	-0.0042454787
120	0x3a4ed62e	0.00078901916
121	0xbc3539b7	-0.011061124
122	0xbca9d813	-0.020732915
123	0x3c9f5428	0.019449309
124	0xbcca9bdb	-0.02473252
125	0xbd0be55b	-0.034154277
126	0xbc74772a	-0.014920989
127	0x3d1d295e	0.03836953
128	0xbc51ed08	-0.01281286
129	0x3c4e326b	0.012585263
130	0x3d25b2db	0.040453773
131	0x3c858949	0.016300814
132	0xbbf8f303	-0.0075973286
133	0x3d06b123	0.032883774
134	0xbc997800	-0.018733978
135	0x3c6c2c72	0.014414893
136	0x3bf9d0e3	0.007623778
137	0x3c5623c0	0.013070047
138	0x3ce717cb	0.028209588
139	0xb9385ce2	-0.00017582209
140	0x3bd88fd2	0.0066089416
141	0x3bec2439	0.0072064665
142	0x3ce1629a	0.027512837
143	0xbc96f829	-0.018428879
144	0xbc0ae6ad	-0.008477849
145	0x3c9f7cd9	0.019468712
146	0x3c5a01d8	0.013306104
147	0x3d2f6920	0.042824864
148	0x3c24dc24	0.010062251
149	0xbd10b11c	-0.035325155
150	0xbc58d690	-0.013234749
151	0x3d75194a	0.05983857
152	0x3c6a7482	0.014310004
153	0x3d0011bb	0.03126691
154	0x3b1badbe	0.0023754681
155	0xbc6ad526	-0.014333045
156	0xbd05a36f	-0.032626566
157	0xbbdbe55d	-0.006710692
158	0xbc5d6a0b	-0.013514052
159	0xbba03684	-0.0048893113
160	0xbc8d6a6c	-0.01726266
161	0xbc8617df	-0.016368804
162	0x3b6a1523	0.0035718165
163	0x3c2e1cc2	0.010626974
164	0x3d11e555	0.0356191
165	0x3cdfae2c	0.027304731
166	0xbb1f5a8c	-0.0024315445
167	0x3ccb3592	0.024805818
168	0xbc41b77e	-0.011823533
169	0x3d1485fc	0.03626059
170	0x3b1a680c	0.0023560552
171	0x3bdc8bfd	0.006730555
172	0xbc99d5f2	-0.018778775
173	0xbd40e5fe	-0.047094338
174	0x3cb4ebf1	0.022085162
175	0x3bef4ec8	0.0073030926
176	0x3bb0e5b5	0.005398477
177	0x3c81030b	0.015748521
178	0xbba182a1	-0.0049289023
179	0x3c2eb6a7	0.010663665
180	0xbceee8ae	-0.029163685
181	0x3c998a79	0.018742787
182	0x3c0c41f7	0.008560649
183	0xbcbdc5d2	-0.023165617
184	0x3c9e0b98	0.019292638
185	0xbcaaf8f6	-0.020870667
186	0x3bb928b0	0.0056506023
187	0x3d436e72	0.04771275
188	0xbc7a1e62	-0.015266033
189	0xbda37a3b	-0.07982298
190	0x3c864f72	0.016395304
191	0xbc722b4a	-0.014780829
192	0xbce4ee1b	-0.027945569
193	0x3c83eba0	0.016103566
194	0xbb54a0b7	-0.0032444426
195	0xbc777cd8	-0.015105449
196	0xbbf16376	-0.007366593
197	0x3c9379f1	0.018002482
198	0x3b5fec0c	0.0034167795
199	0xbc99935d	-0.018747026
200	0xbc71078b	-0.014711271
201	0xbd2d7eec	-0.04235737
202	0xbb33249e	-0.0027335058
203	0x3d314fb1	0.04328889
204	0xbbcde223	-0.006283061
205	0xbc53b515	-0.012921591
206	0x3c423938	0.011854462
207	0xbd19fc70	-0.03759426
208	0xbca1bb0a	-0.019742507
209	0xbd52588b	-0.051353972
210	0x3d269a24	0.040674344
211	0x3cb666da	0.02226584
212	0xbca1d003	-0.019752508
213	0x3cfd6b0e	0.030934837
214	0xbce1c9a6	-0.027561974
215	0x3d02119e	0.031755082
216	0x3c2bd20f	0.010487094
217	0xbb4f99aa	-0.0031677284
218	0x3d357ee7	0.044310477
219	0xbba43f66	-0.0050124405
220	0xbccb4e54	-0.024817623
221	0xbcb786d7	-0.022403164
222	0xbcb3fceb	-0.021971187
223	0xbcaf2b02	-0.021382812
224	0x3a8bce8a	0.0010666412
225	0xbc78d17a	-0.015186662
226	0x3ababb40	0.0014246479
227	0x3c2d2c48	0.0105696395
228	0x3cba23f7	0.022722227
229	0xbb751327	-0.003739545
230	0xbd3025c3	-0.043004762
231	0x3d2c27dd	0.042030204
232	0xbd0339f7	-0.0320377
233	0xbca50346	-0.020143162
234	0xbd3331c5	-0.043748636
235	0xbcb398b2	-0.021923397
236	0x38df94d2	0.000106611886
237	0xbd3c588f	-0.045982894
238	0x3cb23de6	0.021758031
239	0xbc777c83	-0.0151053695
240	0xbd012b35	-0.031535346
241	0xb9b7e1d3	-0.00035072732
242	0x3bc07d09	0.0058742804
243	0x3c35ddef	0.011100276
244	0xbc8d0f17	-0.01721911
245	0xbc86fe6b	-0.016478738
246	0x3cbaa951	0.022785814
247	0x3c81d568	0.01584883
248	0x3d6c8d36	0.057751857
249	0x3ccd13ea	0.02503391
250	0xbc2464ee	-0.010033829
251	0xbd105d3c	-0.035245165
252	0x3cf7c40c	0.03024485
253	0xbc9e8a04	-0.01935292
254	0xbc7b32ad	-0.015331906
255	0x3c254f36	0.010089686

action_model._continuous_distribution.mu.bias f4 [6]
0	0x3b500e3a	0.003174676
1	0x3a557984	0.00081434124
2	0x3b1861d5	0.0023251672
3	0xbb545f70	-0.0032405518
4	0x387f6b68	6.0896768e-05
5	0xba51714d	-0.00079896004

onnx::LSTM_101 f4 [1, 256, 256]
0	0xbd2bb12c	-0.04191701
1	0xbd92c4ea	-0.071664646
2	0xbcc385f3	-0.023867583
3	0x3da36935	0.07979051
4	0xbddac9e0	-0.10683036
5	0x3de351d2	0.1109959
6	0xbdf8e858	-0.12153691
7	0xbdebe052	-0.11517395
8	0xbd91855f	-0.07105517
9	0xbc672ac3	-0.014109316
10	0xbd9c193d	-0.07622001
11	0xbdd976e9	-0.106183834
12	0x3d7904be	0.060795538
13	0xbc97306e	-0.01845571
14	0x3deca8ab	0.11555608
15	0x3c3f7335	0.011685182
16	0x3d8eac9c	0.069665164
17	0x3db3cb00	0.087789536
18	0xbcfd63bc	-0.030931346
19	0xbd9049d3	-0.07045331
20	0x3d3aaabc	0.04557298
21	0x3deb312b	0.114839874
22	0xbd886c6c	-0.06661305
23	0x3d2273c4	0.039661184
24	0xbdf077da	-0.1174161
25	0xbb7d2b38	-0.0038630497
26	0x3d615fec	0.05502312
27	0x3dc610c0	0.096711636
28	0xbd802d0a	-0.062585905
29	0x3d42ddc7	0.047574785
30	0xbd04fe9b	-0.032469373
31	0x3d7a6e25	0.0611402
32	0xbd7330c6	-0.059372686
33	0xbd761861	-0.060081843
34	0x3da57ae4	0.0808008
35	0xbcd71021	-0.026252808
36	0x3d259818	0.04042825
37	0xbd116c47	-0.035503652
38	0x3d1a8fe1	0.03773487
39	0x3df1e591	0.118113644
40	0x3daeb34b	0.08530291
41	0x3e0e0e3a	0.13872615
42	0x3d22e725	0.039771218
43	0x3c3a0f48	0.011356182
44	0xbd2a20d7	-0.041535225
45	0xbd089fa3	-0.033355366
46	0x3df1d005	0.11807255
47	0x3cdaead1	0.026723297
48	0x3e095df9	0.13414754
49	0x3d03566e	0.032064848
50	0x3c5f0bac	0.013613623
51	0xbb91a46d	-0.00444465
52	0x3dac4ce7	0.084131055
53	0x3db9cbb5	0.09072057
54	0x3dc2b2e3	0.09506776
55	0x3bf01f3c	0.007327942
56	0x3e006cbe	0.12541482
57	0x3e07022d	0.13184424
58	0xbdca673d	-0.098829724
59	0x3dcd442b	0.10022768
60	0x3dfd9d85	0.1238356
61	0x3ce2062f	0.02759084
62	0xbddcd520	-0.10782838
63	0x3d2aca15	0.041696627
64	0xbdbb3b2f	-0.09142148
65	0x3c0deaee	0.008661969
66	0x3da341c4	0.07971528
67	0xbdbc5ba5	-0.09197167
68	0xbe009e57	-0.12560402
69	0x3d5b4036	0.053528033
70	0x3d565334	0.052325442
71	0x3d9c4875	0.076310076
72	0xbd83af3f	-0.0642991
73	0xbd453826	-0.04814925
74	0x3bb189cb	0.0054180375
75	0xbdcec2fa	-0.100957826
76	0xbdebfce8	-0.115228474
77	0xbda056b7	-0.078290395
78	0xbcad498c	-0.021153234
79	0xbe044aa1	-0.12919094
80	0xbd498d83	-0.04920722
81	0xbdf5ccc8	-0.120019495
82	0x3daf99e1	0.08574272
83	0x3d053bf8	0.032527894
84	0x3d8fe40a	0.07025917
85	0x3dfcc8a8	0.1234296
86	0x3e068a0a	0.13138595
87	0x3dea019f	0.114260904
88	0x3d9918aa	0.074754074
89	0xbdd19591	-0.10233606
90	0xbdad6ab7	-0.0846762
91	0xbdc16efa	-0.09444995
92	0x3d8f3661	0.06992794
93	0x3daa179b	0.08305284
94	0xbc45f2f7	-0.012081853
95	0x3d849526	0.0647376
96	0xbe00a861	-0.12564231
97	0x3dd31c02	0.103080764
98	0x3dbd3661	0.092388876
99	0x3dda05f4	0.10645667
100	0xbc10d98c	-0.00884093
101	0x3dc8dc53	0.098076485
102	0x3dbea6e3	0.09309175
103	0x3d85e620	0.065380335
104	0xbb8c0dc1	-0.0042741005
105	0xbdeead4c	-0.116541475
106	0x3d20691e	0.039162748
107	0xbdd6ef01	-0.10494805
108	0x3dad7ece	0.08471452
109	0xbcb461b0	-0.022019237
110	0x3c88ea78	0.016713366
111	0xbdd894cf	-0.10575258
112	0xbd55ecbe	-0.052227728
113	0x3db48ec5	0.088162936
114	0x3dc8c6b9	0.09803528
115	0xbd055a8a	-0.032557048
116	0x3d62eff2	0.05540461
117	0xbd3b338c	-0.045703456
118	0x3c2c3949	0.010511705
119	0x3d558a87	0.052134063
120	0xbd965f26	-0.07342367
121	0xbdd57c9f	-0.1042416
122	0xbdda1198	-0.10647887
123	0x3cf33663	0.02968902
124	0xbc8a9b91	-0.016919883
125	0x3d3e0e67	0.046400454
126	0xbda2b6c6	-0.079450175
127	0xbdb0dcbb	-0.08635851
128	0x3db9166e	0.09037481
129	0x3df91f67	0.12164193
130	0xbe0270d9	-0.1273836
131	0x3d8ca59c	0.06867525
132	0xbd6f0949	-0.058358464
133	0xbda7c0db	-0.08191081
134	0x3d057a63	0.03258742
135	0x3d8e5f97	0.06951826
136	0x3dc4aef4	0.09603682
137	0xbd9b850a	-0.075937346
138	0x3d285068	0.041092306
139	0xbd0b5dec	-0.034025118
140	0xbe0727b0	-0.13198733
141	0x3a19a3df	0.00058609055
142	0xbd876e82	-0.066128746
143	0x3db92391	0.09039987
144	0x3bd4945b	0.006487412
145	0xbc4dcadb	-0.012560572
146	0xbdcf5d05	-0.10125164
147	0xbd80d9d5	-0.06291548
148	0xbd00561d	-0.031332124
149	0xbddc6806	-0.107620284
150	0x3df864bf	0.12128591
151	0x3e04ea12	0.12979916
152	0x3dd117d3	0.10209622
153	0xbd8476d2	-0.06467976
154	0x3d7d40e7	0.061829474
155	0xbe04246e	-0.12904522
156	0xbc507b06	-0.012724644
157	0xbc9d1fd7	-0.019180221
158	0x3d893c1d	0.06700919
159	0xbe024284	-0.12720686
160	0x3d7dd52a	0.061970867
161	0x3d952327	0.072820954
162	0x3de90b0f	0.113790624
163	0x3cf5d346	0.03000797
164	0xbe017921	-0.12643863
165	0xbde06be2	-0.10958077
166	0x3dd76bc4	0.105186015
167	0x3dbc7b72	0.09203233
168	0xbde1b42a	-0.11020692
169	0x3dc1d6f5	0.09464828
170	0x3d698133	0.05700798
171	0xbddc8942	-0.10768367
172	0xbde6135e	-0.11234163
173	0x3dc96ac5	0.09834818
174	0x3cb3b52f	0.021936981
175	0x3d54e48c	0.05197577
176	0x3de219f2	0.11040105
177	0x3d9a6e11	0.07540525
178	0xbd4db573	-0.05022187
179	0xbdc59062	-0.096466795
180	0x3c82a4a0	0.01594764
181	0x3daaa062	0.08331372
182	0xbc9e98a2	-0.01935989
183	0xbdd3b5e5	-0.10337428
184	0xbd9ff22b	-0.07809862
185	0x3d6095de	0.054830424
186	0xbd656a9f	-0.056009885
187	0xbc95032d	-0.01818999
188	0x3dcbf534	0.09958878
189	0xbd8988bd	-0.06715534
190	0xbd6f1e48	-0.058378488
191	0x3d324675	0.043524224
192	0x3d6867ff	0.056739803
193	0x3e0e6d78	0.13908947
194	0x3c89c4eb	0.01681753
195	0x3d2c1397	0.04201087
196	0xbdc5d3c0	-0.09659529
197	0xbdf43cd8	-0.119256675
198	0x3dd46b33	0.10372009
199	0xbda61af7	-0.08110612
200	0xbc78137b	-0.015141363
201	0xbd819011	-0.063263066
202	0xbdcbbf02	-0.09948541
203	0xbd22bdd6	-0.039731823
204	0xbd9fbb15	-0.07799355
205	0x3da21abf	0.07915258
206	0x3d8eadf0	0.0696677
207	0x3ca3959c	0.0199688
208	0x3dc8f0b2	0.09811534
209	0x3e084b52	0.13309982
210	0x3d8982a9	0.067143746
211	0x3b5e2fe1	0.003390305
212	0x3d0e5f6e	0.034758978
213	0xbdb2de1c	-0.0873377
214	0x3dd25679	0.102703996
215	0xbd00df69	-0.03146306
216	0x3d3453bd	0.04402517
217	0x3dd1c6ba	0.10242982
218	0xbd6db860	-0.05803716
219	0xbd2f801f	-0.042846795
220	0xbdd4e276	-0.103947565
221	0x3c1c47b9	0.009538584
222	0x3d98205c	0.07428047
223	0xbdea8452	-0.11451019
224	0x3daef8b4	0.0854353
225	0x3cdfa457	0.027300043
226	0x3dd45ba1	0.10369039
227	0x3e070a79	0.13187589
228	0x3deadd67	0.114680104
229	0x3d313737	0.043265548
230	0x3bdf70af	0.006818853
231	0x3c4cd16e	0.012501104
232	0x3cb42e01	0.021994593
233	0x3da838b1	0.08213938
234	0x3e081f75	0.1329325
235	0xbcf42c69	-0.029806333
236	0x3d7d0d64	0.06178035
237	0xbc8c975f	-0.017162023
238	0x3d28e791	0.041236464
239	0x3cc1293f	0.023579238
240	0x3da5685e	0.08076547
241	0x3dac349e	0.084084734
242	0x3d4965b8	0.049169272
243	0x3d3acb43	0.045604
244	0x3e05c46f	0.13063215
245	0xbd8392d8	-0.064244926
246	0x3de16dc2	0.11007263
247	0x3cb42d06	0.021994125
248	0xbd832d11	-0.0640508
249	0x3daaabbf	0.08333539
250	0x3dfbca6b	0.122944675
251	0xbdf19194	-0.11795345
252	0x3ddfdaf0	0.10930431
253	0x3e09f9b7	0.13474165
254	0xbd21956c	-0.03944914
255	0x3dd369e6	0.10322933

onnx::LSTM_102 f4 [1, 256, 64]
0	0xbe38acc9	-0.18034662
1	0xbd8e360e	-0.06943904
2	0x3c03cd86	0.008044606
3	0xbdb6ba27	-0.089222245
4	0x3c8637ac	0.016383968
5	0xbe167319	-0.14692344
6	0xbc19e8b2	-0.009393858
7	0x3dc6ca51	0.097065575
8	0x3e15dc41	0.14634801
9	0x3c27650c	0.010216963
10	0xbe262e82	-0.16228679
11	0xbc443a7a	-0.0119768325
12	0x3c9f013d	0.01940977
13	0xbe281f9e	-0.16418311
14	0xbdd8b46f	-0.1058129
15	0x3e455db9	0.19274034
16	0xbc1addfa	-0.009452337
17	0xbd80b1fd	-0.062839486
18	0xbd9e91f5	-0.07742683
19	0x3d3cc5ee	0.046087198
20	0x3e4bddff	0.19908904
21	0xbde73e8b	-0.11291226
22	0x3e1c4a40	0.15262699
23	0xbcb283f5	-0.021791438
24	0x3db6fd05	0.089349784
25	0xbdbad225	-0.09122113
26	0xbe3dcad9	-0.18534411
27	0xbde5ff61	-0.1123035
28	0x3df74ea6	0.12075548
29	0xbe57cbcb	-0.21073835
30	0xbe41b42b	-0.18916385
31	0xbcb911c2	-0.022591475
32	0x3e212b02	0.15739062
33	0xbe14954c	-0.14510077
34	0xbd515d4e	-0.051114373
35	0x3e47d9e9	0.1951672
36	0xbe47b8e3	-0.19504122
37	0xbdfdbad6	-0.12389152
38	0xbe12d6e1	-0.14339782
39	0x3e314a14	0.17313415
40	0x3d439214	0.047746733
41	0x3d84be67	0.06481629
42	0xbe14b0e3	-0.14520602
43	0x3dbaa392	0.0911323
44	0xbe22c695	-0.15896066
45	0xbcb2c274	-0.021821238
46	0xbe2e916d	-0.17047663
47	0xbd9485dd	-0.07252095
48	0xbd848578	-0.0647077
49	0xbcc102ef	-0.02356097
50	0xbd67a2e7	-0.05655184
51	0x3e1023dd	0.14076181
52	0xbcb876c8	-0.022517577
53	0xbd1244cf	-0.035710152
54	0x3dd90355	0.10596339
55	0x3d8f7311	0.07004369
56	0xbd06e819	-0.03293619
57	0x3e4ac4a5	0.19801576
58	0x3c1e7e1a	0.00967362
59	0x3e21f592	0.15816334
60	0x3da6d8ba	0.08146806
61	0xbc80294f	-0.015644697
62	0xbd269c30	-0.040676296
63	0x3e5d06ba	0.21584597
64	0x3dbdd4d5	0.0926911
65	0xbe25b443	-0.16182046
66	0xbe0b2b9d	-0.13590856
67	0xbe4a9a05	-0.19785316
68	0x3e35809a	0.17724839
69	0x3cd506a8	0.02600415
70	0xbd78493f	-0.060616728
71	0x3b6d9da9	0.0036257303
72	0xbe4cc682	-0.199976
73	0x3d892877	0.06697171
74	0xbcb3c14e	-0.02194276
75	0x3c9ad66b	0.01890107
76	0x3e15f742	0.14645103
77	0xbe3a95d9	-0.18221225
78	0xbd6a1647	-0.05715015
79	0x3e4d58c2	0.2005339
80	0x3e5c203c	0.21496671
81	0xbd1e1be9	-0.038600836
82	0x3e58fe85	0.21190841
83	0x3d0db29f	0.034594174
84	0xbe032550	-0.12807202
85	0x3e130de2	0.14360765
86	0xbc44c762	-0.012010427
87	0x3da77878	0.081772745
88	0x3e3f3447	0.18672286
89	0xbdaaf114	-0.08346763
90	0x3d737b0f	0.05944353
91	0x3d93d398	0.07218093
92	0xbdaab13a	-0.083345845
93	0xbd7e5527	-0.062092926
94	0x3d5ad582	0.053426273
95	0xbe0cdeee	-0.13756916
96	0xbe52398a	-0.20529762
97	0x3e165e23	0.14684348
98	0xbe572f7f	-0.21014212
99	0xbcdaca15	-0.026707688
100	0xbddf3b2c	-0.10899958
101	0xbd467d1f	-0.04845917
102	0x3cc24ed1	0.023719223
103	0xbe5d9d7b	-0.21642105
104	0x3c862da5	0.016379187
105	0xbc381897	-0.011236331
106	0xbe532a1e	-0.20621535
107	0xbe4b3e4c	-0.19847983
108	0xbd93fdfe	-0.072261795
109	0x3e0c6a28	0.1371237
110	0x3cee2471	0.029070111
111	0xbd5bfd0d	-0.053708125
112	0x3c58b030	0.0132256
113	0xbdc45e9b	-0.09588357
114	0x3e13b28a	0.14423576
115	0xbde351c2	-0.110995784
116	0xbe39dcb7	-0.18150602
117	0x3c2e208b	0.010627876
118	0x3e3bebea	0.18351713
119	0xbe2f4e85	-0.17119797
120	0x3ca358fd	0.019939894
121	0x3d184c5e	0.037182204
122	0xbde62a42	-0.11238529
123	0x3e13e375	0.14442237
124	0xbdabd8ce	-0.083909616
125	0x3e4c677e	0.19961354
126	0x3e33d1a8	0.17560446
127	0x3e4c8bbb	0.19975178
128	0x3c7eca8a	0.015551219
129	0x3e28e39c	0.16493076
130	0x3e1b2dca	0.15154186
131	0xbd403a4b	-0.046930593
132	0xbe2fe401	-0.1717682
133	0xbd2708ea	-0.040779985
134	0xbd614b6c	-0.05500357
135	0x3d3e401e	0.046447866
136	0xbd40c942	-0.047066934
137	0xbe1454d4	-0.14485484
138	0xbe0c71cc	-0.13715285
139	0x3d9ef3f4	0.07761374
140	0xbdd804f1	-0.105478175
141	0x3e239991	0.1597655
142	0x3ddc5c81	0.10759831
143	0xbe38cc47	-0.18046676
144	0xbd3e9420	-0.04652798
145	0x3dd4eeba	0.10397096
146	0x3d93c987	0.07216173
147	0xbcfe1c3f	-0.031019328
148	0xbdcde3c6	-0.1005321
149	0xbe2735d0	-0.16329122
150	0xbc9df57d	-0.019282097
151	0x3aee93c7	0.0018202
152	0x3e55a600	0.20864105
153	0x3e311364	0.17292553
154	0xbcd161ea	-0.025559384
155	0xbd83bf8d	-0.0643302
156	0xbe44e555	-0.19228108
157	0x3ab75c9e	0.0013989394
158	0xbde131ed	-0.10995851
159	0xbd490eba	-0.04908631
160	0xbd65d8a4	-0.056114808
161	0x3debf533	0.115213774
162	0xbd6beeb1	-0.05760068
163	0x3e1ecd1c	0.1550793
164	0x3e002d32	0.1251724
165	0xbd34439f	-0.0440098
166	0x3e446ca8	0.19182074
167	0x3e5561ba	0.20838061
168	0xbe14dc29	-0.1453711
169	0xbe2785fa	-0.16359702
170	0x3bece03f	0.0072288807
171	0x3e2fef06	0.17181024
172	0x3e3a7491	0.18208529
173	0x3d36426e	0.044496946
174	0x3e477221	0.1947713
175	0xbe424392	-0.18971089
176	0x3de5a6eb	0.11213478
177	0xbe4615ba	-0.19344226
178	0xbde1a335	-0.110174574
179	0x3d9694b0	0.07352579
180	0xbddb17e6	-0.10697918
181	0x3da7b576	0.08188908
182	0x3d7543ec	0.05987923
183	0x3e452532	0.1925247
184	0xbe0eb14b	-0.1393482
185	0x3e249700	0.16073227
186	0xbd24e94d	-0.040261555
187	0xbdee2f67	-0.11630135
188	0xbc0f1c94	-0.008734841
189	0xbde41336	-0.11136477
190	0x3e3c8498	0.18409956
191	0xbe0c3354	-0.13691455
192	0xbe3878b2	-0.18014792
193	0x3e0a2ff4	0.13494855
194	0x3c5a8431	0.013337181
195	0xbd2da9ab	-0.042398136
196	0x39a40f0c	0.00031291728
197	0xbe4c8a4d	-0.19974633
198	0x3e124a07	0.14286052
199	0xbdf271e9	-0.11838133
200	0x3d9c5a63	0.076344274
201	0xbe345ecd	-0.17614289
202	0x3d192290	0.037386477
203	0xbe5549fa	-0.20829001
204	0x3e213206	0.15741739
205	0x3c251dd7	0.010077915
206	0xbdb8081e	-0.08985923
207	0x3e54f2ab	0.20795695
208	0x3dbb0477	0.09131711
209	0xbdf84813	-0.12123122
210	0x3dae1f10	0.085020185
211	0xb9f7f24f	-0.00047292045
212	0x3d620aa4	0.05518593
213	0x3d989007	0.07449346
214	0xbe2b3be9	-0.16722073
215	0x3e2f3c46	0.17112836
216	0x3d551591	0.05202252
217	0xbe25f368	-0.16206133
218	0xbe34a4b8	-0.1764096
219	0xbdf67b96	-0.12035291
220	0xbe48e79d	-0.19619603
221	0xbe14fc24	-0.14549309
222	0xbd71769a	-0.058950998
223	0x3cc3944c	0.023874424
224	0x3e55d6e9	0.20882763
225	0x3c3391cc	0.010960054
226	0xbe3bec46	-0.1835185
227	0x3cfe4456	0.031038444
228	0xbc6f0c2c	-0.014590304
229	0x3e42395f	0.18967198
230	0xbdb1771b	-0.08665296
231	0xbe4d1370	-0.20026946
232	0xbcf23f90	-0.029571325
233	0x3da5927d	0.08084581
234	0x3d99fa09	0.075183935
235	0x3e05af1b	0.13055079
236	0x3b3fd588	0.0029271562
237	0xbe0e595a	-0.13901272
238	0x3c5a927f	0.013340591
239	0xbd9b28ae	-0.075761184
240	0x3dd846ac	0.105603546
241	0x3d882d18	0.06649226
242	0x3c172ac0	0.009226501
243	0xbd848c72	-0.064721
244	0xbca343f0	-0.019929856
245	0xbb15c738	-0.002285434
246	0x3e02ffed	0.1279294
247	0xbdf74721	-0.12074114
248	0xbe3415ac	-0.17586392
249	0xbdd0dc46	-0.10198264
250	0xbe38a77b	-0.18032639
251	0xbd43cd6e	-0.047803335
252	0xbca66729	-0.020312862
253	0xbde279cf	-0.110583894
254	0xbdf1d399	-0.11807937
255	0x3d2ef41f	0.04271328
