code/selfparking/mla/results/run_06/Car/Car-21999976.onnx (onnx, 710320 bytes, 10 tensors)

network_body._body_endoder.seq_layers.0.weight f4 [256, 109]
0	0xbdb42231	-0.08795584
1	0x3dd2ee80	0.102993965
2	0x3c4ef67b	0.012632008
3	0x3dd4168e	0.103558645
4	0x3d98f0d9	0.07467813
5	0x3bc1eb39	0.0059179333
6	0x3d70a2a5	0.05874886
7	0x3e85e2cb	0.26149592
8	0x3d4ba4b2	0.049717613
9	0x3d931e84	0.07183555
10	0x3d5e2cbb	0.054241877
11	0x3e800eda	0.2501133
12	0x3d58603d	0.052826155
13	0xbdbaae28	-0.09115249
14	0x3e51700c	0.20452899
15	0x3e8fbaca	0.28072196
16	0xbb9ac842	-0.0047235796
17	0x3d678228	0.05652061
18	0xbe0c4775	-0.13699134
19	0x3e932151	0.28736356
20	0x3cc15096	0.023597997
21	0xbdad7960	-0.08470416
22	0xbe059557	-0.1304525
23	0xbe0b6abf	-0.13614939
24	0xbe361e42	-0.1778498
25	0x3e524796	0.2053512
26	0x3d3b70d1	0.045761887
27	0x3e35354f	0.17696117
28	0x3d92e180	0.07171917
29	0x3ddf69e8	0.10908872
30	0x3c7fd1cb	0.015613983
31	0xbddd3d0f	-0.10802662
32	0xbca18ef5	-0.019721488
33	0x3c8b9929	0.017040806
34	0x3d1ab19f	0.03776705
35	0x3dbf91e3	0.093539976
36	0xbdc30140	-0.09521723
37	0x3d5365b9	0.051610682
38	0xbe482844	-0.1954661
39	0xbd920979	-0.07130713
40	0xbdbac0a5	-0.09118775
41	0x3ccb460a	0.02481367
42	0x3bd3cff4	0.006463999
43	0x3e45fe3c	0.19335264
44	0x3c222c7a	0.009898299
45	0x3d8a8d5e	0.06765245
46	0xbbfac586	-0.007652941
47	0x3ded9d29	0.116022415
48	0x3d4ad09b	0.049515348
49	0x3c5f8558	0.0136426315
50	0xbcdeb8b4	-0.027187683
51	0xbe17e416	-0.14833102
52	0xbe0922c2	-0.13392165
53	0xbbf9dcfb	-0.00762522
54	0xbd2d2861	-0.042274836
55	0xbe2c23b3	-0.16810493
56	0x3e2a4acb	0.16630094
57	0xbdec764d	-0.115460016
58	0x3cb20ec8	0.021735564
59	0x3da62687	0.08112817
60	0x3d92ef38	0.071745336
61	0xbd0e471c	-0.034735784
62	0xbddc4b0d	-0.10756502
63	0x3d9d1aec	0.076711506
64	0x3c98ff8a	0.018676538
65	0xbe075bf3	-0.1321867
66	0x3cd62844	0.026142247
67	0xbea9831d	-0.33107844
68	0xbd15df7f	-0.036590096
69	0x3e4d0de4	0.2002483
70	0x3cb9755c	0.02263897
71	0xbe0affef	-0.13574193
72	0xbd3ab06e	-0.045578413
73	0x3b5b0c6d	0.0033424154
74	0xbddb86fc	-0.107191056
75	0xbd8cc9c3	-0.068744205
76	0x3d440c09	0.04786304
77	0x3e74d54f	0.23909496
78	0x3b38bf60	0.002819024
79	0x3e033aa9	0.12815346
80	0xbba676c5	-0.0050800764
81	0x3e1799cc	0.14804763
82	0xbc52c6ac	-0.01286475
83	0x3ddb62f6	0.10712235
84	0xbea41430	-0.32046652
85	0x3da286e0	0.079358816
86	0x3e8638b8	0.26215148
87	0x3e08e247	0.13367568
88	0xbd0787ca	-0.033088483
89	0xbe720197	-0.23633419
90	0xbe1353bd	-0.14387412
91	0x3d6ca01c	0.05776988
92	0xbc93c2a6	-0.018037152
93	0x3dd94e1d	0.10610602
94	0x3b140c59	0.0022590368
95	0xbdb2bd7b	-0.08727547
96	0x3c3f0f5d	0.011661378
97	0x3d0fec4b	0.035137456
98	0x3e14fd83	0.14549832
99	0x3bd6e986	0.0065586
100	0xbd9b9c40	-0.07598162
101	0xbc42cc0b	-0.011889468
102	0x3d9c5173	0.07632723
103	0x3e4a3380	0.19746208
104	0xbdb055d3	-0.0861012
105	0x3cc5fe37	0.02416907
106	0xbe31189f	-0.17294548
107	0x3defe0d7	0.11712807
108	0x3d5b7aaa	0.05358378
109	0xbdf732d8	-0.120702446
110	0x3d8956a0	0.067059755
111	0xbe1e6cdc	-0.15471214
112	0x3e6a57db	0.22885077
113	0x3d2c60b9	0.04208443
114	0x3d82c67a	0.06385513
115	0xbda903d3	-0.082526825
116	0x3e680f22	0.22662023
117	0x3d276e97	0.04087695
118	0xbdff38c2	-0.124619976
119	0x3d84c6aa	0.06483205
120	0x3e455c54	0.19273502
121	0xbdac33c7	-0.08408313
122	0x3c9609bd	0.01831519
123	0x3dbff2fb	0.09372517
124	0x3ec11f2a	0.3771909
125	0xbe8cc1e4	-0.27491677
126	0x3e464b60	0.19364691
127	0xbdf289f4	-0.11842719
128	0x3e3b8204	0.18311316
129	0x3b2d6f46	0.002646403
130	0x3d4a350b	0.049366992
131	0xbdb4447f	-0.08802127
132	0x3d9aba5a	0.07555075
133	0xbe6431fc	-0.22284693
134	0xbe40719b	-0.18793337
135	0xbc1d9f7a	-0.009620542
136	0x3e562b0c	0.20914859
137	0x3d5c991c	0.053856954
138	0x3cab8386	0.020936739
139	0x3d846cb4	0.06466046
140	0xbcbeeb0e	-0.023305442
141	0x3d9e43d0	0.07727778
142	0x3cce789a	0.025203992
143	0x3c8c99fb	0.017163267
144	0xbd47950d	-0.04872613
145	0x3d01246d	0.03152888
146	0x3d81eaf8	0.06343645
147	0x3dce06fe	0.100599274
148	0xbd675837	-0.056480613
149	0xbda43ea1	-0.08019758
150	0xbcf1652a	-0.029467184
151	0x3dc458f6	0.095872805
152	0x3e0a7001	0.13519289
153	0x3e683d90	0.22679734
154	0x3da2b24b	0.07944163
155	0x3d83e4db	0.06440135
156	0x3d2b4b8c	0.041820094
157	0x3e19cc3a	0.15019313
158	0xbd8fd80a	-0.07023628
159	0x3b9983eb	0.0046849153
160	0xbe3eeeff	-0.18645857
161	0xbcb77b1a	-0.022397567
162	0x3da82c06	0.08211522
163	0xbd8a08b8	-0.06739944
164	0xbd597ba2	-0.05309642
165	0x3de8a655	0.1135985
166	0x3d94fd71	0.072749026
167	0x3c18a38c	0.009316336
168	0x3d380fc2	0.044936903
169	0x3db70d1b	0.089380465
170	0xbd224fe9	-0.03962699
171	0xbc492b07	-0.012278325
172	0xbe5a391a	-0.21310845
173	0x3c402105	0.0117266225
174	0xbd02660e	-0.03183561
175	0x3d930fb3	0.07180729
176	0x3c356706	0.011071926
177	0x3dc163f9	0.094428964
178	0xbddbd1fa	-0.10733409
179	0xbd9c6f2d	-0.076383926
180	0xbdc3b217	-0.09555452
181	0x3d84f4e5	0.064920224
182	0x3db8610a	0.09002884
183	0x3d86b36a	0.06577189
184	0xbd057945	-0.032586355
185	0xbde21750	-0.11039603
186	0xbd0590e5	-0.032608885
187	0xbd467469	-0.04845086
188	0x3cf2de59	0.02964704
189	0xbc18ef01	-0.009334327
190	0xbdcae1cf	-0.09906351
191	0xbe32727e	-0.17426488
192	0x3e0b0fe8	0.13580287
193	0xbdbe023a	-0.092777684
194	0x3dd96c15	0.10616318
195	0x3de84471	0.11341179
196	0xbcfaa382	-0.030595545
197	0xbdc4b51c	-0.09604856
198	0xbdf16ef8	-0.11788744
199	0x3e38214b	0.1798145
200	0xbbc150c5	-0.005899521
201	0x3df62757	0.12019222
202	0x3e4ae0f4	0.19812375
203	0x3de005c1	0.109385975
204	0xbceea156	-0.029129665
205	0x3df80e25	0.12112073
206	0xbddf92de	-0.109166846
207	0x3e283759	0.16427363
208	0xbce92957	-0.028462095
209	0xbd7b8183	-0.06140281
210	0xbdaeead3	-0.08540883
211	0xbdf46a50	-0.1193434
212	0x3d56ef9f	0.052474614
213	0xbe0684ac	-0.13136548
214	0xbcf826ed	-0.030291999
215	0xbe3a89e5	-0.18216665
216	0x3e42e530	0.1903274
217	0x3d2077e4	0.039176837
218	0xbd827ccf	-0.063714616
219	0xbdd088c3	-0.10182335
220	0x3e03d31e	0.12873504
221	0x3e6f9b7a	0.23399153
222	0xbc38058b	-0.01123179
223	0xbda00e09	-0.07815177
224	0x3d3dbadf	0.046320792
225	0x3ec25be8	0.37960744
226	0x3c0b2995	0.008493801
227	0xbd8c3955	-0.06846873
228	0x3dcf6e06	0.10128407
229	0x3ebeecce	0.37290043
230	0xbdb729e4	-0.08943537
231	0x3db435b7	0.08799308
232	0xbe800dce	-0.25010532
233	0x3e980cc0	0.29697227
234	0xbdbd3c40	-0.092400074
235	0xbd82bad8	-0.06383294
236	0x3d828512	0.063730374
237	0x3ea0de22	0.31419474
238	0x3cbc3fa7	0.02297957
239	0xbd120a0d	-0.035654116
240	0xbbb84f2d	-0.005624673
241	0x3c4d2c24	0.012522731
242	0xbd4cd7ec	-0.050010607
243	0x3dd3af8a	0.10336216
244	0x3abb313a	0.0014281638
245	0x3ed68e3a	0.41905385
246	0x3cde4f3b	0.02713739
247	0x3e2acd50	0.16679883
248	0xbc988fe8	-0.018623307
249	0x3d9cca34	0.07655755
250	0xbc523a90	-0.012831345
251	0xbda330cc	-0.07968292
252	0x3ce33606	0.027735721
253	0x3df13201	0.117771156
254	0x3d1d4bc0	0.03840232
255	0xbbffc629	-0.007805605

network_body._body_endoder.seq_layers.0.bias f4 [256]
0	0xbc9f38cc	-0.019436263
1	0x3c900cef	0.017584292
2	0x3b6ff06a	0.0036611804
3	0xbd4a67ee	-0.04941552
4	0x3cacfc6f	0.021116463
5	0xbca1459d	-0.019686515
6	0xbd704459	-0.05865893
7	0xbd0194e5	-0.031636138
8	0x3cae4fb9	0.02127825
9	0x3c1325f7	0.0089812195
10	0xbc230d72	-0.009951936
11	0x3ba43774	0.0050114933
12	0xbd35d16a	-0.044389166
13	0x3db1dac8	0.08684307
14	0x3af5285d	0.0018704046
15	0xbd848f1f	-0.06472611
16	0xbdad7eba	-0.08471437
17	0x3cb52f22	0.022117201
18	0xbc614953	-0.013750392
19	0x3a6aa166	0.0008950442
20	0xbd7ae05a	-0.061249115
21	0xbc6ceb35	-0.014460375
22	0xbd531f39	-0.051543448
23	0x3cea4aa0	0.028600037
24	0xbbf7cd84	-0.007562341
25	0xbd0740cc	-0.03302078
26	0xbb541d53	-0.0032366111
27	0x3c3be563	0.011468264
28	0xbd26cec8	-0.040724546
29	0x3ca6a299	0.020341204
30	0xbaf7bc1e	-0.0018900668
31	0x3d0cba06	0.034357093
32	0xbdb64255	-0.088993706
33	0xbb2d2395	-0.0026418914
34	0xbd4145db	-0.04718576
35	0xbd425475	-0.047443826
36	0xbbaead48	-0.0053307153
37	0x3c86db6d	0.016462052
38	0xbd2cd62a	-0.04219643
39	0xbd1b0f11	-0.037856165
40	0x3cd9e01e	0.026596125
41	0xbd9d2a75	-0.07674114
42	0xbd010f57	-0.03150877
43	0x3d1039f9	0.035211537
44	0xbc072528	-0.008248605
45	0x3d0b4df7	0.0340099
46	0x3d56bca2	0.052425988
47	0xbd1b1b71	-0.037867967
48	0xbbd56fee	-0.006513587
49	0xbcb0c26e	-0.021577086
50	0x3cbf72a5	0.023370096
51	0xbc87028a	-0.016480703
52	0x3c18cbba	0.009325916
53	0xbdb1c5a0	-0.08680272
54	0xbd243c74	-0.040096715
55	0xb9b48fe8	-0.00034439494
56	0xbd9705f8	-0.07374185
57	0x3cbc9d47	0.023024214
58	0x3cfcf7e5	0.030879924
59	0xbd195f5a	-0.03744445
60	0x3c0a8487	0.008454449
61	0xbd033baf	-0.03203934
62	0xbd5d433e	-0.054019205
63	0x3d29efd4	0.041488484
64	0x3a287d56	0.0006427368
65	0xbd4e893e	-0.050423853
66	0xbceae063	-0.028671449
67	0xbd8fe0ea	-0.07025321
68	0xbc04e0e3	-0.008110258
69	0x3c082837	0.008310369
70	0x3c17f8be	0.009275613
71	0xbbd71201	-0.0065634255
72	0xbd7c7a88	-0.061640292
73	0xbccc9216	-0.024972003
74	0x3b7abb82	0.0038258736
75	0xbd848449	-0.06470544
76	0xbc09dcc5	-0.008414452
77	0x3c27ad4b	0.010234187
78	0xbd08fb78	-0.033442944
79	0x3a00a8fa	0.0004907992
80	0x3cba2450	0.022722393
81	0xbb7e7e70	-0.0038832687
82	0xbcbfd147	-0.02341522
83	0x3c7bbb46	0.015364474
84	0xbc8691e4	-0.016426988
85	0x3c1cba70	0.009565935
86	0x3cf1cb8b	0.029516002
87	0xbd145071	-0.036209527
88	0x3b785fc1	0.003789887
89	0xbbdbd98f	-0.0067092846
90	0x3d4df6a4	0.050284043
91	0xbdd03210	-0.10165799
92	0xbd038650	-0.032110512
93	0xbd446fb5	-0.047958095
94	0x3c6d14a3	0.014470252
95	0x3d105b6b	0.035243433
96	0x3a632251	0.00086644763
97	0xbd36f0a2	-0.04466308
98	0xbb4fb98b	-0.0031696286
99	0xbc75a0a8	-0.014991917
100	0xbc735c58	-0.014853559
101	0xbd496397	-0.049167242
102	0xbdce4005	-0.100708045
103	0xbd15ea1a	-0.03660021
104	0xbb2adcc8	-0.0026071537
105	0xbc938768	-0.018008903
106	0xba8fa839	-0.0010960168
107	0xbc1a3b61	-0.009413571
108	0x3c26cc93	0.01018061
109	0xbba8d6b0	-0.005152546
110	0xbc9b1c14	-0.018934287
111	0xbbac5314	-0.005258927
112	0xbc554e23	-0.0130191175
113	0xbd1c0215	-0.038087923
114	0x3b5232f2	0.0032073823
115	0xbc7947b4	-0.015214849
116	0x3d2841f6	0.04107853
117	0xbccf1c87	-0.025282158
118	0xbd05c850	-0.032661736
119	0xbcf6518c	-0.030068181
120	0xbc66677f	-0.014062761
121	0xbbc5f4f6	-0.0060411645
122	0x3c60fac1	0.013731659
123	0xbbca82c5	-0.0061801397
124	0x3cd2a4e1	0.025713386
125	0x3d287995	0.041131575
126	0x3cf403ce	0.02978697
127	0x3bf7ef30	0.007566355
128	0xbbfa0fe6	-0.00763129
129	0xbd3597f9	-0.044334386
130	0x3d057bc5	0.03258874
131	0xbd1e67e1	-0.038673285
132	0x3ce9d4f0	0.02854392
133	0x3c4bca75	0.012438406
134	0xbc2c2e4c	-0.010509085
135	0xbb890b22	-0.0041822353
136	0xbda7a502	-0.081857696
137	0xbd02bc13	-0.031917643
138	0xbce5e1c7	-0.02806176
139	0x3bc9c7e3	0.0061578616
140	0x3d13650c	0.035985038
141	0x3d85b52d	0.06528697
142	0xbd367c96	-0.04455241
143	0xbcff732d	-0.03118285
144	0x3bb177fe	0.0054159155
145	0x3c69401a	0.014236474
146	0x3aa375f0	0.0012471061
147	0x3cba080c	0.022708915
148	0x3bf0ab8e	0.0073446697
149	0xbd89491c	-0.06703398
150	0x3c12b5c2	0.008954467
151	0xbdd9a101	-0.10626412
152	0xbc9ff4bb	-0.019525876
153	0xbbad30ea	-0.005285372
154	0xbd21ec4a	-0.039531983
155	0xbd02b3ef	-0.03190988
156	0x39e53dfe	0.00043724471
157	0xbd537897	-0.051628675
158	0xbb83b607	-0.004019502
159	0xbc0c2429	-0.008553543
160	0xbcd1b20b	-0.025597593
161	0xbd825353	-0.06363549
162	0xbd86b44c	-0.06577358
163	0xbae74281	-0.0017643721
164	0x3cabd1c3	0.020974046
165	0xbb653d6f	-0.0034979244
166	0x3c5ab57f	0.013348936
167	0x3c559859	0.013036811
168	0xbda034c9	-0.07822568
169	0x3ce6ef79	0.028190361
170	0xbd20f62a	-0.03929726
171	0xbc94fe3d	-0.018187637
172	0xbb396d74	-0.0028294
173	0xbd5d415c	-0.05401741
174	0x3d24d50f	0.04024225
175	0xbc29f908	-0.010374315
176	0xbd936712	-0.071973935
177	0x3be32e59	0.0069330153
178	0xbd9416ea	-0.07230933
179	0xbb04aaa4	-0.0020243311
180	0x3cc1b266	0.023644637
181	0x3bd08c90	0.0063644126
182	0xbc9b5d31	-0.018965336
183	0xbd2f7ff2	-0.042846628
184	0xbcbf5675	-0.023356656
185	0xbd57cf12	-0.052687712
186	0x3d20ee9e	0.039290063
187	0xbb26aa07	-0.0025430934
188	0xbd59c1a1	-0.053163175
189	0x3c0b50d9	0.008503162
190	0xbd38b926	-0.045098446
191	0xbcf2d7ef	-0.02964398
192	0xbd399ce3	-0.045315634
193	0xbd445bb2	-0.04793901
194	0x3d4a85ad	0.04944389
195	0x3c610d4b	0.013736079
196	0x3bcbc738	0.006218817
197	0x3d0c0538	0.034184664
198	0xbd103149	-0.035203252
199	0x3c40b07d	0.011760828
200	0x3a4e4968	0.0007869215
201	0xbd5f2aee	-0.0544843
202	0xbd0ae06d	-0.033905435
203	0xbd27dbf0	-0.040981233
204	0xbcffce3e	-0.031226274
205	0x3bee555e	0.00727336
206	0xbc911034	-0.017707922
207	0xbcff0681	-0.031131031
208	0xbba191d9	-0.0049307165
209	0x3c570fd9	0.013126337
210	0xbd5a5744	-0.05330588
211	0xbbf44dd7	-0.0074555683
212	0xbd3ebe08	-0.046567947
213	0xbc47c829	-0.012193718
214	0xbc6991ca	-0.01425595
215	0xbd4c2aa9	-0.04984537
216	0xbcc7d380	-0.024392843
217	0x3d2f2344	0.04275824
218	0xbb833cc7	-0.004005048
219	0xbc9ed454	-0.019388355
220	0xbd24d52d	-0.040242363
221	0xbbb2bd9b	-0.0054547316
222	0x3c58bbf8	0.013228409
223	0xbd9d8f23	-0.07693317
224	0xbd45ba8f	-0.04827362
225	0xbb29772a	-0.002585838
226	0xbcbe79c1	-0.023251416
227	0x3c88182b	0.016613087
228	0xbd0636ee	-0.03276723
229	0x3c6e1731	0.014531896
230	0x3b821530	0.003969811
231	0xbd9e510d	-0.07730303
232	0xbcb983df	-0.022645889
233	0xbc64ec4a	-0.013972351
234	0xbcb5094f	-0.022099165
235	0x3ce1a564	0.027544685
236	0x3bf667c4	0.007519694
237	0xbd435466	-0.04768791
238	0xbc27734b	-0.010220359
239	0xbd335088	-0.043777972
240	0xbcda5941	-0.026653888
241	0x3d18093e	0.03711819
242	0x3ca07666	0.019587707
243	0xbb911eae	-0.004428706
244	0xbb8efffc	-0.004364012
245	0x38fb6692	0.00011987718
246	0x3c6b8d5c	0.014376964
247	0xbd478ef4	-0.048720315
248	0x3d88977b	0.066695176
249	0xbd135285	-0.03596737
250	0xbd89596d	-0.0670651
251	0xbd0e3f9d	-0.034728635
252	0xbcfe3ca9	-0.031034784
253	0xbd252b67	-0.040324595
254	0xbd895b85	-0.06706909
255	0x3bd0fd42	0.006377847

network_body._body_endoder.seq_layers.2.weight f4 [256, 256]
0	0xbd94421f	-0.07239174
1	0x3c85c9d4	0.01633159
2	0xbd88a545	-0.06672148
3	0x3da04cdc	0.0782716
4	0xbd860bf7	-0.06545251
5	0xbe412031	-0.18859936
6	0x3d2e482f	0.04254931
7	0xbddcccde	-0.10781263
8	0x3d53bdf6	0.051694833
9	0xbe211d9e	-0.15733954
10	0xbddde368	-0.1083439
11	0xbd6caf34	-0.057784274
12	0xbe10999e	-0.141211
13	0xbdb324d4	-0.08747259
14	0xbdb36046	-0.08758597
15	0xbe0084c3	-0.12550645
16	0xbd0c1a09	-0.034204517
17	0xbcdeeabd	-0.027211541
18	0xbd079e7b	-0.033110123
19	0xbe62938d	-0.22126599
20	0xbd0e881f	-0.034797784
21	0xbe4a9e12	-0.19786862
22	0xbd9fbe1f	-0.077999346
23	0x3d6adb43	0.05733801
24	0x3d419423	0.047260415
25	0xbe2ce281	-0.1688328
26	0xbd1dcff5	-0.0385284
27	0xbd619ac3	-0.055079233
28	0x3d3900ad	0.04516666
29	0xbd512ea9	-0.05106989
30	0x3d1ed7b5	0.038779933
31	0x3de58bb0	0.11208284
32	0xbe101478	-0.14070308
33	0xbd967bcf	-0.07347833
34	0xbb35d940	-0.00277479
35	0xbdad5439	-0.0846333
36	0xbe141bef	-0.14463781
37	0x3dbac499	0.09119529
38	0xbdde9116	-0.10867517
39	0xbd7b47d0	-0.061347783
40	0x3cc1311d	0.02358299
41	0xbe465974	-0.19370061
42	0xbdf2516f	-0.118319385
43	0x3befb9a0	0.0073158294
44	0xbcd17325	-0.0255676
45	0x3d5357e4	0.05159749
46	0x3d065cfa	0.032803513
47	0xbd4dd7a0	-0.050254464
48	0xbdf25b90	-0.118338704
49	0xbd51cafb	-0.051218968
50	0xbd24aeec	-0.04020588
51	0xbe1fa3e1	-0.15589859
52	0xbc9aca23	-0.018895214
53	0xbe172693	-0.14760809
54	0xbc43852f	-0.011933609
55	0x3d51098a	0.051034488
56	0xbdf0823b	-0.117435895
57	0x3b8e9932	0.0043517584
58	0xbda02167	-0.07818871
59	0x3de63cd4	0.11242071
60	0xbdff6181	-0.12469769
61	0xbd6de8e7	-0.05808344
62	0xbdaab336	-0.08334963
63	0xbe5a7271	-0.21332718
64	0xbd18ee3b	-0.03733657
65	0xbe33e7f2	-0.17568949
66	0x3dc1b34b	0.094580255
67	0xbc92534e	-0.017861988
68	0xbd795f87	-0.060882118
69	0xbdd9a533	-0.106272124
70	0xbe1a1c6e	-0.15049908
71	0xbd7903da	-0.06079469
72	0xbe490f3f	-0.19634722
73	0xbdacd1ed	-0.08438478
74	0xbdaf8ede	-0.08572172
75	0xbd25f442	-0.040516146
76	0x3ca6c091	0.020355495
77	0x3c3b1422	0.011418374
78	0x3b3693d3	0.0027859106
79	0x3cfed553	0.03110758
80	0x3e19be3e	0.15013978
81	0x3ca0319d	0.019554907
82	0x3d18ed5f	0.03733575
83	0xbe262ded	-0.16228457
84	0x3da63530	0.081156135
85	0xbd55bc40	-0.052181482
86	0x3e1bf580	0.1523037
87	0xbcbf06e3	-0.023318714
88	0xbd07c6de	-0.03314864
89	0x3e057efd	0.13036723
90	0xbc9aab77	-0.018880589
91	0xbd1573cb	-0.036487382
92	0xbe6252fe	-0.22101972
93	0x3d422b9f	0.04740488
94	0x3da14b48	0.07875687
95	0xbe15f098	-0.1464256
96	0xbd000302	-0.03125287
97	0xbe870744	-0.2637273
98	0xbdbc81fa	-0.092044786
99	0xbd9bd725	-0.07609395
100	0xbd20a99a	-0.039224245
101	0x3c3e2468	0.01160536
102	0xbdc797e4	-0.09745768
103	0xbd47b29f	-0.04875433
104	0xbe02a5d5	-0.12758572
105	0xbd65bb56	-0.05608686
106	0xbd8273ed	-0.06369767
107	0x3d8fe4fe	0.07026099
108	0xbd929e1e	-0.07159065
109	0xbd35b60d	-0.04436307
110	0x3daa0c35	0.083031096
111	0xbd6cc495	-0.057804663
112	0xbd326cdc	-0.043560848
113	0xbe067400	-0.13130188
114	0xbd39576a	-0.04524938
115	0x3b836be7	0.0040106657
116	0x3d0d9444	0.034565225
117	0x3d049429	0.03236786
118	0x3d848ef1	0.064725764
119	0x3d50bf29	0.050963555
120	0xbd373290	-0.044725955
121	0x3db9ccb4	0.09072247
122	0xbd93051f	-0.07178711
123	0x3d1f0c38	0.038830012
124	0xbca8d52c	-0.02060946
125	0x3ca6588c	0.020305894
126	0x3ccffc14	0.025388755
127	0x3c44cb04	0.012011293
128	0x3d1f3252	0.03886635
129	0xbe81e097	-0.2536666
130	0xbc83506e	-0.016029563
131	0x3c129431	0.008946464
132	0x3d1443fc	0.036197647
133	0xbbe606dc	-0.0070198607
134	0x3c9a91be	0.018868323
135	0x3c3482f5	0.011017551
136	0xbdbc477e	-0.091933236
137	0xbe601c7f	-0.2188587
138	0x3bf225c9	0.0073897582
139	0x3d384755	0.044989903
140	0xbc743ba0	-0.014906794
141	0xbd8c849b	-0.0686123
142	0xbd929e24	-0.07159069
143	0xbc62c720	-0.01384142
144	0xbe230d78	-0.15923107
145	0xbd032d0a	-0.032025374
146	0xbd8c4390	-0.06848824
147	0xbd8f0177	-0.06982701
148	0xbcf4d924	-0.029888697
149	0x3d697e99	0.0570055
150	0x3cacf5f8	0.02111338
151	0xbdf38479	-0.118905015
152	0xbd66605b	-0.056244235
153	0xbca582c2	-0.020203952
154	0xbcf95bff	-0.030439375
155	0xbe2993e7	-0.16560327
156	0xbc1bcb7a	-0.009508962
157	0xbe20788b	-0.15670983
158	0x3d252ad4	0.040324047
159	0xbdf54878	-0.11976713
160	0xbde61657	-0.1123473
161	0xbd89c08f	-0.06726181
162	0xbdce2fb6	-0.10067694
163	0x3d4b14bb	0.049580317
164	0x3e170aca	0.1475021
165	0x3b48cebb	0.00306408
166	0xbccf74db	-0.025324276
167	0x3d805c56	0.06267612
168	0x3e2994b2	0.16560629
169	0xbce39852	-0.027782593
170	0xbd8db500	-0.06919289
171	0xbc8c4929	-0.01712473
172	0x3dc2ddef	0.09514987
173	0xbd9a1bb0	-0.07524812
174	0x3cfcc70f	0.030856637
175	0xbd06ca4c	-0.03290777
176	0xbe155ecb	-0.14586942
177	0xbd4db958	-0.050225586
178	0xbcc08ccf	-0.023504643
179	0xbe0f0645	-0.13967235
180	0xbd8b73bc	-0.06809184
181	0x3e1727e4	0.14761311
182	0x3d989050	0.074494004
183	0xbe1e265a	-0.15444317
184	0x3dad276f	0.08454787
185	0xbd8d9378	-0.06912893
186	0xbda801ec	-0.082034916
187	0xbd84a1e4	-0.06476191
188	0xbdabb669	-0.08384401
189	0xbdeb3945	-0.11485533
190	0x3d2ab019	0.041671846
191	0xbd3c9b22	-0.046046384
192	0x3d16065c	0.03662716
193	0xbd9437ef	-0.07237231
194	0xbd80f80b	-0.062973104
195	0xbd8adc6d	-0.06780324
196	0x3b3d9344	0.0028926888
197	0x3cef0d65	0.029181192
198	0xbd05e301	-0.03268719
199	0x3ddb97ca	0.10722311
200	0xbdc5b89f	-0.09654354
201	0xbe0ec21e	-0.13941237
202	0xbe0c91c7	-0.13727485
203	0xbd7b3ad8	-0.061335415
204	0xbc0b8003	-0.008514407
205	0xbc8479ed	-0.01617142
206	0xbd2a3dfc	-0.04156302
207	0x3b28cfc5	0.0025758606
208	0xbdf833a6	-0.12119226
209	0xbe3ea595	-0.18617852
210	0x3c428c38	0.011874251
211	0x3cbfbbda	0.023405004
212	0x3be898b7	0.007098283
213	0xbd06c3e1	-0.03290165
214	0xbd9678bb	-0.07347246
215	0xbde941e6	-0.11389522
216	0xbde1f426	-0.11032896
217	0xbe31ae3f	-0.17351626
218	0xbe2db3ae	-0.16963074
219	0xbc7520bc	-0.014961418
220	0xbd77faab	-0.06054179
221	0xbd14af90	-0.036300242
222	0x3d8040e0	0.06262374
223	0xbd93a316	-0.072088405
224	0xbe14847b	-0.14503662
225	0xbd98c387	-0.07459169
226	0x3cf58cf9	0.029974448
227	0x3dcdc6fc	0.10047719
228	0x3d847c0c	0.064689726
229	0x3dc746eb	0.097303234
230	0xbddaf961	-0.106920965
231	0xbd235b21	-0.03988183
232	0x3cb9fcdb	0.022703579
233	0xbda08090	-0.07837021
234	0x3c92e5c6	0.01793183
235	0x3dceee45	0.1010404
236	0xbd0572ce	-0.03258019
237	0xbd99c9a9	-0.07509167
238	0xbde64e55	-0.112454094
239	0xbdc7e1af	-0.097598426
240	0xbd9cde7c	-0.07659623
241	0xbd3c5b14	-0.045985296
242	0x3e12eaca	0.14347377
243	0x3e33c415	0.17555268
244	0xbe1ca57b	-0.15297501
245	0xbdeaa6d1	-0.11457599
246	0x3cea39cc	0.028592013
247	0xbe46fa39	-0.1943139
248	0xbd964992	-0.07338251
249	0x3dd3effc	0.10348508
250	0xbe1572e0	-0.14594603
251	0x3ad6a2f9	0.0016375474
252	0xbd0b7f4a	-0.03405694
253	0x3d56d73a	0.05245135
254	0xbc9d3cb8	-0.019193992
255	0xbe11d80d	-0.14242573

network_body._body_endoder.seq_layers.2.bias f4 [256]
0	0xbcf564e9	-0.029955344
1	0x3c3bd429	0.011464157
2	0xbc0aa390	-0.008461848
3	0xbba45da5	-0.005016046
4	0xba0c6cd4	-0.0005356793
5	0x3cbfb5ed	0.023402179
6	0xba64c470	-0.0008726781
7	0xbd9279fd	-0.07152174
8	0xba45fbe7	-0.000755249
9	0xbcc45d6d	-0.02397033
10	0xbc834d8b	-0.016028186
11	0x3d082293	0.033236098
12	0xbd6b65f7	-0.057470288
13	0x3c2d63e3	0.010582897
14	0xbbf9d00b	-0.0076236776
15	0xbd1ee040	-0.03878808
16	0x3b71941b	0.003686196
17	0x3c02109a	0.007938528
18	0xbd4231d6	-0.04741081
19	0xbcb2d3eb	-0.021829566
20	0xbcadabaa	-0.02120002
21	0xbd39ecea	-0.045391954
22	0xbd991f43	-0.07476666
23	0x3d0f1480	0.03493166
24	0x3cfb6c00	0.030691147
25	0x3d766f4f	0.060164746
26	0xbd109322	-0.035296567
27	0xbc9b05f6	-0.01892374
28	0xbbb9ac4a	-0.0056662904
29	0xbbf43cda	-0.007453543
30	0xbbc897a9	-0.006121595
31	0xbd63c86c	-0.05561106
32	0x3b7a1115	0.0038157154
33	0xbc36dfce	-0.011161758
34	0x3baff621	0.005369917
35	0xbaf4b3a8	-0.0018669264
36	0xbd3342ee	-0.043765
37	0x3ccbfd6d	0.024901116
38	0x3b8a971f	0.004229441
39	0xbc20026f	-0.009766205
40	0x3ce5ff63	0.02807588
41	0x3b7ac1b0	0.003826242
42	0x3d0c74d3	0.0342911
43	0xbd45d0d3	-0.048294853
44	0xbc9d2477	-0.019182427
45	0xba0a6fe4	-0.0005280955
46	0x3c71f19a	0.014767075
47	0xbc32aa15	-0.0109048085
48	0xbd551ff7	-0.052032437
49	0xbd35d2cd	-0.04439049
50	0xbbeba90d	-0.0071917833
51	0xbd34f371	-0.044177476
52	0xbd090aa6	-0.03345742
53	0x3d03e012	0.032196112
54	0x3a245b7a	0.00062697346
55	0x3cca331f	0.02468258
56	0x3c3449d4	0.01100393
57	0xbc27b359	-0.010235631
58	0x3b9c8915	0.0047770836
59	0xbc3df6be	-0.011594472
60	0xbc463cef	-0.012099489
61	0x3cedf31f	0.029046593
62	0x3ccc028b	0.024903556
63	0xbd731fa5	-0.05935635
64	0xbdc93bf6	-0.0982589
65	0xbd3f7cb8	-0.0467498
66	0xbd005819	-0.031334016
67	0xbb84134f	-0.004030622
68	0xbd1bd1ae	-0.038041763
69	0xbdc92f0d	-0.09823427
70	0xbd2cc501	-0.042180065
71	0x3c631926	0.013860976
72	0x3c8a79e6	0.016903829
73	0x3cbe1f6a	0.023208339
74	0x3cc441f3	0.023957228
75	0x3d1b5196	0.037919603
76	0xbd10b796	-0.03533133
77	0xbc15e987	-0.009149916
78	0xbd17c56d	-0.037053514
79	0xbd2a5c59	-0.041591976
80	0x3a9522de	0.0011378189
81	0xbd1ba9c9	-0.038003717
82	0xbb4493ad	-0.0029995248
83	0x3af44cc7	0.0018638604
84	0xbd4d7a7f	-0.05016565
85	0xbd5d3053	-0.054001164
86	0xbc86f1dc	-0.01647275
87	0x3cc2430c	0.023713611
88	0x3bc8a704	0.0061234254
89	0xbd266ced	-0.040631223
90	0x3afa8545	0.0019113204
91	0x3d5ce0c3	0.053925287
92	0xbd251bcb	-0.04030971
93	0x3d227aef	0.03966802
94	0x3b2b9efd	0.0026187294
95	0x3c3586be	0.011079488
96	0xbc8b4537	-0.017000778
97	0xbd256b17	-0.040385332
98	0xbcfe8a85	-0.03107191
99	0xbd22ebec	-0.039775774
100	0xbcefb3a2	-0.02926046
101	0x3ced2c83	0.028951889
102	0xbb415562	-0.0029500355
103	0xbd27e46e	-0.040989332
104	0xbd6c2f77	-0.057662454
105	0xbd3bdf17	-0.045867052
106	0xbca71ea2	-0.020400349
107	0x3cfc65aa	0.030810196
108	0xbc636199	-0.01387825
109	0x3d423e8c	0.04742293
110	0x3c1c9b5a	0.009558523
111	0xbd868007	-0.06567388
112	0x3c83035e	0.015992817
113	0xbce25f16	-0.027633231
114	0xbcfe1c1d	-0.031019265
115	0xbb434b5f	-0.0029799563
116	0x3b9965eb	0.004681339
117	0x3c9cae1e	0.019125994
118	0xba6d487b	-0.0009051633
119	0xbcb521da	-0.022110868
120	0xbc4a3920	-0.012342721
121	0xbd72e292	-0.059298106
122	0xbd1b4f89	-0.037917648
123	0xbcbc4b98	-0.022985265
124	0x3cc5fc88	0.024168268
125	0xbd34be76	-0.04412695
126	0xbcca7705	-0.024714956
127	0x3d1d537c	0.038409695
128	0xbd668422	-0.056278355
129	0xb99d5928	-0.000300118
130	0xbd71b281	-0.059008125
131	0xbaed5b13	-0.0018108807
132	0xbd1b9ed7	-0.03799328
133	0x3d1fd8e5	0.039025206
134	0xbc23871d	-0.009980944
135	0x3ca2a37a	0.019853342
136	0xbbc21f36	-0.005924131
137	0x3b0095d3	0.0019620552
138	0xbc384729	-0.011247435
139	0xbd1e4c75	-0.038647134
140	0xbd0c5122	-0.03425706
141	0xbd600228	-0.054689556
142	0xbb641a99	-0.0034805893
143	0xbd3f4a1d	-0.04670154
144	0x3c3ea19f	0.011635213
145	0x3b81e5e2	0.0039641717
146	0x3bfec20a	0.007774596
147	0xbd2178cc	-0.03942184
148	0x3cdaf5b1	0.026728483
149	0xbc99bfd9	-0.018768238
150	0xbc1c8716	-0.009553691
151	0x3ccdcca2	0.02512199
152	0x3a97b38a	0.0011573893
153	0x3d182b68	0.03715077
154	0x3ade6763	0.0016968068
155	0xbb07a734	-0.0020699026
156	0xbb5da25b	-0.0033818695
157	0xbd8d0a1c	-0.06886694
158	0x3d03ad9d	0.032147992
159	0xbc388f21	-0.011264593
160	0x3cafd3e6	0.021463346
161	0xbc2ad177	-0.010425917
162	0xbbda2397	-0.0066570747
163	0xbc68e303	-0.01421428
164	0x3c65b24d	0.014019561
165	0xbca485a0	-0.020083249
166	0xbd8effbd	-0.06982372
167	0xbceeaba7	-0.029134585
168	0xbc98d34a	-0.018655438
169	0xbcb8f474	-0.022577502
170	0xbb2fccf0	-0.0026825033
171	0x3cb34159	0.021881746
172	0xbc320556	-0.01086553
173	0xbd2b8cf3	-0.041882467
174	0xbbcde46a	-0.0062833326
175	0x3cd9eaf4	0.026601292
176	0xbc1eab95	-0.009684463
177	0xbd214760	-0.03937471
178	0xbb35f4d0	-0.0027764328
179	0xbbe47e9e	-0.0069731018
180	0xbd5588fc	-0.05213259
181	0xbcc1acb1	-0.023641916
182	0x3d869980	0.065722466
183	0xbd53d322	-0.051715024
184	0x3c808e8b	0.01569297
185	0xbdbbe81c	-0.09175131
186	0x3cfb7f5e	0.030700382
187	0x3d07128a	0.032976665
188	0xbd1fb66d	-0.038992334
189	0x3ccf0ed2	0.025275622
190	0xbcca9481	-0.024729015
191	0xbcf509ad	-0.02991184
192	0xbd1ce4bd	-0.03830408
193	0xbc528ba6	-0.012850678
194	0xbbf1aabc	-0.0073750895
195	0xbc2aa186	-0.010414487
196	0xbb432a79	-0.0029779954
197	0xbc61eb70	-0.013789043
198	0xbc17ef8b	-0.00927342
199	0xbc6a31e8	-0.014294125
200	0x3c052ba4	0.0081280805
201	0x3ce6b926	0.028164458
202	0xbdcb5bf8	-0.09929651
203	0x3d836829	0.06416351
204	0xbdaad264	-0.0834091
205	0x3b42e1a3	0.002973654
206	0x3be7d610	0.007075079
207	0xbbe40681	-0.006958783
208	0x3b99401a	0.004676831
209	0xbcb12878	-0.021625742
210	0xbd36bfe3	-0.04461659
211	0x3c9ea393	0.019365108
212	0xbc41e79e	-0.011835007
213	0xbc022075	-0.007942309
214	0x3be3497a	0.0069362493
215	0xbce32a0c	-0.02773001
216	0xbc7bed93	-0.015376466
217	0x3d536454	0.051609352
218	0xbd7b489f	-0.061348554
219	0xbdf90721	-0.12159563
220	0xbd146763	-0.03623141
221	0x3b2630bb	0.0025358635
222	0x3ba95ff7	0.0051689106
223	0xba77e3d3	-0.00094562507
224	0x3be1eeb7	0.006894912
225	0xbcb38ace	-0.021916773
226	0x3c014c0b	0.007891665
227	0x3c1f862a	0.009736577
228	0xbd40d77e	-0.04708051
229	0x3d04e7bc	0.03244756
230	0x3cf585f4	0.0299711
231	0xbcd31a5f	-0.02576941
232	0x3c024494	0.007950921
233	0xbcbe8af4	-0.023259617
234	0xbd7d548a	-0.0618482
235	0x3b32fa50	0.0027309842
236	0xbcffe955	-0.031239191
237	0xbd44ee33	-0.048078727
238	0xbb3b4bf5	-0.002857921
239	0xbb1e3e76	-0.0024146116
240	0x3cead700	0.028666973
241	0xbb21ccb1	-0.0024688656
242	0xbd0b8384	-0.03406097
243	0x3c957e98	0.018248841
244	0xbd6a0a6e	-0.057138853
245	0xbdbc818a	-0.09204395
246	0x3c29ed68	0.0103715435
247	0x3bccde29	0.0062520695
248	0xb8dd6ce2	-0.00010558382
249	0xbcc53dc7	-0.02407731
250	0xbdc99654	-0.09843126
251	0x3b916a46	0.0044377176
252	0xbd7a06e7	-0.06104174
253	0x3c2dedc0	0.010615766
254	0xbca254a2	-0.019815747
255	0x3cc6c287	0.02426268

action_model._continuous_distribution.log_sigma f4 [1, 2]
0	0x3ce143c4	0.027498133
1	0x3f7a7b33	0.9784424

action_model._continuous_distribution.mu.weight f4 [2, 64]
0	0x3db80f39	0.089872785
1	0xbe22d7ed	-0.15902682
2	0xba2fb94f	-0.00067033333
3	0xbdb5f19a	-0.088839725
4	0xbd515686	-0.051107906
5	0xbe3a1cbd	-0.18175025
6	0xbe995d0f	-0.2995381
7	0x3c37bca1	0.011214406
8	0xbda69542	-0.081339374
9	0xbdb6a029	-0.08917267
10	0x3d6dbd39	0.058041785
11	0xbe7ce3d6	-0.24696288
12	0x3d7d8149	0.061890874
13	0xbe8aa8ce	-0.27081913
14	0xbdff5347	-0.12467056
15	0x3d2f46d6	0.042792164
16	0xbe540d00	-0.20708084
17	0x3d429a25	0.047510285
18	0x3e1d2d1f	0.15349244
19	0xbe247d2f	-0.16063379
20	0x3e001acb	0.1251022
21	0x3e101904	0.14072043
22	0x3e14e46b	0.1454026
23	0x3e99286f	0.2991366
24	0xbeb537b7	-0.3539407
25	0x3e0c4930	0.13699794
26	0xbe3a43de	-0.18189952
27	0x3e2568de	0.16153285
28	0xbe10ff7b	-0.14159958
29	0x3de6d3d6	0.11270873
30	0xbde49942	-0.11162044
31	0xbe26be0b	-0.16283433
32	0x3dca24ed	0.09870324
33	0x3e2e306b	0.17010657
34	0xbdbb32f7	-0.0914058
35	0x3c7806e3	0.015138361
36	0xbe1f2295	-0.15540536
37	0x3e45d996	0.19321284
38	0xbc906a8b	-0.017628929
39	0x3c2a84ec	0.010407668
40	0x3bce00ba	0.0062867077
41	0xbe8d0cce	-0.27548832
42	0x3cbe739b	0.023248484
43	0x3e2913bd	0.16511436
44	0x3e0e1b88	0.1387769
45	0x3df53143	0.119722866
46	0x3cb22495	0.02174596
47	0x3e100f8e	0.14068434
48	0xbcdf2ea3	-0.027243918
49	0x3dcc25d6	0.09968154
50	0x3e75ec46	0.24015912
51	0xbe6e06b1	-0.2324474
52	0x3e2f0cf3	0.17094783
53	0x3e67bee2	0.2263141
54	0xbe5666cb	-0.2093765
55	0x3dedfde9	0.11620695
56	0xbe3cc83f	-0.18435763
57	0x3d9fedd6	0.078090355
58	0xbe89a61a	-0.26884538
59	0xbe242c7b	-0.16032593
60	0x3e5b6f7e	0.2142925
61	0xbca7dfc7	-0.020492448
62	0x3df07735	0.11741487
63	0x3e760963	0.24027018
64	0x3e448276	0.19190392
65	0xbe129472	-0.1431444
66	0x3e58d014	0.21173126
67	0xbef32383	-0.4748803
68	0xbf0a8ec0	-0.5412407
69	0x3ddd08a6	0.10792665
70	0xbecbead6	-0.39827603
71	0x3e8c7853	0.2743555
72	0x3e855ffc	0.26049793
73	0xbe516cfd	-0.20451732
74	0xbeb06ad9	-0.34456518
75	0xbee1a50f	-0.44071242
76	0x3ecd0db8	0.4004953
77	0xbd6c6c1c	-0.05772029
78	0x3e9a6c3b	0.30160698
79	0xbe85696c	-0.26056993
80	0xbd2033c6	-0.039111875
81	0xbe9dc3b0	-0.3081336
82	0x3dbbfa4d	0.091786005
83	0x3e3c7ebd	0.18407722
84	0xbcd4baf5	-0.025968054
85	0x3da7c127	0.08191138
86	0xbe6c99cd	-0.23105545
87	0xbdb14e1f	-0.086574785
88	0x3b93cbe4	0.0045103896
89	0x3d1b5663	0.03792418
90	0x3bcc4746	0.0062340824
91	0xbcc47b6e	-0.023984637
92	0xbf021be9	-0.5082384
93	0xbd657ba8	-0.05602613
94	0xbf1a75c1	-0.6033593
95	0x3d1040a3	0.035217892
96	0x3da20931	0.07911909
97	0xbc65a13e	-0.014015494
98	0xbe1e1410	-0.1543734
99	0xbf0b8cb9	-0.545116
100	0xba37d7dd	-0.0007013062
101	0x3bc4e08c	0.0060082134
102	0x3e2a6c17	0.16642796
103	0x3e6fd556	0.23421225
104	0x3e4fd45e	0.20295855
105	0xbeda5a06	-0.42646807
106	0x3e8f5ccf	0.28000495
107	0xbd7ba50d	-0.0614367
108	0xbdaf8c99	-0.08571739
109	0xbe0eb66e	-0.13936779
110	0xbeb0bdbe	-0.34519762
111	0x3d6dc51d	0.05804931
112	0xbe6a91e8	-0.22907221
113	0xbdd849ab	-0.10560926
114	0xbddd324d	-0.1080061
115	0x3d920463	0.07129743
116	0xbcb1e839	-0.021717178
117	0x3eb3d55e	0.35123724
118	0xbdfeef2b	-0.124479614
119	0x3d631867	0.055443194
120	0x3e07f7ed	0.1327817
121	0xbeb115a6	-0.3458683
122	0x3d17abdf	0.037029143
123	0xbf2314cb	-0.637036
124	0x3c77fc5c	0.015135851
125	0x3ce87c71	0.02837965
126	0x3dffb1aa	0.124850586
127	0xbe65a89e	-0.22427604

action_model._continuous_distribution.mu.bias f4 [2]
0	0x3b37d45f	0.0028050167
1	0x3db2bc25	0.08727292

onnx::LSTM_101 f4 [1, 256, 256]
0	0xbd99033b	-0.07471319
1	0x3dd990e1	0.106233366
2	0x3dab9fe0	0.08380103
3	0xbdd1f30c	-0.10251436
4	0xbd718f17	-0.05897435
5	0x3df06b09	0.11739165
6	0x3d610dd7	0.05494484
7	0xbcbff70b	-0.023433229
8	0x3d134c9b	0.03596173
9	0x3d0a73a2	0.033801682
10	0xbe1f2636	-0.1554192
11	0x3c8defe8	0.01732631
12	0xbd00ea33	-0.03147335
13	0xbd344e2a	-0.044019856
14	0xbdd7c8ac	-0.10536322
15	0xbd8bc5a1	-0.06824804
16	0x3daf5143	0.08560421
17	0xbd51fc5c	-0.05126606
18	0x3d8a651b	0.067575656
19	0x3cf93353	0.030419981
20	0x3de77840	0.11302233
21	0x3d9f2e59	0.07772512
22	0x3c36863f	0.011140405
23	0xbcf3cd71	-0.029761048
24	0x3ceb7ad7	0.028745098
25	0xbd2f0372	-0.042727895
26	0xbc41db02	-0.011832001
27	0x3d8bc81b	0.068252765
28	0x3d22feb3	0.03979368
29	0x3d940771	0.07227982
30	0xbcfbb2a0	-0.030724823
31	0x3db7ce41	0.08974887
32	0xbdd825f5	-0.10554115
33	0xbd8d3d5c	-0.06896469
34	0xbd393b5e	-0.045222633
35	0x3e271553	0.16316728
36	0xbc5ed9fe	-0.013601778
37	0x3d82de43	0.06390049
38	0x3ca3392c	0.019924723
39	0xbdd347b3	-0.1031641
40	0xbce11bef	-0.02747914
41	0x3dfa472f	0.122206084
42	0x3da73243	0.081638835
43	0xbddb3640	-0.10703707
44	0x3d85f44f	0.06540739
45	0x3d144106	0.036194824
46	0x3d460a51	0.048349682
47	0xbe074d77	-0.13213144
48	0xbe40109e	-0.18756339
49	0xbdb9225d	-0.090397574
50	0xbe040652	-0.12893036
51	0x3dbcac72	0.09212579
52	0xbdce2089	-0.10064799
53	0x3e4544f4	0.19264585
54	0xbda2513f	-0.07925653
55	0x3e4aaa39	0.19791497
56	0x3e5f0ad8	0.2178148
57	0x3e22c629	0.15895905
58	0xbcd50c0b	-0.02600672
59	0x3dbce3c8	0.09223133
60	0x3e1fea16	0.1561664
61	0x3d97385b	0.07383796
62	0xbe30df2e	-0.17272636
63	0xbb7949c5	-0.0038038355
64	0x3d4f8be4	0.05067052
65	0x3d30a43e	0.043125384
66	0xbdf1cd15	-0.118066944
67	0xbe05f854	-0.13083011
68	0x3db3cf9b	0.08779832
69	0xbc965aaa	-0.018353779
70	0x3c93ea66	0.018056106
71	0xbca8af28	-0.020591334
72	0xbd2bee1b	-0.041975122
73	0xbca5d103	-0.020241266
74	0x3e0c9a82	0.13730815
75	0x3e3c4bdb	0.18388312
76	0x3e0895cf	0.13338397
77	0x3dbeb687	0.09312158
78	0x3d3cf137	0.046128478
79	0xbda09be4	-0.07842234
80	0x3db885da	0.09009905
81	0xbd894008	-0.06701666
82	0x3d486a78	0.04892966
83	0xbe0006d4	-0.12502605
84	0xbc7ae0a5	-0.0153123485
85	0x3d9e9736	0.07743685
86	0x3e36c8c5	0.17850025
87	0x3e2e7a60	0.1703887
88	0x3e02d890	0.12777925
89	0x3b0b09c4	0.0021215538
90	0xbdf7aa7e	-0.12093066
91	0x3d3c4ca3	0.045971524
92	0x3df97f72	0.121825114
93	0x3d29084c	0.04126768
94	0x3d93e763	0.07221868
95	0x3e0682c5	0.13135822
96	0xbd5a4b31	-0.053294364
97	0xbc079053	-0.008274156
98	0x3ddecfb0	0.10879457
99	0xbe2764b5	-0.1634701
100	0x3c1cbbe3	0.00956628
101	0x3c429ac2	0.011877717
102	0x3de89b31	0.113577254
103	0xbd7d2e10	-0.061811507
104	0x3db60762	0.08888127
105	0xbd530c2a	-0.051525272
106	0xbc1a1fc8	-0.009406991
107	0xbd9fff37	-0.0781235
108	0x3d9fd1a5	0.078036584
109	0x3ddab5f4	0.10679236
110	0x3d93cabd	0.07216404
111	0x3d146d38	0.03623697
112	0x3db0508e	0.086091146
113	0xbcc24f4e	-0.023719456
114	0xbd8cabe5	-0.06868724
115	0x3caaaa2d	0.0208331
116	0xbd26d7bb	-0.04073308
117	0x3e1bbc4f	0.15208553
118	0x3e32c425	0.17457636
119	0x3d92bdb4	0.07165089
120	0xbe178c99	-0.14799727
121	0xbdb21475	-0.08695308
122	0x3d699a82	0.057032116
123	0xbd751c26	-0.059841298
124	0x3e843650	0.25822687
125	0x3dc95aec	0.09831795
126	0x3c6b55b9	0.0143637
127	0x3db1552d	0.08658824
128	0xbe253f75	-0.16137488
129	0xbe2e7835	-0.17038043
130	0x3d5f8452	0.05456955
131	0x3df0bac6	0.11754374
132	0xbe243ea1	-0.16039516
133	0x3cabf476	0.020990591
134	0x3baa0c40	0.0051894486
135	0xbc559515	-0.013036032
136	0xbdc87f4b	-0.09789904
137	0xbd1ba4ed	-0.037999082
138	0xbd493d7f	-0.049130913
139	0xbda36f4c	-0.079802126
140	0x3c8b2ec9	0.016990082
141	0x3d13b0d0	0.036057293
142	0xbcb21a1f	-0.021740971
143	0xbcb56240	-0.022141576
144	0xbd2cae92	-0.04215867
145	0xbda5258f	-0.08063804
146	0x3e0d92bc	0.13825506
147	0xbd541bfd	-0.051784504
148	0x3d9b34d7	0.07578438
149	0xbd0ee747	-0.034888532
150	0xbd8408f7	-0.064470224
151	0x3e673063	0.22577052
152	0x3dda9f49	0.106749125
153	0x3e5b8a43	0.21439461
154	0x3d1bcc2a	0.038036503
155	0x3dd3271f	0.10310196
156	0x3d6bfc79	0.057613824
157	0x3dc68a42	0.09694339
158	0xbbbd7275	-0.0057814666
159	0xbd9dcd9b	-0.07705232
160	0x3dd75999	0.10515136
161	0x3d098a20	0.033578992
162	0xbdd721a0	-0.1050446
163	0xbe4b7989	-0.1987058
164	0x3e10c2b7	0.14136778
165	0xbe08fe5d	-0.13378282
166	0xbcdf8316	-0.027284186
167	0x3d1978ca	0.03746871
168	0xbe493695	-0.19649728
169	0x3d79a4fc	0.060948357
170	0xbd8674b0	-0.06565225
171	0xbd146ba8	-0.03623548
172	0x3d17111b	0.036881547
173	0x3e0159d3	0.12631921
174	0x3e9c4bed	0.30526677
175	0xbd0ce242	-0.034395464
176	0x3e36a8c8	0.17837822
177	0x3dc060b6	0.09393446
178	0xbdb21ae0	-0.08696532
179	0xbe100cea	-0.14067426
180	0x3d6d59a7	0.057946827
181	0xbd53d1d2	-0.051713772
182	0xbcbf4b86	-0.023351442
183	0x3b848a72	0.0040448243
184	0xb87c5f50	-6.017025e-05
185	0xbd529228	-0.051408917
186	0x3cd02eb1	0.02541289
187	0xbc63c8ec	-0.013902884
188	0x3d858976	0.06520359
189	0xbd6929e7	-0.056924727
190	0x3c733474	0.014844049
191	0xbdfd955e	-0.12382005
192	0x3d1c0cbb	0.03809808
193	0x3c107c7f	0.008818745
194	0x3e0e0bcb	0.13871686
195	0xbd94d9a7	-0.072680764
196	0xbdf83a55	-0.12120501
197	0xbdf94fff	-0.12173461
198	0xbe05e739	-0.13076486
199	0x3d38e69a	0.045141794
200	0xbdddb044	-0.108246356
201	0xbd92b97f	-0.07164287
202	0xbd9cd899	-0.076585
203	0xbc839a6b	-0.016064843
204	0x3d561b00	0.052271843
205	0x3e211628	0.15731108
206	0xbd1bf9ef	-0.038080152
207	0x3d8dafcb	0.069182955
208	0x3e052a50	0.13004422
209	0xbc35604b	-0.011070321
210	0x3d06ba66	0.032892607
211	0x3e2b9c36	0.16758808
212	0xbe2da24f	-0.16956447
213	0xbd32dffd	-0.043670643
214	0xbe203e62	-0.15648797
215	0x3c93fc34	0.018064596
216	0xbe671084	-0.22564894
217	0x3da2e097	0.07952993
218	0xbce37063	-0.027763551
219	0xbde9036f	-0.11377608
220	0x3d7fc6e7	0.062445547
221	0x3dc0e09a	0.09417839
222	0xbde969a8	-0.113971055
223	0xbdd9562b	-0.10612138
224	0xbd847a69	-0.064686604
225	0xbdf89909	-0.12138564
226	0xbd70c2ef	-0.058779653
227	0xbc9b00bf	-0.018921254
228	0xbe1fee61	-0.15618278
229	0x3ba3756b	0.0049883625
230	0xbca7665a	-0.020434547
231	0x3e29aac8	0.16569054
232	0xbd9676c9	-0.07346875
233	0xbbb91cc0	-0.005649179
234	0xbd1f334e	-0.038867287
235	0x3d31258c	0.043248698
236	0x3d578663	0.052618396
237	0x3d0926b1	0.033484165
238	0xbdc7d1ec	-0.09756836
239	0xbd9bd509	-0.076089926
240	0x3e05e96e	0.13077328
241	0x3cdb04c9	0.02673568
242	0xbc5f48a8	-0.013628162
243	0xbbca33bd	-0.0061707185
244	0xbdedb2f0	-0.11606395
245	0x3da9db46	0.08293776
246	0x3dd50d4d	0.104029275
247	0x3d93794d	0.07200871
248	0x3c82377d	0.0158956
249	0xbe0eabbd	-0.139327
250	0x3c3da191	0.011574165
251	0x3bbf2566	0.0058333157
252	0x3d9be10d	0.076112844
253	0x3d6d12eb	0.05787937
254	0x3d8a1420	0.0674212
255	0x3c6d1de3	0.014472458

onnx::LSTM_102 f4 [1, 256, 64]
0	0xbe8e5fa9	-0.27807358
1	0xbe43865b	-0.19094221
2	0x3da89041	0.08230639
3	0xbc951f64	-0.018203445
4	0x3c4a7059	0.012355887
5	0x3d5b7395	0.053577024
6	0x3d9897ca	0.074508265
7	0x3d39e761	0.045386676
8	0xbdbd15b3	-0.092326544
9	0xbd38e2ba	-0.0451381
10	0xbe5a3855	-0.21310551
11	0xbd907a3a	-0.07054563
12	0xbd1f6a96	-0.038920008
13	0xbd190fcc	-0.03736858
14	0x3dae1e75	0.08501903
15	0x3d4dfc09	0.050289188
16	0x3e6130e7	0.21991311
17	0xbe37199e	-0.17880866
18	0xbdb0173c	-0.085981816
19	0xbe037510	-0.12837625
20	0xbe4e890a	-0.20169464
21	0xbd17819e	-0.036988847
22	0xbe8006ae	-0.25005096
23	0xbe06b4ae	-0.13154861
24	0x3d7b7b93	0.061397146
25	0xbd5b1f56	-0.05349668
26	0x38f98598	0.00011898129
27	0x3d6b4f86	0.057448886
28	0x3dbfa361	0.09357334
29	0xbd534450	-0.05157882
30	0x3e73c59d	0.23805852
31	0xbe216bd9	-0.15763797
32	0x3caa0bdf	0.020757614
33	0xbe451553	-0.19246416
34	0x3e4ff2dc	0.20307487
35	0xbdb7c880	-0.08973789
36	0x3e7cecc8	0.246997
37	0xbe8ab020	-0.27087498
38	0xbdb1c1b4	-0.08679524
39	0x3e258ec7	0.16167746
40	0xbdc5bc6d	-0.0965508
41	0x3e9199cb	0.28437647
42	0xbcfd0ad5	-0.030888954
43	0xbd82815d	-0.0637233
44	0x3d3d2baf	0.046184238
45	0xbd166b35	-0.036723334
46	0x3ea2f345	0.31826225
47	0xbe76f496	-0.2411674
48	0xbd8fc320	-0.07019639
49	0x3e51c386	0.20484743
50	0xbdb72307	-0.08942228
51	0x3e0f24c2	0.13978866
52	0x3e310dc5	0.17290409
53	0x3dc72ad8	0.09724969
54	0xbe3fe51c	-0.18739742
55	0xbced71cd	-0.028984929
56	0xbd861065	-0.06546096
57	0xbde77a6d	-0.11302648
58	0xbda711ef	-0.081577174
59	0x3caaa1b5	0.020829061
60	0xbe6c88b9	-0.2309903
61	0x3cf633d8	0.030054018
62	0x3c51a030	0.012794539
63	0xbe585cd3	-0.2112916
64	0x3e3fdfcf	0.1873772
65	0x3ddef7be	0.10887097
66	0x3e00223e	0.12513062
67	0x3e137f19	0.14403953
68	0x3d336d85	0.043805618
69	0xbd72241d	-0.05911647
70	0x3e5b5598	0.2141937
71	0x3c5d3a67	0.013502694
72	0x3db7ce33	0.08974876
73	0xbe1ddcbd	-0.15416236
74	0xbe5dca7a	-0.2165927
75	0xbdd507cf	-0.1040188
76	0xbaf4667d	-0.0018646267
77	0xbde4712a	-0.11154397
78	0x3de683e9	0.112556286
79	0xbd049310	-0.032366812
80	0xbdb810f9	-0.08987612
81	0x3d863ba5	0.06554345
82	0x3e82c06c	0.2553743
83	0x3de2c420	0.11072564
84	0xbe21f1a6	-0.15814838
85	0x3e905489	0.28189495
86	0xbe0c8161	-0.13721229
87	0xbe1c4a69	-0.1526276
88	0x3d0a4a81	0.03376246
89	0xba0bdf69	-0.000533572
90	0x3e5d9a79	0.21640958
91	0x3e7cce37	0.2468804
92	0x3dec7094	0.1154491
93	0x3d07eff9	0.03318784
94	0x3dd4ee5b	0.10397025
95	0x3c85dd07	0.016340746
96	0x3e675969	0.22592701
97	0x3e196c5e	0.14982745
98	0x3e3888bb	0.18020909
99	0x3df356d5	0.11881796
100	0x3dc05487	0.09391122
101	0x3dc32566	0.095286176
102	0x3e2d17c4	0.16903597
103	0x3da98455	0.082771935
104	0x3db508ef	0.088395946
105	0xbe4d2a23	-0.20035605
106	0x3c7622cf	0.015022947
107	0xbe552843	-0.2081614
108	0xbe7b5404	-0.24543768
109	0xbe5bf488	-0.2148
110	0xbe4d7d62	-0.20067361
111	0xbc84360c	-0.016139053
112	0xbe184835	-0.14871295
113	0x3e1d0f5e	0.15337893
114	0xbc46a514	-0.012124319
115	0x3d5ace37	0.053419318
116	0x3e3d60b9	0.18493928
117	0xbb60812e	-0.0034256685
118	0xbcc324f3	-0.02382133
119	0x3d5b6771	0.053565446
120	0x3e073d4e	0.1320698
121	0x3d249ad3	0.040186714
122	0xbdd653d6	-0.10465209
123	0xbbb15692	-0.0054119313
124	0x3de7d59b	0.11320039
125	0x3dad9f5a	0.084776595
126	0x3e8284b3	0.25491866
127	0xbe049e70	-0.12951064
128	0xbe351852	-0.17685059
129	0x3e153c7f	0.14573859
130	0x3e2367e0	0.15957594
131	0x3e345234	0.17609483
132	0xbdc6f203	-0.09714129
133	0x3e7eb74f	0.24874614
134	0xbc886d2f	-0.016653625
135	0xbe307016	-0.17230257
136	0xbc44536e	-0.011982782
137	0xbc86802e	-0.016418543
138	0x3da5f5d2	0.08103527
139	0x3e801865	0.25018612
140	0xbe1ec359	-0.15504207
141	0x3d8d1595	0.06888882
142	0xbc2375ed	-0.009976846
143	0x3de50dc1	0.11184264
144	0x3d4c5468	0.049885184
145	0x3d106d1e	0.035260312
146	0xbcce4c7c	-0.025182955
147	0xbe17de03	-0.14830784
148	0xbca944c9	-0.020662682
149	0x3dae3200	0.085056305
150	0xbd9565f4	-0.07294837
151	0xbe16261f	-0.1466298
152	0x3d86c9e0	0.06581473
153	0x3d553f4f	0.05206233
154	0xbe1d49cf	-0.15360187
155	0x3d5d18cd	0.05397873
156	0x3db39817	0.08769243
157	0x3e15dadf	0.14634274
158	0x3e61467b	0.21999542
159	0x3d914cff	0.07094764
160	0xbd4e7e08	-0.05041316
161	0x3d93a708	0.07209593
162	0xbda21ced	-0.079156734
163	0xbe08ac2e	-0.13346931
164	0x3e49aeff	0.19695662
165	0xbe6aaa9f	-0.2291665
166	0xbcb08b31	-0.021550747
167	0xbe2ec4c4	-0.17067248
168	0x3e167539	0.14693154
169	0x3e5f309e	0.2179589
170	0xbdeec0a3	-0.11657836
171	0xbe41d816	-0.18930086
172	0xbe33db61	-0.17564155
173	0x3d9fc5dd	0.07801411
174	0x3e4fdb8f	0.20298599
175	0x3dcd0e5a	0.10012503
176	0x3e16d528	0.1472975
177	0xbde35c1e	-0.11101554
178	0xbdaeae36	-0.08529322
179	0xbe17ba2f	-0.14817117
180	0x3d1d50e4	0.03840722
181	0x3da61b81	0.08110715
182	0x3dbcda32	0.09221305
183	0xbe5b504c	-0.2141735
184	0xbda70360	-0.081549406
185	0xbe453d41	-0.19261648
186	0xbde06fd6	-0.10958831
187	0x3e2d3b19	0.16917075
188	0xbe1fc015	-0.15600617
189	0xbdbd9a3d	-0.09257934
190	0xbd8b8dd7	-0.06814163
191	0xbcaa7a67	-0.02081032
192	0x3e26bcb0	0.16282916
193	0x3d3b512f	0.04573172
194	0xbd28a360	-0.04117143
195	0xbd0a7b88	-0.033809215
196	0x3da1d3ca	0.07901724
197	0xbdcced5a	-0.10006209
198	0xbd81d59f	-0.06339573
199	0x3e3642c4	0.17798907
200	0x3dd96fad	0.106170036
201	0x3e34c6dc	0.17653984
202	0xbdf04c9c	-0.11733362
203	0xbcb86250	-0.022507817
204	0x3d433605	0.04765894
205	0xbdb89eed	-0.09014688
206	0x3da7c7c8	0.08192402
207	0x3e1d7444	0.15376383
208	0x3dd7bdeb	0.10534271
209	0x3e4ee776	0.20205483
210	0xbd937d20	-0.072016
211	0xbe43f8e5	-0.19137914
212	0xbdb86dfb	-0.09005352
213	0x3e2286ca	0.1587173
214	0xbe310985	-0.17288788
215	0x3e4734bc	0.1945371
216	0xbd92b1cf	-0.071628205
217	0xbdac7f0c	-0.0842267
218	0x3d2bc4d4	0.041935757
219	0xbe1bf608	-0.15230572
220	0xbe1260f2	-0.14294794
221	0x3d840e22	0.06448008
222	0xbe4b21e7	-0.19837151
223	0xbcde5181	-0.027138473
224	0x3e021052	0.12701538
225	0xbdf07227	-0.11740523
226	0x3d412575	0.047154862
227	0xbe4f948f	-0.20271514
228	0xbdf60131	-0.12011946
229	0x3e50200b	0.20324723
230	0xbe31d2d0	-0.17365575
231	0x3e6aaebe	0.22918221
232	0x3dbd5e00	0.09246445
233	0xbc825705	-0.015910635
234	0x3dc40361	0.09570957
235	0x3dad7e83	0.08471396
236	0xbddff8f3	-0.10936155
237	0xbe18e99f	-0.1493287
238	0xbcf7579d	-0.030193144
239	0xbe0103b8	-0.12599075
240	0xbd44c2da	-0.048037387
241	0x3deaaf5a	0.11459227
242	0x3e0c6cd4	0.1371339
243	0x3cb049c6	0.021519553
244	0xbe5529b3	-0.20816688
245	0x3e1fdde9	0.15611996
246	0xbd0bb43e	-0.03410744
247	0x3a81c93a	0.0009901889
248	0x3cd481ac	0.025940739
249	0x3e11e14c	0.142461
250	0x3e3ee479	0.18641843
251	0xbd5d3161	-0.05400217
252	0x3e34fa94	0.17673713
253	0xbe545ce3	-0.20738558
254	0xbe616286	-0.2201024
255	0x3e707e25	0.2348562
