code/selfparking/mla/results/run_02/Car/Car-2999931.onnx (onnx, 710320 bytes, 10 tensors)

network_body._body_endoder.seq_layers.0.weight f4 [256, 109]
00000000: 35df c0bd 8dc7 be3d 688b 9b3c 9951 49bd
00000010: fc7c 50bc 62b1 16be 2775 bbbd dc53 89bd
00000020: 88f4 9c3c f2f7 4a3e c23a 1ebe 1c10 fdbd
00000030: 3b5c 683e 6e91 8d3e 10c0 393c 82c9 d33d
00000040: cd99 c13c 9f8e e6bb 6c82 1dbc 12dd 063e
00000050: 15f7 c2bd 7421 de3d 85a6 fc3c 865f 2ebd
00000060: 2978 07be 70a4 26bb e0b0 b33c 8fd1 e23c
00000070: a9d0 fc3d 7372 83bd a96d 483c 9807 efbd
00000080: 1f5e 273d 9492 a2bd 13da 333d 9b50 d73b
00000090: a2d0 efbc f876 003e f71f 4f3d ab73 39bd
000000a0: 46f7 00bc a984 1f3e 8810 183d ae93 123d
000000b0: db73 0abb c11f 153e 5ffb 53bc 3108 c1bd
000000c0: 925e 2bbd 993e 683d 696b afbd aefc f0bd
000000d0: a448 083e dc5a b23a 73d8 a7bd da74 4d3c
000000e0: 4215 083c 7144 6bbd 827b 87bd 2e5f 28be
000000f0: e998 be3d de83 17be 8265 2fbd aa55 8fbc
00000100: 2836 dc3d 537c 56be 7c2f 9d3d 39e2 8dbd
00000110: a320 81bd 097e bbbd 68b6 413d f257 4f3e
00000120: 5d9c 70bd bf1e ee3c da16 103c 016d 063d
00000130: f4b6 1ebd 454c d23d b4ad 0f3e 3663 b93b
00000140: 0404 943d 8848 a83e 4174 1fbe 0251 07be
00000150: dc54 17be 3831 1b3c 408e 40be b8e4 063e
00000160: 5190 d03d 897e 853c d02c c0bd 6327 e5bd
00000170: bc58 463e 28b9 363e f541 073d e514 9a3d
00000180: c788 193e 6e86 3b3d 6b2d 8bbd e6ca 8f3c
00000190: 4fb9 1a3e c6dc d3bd 7be1 bdbd bd88 eb3d
000001a0: bb03 d7bd a349 253e 6a70 493e bd2e 0fbe
000001b0: e950 b7bc 450b 983c 2c88 8ebd 5822 5bbd
000001c0: f408 5f3d 4a6e d7bd 647f 163e dd5f 523e
000001d0: e72b 8b3d 5080 27be 71bc b23d c59e cdbb
000001e0: cb70 b1bc 868e 69bc 4d82 80be 0c9c 52bd
000001f0: 1544 b6bd 2387 fc3c 7824 65bb d08b 65bd
00000200: 128f 703c 639f 43be e74f b73d 0a9d f73d
00000210: 5f07 fe3d 3c34 ce3d 0cc0 bbbc 07f7 083e
00000220: 91a2 e5bd 21e2 27be 5328 833d 0045 4cbc
00000230: fc04 bdbd ec62 443d 0484 6dbd d6dd 08bc
00000240: 5ba8 f5bb 1fbc 3bbd d18c ffbc 0fa9 a53c
00000250: 8514 8ebd 57d5 16be fb79 253e 3148 1dbe
00000260: d809 8abb de3c e33d eece 9a3c 3a1b ad3d
00000270: 900a bc3d 251c 82bd c932 ea3d 91a1 283e
00000280: 6928 c2bc 8bba 42be 998f 6abd 6495 533e
00000290: fe43 a738 cc38 55bc 0447 3c3d 9f43 aabd
000002a0: 87bc 813d 3eed d13c c6a6 193e 2591 043e
000002b0: cc87 33bd 77f5 233e 8030 223c 4fd7 36bd
000002c0: 6197 823d dd66 383d 7ec5 723d bd1a b5bc
000002d0: 70d0 47be 3969 efbd 2326 95bd 035d 223d
000002e0: 8a04 b5bc 786a c13d 2a5d dcbd a2f8 d53d
000002f0: 876a dc3d 867c 84bd 70dd b13c 3587 383e
00000300: d1ea 773d 2f79 27bd c52f 2abd a9dd bebd
00000310: cf27 47bc 8508 cfbc e2a8 fe3d fe82 12bd
00000320: f6b0 873d caed 1b3d afa2 cc3c ef8b 0ebc
00000330: d61f 823c d93d 133d bcd4 dabc 9504 623e
00000340: ccc4 2bbe e555 243e 4afc 2abe 43dd 03be
00000350: cafa d53d 2c13 abbc ba4a 8a3e f34d 7b3e
00000360: 6ac6 c4bc 225b f13b 99ab 203e 9a2e 1bbe
00000370: 3daf 6cbc d176 f0bc 4dde 6a3d f2d7 7abe
00000380: cf1c 2e3c 66c8 3abd 2340 1bbe 762f 22be
00000390: 603f adbe 3335 993d 0c43 053d 878c 2abe
000003a0: 7d45 583d 1e3f 29be ccb2 083e 94f9 913c
000003b0: c2fa dabc 78a1 8e3d de2b 31bd fe36 a5bd
000003c0: f2df c13d 9950 593d 0be2 4c3c 8d65 fe3c
000003d0: ac06 253d 4af3 673c 1f3d f4bd c30f 93bd
000003e0: 42f0 093e d090 67be 1469 b1bd 16be 56be
000003f0: d14f 0d3e 0218 83bd b352 00bd afe9 5fbe
-0.09417573 0.09315405 0.018987373 -0.049150083 -0.012725111 -0.14716104 -0.091532044 -0.06705448
0.01915957 0.19821146 -0.15452102 -0.12356588 0.22691433 0.27650017 0.011337295 0.10341169
0.023632908 -0.0070360447 -0.0096136145 0.13170269 -0.095197834 0.108462244 0.030841121 -0.042571567
-0.13229431 -0.0025427602 0.021934927 0.027687816 0.12344486 -0.06418314 0.012233176 -0.1167137
0.040861245 -0.07938114 0.043909144 0.006570888 -0.029274289 0.12545383 0.050567593 -0.045276325
-0.007871455 0.1557795 0.03712514 0.03578537 -0.0021126184 0.14562894 -0.0129383495 -0.094253905
-0.041838236 0.056700323 -0.08565409 -0.11766945 0.1330896 0.00136074 -0.08195581 0.012540067
0.0083058495 -0.057438318 -0.06615354 -0.16442558 0.09306509 -0.14796397 -0.042821415 -0.017496902
0.10752517 -0.20945863 0.076750726 -0.06927914 -0.06305053 -0.09154899 0.047293097 0.20248392
-0.05874287 0.029067395 0.008794511 0.032818798 -0.038748696 0.102684535 0.14031106 0.005657579
0.072273284 0.32867837 -0.15571691 -0.13214496 -0.14778465 0.009472184 -0.18804264 0.13173187
0.10183776 0.016295688 -0.09383547 -0.11189153 0.19369787 0.17844069 0.033021886 0.075235166
0.14993583 0.0457825 -0.06795772 0.017552804 0.15109752 -0.103448436 -0.092715226 0.1150069
-0.104987584 0.16141371 0.19671789 -0.13982673 -0.022377448 0.018560061 -0.069595665 -0.05349955
0.054451898 -0.10519083 0.14697033 0.20544381 0.06795483 -0.16357541 0.087273486 -0.0062750303
-0.02166023 -0.014255172 -0.25099412 -0.05141835 -0.08899704 0.030826157 -0.0034964364 -0.05604154
0.014682548 -0.1910377 0.08950787 0.120905 0.1240375 0.10068557 -0.022918724 0.13375483
-0.11212648 -0.16394855 0.064041756 -0.012467623 -0.09229466 0.0479459 -0.057987228 -0.008353671
-0.007496876 -0.045833703 -0.031195076 0.020222215 -0.069375075 -0.1472982 0.16159813 -0.1535957
-0.0042125992 0.11095594 0.0188975 0.08452459 0.09181702 -0.063530244 0.11435468 0.16467883
-0.02370091 -0.19016473 -0.05726585 0.20662457 7.975845e-05 -0.01301403 0.045966163 -0.08313679
0.06334787 0.025625821 0.15005025 0.12945993 -0.043830678 0.16011606 0.009899259 -0.044638928
0.063765295 0.045019973 0.059270374 -0.022107476 -0.19513106 -0.116899915 -0.072826646 0.039639484
-0.022096891 0.094441354 -0.10759957 0.104478136 0.10762506 -0.064690635 0.021712035 0.18020327
0.060526673 -0.040887054 -0.041549463 -0.09319622 -0.012155487 -0.025272617 0.124345556 -0.035769455
0.066255495 0.03806857 0.024979917 -0.008700355 0.015884321 0.035947654 -0.026712768 0.2207206
-0.16774291 0.16048391 -0.16697803 -0.12877373 0.10448225 -0.020883165 0.27010137 0.24541454
-0.024020392 0.0073656 0.1569046 -0.15154496 -0.014446077 -0.029353531 0.05734091 -0.24496439
0.010626986 -0.04560127 -0.15161185 -0.15838417 -0.33837414 0.0748085 0.032534644 -0.1665517
0.052800644 -0.16527984 0.13349456 0.017819203 -0.026730899 0.069643915 -0.043254726 -0.080671296
0.09466542 0.05305538 0.012505065 0.031054283 0.040289566 0.014157126 -0.119257204 -0.07180741
0.13470557 -0.22613835 -0.0866262 -0.2097095 0.13799979 -0.064010635 -0.031328868 -0.21866487

network_body._body_endoder.seq_layers.0.bias f4 [256]
00000000: 3b1c a43b 5a63 6b3c 1336 d63b fa19 663b
00000010: f6bc a53b 554a 763c 1079 3d3c 6880 f03c
00000020: ba30 8039 c686 ac3a 64b1 8fbb df11 02bb
00000030: c79e a5ba 0255 3f3c 7edd ac3b da88 113c
00000040: 85b6 b53a da5a 75bb eae6 b93c e699 ae3b
00000050: 82c2 0c3a 32e4 203c d1b8 e03b 3f38 a7bb
00000060: 5d9f 02bc 92fd fcbb 0770 a63b 9091 1c3c
00000070: c31e 14bb a77c f63c 59c7 da3c d6f5 37ba
00000080: b635 933c f3fc 4b3c 1116 793c e474 153a
00000090: 2803 bbbc a9f9 28bc b406 08bc f3ad db3b
000000a0: 2eef fdb9 52d1 a8bc 1546 643c f264 5ebc
000000b0: a1e8 8b3c ad5f b73c 87c6 a13a a742 d7bb
000000c0: 027c 65bc 9b36 36bc fbb0 70b9 da7d 653c
000000d0: a551 163b 0796 343c 91ea ca3b 0897 27bc
000000e0: d864 01bc a829 43bc 6282 0dbc b447 523b
000000f0: ff1e 51bb db85 863b 8b2c 093c 2b12 cc3b
00000100: 172c 1aba 7183 d4bb 7534 7dbc 8f13 ddbc
00000110: cab8 663b fc43 2d3c 9f45 153c d45b e63b
00000120: f1a7 c83b f1a0 1f3b 1688 433c 32aa d53b
00000130: 4319 e43c 94b0 2dbc 40f6 8b3c 6c4a 5bbc
00000140: 8bf6 8f3b 1c64 f83b b379 db3b 2a8b b73b
00000150: 843b 3abc 1af8 2dbc 1411 e23a eab0 1fbc
00000160: a76d faba 743d 63bc 2100 24bc 95c3 d6bb
00000170: 03b8 543b a5f3 d7bc 2cab cdbb c2ed bc37
00000180: a731 3a3c ab7d f7bb dc66 05bb dc02 ce3b
00000190: 4660 9ebb 928a 2f3c 8ee5 983b 7dfe 0f3d
000001a0: 606c 6cbc cd9a 713c 6e78 9f3c 3978 06bd
000001b0: 9af8 1ebc c176 7b3c c0a8 b43b 1337 053c
000001c0: c67b 69bc 5f68 e0bc 4705 f1bc 8c29 a3bc
000001d0: 9db4 763b eab1 e23b bdf7 88b9 7a29 b73b
000001e0: c241 13bc 8b47 40bc b7d7 99bc f338 353a
000001f0: a16f abba 1150 c9bb bedd 133c ff4e 33bb
00000200: 5f79 943c 6ca3 e2bb cc40 8fbc e862 5f3c
00000210: b2bd ea3b 7b8b a63c cc21 b43b 00af d3ba
00000220: bb83 8bbc 381f 423b f8a2 40bc 3002 173c
00000230: 0f56 feba cd96 3cbc b4a6 353a 435d d83b
00000240: 2f43 cd3b 4cab 193c 8d84 513b e3d2 023b
00000250: 8de6 79bc 36f4 4eba 93b5 68bb f25f 4cba
00000260: 317b 543b ee11 ecbb d109 523b 3f2c d93a
00000270: 1214 e3ba adfe 2fba 60dd 8f3c b09f 16bc
00000280: 3148 9f3b 5669 633b 4f51 07bc eefd 5fbc
00000290: dde4 13bc 2f11 f33b 6580 94bc 6c82 183c
000002a0: 6c28 7a3b 0d0c 05bc 25f7 5abc 8c13 3db9
000002b0: e6f4 f4bb 8eae cb3b 3671 59bc 5175 e7bb
000002c0: 7906 9e39 d553 74bc 26cb 2a3b af5c abbc
000002d0: c574 4dbc c0b6 0bbc ebd6 51bb 7b86 a03b
000002e0: 7028 983b 21ed 0ebc 1e6d 533c 1513 1e3c
000002f0: 9516 2a3c e848 e13b bfc8 82bc 8ba4 91b9
00000300: 3345 62bc c3f6 903b 4a14 c73b f792 43bc
00000310: bef0 baba 1862 ee3c 84dd be3c ca92 0b3c
00000320: 4887 edbb 4778 27bc d3b2 d4bb 8c48 773c
00000330: a304 32bc 15fb 903c 6655 a63b a975 423b
00000340: 0fdd b13c cb39 ce3b 18b7 cabb 9abb 7fbb
00000350: db92 653c ea8c c639 a500 653c c2c1 7e3b
00000360: 959c 083d 8aac 8a3c 5b06 103a 2dc0 593b
00000370: c0ff fa3b 1692 db3b d5d1 87bb de61 18ba
00000380: a7c8 18ba 8409 fd3b a934 233c d215 883b
00000390: 42f5 54bb bb9a 65bc 0a32 1fbb d051 de3b
000003a0: 80cc 773c 0465 1fba e5d5 2c3b 739c 2b3c
000003b0: 476f 473c 3867 aabb 4c17 4d3c b2a6 95bb
000003c0: e817 153b 6bf0 9c3b 8348 e7bb 60f0 873c
000003d0: 5ee8 c9ba 3ffe e8bb 0e44 7c3c 0120 89bc
000003e0: fe82 91bc ffc8 96bb bcb4 32bc e47f 07bc
000003f0: d75f b93b 1487 5abb 8497 c7bc 1f88 313c
0.005008248 0.014366949 0.006537208 0.0035110698 0.0050579263 0.015032371 0.011564508 0.029358104
0.00024450367 0.0013162724 -0.0043851603 -0.0019847078 -0.001263582 0.011677982 0.0052754274 0.008882726
0.0013863599 -0.0037438185 0.022693116 0.0053284047 0.000536956 0.009820031 0.0068579693 -0.0051031406
-0.0079725655 -0.0077206576 0.0050792727 0.009556189 -0.0022601343 0.030088736 0.026706384 -0.00070175284
0.017969947 0.0124504445 0.015203015 0.0005701317 -0.022828653 -0.01031343 -0.008302379 0.006704086
-0.00048434123 -0.020607624 0.0139327245 -0.013573872 0.0170787 0.022384489 0.0012342491 -0.006569225
-0.014006617 -0.011121417 -0.00022954114 0.014007056 0.0022936848 0.011022097 0.0061925133 -0.01022888
-0.007897578 -0.011911787 -0.008637043 0.0032086195 -0.0031909344 0.0041053123 0.008372436 0.0062277517
-0.00058812037 -0.0064853956 -0.015454401 -0.026986865 0.0035205358 0.010575291 0.009110837 0.0070299897
0.006123536 0.0024357403 0.011934301 0.006520533 0.027844077 -0.010601182 0.017085195 -0.013384443
0.004393404 0.0075802933 0.0066978573 0.0056013064 -0.011366729 -0.010618234 0.0017247521 -0.009746769
-0.0019106165 -0.013869632 -0.010009796 -0.006554077 0.0032458312 -0.026361296 -0.006276509 2.2522061e-05
0.011364377 -0.0075528226 -0.0020355498 0.006286962 -0.004833254 0.01071419 0.004666037 0.03515481
-0.0144301355 0.01474638 0.019466605 -0.032829497 -0.009702826 0.015348137 0.0055132806 0.0081308065
-0.014250701 -0.027393518 -0.029421462 -0.019917272 0.0037644275 0.0069181817 -0.0002612452 0.005589661
-0.008987846 -0.011735807 -0.018779619 0.0006913088 -0.0013079533 -0.006143578 0.009025035 -0.0027360318
0.01812428 -0.006916454 -0.017486952 0.013634421 0.0071637267 0.020330181 0.005497193 -0.0016150177
-0.017030587 0.0029620659 -0.011757605 0.00921683 -0.001940431 -0.011510563 0.0006929443 0.0066029145
0.0062641124 0.009379219 0.0031969876 0.0019962124 -0.0152527215 -0.00078946666 -0.0035508617 -0.00077962794
0.003242206 -0.007204286 0.0032049308 0.0016568972 -0.0017324707 -0.000671367 0.017561615 -0.009193346
0.004860901 0.0034700236 -0.008259132 -0.013671381 -0.009026733 0.00741782 -0.01812763 0.009308439
0.0038171066 -0.008120549 -0.013364588 -0.00018031726 -0.007475483 0.006215877 -0.0132716205 -0.0070635458
0.0003014093 -0.014912565 0.0026061027 -0.020918218 -0.012540047 -0.008527458 -0.003201897 0.004898844
0.0046434924 -0.008723528 0.0129044335 0.009648104 0.010381361 0.006875146 -0.015964864 -0.0002777915
-0.013810444 0.0044239475 0.0060754167 -0.011936895 -0.0014262421 0.02909951 0.023298986 0.008518884
-0.007248793 -0.010221547 -0.006491044 0.01509298 -0.010865363 0.01769785 0.0050760983 0.0029672182
0.021711854 0.0062935106 -0.0061863773 -0.0039021731 0.014012064 0.00037870492 0.013977204 0.0038872813
0.033352453 0.016927976 0.0005494111 0.0033226118 0.0076598823 0.0067007644 -0.004144887 -0.0005812923
-0.00058282394 0.0077220816 0.009961286 0.004152992 -0.0032494818 -0.014013941 -0.00242913 0.006784655
0.01512444 -0.0006080421 0.0026372608 0.010474312 0.012172527 -0.005200293 0.012517761 -0.004566991
0.0022749845 0.0047894022 -0.0070582046 0.016594112 -0.0015404334 -0.0071103866 0.015397085 -0.016738893
-0.017762657 -0.0046015973 -0.010907348 -0.008270238 0.005657177 -0.0033344673 -0.02436424 0.010835676

network_body._body_endoder.seq_layers.2.weight f4 [256, 256]
00000000: b2be 323d 407a a6bd 9bda 9f3d 9f66 f8bc
00000010: 8c27 813c 9cf6 c43c e77a 4a3d 5cac 8abc
00000020: 153b b13d 1219 d9bd 8591 433d 39e9 51bd
00000030: 67d1 90bd 5817 86bc 7694 85b9 d3fe 21be
00000040: 2366 de3d de0b 15bd a4ff 683d 878f 33be
00000050: f58c 483d db8e acbb 4991 8b3c 6902 1ebb
00000060: 36d3 a0bd 11b0 773c 3532 dcbc 6f28 d1bd
00000070: e44e 7bbd 6ec1 ef3c 681d d4bd a60e b8bd
00000080: 9af7 36be cee0 9b3d c58a 813d 7e90 50bd
00000090: 419f e83d 0167 183d 04e1 d4ba da6d 893d
000000a0: f66a 8c3d 2f5c a73d 20a4 a63c 81ab e0bb
000000b0: f284 893d 6329 4b3d deb8 303d 6278 d1bc
000000c0: 270e ca3b 5d75 afbc c141 d2bd 5db2 cf3d
000000d0: a69d 9b3d 8e13 2f3d 5fab dc3d 5fa6 6bbc
000000e0: 9885 f2bb c5e5 a63d def8 b63d cf5a dbbb
000000f0: 6f47 92bb 23e6 93bd b5a0 aa3d b4af 013e
00000100: d2c7 a3bd ecb3 bbbd 355e 91bd e598 27bd
00000110: cea2 82bd da26 31bc f5ef 273c a469 35be
00000120: 0d13 5d3d e35b adbc 4faa dc3d 9bac 86bd
00000130: 04fb 6b3c f328 dc3c fc13 c03d f440 113d
00000140: 451d a0bd fbb4 4a3d 85db 803d e349 61bb
00000150: b1cf c43c 793f 8bbb 13d1 e9bb a643 29bd
00000160: 903a 0cbd 1249 e33d 06f5 1dbc 1f90 923c
00000170: d975 04bd 4a68 2bbd 5f7d 683d 8c9b aa3b
00000180: 2bfb b1bd 3b59 65bd 5e13 5e3d b9ce 853d
00000190: 0b47 ab3c 1a59 873c 99d4 39bd 05d7 a7bd
000001a0: 7e7c 4d3d 4b53 67b9 be3f d6bb bbd2 d9bd
000001b0: 5923 283d ec00 a2bd c6dd 813c 6967 bbba
000001c0: 5af9 e8bd 469b 91bd 62de 403c 5136 933b
000001d0: 15b7 8fbd 3fc4 ef3d e204 0fbd ccb7 5b3e
000001e0: 2fa4 653a 2019 c83d 504f b7bc 0f42 1cbe
000001f0: fd51 d1bd de67 21bd e17d 41bd 7c72 883b
00000200: 6270 ffbd 416f 0abe 222b e53c fe28 ae3c
00000210: 1f2f febb 2b4a 893d d7f0 443c 6d45 45bd
00000220: b71e 743d 1db9 fc3c 1e04 283a 0908 16be
00000230: e7f2 0ebc a961 9c3d be2b 13bd 6eab 86bd
00000240: fd43 8dbd 4583 533c f7a1 ea3c 2fba 953c
00000250: 221c 81bd 7ec3 d13c c132 8e3d 8c20 ea3d
00000260: 6be5 183c 1667 babd 6a06 9e3b 359c 72bb
00000270: 4bdb 2fbd bb61 f13c 200e b23c 19f0 75bd
00000280: bacf 233c ec2d f03b 6636 99bc 5baf 893c
00000290: 3586 98bd fcf4 893c 4dc9 38bd 1f2f 3d3d
000002a0: 1b92 6bbd 44f1 acbc 29f1 913c abee 813d
000002b0: 7030 2d3d fcab 18bd 0c78 bcbd 1bde 973d
000002c0: d103 acbd 2c14 d93d c705 eebc a10e 87bd
000002d0: 5241 783d 4be9 543c d28d 283c 952c 1dbd
000002e0: 50ef 59bd 83b2 bfbc 7b67 a8bc 83ab 153d
000002f0: 9cd4 a8bb caea 90bd d092 893d c084 553b
00000300: 773b f1bc 98de 243d da78 923d 15e1 34bc
00000310: a1af b9bc 73b7 36bd 7c7d 403d b5ce a9bd
00000320: 287a 5dbd ba93 c13c 4df5 c9bd 043b 0e3d
00000330: 3b00 72bd 91c8 a2bc 01ce dfbd 6adc 35bd
00000340: 55b3 1dbe 9f02 adbd 24d7 6d3d 50bc 0b3e
00000350: 1bb6 14bd dd86 63bd 04b5 22be 5020 d3bd
00000360: 1eb4 af3b 20f8 123d 5043 823c ca72 413e
00000370: 387f 583a def9 393d 51ea 1b3c 71fa 44bd
00000380: 8b97 42bd ebe3 5a3d 2af0 9dbd 21c2 533d
00000390: d5a4 073d a245 9fbc 49d5 b83c 5d1e 8c3d
000003a0: 2ccd 8abd 1b80 16bd ea67 4c3d 5341 0cbc
000003b0: f032 b53c 20ff fcbc a6e2 a9bd 7e3c c33d
000003c0: c739 d93d 5b33 3ebd 9a07 f7bd f82d 343c
000003d0: 7f48 edbc a750 8ebd 26a4 b7bd 06ed 6ebd
000003e0: 0cfc a63d e53e 143e 69e6 80bc 1634 3c3d
000003f0: ccca ebbd 6e13 733d e3e0 68bd a22c 12be
0.043638892 -0.08128786 0.078053676 -0.030322371 0.015765928 0.024043374 0.049433615 -0.01692789
0.08653847 -0.10600485 0.0477462 -0.05124781 -0.0707119 -0.016368553 -0.0002547835 -0.15819864
0.10859325 -0.03638827 0.056884423 -0.1753522 0.048962552 -0.005266053 0.01703705 -0.0024110323
-0.07852785 0.015117661 -0.02687941 -0.1021279 -0.061354533 0.02926704 -0.10357171 -0.08987169
-0.1786789 0.076112375 0.06325296 -0.05091905 0.113585 0.037207607 -0.0016241376 0.06710406
0.06856339 0.081718795 0.020341933 -0.0068563824 0.067148104 0.049600016 0.043145053 -0.025570098
0.006166238 -0.021418268 -0.10266448 0.10141442 0.075984284 0.04274326 0.10774874 -0.014382928
-0.0074011795 0.08149294 0.089341864 -0.006694175 -0.004464082 -0.072216295 0.08331434 0.12664682
-0.07997097 -0.09165177 -0.07098047 -0.040917296 -0.06378709 -0.010812486 0.010250081 -0.1771608
0.053973246 -0.021161979 0.10774671 -0.06575891 0.0144031085 0.026874995 0.09378812 0.035462335
-0.07818083 0.049489003 0.0629187 -0.0034376315 0.024024816 -0.00424951 -0.0071355193 -0.04132428
-0.034235537 0.110979214 -0.009640938 0.017890988 -0.03233895 -0.041847505 0.05676019 0.005206531
-0.086904846 -0.0559933 0.05421769 0.0653357 0.0209079 0.01652198 -0.045368765 -0.081953086
0.050167553 -0.00022060906 -0.0065383604 -0.10635897 0.041049335 -0.07910332 0.01585282 -0.0014297786
-0.11375685 -0.07109694 0.01177177 0.004492559 -0.07017342 0.11707353 -0.034916766 0.21456832
0.0008760122 0.09770417 -0.022376686 -0.15259574 -0.10220716 -0.039405696 -0.047239188 0.004164038
-0.12472607 -0.13519002 0.027974669 0.021259781 -0.007757082 0.067035995 0.012020311 -0.048161913
0.059599604 0.030849988 0.0006409305 -0.14651503 -0.008724905 0.07635815 -0.035930388 -0.06575666
-0.06897733 0.012909715 0.028641684 0.018277256 -0.06304194 0.025605913 0.06943274 0.11431989
0.009332041 -0.09101693 0.004822542 -0.0037019376 -0.042933743 0.029465547 0.021735251 -0.060043428
0.009998256 0.007329693 -0.018702697 0.016807249 -0.07447473 0.01684045 -0.04511385 0.046187516
-0.057512384 -0.021111138 0.01781519 0.063443504 0.04228252 -0.037273392 -0.092025846 0.0741541
-0.083991654 0.105995506 -0.02905549 -0.06594587 0.06060917 0.0129950745 0.010287719 -0.038372595
-0.05320674 -0.02340055 -0.020557156 0.03654052 -0.005152298 -0.070760325 0.067174554 0.0032580346
-0.0294473 0.040251344 0.07151957 -0.011039992 -0.022666754 -0.044608545 0.04699467 -0.08291379
-0.054071575 0.023630012 -0.098612405 0.03472425 -0.05908225 -0.019871028 -0.10927964 -0.044399656
-0.15400441 -0.084477656 0.058066502 0.13646054 -0.03630648 -0.055548538 -0.15889364 -0.103088975
0.005362048 0.03588116 0.015901238 0.18891445 0.0008258703 0.045404308 0.009516315 -0.048090402
-0.047507804 0.053440016 -0.07711823 0.051698808 0.03311618 -0.019442383 0.02256264 0.06841729
-0.06777415 -0.036743265 0.049903788 -0.008560496 0.022119015 -0.030883372 -0.08295183 0.09533022
0.10606723 -0.046435695 -0.12061997 0.010997288 -0.028965233 -0.06948977 -0.08966856 -0.058331512
0.08153543 0.14477117 -0.015734868 0.04594811 -0.1151329 0.0593447 -0.056855094 -0.14274839

network_body._body_endoder.seq_layers.2.bias f4 [256]
00000000: 954b 363c eb39 b13c 1fec 59bb 5735 223c
00000010: d030 a33b 2c9d 613b 6f9c f2bb ddbe 4d3b
00000020: adf2 f73b 03cc 833a 9c98 efbb 16c3 3c3b
00000030: f48c 5c3a 28e1 30bc 526f 503a 6ad7 0ebb
00000040: 7043 c63b 88e3 1abc 7224 7dbc 56cb 453c
00000050: 4c9f b53a 837b 4a3c 52aa 483b 34ae 40bb
00000060: 675a e4bb f5f9 82bb 9450 8ebb 7216 4cbb
00000070: 472b 2c38 d014 90bb ce86 073a b0b4 f039
00000080: 3d3e 16ba 7f1b bfbb 8805 783a 3e8f 8ebb
00000090: a5e1 f4bb 9122 f6bb e328 17bc f052 39bc
000000a0: ca38 523c df2e 62bc e33a 4639 1f7b 253c
000000b0: d335 47ba 0b4d b8bb f430 2f3b 25bd cbbb
000000c0: 3682 c0bb 361d 98bb 32bd f4bb 4882 573b
000000d0: 42c7 f1bb 137a 44bb 903e 1c3b 4a8c d7ba
000000e0: 03b5 503c ee25 48bb 85b2 5aba d501 b1bb
000000f0: a2b8 fc3a de93 0bbc 8d8a 0ebc 20cc 393c
00000100: e300 953b 6e2e 68ba ab8d 82bb 28fa a5bb
00000110: f737 a83b 0bab 01bb 8ab4 123b 954d eb3a
00000120: 63ab acbc dd63 6fba b023 913a efe9 37bc
00000130: 2239 0cbb 6b95 a0b8 4c56 f8bb 5b70 86bb
00000140: 34c0 e0bb e579 53bb ee49 843c 1065 00bc
00000150: 195b a83a 8e18 9a3a c049 333c 6de2 2ebc
00000160: 984e f1ba 290b 1e3c 9dae c6ba bbe7 bebb
00000170: 0b0b 893a 88aa 0b39 c6b5 b73c 993e 27bc
00000180: f463 693c d0ae ecbb 8964 6dbb d12d 3dbb
00000190: b34f 13bc 140f f7bb 1065 ad39 dcfd 8cba
000001a0: 8a80 7b3b bd21 8bba 29e1 eb3b 2b0b 323c
000001b0: ac9a 63bc 9d04 913c 4786 be3c 9d68 05bc
000001c0: f47c dd3b a6f0 fb3b 555e c53b 29f9 6b3c
000001d0: 97b6 06bc 792e cf3b 6921 a7bb a09f 88bb
000001e0: d66d 05bc 5578 58bc bb85 65bb 99db c33b
000001f0: f80f 393a b8db 16bc 3dde 5e3c 1fd8 293b
00000200: 3f72 403c 17ff 843c eeff 59bb 6e36 363c
00000210: 8fda 4abc 5254 3fbb f75b cfbb f215 15bc
00000220: 84da a93c c9c0 2338 e308 373b 32e9 463a
00000230: 1160 363c 77c5 7cbc 36d4 2abc 2510 28bc
00000240: 25e6 2ebc 5223 e73b 51ac 403c a3f2 f9bb
00000250: 6aa7 adbb 8f0f 363c d065 153c 3369 65bb
00000260: da0b 823c 3928 4cb9 8e80 07bc 6889 f0bb
00000270: 0a1b 97bb 53b4 08bc c96d ee39 ef7b 4e3c
00000280: 401e 6dbb 2c15 dbb9 d1b8 f13b fc66 cfba
00000290: f5ef 33bc 0f18 11bc 25a1 adb8 83d8 e3bb
000002a0: 589c 3aba 7d02 433c 3864 893c 2330 5e3c
000002b0: c9f8 a23c ff91 153c 2e56 1abc 0eea e3ba
000002c0: 3689 39bc 63dd 38bc 6daf db3b 96a6 933b
000002d0: 982e 4abc 46e2 e83b a839 963c 2f2f d2ba
000002e0: 2ac9 95b9 4943 163c 95c8 6c3b f31f d038
000002f0: 4358 493c 6116 e43a 5958 963c 9482 4eb9
00000300: 9fdf d2ba 1be0 bc3a 8577 e43b c286 f4bb
00000310: 14b6 db3b a99b 543c 0083 0ebc 54bc 84bb
00000320: 4b25 42bc 2f0e 39bc ac90 483a bdc4 9bbb
00000330: 83ea 10bc e61f 9dbb 50a5 023c 3d59 653b
00000340: 6350 b03c 9eb7 203c e115 183c 413c 7ebb
00000350: 6d8a a03b 1c04 46b8 3beb 28bc 7521 9f3c
00000360: 7a9b 65ba 4bb3 5d3c 03ca f63b 2316 683c
00000370: 1041 1a3c 25c1 023a 9f35 46bc a0f8 a0bb
00000380: ebcd 233c fd4c 05ba 21e7 d2bb 516f cfbb
00000390: fdb9 c23b 8467 16bc 97cd c8bb 3784 2b3b
000003a0: aa96 a4bc 216a 87bb eb3e 0fbb 1f1a 46bb
000003b0: 8b72 833a be56 a539 c750 bf38 9fcb 37bc
000003c0: 350d aa3b 3844 753a 86d5 a4bb cc62 ac3c
000003d0: 06bd 1bbc cdd6 623c 1637 e03b 751b 26bc
000003e0: 467a d0bb 4b47 373c ada8 883b 34a3 92bb
000003f0: ab02 32bc 211f 443c 36f1 29bc 366f 9dbb
0.011126419 0.021634063 -0.0033252311 0.0099004125 0.004980184 0.0034425957 -0.0074039022 0.003139428
0.007566771 0.0010055307 -0.0073118936 0.0028802804 0.00084133376 -0.010795869 0.00079511583 -0.0021795877
0.0060505196 -0.009453662 -0.015450584 0.012072405 0.0013856678 0.012358549 0.0030619097 -0.0029400708
-0.0069687846 -0.0039970824 -0.0043431018 -0.0031141308 4.10483e-05 -0.0043970123 0.0005169929 0.0004591099
-0.000573132 -0.005832135 0.00094612734 -0.004350572 -0.007473188 -0.007511445 -0.009226057 -0.011311278
0.012830922 -0.01380512 0.00018904688 0.010100155 -0.0007599268 -0.0056244186 0.002673206 -0.006217616
-0.0058748974 -0.004642154 -0.007468843 0.003288405 -0.0073784897 -0.0029979988 0.0023841 -0.0016445008
0.012738469 -0.0030540186 -0.00083426415 -0.0054018297 0.0019281099 -0.008519141 -0.008700025 0.011340171
0.004547225 -0.0008857016 -0.0039841733 -0.0050652213 0.0051336247 -0.0019785787 0.0022385442 0.0017952198
-0.021077817 -0.0009132007 0.0011073258 -0.011225208 -0.0021396358 -7.657226e-05 -0.0075786468 -0.0041027493
-0.00685885 -0.00322687 0.016148534 -0.007836595 0.0012844532 0.0011756585 0.010942876 -0.010674101
-0.0018410264 0.0096462155 -0.001515824 -0.0058259643 0.0010455562 0.00013319601 0.022425544 -0.010207796
0.014245022 -0.0072229877 -0.0036223254 -0.002886642 -0.00899117 -0.0075396392 0.0003307243 -0.0010756808
0.0038376176 -0.0010614913 0.007198472 0.01086692 -0.013891857 0.017702395 0.023257388 -0.0081426175
0.0067592803 0.0076885996 0.006023208 0.014402666 -0.008222244 0.0063226786 -0.0051004183 -0.0041694194
-0.008143863 -0.013212283 -0.0035022337 0.005977106 0.00070595695 -0.0092076585 0.01360279 0.0025916172
0.011745988 0.016234918 -0.0033264118 0.0111213755 -0.01238121 -0.0029194546 -0.0063281017 -0.00909947
0.02073408 3.9041774e-05 0.002792888 0.00075878494 0.011131302 -0.015427939 -0.010426572 -0.010257755
-0.010674988 0.007053771 0.011759833 -0.0076278015 -0.0052994983 0.011112108 0.009118512 -0.003500533
0.015874792 -0.0001946994 -0.008270396 -0.007340599 -0.0046113776 -0.008343774 0.00045476694 0.01260279
-0.003618136 -0.0004178671 0.007376768 -0.0015823538 -0.010982503 -0.008855834 -8.279298e-05 -0.0069533004
-0.0007118634 0.011902449 0.01677142 0.013561281 0.01989402 0.009129046 -0.009419961 -0.0017388479
-0.011324218 -0.011283251 0.006704262 0.0045059426 -0.01234021 0.007107052 0.01833804 -0.001603579
-0.00028569374 0.0091713155 0.0036130298 9.924164e-05 0.01228911 0.0017401689 0.018352674 -0.00019694335
-0.0016088373 0.001441005 0.0069722557 -0.0074623534 0.006705055 0.012976565 -0.008698225 -0.004050771
-0.011849712 -0.011294886 0.00076509523 -0.0047536776 -0.008844974 -0.0047950624 0.007973984 0.0034995817
0.021522706 0.009809403 0.00928256 -0.0038793238 0.004899314 -4.7210706e-05 -0.01030999 0.019425133
-0.00087588246 0.013531516 0.007531406 0.014165434 0.009414926 0.0004987887 -0.012097745 -0.004912451
0.009997825 -0.00050850195 -0.006436244 -0.0063304086 0.0059425817 -0.0091799535 -0.006128024 0.0026171335
-0.020091373 -0.0041325246 -0.002185757 -0.0030227972 0.0010028643 0.0003153588 9.122636e-05 -0.011217981
0.0051895627 0.00093561737 -0.005030337 0.021043204 -0.009505516 0.013845158 0.0068425043 -0.010138382
-0.0063622324 0.011186431 0.0041704983 -0.0044750217 -0.010864894 0.011970312 -0.010372451 -0.004804517

action_model._continuous_distribution.log_sigma f4 [1, 2]
00000000: d652 22bd 8690 a93c
-0.03962978 0.020698797

action_model._continuous_distribution.mu.weight f4 [2, 64]
00000000: dc3e 6dbc ce1e 543c 2b67 7a3d 0c9b 2bbb
00000010: c0c1 c33c b897 20bd 1fc7 b63d f89d a53d
00000020: 824f 97bd ab64 403d d218 8dbc 07bc 5dbd
00000030: 5ce5 54bc 3f7a cdbc f427 d53c f703 34bd
00000040: 9019 c93c ee4d 8cbc ac21 623d 1a5c 153d
00000050: b084 563d f87f fa3c dd81 ce3d 8c7a 603c
00000060: e3c2 45bb b288 50bd 1d8f ac3d 7a43 3e3d
00000070: d2ec 353d 21f1 8ebd ff75 123d fb08 613c
00000080: b4c9 123d bbc4 d93c 3600 273d a78b 9c3d
00000090: 6935 8ebd 7421 a43d 0337 53bd 3dcb 4a3d
000000a0: ddd5 493d bdee 683d 54c8 963d 7efb e03a
000000b0: 7aac b13d e53b 7ebc b1c8 a3bc 91b4 bbbb
000000c0: f1db 343d 9166 c5bd 41bf f4bd ba21 8bbd
000000d0: a0af 19bd cd7f 003d e04e e23d c95c a73d
000000e0: 1586 b6bc 067e a93d ed76 4abc d8cc 993c
000000f0: 43c7 9b3d 578d 0e3d 9f7e 333c 4091 7a3d
00000100: ef16 edbd 8d14 383d b19d 80bc c010 b03d
00000110: 83b7 8abd ce80 f23c 4858 4abd f593 cb3c
00000120: a03c 92bc 8f9b 1cbd 963b 3d3a 4d73 8bbc
00000130: fac9 723d 9acb d3ba 4570 09bc b459 c2bc
00000140: 5934 84bd fa3e 58bc 96bd 34bc 9183 0f3d
00000150: 8fff a1bd cc6b f73d 77db 1c3d 5515 e73c
00000160: 64b5 08bc a9b3 e73c e69e d7bc 4687 87bd
00000170: fdd1 6a3d 6a12 263d 57f6 993b 960e 92bd
00000180: ffb1 2ebc 734f 7d3d 896e 19bd 299d a1bb
00000190: c766 cc3c 2d84 9a3c 0872 0ebd ec23 11bd
000001a0: d200 76bd 1f07 84bd 9114 54bd 5911 a3bd
000001b0: 85be 5f3d 7675 64bd 0a39 4dbc e63d 603b
000001c0: eb32 963c b25e 3e3d ec00 853c ece8 113c
000001d0: 1653 123c f922 0cbd f534 183d c09d 853d
000001e0: a37a ecbc ad0f 033d dd50 54bd 717e 74bc
000001f0: bdc4 99bd 9625 8abc 1ca6 48bc 0d0a 8ebc
-0.014480319 0.012946798 0.061133545 -0.0026184944 0.023896098 -0.03920719 0.08924698 0.08086771
-0.07388212 0.046971004 -0.01722375 -0.054134395 -0.012994137 -0.025082706 0.026020028 -0.043949094
0.024548322 -0.017127004 0.055207893 0.036464788 0.052372634 0.030578598 0.10083363 0.013701092
-0.0030175976 -0.050911613 0.08425734 0.04645107 0.044415303 -0.069795854 0.03575706 0.013735051
0.03583689 0.026583066 0.040771686 0.07643824 -0.06943781 0.08014193 -0.051566135 0.04951023
0.04927622 0.056868304 0.07362428 0.0017164794 0.086754754 -0.01551721 -0.019993158 -0.0057283123
0.044155065 -0.096387036 -0.11950541 -0.06793542 -0.037521005 0.03137188 0.110502005 0.08171994
-0.022280732 0.0827599 -0.012357456 0.018774435 0.076063655 0.03480276 0.010955482 0.061173677
-0.1157664 0.044941474 -0.015700193 0.08596945 -0.06773283 0.029602434 -0.049400598 0.024850825
-0.017851174 -0.03823429 0.0007218657 -0.017022753 0.05927465 -0.00161587 -0.008388584 -0.023724414
-0.06455297 -0.0131986085 -0.011031529 0.03503758 -0.07910072 0.120811075 0.038295235 0.028208414
-0.008344028 0.02828391 -0.026320886 -0.06617598 0.057329167 0.040544905 0.0046985555 -0.07131688
-0.010662555 0.061843347 -0.03745893 -0.004932065 0.024951352 0.018861854 -0.034776717 -0.03543465
-0.060059376 -0.06446671 -0.051777426 -0.07962293 0.054625053 -0.055776082 -0.012525806 0.0034216582
0.018334826 0.046477027 0.016235791 0.008905631 0.008930942 -0.03421304 0.03715988 0.06524229
-0.028867071 0.03199737 -0.05183493 -0.014922724 -0.07508228 -0.016863625 -0.012246635 -0.017338777

action_model._continuous_distribution.mu.bias f4 [2]
00000000: 2c8a 61bb 32f7 a0bc
-0.0034414632 -0.019649122

onnx::LSTM_101 f4 [1, 256, 256]
00000000: 4731 dc3d ef23 e53d 84d8 18bb fd83 c9bd
00000010: 7c2e cd3d 3571 b8bc 6c19 c9bd 1d60 7b3d
00000020: d7dd 683d 0fa6 8ebd 12a3 3a3d cd54 063e
00000030: c520 11bd 7fe3 fb3d 4bec 243d 3cfc 863c
00000040: e769 81bd 8cc7 b53d 42f1 ffbd 7933 9f3d
00000050: fc50 4d3d c306 c2bc afd4 83bc 0529 463d
00000060: 2996 02be 2e72 d43c 19d7 93bd ef8f 883d
00000070: 11bd ef3d e95a 123d 5b82 5b3d 931d 053d
00000080: 95cf c8bd e161 3f3d 17eb 8dbb c4c0 ac3d
00000090: 06fa 023e 343e 8f3d 91fb 9b3d 3dee 27bd
000000a0: 439a 21bd 2d5a 09be 66b8 23bd 5acc 3d3d
000000b0: f675 183e 2bcb 9c3c cdca 5b3d d2f0 60bd
000000c0: f068 4a3d 2838 97bd 734b 05bd 2a4c ecbb
000000d0: be23 8fbc 4725 a53d eb14 e23b af34 dd3d
000000e0: 1279 59bc 3788 cabd 25a3 d6bb d1ad 083e
000000f0: 34c5 e8bc 149e d7bd 431e 59bd a4a4 4bbc
00000100: 9a59 a53d 570b 2d3c 82e6 06be 2afc d63c
00000110: 9101 373d e21a 0dbc ab42 9cbd 8e3f f43b
00000120: fed6 fb3d 96f1 89bd 5916 e53c fd58 b83d
00000130: 9650 1cbe 8592 ecbc 1d45 833c cd4c 07be
00000140: 7395 6abc 1f34 f7bd 5767 01be 5d2a 85bd
00000150: 5656 5bbd 374d 0f3c a607 50bd 26c5 8dbd
00000160: abb1 c43d 2c9f de3d eccc 47bd 63a2 04be
00000170: a08a a2bc 6366 633d abf0 853d 3fca b63d
00000180: f25b f23d 5ef0 d9bd e183 13bd 5878 04bd
00000190: 8497 e43d 4a46 0abe 7b9d 88bd 7dc6 cfbd
000001a0: cc7e a6bd 85a0 313d 5725 353c 93c2 f4bd
000001b0: adbf ec3b 7a55 d3bd 9a72 4e3d cf0e dcbd
000001c0: 09ed 7abd a1d4 28bd c828 113d 76b4 dabd
000001d0: 9a07 6e3d 660b 4b3d 389b 933d f940 c7bd
000001e0: df2f ab3d 5f10 9dbc 6378 b0bc 0379 633d
000001f0: e5be fa3c f31c 9f3d 77e8 4e3d 5839 26bd
00000200: daff 393d 11ea 543b d45b 923c dc44 0b3e
00000210: 45d6 91bd 9e64 f73d 291c 15bd 3c53 46bd
00000220: 353b 0f3e bd97 5a3d 9948 49bd 9967 44bd
00000230: 2ef0 12bc ffd3 883c e703 1fbe 3d05 95bd
00000240: a796 86bd 312b 07be fc68 073d 3ca1 0abe
00000250: 6b77 893d 7a2a dc3d 6a4a 353d 3700 68bd
00000260: 87f3 fe3d b5f2 163d 3db0 ccbc 9267 8b3d
00000270: 75d2 40bd bc37 35bb c212 04be 8c79 363d
00000280: 341e 9a3d 85f3 613d 7126 90bd ede0 c9bd
00000290: 4125 82bd 313d 993d a031 d6bd 33ef 8dbd
000002a0: aea4 823d 5124 85bd a56f 223d a669 90bd
000002b0: 28ae 143e 2de2 a1bd 1fc2 0dbd 987e fa3c
000002c0: 2b4a 01bd 11ec 8abd 6446 28bd 7f91 c43d
000002d0: b8c1 0e3e 13d2 5e39 3217 dcbb e561 91bd
000002e0: 5f9c 8ebd d70d 68bd 0dfe f43d 3273 8d3d
000002f0: 9e95 1a3d 4f09 093e 6d33 b83d be47 a63b
00000300: 795b 77bd 7ef8 4cbd dfe2 8abc 5841 83bd
00000310: fefa 5c3d dced 893d 3103 cabd 11cb c0bd
00000320: 6cd3 01bd 3dc6 27bd e599 cd3d acd4 65bc
00000330: 919d ac3d f010 f9bd bb02 303c 819f 893d
00000340: 26c2 fe3c de78 a53b 8dfd 22bc 6bca 7fbd
00000350: 07a5 6e3c fe1a 9d3d d4f9 ac3c 7799 6d3d
00000360: a9e9 acbd cb5f f6bc 18cc 83bb 2f7c ecbd
00000370: 4cec 893d 389a 9c3d 6424 6bbd 552b 083e
00000380: 0bcd 103e f624 c4bd b9b7 ebbd c91b adbd
00000390: 768b ad3d 22c4 edbd 816a 463c 2171 c1bc
000003a0: f0fe c2bc 9641 063d acce 47bd b615 3abc
000003b0: 229b 01be f56d 13be f9b7 c73d 40aa 1fbd
000003c0: affd d53d e2cd b33d b4e0 a33d b64c 973d
000003d0: 859a aa3c 9ccc 58bd d46c a0ba fd25 f13d
000003e0: 715e 7cbc 2c96 a2bd fe36 e8bd a2bf 973d
000003f0: 808f 0fbe ec8d 123e f61f 9e3d 9f0d 50bd
0.107515864 0.111884944 -0.0023322413 -0.09839628 0.10018632 -0.022514919 -0.09819302 0.061370958
0.056852188 -0.06965267 0.045565672 0.13118286 -0.035431642 0.12299251 0.04026441 0.016477697
-0.063190274 0.08875951 -0.12497188 0.077734895 0.05012606 -0.023684865 -0.016092626 0.048378963
-0.12752594 0.025933351 -0.07218761 0.06668078 0.117059834 0.03573123 0.053591114 0.032498907
-0.09805218 0.046724204 -0.0043310034 0.084352046 0.12790689 0.06994286 0.07616342 -0.040998686
-0.039453756 -0.13413306 -0.039970778 0.046337463 0.14888749 0.019139847 0.053660203 -0.054917164
0.049416482 -0.07383758 -0.032542657 -0.007211228 -0.017473098 0.08063751 0.0068994663 0.10801064
-0.013273494 -0.09889262 -0.00655021 0.13347556 -0.028414346 -0.10528198 -0.053007375 -0.01242939
0.08073731 0.010561786 -0.13173869 0.026243288 0.04467923 -0.008612366 -0.076299034 0.0074538654
0.12296866 -0.06735532 0.027964758 0.09001348 -0.15265116 -0.02887846 0.016024167 -0.13212891
-0.014317858 -0.12070488 -0.12637077 -0.06502221 -0.053549133 0.008746437 -0.050788544 -0.06922369
0.096042 0.108702034 -0.048779413 -0.1295257 -0.019841492 0.055517565 0.065400444 0.08925294
0.118339434 -0.106415495 -0.03601444 -0.03234133 0.11161712 -0.13503376 -0.06670662 -0.101452805
-0.08129653 0.043365974 0.011056266 -0.119511746 0.007224998 -0.10319038 0.05040226 -0.10745012
-0.06126121 -0.041218404 0.035439283 -0.106789514 0.05811272 0.049571417 0.0720734 -0.097291894
0.0835874 -0.019172845 -0.02154178 0.055535328 0.030608604 0.077691935 0.050514665 -0.04058203
0.045410015 0.0032488147 0.017866053 0.13600487 -0.07120947 0.12079738 -0.03640381 -0.048419222
0.1398743 0.053367365 -0.0491415 -0.04795036 -0.008968396 0.01670265 -0.15528832 -0.0727639
-0.065717034 -0.1320007 0.033059105 -0.13538069 0.0671223 0.10750289 0.04426042 -0.05664083
0.12448793 0.036852557 -0.02498638 0.06806864 -0.047075707 -0.0027651628 -0.1289778 0.04454951
0.07525292 0.05516388 -0.07038582 -0.09857354 -0.06354762 0.074823745 -0.10458684 -0.06930389
0.063790664 -0.065010674 0.039657254 -0.07051401 0.1451956 -0.07904468 -0.034608956 0.030577943
-0.031564873 -0.06783307 -0.041082755 0.09598064 0.13941085 0.00021249829 -0.0067166323 -0.0709875
-0.06963419 -0.056653824 0.11962519 0.069067374 0.037740342 0.13382457 0.08994184 0.0050744703
-0.06038997 -0.050041668 -0.016953884 -0.06408948 0.053950302 0.06734821 -0.0986389 -0.09413732
-0.03169577 -0.04096054 0.10039119 -0.014027756 0.08428491 -0.12161434 0.0107428385 0.06719876
0.031098437 0.005049809 -0.0099481465 -0.0624489 0.014565713 0.07671164 0.021115221 0.058007684
-0.08443005 -0.030074975 -0.0040221326 -0.11547124 0.06734523 0.076466024 -0.05740775 0.1329778
0.14140718 -0.09577362 -0.11509652 -0.08452565 0.08473866 -0.11609675 0.012110353 -0.023613514
-0.023803204 0.03277739 -0.048781082 -0.011357715 -0.12656835 -0.14397414 0.09751887 -0.038980722
0.10448777 0.087795034 0.08001843 0.07387678 0.020825634 -0.052929506 -0.0012239465 0.11774824
-0.015403376 -0.07938799 -0.11338614 0.07409598 -0.14019585 0.14311951 0.0772094 -0.05079424

onnx::LSTM_102 f4 [1, 256, 64]
00000000: 1049 06be 2d86 943c 496c c93d d67a 22be
00000010: 4472 1dbe 49ea 7a3c 7056 32be fc1d b13b
00000020: 3f87 b33c 698c 133e 260f d0bd d298 a43c
00000030: f6f9 3fbe d982 79bd 3ec0 d1bd 238c 0e3e
00000040: 0ad5 48be 1956 66be a32e 263e be3f b93d
00000050: 881d 52bc 1b23 6bbd 769c 84bd f1ed 37be
00000060: b1ad 763d 287c d8bd 88d4 2ebe f3c1 bb3d
00000070: b161 1ebe 5dcb d9bc 434a 01be 6e26 68bd
00000080: 4cb7 d23d ba05 ccba f716 d13d 35d8 f9bc
00000090: b323 4e3e 5d85 bbbd 1145 693d 1052 9fbd
000000a0: b0cc 58be 4c81 203e aa78 8d3c f9f2 51be
000000b0: 4f7b 9e3d 1db6 043e 2c44 63bd 5e01 03be
000000c0: 4638 39be 1c10 6b3c 4a31 f5bd 8f2f 533d
000000d0: c331 c13d c28d 54bd bc92 6cbc e585 ec3d
000000e0: 083d 55be 0504 583d ae85 2d3e bfcb 38be
000000f0: efdb 3d3d f92b c7bd 3af1 febc b2d6 e8bd
00000100: 30b6 a0bd 904a c53d 43b9 e43d f4d6 08be
00000110: 0728 943d 4278 4c3d 6cb9 db3d 7f1a f63d
00000120: d157 403e 5275 25be 0af7 d63d e35f 36be
00000130: d207 1f3e df5c f9bd 8eb5 95bd 1601 f33d
00000140: 9b82 0bbe f4cf 48bd b3a3 b3bd da29 c63d
00000150: 1d8b 2e3e 5fcc 343e c4f7 7d3d bbb9 17bd
00000160: 9bff 01be 5d3b dd3d 6983 223e 64d3 29be
00000170: 92c1 fa3d be9c 5abd fe05 603d 7e12 3cbe
00000180: f04c e0bd f10f 25bd ec0c 873d cae4 26be
00000190: fab2 1cbd 24aa da3d 2425 433d 4db4 abbc
000001a0: 3711 293d 9ed0 3bbe 1e03 1ebd 7796 e23d
000001b0: 0219 0fbe d0a2 0b3e 5094 a5bd ec78 b73d
000001c0: 7318 9d3c 9368 363e 2931 eb3d eda3 12be
000001d0: 14b9 3dbe 2978 73bb 4489 423e 847a 0b3d
000001e0: cabc 3e3e 2183 1a3d ad8e 083d b4fc 46be
000001f0: f497 34be 745c 6f3e 2132 733e d0db 97bd
00000200: d10f c0bd 0c50 56bd 81ab ecbd e0b2 ebbd
00000210: 3f03 ea3d 1563 02be a9eb dcbd efc8 2ebe
00000220: 045f 73be 5918 15be 8218 2fbe 4fa0 2c3e
00000230: 58b4 06be 2bda 34be 8d82 ccbd 1acd 16bc
00000240: b9fa 823d 28c9 1abe ed1e b2bc a04a 36bd
00000250: 42cb 1f3e 1992 eebd 4f29 873d a2c1 52be
00000260: bf72 5a3d 490c 853d 2c46 76bd 9530 d93d
00000270: 6047 07be 5169 15be 811b 29be 5d62 323e
00000280: dc5d 03be 2b4f 9dbd cf3c b6bc c00b 0abe
00000290: 12eb 123e 8c5e 673e ce05 ca3d 3005 a9bd
000002a0: 0b32 94bc 6a9e 16be 5e78 dfbc 8260 313e
000002b0: 8035 14be bc56 fcbd 38fc fb3b 3ef6 24bd
000002c0: 2edb b43d 3e8b 303d 7006 d7bd ff72 56be
000002d0: 96c1 3abd 3029 03be e484 7a3e 4c3a 433e
000002e0: cd48 51be 9801 d0bd c350 b93d 63f5 f7bd
000002f0: 327f acbd 5d17 2fbd 4213 383e 4c2c 833d
00000300: 7411 6cbd 5f15 263e 2f79 ab3d 7ac5 10be
00000310: cd4e 15be 7977 74bd decd 83bd 09e4 593d
00000320: bb61 0bbe 4065 98b9 689f 3c3e 275f 203e
00000330: 9c77 313e 1beb 26be ac7b 32be 1f25 263d
00000340: 7246 4f3e 3f34 4dbe 4692 303c 15ad 073e
00000350: 7356 b0bd 91ef 17be 3f39 3fbe c2c7 a23d
00000360: 6253 4e3c 6b6c bfbb 2acb 5d3b 8c3e ee3d
00000370: 3cd8 b0bd fb71 c13d 4dfc f83c a094 48be
00000380: 2a41 6a3d 5f61 74be e885 bf3c 0fe9 6bbe
00000390: df8a 1abe 73c6 af3c e248 0cbe 2863 ec3d
000003a0: e716 63be 2e7f 0c3e b14b e33d 6e9a 0d3e
000003b0: 6477 07be 4dc5 bbbc f684 26be 414f 853d
000003c0: ce33 49be 0744 42bd a710 0dbe 11db fa3d
000003d0: 58f6 41bd b04e d43c 6693 e33c 05fe 30be
000003e0: 77c1 1f3e bcfb 11be 10bb 14be 33e0 213d
000003f0: 18ee 51be ee34 14be 670e 61bc 27d2 683b
-0.13113809 0.018130386 0.09835107 -0.1586717 -0.1537562 0.015314647 -0.17415786 0.0054051857
0.021915076 0.14409031 -0.10159139 0.020092402 -0.18747696 -0.0609158 -0.102417454 0.13920645
-0.19612518 -0.22493781 0.16228728 0.09045361 -0.012824424 -0.057406526 -0.06475155 -0.17961861
0.06022424 -0.10570556 -0.17073262 0.09167852 -0.15466954 -0.026586229 -0.12625985 -0.056677274
0.10288867 -0.0015565671 0.10209458 -0.030498603 0.20130806 -0.091562964 0.056950632 -0.07779324
-0.21171832 0.15674323 0.017269451 -0.20502843 0.07738363 0.12960096 -0.055484936 -0.1279349
-0.18087873 0.0143471025 -0.11972292 0.051559027 0.094333194 -0.051893003 -0.014439281 0.11548976
-0.20824063 0.05273821 0.16945526 -0.18046473 0.046352323 -0.09725184 -0.031120885 -0.11369075
-0.078472495 0.09633362 0.11168148 -0.13363248 0.07234197 0.049919374 0.10728726 0.120167725
0.187835 -0.16158035 0.10496338 -0.17810015 0.15530327 -0.12175917 -0.073100194 0.118654415
-0.13624041 -0.049026445 -0.087714575 0.09675951 0.17045255 0.17656086 0.062003866 -0.03704236
-0.12695162 0.10802338 0.15870441 -0.16584545 0.12243952 -0.053372137 0.054693215 -0.18366429
-0.10952175 -0.040298406 0.065942615 -0.16298214 -0.038256623 0.10676983 0.047642842 -0.020959998
0.041276183 -0.183413 -0.03857719 0.11063855 -0.13974383 0.13636327 -0.08084929 0.08958611
0.019176697 0.1781333 0.11483986 -0.14320345 -0.18527633 -0.0037150478 0.18997675 0.034052387
0.18626705 0.03772271 0.03333919 -0.19432336 -0.1763609 0.23375112 0.23749591 -0.07414973
-0.09378017 -0.052322432 -0.11556149 -0.11508727 0.114264004 -0.1273311 -0.10787136 -0.17068838
-0.23766714 -0.14560069 -0.17099193 0.16858028 -0.13154733 -0.1766135 -0.09985838 -0.009204173
0.06395478 -0.15115798 -0.021743262 -0.04450476 0.1560488 -0.1164896 0.06599676 -0.20581678
0.053332087 0.06496484 -0.060125515 0.106049694 -0.13210821 -0.14590956 -0.16514398 0.17420335
-0.12828773 -0.07681116 -0.022245793 -0.13481045 0.14347485 0.2259466 0.098643884 -0.082529426
-0.018090269 -0.14708868 -0.027279075 0.17321971 -0.14473534 -0.12321231 0.007689979 -0.040273897
0.08830868 0.04310154 -0.10499275 -0.20942305 -0.045594774 -0.1280868 0.24464756 0.19065207
-0.20437928 -0.10156554 0.09048607 -0.12107351 -0.08422698 -0.04274689 0.17976096 0.06404933
-0.057633832 0.1621909 0.08372723 -0.14137831 -0.14580841 -0.05968425 -0.064357504 0.053195987
-0.136115 -0.00029067136 0.18420184 0.15661298 0.17330784 -0.16300623 -0.1742999 0.040562745
0.20241717 -0.20039462 0.010777062 0.1324962 -0.08610239 -0.14837481 -0.18674181 0.07948257
0.012593122 -0.005841782 0.003384302 0.116330236 -0.086349934 0.09445568 0.030393744 -0.19587946
0.05719105 -0.23865269 0.023379281 -0.23038124 -0.15092038 0.021456933 -0.13699678 0.1154235
-0.22176705 0.1372039 0.11098421 0.13828442 -0.13229138 -0.022921229 -0.16261658 0.06509257
-0.19648668 -0.047428157 -0.13775884 0.12248815 -0.047354072 0.025916427 0.027780246 -0.17284401
0.15601145 -0.14256185 -0.14524484 0.039520454 -0.20500982 -0.14473316 -0.013736344 0.0035525651

onnx::LSTM_103 f4 [1, 512]
00000000: 1742 2c3c bbf6 ba3c f605 173c e6cf 883c
00000010: d495 463c 7cf1 093c 8b89 b43c b37d 963c
00000020: d2b1 09bc 5bb3 923c 0064 1abb 6141 4d3c
00000030: 3baf 2b3c 2ada a13b c297 583c a2c4 0e3c
00000040: 2e11 2dbc 0660 093c 4f1f d5ba 3fdc c93b
00000050: 3bdf 6f3c c3ef 083d bcb4 963c 2860 183c
00000060: 424c 993c 708e 02ba d990 c23c 2bdb df3b
00000070: 5948 073d 704d aa3b bdf9 013c d16b 8b3c
00000080: 9160 d73c c311 103d 4b6a 72bb ff28 613c
00000090: 79c7 b63c 696f c33c c913 4a3c f3f3 4c3b
000000a0: 6154 2a3c 459c 2ebc 96d9 313c f98d 823b
000000b0: 71dc 073d f456 18bb 55bf aabb b63c 81bb
000000c0: 2694 6c3c 600f 7cbb e59d 893c 6380 6b3a
000000d0: 401d a8b9 edf0 913c 0d3d ca3c 0275 033d
000000e0: 1566 863c 5529 143d 0cb0 2a3c ff99 0b3c
000000f0: 9145 363b 708d 943b ca41 e8bb 6d6d b83c
00000100: fa9e 923c 1ab2 493c 1b1d 9a3c 1901 873b
00000110: 2232 c03c 7c6d ec3b d28a 0c3d cd1d f53c
00000120: 74fd 7a3b 2e9f 313d a587 b13a 663f f83b
00000130: 5000 873c d444 833b fb06 223c df8d 2ebc
00000140: a29d ac3c b961 29bc ad54 6d3b b5ea 0eba
00000150: 678d c53c d4bd dd3c e58b 3cbb d862 0d3c
00000160: e2e1 4fbb 520a d438 19eb cb3c c3c7 d73c
00000170: 7da2 ff3c 3c88 f13c be15 ba3c 0a49 1f3c
00000180: 584e bf3c f427 d43c 0fdb 533c 9d02 3a3c
00000190: 4106 013d 912e 273d 86bc 5e3b f004 cf3b
000001a0: ca91 0b3d d4df 8e3c 7051 093d 429e b63c
000001b0: 506e a53c a670 8d3c 1738 ab39 da3f adbb
000001c0: a0b5 843a 2bba 833c d590 1c3d 3f6a a53c
000001d0: 6081 b5b9 5555 7b3c a079 1c3d b158 323d
000001e0: a3d3 f53b 586d e83c ce13 9d3c d181 253c
000001f0: 0bc5 003c 171e 1f3c 58a1 efbb 7ecc d23a
00000200: 4e20 833f 7b67 813f 39e8 803f f767 823f
00000210: 9672 803f e1e5 7f3f 9252 833f b535 7c3f
00000220: 2728 7c3f ea89 813f bdde 7c3f d8d9 7a3f
00000230: 30a3 803f 05e3 7e3f c2f1 813f 6f87 803f
00000240: 91c2 803f d71e 7c3f ed85 7d3f 47db 803f
00000250: de7d 823f 8246 7b3f 7d3a 7e3f bc40 813f
00000260: 802b 803f b5e1 7e3f 855c 803f 0240 813f
00000270: 4f19 7f3f 5940 803f 78ed 803f 2b65 803f
00000280: def7 813f e67d 833f 244d 803f cfcd 813f
00000290: 9234 823f b995 7f3f c00c 7f3f 4bdd 803f
000002a0: 232d 803f fd3f 813f 1a93 833f 41f2 803f
000002b0: be64 803f e345 813f 4324 803f 03f7 7e3f
000002c0: 0583 803f 6312 7f3f 01d1 803f 12b4 7c3f
000002d0: 105e 803f 96a6 803f 5841 803f 34b8 7e3f
000002e0: dfb7 813f 02cf 7d3f d1cd 7f3f e270 7c3f
000002f0: c125 7e3f c1dd 7c3f f80f 813f 4e8b 813f
00000300: 8708 213a b618 4bbb a8a5 c63a 752d 173c
00000310: 87cb 043c 58b3 8abb c5b3 883b 97db 8dbb
00000320: 72fc d73b 8a7d 6fbb 5994 b0b9 9909 28bb
00000330: 92a9 82bb 3d5f bebb 5d21 c5bb 7053 e7bb
00000340: 3b5f d63b 6163 a338 2ab3 973b d9f9 263b
00000350: a96c e13b 23c7 a23a 81a2 49bc cec9 33bc
00000360: 4605 80ba 9c9b 423b 5128 2f3b c22c a83a
00000370: 8610 82bb 5d86 933b 50f5 a13a 3676 94ba
00000380: 9bc1 1b3c 8101 bfbb c13d 073b f4f6 b7ba
00000390: cef4 babb 9406 283b 597f 08ba 5f9c eb3b
000003a0: 67b5 39bb 682a b93b e32f 52bb 5e52 c5ba
000003b0: 22aa 113b 5b3b 0a3c 6953 07bc f513 1f39
000003c0: 15a1 1d3b 3006 a1ba 7ec1 b4bb 60e8 0a3b
000003d0: 7814 e83a f753 e53b 1e05 a8bb 012a bb3b
000003e0: ddf6 993b bfc0 71bc ce53 a43b ca7e cf3b
000003f0: bd2d a2ba 338d f53a 3bfc e93b 586a 123c
0.010513804 0.022822728 0.00921773 0.016700696 0.012120683 0.008419391 0.022038242 0.018370485
-0.008404212 0.017907789 -0.002355814 0.012527795 0.01047879 0.0049393373 0.013219776 0.008713873
-0.010563178 0.00838471 -0.0016259941 0.0061602886 0.014640625 0.03343178 0.018396728 0.009300269
0.01871312 -0.0004980331 0.02375071 0.006831547 0.03302798 0.0051972196 0.007933077 0.017019184
0.026291164 0.03517319 -0.0036989625 0.013742684 0.022311913 0.023856835 0.012333819 0.0031273335
0.010396094 -0.010657375 0.010855099 0.0039842096 0.033169214 -0.0023245187 -0.005210797 -0.003944005
0.014439618 -0.0038461313 0.016798923 0.00089836697 -0.0003206525 0.017815078 0.024687314 0.03209401
0.016406098 0.03617223 0.010417949 0.008520602 0.002781246 0.004533462 -0.007087921 0.022513116
0.017898072 0.012310529 0.018812707 0.004120004 0.023461405 0.0072152 0.034312077 0.029921437
0.0038298042 0.043364696 0.0013544454 0.007575917 0.016479641 0.0040060077 0.00988936 -0.010653942
0.021071259 -0.01033824 0.00362138 -0.0005451844 0.024115277 0.027068056 -0.0028769907 0.008629523
-0.003172033 0.0001011087 0.024892377 0.026340371 0.03120541 0.029483907 0.022715446 0.009722004
0.023352787 0.025897957 0.012930646 0.011353162 0.031500105 0.040815894 0.003398688 0.0063177273
0.034074582 0.017440714 0.03352493 0.02229226 0.020194203 0.017265629 0.00032657452 -0.0052871527
0.0010124929 0.016079983 0.03822406 0.020192264 -0.00034619402 0.015340169 0.03820193 0.043541614
0.0075020357 0.028372452 0.019174483 0.010101751 0.007859479 0.009711764 -0.007312935 0.0016082672
1.0244234 1.0109705 1.0070869 1.0187978 1.0034969 0.9996014 1.0259573 0.9851945
0.9849877 1.0120213 0.9877737 0.97988653 1.0049801 0.99565154 1.0151904 1.0041331
1.0059377 0.9848456 0.9903248 1.0066918 1.0194662 0.9815446 0.99307996 1.009788
1.0013275 0.9956315 1.0028235 1.0097659 0.9964799 1.0019637 1.007247 1.0030874
1.0153768 1.0272796 1.0023541 1.0140933 1.0172293 0.99837834 0.9962883 1.0067533
1.0013775 1.0097653 1.0279267 1.007393 1.0030744 1.0099453 1.0011066 0.9959566
1.0039984 0.9963743 1.0063783 0.98712265 1.0028706 1.0050838 1.0019941 0.9949982
1.0134238 0.99143994 0.99923426 0.98609746 0.9927636 0.9877587 1.0082998 1.0120637
0.0006142933 -0.003099007 0.001515557 0.009227146 0.008105165 -0.004232805 0.004171821 -0.0043291557
0.006591373 -0.0036543333 -0.00033679864 -0.0025640486 -0.0039874995 -0.005809693 -0.00601594 -0.007059507
0.006542114 7.7909564e-05 0.0046295123 0.002547851 0.0068794084 0.0012418967 -0.01230681 -0.010973407
-0.0009767197 0.0029694801 0.0026726911 0.0012830722 -0.003969255 0.0045021013 0.0012356434 -0.0011326734
0.009506608 -0.0058290367 0.0020636173 -0.001403539 -0.0057054525 0.0025638686 -0.00052069646 0.0071902717
-0.0028336884 0.005650807 -0.0032072 -0.0015054455 0.0022226651 0.008437003 -0.008259633 0.00015170856
0.0024052311 -0.0012285169 -0.00551623 0.0021195635 0.0017706295 0.006998535 -0.005127563 0.0057117944
0.004698618 -0.014755427 0.005014873 0.006332253 -0.001237325 0.0018734097 0.007140664 0.008936487
