code/selfparking/mla/results/run_02/Car/Car-3499917.onnx (onnx, 710320 bytes, 10 tensors)

network_body._body_endoder.seq_layers.0.weight f4 [256, 109]
000000 97 e7 c1 bd 40 ad d0 3d ec 28 95 3c b8 11 4c bd
       -0.094680004 0.10189295 0.01820799 -0.049821585
000010 75 74 6a bc d0 e3 15 be 82 a9 bc bd 84 1b 8b bd
       -0.014309992 -0.14637685 -0.092120185 -0.067923576
000020 32 8a a7 3c d3 3f 4f 3e e1 d9 1f be d4 6a ff bd
       0.020451639 0.20239191 -0.15610458 -0.12471548
000030 29 3b 67 3e 37 83 8e 3e 57 18 26 3c d9 9a d1 3d
       0.22581162 0.27834484 0.010137639 0.10234613
000040 88 2a cc 3c 02 f7 70 bb 8c 2f 40 bc 69 6e 05 3e
       0.024922624 -0.0036768322 -0.011730086 0.130304
000050 9f 74 c3 bd c4 2c de 3d c4 cb f1 3c 09 26 32 bd
       -0.09543728 0.10848382 0.029516108 -0.043493304
000060 ee fc 06 be e9 ee a2 3a 46 63 a3 3c 23 1a d6 3c
       -0.13182423 0.001243082 0.019944798 0.02613551
000070 e3 43 01 3e 70 ee 86 bd 17 1c 6f 3c f9 9e eb bd
       0.12623553 -0.06588447 0.0145940995 -0.11504931
000080 99 50 35 3d a4 2d 9c bd be c8 33 3d f7 bd f7 3b
       0.044266317 -0.07625893 0.043892615 0.0075604874
000090 52 ee c6 bc ee b7 01 3e b1 49 43 3d f5 87 3b bd
       -0.024283562 0.1266782 0.0476777 -0.045783956
0000a0 71 e7 a0 ba aa 3a 1c 3e ec 65 1d 3d 5a 1b 12 3d
       -0.0012276006 0.15256754 0.03842728 0.035670616
0000b0 b4 ac 62 3b 3e 44 13 3e 5e d8 69 bc c5 05 c0 bd
       0.0034587802 0.14381501 -0.014272777 -0.093761005
0000c0 4c 55 19 bd 0e 68 5e 3d 4a b8 b2 bd 30 ba f3 bd
       -0.03743486 0.054298453 -0.087265566 -0.11900747
0000d0 3e 63 09 3e 64 cd 98 39 22 dd a5 bd 5a de 4b 3c
       0.13416764 0.00029144727 -0.08098818 0.012443149
0000e0 5b ab 0a 3c 86 83 67 bd bf 07 91 bd 1f 41 2c be
       0.008463706 -0.056521915 -0.070815556 -0.16821717
0000f0 03 6f c6 3d 6f c6 18 be ec 6f 38 bd d1 cb b4 bc
       0.096891426 -0.14919446 -0.045028612 -0.022069843
000100 3c ac e1 3d 6a 23 55 be ae 2e 97 3d 64 bd 91 bd
       0.11019179 -0.2081429 0.0738195 -0.071162015
000110 4c 80 7d bd cf cb c1 bd 0b 5e 38 3d bb 3a 4a 3e
       -0.06188993 -0.094627015 0.04501156 0.19748966
000120 22 ac 6f bd 86 0d fe 3c f9 de d5 3b 64 d3 fe 3c
       -0.058513768 0.031012308 0.0065268246 0.031106658
000130 46 b7 21 bd 72 b3 e0 3d db b6 0c 3e 94 73 7a 3b
       -0.039481424 0.109717265 0.13741629 0.0038215863
000140 2f 48 97 3d a8 9b aa 3e 26 91 21 be 2f 7b 08 be
       0.07386815 0.3332188 -0.15778026 -0.13328241
000150 90 d1 15 be f5 a3 03 3c 9d ff 41 be 87 ff 04 3e
       -0.14630723 0.008034696 -0.18945165 0.12988101
000160 16 07 ce 3d 0d f5 af 3c a7 a6 c3 bd 00 4b e7 bd
       0.10059945 0.021479154 -0.09553271 -0.11293602
000170 35 58 49 3e 3f 70 33 3e 8d 20 02 3d 03 f6 97 3d
       0.19662555 0.17523287 0.031769324 0.0741997
000180 7b 20 18 3e 0e 4a 3b 3d a1 a6 8a bd b3 5d 8d 3c
       0.1485614 0.04572492 -0.06770063 0.017256593
000190 a3 6b 1a 3e 1b 78 d4 bd dc 78 b8 bd e4 3b e9 3d
       0.15080123 -0.10374471 -0.09007427 0.11388376
0001a0 59 74 d3 bd 89 cd 22 3e 16 59 4a 3e 57 77 0d be
       -0.10324926 0.15898718 0.19760546 -0.13815056
0001b0 2c 8b b6 bc af f6 97 3c 25 f9 7a bd 82 67 61 bd
       -0.02228316 0.018550245 -0.06127276 -0.055030353
0001c0 80 65 58 3d 8d ec d8 bd 50 20 1c 3e f2 0a 51 3e
       0.052831173 -0.105919935 0.15246701 0.20414332
0001d0 aa c6 87 3d ec db 25 be 71 56 be 3d 2e 2d 0b bc
       0.06629689 -0.16197175 0.09293831 -0.008494658
0001e0 bb 7b c1 bc 02 93 70 bc 32 b8 7d be f0 fd 58 bd
       -0.02361857 -0.014683487 -0.24777296 -0.05297655
0001f0 6c b6 b9 bd 85 1f 08 3d 68 b6 79 3b b6 0d 71 bd
       -0.09067997 0.033233184 0.0038103107 -0.058850966
000200 ad 7e 51 3c cf de 42 be 8e 4a ba 3d e6 b3 f2 3d
       0.0127865495 -0.19030307 0.090962514 0.11850719
000210 0e b3 fa 3d 54 a2 d0 3d 4e 5b 7a bc e7 02 07 3e
       0.12241183 0.10187212 -0.015280558 0.13184701
000220 f9 ea e8 bd 9d 78 26 be d1 53 7f 3d a6 be 0c bc
       -0.113729425 -0.16256948 0.062335793 -0.008590376
000230 96 4d b9 bd ca f5 53 3d 54 a9 5f bd c7 57 f8 bb
       -0.090480015 0.051748075 -0.054604843 -0.0075788232
000240 fc f7 c4 bb 4e 97 25 bd 7d 2a 03 bd 57 2a 95 3c
       -0.0060110074 -0.0404275 -0.03202294 0.018208666
000250 2d 10 8e bd 0b 37 11 be 39 1a 23 3e 09 c2 1a be
       -0.06936679 -0.14181153 0.15927972 -0.15113081
000260 fa c2 87 bb 08 11 ef 3d 45 05 75 3c 74 bb ad 3d
       -0.004143116 0.1167317 0.01495487 0.084830195
000270 a7 1e bf 3d 40 92 65 bd 8c 6d e9 3d 28 41 26 3e
       0.09332018 -0.056047678 0.113978475 0.16235793
000280 16 68 d1 bc 83 89 42 be f8 d8 73 bd 75 be 55 3e
       -0.025562327 -0.18997769 -0.05953309 0.20873435
000290 47 bd 99 3a 56 29 85 bc 45 85 3e 3d c9 6e b4 bd
       0.0011729383 -0.016255062 0.046513814 -0.08810193
0002a0 5e d1 6f 3d 06 f7 f9 3c 19 7d 18 3e d1 ea 02 3e
       0.058549277 0.030513298 0.14891471 0.12784888
0002b0 3d 6e 48 bd 7a 56 25 3e 1f 9b 30 3c 06 ef 44 bd
       -0.048933256 0.1614627 0.010779171 -0.048079513
0002c0 41 60 7a 3d 72 d6 43 3d 66 67 62 3d d6 78 be bc
       0.06112695 0.047811933 0.05527439 -0.023250978
0002d0 dc 2d 4c be 0d 95 ed bd 66 0c 8f bd 72 cf 13 3d
       -0.19939369 -0.11600695 -0.06984787 0.036086507
0002e0 79 41 c8 bc 3d f0 c1 3d 85 68 cf bd c6 ac d1 3d
       -0.024445282 0.0946965 -0.101273574 0.10238032
0002f0 df e8 d8 3d 58 ea 81 bd 13 7e d9 3c 92 ec 36 3e
       0.10591292 -0.06343526 0.026549375 0.17863682
000300 6c af 72 3d 0b ba 16 bd e1 46 2a bd 2b 07 c2 bd
       0.059249327 -0.03679852 -0.0415715 -0.094740234
000310 b0 e0 66 bc d5 fc cc bc 22 98 06 3e 52 6d 18 bd
       -0.014091656 -0.025022903 0.13143972 -0.03721363
000320 cc 0c 85 3d 4e 3b 32 3d 99 d8 c6 3c 7b 89 2f bc
       0.064965814 0.04351359 0.024273204 -0.01071393
000330 eb 8d 68 3c e8 1c 0c 3d c3 ce e2 bc 29 16 61 3e
       0.014193992 0.034207255 -0.027686482 0.2198111
000340 74 ee 2c be 40 2c 23 3e f3 25 2c be d9 4d 01 be
       -0.16887838 0.15934849 -0.16811351 -0.12627353
000350 6a 4f d6 3d e1 20 a6 bc 1b 46 89 3e bc 94 7a 3e
       0.10464366 -0.02027935 0.268113 0.244708
000360 f1 b3 c0 bc 04 bb 11 3c 6f a4 22 3e 22 2f 24 be
       -0.023523303 0.008894686 0.15883039 -0.16033605
000370 70 b5 69 bc 2e 17 ec bc 55 06 75 3d ad 9c 7a be
       -0.0142644495 -0.028819647 0.05982049 -0.2447383
000380 04 11 2d 3c 65 68 38 bd d2 b0 1b be cc 5d 26 be
       0.010563139 -0.045021433 -0.1520417 -0.16246718
000390 c4 ac ac be 64 3b 9b 3d 08 c5 0e 3d a1 a8 2b be
       -0.3372556 0.07579687 0.034855872 -0.16763546
0003a0 32 ea 59 3d c1 86 28 be cb f6 06 3e 89 8a 6c 3c
       0.05320186 -0.16457655 0.13180082 0.014437326
0003b0 0a be cc bc 8c 0e 91 3d de 19 2b bd 28 27 a6 bd
       -0.024992961 0.07082853 -0.041772716 -0.08112937
0003c0 e6 d9 c3 3d 73 1c 5c 3d 72 55 34 3c b4 58 dd 3c
       0.09563045 0.05373807 0.0110067 0.027019836
0003d0 17 57 2a 3d e8 c9 79 3c 2d 0f f8 bd e6 6d 90 bd
       0.04158696 0.015245892 -0.121122696 -0.070522115
0003e0 3f 3d 07 3e 93 04 69 be a5 75 b7 bd bc f7 59 be
       0.13206957 -0.22755651 -0.08957986 -0.2128591
0003f0 29 1f 0e 3e c5 0a 84 bd 30 f3 12 bd 0e c6 60 be
       0.13879074 -0.064473666 -0.035876453 -0.21950552

network_body._body_endoder.seq_layers.0.bias f4 [256]
000000 5a 67 9a 3b 23 c9 58 3c 56 58 dd 3b ed 5f 8a 3b
       0.0047120275 0.0132315485 0.006754915 0.004222861
000010 14 d3 d7 3b fe 9e 78 3c c8 53 36 3c da 3c e7 3c
       0.006586442 0.015174625 0.011128373 0.028227258
000020 20 ad b2 b9 95 74 74 39 4d 6c 93 bb d7 07 f9 ba
       -0.00034079794 0.00023313084 -0.0044989944 -0.0018999529
000030 a2 d7 3f ba 52 f5 33 3c c1 0d ba 3b ea 56 08 3c
       -0.00073182036 0.010983782 0.005677909 0.008321503
000040 01 83 c0 3a 48 b6 81 bb d5 f5 cf 3c 24 6b b1 3b
       0.001468748 -0.003958497 0.025385777 0.0054143835
000050 c3 94 ee 39 60 c9 36 3c fe 25 bd 3b 8e 4b 80 bb
       0.00045505734 0.01115641 0.0057723513 -0.003915257
000060 45 2a ca bb 61 a1 ec bb 48 7b 6a 3b c0 4c 0a 3c
       -0.0061695897 -0.0072213863 0.0035779048 0.00844115
000070 ab 3c 40 bb 30 bf fa 3c 15 d2 d2 3c 7c 9d 87 3a
       -0.0029333036 0.030608743 0.02573494 0.0010346617
000080 48 b3 93 3c 70 fc 45 3c 6d b3 7d 3c b1 84 1a 3b
       0.018029824 0.012084112 0.015484673 0.0023577625
000090 94 8e cb bc 72 af f5 bb 73 6f 09 bc b1 2c ee 3b
       -0.02484826 -0.0074977214 -0.008388388 0.007268511
0000a0 7e fc aa b9 7f 2f a3 bc 7c b6 60 3c db 06 84 bc
       -0.00032613048 -0.019920109 0.013715383 -0.01611655
0000b0 2c 7c 7c 3c f5 c5 b9 3c e8 b5 8d 3b cb 7b 31 bb
       0.015410464 0.022677401 0.0043246634 -0.0027081843
0000c0 77 d3 69 bc 5f 36 3b bc 8f 17 7e ba ea 22 73 3c
       -0.014271609 -0.011426537 -0.00096928416 0.014839867
0000d0 9f f8 78 3b f1 a0 61 3c 28 a5 c6 3b f1 6e 37 bc
       0.0037989987 0.013771282 0.0060621686 -0.011195884
0000e0 92 9a 0f bc f8 f4 38 bc 37 48 1c bc 80 dc 38 3b
       -0.00876488 -0.011288874 -0.009538702 0.00282076
0000f0 63 0a 1a bb be eb 3c 3b 26 c1 12 3c 0b b0 c6 3b
       -0.0023504726 0.0028827037 0.008957183 0.0060634664
000100 f9 34 2a ba 54 c2 04 bc d5 98 64 bc 1b 28 e1 bc
       -0.0006492879 -0.008102972 -0.013952454 -0.027484944
000110 23 0f 7c 3b 2f 2e 2a 3c 46 33 12 3c f3 ce db 3b
       0.003846117 0.010386988 0.008923357 0.00670802
000120 da 2b 18 3c 90 93 31 3b b7 bd 43 3c c2 26 eb 3b
       0.009287799 0.002709601 0.011947087 0.007176251
000130 8e 11 00 3d 9a b8 31 bc 75 1f 8c 3c cc 7c 61 bc
       0.03126674 -0.010847235 0.017104844 -0.013762664
000140 51 8f 13 3b fb 73 f8 3b 75 66 d0 3b cc 95 ce 3b
       0.0022515843 0.0075821853 0.00635987 0.0063044783
000150 9c f9 2e bc 5e 09 34 bc d4 bf 92 3a 6e f6 20 bc
       -0.010679629 -0.010988561 0.0011196085 -0.009824378
000160 c4 2f 67 ba 19 37 7c bc 15 84 08 bc 98 d5 bf bb
       -0.00088190683 -0.015393996 -0.008332272 -0.00585432
000170 fe e2 33 3b 3a c8 ca bc 20 da 13 bc 5c d3 e7 39
       0.002744853 -0.024753679 -0.009024173 0.00044217228
000180 f1 94 60 3c 16 32 e9 bb ae d2 1b bb be 7a ba 3b
       0.013707385 -0.0071165664 -0.0023776698 0.0056909015
000190 cc 10 a4 bb 27 84 21 3c f9 32 83 3b 35 51 13 3d
       -0.005006885 0.009858168 0.004003879 0.035966117
0001a0 80 80 72 bc 80 02 53 3c 48 26 8e 3c fe 73 07 bd
       -0.014801145 0.012879014 0.017352238 -0.033069603
0001b0 9f 59 40 bc c3 14 7d 3c c8 86 c4 3b 23 3d 12 3c
       -0.011740117 0.0154468445 0.0059975125 0.008925709
0001c0 66 2e 67 bc 39 ea ec bc 97 99 04 bd 65 b4 b5 bc
       -0.014110183 -0.02892028 -0.032373037 -0.022180745
0001d0 d2 a5 65 3b 69 2a c9 3b 09 01 64 ba 00 ca be 3b
       0.0035041464 0.006139089 -0.0008697664 0.00582242
0001e0 f7 32 1a bc 96 19 54 bc 14 3d a6 bc ee ea b6 39
       -0.009411565 -0.012945553 -0.020292796 0.0003488878
0001f0 10 83 5a b8 12 75 b2 bb 4e a8 76 3c 1b a3 00 bb
       -5.209731e-05 -0.005446085 0.015054775 -0.0019628468
000200 70 a3 9d 3c ac 64 e3 bb 94 99 94 bc f4 2f 86 3c
       0.019242972 -0.0069394913 -0.018139638 0.016380288
000210 92 9c 25 3c 94 cd a2 3c 33 cc 87 3b ef 6d 02 3a
       0.01010813 0.019873418 0.0041442155 0.0004975488
000220 e6 ff 89 bc cb a6 53 3b 55 e0 48 bc 01 16 15 3c
       -0.016845655 0.0032295461 -0.012260516 0.009099484
000230 2e f1 80 bb fb 01 59 bc 9f 4f 0a 3a e7 ff b0 3b
       -0.003935001 -0.013245101 0.00052761467 0.0054015997
000240 fa f4 c1 3b 2b 9d e0 3b 2a 8c 71 3b 6c 96 a5 39
       0.005919096 0.0068546734 0.0036857226 0.00031583325
000250 d1 51 7c bc da 55 23 bb 04 4f 25 3b 6c 09 c8 b9
       -0.015400366 -0.0024922998 0.00252241 -0.00038153993
000260 16 89 5c 3b b8 aa e0 bb d3 fe 3a 3b 35 f9 2d b9
       0.0033651046 -0.0068562888 0.0028533235 -0.00016591403
000270 b8 6d 1b bb 7f 35 a5 ba e3 9a 94 3c fa e4 45 bc
       -0.002371652 -0.0012604444 0.018140262 -0.012078518
000280 76 c6 a2 3b 48 52 b3 3b 0e f7 18 bc 0d 0f 52 bc
       0.004967506 0.005472455 -0.009336246 -0.012820971
000290 41 29 24 bc dd 79 98 3b 79 6c 8f bc 13 4b 19 3c
       -0.010019601 0.004653199 -0.017507778 0.009356278
0002a0 77 e9 85 3b 48 fc 15 bc cd cb 59 bc ab 8e 3e ba
       0.004086669 -0.009154387 -0.013293219 -0.0007269184
0002b0 d0 78 f4 bb 56 ba 05 3c 2f 86 69 bc 3f 89 f8 bb
       -0.007460691 0.008162102 -0.014253183 -0.0075847204
0002c0 7a 84 0c 3a 60 6c 5c bc b4 de 2a 3b 0b d8 b0 bc
       0.0005360317 -0.013453573 0.0026072683 -0.021587392
0002d0 60 da 5d bc 7c a7 0b bc 92 1e 6e bb d3 d1 b4 3b
       -0.013540834 -0.008523818 -0.003633414 0.005518177
0002e0 94 17 95 3b 56 d1 06 bc b9 59 69 3c 63 39 0f 3c
       0.00454993 -0.0082286205 0.014242583 0.008741709
0002f0 b4 d8 45 3c df 5b 1b 3c 9c 63 8b bc 1d 99 88 38
       0.012075592 0.009482353 -0.01701527 6.513505e-05
000300 84 d7 47 bc a3 65 d5 3b a0 15 d1 3b 07 e7 49 bc
       -0.012197379 0.00651236 0.0063807517 -0.012323148
000310 09 7e c4 3a 20 d0 e9 3c a1 1d cb 3c be 04 06 3c
       0.0014991175 0.028541625 0.024794402 0.008179842
000320 47 94 00 bc 2d f5 1c bc ba 4d d5 bb b3 f4 87 3c
       -0.007847852 -0.009579939 -0.00650951 0.016596174
000330 37 a8 3b bc 0f 45 94 3c ae 6f b1 3b 64 8e 27 3b
       -0.01145368 0.018099336 0.0054149246 0.002556705
000340 17 43 ad 3c fb b3 de 3b f2 65 d2 bb bd 66 44 bb
       0.021150155 0.0067963577 -0.0064208442 -0.0029968463
000350 98 0a 80 3c 98 fc 45 ba cd f8 63 3c 17 1c 3d 3a
       0.015630051 -0.0007552593 0.013914299 0.00072139635
000360 3c 4c 09 3d c2 bb 92 3c 86 ff 0d 3b 2b 6f 62 3b
       0.03351997 0.017911796 0.0021667196 0.0034551125
000370 15 66 2f 3c 0d 63 a0 3b 01 0e a4 bb b2 1d 9c ba
       0.010705491 0.0048946203 -0.005006552 -0.0011910705
000380 a1 57 27 ba 7d 07 bf 3b d3 27 56 3c 8c d6 66 3b
       -0.0006383602 0.00582975 0.013071018 0.0035223095
000390 92 0f 44 bb c9 c3 72 bc 34 76 33 bb e5 5a e6 3b
       -0.0029916507 -0.014817187 -0.0027383687 0.0070298784
0003a0 13 dd 7c 3c f6 3a 56 b9 30 10 29 3b 89 f1 51 3c
       0.015433568 -0.00020430595 0.0025797002 0.012813934
0003b0 72 7e 6b 3c f3 71 2d bb 66 e6 66 3c 9b 49 a6 bb
       0.014373409 -0.0026465624 0.014093017 -0.0050746924
0003c0 aa f6 2e b8 af a8 b8 3b a0 69 d1 bb 19 a6 8d 3c
       -4.1714557e-05 0.005635343 -0.0063907653 0.017291116
0003d0 e6 c5 e5 3a 7f ff b9 bb f3 97 77 3c 37 23 8e bc
       0.0017530292 -0.0056762095 0.015111911 -0.017350776
0003e0 8d de 9f bc 00 0e 96 bb f1 da fe bb 6c b3 13 bc
       -0.0195153 -0.0045793056 -0.0077775647 -0.0090149455
0003f0 86 ce b8 3b 02 72 4e bb 7a 5d d2 bc 7d 9f 63 3c
       0.005639854 -0.003150106 -0.025679339 0.013893005

network_body._body_endoder.seq_layers.2.weight f4 [256, 256]
000000 05 ca 36 3d 39 6c 9f bd 7a ed a2 3d 21 21 f9 bc
       0.044626255 -0.07784314 0.07955451 -0.030411305
000010 c2 01 62 3c d8 1c d7 3c d3 65 4b 3d be 55 9a bc
       0.013794364 0.026258871 0.049657654 -0.018839713
000020 df c2 b2 3d c4 44 d8 bd e8 37 48 3d f2 a5 4d bd
       0.08728575 -0.10559991 0.04888144 -0.050207086
000030 ee 54 91 bd 18 77 79 bc c9 6b 27 37 9f 5d 21 be
       -0.07096277 -0.015226148 9.979071e-06 -0.1575837
000040 46 bd dd 3d b7 fb 11 bd 29 59 5f 3d 55 4f 34 be
       0.10827117 -0.035640445 0.05452839 -0.17608388
000050 75 4b 4c 3d 59 d7 e1 bb 44 ad 77 3c ef 58 1e bb
       0.04987665 -0.0068921265 0.015116993 -0.0024161895
000060 cb 22 9f bd 6d 81 85 3c 8f 1a d5 bc 9a a6 cd bd
       -0.07770308 0.016297067 -0.02601364 -0.10041542
000070 90 a1 7a bd 94 44 02 3d 52 b7 cf bd fc eb b7 bd
       -0.061189234 0.031803682 -0.101423874 -0.08980557
000080 4c 3e 37 be d6 82 98 3d 99 1d 7d 3d 65 96 55 bd
       -0.17894858 0.0744683 0.061795805 -0.05214538
000090 eb cc ea 3d 6d e6 17 3d 61 51 4a bb c1 3e 88 3d
       0.11464866 0.037084986 -0.003087126 0.06652594
0000a0 94 b6 8e 3d 1a 1f a9 3d b9 27 b0 3c 67 2a cf bb
       0.06968418 0.08257885 0.021503316 -0.0063221934
0000b0 6c 26 87 3d 01 f2 4f 3d d4 58 28 3d db 43 d6 bc
       0.06599125 0.050767902 0.041100338 -0.026155403
0000c0 f1 2a ee 3b 5b c6 b7 bc fd 95 cf bd a6 fe cc 3d
       0.0072683026 -0.02243345 -0.1013603 0.10009508
0000d0 94 b8 98 3d 2f 59 2c 3d c4 de de 3d e2 b8 6f bc
       0.074570805 0.04207724 0.10882333 -0.014631482
0000e0 0e 72 d5 bb cf 1f a9 3d 42 41 b9 3d 63 61 c4 bb
       -0.0065138405 0.0825802 0.0904565 -0.0059930547
0000f0 1b b9 b1 bb a3 79 95 bd ee 23 b1 3d 3e 4f 02 3e
       -0.0054236776 -0.07298591 0.08649431 0.12725541
000100 e8 7c a3 bd 67 a1 ba bd 13 a4 8f bd 9d 37 24 bd
       -0.07982808 -0.09112816 -0.070137165 -0.0400921
000110 de f8 7f bd 79 98 28 bc 81 a6 19 3c b8 e5 36 be
       -0.062493198 -0.010290259 0.0093780765 -0.17861068
000120 56 c3 59 3d 3c 23 ae bc ee 7c dd 3d 53 4a 8a bd
       0.053164802 -0.021257035 0.10814844 -0.067524575
000130 b7 e3 5c 3c 24 b4 ca 3c 1c 10 c4 3d 3d ec 13 3d
       0.013482026 0.0247441 0.09573385 0.036113966
000140 31 a5 a1 bd ff a1 4f 3d 5b e6 85 3d 36 69 c8 bb
       -0.07892836 0.0506916 0.065380774 -0.0061160577
000150 e3 a9 cc 3c d8 8b 54 bb f5 59 d1 bb 8f b4 25 bd
       0.024983352 -0.0032431986 -0.0063888975 -0.040455397
000160 6b 2a 0c bd f1 d3 e5 3d d4 5b 17 bc 99 02 9b 3c
       -0.03422014 0.11222065 -0.009238202 0.018922137
000170 ba 63 00 bd 4c cd 22 bd d6 ad 64 3d 03 d3 b1 3b
       -0.031345107 -0.039746568 0.055829845 0.005426766
000180 a2 27 b4 bd 98 ba 60 bd f2 a1 61 3d dd 7f 85 3d
       -0.08796622 -0.05486545 0.055086084 0.065185286
000190 e9 19 a7 3c ef b2 81 3c ab 16 3e bd 63 c4 a4 bd
       0.020398097 0.015832392 -0.046408337 -0.0804527
0001a0 85 b3 4e 3d 73 d3 e4 b8 6d 48 3d bb 4b 6a d9 bd
       0.050464172 -0.00010911273 -0.002888228 -0.10615977
0001b0 ab fd 29 3d e2 20 a4 bd 81 f6 7c 3c 0d e7 5f bb
       0.041501682 -0.080140844 0.0154396305 -0.0034164817
0001c0 8d 93 e6 bd 23 f2 8f bd 3e fa 4f 3c a9 df a5 3b
       -0.11258612 -0.07028606 0.01269394 0.0050620628
0001d0 bc d1 8d bd 15 a6 f2 3d 6b df 0e bd 2a 17 5d 3e
       -0.06924769 0.11848084 -0.034881037 0.21590868
0001e0 3e 7d 20 3b 45 56 c8 3d ad c9 b3 bc 06 20 1c be
       0.0024488713 0.097820796 -0.021946752 -0.15246591
0001f0 95 b9 d2 bd 29 76 1d bd a6 a1 4a bd 28 58 0b 3b
       -0.10289303 -0.038442764 -0.049470566 0.0021262262
000200 00 f5 fe bd dc 50 0c be 30 d8 eb 3c f9 81 9e 3c
       -0.12449074 -0.1370272 0.02878961 0.019349085
000210 b0 d9 22 bc d7 1a 8d 3d b5 67 81 3c c9 89 57 bd
       -0.009939596 0.06889885 0.015796522 -0.052621637
000220 d7 a8 77 3d 39 9b fa 3c f1 62 bd 3a 99 03 15 be
       0.060463753 0.030591594 0.0014449043 -0.14552154
000230 e3 7c 16 bc ea 0c 9e 3d 4f 6b 11 bd c7 67 82 bd
       -0.009185049 0.07717307 -0.035502728 -0.0636745
000240 78 81 8a bd e7 4c 54 3c 37 7d f6 3c 54 b1 9c 3c
       -0.067629755 0.012957788 0.030089004 0.019127525
000250 ed 77 7d bd 0a a5 ce 3c 64 e6 8b 3d ed 95 ef 3d
       -0.06188195 0.025225181 0.06831053 0.11698518
000260 c3 41 27 3c f9 20 b8 bd 01 c2 a8 3b 35 4c b1 bb
       0.01020855 -0.08990664 0.00515008 -0.005410696
000270 d5 71 2f bd 05 95 ee 3c 18 0c c4 3c 3b 5d 73 bd
       -0.042833168 0.029123792 0.023931548 -0.059415083
000280 46 b5 2d 3c b3 47 eb 3b 71 45 95 bc e1 0d 91 3c
       0.010602301 0.007180178 -0.018221589 0.017706813
000290 f1 2b 97 bd c9 67 75 3c c4 13 35 bd 22 ff 43 3d
       -0.07381428 0.014978358 -0.044208303 0.047850735
0002a0 56 30 71 bd 45 cf a4 bc 9c 26 9a 3c 68 da 82 3d
       -0.058883987 -0.020118365 0.018817239 0.06389314
0002b0 1c 36 2f 3d 2e 84 1a bd cd b4 ba bd 19 37 9a 3d
       0.042776212 -0.037723713 -0.09116516 0.0753004
0002c0 88 8f ac bd f9 f4 da 3d 4b 4c f8 bc 48 04 87 bd
       -0.08425814 0.10691256 -0.030309817 -0.065926135
0002d0 4c 02 7c 3d 0b 3b 5d 3c a2 ee 3b 3c cd d6 24 bd
       0.061525628 0.0135028465 0.011470469 -0.040243912
0002e0 2e f0 5b bd bd cd c9 bc 68 25 ab bc e2 18 0f 3d
       -0.05369585 -0.024634236 -0.02089186 0.03493584
0002f0 eb a5 a7 bb ff d5 93 bd 63 c4 8b 3d 2b dd 8a 3b
       -0.0051162145 -0.07218551 0.06824567 0.004237791
000300 d4 66 ea bc a2 7b 1d 3d 78 03 90 3d 7e 5b 24 bc
       -0.028613485 0.038447984 0.070319116 -0.010031579
000310 18 f2 c9 bc 22 1b 3d bd 8a de 3a 3d 2e c2 a8 bd
       -0.024651572 -0.046168454 0.045622386 -0.08240162
000320 b7 6a 5d bd 75 f0 b1 3c e3 57 c7 bd 68 61 08 3d
       -0.05405685 0.021721104 -0.0973356 0.03329602
000330 c2 b2 6e bd 0a 6c 90 bc 49 42 e3 bd 4a ab 39 bd
       -0.058275945 -0.017629642 -0.11096627 -0.04532937
000340 4c 54 1b be b1 fd ab bd 95 ca 76 3d 91 52 0b 3e
       -0.15168875 -0.08397997 0.06025179 0.13605715
000350 ae 6f 19 bd f1 4d 67 bd 12 ea 23 be 4b c2 d6 bd
       -0.03746002 -0.056470815 -0.1600726 -0.10486277
000360 9a 9a 89 3b 95 6c 09 3d d5 3a 70 3c a3 23 43 3e
       0.004199338 0.033550818 0.014662464 0.19056563
000370 cb 33 74 39 d5 bf 3e 3d 95 f4 48 3c 1e 85 44 bd
       0.00023288948 0.046569664 0.012265344 -0.047978513
000380 5a 02 3e bd 7f 47 5d 3d 16 13 a0 bd 1f a7 57 3d
       -0.04638896 0.054023262 -0.0781614 0.052649613
000390 c7 d1 06 3d c4 9e 98 bc 7c a8 c0 3c bc 4f 8e 3d
       0.032914903 -0.018630393 0.02351784 0.06948802
0003a0 75 60 8c bd 07 ee 13 bd c0 78 4a 3d f0 23 25 bc
       -0.06854335 -0.036115672 0.049431562 -0.010079369
0003b0 ff 75 a5 3c 2e a5 03 bd a2 39 ab bd 1e 05 c5 3d
       0.020197866 -0.03213995 -0.08360602 0.09620117
0003c0 cf 8a da 3d dc 7f 48 bd 91 bd f7 bd 34 00 1a 3c
       0.10671007 -0.04895006 -0.12096704 0.0093994625
0003d0 18 d7 fa bc 68 c9 8e bd fc 27 b5 bd 3e 6f 6c bd
       -0.030620143 -0.06972009 -0.08845517 -0.057723276
0003e0 a4 cc a8 3d 17 84 13 3e 4f be 6c bc 55 08 41 3d
       0.08242157 0.14405857 -0.01444967 0.047127087
0003f0 85 3f e8 bd ed 96 77 3d 85 c5 65 bd dd 23 14 be
       -0.113402404 0.06044667 -0.056096572 -0.14466806

network_body._body_endoder.seq_layers.2.bias f4 [256]
000000 8c db 44 3c d2 9e b1 3c af 9e f7 b9 69 4d 15 3c
       0.012015235 0.021682177 -0.0004722974 0.009112694
000010 11 99 c2 3b a2 ec 25 3b b1 46 0b bc 2a c3 81 3b
       0.005938657 0.0025318046 -0.008500741 0.003960033
000020 5e 0c 0b 3c 5f ac 26 3b 12 f3 f8 bb 00 47 92 3b
       0.008486835 0.002543233 -0.0075973356 0.0044640303
000030 ed a9 2a 3a c2 b9 4d bc 99 fa 46 3b 9f 87 b8 bb
       0.0006510306 -0.012556495 0.003036177 -0.0056314017
000040 58 69 a5 3b 58 29 5a bc c1 e2 7c bc aa cb 44 3c
       0.0050479583 -0.013315521 -0.015434922 0.012011448
000050 58 a7 3f 39 d3 74 f2 3b d9 2d a8 3a 3c 05 d6 ba
       0.0001827752 0.0073991804 0.0012831046 -0.0016328464
000060 30 14 fa bb 51 34 a3 bb 94 fc 7e bb 5f ed ee ba
       -0.007631801 -0.004980602 -0.0038907873 -0.0018228701
000070 40 89 36 ba 4c f4 ba bb e6 a0 99 b9 ac 49 cf 39
       -0.0006963201 -0.005705392 -0.00029302313 0.00039537007
000080 48 ca b0 b9 56 a6 f1 bb b5 2a bd 3a 5a 8b f3 ba
       -0.00033720047 -0.007374565 0.0014432283 -0.0018580959
000090 c9 a3 f0 bb 80 db bc bb 61 9b 17 bc 62 77 4c bc
       -0.0073437435 -0.005763471 -0.009253354 -0.012479635
0000a0 c1 42 48 3c ca 80 46 bc 80 e3 19 3b 44 1f 1a 3c
       0.012222947 -0.012115667 0.0023481548 0.009406868
0000b0 8e 35 ec ba 32 27 8a bb 27 13 7e 3b b8 75 81 bb
       -0.0018021332 -0.004216098 0.003876874 -0.0039508007
0000c0 4c c3 af bb 62 9d a8 bb db 7a 0e ba 48 e9 0a 3b
       -0.0053638574 -0.0051457146 -0.0005435177 0.0021196175
0000d0 ee ae d9 bb 6e 49 3f bb 5a 14 45 3b c6 df d0 ba
       -0.0066431677 -0.0029188055 0.0030071945 -0.001593583
0000e0 f6 33 36 3c 9c 4a 8a bb 1b 43 a4 3a 7e eb c0 bb
       0.011120787 -0.00422032 0.0012532206 -0.005887448
0000f0 06 3f 43 b8 bb 51 09 bc d5 9b fd bb e2 0b 27 3c
       -4.6550318e-05 -0.0083813025 -0.007739524 0.010195704
000100 9a ce 96 3b f4 07 b1 ba 24 de bb bb 2c 0d 03 bc
       0.0046022655 -0.0013506399 -0.0057332683 -0.007998746
000110 a8 9e 9c 3b e0 7e 79 bb 9a 36 a9 3a 4e af 03 3b
       0.0047796555 -0.0038070008 0.0012909949 0.0020093503
000120 71 2d a5 bc 2c 89 11 bb d6 1f 78 ba b7 f3 0a bc
       -0.02016327 -0.0022207005 -0.0009465193 -0.008480958
000130 42 bd 7d b7 d5 46 15 3a 1e 77 f6 bb 86 10 82 bb
       -1.512404e-05 0.0005694454 -0.007521524 -0.003969255
000140 66 3a bb bb 6f 7c 5b bb 77 69 7f 3c 71 da 15 bc
       -0.0057137487 -0.0033490916 0.01558911 -0.009146319
000150 98 a3 28 3b c7 aa ed 3a 46 f7 58 3c 18 53 44 bc
       0.0025732275 0.0018132561 0.013242548 -0.011982702
000160 37 65 f1 3a 29 5a 25 3c 18 9b 8d ba 77 86 cf bb
       0.0018417005 0.010092297 -0.0010803668 -0.006333168
000170 6b 4e 9f 3a 46 2b ea 38 63 37 bd 3c 72 f6 0a bc
       0.0012154108 0.0001116605 0.0230977 -0.008481609
000180 b2 d5 65 3c a7 c6 e0 bb be ab 93 bb 02 f8 3c bb
       0.014028 -0.0068596187 -0.0045065572 -0.0028834348
000190 d5 66 17 bc 4b f8 00 bc 4b 46 37 3b 2e 28 c7 3a
       -0.009240826 -0.007871698 0.0027965482 0.001519447
0001a0 8e 26 d7 3a 5a 7d db ba 9d ba cf 3b 9e 53 69 3c
       0.0016414688 -0.0016745732 0.0063393847 0.014241127
0001b0 80 cf 40 bc 03 38 9c 3c d9 30 c0 3c c7 ec 3c bc
       -0.011768222 0.019069677 0.023460792 -0.0115310615
0001c0 29 5d f2 3b 1e 61 28 3c e3 ce 00 3c e7 0e 6c 3c
       0.0073963595 0.010277061 0.007861826 0.01440785
0001d0 f4 d7 b6 bb c4 e3 bc 3b 3e 41 90 bb 99 e3 9d bb
       -0.005579943 0.0057644565 -0.0044023087 -0.0048183915
0001e0 0c 9c 17 bc d3 c5 61 bc c6 cc 6b bb b9 e5 10 3b
       -0.009253513 -0.013780075 -0.0035980209 0.0022109582
0001f0 0a ca 84 ba fa dd 21 bc 81 69 84 3c ef 4d 25 3b
       -0.0010131013 -0.0098795835 0.01616359 0.0025223454
000200 20 30 20 3c 87 b6 75 3c a4 d9 53 bb 05 73 36 3c
       0.009777099 0.014997131 -0.003232577 0.011135821
000210 91 bc 56 bc b3 a2 ad ba 15 c1 bd bb b3 d5 18 bc
       -0.013106481 -0.0013247341 -0.0057908394 -0.009328294
000220 c2 31 a3 3c 4a 97 22 b8 e7 24 8a 3b 8e ff 48 b9
       0.019921187 -3.876471e-05 0.004215825 -0.00019168688
000230 cd 45 78 3c de d5 78 bc f0 8a 43 bc f5 c9 2c bc
       0.015153361 -0.015187709 -0.011934981 -0.010546197
000240 5a b5 25 bc d6 5f d4 3b c0 14 38 3c de 8b dc bb
       -0.010114038 0.006481151 0.011235416 -0.0067305407
000250 d3 29 e3 bb 27 bc 36 3c 87 91 0a 3c 5a 8e 3b bb
       -0.006932476 0.011153257 0.008457548 -0.0028618784
000260 08 b4 81 3c 21 4c fa ba ec 9f f0 bb 5a c8 c2 bb
       0.015832916 -0.0019096175 -0.007343283 -0.005944294
000270 3d 5d 0a bc fb 3c c7 bb db 62 5c bb 13 f8 2f 3c
       -0.008445081 -0.0060802675 -0.0033628258 0.010740298
000280 58 a8 2f bb 4a a4 b6 ba 2f ba 12 3c 98 24 91 bb
       -0.0026803222 -0.001393446 0.008955522 -0.004429411
000290 24 a5 27 bc 7e 1b 1c bc 38 8c 9f ba 84 58 d4 bb
       -0.010232244 -0.009528039 -0.0012172526 -0.0064802784
0002a0 99 f7 f2 ba 4d 5c 44 3c b0 62 64 3c 02 6c 63 3c
       -0.0018536925 0.011984897 0.013939545 0.013880732
0002b0 c7 48 a3 3c 86 b1 ef 3b 68 e3 1f bc 01 ab 1f bb
       0.019932164 0.0073148636 -0.009758808 -0.00243634
0002c0 fe cb 2e bc 61 c4 2f bc bc 26 f4 3b ef 60 a9 3b
       -0.010668753 -0.010727973 0.0074509066 0.005169026
0002d0 0d 86 5e bc ae 0a 36 3c d5 d0 96 3c 96 2f 0c bb
       -0.013581765 0.011110945 0.018410126 -0.0021390668
0002e0 27 c7 99 3a 6d 99 1d 3c de aa 55 3b 5b e9 7a ba
       0.0011732326 0.009619099 0.0032603065 -0.0009571516
0002f0 42 87 38 3c d9 b5 94 3a af 80 89 3c 91 f2 af b9
       0.011262717 0.0011345699 0.016784994 -0.00033559327
000300 6a 12 27 bb 44 70 b1 3a ea 0b 20 3c 3a 04 cc bb
       -0.0025493153 0.0013537486 0.0097684655 -0.00622609
000310 c6 29 01 3c b7 79 65 3c 71 d7 e8 bb 50 85 1e ba
       0.007883495 0.01400607 -0.0071057607 -0.0006047087
000320 09 c2 d9 bb 18 80 3f bc 32 34 da 39 80 cc bb bb
       -0.0066454452 -0.011688255 0.0004161909 -0.0057311654
000330 ab c1 2b bc 80 95 7d bb d5 b1 ef 3b f7 07 40 3b
       -0.010483186 -0.0038693845 0.0073149004 0.0029301622
000340 3f 88 ab 3c 7f b9 e0 3b 82 8d 16 3c f4 fe 06 bc
       0.02093899 0.0068580504 0.0091890115 -0.0082394965
000350 3a 91 03 3b 82 f0 8c ba e7 fd 20 bc 36 e9 a4 3c
       0.0020075575 -0.0010752829 -0.00982616 0.020130735
000360 29 3a 19 bb de 38 79 3c 48 a8 d4 3b 87 3e 82 3c
       -0.0023380613 0.015211312 0.0064897873 0.015898956
000370 53 cc 20 3c d5 fc 26 3b 43 22 5b bc f2 ba 99 bb
       0.00981434 0.002548029 -0.013374868 -0.004691475
000380 46 cc 1d 3c ef 4d d0 38 61 9d 02 bc 67 37 86 bb
       0.009631222 9.932729e-05 -0.007972092 -0.00409596
000390 14 22 ce 3b aa ca 03 bc 62 ba be bb c1 cb 42 3b
       0.0062906835 -0.008043924 -0.0058205584 0.0029723498
0003a0 a9 a6 9c bc e1 54 58 bb 52 81 0f bb 19 59 27 bb
       -0.019122439 -0.0033009576 -0.002189715 -0.0025535284
0003b0 ef 75 6c 3a 1f 6e 83 b9 b4 f6 a5 3a da 87 44 bc
       0.0009020259 -0.00025068314 0.0012662024 -0.01199528
0003c0 cc ad db 3b c4 0b c1 b9 59 ae bb bb c9 6d a5 3c
       0.006704068 -0.00036820595 -0.005727571 0.020193951
0003d0 6f 0c 1b bc f6 b0 39 3c 72 ab d8 3b e6 c0 27 bc
       -0.009463414 0.011333695 0.0066122347 -0.010238862
0003e0 d0 58 ea bb 6c 1e 4b 3c 4c 12 9a 3b 12 3f b2 bb
       -0.0071517006 0.01239739 0.004701888 -0.0054396475
0003f0 bb 0a 1f bc 6e 06 13 3c 17 a4 1b bc 2a 5a 93 bb
       -0.009707148 0.008973701 -0.009499571 -0.0044968324

action_model._continuous_distribution.log_sigma f4 [1, 2]
000000 bc c2 2e bd fe a1 18 3d
       -0.042666182 0.037263863

action_model._continuous_distribution.mu.weight f4 [2, 64]
000000 6f 86 51 bc af 2c 39 3c 47 1e 81 3d 4f 8a 7c bb
       -0.012788399 0.011302157 0.06304603 -0.0038534587
000010 c1 13 d8 3c f5 a4 24 bd 33 d0 bd 3d dd cb ab 3d
       0.026376607 -0.040196378 0.092682265 0.08388493
000020 21 3f 9d bd 82 cd 40 3d a8 e2 a6 bc a2 ce 69 bd
       -0.076780565 0.047070988 -0.02037175 -0.057081826
000030 3a 48 6c bc 4d 4e d6 bc ee e4 dc 3c c0 16 36 bd
       -0.014421517 -0.026160384 0.026964631 -0.04445529
000040 a2 2b bf 3c cc 72 90 bc fd 9e 66 3d 94 ae 1b 3d
       0.023336235 -0.017632864 0.056303967 0.038008288
000050 ef 85 58 3d 60 fd 09 3d 06 f0 d4 3d b7 53 75 3c
       0.052862104 0.033688903 0.10397343 0.014973572
000060 d2 7e 96 bb 24 11 57 bd 92 fa b0 3d 86 fa 45 3d
       -0.004592755 -0.05250658 0.086415425 0.04833462
000070 05 42 39 3d 02 da 91 bd 10 16 18 3d 48 af 39 3c
       0.045228977 -0.0712166 0.037130415 0.011333294
000080 a9 81 20 3d 49 e4 d4 3c 15 00 2e 3d 24 6d a1 3d
       0.039186154 0.025987761 0.042480547 0.07882145
000090 a1 c3 95 bd bc cc a8 3d 85 1b 5d bd b5 e8 4e 3d
       -0.07312704 0.08242175 -0.053981323 0.050514895
0000a0 bb fa 4b 3d 04 2a 71 3d 6b 0a 9b 3d ca 03 b0 3a
       0.049799662 0.05887796 0.075703464 0.0013428864
0000b0 06 0c b8 3d 15 26 8a bc c1 f7 95 bc 2d 9f a8 bb
       0.08986668 -0.016863862 -0.018306615 -0.0051459284
0000c0 4e b3 37 3d 04 0e cb bd 0f e4 fb bd 04 85 93 bd
       0.044848733 -0.09914783 -0.12299358 -0.07203105
0000d0 de 94 26 bd 55 37 0b 3d ef 74 e2 3d 9d c9 ac 3d
       -0.040669315 0.033988316 0.110574596 0.08436892
0000e0 54 7c 97 bc 98 31 a8 3d 18 cf 60 bc 9c 0b 92 3c
       -0.018491901 0.08212584 -0.01372125 0.017827801
0000f0 34 c3 9e 3d b6 fb 0a 3d 35 63 1c 3c ee 7e 80 3d
       0.07752076 0.033931457 0.009545137 0.0627421
000100 ea c9 ed bd f6 9f 41 3d 26 3c 89 bc 6a f4 ac 3d
       -0.11610778 0.04727169 -0.016752314 0.08445056
000110 5f 0d 8e bd 9a 75 fc 3c d8 b3 47 bd ac 8e e1 3c
       -0.06936144 0.030817796 -0.048755497 0.027533852
000120 4c 0d a1 bc 47 5c 24 bd 0f fd f7 b9 04 e3 8a bc
       -0.01965966 -0.040127065 -0.00047300055 -0.016953953
000130 b6 d9 78 3d 5b c6 7c 38 fb f4 e7 bb 5c 41 bb bc
       0.0607545 6.0266215e-05 -0.0070787645 -0.022858314
000140 5c ae 86 bd d3 bc 7f bc ca b1 2b bc 4d 4b 0c 3d
       -0.06576225 -0.015608984 -0.0104794 0.0342515
000150 53 4b ab bd 96 29 f7 3d 32 ec 25 3d 3d 08 f0 3c
       -0.08363976 0.12068479 0.040508457 0.029300803
000160 50 7d bf bb d3 fa d3 3c c6 20 e3 bc dd 28 8b bd
       -0.005843796 0.025876438 -0.027725589 -0.067949034
000170 57 f9 6b 3d 23 21 25 3d d3 25 9a 3b 00 d4 93 bd
       0.057610836 0.040314805 0.004704216 -0.0721817
000180 24 31 26 bc 74 49 7f 3d 64 78 22 bd 9f 75 6a bb
       -0.010143552 0.06232591 -0.039665595 -0.0035775674
000190 ae 43 d4 3c ac 58 9d 3c 5a 11 17 bd 83 68 0f bd
       0.025911178 0.019207321 -0.036881782 -0.03501178
0001a0 8a 91 74 bd 00 a1 81 bd fe 38 56 bd d4 f2 a3 bd
       -0.05970911 -0.063295364 -0.052300446 -0.080053
0001b0 45 a0 67 3d 7a de 6a bd 83 9f 5d bc 75 d8 42 3b
       0.05654933 -0.057341076 -0.0135268 0.002973107
0001c0 20 61 96 3c d5 10 44 3d 7c b3 8f 3c 9f 2d 28 3c
       0.01835686 0.047867615 0.01754164 0.010264783
0001d0 21 8b c4 3b 29 b5 10 bd 46 86 1d 3d 20 28 8c 3d
       0.005998031 -0.035329018 0.03845813 0.06843591
0001e0 3a 86 e6 bc ca 26 05 3d a9 b8 59 bd ee 9d 84 bc
       -0.028140176 0.032507695 -0.05315462 -0.016188588
0001f0 ff af 98 bd ee b9 8c bc f8 07 62 bc 1c e4 89 bc
       -0.074554436 -0.017178502 -0.013795845 -0.016832404

action_model._continuous_distribution.mu.bias f4 [2]
000000 74 65 89 bb e8 bb ab bc
       -0.0041930024 -0.020963624

onnx::LSTM_101 f4 [1, 256, 256]
000000 90 69 db 3d f0 6b e5 3d ca dc a5 ba 55 ff c5 bd
       0.10713494 0.11202228 -0.0012654301 -0.09667841
000010 de f6 cc 3d 5e 72 bd bc 37 9e c9 bd ad 1b 7a 3d
       0.10008024 -0.023125824 -0.0984463 0.06106155
000020 ba f7 6b 3d 0c 0b 8f bd 00 8c 3d 3d ce 7e 07 3e
       0.057609297 -0.06984529 0.046276093 0.13231966
000030 f1 0b 12 bd 17 a1 fb 3d 19 9c 26 3d 99 f5 8a 3c
       -0.03565592 0.12286585 0.04067621 0.016962813
000040 35 04 7e bd 5e 8f b6 3d 7d d7 ff bd b5 c8 98 3d
       -0.06201573 0.08914064 -0.12492273 0.07460157
000050 3b b5 4d 3d c0 fd c2 bc 5b 66 85 bc d9 d9 44 3d
       0.050221663 -0.023802638 -0.016284158 0.04805932
000060 00 c9 02 be 66 f3 d4 3c 99 fc 92 bd c1 de 86 3d
       -0.12771988 0.025994968 -0.071770854 0.06585456
000070 8d fe ee 3d 06 98 11 3d cd c6 5c 3d 2e f6 02 3d
       0.116696455 0.03554537 0.05390053 0.031973056
000080 ab d5 c9 bd 7c 0b 41 3d 78 40 b2 bb 70 ec ad 3d
       -0.09855207 0.047130093 -0.005439814 0.084923625
000090 b6 fc 02 3e 03 8f 8f 3d 02 74 9c 3d db b6 28 bd
       0.12791714 0.07009699 0.07639314 -0.04119001
0000a0 0a eb 21 bd 87 92 0b be ee 08 23 bd 38 18 3e 3d
       -0.03953079 -0.13630114 -0.039803438 0.046409816
0000b0 a6 49 18 3e 57 b0 9b 3c 57 e6 5c 3d 0a 86 5f bd
       0.14871845 0.019004984 0.053930607 -0.05457119
0000c0 ee 59 49 3d 43 60 98 bd d2 1f 07 bd 73 ba f2 bb
       0.04915803 -0.074402355 -0.03298933 -0.0074074804
0000d0 23 05 90 bc 57 d2 a4 3d e7 cb ed 3b 7f 98 de 3d
       -0.017580574 0.08047932 0.007256973 0.1086893
0000e0 03 53 5f bc ff 9a c7 bd 47 c7 d1 bb cb c4 08 3e
       -0.013630631 -0.0974636 -0.0064019295 0.1335632
0000f0 76 26 e9 bc cf 4f d7 bd ca 83 58 bd 83 54 4f bc
       -0.028460722 -0.10513269 -0.05286006 -0.0126544265
000100 b0 00 a3 3d 15 84 25 3c 96 d2 06 be cc 97 d8 3c
       0.079591155 0.010102292 -0.1316627 0.02643957
000110 46 0b 33 3d 2a b8 14 bc 6d 80 9c bd a8 66 eb 3b
       0.043711923 -0.009077111 -0.07641683 0.0071838684
000120 bf 5d fc 3d f3 e5 88 bd 99 24 e2 3c bf 8e b7 3d
       0.12322568 -0.06684484 0.027605342 0.089627735
000130 ec e1 1b be 8d a1 ef bc c8 b8 88 3c e0 4e 07 be
       -0.15222901 -0.029251838 0.016689673 -0.13213682
000140 2c e9 78 bc 18 3f f7 bd cb ed 01 be 3d 79 84 bd
       -0.015192311 -0.12072581 -0.12688367 -0.06468437
000150 dd 6e 5a bd 1f 41 0f 3c 87 e0 4f bd c4 f9 8c bd
       -0.053328384 0.008743553 -0.050751235 -0.068835765
000160 37 b9 c3 3d d3 7f df 3d 68 41 4a bd b3 9d 04 be
       0.09556811 0.109130524 -0.049378783 -0.12950782
000170 71 b4 a5 bc d6 d2 64 3d 46 92 85 3d 4b 81 b6 3d
       -0.020227643 0.05586513 0.0652204 0.089113794
000180 0c b5 f1 3d 4b 32 da bd a1 93 13 bd 58 0a 06 bd
       0.1180211 -0.10654124 -0.03602946 -0.03272471
000190 e8 3b e5 3d 01 51 09 be 98 77 87 bd 50 e9 ce bd
       0.11193067 -0.13409807 -0.066146076 -0.101030946
0001a0 13 e6 a6 bd 93 df 30 3d ad 50 3d 3c ac cb f5 bd
       -0.08149352 0.043181967 0.011554879 -0.12001738
0001b0 56 2c e2 3b c8 b3 d3 bd 45 29 4d 3d 94 22 dc bd
       0.006902258 -0.10337025 0.050088186 -0.10748783
0001c0 a5 50 7d bd d9 52 2b bd 17 ff 0f 3d 4e 95 da bd
       -0.061844487 -0.041827057 0.035155382 -0.10673009
0001d0 7c 77 6d 3d ef c0 4a 3d 36 a1 8e 3d 2f 2d c7 bd
       0.057975277 0.049500402 0.06964342 -0.09725415
0001e0 24 f3 aa 3d ad 7e 99 bc 43 ba ac bc 87 b2 64 3d
       0.08347157 -0.018737162 -0.02108491 0.05583432
0001f0 65 82 fd 3c e8 04 a0 3d fb 29 4f 3d bf 60 26 bd
       0.030945966 0.07813436 0.050577145 -0.040619608
000200 29 2c 38 3d f7 34 36 3b 46 13 93 3c 3a 4f 0a 3e
       0.04496399 0.0027802566 0.017953526 0.13506785
000210 99 83 92 bd 4a 01 f7 3d b6 52 12 bd 17 ee 45 bd
       -0.071540065 0.12060793 -0.03572341 -0.048322763
000220 48 1d 0f 3e 55 32 5b 3d fb a1 4b bd 7c 59 45 bd
       0.13976014 0.053514797 -0.049715023 -0.048181042
000230 ad 44 23 bc fa bd 89 3c f3 e1 1e be a1 5b 95 bd
       -0.009965104 0.01681422 -0.1551588 -0.072928675
000240 32 34 86 bd bd 9c 07 be 8c fd 03 3d 90 61 0a be
       -0.06552924 -0.13243385 0.032224223 -0.1351378
000250 df 71 8a 3d 15 fc da 3d 6b 0c 34 3d 0a d6 69 bd
       0.067600004 0.10692612 0.043957155 -0.05708889
000260 0b 84 fd 3d 7b 6c 17 3d 66 f3 c9 bc 8f 88 8b 3d
       0.12378701 0.03696869 -0.024652194 0.06813156
000270 17 6a 40 bd 54 ad 38 bb 61 7e 04 be 05 9a 32 3d
       -0.046976175 -0.0028179483 -0.12938835 0.043603916
000280 5f 18 9a 3d 36 06 65 3d 1e a3 8e bd 8b 17 c9 bd
       0.0752418 0.055914126 -0.06964706 -0.098189436
000290 c7 4e 81 bd 8e 13 9a 3d 47 63 d5 bd 9b c8 8d bd
       -0.06313854 0.07523261 -0.10419326 -0.06923028
0002a0 71 35 84 3d b3 0e 86 bd d9 22 22 3d 91 b7 91 bd
       0.06455506 -0.065457724 0.039584015 -0.07115091
0002b0 60 b1 14 3e 60 92 a0 bd d6 63 0a bd cb 96 ff 3c
       0.14520788 -0.07840419 -0.033786617 0.031199833
0002c0 fe 6f ff bc fe 43 8a bd 0d a4 2a bd b8 7e c4 3d
       -0.031181332 -0.0675125 -0.041660357 0.09594482
0002d0 5c a9 0e 3e b8 b7 33 3a 1c 83 d9 bb f8 41 92 bd
       0.13931793 0.00068556843 -0.006637944 -0.07141489
0002e0 58 95 8e bd e8 7d 6a bd 98 2f f4 3d 80 7b 8e 3d
       -0.06962079 -0.05724898 0.1192314 0.069571495
0002f0 b9 6f 0e 3d 3b 7d 08 3e 94 76 b7 3d 1e d8 96 3b
       0.034774516 0.13329022 0.08958164 0.0046034
000300 7f 45 78 bd 86 61 4e bd 70 7e 84 bc c3 0b 83 bd
       -0.06061315 -0.050385974 -0.016173571 -0.06398728
000310 73 69 5c 3d 5e 92 87 3d 60 16 ca bd e5 1e c2 bd
       0.0538115 0.06619714 -0.09867549 -0.09478549
000320 4e 31 01 bd 72 bd 26 bd 1e 5d ce 3d f1 d4 72 bc
       -0.03154116 -0.040708013 0.100763544 -0.014821277
000330 b1 e4 ac 3d 6c 5f f9 bd fd 95 34 3c a1 8f 89 3d
       0.08442057 -0.121764034 0.011022088 0.06716848
000340 38 a9 ea 3c 43 25 ac 3b bc ff 2e bc 7a 41 7f bd
       0.028645143 0.0052534654 -0.010681089 -0.062318303
000350 46 fb 64 3c 02 fa 9e 3d 9c c6 ae 3c 43 4e 6b 3d
       0.013975924 0.07762529 0.021334939 0.057447683
000360 6d f8 ac bd aa 2f f4 bc 93 df 97 bb e1 99 ed bd
       -0.08445821 -0.029807884 -0.0046348064 -0.11601616
000370 f8 12 89 3d c7 c0 9b 3d f6 a9 68 bd a8 2e 08 3e
       0.06693071 0.07605129 -0.056802712 0.13299048
000380 2d c4 10 3e 98 c8 c4 bd f2 e2 ea bd 88 bf aa bd
       0.14137335 -0.09608573 -0.11469068 -0.08337313
000390 5f 71 ae 3d 56 2f ee bd 02 c1 3c 3c 21 d5 c5 bc
       0.085177176 -0.11630122 0.011520626 -0.02414948
0003a0 89 8f c5 bc c8 e6 06 3d f2 bc 47 bd 0d 00 42 bc
       -0.024116294 0.032934934 -0.048764177 -0.011840832
0003b0 2c eb 01 be 8d 45 13 be b3 60 c7 3d 7e 9c 1e bd
       -0.12687367 -0.14382 0.09735241 -0.03872346
0003c0 07 4a d5 3d ff 28 b3 3d d9 a9 a3 3d 22 05 97 3d
       0.1041451 0.08748054 0.0799138 0.07374026
0003d0 3f e0 b2 3c ae 4c 5d bd a0 5e c0 38 0e 67 f0 3d
       0.021835444 -0.054028206 9.172899e-05 0.11738406
0003e0 0e 41 80 bc db 84 a1 bd bf 56 e9 bd d5 c2 96 3d
       -0.01565602 -0.07886668 -0.11393499 0.0736138
0003f0 53 f3 0e be 63 3e 12 3e da 1a 9e 3d 2a 18 51 bd
       -0.13960008 0.14281611 0.07719965 -0.051048435

onnx::LSTM_102 f4 [1, 256, 64]
000000 89 dc 05 be a5 4f 97 3c 52 67 c8 3d 06 46 24 be
       -0.13072409 0.018470595 0.09785332 -0.16042337
000010 2b 27 1d be 97 3c 81 3c 32 46 32 be f6 76 be 3b
       -0.15346973 0.015775962 -0.1740959 0.005812521
000020 ee 1d b0 3c ca 75 12 3e 53 fb ce bd 5c 4e a7 3c
       0.021498647 0.14302745 -0.1010653 0.020423107
000030 36 a3 3f be 0e e3 77 bd 38 bb d0 bd a1 ae 0e 3e
       -0.18714604 -0.06051927 -0.10191959 0.13933803
000040 e9 63 49 be 4b 19 66 be 53 99 25 3e e7 39 b8 3d
       -0.19667019 -0.22470586 0.1617177 0.08995419
000050 18 ba 58 bc 03 46 6b bd 4b 86 84 bd be 4f 37 be
       -0.013227962 -0.057439815 -0.06470927 -0.17901513
000060 13 6a 77 3d 30 01 d9 bd 3a 1c 2f be c4 ca bb 3d
       0.060403895 -0.105959296 -0.17100611 0.09169534
000070 1e cc 1e be 51 8c d6 bc 60 6b 02 be 6d 8b 68 bd
       -0.15507552 -0.026189955 -0.12736273 -0.05677359
000080 ed 0b d2 3d 91 fe 4e ba 7f c5 d0 3d 34 ab fb bc
       0.10256181 -0.000789621 0.101939194 -0.030721284
000090 bb 12 4e 3e 58 dc bb bd ac 28 68 3d 3e 60 a0 bd
       0.20124333 -0.091728866 0.056679413 -0.07830857
0000a0 8e 72 58 be c1 ff 21 3e 64 4b 8d 3c 05 84 52 be
       -0.21137449 0.15820219 0.017247863 -0.20558174
0000b0 76 4f 9e 3d f3 ac 03 3e a2 40 60 bd 42 e2 02 be
       0.0773 0.12858944 -0.05474914 -0.12781623
0000c0 c0 bb 39 be 5a 25 79 3c aa 66 f5 bd 77 78 58 3d
       -0.18138027 0.015206659 -0.11982472 0.05284926
0000d0 cc 9c bf 3d 25 2e 56 bd c7 13 70 bc 2a d0 eb 3d
       0.093560785 -0.0522901 -0.014653153 0.115143135
0000e0 e1 d0 55 be fa 00 5b 3d 22 04 2d 3e 59 50 39 be
       -0.20880462 0.05346773 0.16896108 -0.18097056
0000f0 eb 6c 3b 3d 12 c7 c8 bd b3 d7 00 bd f5 eb e9 bd
       0.04575817 -0.09803595 -0.031455707 -0.11421958
000100 73 f8 9f bd ac 10 c4 3d f0 e0 e5 3d c4 71 08 be
       -0.0781106 0.095734924 0.11224544 -0.13324648
000110 5f fc 94 3d 80 5c 4a 3d bd 93 dc 3d 2b d8 f5 3d
       0.072746985 0.04940462 0.10770366 0.120041214
000120 b1 56 40 3e 2f 04 25 be f0 e7 d5 3d 5b f7 36 be
       0.1878307 -0.16114877 0.10444629 -0.17867796
000130 6c ca 1e 3e c1 fc fa bd b1 6f 96 bd 57 bc f1 3d
       0.15506905 -0.1225524 -0.07345522 0.11803501
000140 29 88 0b be db f7 49 bd b3 82 b2 bd 1e 82 c7 3d
       -0.1362616 -0.04930864 -0.08716335 0.09741615
000150 8d 0b 2f 3e 9c b5 35 3e f7 c5 7d 3d 9a 7e 14 bd
       0.1709425 0.1774506 0.061956372 -0.03625355
000160 92 9b 02 be 3c 32 dd 3d 0d 04 23 3e 88 4f 29 be
       -0.12754658 0.10800597 0.15919514 -0.16534245
000170 ea d8 fc 3d be 6f 5b bd eb f2 61 3d 29 19 3c be
       0.123460606 -0.053573363 0.055163305 -0.18368973
000180 06 f2 de bd ae d8 26 bd e9 bd 88 3d fe 50 26 be
       -0.10886006 -0.040733986 0.066768475 -0.16241834
000190 30 5b 1e bd fc b1 db 3d 63 c3 41 3d 1d cb a8 bc
       -0.038661182 0.10727307 0.047305476 -0.020604664
0001a0 72 b9 2a 3d d2 6b 3b be 43 15 1c bd d0 09 e3 3d
       0.04168076 -0.18302849 -0.038106214 0.11085856
0001b0 44 b8 0e be 10 cc 0b 3e 12 7a a5 bd 49 bd b7 3d
       -0.1393748 0.13652062 -0.08079924 0.0897165
0001c0 4d 4d a2 3c ca ea 35 3e 03 1e ea 3d e2 22 13 be
       0.01981225 0.17765346 0.114315055 -0.14368775
0001d0 da c7 3d be fa 4c 5b bb 43 17 43 3e b2 6e 0e 3d
       -0.18533269 -0.003346263 0.19051842 0.034773536
0001e0 b1 26 3f 3e 25 1e 1d 3d ed 63 09 3d 5b 8f 46 be
       0.18667103 0.038358826 0.033542562 -0.19390623
0001f0 8e 17 34 be 33 da 6f 3e 24 47 73 3e 11 ca 96 bd
       -0.1758711 0.2342308 0.23757607 -0.0736276
000200 47 c7 c0 bd 4d 87 5c bd af 1b ed bd ed b2 e9 bd
       -0.09413009 -0.05383997 -0.11577546 -0.114110805
000210 ea 33 ea 3d b9 bc 02 be 04 80 e0 bd db 1f 30 be
       0.11435683 -0.12767304 -0.10961917 -0.17199652
000220 2d 63 71 be dc 7e 14 be 62 52 27 be ca c8 2b 3e
       -0.23572989 -0.14501518 -0.1634002 0.16775814
000230 b9 6d 07 be 65 74 34 be 7b 4c cd bd 09 89 05 bc
       -0.1322545 -0.17622526 -0.10024353 -0.0081503475
000240 5c 0b 83 3d 82 07 16 be 27 2a bd bc 54 75 38 bd
       0.06398651 -0.14651302 -0.023091389 -0.045033768
000250 b2 07 1e 3e 91 aa f0 bd 7d f5 81 3d 08 14 53 be
       0.15432623 -0.11751283 0.06345651 -0.2061311
000260 b8 19 59 3d ee 24 87 3d 5c c6 73 bd 14 9f da 3d
       0.053003043 0.06598841 -0.059515342 0.10674873
000270 03 d3 06 be bf d5 14 be fd 4d 2a be bf d8 31 3e
       -0.13166432 -0.14534663 -0.16631313 0.17367838
000280 2c 2c 04 be b7 7f 9b bd cc 92 ae bc fb 44 0a be
       -0.12907475 -0.07592719 -0.021310233 -0.13502876
000290 ce 64 15 3e 3a e4 66 3e 5c 61 cc 3d 17 c5 aa bd
       0.14589235 0.22547999 0.09979507 -0.08338373
0002a0 3f 85 ac bc f0 e6 15 be de ac e2 bc 52 89 32 3e
       -0.02105963 -0.14638877 -0.02767032 0.17435196
0002b0 5a 60 16 be 3c 98 fb bd 57 ec 0c 3c 58 77 24 bd
       -0.14685193 -0.12284896 0.00860127 -0.040152878
0002c0 1b 08 b2 3d 33 9e 28 3d 81 fb d6 bd 44 72 5a be
       0.08692952 0.041166496 -0.10497189 -0.21332651
0002d0 db da 31 bd 59 36 05 be ed 0c 7a 3e c7 a6 3e 3e
       -0.043421607 -0.13009013 0.24418993 0.18618308
0002e0 97 62 50 be e0 79 d7 bd 27 57 ba 3d a6 23 f7 bd
       -0.20350109 -0.10521293 0.09098654 -0.12067346
0002f0 98 2d af bd df 12 36 bd 72 23 39 3e 81 07 81 3d
       -0.08553618 -0.04445159 0.18079928 0.063002594
000300 ab b2 6f bd 2d 1a 26 3e 41 ae ad 3d 84 8b 0f be
       -0.05852 0.16220923 0.08480502 -0.14018065
000310 5f 54 16 be 6b 4d 79 bd 8f 31 84 bd af af 58 3d
       -0.14680623 -0.060864847 -0.06454765 0.05290192
000320 b6 68 0b be a4 6e 0c 3a 74 dd 38 3e 10 33 1f 3e
       -0.13614163 0.0005357063 0.18053228 0.15546823
000330 da e4 31 3e d0 e1 27 be 7a 51 33 be 1d 80 24 3d
       0.17372456 -0.16394734 -0.1751155 0.04016124
000340 8b 0d 50 3e 42 38 4d be b2 48 46 3c 23 d7 08 3e
       0.20317666 -0.20040992 0.012102293 0.13363318
000350 95 6f b1 bd 6b 09 17 be f9 4b 3f be 1d 10 a1 3d
       -0.08663861 -0.14749686 -0.18681325 0.078644015
000360 59 af 50 3c 99 64 ae bb e6 38 8f 3b f5 39 f0 3d
       0.012737119 -0.005322051 0.0043707965 0.117298044
000370 04 2d af bd 7d 7d bf 3d 82 85 03 3d 7e 94 48 be
       -0.08553508 0.09350107 0.032109745 -0.19587895
000380 cd a2 66 3d e6 ab 73 be eb e2 c8 3c e4 fb 6c be
       0.056307603 -0.23796043 0.024522265 -0.23142964
000390 ec 4c 19 be 16 e9 a8 3c ef 21 0c be fb d8 ee 3d
       -0.1497075 0.020618957 -0.1368482 0.116624795
0003a0 cf 21 63 be dc 63 0c 3e 89 97 e1 3d 18 72 0e 3e
       -0.22180866 0.13709968 0.11015231 0.13910711
0003b0 8d 9b 07 be ab 1e b2 bc fd e5 26 be 0e 37 85 3d
       -0.13242932 -0.02174314 -0.16298671 0.065046415
0003c0 a2 c7 47 be 14 bb 41 bd fc db 0d be 55 12 fb 3d
       -0.19509748 -0.047297552 -0.13853449 0.12259356
0003d0 c0 91 41 bd b6 f9 d1 3c 78 1b dc 3c c3 cf 2f be
       -0.04725814 0.025631767 0.026868567 -0.17169099
0003e0 9c 65 21 3e 3c 95 10 be 5b d7 13 be 65 37 25 3d
       0.15761417 -0.14119428 -0.1443762 0.04033603
0003f0 bb b0 51 be 18 b9 13 be 04 66 5f bc 07 84 9a 3b
       -0.20477574 -0.14426076 -0.013635162 0.004715446
