code/selfparking/mla/results/test_02/Car/Car-4224.onnx (onnx, 685836 bytes, 9 tensors)

network_body._body_endoder.seq_layers.0.weight f4 [256, 85]
-0.13659044 0.07189306 0.19089375 0.021283407 0.062958345 0.0660358 -0.0978831 0.15301795
0.024103029 -0.10170459 -0.17907906 -0.017434014 -0.016174072 -0.081922546 -0.038934104 0.074566886
0.017467724 0.036232904 0.25547925 -0.061305653 0.1564891 0.16096489 0.06945669 -0.19152658
-0.058458935 0.05516669 -0.051213324 0.11370151 0.1491314 0.26788118 0.041566063 -0.23852238
-0.022390682 -0.068786085 0.014433066 0.15737742 0.12639807 -0.1047792 0.031918548 -0.046325587
-0.09059022 -0.044972565 -0.18852124 0.07671514 0.082701884 -0.11192494 0.043332502 -0.089537464
0.13397998 -0.01346171 -0.20915255 0.003929649 0.015455876 -0.18416879 -0.15845333 0.023274137
-0.019239549 0.027820056 -0.08382378 0.12594357 0.177005 -0.11584543 0.087462366 0.021879189
-0.20078821 -0.16367197 -0.094124146 0.065072425 -0.08517406 0.07215356 -0.06475374 0.0035060092
0.042005625 -0.05403106 -0.034921184 -0.041494362 0.09837178 -0.22925979 -0.041151434 -0.10146624
0.11367714 0.08626061 0.06450253 -0.026353408 0.12271054 -0.050283127 0.19082676 0.17145818
-0.1891369 -0.0313952 -0.006196313 0.14810464 0.06342196 0.1207433 -0.009138302 -0.09497721
0.16758485 -0.086578004 -0.19738317 0.01576934 -0.0016975059 -0.15239517 -0.11805268 -0.21408275
0.19278792 -0.17941365 0.09653336 -0.06619984 -0.09535117 -0.07188288 -0.12838194 0.07547363
-0.06639638 0.01775337 -0.042803958 -0.179764 0.12579742 -0.16938056 0.06476927 0.07118724
-0.028206212 0.11867283 -0.045817252 -0.10663549 -0.30478224 0.040517393 -0.021056313 0.108627155
-0.08562127 0.080666654 -0.04220166 -0.20411642 -0.012240578 0.013359172 0.029039005 -0.065296374
-0.04789856 -0.11589643 0.0032760191 -0.12722707 -0.028325379 -0.045751445 0.1212425 0.024647621
-0.14777838 0.27150145 0.22948235 -0.059164338 0.14629503 0.024811106 -0.16520149 0.02942556
-0.053576358 0.075238794 0.093787104 0.11205159 -0.098663084 0.0047676344 -0.027034108 -0.10526365
0.013395891 -0.1388693 -0.06821269 0.08722057 -0.062055655 0.013345893 -0.031511527 -0.26502076
-0.0199964 -0.12439499 -0.024578525 0.020506358 0.05986788 -0.07475271 0.138808 0.20673412
-0.18687208 0.06622058 -0.04562147 -0.004200944 0.20892785 -0.060029976 -0.12971471 0.042265285
-0.0110192355 -0.025686681 0.083761476 0.014554394 0.12842332 0.01460861 -0.0049189534 0.12611613
-0.03532205 -0.04696131 0.03372737 0.0016082386 -0.1707581 0.06791744 0.033362456 -0.03775434
0.059258085 0.03190945 0.11556594 -0.031832222 0.015799453 -0.010290418 0.073428124 -0.039288614
-0.1023084 0.009581209 -0.089583434 0.020227231 0.045455817 -0.14247891 -0.08763432 0.09322026
0.20208547 0.03461019 -0.19251387 0.0124724675 -0.056843176 -0.18372276 -0.09377124 0.13315414
-0.06479198 -0.107914336 -0.08908036 0.10123149 0.08165154 -0.10286106 0.10628625 0.03459709
-0.068470545 -0.025945842 -0.05122309 0.11665106 -0.10211285 -0.0618624 -0.12549102 -0.06372918
0.08761186 0.13073832 -0.10991564 0.03282047 0.0036886851 -0.10274318 0.09142872 0.13904996
-0.043661274 -0.016108537 0.095327295 0.07012379 0.079579644 0.05003277 0.18931125 0.03678572
00000000: 5dde 0bbe ab3c 933d a779 433e 8a5a ae3c
00000010: 4ef0 803d c73d 873d ef76 c8bd bdb0 1c3e
00000020: b773 c53c 7f4a d0bd 8060 37be c7d1 8ebc
00000030: 7d7f 84bc 02c7 a7bd 5e79 1fbd 86b6 983d
00000040: 7918 8f3c f468 143d 2dce 823e a31b 7bbd
00000050: ae3e 203e fbd3 243e 4f3f 8e3d 8b1f 44be
00000060: a372 6fbd 78f6 613d 10c5 51bd 56dc e83d
00000070: e7b5 183e b927 893e 2d41 2a3d 363f 74be
00000080: aa6c b7bc b8df 8cbd ab78 6c3c 8c27 213e
00000090: 7f6e 013e 7a96 d6bd 06bd 023d e6bf 3dbd
000000a0: 5e87 b9bd 2735 38bd b60b 41be d41c 9d3d
000000b0: 9b5f a93d e738 e5bd 6c7d 313d 6b5f b7bd
000000c0: 0c32 093e 818e 5cbc 162c 56be 49c4 803b
000000d0: a43a 7d3c be96 3cbe 9741 22be 67a9 be3c
000000e0: 429c 9dbc e3e6 e33c cdab abbd 5af7 003e
000000f0: cc40 353e 5e40 edbd 781f b33d fc3b b33c
00000100: 6d9b 4dbe a099 27be 29c4 c0bd b144 853d
00000110: bd6f aebd 3fc5 933d 9c9d 84bd 13c5 653b
00000120: 170e 2c3d ac4f 5dbd 8409 0fbd fef5 29bd
00000130: 2577 c93d 14c3 6abe 688e 28bd 88cd cfbd
00000140: 8fcf e83d 67a9 b03d e719 843d 1ae3 d7bc
00000150: aa4f fb3d aef5 4dbd 1768 433e bc92 2f3e
00000160: 1aad 41be 4198 00bd 710a cbbb bea8 173e
00000170: 5fe3 813d 4348 f73d d1b8 15bc 6983 c2bd
00000180: 5d9b 2b3e cf4f b1bd d01e 4abe b42e 813c
00000190: d97e deba 7b0d 1cbe 9ac5 f1bd 8238 5bbe
000001a0: 326a 453e 36b8 37be 48b3 c53d c893 87bd
000001b0: 7947 c3bd 5537 93bd 8e76 03be eb91 9a3d
000001c0: d3fa 87bd 846f 913c 3453 2fbd 0e14 38be
000001d0: 0ad1 003e 1972 2dbe c0a5 843d 9eca 913d
000001e0: b710 e7bc be0a f33d dfaa 3bbd b563 dabd
000001f0: 6b0c 9cbe 91f5 253d 4a7e acbc ea77 de3d
00000200: 345a afbd 8f34 a53d a6db 2cbd e503 51be
00000210: b58c 48bc 6ee0 5a3c 35e3 ed3c 1bba 85bd
00000220: 4831 44bd 1c5b edbd 7bb2 563b d047 02be
00000230: a00a e8bc de65 3bbd fd4d f83d cfe9 c93c
00000240: 3753 17be 3d02 8b3e 6cfd 6a3e 4e56 72bd
00000250: 5dce 153e a940 cb3c 942a 29be df0d f13c
00000260: e272 5bbd cc16 9a3d 7413 c03d 4e7b e53d
00000270: df0f cabd d139 9c3b a276 ddbc 7894 d7bd
00000280: 707a 5b3c c133 0ebe 18b3 8bbd b3a0 b23d
00000290: 122e 7ebd bba8 5a3c 3b12 01bd cdb0 87be
000002a0: 7ecf a3bc cdc2 febd e758 c9bc f3fc a73c
000002b0: 0638 753d f317 99bd af23 0e3e 1cb2 533e
000002c0: 655b 3fbe a89e 873d 94dd 3abd 13a8 89bb
000002d0: 2ff1 553e fee1 75bd efd3 04be 5d1e 2d3d
000002e0: 068a 34bc e06c d2bc 238b ab3d 8e75 6e3c
000002f0: 6781 033e f458 6f3c 2c2f a1bb 9624 013e
00000300: dbad 10bd 815a 40bd b625 0a3d 88cb d23a
00000310: 36db 2ebe 4c18 8b3d 12a7 083d 4ba4 1abd
00000320: 9bb8 723d 7cb3 023d d6ad ec3d 8162 02bd
00000330: db6d 813c 2499 28bc 7c61 963d 19ed 20bd
00000340: 1187 d1bd 81fa 1c3c 8577 b7bd 94b3 a53c
00000350: e12f 3a3d fee5 11be 9f79 b3bd 44ea be3d
00000360: 7eef 4e3e 6ac3 0d3d 5b22 45be 5259 4c3c
00000370: 64d4 68bd d221 3cbe 230b c0bd 8f59 083e
00000380: a8b1 84bd 3102 ddbd c46f b6bd 7552 cf3d
00000390: ec38 a73d d2a8 d2bd 9bac d93d aeb5 0d3d
000003a0: 493a 8cbd 608c d4bc 4ecf 51bd c0e6 ee3d
000003b0: 8b20 d1bd 6e63 7dbd b880 00be 7284 82bd
000003c0: d96d b33d 44e0 053e 731b e1bd c26e 063d
000003d0: debd 713b 046b d2bd fb3e bb3d 1d63 0e3e
000003e0: 2ad6 32bd 0df6 83bc f53a c33d 109d 8f3d
000003f0: a7fa a23d 29ef 4c3d cfda 413e a0ac 163d

network_body._body_endoder.seq_layers.0.bias f4 [256]
0.0 0.0 0.0 0.0 0.0 0.0 0.0 0.0
0.0 0.0 0.0 0.0 0.0 0.0 0.0 0.0
0.0 0.0 0.0 0.0 0.0 0.0 0.0 0.0
0.0 0.0 0.0 0.0 0.0 0.0 0.0 0.0
0.0 0.0 0.0 0.0 0.0 0.0 0.0 0.0
0.0 0.0 0.0 0.0 0.0 0.0 0.0 0.0
0.0 0.0 0.0 0.0 0.0 0.0 0.0 0.0
0.0 0.0 0.0 0.0 0.0 0.0 0.0 0.0
0.0 0.0 0.0 0.0 0.0 0.0 0.0 0.0
0.0 0.0 0.0 0.0 0.0 0.0 0.0 0.0
0.0 0.0 0.0 0.0 0.0 0.0 0.0 0.0
0.0 0.0 0.0 0.0 0.0 0.0 0.0 0.0
0.0 0.0 0.0 0.0 0.0 0.0 0.0 0.0
0.0 0.0 0.0 0.0 0.0 0.0 0.0 0.0
0.0 0.0 0.0 0.0 0.0 0.0 0.0 0.0
0.0 0.0 0.0 0.0 0.0 0.0 0.0 0.0
0.0 0.0 0.0 0.0 0.0 0.0 0.0 0.0
0.0 0.0 0.0 0.0 0.0 0.0 0.0 0.0
0.0 0.0 0.0 0.0 0.0 0.0 0.0 0.0
0.0 0.0 0.0 0.0 0.0 0.0 0.0 0.0
0.0 0.0 0.0 0.0 0.0 0.0 0.0 0.0
0.0 0.0 0.0 0.0 0.0 0.0 0.0 0.0
0.0 0.0 0.0 0.0 0.0 0.0 0.0 0.0
0.0 0.0 0.0 0.0 0.0 0.0 0.0 0.0
0.0 0.0 0.0 0.0 0.0 0.0 0.0 0.0
0.0 0.0 0.0 0.0 0.0 0.0 0.0 0.0
0.0 0.0 0.0 0.0 0.0 0.0 0.0 0.0
0.0 0.0 0.0 0.0 0.0 0.0 0.0 0.0
0.0 0.0 0.0 0.0 0.0 0.0 0.0 0.0
0.0 0.0 0.0 0.0 0.0 0.0 0.0 0.0
0.0 0.0 0.0 0.0 0.0 0.0 0.0 0.0
0.0 0.0 0.0 0.0 0.0 0.0 0.0 0.0
00000000: 0000 0000 0000 0000 0000 0000 0000 0000
00000010: 0000 0000 0000 0000 0000 0000 0000 0000
00000020: 0000 0000 0000 0000 0000 0000 0000 0000
00000030: 0000 0000 0000 0000 0000 0000 0000 0000
00000040: 0000 0000 0000 0000 0000 0000 0000 0000
00000050: 0000 0000 0000 0000 0000 0000 0000 0000
00000060: 0000 0000 0000 0000 0000 0000 0000 0000
00000070: 0000 0000 0000 0000 0000 0000 0000 0000
00000080: 0000 0000 0000 0000 0000 0000 0000 0000
00000090: 0000 0000 0000 0000 0000 0000 0000 0000
000000a0: 0000 0000 0000 0000 0000 0000 0000 0000
000000b0: 0000 0000 0000 0000 0000 0000 0000 0000
000000c0: 0000 0000 0000 0000 0000 0000 0000 0000
000000d0: 0000 0000 0000 0000 0000 0000 0000 0000
000000e0: 0000 0000 0000 0000 0000 0000 0000 0000
000000f0: 0000 0000 0000 0000 0000 0000 0000 0000
00000100: 0000 0000 0000 0000 0000 0000 0000 0000
00000110: 0000 0000 0000 0000 0000 0000 0000 0000
00000120: 0000 0000 0000 0000 0000 0000 0000 0000
00000130: 0000 0000 0000 0000 0000 0000 0000 0000
00000140: 0000 0000 0000 0000 0000 0000 0000 0000
00000150: 0000 0000 0000 0000 0000 0000 0000 0000
00000160: 0000 0000 0000 0000 0000 0000 0000 0000
00000170: 0000 0000 0000 0000 0000 0000 0000 0000
00000180: 0000 0000 0000 0000 0000 0000 0000 0000
00000190: 0000 0000 0000 0000 0000 0000 0000 0000
000001a0: 0000 0000 0000 0000 0000 0000 0000 0000
000001b0: 0000 0000 0000 0000 0000 0000 0000 0000
000001c0: 0000 0000 0000 0000 0000 0000 0000 0000
000001d0: 0000 0000 0000 0000 0000 0000 0000 0000
000001e0: 0000 0000 0000 0000 0000 0000 0000 0000
000001f0: 0000 0000 0000 0000 0000 0000 0000 0000
00000200: 0000 0000 0000 0000 0000 0000 0000 0000
00000210: 0000 0000 0000 0000 0000 0000 0000 0000
00000220: 0000 0000 0000 0000 0000 0000 0000 0000
00000230: 0000 0000 0000 0000 0000 0000 0000 0000
00000240: 0000 0000 0000 0000 0000 0000 0000 0000
00000250: 0000 0000 0000 0000 0000 0000 0000 0000
00000260: 0000 0000 0000 0000 0000 0000 0000 0000
00000270: 0000 0000 0000 0000 0000 0000 0000 0000
00000280: 0000 0000 0000 0000 0000 0000 0000 0000
00000290: 0000 0000 0000 0000 0000 0000 0000 0000
000002a0: 0000 0000 0000 0000 0000 0000 0000 0000
000002b0: 0000 0000 0000 0000 0000 0000 0000 0000
000002c0: 0000 0000 0000 0000 0000 0000 0000 0000
000002d0: 0000 0000 0000 0000 0000 0000 0000 0000
000002e0: 0000 0000 0000 0000 0000 0000 0000 0000
000002f0: 0000 0000 0000 0000 0000 0000 0000 0000
00000300: 0000 0000 0000 0000 0000 0000 0000 0000
00000310: 0000 0000 0000 0000 0000 0000 0000 0000
00000320: 0000 0000 0000 0000 0000 0000 0000 0000
00000330: 0000 0000 0000 0000 0000 0000 0000 0000
00000340: 0000 0000 0000 0000 0000 0000 0000 0000
00000350: 0000 0000 0000 0000 0000 0000 0000 0000
00000360: 0000 0000 0000 0000 0000 0000 0000 0000
00000370: 0000 0000 0000 0000 0000 0000 0000 0000
00000380: 0000 0000 0000 0000 0000 0000 0000 0000
00000390: 0000 0000 0000 0000 0000 0000 0000 0000
000003a0: 0000 0000 0000 0000 0000 0000 0000 0000
000003b0: 0000 0000 0000 0000 0000 0000 0000 0000
000003c0: 0000 0000 0000 0000 0000 0000 0000 0000
000003d0: 0000 0000 0000 0000 0000 0000 0000 0000
000003e0: 0000 0000 0000 0000 0000 0000 0000 0000
000003f0: 0000 0000 0000 0000 0000 0000 0000 0000

network_body._body_endoder.seq_layers.2.weight f4 [256, 256]
-0.054288007 0.077072695 -0.024516702 -0.014484355 0.03253428 0.08367673 0.04291479 -0.036291003
-0.05830975 0.044725053 -0.032137774 -0.06926885 0.013631713 0.05819396 -0.00646065 0.031186929
-0.11993904 0.044402488 0.0412224 0.057569157 0.070272505 -0.011003452 -0.038449235 -0.046298627
-0.016132262 0.022933563 0.074442245 0.09516865 0.056500413 -0.03316568 0.043194253 -0.029255949
0.0030116122 -0.009605574 0.058255933 0.156547 0.021164244 0.0871183 0.005035977 -0.0007012047
-0.10062667 -0.0431052 0.017509645 -0.020273786 0.07714089 -0.018867461 -0.028242737 0.034684326
0.09127056 -0.08151987 -0.13072653 0.038708534 -0.038794186 0.05543854 -0.052893903 -0.07703413
-0.057871044 -0.019952662 -0.057101853 -0.035031598 -0.15335445 -0.026900155 -0.04757772 -0.080602296
-0.09255562 -0.013669468 0.009707726 0.01223531 0.110713094 -0.018680451 -0.00811942 0.018594662
0.031125207 0.0025928398 0.096923985 0.103761114 -0.01926725 -0.040084865 0.040387746 -0.032529432
0.015346921 -0.06255928 0.09382749 0.1237565 -0.020364063 0.120454386 -0.0660646 0.059734587
0.023886109 0.029924959 -0.0444075 0.04510313 -0.04921786 -0.114860535 0.00093878724 0.07199833
-0.12793341 0.11864322 -0.04305574 -0.022135299 0.01476527 0.04112897 0.12533325 -0.045190196
-0.006361772 0.04792074 -0.01670441 -0.0154499365 0.015500589 0.016542938 -0.037402056 0.09525428
0.023384647 0.047204945 -0.039222024 -0.039877642 -0.053868845 -0.081012055 0.04891744 0.04083292
-0.090802975 0.068555646 -0.0571992 -0.02735117 0.04072175 0.025620604 0.007169626 0.011025492
-0.03658394 -0.034388576 -0.092535764 0.017720308 0.033724945 0.013603341 -0.04055625 -0.009631553
0.014521893 0.07206867 0.019874278 -0.030473623 0.04507358 0.040062834 0.078490086 0.0940218
0.08156627 0.0037859986 0.0085936915 -0.03582242 -0.029892607 -0.07048211 -0.04361777 0.042569846
0.07754638 -0.015367204 -0.10034779 0.050443217 0.01162317 -0.060682546 0.04438043 -0.088420555
-0.05481384 -0.07325 -0.09066106 -0.0072475253 -0.07522158 -0.08741109 -0.09858339 -0.08002659
0.07158375 0.1237567 -0.026296157 0.013128144 -0.013241761 0.06815771 0.06659455 -0.046714522
-0.012187398 0.06032994 0.04960759 -0.012550944 0.04201671 0.10415239 -0.06707443 0.050186895
0.052690815 0.061662182 -0.0314428 -0.0015464949 -0.15152931 0.03769906 0.009235293 0.05449778
0.069429055 -0.02192068 -0.019108888 0.015863614 -0.023490163 -0.015506545 0.022704806 0.03674873
-0.07910556 0.006419512 -0.042879086 -0.12920764 -0.025189536 -0.055184845 -0.039417986 -0.12175546
-0.081898056 -0.010162739 0.006753939 0.0656004 0.06366291 -0.0593247 -0.044914868 -0.031787932
-0.03337036 -0.10419829 0.028272016 -0.008394973 -0.1226486 -0.02293981 0.066072576 0.005515422
-0.11626193 0.12760702 0.083494484 0.056180447 -0.041239608 0.033470366 -0.021924064 -0.015050389
-0.08923267 0.075119995 -0.05586074 0.11411339 0.030668024 -0.1319358 0.025890077 0.010670022
-0.04462152 -0.024050212 0.02944168 -0.0970475 0.10259435 0.059001163 -0.052138716 0.003961314
-0.026119322 0.012864553 0.071298875 0.003781461 0.013699543 0.03813591 0.0028607857 0.021092894
00000000: 1a5d 5ebd 4ad8 9d3d 40d7 c8bc ca4f 6dbc
00000010: aa42 053d b55e ab3d 6bc7 2f3d e0a5 14bd
00000020: 34d6 6ebd 9e31 373d e6a2 03bd d4dc 8dbd
00000030: 8c57 5f3c ca5c 6e3d dcb3 d3bb bb7b ff3c
00000040: 99a2 f5bd 62df 353d d2d8 283d a3cd 6b3d
00000050: 08eb 8f3d d347 34bc f27c 1dbd a1a3 3dbd
00000060: ce27 84bc 2bdf bb3c 2d75 983d c8e7 c23d
00000070: fa6c 673d bcd8 07bd 75ec 303d 2caa efbc
00000080: 785e 453b b360 1dbc c69d 6e3d db4d 203e
00000090: a360 ad3c 146b b23d d604 a53b 0dd1 37ba
000000a0: 5b15 cebd 148f 30bd 6370 8f3c 3615 a6bc
000000b0: 0bfc 9d3d ef8f 9abc 505d e7bc 2711 0e3d
000000c0: 0fec ba3d e4f3 a6bd 2ddd 05be d78c 1e3d
000000d0: a7e6 1ebd 8613 633d 47a7 58bd 12c4 9dbd
000000e0: 300a 6dbd c473 a3bc a2e3 69bd 4b7d 0fbd
000000f0: f308 1dbe b75d dcbc dbe0 42bd d112 a5bd
00000100: cd8d bdbd e8f5 5fbc 270d 1f3c 9c76 483c
00000110: 8cbd e23d bf07 99bc 5107 05bc d553 983c
00000120: 4afa fe3c a2ec 293b 1580 c63d b580 d43d
00000130: 5ad6 9dbc 0730 24bd 9f6d 253d 953d 05bd
00000140: a771 7b3c 141f 80bd a128 c03d 0c74 fd3d
00000150: 89d2 a6bc cab0 f63d e14c 87bd 41ac 743d
00000160: cdac c33c 3025 f53c a4e4 35bd 0fbe 383d
00000170: ab98 49bd 003c ebbd f218 763a dc73 933d
00000180: fa00 03be 37fb f23d 375b 30bd 1655 b5bc
00000190: 08ea 713c da76 283d 5c57 003e 5b19 39bd
000001a0: 6976 d0bb 8a48 443d b0d7 88bc bb21 7dbc
000001b0: 2ff6 7d3c 0e85 873c e632 19bd ad14 c33d
000001c0: 2991 bf3c f959 413d 46a7 20bd bd56 23bd
000001d0: 94a5 5cbd a6e9 a5bd a75d 483d 6c40 273d
000001e0: e9f6 b9bd e766 8c3d b549 6abd 900f e0bc
000001f0: dacb 263d 4de2 d13c 2fef ea3b 44a4 343c
00000200: 0bd9 15bd 09db 0cbd 6483 bdbd 2e2a 913c
00000210: 2b23 0a3d 8ce0 5e3c 4f1e 26bd a9cd 1dbc
00000220: 3ced 6d3c bd98 933d 62cf a23c d2a3 f9bc
00000230: 139f 383d ed18 243d 69bf a03d 808e c03d
00000240: 370c a73d 841e 783b 8ecc 0c3c 88ba 12bd
00000250: 57e1 f4bc ed58 90bd 8ca8 32bd b85d 2e3d
00000260: a3d0 9e3d bac6 7bbc 2483 cdbd 8c9d 4e3d
00000270: 1c6f 3e3c 438e 78bd 41c8 353d d615 b5bd
00000280: 7a84 60bd 1904 96bd 81ac b9bd a67c edbb
00000290: c60d 9abd 9604 b3bd 17e6 c9bd fbe4 a3bd
000002a0: 809a 923d 2774 fd3d 0a6b d7bc 6d17 573c
000002b0: f9f3 58bc 4596 8b3d b962 883d ba57 3fbd
000002c0: a7ad 47bc 871c 773d 5431 4b3d 7aa2 4dbc
000002d0: b719 2c3d d94d d53d 525e 89bd c690 4d3d
000002e0: 53d2 573d 7c91 7c3d 2aca 00bd c2b3 caba
000002f0: 802a 1bbe 546a 1a3d a04f 173c 1039 5f3d
00000300: d230 8e3d ff92 b3bc 3e8a 9cbc 69f4 813c
00000310: 716e c0bc 2a0f 7ebc 6eff b93c d685 163d
00000320: 1902 a2bd c55a d23b fba1 2fbd 024f 04be
00000330: 495a cebc 8109 62bd c174 21bd ed5a f9bd
00000340: 2bba a7bd 9e81 26bc 2650 dd3b 8159 863d
00000350: b361 823d 75fe 72bd a7f8 37bd 1034 02bd
00000360: 5caf 08bd ea65 d5bd b79a e73c 128b 09bc
00000370: 302f fbbd 45ec bbbc 0f51 873d b7ba b43b
00000380: bc1a eebd 6aab 023e 28ff aa3d 781d 663d
00000390: ddea 28bd 3918 093d 189a b3bc e895 76bc
000003a0: 9ebf b6bd 83d8 993d 3bce 64bd 48b4 e93d
000003b0: 823b fb3c 2e1a 07be 6d17 d43c 51d1 2e3c
000003c0: 0ec5 36bd f304 c5bc ae2f f13c d7c0 c6bd
000003d0: fd1c d23d 34ab 713d 688f 55bd e9cd 813b
000003e0: 30f8 d5bc d9c5 523c 2505 923d 63d2 773b
000003f0: 0c74 603c 6634 1c3d 057c 3b3b 01cb ac3c

action_model._continuous_distribution.log_sigma f4 [1, 6]
0.0 0.0 0.0 0.0 0.0 0.0
00000000: 0000 0000 0000 0000 0000 0000 0000 0000
00000010: 0000 0000 0000 0000

action_model._continuous_distribution.mu.weight f4 [6, 64]
-0.028653562 0.03835728 -0.00937117 0.052565545 -0.033891805 -0.01851633 -0.021369271 -0.02610511
0.041102573 0.050980914 0.005656698 -0.0076321447 0.0053037 0.013489897 -0.0060614883 0.021279499
-0.028183082 0.000632166 -0.020232085 0.05448378 -0.001233009 0.003889214 -0.014238568 0.0066994256
-0.0010299957 0.05792881 0.005885178 0.0026506612 0.022969376 0.066960834 0.02624028 0.02837731
0.044931468 0.010769847 0.01509172 -0.056005415 0.013725616 0.010928842 0.013672464 0.051115688
0.0011114916 -0.033668112 0.011151478 0.014915283 -0.011671922 -0.01380589 -0.016619714 0.036067527
0.04149872 -0.013867139 0.028369937 0.013104393 -0.0056237276 0.0014441778 0.020268075 -0.0037156702
-0.053330254 0.024269128 -0.01866936 -0.03912242 -0.0051949597 -0.0034395214 -0.00025249645 0.018110737
0.03380419 -0.012879896 -0.010512933 0.01941851 0.030113265 -0.036408797 -0.017207628 0.003506364
-0.017958557 -0.041882303 -0.024380652 0.02043039 0.008538576 0.025764609 -0.0044248844 0.020721737
0.01779335 -0.024923168 -0.0014691997 0.029883582 0.022531243 -0.020595644 -0.0087095015 0.032583773
-0.027827948 -0.015971337 -0.015508327 -0.013741461 0.0069429274 -0.0059966347 0.012596361 0.020532075
-0.0066617094 0.017598309 -0.045543592 0.07124968 -0.008533019 0.0358793 0.02717563 -0.013252725
0.016374484 -0.0047805086 -0.046365093 -0.0395459 0.024758128 -0.008679005 0.008943334 -0.039717503
-0.007909502 -0.005049677 0.043605838 0.014338243 0.010923909 -0.0027329463 -0.0057497914 0.022828545
0.012609239 0.05193449 -0.020511096 0.002122389 -0.022645697 -0.04044917 0.0095945345 0.045548473
0.008477643 -0.0009731729 0.008266054 -0.043173876 -0.028899327 -0.01637878 0.053160455 0.0042885947
0.035855886 0.013085556 -0.011514549 0.023297425 -0.02049183 0.05021576 0.01680948 -0.019048376
0.03803575 0.03410089 -0.011007146 -0.004722526 -0.037794676 -0.030150358 -0.028286088 0.00047341012
-0.01223108 0.0018346902 0.014947525 -0.014222982 0.0020248627 0.0465786 -0.037734564 -0.031302787
0.011472792 -0.049980488 -0.011717191 -0.061825015 -0.06812951 0.04399592 0.018148493 0.043940548
-0.012099354 0.03081326 0.0031222862 0.0018271359 0.008036283 -0.012400723 0.0050680023 -0.04274744
-0.01698676 -0.07681399 -0.01989363 0.012337744 -0.010349373 -0.021721317 0.0046912404 -0.011041251
-0.05271597 -0.0085741645 0.035046548 -0.027486 0.036954932 0.01576556 -0.022491757 -0.03701616
0.0035916783 0.0029974615 0.022811715 -0.036119483 0.016537787 0.03452642 0.027915731 0.032823227
0.04275283 0.005092474 -0.014138974 0.0011587344 -0.014515512 -0.018252354 -0.019984655 -0.017492026
0.00092690374 -0.012766741 0.0004516154 -0.020105707 -0.040971115 0.050216008 -0.002137942 -0.0016587895
0.013845503 0.0038758905 0.023450825 0.005870682 0.028090224 -0.017503556 -0.004058229 -0.0070617753
-0.018254299 0.030598566 -0.036932606 -0.013383113 -0.0057816426 0.051528692 0.0040435134 -0.008972159
0.012117862 -0.0235421 -0.01202681 -0.040859766 -0.00065527455 0.0142809795 0.025807505 0.050348997
0.01195073 0.004439516 0.020651521 0.005814677 -0.012892826 -0.016467793 0.041617144 0.027629798
-0.003615206 0.0046177316 -0.0034248456 -0.00657599 0.035473596 0.0117608635 0.022664478 -0.0021812164
00000000: e0ba eabc 861c 1d3d 8989 19bc f84e 573d
00000010: 22d2 0abd 8faf 97bc 9c0e afbc 62da d5bc
00000020: 2c5b 283d 5dd1 503d d25b b93b 1217 fabb
00000030: a9ca ad3b bb04 5d3c 739f c6bb 5852 ae3c
00000040: 35e0 e6bc f1b7 253a c2bd a5bc 622a 5f3d
00000050: eb9c a1ba 2fe2 7e3b e248 69bc db86 db3b
00000060: ec00 87ba c346 6d3d 74d8 c03b b7b6 2d3b
00000070: 462a bc3c c322 893d dbf5 d63c 8877 e83c
00000080: 0f0a 383d 0374 303c 4343 773c ef65 65bd
00000090: 68e1 603c e30e 333c 7802 603c af5e 513d
000000a0: 78af 913a 93e7 09bd b0b4 363c 3b5f 743c
000000b0: 973b 3fbc 1a32 62bc 1126 88bc 8bbb 133d
000000c0: 90fa 293d ff32 63bc 1268 e83c cfb3 563c
000000d0: 3f47 b8bb 914a bd3a 3c09 a63c 9a82 73bb
000000e0: d370 5abd 0dd0 c63c 7cf0 98bc d53e 20bd
000000f0: 7b3a aabb 9869 61bb 8061 84b9 f85c 943c
00000100: 4376 0a3d 3306 53bc 703e 2cbc 9113 9f3c
00000110: 18b0 f63c 6421 15bd 03f7 8cbc 07cb 653b
00000120: d31d 93bc c78c 2bbd efb9 c7bc a25d a73c
00000130: 62e5 0b3c 4d10 d33c 9ffe 90bb a2c0 a93c
00000140: 5cc3 913c ac2b ccbc 2992 c0ba 6ace f43c
00000150: 7193 b83c 32b8 a8bc 4cb2 0ebc 9076 053d
00000160: 70f7 e3bc 52d6 82bc a316 7ebc dd23 61bc
00000170: 7f81 e33b 6b7f c4bb f860 4e3c e232 a83c
00000180: 784a dabb 542a 903c eb8b 3abd 5aeb 913d
00000190: 13ce 0bbc 2cf6 123d 6d9f de3c f521 59bc
000001a0: c823 863c d0a5 9cbb 53e9 3dbd e2fa 21bd
000001b0: 8fd1 ca3c 6332 0ebc 1087 123c d2ae 22bd
000001c0: db96 01bc c377 a5bb 099c 323d f3ea 6a3c
000001d0: 32fa 323c 3b1b 33bb bf68 bcbb ee02 bb3c
000001e0: fb96 4e3c 43b9 543d e306 a8bc c717 0b3b
000001f0: 7883 b9bc 07ae 25bd 6532 1d3c 0991 3a3d
00000200: d0e5 0a3c 871c 7fba 586e 073c 17d7 30bd
00000210: 48be ecbc cb2c 86bc c7be 593d 5787 8c3b
00000220: 9fdd 123d cd64 563c 85a7 3cbc 3eda be3c
00000230: 7bde a7bc 0aaf 4d3d 09b4 893c 570b 9cbc
00000240: 60cb 1b3d 60ad 0b3d 5157 34bc 6bbf 9abb
00000250: 97ce 1abd e2fd f6bc 3ab8 e7bc 0834 f839
00000260: de64 48bc fd79 f03a 77e6 743c 8307 69bc
00000270: 8fb3 043b 34c9 3e3d 8f8f 1abd 5a37 00bd
00000280: 61f8 3b3c 57b8 4cbd 76f9 3fbc 3a3c 7dbd
00000290: 7c87 8bbd 1135 343d 26ac 943c 01fb 333d
000002a0: 5e3c 46bc 176c fc3c 459f 4c3b 827c ef3a
000002b0: 9daa 033c 672c 4bbc 7c11 a63b f117 2fbd
000002c0: d127 8bbc a750 9dbd f7f7 a2bc 4024 4a3c
000002d0: 6b90 29bc e7f0 b1bc fab8 993b 5de6 34bc
000002e0: b3ec 57bd a77a 0cbc f88c 0f3d 522a e1bc
000002f0: 0e5e 173d c726 813c a240 b8bc 429e 17bd
00000300: 5d62 6b3b 0f71 443b a2df ba3c 06f2 13bd
00000310: 417a 873c 936b 0d3d 88af e43c a671 063d
00000320: 971d 2f3d c5de a63b 28a7 67bc ade0 973a
00000330: 78d2 6dbc f685 95bc dcb6 a3bc 704b 8fbc
00000340: 75fb 723a 982b 51bc cbc6 ec39 b9b4 a4bc
00000350: 54d1 27bd 4daf 4d3d b71c 0cbb bd6b d9ba
00000360: 40d8 623c a702 7e3b f21b c03c da5e c03b
00000370: 781d e63c 9e63 8fbc e4fa 84bb 7766 e7bb
00000380: 0a8a 95bc d8a9 fa3c a546 17bd d844 5bbc
00000390: ef73 bdbb c00f 533d 737f 843b f6ff 12bc
000003a0: ff89 463c 5ddb c0bc 190c 45bc 925c 27bd
000003b0: bbc6 2bba c5fa 693c 436a d33c c03a 4e3d
000003c0: ffcc 433c 5c79 913b 612d a93c 0c89 be3b
000003d0: 6f3c 53bc 77e7 86bc bd76 2a3d e357 e23c
000003e0: 18ed 6cbb 5750 973b 6073 60bb 677b d7bb
000003f0: c34c 113d a3b0 403c dbaa b93c bdf2 0ebb

action_model._continuous_distribution.mu.bias f4 [6]
0.0 0.0 0.0 0.0 0.0 0.0
00000000: 0000 0000 0000 0000 0000 0000 0000 0000
00000010: 0000 0000 0000 0000

onnx::LSTM_101 f4 [1, 256, 256]
-0.024900176 0.040223002 -0.11926549 0.008966088 -0.039425313 -0.088036105 0.07232034 -0.051922724
-0.045447268 0.12076616 0.087922394 0.13015652 0.11108568 0.07815567 0.018985942 -0.004136279
0.06838299 -0.00950411 0.017998159 0.13585666 -0.016908027 -0.088627405 -0.007964134 0.014530361
0.061769888 0.0785916 -0.027812712 0.13290644 -0.13544014 0.04708387 -0.11592296 -0.08418585
-0.13447692 0.01923804 0.052495033 -0.048747137 -0.064348035 -0.030029207 0.041438147 0.012931064
-0.098346375 0.04202634 0.12788886 -0.061969295 0.044017732 0.020954043 0.1099554 -0.12477633
-0.10867106 -0.10913355 0.0021778643 0.015659288 0.11431801 0.04643494 0.13369465 0.12652528
0.07071614 -0.050274797 -0.080386326 -0.113232896 -0.045804307 0.048071742 0.043100968 0.05005686
0.06852497 -0.121404946 0.109563515 -0.031861916 0.061905086 0.055840164 -0.13343768 0.07335818
-0.057445787 -0.10450208 -0.13687551 -0.0017031282 -0.10450843 0.0062408745 0.0075654536 0.02022028
0.036562502 -0.043504044 0.11895272 0.052471638 -0.12280457 0.08118567 0.060743466 -0.077324584
0.01390183 0.13651785 -0.092497356 -0.046032324 0.06345694 -0.021361738 0.014680147 -0.0037359744
0.10532221 -0.095398925 0.12266046 0.09570947 -0.0018411428 -0.044592507 -0.025817327 -0.0021465719
-0.10708611 -0.1296815 0.009308934 0.12646624 0.123547524 0.12047073 0.07209244 0.045372948
-0.023349747 -0.03515815 -0.12131881 -0.12103663 0.10831639 0.09191339 -0.077103555 0.073989585
0.027292833 -0.03881477 -0.10267998 -0.12809008 -0.043690965 0.08832039 0.07788652 0.11268991
-0.05483146 0.06762737 0.12822747 -0.13039167 -0.04329793 -0.103227764 -0.08178313 -0.040110067
0.118719876 0.00452891 -0.0022754222 -0.009910211 -0.042787544 -0.0050292313 0.093843 0.116549104
0.093491346 -0.026078306 -0.020350665 0.11968124 0.06455435 0.11579165 -0.064656906 0.0047531724
0.10450962 0.061073497 0.10943662 -0.08690886 0.08871302 0.053348377 0.12710357 -0.08076228
0.014776364 -0.011741772 0.099562064 0.13605374 -0.059188865 0.08715813 0.056915432 0.057182536
0.032464057 -0.06275588 0.056841165 -0.013682976 0.049539834 -0.05409307 0.030906036 -0.07098716
-0.13666251 0.118411034 0.021043435 0.13679233 0.10045411 -0.06820389 0.13602284 -0.0021992326
0.13233343 -0.09783974 -0.03463185 0.024479002 0.08729853 -0.029996201 0.0045891255 0.09141341
0.12664086 -0.013278745 -0.07657877 0.12657267 -0.09748554 0.103237 -0.07013153 -0.082698695
0.031524137 0.118308514 0.0984367 0.024148598 -0.08557956 0.03134097 -0.04674659 -0.0648355
-0.0529212 0.05493322 -0.08567977 -0.13096419 0.052039668 -0.10119249 0.08007851 -0.109168224
0.04114856 0.10505006 -0.028461717 0.042661726 -0.055332847 -0.062676944 0.08536786 0.045381173
-0.045278758 -0.0048515797 0.017297 0.034669966 -0.019798167 0.015917465 -0.008737177 -0.068992406
-0.11119583 -0.013208151 -0.010023341 -0.026522204 0.09392436 0.03398119 -0.05970344 -0.073401876
0.009495974 -0.106554925 -0.1253139 -0.09515316 0.13493434 0.06497784 0.1122257 -0.078832746
-0.021485046 0.04845725 -0.06859887 0.10545118 0.03745678 0.10018481 -0.08610305 -0.13141711
00000000: 74fb cbbc e0c0 243d 7741 f4bd 80e6 123c
00000010: 707c 21bd 464c b4bd b01c 943d ecac 54bd
00000020: ea26 3abd 4054 f73d a810 b43d c047 053e
00000030: e480 e33d 1410 a03d 6888 9b3c a089 87bb
00000040: 620c 8c3d 20b7 1bbc e070 933c 021e 0b3e
00000050: b482 8abc 4982 b5bd 007c 02bc c010 6e3c
00000060: 6c02 7d3d a2f4 a03d 7cd7 e3bc a018 083e
00000070: d2b0 0abe 04db 403d 0469 edbd a269 acbd
00000080: 51b4 09be 1899 9d3c 0805 573d 14ab 47bd
00000090: e7c8 83bd d0ff f5bc 0cbb 293d d0dc 533c
000000a0: d369 c9bd d023 2c3d 4cf5 023e 84d3 7dbd
000000b0: f04b 343d d0a7 ab3c 4c30 e13d bc8a ffbd
000000c0: ef8e debd 6981 dfbd 80ba 0e3b e847 803c
000000d0: 901f ea3d 9032 3e3d 40e7 083e d88f 013e
000000e0: a0d3 903d f2ec 4dbd 96a1 a4bd a6e6 e7bd
000000f0: 4c9d 3bbd e0e6 443d a48a 303d 6c08 4d3d
00000100: d256 8c3d 28a3 f8bd d662 e03d a481 02bd
00000110: 3090 7d3d a8b8 643d e3a3 08be d03c 963d
00000120: 464c 6bbd 3005 d6bd 1829 0cbe 803b dfba
00000130: 8408 d6bd 4080 cc3b a0e7 f73b 00a5 a53c
00000140: 90c2 153d 4c31 32bd 7c9d f33d 80ec 563d
00000150: f680 fbbd ac44 a63d 24ce 783d 5a5c 9ebd
00000160: 80c4 633c 56cb 0b3e 416f bdbd 648c 3cbd
00000170: b6f5 813d d0fe aebc 0085 703c 40d7 74bb
00000180: 2cb3 d73d 8360 c3bd 6835 fb3d 5403 c43d
00000190: 8052 f1ba a2a6 36bd dc7e d3bc 80ad 0cbb
000001a0: f64f dbbd 3acb 04be 8084 183c 5e80 013e
000001b0: 7c06 fd3d 5cb9 f63d 34a5 933d fcd8 393d
000001c0: f847 bfbc fe01 10bd ff75 f8bd 0de2 f7bd
000001d0: fcd4 dd3d 163d bc3d 78e8 9dbd da87 973d
000001e0: 3895 df3c 3cfc 1ebd e249 d2bd 0c2a 03be
000001f0: 4cf5 32bd 52e1 b43d f882 9f3d f8c9 e63d
00000200: f496 60bd 3880 8a3d 104e 033e 6585 05be
00000210: 2c59 31bd 1469 d3bd ea7d a7bd 744a 24bd
00000220: 6823 f33d 4067 943b 401f 15bb 705e 22bc
00000230: fe41 2fbd 40cc a4bb c230 c03d 4cb1 ee3d
00000240: 6478 bf3d 2ca2 d5bc 70b6 a6bc 701b f53d
00000250: 1235 843d 2c24 ed3d d76a 84bd 80c0 9b3b
00000260: 2409 d63d 3428 7a3d 4e20 e03d 46fd b1bd
00000270: 2caf b53d d483 5a3d 7027 023e b266 a5bd
00000280: 9018 723c 9060 40bc 32e7 cb3d ac51 0b3e
00000290: 0670 72bd f67f b23d 2820 693d 3c38 6a3d
000002a0: 08f9 043d 2886 80bd 48d2 683d 902e 60bc
000002b0: 48ea 4a3d b290 5dbd a82e fd3c b761 91bd
000002c0: 42f1 0bbe 7c81 f23d 4863 ac3c 4a13 0c3e
000002d0: e2ba cd3d 7bae 8bbd 9249 0b3e 0021 10bb
000002e0: 6a82 073e 3460 c8bd 20da 0dbd 3088 c83c
000002f0: 92c9 b23d 98ba f5bc 6060 963b f436 bb3d
00000300: 24ae 013e 188f 59bc 55d5 9cbd 449c 013e
00000310: 80a6 c7bd ec6d d33d 1fa1 8fbd ef5d a9bd
00000320: 741f 013d bc4b f23d 2e99 c93d 48d3 c53c
00000330: 5644 afbd 645f 003d 5a79 3fbd 7ac8 84bd
00000340: e6c3 58bd a801 613d e078 afbd 7a1b 06be
00000350: 8c27 553d 023e cfbd 3400 a43d 9793 dfbd
00000360: 648b 283d 7c24 d73d 8c28 e9bc 10be 2e3d
00000370: b2a4 62bd c55c 80bd 58d5 ae3d 9ce1 393d
00000380: 3876 39bd 00fa 9ebb 70b2 8d3c 1802 0e3d
00000390: c42f a2bc 5865 823c 6026 0fbc e44b 8dbd
000003a0: a4ba e3bd 0067 58bc f038 24bc 1845 d9bc
000003b0: 6a5b c03d dc2f 0b3d 988b 74bd b953 96bd
000003c0: 0095 1b3c 7839 dabd 4952 00be a9df c2bd
000003d0: 3a2c 0a3e 1a13 853d 96d6 e53d 1073 a1bd
000003e0: 6801 b0bc 1c7b 463d 907d 8cbd caf6 d73d
000003f0: 486c 193d b22d cd3d cc56 b0bd 3592 06be

onnx::LSTM_102 f4 [1, 256, 64]
0.20034595 0.19586663 0.10536741 -0.07985748 0.20982657 -0.14857985 -0.15564197 0.13633938
-0.11306779 0.15997683 0.14094059 -0.07045153 -0.097815655 0.20166682 0.036455974 0.17785256
0.14761253 0.16864692 0.039807394 -0.008897305 0.09280972 0.11193465 -0.08781053 -0.21640709
-0.042993844 0.1839417 -0.0032228678 0.052423105 0.023801535 0.1708842 0.2016835 -0.114902414
-0.1584728 0.17615525 0.03288266 -0.15824509 0.1298611 0.082374945 -0.1383102 0.20649369
0.031394944 -0.102129675 -0.025633857 0.01953815 0.13613369 0.1971163 -0.14641029 -0.033252224
0.15469466 -0.0142888725 0.04157187 -0.086205214 -0.14358234 0.15523778 -0.17940754 0.19489978
0.12272428 0.19753926 -0.038642704 0.032854468 0.13407145 0.0054442734 0.16843422 -0.040060654
0.18213953 0.16047312 -0.047539026 -0.1724738 0.14432688 -0.11779489 -0.103825204 -0.11254185
0.11513473 -0.11660104 0.1499389 0.14804281 -0.11228063 0.010571778 0.1186976 -0.097896926
-0.041804925 -0.06173584 -0.05138445 -0.18336341 -0.14396693 -0.19608264 -0.12847298 -0.01094754
-0.10222205 0.13901721 -0.15696995 0.14569719 0.009659469 -0.085739255 0.11128859 0.008813083
-0.20838758 0.17683773 -0.2047251 0.14576085 -0.19694602 -0.15252471 0.20294456 0.017058209
-0.13856012 0.023152053 -0.1871044 0.03388621 -0.124760196 -0.13313276 0.05714108 0.0047544837
0.10282777 -0.065594494 -0.13070843 -0.18782201 -0.10144799 -0.1518721 -0.16085255 -0.099005066
-0.119253576 0.17664592 0.15418784 0.05524431 0.20531113 -0.10211682 0.044608697 -0.19159447
-0.06041929 -0.08293043 0.027150705 0.019286945 0.013382345 -0.18209834 -0.11697069 0.18180369
0.11467053 -0.1993832 0.06330462 0.18292196 0.121520534 -0.040973827 0.08516969 0.15978004
-0.038940966 0.065557405 0.19792967 -0.10627611 0.16774882 -0.13959134 -0.20717958 -0.009341672
-0.06359658 -0.2001471 0.15654315 -0.12597418 -0.025663644 -0.1688178 -0.08800952 -0.1832013
-0.098456584 -0.2159762 -0.09741734 -0.1209026 0.009644315 0.076846644 0.110308126 0.16588755
-0.06880011 -0.03931223 0.19205938 -0.028146192 -0.06327017 0.08951093 -0.18163721 -0.02696307
-0.023863807 -0.071882725 0.071634874 -0.17615716 -0.040642276 -0.12544748 0.204001 0.0006147027
0.055994526 0.15863208 0.14370917 0.092228785 -0.12126999 0.051623955 -0.11275896 0.03706421
-0.007888585 0.14058296 0.11157815 -0.03731543 -0.099598505 -0.04216276 0.06315063 0.043834284
-0.1797339 0.16976257 -0.08325428 -0.2114877 0.003839925 -0.16536397 -0.15210855 -0.04164578
0.06675683 0.17511664 0.014502138 0.07232015 -0.012842476 -0.0582837 -0.15469694 0.0030059665
0.19373281 0.13457523 0.09069167 0.09477548 -0.12104181 -0.1096903 -0.040065378 0.21334694
-0.032900825 -0.022754312 -0.16790703 0.11894821 0.13609688 0.14463143 0.16658841 0.09130518
0.13972391 0.10576306 -0.013476953 -0.20831798 0.013108447 -0.090847194 -0.18121058 -0.20403068
-0.17090964 -0.0699534 -0.06794381 -0.16787279 0.10562275 -0.04131484 -0.19710599 -0.08757852
-0.018594742 -0.115916654 0.077564225 0.1759073 0.066229 -0.18353564 0.1955192 0.04258932
00000000: 7d27 4d3e 4391 483e deca d73d 528c a3bd
00000010: c7dc 563e 5125 18be 9c60 1fbe 8d9c 0b3e
00000020: 1690 e7bd f7d0 233e bb52 103e e448 90bd
00000030: 9353 c8bd bf81 4e3e dc52 153d fb1e 363e
00000040: bd27 173e c7b1 2c3e 140d 233d 00c6 11bc
00000050: 0613 be3d fe3d e53d 02d6 b3bd d299 5dbe
00000060: 501a 30bd 375b 3c3e c036 53bb 9cb9 563d
00000070: 70fb c23c 45fc 2e3e 1f86 4e3e f551 ebbd
00000080: b246 22be 0b62 343e f8af 063d 000b 22be
00000090: 4ffa 043e 32b4 a83d 30a1 0dbe 1573 533e
000000a0: fc97 003d 5d29 d1bd 18fe d1bc 780e a03c
000000b0: a166 0b3e dbd8 493e 94ec 15be 7c33 08bd
000000c0: 4768 1e3e e01b 6abc 4447 2a3d 5c8c b0bd
000000d0: 4007 13be a7f6 1e3e 9cb6 37be cf93 473e
000000e0: de56 fb3d bb47 4a3e d047 1ebd 6892 063d
000000f0: 074a 093e e065 b23b 057a 2c3e a416 24bd
00000100: c982 3a3e 1153 243e 48b8 42bd f99c 30be
00000110: 6dca 133e 733e f1bd 4fa2 d4bd 577c e6bd
00000120: c2cb eb3d 87cc eebd 9589 193e 8998 173e
00000130: 63f3 e5bd 4035 2d3c ba17 f33d 2f7e c8bd
00000140: a43b 2bbd b8de 7cbd 8078 52bd 9ec3 3bbe
00000150: 116c 13be e3c9 48be 6c8e 03be 505d 33bc
00000160: cb59 d1bd 875a 0e3e bbbc 20be a531 153e
00000170: c042 1e3c 1098 afbd 46eb e33d c064 103c
00000180: 8e63 55be f314 353e 75a3 51be 5542 153e
00000190: 38ac 49be 702f 1cbe b3d0 4f3e a8bd 8b3c
000001a0: b4e2 0dbe 60a9 bd3c 4c98 3fbe 44cc 0a3d
000001b0: 4682 ffbd f453 08be c40c 6a3d 80cb 9b3b
000001c0: 5e97 d23d 6856 86bd 6ed8 05be 6a54 40be
000001d0: f7c3 cfbd 5c84 1bbe 88b6 24be 2bc3 cabd
000001e0: 383b f4bd abe2 343e 6be3 1d3e dc47 623d
000001f0: 153d 523e a022 d1bd 9cb7 363d 5731 44be
00000200: 387a 77bd 6ed7 a9bd 286b de3c a8ff 9d3c
00000210: a041 5b3c fd77 3abe 548e efbd bf2a 3a3e
00000220: 62d8 ea3d 1c2b 4cbe daa5 813d e54f 3b3e
00000230: c2df f83d 2cd4 27bd 726d ae3d 619d 233e
00000240: 9080 1fbd f642 863d 13ae 4a3e 4aa7 d9bd
00000250: 59c6 2b3e 08f1 0ebe e226 54be d00d 19bc
00000260: ec3e 82bd 5df3 4cbe d94c 203e 60ff 00be
00000270: 903c d2bc 93de 2cbe 563e b4bd 1f99 3bbe
00000280: 9ba3 c9bd dd28 5dbe be82 c7bd c89b f7bd
00000290: 3003 1e3c c661 9d3d 3ae9 e13d 6dde 293e
000002a0: 12e7 8cbd dc05 21bd 37ab 443e d892 e6bc
000002b0: ca93 81bd 8251 b73d 1bff 39be a8e1 dcbc
000002c0: 087e c3bc 4037 93bd 4eb5 923d 8b62 34be
000002d0: 8478 26bd 4e75 00be a3e5 503e 0024 213a
000002e0: 845a 653d 7370 223e 7f28 133e 72e2 bc3d
000002f0: 675c f8bd a473 533d 2bee e6bd a4d0 173d
00000300: 203f 01bc fbf4 0f3e 1683 e43d 10d8 18bd
00000310: 4dfa cbbd dcb2 2cbd 1e55 813d 948b 333d
00000320: 2a0c 38be 3dd6 2d3e 3881 aabd 3b90 58be
00000330: 40a7 7b3b 2c55 29be 58c2 1bbe c494 2abd
00000340: ceb7 883d c751 333e 609a 6d3c 961c 943d
00000350: 4069 52bc e4ba 6ebd e068 1ebe c0ff 443b
00000360: e561 463e 17ce 093e 8ebc b93d a619 c23d
00000370: c5e4 f7bd 4fa5 e0bd 981b 24bd 9f77 5a3e
00000380: 04c3 06bd 4067 babc d2ef 2bbe 1e9b f33d
00000390: fb5c 0b3e 431a 143e 2796 2a3e 36fe ba3d
000003a0: c913 0f3e 4e9a d83d 70ce 5cbc 4f51 55be
000003b0: d0c4 563c 180e babd 448f 39be 6bed 50be
000003c0: f002 2fbe ba43 8fbd 2026 8bbd d8e6 2bbe
000003d0: be50 d83d c039 29bd 27d6 49be 5e5c b3bd
000003e0: 0054 98bc b665 edbd fed9 9e3d 0b21 343e
000003f0: 12a3 873d c4f0 3bbe 2f36 483e 2472 2e3d

onnx::LSTM_103 f4 [1, 512]
0.0 0.0 0.0 0.0 0.0 0.0 0.0 0.0
0.0 0.0 0.0 0.0 0.0 0.0 0.0 0.0
0.0 0.0 0.0 0.0 0.0 0.0 0.0 0.0
0.0 0.0 0.0 0.0 0.0 0.0 0.0 0.0
0.0 0.0 0.0 0.0 0.0 0.0 0.0 0.0
0.0 0.0 0.0 0.0 0.0 0.0 0.0 0.0
0.0 0.0 0.0 0.0 0.0 0.0 0.0 0.0
0.0 0.0 0.0 0.0 0.0 0.0 0.0 0.0
0.0 0.0 0.0 0.0 0.0 0.0 0.0 0.0
0.0 0.0 0.0 0.0 0.0 0.0 0.0 0.0
0.0 0.0 0.0 0.0 0.0 0.0 0.0 0.0
0.0 0.0 0.0 0.0 0.0 0.0 0.0 0.0
0.0 0.0 0.0 0.0 0.0 0.0 0.0 0.0
0.0 0.0 0.0 0.0 0.0 0.0 0.0 0.0
0.0 0.0 0.0 0.0 0.0 0.0 0.0 0.0
0.0 0.0 0.0 0.0 0.0 0.0 0.0 0.0
1.0 1.0 1.0 1.0 1.0 1.0 1.0 1.0
1.0 1.0 1.0 1.0 1.0 1.0 1.0 1.0
1.0 1.0 1.0 1.0 1.0 1.0 1.0 1.0
1.0 1.0 1.0 1.0 1.0 1.0 1.0 1.0
1.0 1.0 1.0 1.0 1.0 1.0 1.0 1.0
1.0 1.0 1.0 1.0 1.0 1.0 1.0 1.0
1.0 1.0 1.0 1.0 1.0 1.0 1.0 1.0
1.0 1.0 1.0 1.0 1.0 1.0 1.0 1.0
0.0 0.0 0.0 0.0 0.0 0.0 0.0 0.0
0.0 0.0 0.0 0.0 0.0 0.0 0.0 0.0
0.0 0.0 0.0 0.0 0.0 0.0 0.0 0.0
0.0 0.0 0.0 0.0 0.0 0.0 0.0 0.0
0.0 0.0 0.0 0.0 0.0 0.0 0.0 0.0
0.0 0.0 0.0 0.0 0.0 0.0 0.0 0.0
0.0 0.0 0.0 0.0 0.0 0.0 0.0 0.0
0.0 0.0 0.0 0.0 0.0 0.0 0.0 0.0
00000000: 0000 0000 0000 0000 0000 0000 0000 0000
00000010: 0000 0000 0000 0000 0000 0000 0000 0000
00000020: 0000 0000 0000 0000 0000 0000 0000 0000
00000030: 0000 0000 0000 0000 0000 0000 0000 0000
00000040: 0000 0000 0000 0000 0000 0000 0000 0000
00000050: 0000 0000 0000 0000 0000 0000 0000 0000
00000060: 0000 0000 0000 0000 0000 0000 0000 0000
00000070: 0000 0000 0000 0000 0000 0000 0000 0000
00000080: 0000 0000 0000 0000 0000 0000 0000 0000
00000090: 0000 0000 0000 0000 0000 0000 0000 0000
000000a0: 0000 0000 0000 0000 0000 0000 0000 0000
000000b0: 0000 0000 0000 0000 0000 0000 0000 0000
000000c0: 0000 0000 0000 0000 0000 0000 0000 0000
000000d0: 0000 0000 0000 0000 0000 0000 0000 0000
000000e0: 0000 0000 0000 0000 0000 0000 0000 0000
000000f0: 0000 0000 0000 0000 0000 0000 0000 0000
00000100: 0000 0000 0000 0000 0000 0000 0000 0000
00000110: 0000 0000 0000 0000 0000 0000 0000 0000
00000120: 0000 0000 0000 0000 0000 0000 0000 0000
00000130: 0000 0000 0000 0000 0000 0000 0000 0000
00000140: 0000 0000 0000 0000 0000 0000 0000 0000
00000150: 0000 0000 0000 0000 0000 0000 0000 0000
00000160: 0000 0000 0000 0000 0000 0000 0000 0000
00000170: 0000 0000 0000 0000 0000 0000 0000 0000
00000180: 0000 0000 0000 0000 0000 0000 0000 0000
00000190: 0000 0000 0000 0000 0000 0000 0000 0000
000001a0: 0000 0000 0000 0000 0000 0000 0000 0000
000001b0: 0000 0000 0000 0000 0000 0000 0000 0000
000001c0: 0000 0000 0000 0000 0000 0000 0000 0000
000001d0: 0000 0000 0000 0000 0000 0000 0000 0000
000001e0: 0000 0000 0000 0000 0000 0000 0000 0000
000001f0: 0000 0000 0000 0000 0000 0000 0000 0000
00000200: 0000 803f 0000 803f 0000 803f 0000 803f
00000210: 0000 803f 0000 803f 0000 803f 0000 803f
00000220: 0000 803f 0000 803f 0000 803f 0000 803f
00000230: 0000 803f 0000 803f 0000 803f 0000 803f
00000240: 0000 803f 0000 803f 0000 803f 0000 803f
00000250: 0000 803f 0000 803f 0000 803f 0000 803f
00000260: 0000 803f 0000 803f 0000 803f 0000 803f
00000270: 0000 803f 0000 803f 0000 803f 0000 803f
00000280: 0000 803f 0000 803f 0000 803f 0000 803f
00000290: 0000 803f 0000 803f 0000 803f 0000 803f
000002a0: 0000 803f 0000 803f 0000 803f 0000 803f
000002b0: 0000 803f 0000 803f 0000 803f 0000 803f
000002c0: 0000 803f 0000 803f 0000 803f 0000 803f
000002d0: 0000 803f 0000 803f 0000 803f 0000 803f
000002e0: 0000 803f 0000 803f 0000 803f 0000 803f
000002f0: 0000 803f 0000 803f 0000 803f 0000 803f
00000300: 0000 0000 0000 0000 0000 0000 0000 0000
00000310: 0000 0000 0000 0000 0000 0000 0000 0000
00000320: 0000 0000 0000 0000 0000 0000 0000 0000
00000330: 0000 0000 0000 0000 0000 0000 0000 0000
00000340: 0000 0000 0000 0000 0000 0000 0000 0000
00000350: 0000 0000 0000 0000 0000 0000 0000 0000
00000360: 0000 0000 0000 0000 0000 0000 0000 0000
00000370: 0000 0000 0000 0000 0000 0000 0000 0000
00000380: 0000 0000 0000 0000 0000 0000 0000 0000
00000390: 0000 0000 0000 0000 0000 0000 0000 0000
000003a0: 0000 0000 0000 0000 0000 0000 0000 0000
000003b0: 0000 0000 0000 0000 0000 0000 0000 0000
000003c0: 0000 0000 0000 0000 0000 0000 0000 0000
000003d0: 0000 0000 0000 0000 0000 0000 0000 0000
000003e0: 0000 0000 0000 0000 0000 0000 0000 0000
000003f0: 0000 0000 0000 0000 0000 0000 0000 0000
