code/selfparking/mla/results/final_05/Car/Car-48999971.onnx (onnx, 712368 bytes, 10 tensors)

network_body._body_endoder.seq_layers.0.weight f4 [256, 111]
00000000: bdad d6bd 5a47 50be 1067 acbd 0faa fd3d
00000010: 635d 2bbe 0028 0b3d a943 8dbd cdd5 583a
00000020: 180b b4bc e264 243d aa67 983d 3d1c 883c
00000030: 8bd9 1bbe c0e4 a0be 160e 903e 4da1 1c3d
00000040: a2be e83d ac3f 54be 2b0a 33bd 276e 08be
00000050: 06a5 23be 154c 2abd c00e 613e eae0 363e
00000060: 5c37 d23d c9bb 8cbd eccd 1f3e fd40 9d3d
00000070: ca0a 223e 2a84 14be ad0f dc3d c452 7d3d
00000080: 843b f4bd 9027 88bb 1f0f a93d e1fd 4d3c
00000090: 3d87 333e 2620 a1bd a745 d6bd fa59 ce3d
000000a0: aaad 7a3e 34b6 373e f548 443b 5eca dcbc
000000b0: b277 12be 4ede 48be 87bd bdbb d65a fbbc
000000c0: ffd3 bcbd 3a9f a73e 2b40 6cbc 5ed2 76bd
000000d0: ccaa 58be 8056 82be e531 5b3d f551 a1bd
000000e0: e7dd 5dbd b619 423e 4b73 28be 53f0 97bd
000000f0: 40f9 09be 43b0 703d 5589 c9bd 6252 4fbd
00000100: a9f5 303e fb4c 243e f51d 4dbd 6f2b 5abe
00000110: 9b5f 09bd 37f1 f9bd 3ef9 f1ba 2512 4cbe
00000120: fba8 073d face 0ebe 7945 af3d dd69 a73d
00000130: 4512 92bd dcfd acbd ccef 463e b9c4 b13d
00000140: 2ed1 643e a1d9 39be fead e83d 5278 b33d
00000150: 0022 15be 30a5 c13b 1c2d 3f3e 3833 e43d
00000160: 3706 e1bd 28e7 22be c041 1b3d 1216 18bd
00000170: 60b3 26bd b3b1 9e3d 2a82 a93d 8163 93bd
00000180: c1f7 0ebd 2043 043c b94b 24be 886c d3bc
00000190: 7685 153d f0f1 32be 91fc ad3d 32e5 303e
000001a0: dfcd 653d 2570 d03d 87db 9fbd edb8 00bf
000001b0: 55b2 1ebd 89d6 38be ce1a e63d 9e39 a2bd
000001c0: 40e3 c2bd 15a4 8e3d 41c1 c73c 5d98 e4bd
000001d0: a867 3bbd bcf4 783d 793b d6bc 49d6 133e
000001e0: 803c 01be 9b9f f7bc 4f77 433e 8586 0ebe
000001f0: c046 5a3b 2de7 523e f21e 973c 2d52 493c
00000200: bdd1 73bb aca9 00be 18aa 64be 696a 18be
00000210: c8ab 1bbd 40e6 6fba 4ffd 003c 2326 703d
00000220: d2cb adbd be2f 5a3d 6f80 bbbd c465 af3d
00000230: da93 ba3d 2e99 0bbe 07dd 663d f014 0dbe
00000240: 5e02 433d 6727 2fbb 1979 a3bd b81c 6f3e
00000250: 425c 02be 9335 35be a490 66bd 641b 293e
00000260: 1e52 823e 346d 833d 8603 d7bd d821 cfbd
00000270: 8cb9 a0be 722e 813d e4dd 133d 2fcb 273d
00000280: ea50 ca3e ccd0 f53c a1d3 78bd de50 653e
00000290: d933 c7bd dc0c 133c 79c7 a43d 7dae 4a3e
000002a0: a900 763d a3f7 07be 312e 68bd e629 d9bc
000002b0: 5117 b8bd dd77 a3bc 8793 8ebd 5d99 63be
000002c0: 85a0 9b3e 336a 1abb 4532 27be e0e8 aebd
000002d0: 3a7c 77be 1d9e ca3d fc7e 9bbc 2d11 41be
000002e0: f954 b1bd 75cf aabc d30a d4bd ab03 40bd
000002f0: bd5e f9bd f00b 663d a7b3 543d 325e 70bd
00000300: e337 97be b333 ec3d 3ba9 623d da65 6e3d
00000310: 7e0e 28be 9529 88bd 696c 2b3e 66da 0dbd
00000320: af54 47bd 4335 993e 340d 953d 01b2 2abd
00000330: 56ba f23d 7dc7 f73d c764 5e3d fef8 9a3c
00000340: fea8 fd3d 7697 95bd 1196 40bc 2353 87bd
00000350: 020f 243d bb33 323c aade f83d 2e20 103d
00000360: d057 1d3d 8be3 27bd 642e 33be 6bfb 923d
00000370: 3c69 f1bd b27d 683e 5f42 6f3e edef babc
00000380: 5255 3abe d907 893d 3662 c8bc 1510 29bd
00000390: 445b 7abd ea9a da3d 7cab 5f3d 0155 72be
000003a0: 85b1 f9bd 4887 683d e673 9e3e 4c12 b8bd
000003b0: f551 5cbe aace 8a3d 20e0 e53d 6d58 373e
000003c0: 9a8b 10bd 3f5f 653d df5e 873d ec67 90be
000003d0: ed19 8dbd a406 773d 0e88 30bd d8e1 b3bd
000003e0: c3f8 d43d c4e1 6a3d b38e 67bd 7f91 28bc
000003f0: 818f 393d e08a 91bd 98dc 473d 132c 003e
-0.10482357 -0.20339718 -0.08418095 0.12385952 -0.16734843 0.033973694 -0.06897671 0.0008271605
-0.021977946 0.04013527 0.07441647 0.016615028 -0.15219705 -0.31424522 0.28135747 0.038239766
0.11364485 -0.20727414 -0.04371087 -0.1332327 -0.1598092 -0.041576464 0.21978283 0.17859235
0.10264465 -0.06871755 0.15605897 0.07678411 0.15824428 -0.14503542 0.107451774 0.06184651
-0.11925414 -0.004155107 0.08254837 0.0125727365 0.17532058 -0.0786746 -0.10462504 0.100757554
0.2448031 0.17940599 0.0029950712 -0.026951965 -0.14303473 -0.19616053 -0.0057904157 -0.030682962
-0.092201225 0.32738668 -0.014419596 -0.060259216 -0.21158904 -0.2545662 0.05351438 -0.0787696
-0.0541667 0.1895512 -0.16450231 -0.07418885 -0.13473988 0.058761846 -0.09840647 -0.050615676
0.17281212 0.1604499 -0.050077397 -0.21305631 -0.033538442 -0.12204211 -0.0018461121 -0.19928797
0.033120137 -0.13946143 0.08558173 0.08174489 -0.07132391 -0.08446857 0.19427413 0.086801
0.2234542 -0.18149425 0.113613114 0.08763184 -0.14563751 0.0059095845 0.18669552 0.11142582
-0.109875135 -0.15908492 0.0379045 -0.037130423 -0.04069841 0.07748737 0.0827678 -0.07196713
-0.034904245 0.0080726445 -0.16044511 -0.025808588 0.03650423 -0.17475104 0.08495439 0.17274931
0.056104537 0.1017764 -0.078055434 -0.50282174 -0.03874429 -0.18050589 0.11235581 -0.07921146
-0.09516001 0.0696489 0.024384143 -0.111618735 -0.04575315 0.060780272 -0.026151406 0.14437212
-0.12620735 -0.030227473 0.19088481 -0.13918503 0.003330633 0.20595999 0.018447373 0.012287659
-0.0037203871 -0.12564725 -0.2233051 -0.14884342 -0.03800562 -0.00091514364 0.0078728935 0.05863012
-0.08486141 0.053268187 -0.09155356 0.08564332 0.09110232 -0.13632652 0.05636313 -0.13777518
0.04760968 -0.0026726366 -0.07982082 0.23350799 -0.12730506 -0.17696218 -0.056290284 0.16514355
0.25453275 0.06417313 -0.10498719 -0.10113877 -0.3139156 0.06307687 0.036100283 0.040965255
0.39514858 0.030006789 -0.0607487 0.2239413 -0.09726686 0.008975234 0.08045859 0.19793124
0.060059223 -0.1327806 -0.056684677 -0.026509237 -0.08988822 -0.019954616 -0.06961732 -0.22226472
0.30395904 -0.0023561835 -0.1632777 -0.08540511 -0.24168482 0.09893439 -0.01898145 -0.18854208
-0.086587854 -0.020850876 -0.10353627 -0.046878498 -0.12176273 0.05616373 0.051929142 -0.05868358
-0.29534826 0.11533298 0.055337172 0.058202602 -0.16411778 -0.06648556 0.16740574 -0.03463211
-0.048664745 0.29923448 0.07277909 -0.041673664 0.11851947 0.12098596 0.054295328 0.018917557
0.12385748 -0.073042795 -0.011754529 -0.06607654 0.040053375 0.010876591 0.12151845 0.03518694
0.038413823 -0.040988486 -0.17498165 0.071768604 -0.1178765 0.22704199 0.23365162 -0.022819484
-0.1819661 0.0669095 -0.024460893 -0.041275103 -0.061122194 0.10674079 0.0546069 -0.23665239
-0.12192062 0.05676964 0.30947798 -0.08987865 -0.21515639 0.06777699 0.11224389 0.17904826
-0.035289384 0.055999037 0.06609892 -0.28204286 -0.068897106 0.060309067 -0.0430985 -0.08783311
0.1039901 0.057344213 -0.056532573 -0.010288595 0.04530287 -0.071065664 0.04879436 0.12516813

network_body._body_endoder.seq_layers.0.bias f4 [256]
00000000: da32 a1bc 1747 fb3c 7414 713b 0719 94bb
00000010: 0a23 fabb 2bd0 e3ba 4dd1 6bbc 9ed8 b0bc
00000020: 8632 bd3c 6ce6 ac3c 6e94 713b 7ed9 5abd
00000030: 3163 eebc f1dd 81bd b1a4 5fbd 757d 38bd
00000040: 930e 653d 2efc 383d 45d4 b3bd bb27 ce3b
00000050: 2d53 bd3c fb30 a1bb 94ae 2fbd cfe1 41ba
00000060: 5962 7e3c 51ec 5bbd 60c3 0dbc ea77 213d
00000070: 2000 d2bb 3ca7 b5bc 3e3d 273b 096d adbd
00000080: 2a68 80bc e507 933c 3039 48bc 6f39 353d
00000090: f9b6 413c 1014 cebc cfa7 f73b 6897 973d
000000a0: 5f31 7a3d c229 b03c 1e7c fbbc 5b7a f23c
000000b0: 2de2 533c de31 253b 4f75 b3bc 33de 07bd
000000c0: ef0a 52bc 4c98 4abd a088 f23c 4a21 583d
000000d0: b5be 82bc e71c 623d 5a18 06bc 3e0e 9b3b
000000e0: ae6d c43c 2994 c1bd 0bcd 85bc a346 35bd
000000f0: 1a57 fe3c 1a4a 223b c4c3 9cbd e802 423d
00000100: 47ad b83b 54eb 88bd 7c8f 00bd 2a5e af3b
00000110: 5523 92bd eada cc3b dd3e 923a 04cd 7bbd
00000120: 47af 59bd f8bf c9bc eb9f 8fbd 6a75 1bbd
00000130: 46e4 9abd b3ab 993c e488 fabc 1f4f 243b
00000140: f082 a2bc 3295 b53c 9559 99bd 2750 d2bb
00000150: 44a3 2bbc d128 84bd b726 12bc 3c35 eebc
00000160: 3a0c 883c 1192 0ebd e125 4c3d 600c e9bd
00000170: b46a f43b 793e 4b3d fcbb d6bc 937c b13b
00000180: 3f99 c63a 3406 b53c 07f4 983b 0c4a babc
00000190: 128e 0fbd 05ec c43b 05ab 98bd f4ee 45bb
000001a0: e98d 5bbd 5a2c 84bc 551a f83c 47f7 ed3c
000001b0: 9263 4abb d196 3ebb b670 abbc ac96 febc
000001c0: bad0 cf3c 760c 533b 9ed1 4f3b 6740 723c
000001d0: 11d0 47bc cd5c c5bd d17b 363d c1c2 6fbb
000001e0: 9828 c5bc 5fd0 b9bc e573 e7bc ed2f bb3c
000001f0: f420 f5ba db3f 913c cc3c f4bd 4284 443d
00000200: 3ec0 5dbb c7a4 343d 7b5e 473c fa4a 45bd
00000210: aacd 053d 8a47 273c 88ed 32ba 6e5f 9fbc
00000220: 41c6 b4bc 1e59 bf3b 088a e239 c419 57bd
00000230: dd67 8bbc d509 2cbb c24f 1c3c 4942 1cbd
00000240: e915 0c3c 2a5e adbd 7ebb 4fbc 6392 ab3c
00000250: cbd2 943d 4602 923b af12 46ba 9910 73bc
00000260: 1465 983c 47d1 33bc 0ab2 e7bc 5705 213c
00000270: 1616 c3bd d784 28bc 3a7d 033d 2655 7dbd
00000280: 4602 51bd cb0d 01bc b05e cb3c 6338 aa3c
00000290: 98e3 873b dcfb b9bd 2ef7 d13b e1b5 273d
000002a0: 7603 95bd b826 3c3c ad1e 73bc 5ac1 24bc
000002b0: 1629 bb3b cd2e 45bc 3c2c 85bd e030 5dbd
000002c0: 5c9a 623b 7b90 fa3b aad4 3ebd b6c4 cd3c
000002d0: 6137 05bd 9c7a 013c 3e78 a7bd 7c36 80bc
000002e0: 4e03 98ba ca4f 85bd c08f 69bd 31b1 0dbd
000002f0: 50d5 a13c 14f6 36bc 3878 e0ba e3de 1cbd
00000300: fcf6 7f3c 5d53 e83c c115 bc3a 7e9a 423c
00000310: de1d 883b 78f3 2a3c 403d 013b 44ab 793d
00000320: bc4a 94bb d987 123d 78a2 cbbd 98f7 a3bc
00000330: d7bc aaba 20ee 27bc 2381 76bd dff9 3f3d
00000340: 69b1 5f3c 8984 573d c1da e2bc 0ca5 723d
00000350: fb0f d1ba 18e9 67bb b9c0 00bd aabc 5f3c
00000360: 2965 66bd 92c7 4bbc 4a1b 52bc 82f8 1dbd
00000370: a532 8a3c 8306 973c e586 31bc 27a2 00bc
00000380: 0db4 75bb 3e06 15bb 541e 42bd 9aa8 913c
00000390: 78c1 e43c 0d4e 32bd c947 a83c e813 693d
000003a0: 3a6c a6bd 6663 47bd c665 5e3c b5d2 633d
000003b0: d6f7 5dbc 2294 94bd 3f75 a3bd 06ba 24bd
000003c0: 5b9e 6f3b 18ce 2b3c 2279 283d 284c 45bd
000003d0: 3350 f03c ff1c f53c 2a70 173d 3e5e d33b
000003e0: 167c 50bb 52c2 c1bc c02f 81bd 64cf 513d
000003f0: c3ce 6f3d ba5e fbbb 957d bfbc 2055 d93b
-0.019677568 0.030673547 0.0036785873 -0.004519585 -0.0076335715 -0.0017380764 -0.014393163 -0.021587666
0.02309538 0.021105967 0.0036862153 -0.053430073 -0.029100033 -0.0634116 -0.05460042 -0.04504152
0.055922102 0.045162372 -0.087807216 0.0062913573 0.02311095 -0.004919169 -0.0428911 -0.0007396014
0.015526378 -0.053692166 -0.008652538 0.039421 -0.0064087063 -0.02217447 0.002551868 -0.084680624
-0.01567467 0.0179481 -0.012220666 0.044244226 0.011823409 -0.02515605 0.007557846 0.07401925
0.06108224 0.021504287 -0.030698832 0.02959936 0.0129323425 0.0025206725 -0.021906523 -0.03317089
-0.01281999 -0.049461648 0.029606164 0.052766122 -0.015960077 0.055203345 -0.008184517 0.0047319224
0.02397808 -0.094520874 -0.016333124 -0.044256818 0.031047393 0.0024763406 -0.07654527 0.047366053
0.0056358906 -0.0668551 -0.031386837 0.0053518014 -0.07135645 0.0062516825 0.0011157651 -0.061474815
-0.053145673 -0.02462767 -0.07012924 -0.03795377 -0.07563071 0.01875863 -0.030582853 0.0025071574
-0.019837826 0.022165868 -0.074877895 -0.0064182463 -0.010475937 -0.064530976 -0.008920363 -0.029078119
0.016607393 -0.03480727 0.04984081 -0.113793135 0.007459009 0.049620125 -0.026212685 0.0054164617
0.0015151872 0.022097684 0.004667762 -0.022740386 -0.0350476 0.006009581 -0.074544944 -0.0030202242
-0.053602133 -0.01613443 0.030285994 0.029048575 -0.0030882102 -0.0029081593 -0.020927768 -0.031077705
0.025368083 0.0032203472 0.0031710635 0.0147858625 -0.012195603 -0.09636841 0.044551674 -0.0036584588
-0.024067208 -0.022682367 -0.028253505 0.022850001 -0.0018701837 0.017730644 -0.119256586 0.047977693
-0.003383651 0.044102456 0.012168522 -0.048167206 0.03266684 0.010209927 -0.0006825556 -0.019454684
-0.022067191 0.005839481 0.0004320892 -0.052514806 -0.0170173 -0.0026250978 0.0095405 -0.038149152
0.008550146 -0.08465226 -0.012678979 0.020943826 0.07266768 0.0044558374 -0.00075558847 -0.0148355
0.018602885 -0.010975189 -0.028283138 0.009827933 -0.09525697 -0.010285578 0.032101847 -0.061848782
-0.05102756 -0.007876824 0.024825424 0.02077884 0.0041470043 -0.090812415 0.00640764 0.040944938
-0.07276051 0.011483841 -0.014838857 -0.010055864 0.005711685 -0.012035084 -0.06502578 -0.05400169
0.0034576869 0.007646618 -0.04658953 0.025118213 -0.032523517 0.0079027675 -0.08177231 -0.01565098
-0.0011597665 -0.06509359 -0.057021856 -0.03459281 0.019755036 -0.011167068 -0.0017125672 -0.0382985
0.0156228505 0.028360063 0.0014349745 0.011877654 0.004153951 0.010434024 0.0019720346 0.060954347
-0.0045255106 0.035774086 -0.09943098 -0.020015523 -0.0013026249 -0.0102496445 -0.060181748 0.046869155
0.013653138 0.05261663 -0.0276922 0.059239432 -0.0015950197 -0.0035386737 -0.031433795 0.013655821
-0.056248818 -0.012437718 -0.012823889 -0.038567074 0.016869852 0.018435722 -0.010835384 -0.00785116
-0.0037491352 -0.0022739316 -0.047392204 0.01778059 0.027924284 -0.043531466 0.020542042 0.05690375
-0.08126111 -0.048678778 0.013574069 0.055620868 -0.013547858 -0.072548166 -0.07981347 -0.04021647
0.0036562893 0.010486148 0.041131146 -0.04816833 0.029335117 0.029921053 0.036972202 0.0064504435
-0.0031812242 -0.02365223 -0.06307936 0.051223174 0.058546793 -0.0076712044 -0.023375312 0.006632462

network_body._body_endoder.seq_layers.2.weight f4 [256, 256]
00000000: aa87 523b fda9 1e3c 7681 0dbd 2ace 24bd
00000010: 8f93 4c3d bcc1 023d ac3e c83c f266 8fbc
00000020: 9c92 9c3d cad8 023b 41cc 093c 60c3 d9bd
00000030: 9c0f 543d dd0b a0bc 2cad 68be 25b4 453d
00000040: 2805 893d 4af0 693d 0869 09bd 566b 04be
00000050: 15f0 84bd 929c d7bd a175 27bd b203 9bbc
00000060: 0bc6 b53c 8df5 b7bd 5fa8 46bd 0237 ea3c
00000070: ea33 2fbc 9079 00be 11dd 07bd 7c2c fcbc
00000080: aec7 fa3a 6348 b63d 98a4 89bb 4e90 3dbc
00000090: a224 06be 49f0 9cbc 5e3e 073e 2483 333d
000000a0: 7619 e53b ed6a 9dbb 12fe 623d d825 b63d
000000b0: 9650 9b3d 5c00 fa3d e911 7f3d 3a18 51bd
000000c0: 96fe 80bd fbf0 1abb e001 443d 4243 0a3d
000000d0: e320 a5bd f41e 053d 877a cfbd a27f 1a3d
000000e0: 8757 44bd dfef 64bd c529 47be 889a 40bd
000000f0: 03c3 683d 556b e7bd 3031 10be d94b 60bd
00000100: 3fbb 313d bea9 e5bd fa20 c7bc e031 dbbd
00000110: 1c7e 97bd 999d 71bd 1e25 d23d f370 093d
00000120: 82d6 25bd aeb1 7c3c 84b2 04be 2ebe 71bd
00000130: 9a5c d93a ac4a a13c 6654 d63d fb64 263d
00000140: 2087 9fbd 3149 803d 9a93 18be bf89 dfbc
00000150: 10e0 a43d e921 20bd 0c9b dbbd 4259 a7bd
00000160: 7d40 ef3a 0131 6cbe 85a6 80bc c556 2e3d
00000170: fec3 613c 93fe b93b 85b5 093c c320 94bd
00000180: db8f 96bd 6c9f 563c c8ca b9bc c46c db3c
00000190: a786 8d3d 395b 6fbd bfb3 49be 907b 8a3d
000001a0: 5aa7 60be 8dbe 9abc 77a0 5d3d 4efb e93d
000001b0: 10b1 aebd 0a19 9dbc c208 9a3c 43bd eebd
000001c0: 3ca1 9a3c c60b 0fbc daec c43d b0d9 88bc
000001d0: 1e68 10be 14e8 8dbd a917 cf3d 97ec 9dbc
000001e0: c496 93bd 1cc0 4fbd 73f9 9e3b 4134 523d
000001f0: d721 a0bb 9fb0 453e 3274 69bd eeb4 a53c
00000200: 1262 a9bd 077b c0bd 3301 703d 1445 bdbd
00000210: cf5d d43c 7867 d8b9 25ad 84bd 6e97 43bd
00000220: 32cc f6bd 2c5d 0fbd 073c 5ebd 44f3 713c
00000230: c75b ca3a 804f 883d f8ad f83b c866 973c
00000240: 10c6 9d3b 82da 05be 39ac 27be 3990 e93d
00000250: 6386 6abd e0ea a9bd 622a 083d bbc4 25bd
00000260: 4771 6a3c 6363 cbbb 3e06 c0bd 6e1a a53d
00000270: dfcf c73c 99ce 01bd 3a04 94bd fc93 05be
00000280: 2627 dc3d 92b3 3cbd 31a4 53bd c720 1f3d
00000290: a341 aabd 9630 8cbb aff5 a0bd eb92 7a3d
000002a0: fa6b 143d c50f 6dbc 7108 113c e8f5 a83d
000002b0: 7365 433d da3f 7a3d 3bad 82bd 632b 333d
000002c0: 29a2 bcbc 0b61 38bc fdbd efbd 23d3 f7bd
000002d0: c00c c5bc 7fda 24be 4b0d 58bd a6bf 24be
000002e0: 2ec4 233d 037d 94bc acda ca3c a178 6dbc
000002f0: 044d 85bb 6eb0 6a3d 6761 f83c 7122 84bc
00000300: 752c 1d3d 04b2 563c f9ae a2bc 4e48 aa3d
00000310: eac0 53bd 095a 7bbb ddfe 12bc 3570 153d
00000320: 2644 293e 590b 8fbd 8566 ffbd 7c8d dcbd
00000330: def4 483b 3237 1bbd 0882 e9bd 29cb 8e3b
00000340: 9495 733d 7011 10bd 65e7 883c 05f7 0fbc
00000350: 5ed5 743d bba1 8b3d 81c5 8ebd a43f 063e
00000360: b7a4 793c 71d2 c4bc bb31 72bd 4d97 b3bd
00000370: 28d1 95bc c066 05bc e43e 91bd 467c 0bbd
00000380: 25ac 053b abf6 22bc 048d 28bd a1f8 9a3d
00000390: 50e5 ea3d 3add 86bd 7cc7 8a3d 0e8f 9abd
000003a0: d581 b9bd f450 fabd d320 183d cabc 143d
000003b0: 944a 09bd f9d5 d3bd 0a94 e9bd 8786 b9bd
000003c0: 6315 bdbd ede5 0bbe 6205 d3bd ad87 35bd
000003d0: fbb3 5ebd a291 debc 971a a0bd 59a9 3fbd
000003e0: e787 223e 5794 833d def2 cbbc 5e71 d33c
000003f0: 5fdd ca3d 8b5f 84bd 71a6 463d 7c62 7b3c
0.003212432 0.009684083 -0.03454729 -0.040235676 0.04994541 0.03192304 0.024443947 -0.017505143
0.07645151 0.0019965642 0.008410514 -0.10632968 0.0517727 -0.019536907 -0.2272231 0.048267502
0.066904366 0.057113923 -0.03354743 -0.1293157 -0.064911045 -0.1052791 -0.040883664 -0.01892266
0.02218916 -0.08982382 -0.048500415 0.028590683 -0.01069353 -0.12546372 -0.03316981 -0.03078293
0.0019132996 0.089005254 -0.0042005293 -0.011570049 -0.13099912 -0.019157546 0.13207385 0.043826237
0.0069915606 -0.0048040063 0.05541808 0.08893937 0.0758373 0.122071 0.06227294 -0.051048495
-0.062985584 -0.002364217 0.04785335 0.03375555 -0.08062913 0.032500222 -0.10130792 0.037719376
-0.047935035 -0.05589282 -0.19449528 -0.047022372 0.056826603 -0.11299769 -0.14081264 -0.054759834
0.043391462 -0.112140164 -0.024307717 -0.10702872 -0.073971 -0.058988187 0.10260986 0.033554982
-0.040487774 0.0154232215 -0.12958723 -0.05901926 0.0016583384 0.019688927 0.104653165 0.040623646
-0.07789445 0.0626396 -0.14900056 -0.027287362 0.08050549 -0.03909484 -0.10722932 -0.081713215
0.0018253472 -0.23065569 -0.015704403 0.04256322 0.013779638 0.0056760996 0.008405094 -0.07232811
-0.07351657 0.013099533 -0.022679701 0.026785262 0.069104485 -0.058436606 -0.19697474 0.06761849
-0.2193884 -0.01888969 0.05410811 0.11424886 -0.08529866 -0.019176979 0.018803004 -0.116571926
0.01887571 -0.008730834 0.09615488 -0.016705364 -0.14102218 -0.06929031 0.10111935 -0.019277854
-0.07206491 -0.05072032 0.004851514 0.051319364 -0.0048868465 0.19305657 -0.056995578 0.020227876
-0.082706586 -0.093984656 0.058594894 -0.09241691 0.025923638 -0.0004127582 -0.06478337 -0.047751836
-0.12050666 -0.035000965 -0.054256465 0.014767472 0.0015438729 0.066557884 0.007589098 0.018481627
0.0048148707 -0.13071635 -0.16374291 0.114044614 -0.057257067 -0.08296752 0.033243544 -0.04047082
0.014309234 -0.006206916 -0.093761906 0.08061682 0.024391113 -0.031691168 -0.07227369 -0.13044733
0.107496545 -0.04606969 -0.051670257 0.03884962 -0.083133005 -0.004278253 -0.078593604 0.06117527
0.036235787 -0.014469092 0.00885211 0.08250028 0.04770417 0.06109605 -0.06380697 0.04374255
-0.023026543 -0.011253606 -0.11706159 -0.12100818 -0.024053931 -0.16098975 -0.052747052 -0.16088733
0.039982013 -0.018126016 0.024762474 -0.014494092 -0.004068019 0.057297163 0.030319883 -0.016129704
0.038372476 0.013103966 -0.019858824 0.08314572 -0.05169765 -0.0038353226 -0.008971897 0.036483962
0.16529903 -0.06984586 -0.12470726 -0.107691735 0.003066353 -0.037894435 -0.114017546 0.0043577147
0.05946882 -0.03517288 0.0167119 -0.008786921 0.059773795 0.06817957 -0.06971265 0.13110214
0.015237025 -0.024026128 -0.059129458 -0.08769093 -0.01828821 -0.008142173 -0.070920736 -0.034054063
0.0020396796 -0.009946506 -0.041150108 0.075669535 0.11469519 -0.06585164 0.0677633 -0.07546817
-0.090579666 -0.12222472 0.03714068 0.036312856 -0.03351839 -0.103435464 -0.11405189 -0.09058862
-0.09232595 -0.13661928 -0.10303761 -0.044318844 -0.05437086 -0.027169053 -0.078175716 -0.046792362
0.15872155 0.06424778 -0.024896082 0.025810894 0.099055044 -0.06463536 0.048498575 0.015343305

network_body._body_endoder.seq_layers.2.bias f4 [256]
00000000: 9a22 b0bc acf1 d93c 4ec5 4cbc c34c ffbb
00000010: b2b0 32bb b66b 693d c58c 3f3c 0f04 2c3c
00000020: 5e92 3fbd d8e5 d7bb 13c7 173d 9d2c d43c
00000030: 987d 8dbc e41f c33c 7c4a 95bc a2c7 24bd
00000040: d7f0 69bc 1a53 003d d73b e2bb 58fe b13c
00000050: 4838 71bd 24a1 073d b344 3fbc 1de0 41bd
00000060: 4f16 243c a6ee 873d 9836 ba3b c787 b43c
00000070: 5156 293c 5ba2 05bd 1f7c 3fbc d97b 86bd
00000080: 77ec 1d3d 572e 993d e12b f9bc 11ea 223d
00000090: 7cab e2bc c837 fe3a 8503 25bc 3611 113c
000000a0: cc05 a7bc 8d54 01bd 2370 9d3b 08a1 d93c
000000b0: 531a 5f3c 9937 0ebb 0531 033d 8677 3abd
000000c0: 0342 5cbd dbdf a3bb 9c0a e9bc 30f8 64bc
000000d0: 7530 02bd a717 be3c 9e48 2e3d c1a2 163b
000000e0: 41b6 afbc f227 03bc 4d75 e63c 1960 23bd
000000f0: 22bd 37bc ec87 8e3c c323 f5ba d414 3bbc
00000100: e07b c83d e1a1 8a39 8752 6ebb 4d67 03bd
00000110: 95e9 19bc be2a d93b 4c8a b2bc cd28 a13b
00000120: e4df 6cbd c2a7 93bc cdf6 68bb e4d6 323d
00000130: 6aa1 6b3c e7ab 92bc 3502 733d d0d5 0cbd
00000140: 9f9d 11bd c22e 223c f663 823c f045 72bb
00000150: 1194 07bd 6a22 69bc 5209 f8bd 3158 283d
00000160: e671 033d f6a6 97bc 298a 0c3d f5da eabc
00000170: c5bc 613d b23c 2fbc c9ce a8bc f3f8 19bc
00000180: e4c4 e1bc 049f 143d 305d dcbc 83f6 be3c
00000190: deb3 9fbc 1fd7 b43b 1e46 17bd e754 92bd
000001a0: af6b f43c d2bd cfbc 1179 6d3c 8700 3939
000001b0: 887e 3fbd 167f 86bd fa27 52bd d19a 81bc
000001c0: 8af7 713c 9485 73ba 9782 2bbd 31e1 02bc
000001d0: f754 a73a d081 a13c 65b9 bebd 6061 5fbd
000001e0: f139 7bbd 66fc 1f3c edd9 01bd b469 0bbc
000001f0: 9c6f 57bd 4b52 803b 8413 6e38 c0ae 8abb
00000200: 6274 fc3c 227d 4a3c d073 b5bd c11e 793c
00000210: a735 51bc c443 263c 8ea1 843b cd46 90bd
00000220: a85b f5bb 1f2a cfbb 3918 083d 4fcf 28bd
00000230: 81a1 903c bf08 be3a f97d a23c 5628 e43c
00000240: 4c53 1b3c 7788 f63a b527 51bc d3f2 c73d
00000250: 2aa2 4b3c 75de 93bc efd2 573c 1608 12bd
00000260: 0a14 2d3c aa6f 39bc a790 08bd b229 37bc
00000270: 609d 803c 8e56 cbbc 7474 9d3c cb5a d33c
00000280: 1f23 7bbd 23c7 9e3c ee92 02bd 1b36 ec3c
00000290: 17c3 f43b 5739 46bd e02a 7fbb 0069 543b
000002a0: b111 713b 0b97 253a 16c9 6ebc 0223 cb3c
000002b0: d2fc c5bd 354c 24bd d8d3 73bd 100a 413d
000002c0: 0079 63bc 5930 bcbc 7179 213c 3500 42bd
000002d0: bb60 ccbc 2e71 48bc 62f3 20bc 1e6c b4bd
000002e0: 68fe d5ba 17c1 82bd 9c56 13bd 2d34 8bbd
000002f0: b4f6 03bd 6fcc 29bc 145a c9bc 46ab 463b
00000300: 70e1 5abc e1eb 31bb c018 32bc 1905 53bc
00000310: e6b2 8ebd 0b7b 1dbd e5da 983a 77c5 dd3c
00000320: 9734 913b b0b8 7dbb b52b fe3c 5ca0 1a3b
00000330: be7a 3abd e055 a2bc 564f 2dbc be53 8cbc
00000340: 5fd1 743d 9af9 2ebd c9a5 71bd 5fda 303a
00000350: 535c 833c f68e 17bd d999 fa3c fcfe 193b
00000360: a14b ffbc b8a3 19bc f693 03bd 8111 c53c
00000370: 99fc f5ba d343 243d 4a14 34bd b51b dcbc
00000380: a511 8cbb d467 9bbd 2841 313c 279c e43b
00000390: 6dea 30bc 9afc 02bd cba8 80bc 8d6e a3bc
000003a0: 1ca3 fcbb 20e4 303d 5d09 2d3c aa26 913d
000003b0: e5ee edbb 7bf9 89bc 6d86 3f3c d8a0 9cbc
000003c0: bf9d 8fbc e75c 253d 1d02 2ebc 6adb ad3b
000003d0: 4846 a33c aeab 643c 0dce c4bc b8d4 02bd
000003e0: 58a9 11bd c648 80bc b362 45bc e114 7c3d
000003f0: 59d8 6dbc b0e8 8fbc 5a7c e63c 4030 c6b9
-0.021500874 0.026604496 -0.012498213 -0.007791133 -0.0027265963 0.056987487 0.011691277 0.0104990145
-0.046770446 -0.006588679 0.037055086 0.02590018 -0.017271802 0.023818918 -0.018223993 -0.040229447
-0.014278612 0.03132925 -0.006904106 0.021727726 -0.058891565 0.03311266 -0.011674094 -0.04733287
0.010015084 0.066373155 0.0056827776 0.0220374 0.010335521 -0.032625537 -0.011687308 -0.06566591
0.03855559 0.07479542 -0.03041643 0.039774004 -0.02766966 0.0019395286 -0.01007164 0.008854201
-0.020388506 -0.031574775 0.0048046275 0.026566043 0.013617116 -0.002170062 0.03202917 -0.045524143
-0.05377389 -0.005001051 -0.028447442 -0.013975188 -0.031784493 0.023204638 0.042549722 0.0022985192
-0.02144921 -0.008005129 0.028132105 -0.039886568 -0.011214526 0.017398797 -0.0018702674 -0.01141854
0.09789252 0.0002644202 -0.0036365108 -0.032080937 -0.009394069 0.0066274097 -0.02179446 0.004918194
-0.057830706 -0.01802433 -0.0035547495 0.043661967 0.014381746 -0.017904235 0.059328277 -0.034383595
-0.03555071 0.009898843 0.015916806 -0.0036967956 -0.03310019 -0.014229396 -0.12111153 0.04109973
0.032091044 -0.01851223 0.034311447 -0.02866886 0.055111665 -0.010695623 -0.020606415 -0.009397733
-0.027559705 0.03628446 -0.026899904 0.023310905 -0.019494947 0.0055188085 -0.036932103 -0.071451
0.029836504 -0.025359068 0.0144941965 0.00017643171 -0.04675153 -0.065672085 -0.051307656 -0.015820893
0.014768491 -0.0009289619 -0.041872587 -0.00798826 0.001276641 0.01971522 -0.09312705 -0.054536223
-0.061334554 0.009764766 -0.03170197 -0.008509088 -0.052596673 0.00391606 5.6761797e-05 -0.0042322576
0.030817214 0.012358936 -0.0885998 0.015205086 -0.012769139 0.0101479925 0.004047579 -0.07044754
-0.007487733 -0.00632216 0.033226226 -0.04121333 0.017655136 0.0014498456 0.019835459 0.027851265
0.009480309 0.001880898 -0.012765815 0.09763112 0.0124288 -0.018050412 0.013172849 -0.035652243
0.01056386 -0.011318127 -0.033341076 -0.0111793745 0.015700042 -0.024821546 0.019220568 0.02580013
-0.06131279 0.019382065 -0.031878404 0.028834393 0.0074695456 -0.048394527 -0.0038935468 0.0032411218
0.0036784227 0.00063167576 -0.01457431 0.024796966 -0.09667362 -0.04011174 -0.0595282 0.047128737
-0.013883829 -0.022972273 0.009855614 -0.04736348 -0.024948468 -0.012234015 -0.009823652 -0.08809684
-0.0016326429 -0.06384485 -0.03597127 -0.06797061 -0.032217696 -0.010363682 -0.024579085 0.003031449
-0.013359413 -0.0027148651 -0.010870159 -0.012879633 -0.06967716 -0.03844742 0.0011661915 0.027071698
0.004431318 -0.0038714819 0.0310267 0.0023594117 -0.045527212 -0.019816339 -0.010577997 -0.017129775
0.059769984 -0.042718507 -0.058995996 0.0006746407 0.016035235 -0.037001573 0.030590938 0.002349793
-0.031163992 -0.0093774125 -0.03212353 0.024056198 -0.0018767297 0.040103745 -0.04396466 -0.02686868
-0.0042745643 -0.07588163 0.010818757 0.0069766226 -0.010798079 -0.03197918 -0.015705487 -0.019950176
-0.007709874 0.043186307 0.010561314 0.07087453 -0.0072611445 -0.016842594 0.011689764 -0.019119665
-0.017531274 0.0403718 -0.010620621 0.005305697 0.019930974 0.013956947 -0.024024034 -0.031941146
-0.03556189 -0.015659701 -0.0120474575 0.06154335 -0.014516913 -0.017567009 0.028135467 -0.00037801452

action_model._continuous_distribution.log_sigma f4 [1, 2]
00000000: 307c 82c0 b997 3fc0
-4.0776596 -2.9936354

action_model._continuous_distribution.mu.weight f4 [2, 64]
00000000: e349 02be f6a3 68be 42d6 d13b be3f 66be
00000010: 0044 9abd 811f 9a3c 8f95 7abe 3fd5 97bd
00000020: eba3 743d 9203 b2bd e7db 443b 41a4 90bc
00000030: 01e0 833e 9769 1abc 65a4 3a3e f019 2f3e
00000040: fab6 f43c 23e5 79be bc23 7dbe 4eab 71be
00000050: 65b2 003e c0a4 983d a427 8e3d 70cb 13be
00000060: f751 a0bc 0eab 1a3e b76e 08be 93cd 1e3e
00000070: 4e9d 6f3b 8a75 eabd 7fc5 02be bedb 5c3e
00000080: 8a78 d63d f85f 3dbd ce32 27be 8fcd acbd
00000090: cba0 823d 3829 363e c1c0 0b3e 9185 09be
000000a0: c43e 6abc dfd4 1f3e 24de 65be 616c 49be
000000b0: 8c5b 8dbd a83b 993e c157 b3bd 53af 61be
000000c0: 6368 683e 83ce 383d 2c28 cf3d 644b e6bd
000000d0: 2342 11be 3b41 2ebe e36a 353c 0528 f03d
000000e0: 7a20 97bd 087e 0b3e a6ac 9ebd e700 7b3d
000000f0: 88b7 a6bd 4c3f 60bc bc32 08be 3f8a 88bd
00000100: 7aea 0abe 81dd 323d 3835 65be 8c8d d23d
00000110: 16cc f73d 79b8 20be f4d8 923d bdd7 733d
00000120: d406 cebd 951d 513e af46 233e 519a 04bd
00000130: 9fe9 e23c 390f 4fbe 3584 8bbd c61d f63c
00000140: 6d82 cbbd d9d9 363d b93b 233d d482 9f3d
00000150: b7fb 5d3d 7538 5a3c 2472 db3d 934f 4c3a
00000160: cb43 81bd 444c e9bd c8dc dc3a 2991 afbd
00000170: 8528 ab3b 6426 fb3d b302 243e 859b b7bc
00000180: 7785 c73d 6669 5dbe cc37 433d ac2d 6dbe
00000190: 7feb 84be 9884 dabd 0f0e f6bd 6bae e2bc
000001a0: f705 373e 66a3 0fbe 2a91 c93c 965a ac3d
000001b0: 9f44 2a3e 64d7 7d3d 83e7 71bd 09cc 203d
000001c0: b171 d4bb 2bec 13be c143 593d 42fe c23d
000001d0: 0c8c f33c bc64 f9bc 7add 7bbc 33a9 4bbe
000001e0: 9879 95be cf9a 6c3d dcba 48be 66f8 383e
000001f0: 6d87 6a39 b453 12be 8e1d 083e f647 88bd
-0.12723498 -0.22718796 0.0064037153 -0.22485253 -0.07532501 0.01881385 -0.24471115 -0.0741372
0.059726637 -0.08692087 0.0030038299 -0.017656447 0.2575684 -0.009424589 0.18226774 0.17099738
0.029872406 -0.24403815 -0.24720663 -0.23600504 0.12568052 0.074532986 0.069411546 -0.14433074
-0.019570334 0.15104315 -0.13323484 0.15508108 0.0036562267 -0.114482 -0.12770651 0.215682
0.1047221 -0.0462341 -0.16327974 -0.08437645 0.06378325 0.17789161 0.13647749 -0.13429858
-0.014297191 0.15608548 -0.22448021 -0.1967025 -0.06902227 0.29928327 -0.08756972 -0.22039537
0.2269607 0.04511882 0.10115084 -0.11244848 -0.14185385 -0.17017071 0.011072847 0.11726383
-0.07379241 0.13622296 -0.07747774 0.061280157 -0.081404746 -0.013686966 -0.13300604 -0.06666993
-0.13566008 0.043668274 -0.22383583 0.10280904 0.12099473 -0.1569537 0.07170287 0.059531916
-0.10059896 0.20421441 0.15944932 -0.03237373 0.02769929 -0.2022065 -0.06812326 0.030043494
-0.09936986 0.04464135 0.039851878 0.07788625 0.054195132 0.0133191245 0.1071513 0.000779384
-0.063117586 -0.113915 0.0016850466 -0.08572609 0.005223336 0.12263182 0.16016655 -0.022413025
0.09742253 -0.21622238 0.047660634 -0.23161954 -0.2596092 -0.106698215 -0.120144 -0.02767106
0.17873369 -0.14027175 0.024605352 0.084157154 0.1662774 0.06197299 -0.059058677 0.039257083
-0.0064832796 -0.1444556 0.05304313 0.09521152 0.029729865 -0.030443542 -0.015372628 -0.19888763
-0.2919433 0.057764824 -0.19602531 0.18063506 0.00022366429 -0.14289743 0.13292524 -0.066543505

action_model._continuous_distribution.mu.bias f4 [2]
00000000: 3dae f1bc ca8a 533c
-0.029502029 0.012911508

onnx::LSTM_101 f4 [1, 256, 256]
00000000: 6d66 093e 71cc 113e 20b4 3fbd 8498 9c3d
00000010: 67b2 f4bc 5d77 1bbd 7063 ebbd 208c d5bd
00000020: d680 91bc adaf df3c c879 f03d a953 2e3d
00000030: 8763 8b3d 3b28 3e3d eb21 b7bd fcdd de3d
00000040: 6063 c43d 8473 9f3c 4faf a73d c598 173d
00000050: f6fd ce3d b8e7 bd3d 2015 a53d 97da b8bb
00000060: ffa2 6d3d eb92 e1bd bd91 23bd 6f9f 88bd
00000070: 4a82 403d b683 4e3c f1bc a83d 0c5b 30be
00000080: 79ff 003e 2847 84bc 7125 8c3c 590b c23d
00000090: b492 973b b198 edbc df9e b4bd c6f1 05bd
000000a0: deb7 5d3c d457 cc3a 2f16 b6bd 06cd 353d
000000b0: c195 dcbd 25fa 293e 2b41 ca3d 3fd6 d03d
000000c0: b20f eabd eff1 f43d 019a 1a3d bf03 cb3d
000000d0: ec80 0cbe 76ba 96bd 5005 ab3c 6452 463d
000000e0: ce0a 043e edc8 823d 8904 0bbe 983a 0a3e
000000f0: 4010 4cbd 00bb b6bc 25ac 03be d5f3 f3bb
00000100: 63a1 7cbd 7460 a7bc 64fd 943d 49f9 4d3c
00000110: b1c7 1fbe 221f d7bd 88d0 863d b50b c7bc
00000120: b25e e0bd 7171 1ebe 8bc3 4bbd abcb dcbd
00000130: 16df f1bd 99ff 543d 97ee 80bd 9661 5dbc
00000140: dca3 1abd bdc8 3b3d 2b5a cc3d 19af 08be
00000150: f34b 2fbd 14a8 56bc 5a57 c1bb e453 163e
00000160: 7327 c83d 6665 283d f975 d6bb 5723 09bd
00000170: f4ca 01be b654 c0bc 347a aabc 16a6 abbd
00000180: 8508 063b 2001 8f3d bbf3 b33d 6ce6 a13d
00000190: 2be3 fc3d fdac 08be 64bb 483d 12ff c03d
000001a0: 013d ba3d 9872 f53d fce6 f43b 1ef7 2cbd
000001b0: 0da1 bdbd ef04 ab3d d8fb 39bd 3f08 843d
000001c0: 2298 023e 8b06 a33d 1260 ab3d 3dae 9ebd
000001d0: 8a09 7e3d b62e b93d e806 17be 1944 173e
000001e0: 1e76 0fbe 6af7 dabc 87c0 483c 7c27 3c3d
000001f0: 3f5e 903d 9661 b1bd e997 aabc 964c abbd
00000200: 7417 dcbb d159 d1bd 6e8c 82bd e805 203d
00000210: 4547 4a3d ba30 d13d df68 e7bd 4e06 133d
00000220: cabf c0bd cdcc 853d aa0d b8bd 1c07 a1bc
00000230: c3c9 023c e254 c2bc 370c b1bd 66e9 903a
00000240: 8ae1 2fbd d40a e03c 38bd 133d a036 22bd
00000250: 8c44 17bd 6c3b d93d adf3 053e a6f8 84bd
00000260: 7d7d 943d 23b1 d93d 9363 ddbd fa81 88bd
00000270: adef edbd 8ec5 fabd 9999 173c 236d d4bc
00000280: 01e9 763d 0650 123e 443a 7d3d 70f3 953c
00000290: 424b 823d f759 a53d 6549 09be 5f65 9fbb
000002a0: f6da 86bd e621 1abd e862 013e 7535 f0bd
000002b0: 0d02 86bd 203e 203e 5ae8 a6bc 2b6e 423d
000002c0: 4169 0bbe 05e7 85bd 8bc1 de3d 35ba 8d3d
000002d0: f35b ccbd 58a6 bd3d a07e b2bd 94f8 7fbc
000002e0: 1f9b 99bc 3743 0fbd 872a 8dbd a390 94bc
000002f0: a02a 91bd 2def 8a3d a4a9 4fbd 692f 00be
00000300: 3aff d63d 8f8a 07bd 9a46 e03c e560 a53d
00000310: 9cd2 b7bc 74a3 03be f620 56bd 3f29 0a3e
00000320: 3521 bf3c 8eae 1d3e d55c b3bd 42a4 a6bc
00000330: 335e b53c 72dd d7bd 3124 36bd 948f 1cbd
00000340: b4c4 62bc 2a89 e23d 1b6d 0f3d 4450 cabd
00000350: bd25 093d 72ce 39bc 7403 87bd 0d9e 303c
00000360: 52e2 f63d b62d 88bd f371 993a c96b 053e
00000370: d52d f0bd 89cf f03c 6ae7 f23d db5c 6ebd
00000380: 5ff5 c5bd c193 fabc 82f1 283e b04f 9b3c
00000390: 0878 ee3c a386 973d 3dc8 9dbd 7bc6 f5bc
000003a0: e5f6 73bd 951a 093c a9de 913d 9525 e53c
000003b0: e218 a4bc cdb4 82bd 9b05 27be ef2e a93d
000003c0: a14b 81bd 8b08 b03d ef77 003e 6ebc f23d
000003d0: 9b07 db3d d194 dd3b 5165 963d 4149 d4bd
000003e0: 4e74 1c3e 4449 0d3d 7e24 1e3e 78c4 5f3c
000003f0: 5cb5 cc3d 20f7 0cbe e06a dd3d 5a21 a03c
0.13417979 0.14238144 -0.04680264 0.076462775 -0.029870225 -0.03795563 -0.114935756 -0.10427117
-0.01776163 0.027305448 0.11741978 0.042560253 0.06806093 0.046425086 -0.08942016 0.10882184
0.09589267 0.019464262 0.08187734 0.037010927 0.10107033 0.092727125 0.0806067 -0.0056412923
0.058016773 -0.110143505 -0.03993391 -0.066710345 0.046999253 0.0126046445 0.08239163 -0.17222232
0.12597455 -0.016147211 0.017107697 0.09474821 0.0046256427 -0.029003473 -0.08819365 -0.032701276
0.013532607 0.001559014 -0.0889095 0.04438498 -0.10770751 0.16599329 0.09875711 0.10197114
-0.11428775 0.11960208 0.037744526 0.09912824 -0.13721055 -0.07359783 0.020876557 0.048418418
0.12894747 0.0638598 -0.13575949 0.13498914 -0.049820185 -0.022305965 -0.12858637 -0.0074448385
-0.061677348 -0.020431735 0.07274893 0.012571641 -0.1560352 -0.10503985 0.06582743 -0.024297575
-0.10955562 -0.15472962 -0.04974703 -0.10781034 -0.118101284 0.05200157 -0.062955074 -0.013512036
-0.037753925 0.045845736 0.09978136 -0.13348044 -0.04279704 -0.013101596 -0.0059003057 0.14680439
0.09773149 0.041112326 -0.006544825 -0.03348097 -0.12675077 -0.023477893 -0.020810224 -0.08381288
0.0020451855 0.069826365 0.08786722 0.079052776 0.12348016 -0.1334724 0.049006835 0.09423651
0.09093667 0.11984748 0.0074738245 -0.042227857 -0.092592336 0.083505504 -0.045406193 0.06446885
0.12753347 0.07960232 0.08367933 -0.07748077 0.062020816 0.090421125 -0.14748728 0.14772071
-0.14009902 -0.026729304 0.012252933 0.045936093 0.07049226 -0.08661191 -0.02082439 -0.08364217
-0.006716663 -0.10222209 -0.06374441 0.039068133 0.049384374 0.10214372 -0.112992994 0.035894684
-0.09411581 0.06533203 -0.08986981 -0.01965671 0.007982674 -0.023722116 -0.08644908 0.0011055886
-0.0429397 0.027348913 0.036069125 -0.039602876 -0.036930606 0.10607037 0.13081236 -0.064927384
0.072504975 0.10629489 -0.10810008 -0.06665416 -0.1161798 -0.12244712 0.009252929 -0.025930947
0.060280804 0.14288339 0.061823145 0.018304557 0.063620105 0.080738 -0.13406904 -0.0048643793
-0.06584732 -0.037629984 0.12635386 -0.11728946 -0.0654336 0.15648699 -0.020374466 0.047468346
-0.1361437 -0.06538204 0.10876759 0.06920282 -0.099784754 0.09260243 -0.08715558 -0.0156232305
-0.018750725 -0.03497621 -0.06892877 -0.018135374 -0.07088208 0.067839004 -0.05069889 -0.12518086
0.10497899 -0.033091124 0.027377415 0.08075122 -0.022439294 -0.12855321 -0.052277528 0.13492297
0.023331264 0.15398619 -0.08757941 -0.020341996 0.022139644 -0.10540284 -0.04446811 -0.038222864
-0.013840843 0.11061318 0.03501616 -0.09878591 0.033483256 -0.011340724 -0.065924555 0.01077987
0.12054886 -0.06649344 0.0011706933 0.13029398 -0.11727492 0.029395835 0.11860545 -0.058194023
-0.096659414 -0.030588033 0.16498378 0.018958896 0.02910997 0.07398727 -0.07704208 -0.03000187
-0.05956163 0.008368154 0.07122547 0.027972022 -0.020031396 -0.06382141 -0.16310732 0.08260905
-0.06313253 0.085953794 0.12545751 0.11852346 0.1069481 0.006762125 0.07343543 -0.103655346
0.15278742 0.0344937 0.15443608 0.013657682 0.09995529 -0.13766146 0.108114004 0.019547153

onnx::LSTM_102 f4 [1, 256, 64]
00000000: e060 8e3d 76e8 81be a936 053b d6f9 183e
00000010: 89e1 65be 267d 303e 3079 75be 1aba 9a3b
00000020: 4ae8 58be 570c bf3d 61ab 10bd 5116 593e
00000030: 4efa 013e 200f 17be 4104 3d3e 4ca2 16be
00000040: b477 a83d 74e6 84bd a569 32be 2ece 85be
00000050: 9bf2 b5bd c42e 8b3d 292b 9e3c 9a73 92bc
00000060: eeca d63d dc76 9ebd c207 03be cf60 a83d
00000070: 0b19 04be 928f bebd 5ba6 2abe 66be 003e
00000080: 39d8 31be 4ff3 01be db37 063e 9186 37be
00000090: a7c3 1cbe c234 37bd 6cc0 c43d 6e54 0c3e
000000a0: 72c9 603c 1589 1a3d a4cd c23d 88fa 94be
000000b0: 46b6 ec3d b798 443e 8d1f 13be 4925 403e
000000c0: 8dbc 2b3e aff2 c63d 11cf e13d 385a 5b3d
000000d0: cb41 06be a806 cfbc 37d0 b83c 7095 583e
000000e0: e209 9abd 72d5 04be 39d0 21bd a2af 3b3e
000000f0: 4b4a 7c3d 01c8 fcbd 2562 0abe 92b0 063e
00000100: 28ef 233e c39f 3abe 189d 9f3d 4ed6 2cbd
00000110: 565b 80bd 0f9c ddbd b10f 8c3d 2089 a93d
00000120: e6a9 68bd 3ff9 4fbe abe5 82bc fcec aa3c
00000130: af35 9f3b 713f c13d f092 833e 00a1 b03d
00000140: 8a3f c83d 503c 9fbd cd2e 133e 9a1d b03d
00000150: 8963 8cbe d028 803e 1713 c1bd 8f9c 903c
00000160: 3fa8 7dbd 3c4a 1f3e 0b90 19be e472 593e
00000170: 945f 0f3e 6ee6 4c3d 5051 733d 8831 813e
00000180: b14c d43d bd5e 3ab9 2b40 3b3e aa44 f5bd
00000190: a513 29bd 066f 823e e8ff 41bd 87c1 20be
000001a0: 6214 a0bd c89b 52be fd71 81be bdb6 13bd
000001b0: 6b59 8dbd 014f 333e 7a7d 08be 7781 89be
000001c0: 5def ff3d 9d87 6ebc 95e1 a43d c69e 323e
000001d0: 01f1 b23d 6848 b9bd 68cf eb3d 3879 2b3e
000001e0: 8cbc 51be cac2 583e caea 4b3e 7d5d 17be
000001f0: ad07 d7bd 6e32 1a3e dc72 9c3d 89ed 4b3d
00000200: 0c05 aebe ecef 5abd aee6 30bd e105 b3bd
00000210: 0e61 f6bd 734e ad3d c22c 1dbe 0b31 b83d
00000220: bdb1 06be bdcd bebd 870b 73bb cbcc 953e
00000230: 54e3 423e e299 c23d 7955 723e ed09 a33e
00000240: 25fc 4e3e 11e9 f6bd d9e9 b4be d534 8bbe
00000250: 50ab 3f3e ca8c 533e 75b1 563d 4233 c6bd
00000260: 2941 b33d cb4d 9e3e d2c1 8cbe 9344 4c3e
00000270: 10fd c23d d3b7 fd3c e313 aa3c 2b4a e5bd
00000280: c9da 7f3e 3cd1 7abe f44b 53bd e5c6 83bc
00000290: 43c5 44be 6055 0fbd b6ec b03e 101f 093d
000002a0: 7727 abbd 60be dd3d 8adb b5bd 76ca 38be
000002b0: 235b 953d fa70 743e 75c9 05be 87fc 9dbd
000002c0: 74eb 59be fbd2 2ebe 123a 56bd bc40 d83d
000002d0: 812c 74be 8381 79bd a12d 2cbe 6048 353e
000002e0: 1255 bebc 71d5 6f3e 3fc2 2abe c030 09be
000002f0: acb1 f93c 02f5 efbd 1ee5 193c 51e1 37be
00000300: af57 02be a386 553e 3a05 87bd 4b94 3fbe
00000310: 3672 aebd e797 58be a0c2 04be 076e e9bd
00000320: fd52 a5bc 177e 213e b189 a6bc 6fad f7bd
00000330: 7a37 c7bd 8a71 75bd accf 213d 0808 01be
00000340: bd49 15be 1caa c6bd 3f0d 4e3e de2b 4ebc
00000350: c936 223d 4412 c03d 079a 3cbe 1919 f6bd
00000360: 8a0b 7c3c 2738 003e ada8 35be 36d0 793d
00000370: 63e5 033e a830 c8bc 022c f23d fc55 0d3e
00000380: ea52 4f3e e6ca 01be cd3b 3f3e c067 2f3e
00000390: 8890 923e 198a 353e eca7 94bd 9022 77bd
000003a0: 50a2 fd3d 1917 143c feaf c3bd 3236 b6be
000003b0: c5ec 91be 0fbc 46be 9b1a 98bd e140 8c3d
000003c0: 139c 58be e8fc 423e 9347 27be 265b c93d
000003d0: 7e4e d8bc b6ba 9abd 9596 b4bd 5a96 093e
000003e0: a849 5f3d 32ae 673e bd37 7e3d f22a 98bd
000003f0: a253 22be 0324 863e f8be 543d 35d4 56be
0.06952071 -0.25372666 0.002032677 0.14939055 -0.22449316 0.1723524 -0.2397201 0.004721892
-0.21182361 0.093285255 -0.03531969 0.2119992 0.1269314 -0.14751863 0.18458654 -0.14710349
0.082259566 -0.06489268 -0.17423113 -0.26133865 -0.08884164 0.06796029 0.01930769 -0.017877389
0.104879245 -0.077375144 -0.12795928 0.0822159 -0.12900178 -0.093047276 -0.16665022 0.12572631
-0.17367639 -0.12690471 0.13107245 -0.17922427 -0.1530901 -0.04472805 0.09607014 0.13704082
0.013719903 0.037728388 0.09511879 -0.2909739 0.115582034 0.19198881 -0.14367504 0.18764223
0.16771145 0.09714257 0.11025823 0.053552836 -0.13111036 -0.025271729 0.022560222 0.21150756
-0.07521416 -0.12972048 -0.039505217 0.18328717 0.06159429 -0.12342835 -0.13514002 0.13153294
0.160092 -0.18225007 0.07793635 -0.042196564 -0.06267421 -0.108207814 0.068389304 0.08278108
-0.056802653 -0.20309924 -0.015978655 0.020864956 0.0048586945 0.094359286 0.25698042 0.08624458
0.09777744 -0.077751756 0.14373322 0.08599396 -0.2741969 0.25031137 -0.09427469 0.017652778
-0.06192803 0.15555662 -0.14996354 0.21235234 0.14001304 0.050024442 0.059403718 0.25233102
0.1036619 -0.00017773635 0.18286197 -0.11975987 -0.0412785 0.2547533 -0.04736319 -0.15698825
-0.07816388 -0.20567238 -0.2528228 -0.036062945 -0.06901821 0.17510606 -0.13329116 -0.26856586
0.12496827 -0.0145587 0.08050839 0.1744338 0.08737374 -0.090470135 0.11514169 0.1674546
-0.20482081 0.21168056 0.19913784 -0.14781757 -0.10499511 0.150583 0.07639095 0.049787078
-0.33988225 -0.053451464 -0.043188743 -0.08741356 -0.120302305 0.084622286 -0.15349105 0.08993729
-0.1315374 -0.09316585 -0.0037085728 0.29257807 0.19032031 0.09502007 0.23665418 0.3184351
0.20213373 -0.12056173 -0.35334662 -0.27188745 0.18717694 0.20659176 0.05241533 -0.096777454
0.08752663 0.30918726 -0.27491623 0.19948034 0.09520924 0.030971443 0.020761436 -0.11195787
0.24985804 -0.24493879 -0.051586106 -0.016086051 -0.19215874 -0.03499353 0.34555596 0.03347689
-0.08357137 0.10827327 -0.088797644 -0.18045983 0.072927736 0.23871222 -0.13065131 -0.077141814
-0.21281224 -0.1707267 -0.052301474 0.10559222 -0.23845102 -0.060914528 -0.16814281 0.1770339
-0.023233924 0.23421265 -0.16675662 -0.13397503 0.030480228 -0.117166534 0.009393005 -0.17957045
-0.12728761 0.20852141 -0.06592794 -0.18708913 -0.08517878 -0.21151696 -0.12964869 -0.11397939
-0.020181173 0.15770756 -0.020329328 -0.12093627 -0.09727378 -0.059922732 0.039504692 -0.1260072
-0.1457891 -0.097004145 0.2012224 -0.012583701 0.03960303 0.09378484 -0.18418132 -0.12016506
0.0153836105 0.1252142 -0.17740126 0.06098958 0.12880473 -0.024437264 0.118248 0.13802332
0.20246473 -0.12675056 0.18675156 0.17129421 0.28625894 0.17728461 -0.07258591 -0.060335696
0.12384474 0.00903871 -0.09555052 -0.35588223 -0.28500953 -0.19407676 -0.074269496 0.06848312
-0.21153288 0.19041789 -0.16335897 0.09831838 -0.026404615 -0.075551435 -0.08817784 0.13436261
0.054513603 0.22625044 0.062064875 -0.07430066 -0.15852216 0.2619935 0.051939934 -0.20979388

onnx::LSTM_103 f4 [1, 512]
00000000: 5524 07bd c58e 69bd ba0d 993b c283 453d
00000010: 507d 8b3d 077f 003d 3d17 833d 6a21 1a3c
00000020: ea2c 2a3c ddc2 80bc 90bb c9bc 4ca9 8b3d
00000030: 6cd9 2fbd e42a a13d d25d ee3c 5446 a9bb
00000040: 4318 5d3d 6f98 a93d 9a98 4cbc ec76 413c
00000050: e831 a23c 4fa6 92bd 908a b63c c469 d93c
00000060: 4818 87bb 9615 cf3c f4ea 373d f1b0 b33d
00000070: e2c8 37bd d1f6 20bd 9444 033d e458 953c
00000080: 8b5c ac3c 72cf 033c 4865 603a b147 e13c
00000090: f0ef 8dbc 4ebc 813c a1c1 163d 8717 60bc
000000a0: 96af 6fbd 677e 233d ce87 823d 032d f53c
000000b0: ebcb cfbb b9fe 39bd dc31 dcbc 684d 793d
000000c0: 3010 123c d15a 963c 8d1c 0fbd 8438 b5bc
000000d0: e9c0 91bb 2638 77bd cbf6 1dbc 720e 953b
000000e0: 8d6e 25b9 49cf 0c3e e7d6 323d 3ab4 5fbc
000000f0: bc20 f83c 765c de3c cdf0 623c f474 a03d
00000100: 1ef3 b0bc 881a 1d3d bc1a a7bc 4afc a83d
00000110: c660 20bd 7e32 92bd 0fc5 053c afdc 7c3b
00000120: 77b5 52bd 0b0b 583d 77b1 6dbd 27a8 873c
00000130: 2d7c 8bbb 4983 cb39 c813 e33c bff6 19bc
00000140: a853 673d fba4 61bc c4d1 98bb 8672 923d
00000150: b6de 223c 840a b13a 56e1 543b 0f99 e7bc
00000160: 15aa 353c 131e cb3a dc51 593c 438b 1d3d
00000170: f87f 48bb c08e 03bd f963 8ebc 8deb 863d
00000180: b93c b43c 36bb d9bc 6ab7 f43c bca0 f13c
00000190: 88a4 803c 1f66 fa3c 7f04 883c ec2d 9cbc
000001a0: f3b6 b73d c2e5 10bd 14b1 443d e904 aebc
000001b0: a5a7 0d3d fbcf 6e3d 1b8e a5bc 1469 a53d
000001c0: a3b3 bf3c aa17 5c3a 8d19 2f3d 715b 59bc
000001d0: 8fcd 643a a90a b23d c199 a8bd 426b e4bc
000001e0: eecf 9d3d 0915 033d 4cc3 613d c012 463d
000001f0: 6cf7 ce3c d550 043e 1920 8dbd d842 5b3c
00000200: 10dd 863f 6586 823f 41f3 833f 4c4d 803f
00000210: 6192 863f 0d96 823f 5477 813f 70a4 863f
00000220: 4802 7d3f 2788 7a3f 925f 6a3f 5be3 7a3f
00000230: 6fc7 813f 7cf2 843f 97ca 7a3f 90c4 733f
00000240: 998d 863f 0b7f 783f 0159 6a3f 520d 833f
00000250: 7d88 883f bf50 863f 5cda 883f 0890 853f
00000260: 3a2a 883f 8329 853f c048 873f 0a2c 813f
00000270: 8dae 663f 672d 7c3f 753c 813f 557c 723f
00000280: a9ad 883f d0f5 6a3f 9016 823f 8148 703f
00000290: fee3 773f a1e7 803f f953 8a3f 8082 783f
000002a0: 3dfb 853f 0eca 803f b632 883f edb8 863f
000002b0: 5f9f 833f 48e1 773f 51e8 823f daff 723f
000002c0: 4483 853f cef3 7f3f 4509 883f 65f5 843f
000002d0: 12da 713f 7a2a 7c3f 1e61 823f 2348 833f
000002e0: 9162 8c3f 8cf9 813f a5c3 873f 1c90 823f
000002f0: ba84 833f 71a8 803f e2c0 883f cf98 833f
00000300: 379a 3b3d a33b 183d 84df c0bc 3bfc eb3c
00000310: a452 27bd dd4a 08bd 70d4 203d c048 953c
00000320: b946 3f3d 030a 543c 3dde ca3c 32d4 853c
00000330: 27d0 323c 096a c4bc 6a9e c3bc 156f 32bc
00000340: f0b3 663d b4eb cdbd d568 7e3d 1200 e2bc
00000350: cd16 283d 11e9 e7bc 56f7 3bbd e6c2 11bd
00000360: e122 883c a278 de3c ce03 033d c60a 33bd
00000370: 68d8 b7bc 5651 8cbd 7b01 083d e5e5 47bd
00000380: 7faf d53c 9266 08bd 1ac1 c1bb a6e9 293c
00000390: 1200 8c3d b970 ebbc 8174 013c 0bd1 2ebd
000003a0: 5b7f a8bc 21a9 6bbd e384 903a cfc5 cabc
000003b0: ed06 90bd c15b fdbb 12c9 623c a0e9 b9bc
000003c0: 6b3e 493d b941 e53b e348 9f3c 0a21 193b
000003d0: 5e6a f3bc 955e f0bc 438d 03bd cb6e bf3c
000003e0: 365a 833c 711d 13bc f450 59bd a5d5 5dbc
000003f0: 5a29 b2bc 4a58 4dbb 85ca cabc 3195 533d
-0.032993633 -0.05702092 0.004670826 0.048221357 0.06811011 0.031371143 0.06400917 0.009407381
0.010386685 -0.015717918 -0.02462557 0.068194 -0.04293196 0.07869509 0.029097471 -0.0051658545
0.053978216 0.082810275 -0.012487555 0.011808138 0.019799188 -0.07160627 0.022282869 0.02653969
-0.0041227676 0.025278848 0.044901803 0.08773983 -0.04486931 -0.039297882 0.032047823 0.018230863
0.021040222 0.008045064 0.0008560014 0.027500005 -0.017326325 0.015836861 0.036805753 -0.013677484
-0.05851706 0.03991547 0.06373559 0.02992869 -0.0063414476 -0.045408938 -0.026879244 0.060864836
0.008914992 0.018353852 -0.034939338 -0.022121675 -0.0044480455 -0.06035628 -0.00964136 0.004548841
-0.0001577681 0.13750948 0.043661978 -0.013653809 0.030289046 0.027143698 0.013851357 0.07834807
-0.021600302 0.03835538 -0.02039849 0.08251245 -0.03915479 -0.07138537 0.008164658 0.0038583686
-0.05144259 0.052744906 -0.05803057 0.016559673 -0.0042567463 0.00038816992 0.027719393 -0.009397208
0.056476265 -0.013772245 -0.004663678 0.0715075 0.009940794 0.0013507162 0.0032482943 -0.028271226
0.011087914 0.0015496634 0.013264146 0.03846289 -0.0030593853 -0.03211856 -0.017381655 0.065878965
0.022001611 -0.026578527 0.029872615 0.02949559 0.015703455 0.030566273 0.016603706 -0.019064866
0.08970442 -0.035375364 0.048020437 -0.021242576 0.034583706 0.058303814 -0.020209363 0.08076683
0.023401087 0.000839586 0.042748976 -0.01326643 0.00087281404 0.086934395 -0.08232451 -0.027883176
0.07705675 0.032002483 0.05511789 0.048357725 0.025264464 0.1292146 -0.06890888 0.013382636
1.0536213 1.0197264 1.030861 1.0023589 1.0513421 1.0202042 1.0114541 1.0518932
0.98831606 0.97864 0.9155208 0.98003167 1.0138987 1.03865 0.9796538 0.95221806
1.0511962 0.9706885 0.9154206 1.023844 1.0666653 1.0493392 1.0691638 1.043458
1.0637887 1.0403293 1.0569077 1.0091565 0.90110093 0.9850678 1.0096575 0.94720966
1.0677997 0.9178133 1.0163136 0.9386063 0.96832263 1.0070688 1.0806876 0.9707413
1.0467297 1.0061662 1.0640476 1.0525185 1.0283011 0.96828127 1.0227147 0.9492165
1.0430684 0.9998139 1.0627829 1.0387388 0.94473374 0.98502314 1.0185888 1.0256389
1.096758 1.0154281 1.0606581 1.0200229 1.027488 1.0051404 1.0683863 1.0281008
0.045801368 0.03716625 -0.02354408 0.028806796 -0.040850297 -0.03327452 0.039265096 0.018223166
0.046698306 0.01294184 0.024764175 0.016336534 0.010913885 -0.023976343 -0.023879249 -0.010890742
0.056323946 -0.100547224 0.062111694 -0.027587924 0.04103737 -0.028309377 -0.045890175 -0.03558626
0.016618194 0.027157132 0.03198605 -0.043711446 -0.022442058 -0.06851451 0.033204537 -0.04880323
0.02608466 -0.033300944 -0.005912912 0.010370648 0.06835951 -0.028740274 0.007901312 -0.042679828
-0.02056854 -0.05753434 0.0011025931 -0.024752526 -0.07032571 -0.007731885 0.013841884 -0.022694409
0.049131792 0.00699636 0.019443935 0.002336564 -0.029713806 -0.029341975 -0.03211714 0.02336826
0.016034227 -0.008979187 -0.05305572 -0.013539706 -0.021748234 -0.0031333142 -0.024754772 0.051655952
