code/selfparking/mla/results/test_05/Car.onnx (onnx, 692944 bytes, 10 tensors)

network_body._body_endoder.seq_layers.0.weight f4 [256, 91]
0	0x3cdf7b7b	0.02728056
1	0x3d44ea03	0.048074733
2	0x3dc0d095	0.09414784
3	0x3e201896	0.15634379
4	0xbc93d5bb	-0.01804625
5	0xbe8e1b60	-0.2775526
6	0xbdd929e2	-0.10603692
7	0x3ddcdb88	0.1078406
8	0x3b6747fc	0.0035290709
9	0x3db2e5ef	0.087352626
10	0xbd6a85cc	-0.057256505
11	0xbcf9dee5	-0.030501792
12	0x3d42608f	0.047455367
13	0xbd599681	-0.053122047
14	0xbd2a04e3	-0.041508567
15	0x3e6bfe98	0.23046339
16	0xbd92e433	-0.07172432
17	0x3cc6189f	0.024181662
18	0xbda60647	-0.08106666
19	0x3bdcea24	0.006741779
20	0xbd893092	-0.06698717
21	0x3d19a6e1	0.037512664
22	0xbde10ddc	-0.109889716
23	0xbdb87ae6	-0.09007816
24	0xbe2ca893	-0.16861181
25	0x3e2fe6c2	0.17177871
26	0xbc36a46f	-0.011147602
27	0xbe4d9bda	-0.20078984
28	0x3e5077d1	0.20358206
29	0x3ddae4c9	0.106881686
30	0xbd9fc925	-0.07802037
31	0x3dbabaf4	0.0911769
32	0x3c3cf375	0.011532654
33	0xbe127e06	-0.14305887
34	0xbe0a0a1a	-0.13480416
35	0x3d918872	0.07106103
36	0x3d030246	0.03198459
37	0xbce1902e	-0.02753457
38	0xbe5a477b	-0.2131633
39	0x3cbc2ae1	0.022969665
40	0x3dadd3e6	0.08487682
41	0xbdbd88b1	-0.092545874
42	0x3ca92caa	0.02065118
43	0xbea8a9db	-0.3294209
44	0xbd42fc43	-0.047603857
45	0xbe45ad51	-0.19304396
46	0xbc74d930	-0.01494436
47	0xbd2ce0cf	-0.04220658
48	0xbe1c624a	-0.1527187
49	0xbe02ac17	-0.1276096
50	0xbc3ab1b8	-0.0113949105
51	0xbde105c0	-0.10987425
52	0xbd69d615	-0.05708893
53	0x3de4078a	0.111342505
54	0xbd663614	-0.056203917
55	0xbdca0701	-0.09864617
56	0x3d88bfd4	0.06677213
57	0x3e62083a	0.2207345
58	0xbe3186e1	-0.17336608
59	0xbc86e2bb	-0.016465535
60	0x3cad8426	0.021181177
61	0x3e5a16fc	0.2129783
62	0xbd3f731c	-0.046740636
63	0xbcf7b01a	-0.030235339
64	0x3cd3313d	0.025780315
65	0x3dba6d6c	0.09102902
66	0x3e474fb7	0.19464003
67	0x3dedefc5	0.11617998
68	0xbe4bb8ce	-0.19894716
69	0x3dd3e6d1	0.10346759
70	0xbcb06a7e	-0.021535154
71	0x3ce755b7	0.028239114
72	0x3dad6591	0.08466638
73	0x3b605592	0.0034230691
74	0xbe360fa6	-0.17779407
75	0x3e1bb7d3	0.15206842
76	0x3e22708f	0.1586325
77	0x3ba080a5	0.004898148
78	0xbdff27ba	-0.12458749
79	0xbd9ce2fa	-0.0766048
80	0x3e50e882	0.20401195
81	0xbe2a86b3	-0.16652946
82	0xbd5f0bab	-0.054454487
83	0x3c3ccbb9	0.011523181
84	0xbcee0335	-0.029054264
85	0x3c808e14	0.015692748
86	0xbdd5e8d2	-0.104447976
87	0xbe09b00b	-0.13446061
88	0x3e191361	0.14948799
89	0xbbf63a81	-0.0075142984
90	0x3df2c9c9	0.11854894
91	0x3e071c32	0.1319435
92	0xbe19cef7	-0.15020357
93	0x3d4ad233	0.049516868
94	0xbd59918f	-0.05311733
95	0x3db739ae	0.089465484
96	0x3db32056	0.08746402
97	0x3ddb16ef	0.106977336
98	0xbe1701ca	-0.14746776
99	0x3d2eaa32	0.04264278
100	0x3e60fb9f	0.21970986
101	0xbd857dd4	-0.065181404
102	0x3dae5e7e	0.08514117
103	0xbe2af96e	-0.16696712
104	0xbd40c5df	-0.047063705
105	0x3e797ddd	0.2436442
106	0x3dcff8be	0.10154866
107	0x3be88b10	0.0070966557
108	0xbd052c73	-0.032513093
109	0x3d919d21	0.07110048
110	0x3d5b2052	0.05349762
111	0x3d084133	0.033265304
112	0x3d95a428	0.07306701
113	0xbe3258bd	-0.17416663
114	0xbd6b8006	-0.05749514
115	0x3d758e00	0.059949875
116	0xbc01b551	-0.007916764
117	0x3d5f4e6c	0.05451815
118	0x3ceba2b2	0.028764103
119	0xbd8f14ff	-0.069864266
120	0xbdce4c43	-0.100731395
121	0x3e54daed	0.20786639
122	0xbd3935e9	-0.04521743
123	0xbe3072d3	-0.17231302
124	0xbd75c250	-0.059999764
125	0x3e27e88d	0.16397305
126	0xbe47ef99	-0.19524993
127	0xbde6561a	-0.11246891
128	0x3d7b4db2	0.061353393
129	0x3d70eec7	0.058821466
130	0x3d5b61a3	0.05355991
131	0xbe9b794d	-0.30365983
132	0x3e30f415	0.1728061
133	0x3e9e4233	0.3090988
134	0xbd517f1f	-0.051146623
135	0xbdb8f85b	-0.09031745
136	0xbd4f9010	-0.050674498
137	0xbe451d78	-0.19249523
138	0xbb9bc77f	-0.0047540064
139	0x3e383385	0.17988403
140	0xbcf11a55	-0.029431501
141	0x3d15c802	0.036567695
142	0xbdabb2b7	-0.083836965
143	0x3cd7376a	0.02627154
144	0x3e2c38ad	0.16818495
145	0x3dfdaaed	0.12386117
146	0x3e05c771	0.13064362
147	0x3e1f062d	0.155297
148	0xbd9aadde	-0.07552694
149	0x3de00104	0.10937694
150	0x3db54c39	0.08852429
151	0xbda23178	-0.07919592
152	0xbd39e8b6	-0.045387946
153	0xbd8b3c2f	-0.067985885
154	0x3e582e1e	0.21111342
155	0xbe3fe16c	-0.18738335
156	0xbd93e3c9	-0.07221181
157	0xbdfbb73f	-0.12290811
158	0xbe821799	-0.2540863
159	0x3dd1669a	0.10224648
160	0x3deec555	0.11658732
161	0xbc1ea4d6	-0.009682855
162	0x3d9c6d01	0.07637978
163	0x3d29fee5	0.041502852
164	0xbdc3b750	-0.095564485
165	0xbd0f1449	-0.034931455
166	0xbe1ee361	-0.15516426
167	0xbab2e814	-0.0013649487
168	0xbe0d0048	-0.13769639
169	0xbd423c17	-0.047420587
170	0x3d991a60	0.07475734
171	0xbd99704e	-0.074921235
172	0xbd46f59a	-0.048574068
173	0x3e5b31e8	0.21405756
174	0x3dc5a834	0.09651223
175	0xbdec5527	-0.11539679
176	0x3e366de3	0.17815356
177	0xbd9cf95e	-0.076647505
178	0xbcbd2cf0	-0.023092717
179	0x3daa58e9	0.083177395
180	0xbe0e336c	-0.13886803
181	0x3e194ac7	0.14969932
182	0x3c098aa1	0.008394868
183	0x3d7c4e50	0.061598122
184	0xbdc8f4e8	-0.09812337
185	0x3e02cad4	0.12772685
186	0xbd6dd574	-0.058064893
187	0x3cd79dc2	0.026320342
188	0x3da66fa9	0.08126766
189	0xbd85648b	-0.06513318
190	0x3e8e1edb	0.27757916
191	0x3d0d7890	0.034538805
192	0x3e0ddf40	0.13854694
193	0xbc46f01e	-0.012142209
194	0xbe146298	-0.14490736
195	0xbe467ad7	-0.19382797
196	0xbdda14f0	-0.10648525
197	0x3deaa8f1	0.11458004
198	0xbda05316	-0.078283474
199	0x3c850927	0.016239716
200	0xbd8d734c	-0.06906757
201	0x3dfaf8dd	0.12254498
202	0x3d808974	0.06276217
203	0xbd9bbc6e	-0.076042995
204	0xbe7949c5	-0.24344547
205	0x3e813ae6	0.25240248
206	0x3dc535be	0.09629391
207	0x3da8b6ab	0.08237966
208	0xbc8452b8	-0.016152725
209	0xbe56e989	-0.20987524
210	0xbdeafc26	-0.11473875
211	0x3e56eac4	0.20987993
212	0xbbb479d9	-0.0055076894
213	0xbe17f287	-0.1483861
214	0x3cbfef3a	0.023429502
215	0x3cba1465	0.022714803
216	0xbc9c3824	-0.019069739
217	0xbc08d353	-0.008351165
218	0xbbabae70	-0.0052393004
219	0xbdda5cb3	-0.10662212
220	0xbe1e8e65	-0.15484007
221	0x3de851ac	0.11343703
222	0x3e2a0480	0.16603279
223	0x3e076725	0.1322294
224	0x3e0c7645	0.13716991
225	0xbc2f8cd0	-0.010714725
226	0x3c81892b	0.015812477
227	0xbd7f8b56	-0.06238874
228	0x3dbf9260	0.09354091
229	0xbd106bfa	-0.035259224
230	0xbdbaeeb2	-0.09127559
231	0xbde9f254	-0.114231735
232	0xbd9ac883	-0.07557776
233	0x3e52ef3b	0.20599072
234	0x3e3f8df8	0.187065
235	0xbd5b8a92	-0.053598948
236	0x3cbfb14e	0.023399975
237	0x3de6663c	0.112499684
238	0x3d4c620e	0.0498982
239	0x3e03eb69	0.1288277
240	0x3c89d634	0.016825773
241	0x3d4515cc	0.04811649
242	0x3d109b32	0.035304256
243	0x3e56f97f	0.20993613
244	0x3dcb40e8	0.09924489
245	0xbe18b2a5	-0.14911897
246	0xbcedf530	-0.029047579
247	0x3b84a2de	0.0040477356
248	0xbdbd83b1	-0.09253634
249	0xbdc4044b	-0.09571131
250	0xbc0420d5	-0.008064468
251	0xbdcdf17a	-0.100558236
252	0xbda65d67	-0.08123284
253	0xbe113f2b	-0.14184253
254	0x3c3a5139	0.011371904
255	0xbe220aef	-0.15824483

network_body._body_endoder.seq_layers.0.bias f4 [256]
0	0x39d2f868	0.00040239398
1	0x3b278911	0.0025563876
2	0xb8b0e580	-8.435082e-05
3	0x3ae4d589	0.0017458658
4	0xb8a77265	-7.984488e-05
5	0x3b0caaf9	0.0021464212
6	0xbb2a64a1	-0.002599992
7	0x3a788c12	0.00094813213
8	0x3abda70e	0.0014469342
9	0x3a42a6b8	0.0007425356
10	0x3b19e89a	0.0023484589
11	0x3b1844bf	0.0023234335
12	0x3acb2854	0.001549969
13	0x3ae744ef	0.0017644445
14	0xbb1341f6	-0.0022469736
15	0x3aeba7f6	0.0017979133
16	0xba270588	-0.00063713687
17	0xba06e12f	-0.00051452493
18	0x3b4460ed	0.0029964999
19	0x3b14b74a	0.0022692257
20	0xbb18cbf4	-0.0023314925
21	0x3892384f	6.972311e-05
22	0xbb2abf98	-0.002605414
23	0x3a36f080	0.00069785863
24	0xb87b3554	-5.989273e-05
25	0x38fd6913	0.00012083552
26	0x3aa9d692	0.0012957624
27	0xbb11bb8f	-0.0022237038
28	0x3aac3ffe	0.001314163
29	0xbb2407d1	-0.0025029073
30	0x3a126d64	0.00055857585
31	0x38c9617d	9.6025855e-05
32	0x3a2b37f6	0.0006531471
33	0xbb131469	-0.0022442585
34	0xbb0b7a64	-0.0021282667
35	0x3aa01286	0.0012212552
36	0x3aa46fc8	0.001254552
37	0xba76345e	-0.00093919586
38	0x3a3b60f7	0.0007147933
39	0x3aa6c99c	0.0012724879
40	0x39cb5c04	0.00038787734
41	0x3ae63aeb	0.0017565166
42	0xbb22f967	-0.0024867894
43	0x3a3e411a	0.00072576257
44	0xbab22629	-0.0013591695
45	0x3afb7340	0.0019184127
46	0xb8e03ad5	-0.00010692111
47	0xb95e8198	-0.00021219847
48	0xbb7e9fbb	-0.003885253
49	0x3a4746e4	0.0007601811
50	0xbac9d330	-0.0015398022
51	0x3b3de8d3	0.0028977885
52	0xb9debc15	-0.00042483272
53	0x3ab42db1	0.0013746527
54	0xbb225727	-0.0024771185
55	0xbb3b908f	-0.00286201
56	0x3b0bd563	0.0021336905
57	0xba1959d2	-0.0005849871
58	0x38f26ef9	0.000115601295
59	0x3b0c3618	0.0021394547
60	0x3a6e00bc	0.0009079089
61	0xbacf98e0	-0.0015838407
62	0x3abaf349	0.0014263178
63	0xbb403490	-0.0029328205
64	0xba75edaf	-0.0009381426
65	0xb9ae8693	-0.00033288132
66	0xb9ed9443	-0.00045314626
67	0xba2284e0	-0.00061996095
68	0xbacfabfc	-0.0015844102
69	0xba413608	-0.0007370417
70	0xb911d458	-0.00013907382
71	0x3b2deeab	0.0026539962
72	0x3986e7fa	0.00025731308
73	0x3b062718	0.002047008
74	0xbb11bdbf	-0.0022238342
75	0xb6f7b51a	-7.3822566e-06
76	0x39172c2a	0.00014416935
77	0xb9a21dea	-0.00030921336
78	0x3a4bd8ee	0.00077761605
79	0xb98eca03	-0.0002723486
80	0x3b0b313c	0.0021239063
81	0xbb1e5b52	-0.0024163318
82	0x3a4816bc	0.0007632782
83	0xbb42baf1	-0.0029713477
84	0xbab7d145	-0.0014024159
85	0x3ac1d449	0.0014787997
86	0x3880ac4e	6.13561e-05
87	0x3a71b62e	0.00092205673
88	0xba9848d2	-0.0011618382
89	0xbaef960e	-0.0018278973
90	0xba21fa20	-0.0006178934
91	0xbb1eaab8	-0.0024210643
92	0x3b44061c	0.0029910868
93	0xbb2e304c	-0.002657908
94	0xba93ee82	-0.0011286291
95	0xbab7f0de	-0.0014033576
96	0x3ae87c7b	0.0017737293
97	0x3b3caea5	0.002879062
98	0x3b66ad1a	0.0035198391
99	0xba90b813	-0.0011041187
100	0x3b92fbc8	0.004485581
101	0xb920005f	-0.00015258927
102	0xba1ab6db	-0.00059018814
103	0xbb6342c5	-0.003467725
104	0xbadc50e1	-0.0016808772
105	0x3a66b5d7	0.00088009
106	0xbb8089a5	-0.0039226585
107	0xba81bfe1	-0.0009899103
108	0xbaf6eb8f	-0.0018838512
109	0x3a09da48	0.00052586617
110	0xba2b2e22	-0.00065300066
111	0x398d9c98	0.00027010287
112	0xba87b41d	-0.001035336
113	0xbb077f6f	-0.0020675322
114	0x399d7256	0.0003003056
115	0xba2e8c5d	-0.0006658489
116	0xb969b312	-0.0002228732
117	0x39bb7ec8	0.0003576188
118	0x3a0c00d9	0.00053407025
119	0xbaeed83e	-0.0018222404
120	0x3b0edac1	0.0021797868
121	0x3b4b6832	0.0031037447
122	0x3b45ed15	0.0030201126
123	0x3a733f56	0.0009279152
124	0xb9a2f816	-0.00031083886
125	0xb9f47133	-0.00046623647
126	0xb9e7b50e	-0.0004419465
127	0xb9a50027	-0.00031471366
128	0x3af0369c	0.0018326822
129	0x3aa13409	0.0012298833
130	0x3abd89da	0.0014460639
131	0x3b101510	0.002198521
132	0xb9d27e53	-0.0004014844
133	0xbaca4dcb	-0.0015434561
134	0xba207ae4	-0.0006121828
135	0xbacb0b02	-0.0015490951
136	0xbaa1920a	-0.0012326848
137	0x3aa33bb3	0.0012453705
138	0xba082655	-0.00051937
139	0x3ab744c4	0.0013982286
140	0x3b3b2015	0.0028553058
141	0x38f3d7f2	0.00011627366
142	0x3a0a1e89	0.00052688323
143	0x3a75c3de	0.0009375195
144	0xbb2df978	-0.00265464
145	0x3a0dade8	0.0005404637
146	0x390cb8d5	0.00013420296
147	0x3b027dbb	0.0019911367
148	0x3a7dca0b	0.0009681291
149	0x38eb6459	0.000112243644
150	0xb97e016c	-0.00024223857
151	0xb9396bf4	-0.0001768319
152	0xbb06dda7	-0.0020578892
153	0x3acd8a21	0.0015681424
154	0x3abd5b25	0.0014446719
155	0x3a6a80ee	0.00089456036
156	0x39bde907	0.00036222508
157	0xbb9f9327	-0.004869837
158	0xba927d90	-0.0011176337
159	0x3b2fec69	0.0026843792
160	0x38f18689	0.00011516835
161	0x3a4562d0	0.0007529678
162	0x3a78d1ba	0.0009491701
163	0x3b0acfe0	0.0021181032
164	0x3aee2e84	0.0018171822
165	0x3a2b1f11	0.00065277616
166	0xbb04c5bc	-0.002025946
167	0xbb0b13a9	-0.0021221435
168	0xbb291208	-0.00257981
169	0x3b29cbc7	0.0025908814
170	0x3b305c6a	0.0026910552
171	0xbb1114f4	-0.0022137733
172	0xb88f3cab	-6.830072e-05
173	0xb99f3e1a	-0.00030373113
174	0xb98b471b	-0.00026565124
175	0xbb5c60da	-0.0033627064
176	0x3a5dbc62	0.0008458552
177	0x3a03b19b	0.00050237187
178	0xb78eee24	-1.7038612e-05
179	0xba69bb7f	-0.0008916184
180	0x3b068af2	0.0020529595
181	0x3ab15375	0.00135289
182	0x3a30a3a4	0.00067382515
183	0x3a8498e9	0.0010116372
184	0xb9c207f9	-0.00037008504
185	0xbb01bb4c	-0.0019795476
186	0x3a67d78b	0.0008844069
187	0x3b0ac6f5	0.0021175717
188	0x3ab838b2	0.0014054982
189	0x388582de	6.36631e-05
190	0x3b1edcef	0.0024240573
191	0xbb2a66f0	-0.0026001297
192	0xb8a87017	-8.0317426e-05
193	0x38da0033	0.00010395087
194	0x395eb88d	0.0002124032
195	0xb6393040	-2.7595233e-06
196	0xb9a919da	-0.00032253453
197	0x3b6fbb25	0.0036580053
198	0xba545faa	-0.0008101413
199	0xb79dc6ea	-1.8808485e-05
200	0xbacc08ae	-0.0015566552
201	0xba2be72d	-0.000655758
202	0xbb2b7a41	-0.0026165398
203	0x3b1be4e5	0.0023787555
204	0xb6e557d0	-6.8349545e-06
205	0xbb46162a	-0.0030225613
206	0x389bc0fc	7.426922e-05
207	0xb98885b4	-0.00026039558
208	0xbb628605	-0.0034564745
209	0xbb634725	-0.0034679857
210	0x3b0f907e	0.0021906192
211	0x3ae3251c	0.0017329785
212	0x3a4e5207	0.00078704994
213	0x3b532f54	0.0032224255
214	0x3aa87aa0	0.0012853928
215	0x3b0957e3	0.0020956926
216	0x3aa4f19e	0.0012584215
217	0x3b066abd	0.0020510398
218	0xb9a27418	-0.00030985544
219	0x392796b8	0.00015982508
220	0xbaa05a56	-0.0012233953
221	0xbb1cf193	-0.00239477
222	0xba0abd43	-0.00052924844
223	0xbb2bc0b4	-0.002620739
224	0xbb0dccd9	-0.0021636991
225	0xb9081316	-0.00012977081
226	0xb9f258fd	-0.00046224138
227	0x3a280b6d	0.0006410394
228	0x38c12a9e	9.210895e-05
229	0xbb7aa25b	-0.0038243744
230	0xba058780	-0.00050937384
231	0x3b84dcc2	0.0040546367
232	0xba1870aa	-0.0005815128
233	0x3a2fabac	0.00067013013
234	0x3afdde3c	0.0019368599
235	0xbaa39356	-0.0012479823
236	0xba96994e	-0.001148978
237	0xb8aa2a58	-8.114119e-05
238	0xba62d451	-0.00086528534
239	0x3adce67b	0.0016853357
240	0x3a9311a8	0.0011220472
241	0x3b0efb32	0.0021817205
242	0xba7260b5	-0.0009245978
243	0x3afb5a36	0.0019176665
244	0x3b070385	0.0020601463
245	0x3868690c	5.5410943e-05
246	0xba3e0c44	-0.00072497525
247	0xba929c51	-0.0011185502
248	0xb9d8383b	-0.00041240625
249	0x3b14d95e	0.0022712569
250	0x39436816	0.00018635424
251	0x39de116d	0.00042356123
252	0xba862da0	-0.0010236986
253	0x3a39133c	0.0007060056
254	0xba94af77	-0.0011343797
255	0x39b20ce1	0.000339604

network_body._body_endoder.seq_layers.2.weight f4 [256, 256]
0	0x3d4741bb	0.04864667
1	0x3d94fb50	0.072744966
2	0xbd1f6d17	-0.038922396
3	0xbc5cdad7	-0.01347991
4	0x3d20d9c0	0.039270163
5	0xbe1bf80d	-0.15231343
6	0xbc278d59	-0.010226571
7	0xbd914f4b	-0.07095202
8	0x3d50feac	0.051024124
9	0x3d062025	0.0327455
10	0xbbe7b0a1	-0.0070706164
11	0xbd1577a3	-0.036491048
12	0x3bf43e6c	0.0074537303
13	0xbd050806	-0.032478355
14	0x3d29a673	0.041418504
15	0x36060400	1.9969884e-06
16	0x3d6e0906	0.058114074
17	0xbd16e7bf	-0.036842104
18	0x3d763131	0.060105506
19	0x3ca763ed	0.02043339
20	0x3cad4a3a	0.021153558
21	0xbde5d9ed	-0.11223207
22	0x3c9c8789	0.019107597
23	0x3e710253	0.23536043
24	0xbd8e7bc2	-0.06957199
25	0xbd9154fe	-0.07096289
26	0xbc63e39a	-0.013909245
27	0xbb53b9bf	-0.0032306758
28	0x3c50cb85	0.012743835
29	0xbc5db9c1	-0.013533057
30	0xbd2db2e8	-0.042406946
31	0x3d74bb26	0.05974879
32	0x3c8f96f7	0.01752804
33	0x3da3204a	0.07965143
34	0xbd998d8b	-0.074977
35	0x3a969803	0.0011489395
36	0x3ddd2718	0.10798472
37	0xbdb73060	-0.08944774
38	0x3dcbfb42	0.09960033
39	0x3c532009	0.012886056
40	0x3c9b38b6	0.01894794
41	0xbd87f0b3	-0.066377066
42	0xbd573378	-0.05253932
43	0x3bd9b918	0.0066443793
44	0x3d8eadbb	0.0696673
45	0x3a0d55e7	0.00053915236
46	0x3db21644	0.08695653
47	0x3d442561	0.04788721
48	0xbe124c12	-0.14286831
49	0x3cf627f3	0.030048346
50	0xbda6c139	-0.08142323
51	0xbd74b6ba	-0.059744574
52	0xbc96f695	-0.018428126
53	0x3d2a58e1	0.041588668
54	0xbd908672	-0.070568934
55	0x3d28cdd4	0.041211918
56	0xbdee7456	-0.11643283
57	0x3dd50774	0.10401812
58	0x3d2f3a98	0.04278049
59	0xbce4db8f	-0.027936725
60	0xbb1ce301	-0.0023939016
61	0xbd3ed771	-0.04659218
62	0x3be39504	0.0069452543
63	0x3cbd49af	0.023106424
64	0x3e0cba34	0.13742906
65	0xbe07c906	-0.13260278
66	0x3bb77c4c	0.005599534
67	0x3d9c4168	0.07629663
68	0xbafef7c8	-0.0019452507
69	0x3dd47932	0.10374679
70	0xbbb68b04	-0.005570771
71	0x3dff7386	0.12473206
72	0xbbfadad1	-0.0076554795
73	0xbd1db743	-0.03850485
74	0x3d0f9d76	0.035062276
75	0xbd92baed	-0.071645595
76	0x3c841f36	0.016128164
77	0xbca90cd7	-0.020636005
78	0xbdfb6c4b	-0.122765146
79	0xbdf45099	-0.11929435
80	0x3cccc8e2	0.024998132
81	0xbd8eaf10	-0.06966984
82	0xbdb6b59a	-0.089213565
83	0xbc380a1c	-0.011232879
84	0x3cc05ee6	0.023482751
85	0xbc4e66f5	-0.012597789
86	0xbc98b923	-0.018642968
87	0xbde593df	-0.11209845
88	0x3d9d3b63	0.07677343
89	0xbdcd4f76	-0.100249216
90	0xbd2197ed	-0.03945153
91	0xbc8a2c63	-0.016866868
92	0x3e041e64	0.12902218
93	0xbd1f35a0	-0.0388695
94	0xbd85a801	-0.06526185
95	0xbd7d9b7a	-0.061915852
96	0xbd85bac0	-0.0652976
97	0x3c6de39a	0.0145195965
98	0xbd86ce7e	-0.06582354
99	0xbd0d3252	-0.034471817
100	0xbb2f801d	-0.0026779242
101	0xbd59730e	-0.05308824
102	0x3cce8a39	0.025212394
103	0xbbc9bb75	-0.00615638
104	0x39ca055a	0.0003853243
105	0x3c0e0997	0.008669279
106	0xbd509457	-0.050922718
107	0xbcc7bb7a	-0.024381388
108	0x3b842d37	0.0040337103
109	0x3c6e8398	0.014557742
110	0x3dd4c12f	0.10388409
111	0x3d566475	0.052341897
112	0xb9f181b3	-0.00046063735
113	0x3d6b9ebc	0.057524428
114	0x3db15ebd	0.08660648
115	0x3e0781f6	0.1323317
116	0x3d1f9f8f	0.038970526
117	0x3d8f417f	0.06994914
118	0x3c8181c9	0.015808957
119	0xbce23809	-0.02761461
120	0xbdc35ce9	-0.095392056
121	0xbbc38860	-0.005967185
122	0x3d9d0e1d	0.076687075
123	0xbb4b0395	-0.0030977477
124	0x3c459b4f	0.012060954
125	0xbd643c2a	-0.05572144
126	0x3d0487c4	0.03235604
127	0x3b7d0472	0.0038607386
128	0x3c597070	0.013271436
129	0x3ccbdf54	0.024886765
130	0x3d9d9da9	0.07696087
131	0xb99419e2	-0.00028248044
132	0x3d6555a6	0.055989884
133	0xbc344b51	-0.011004285
134	0x3c59488f	0.013261928
135	0xbbc978fb	-0.006148455
136	0xbcd5776e	-0.026057925
137	0x3d9a0cc5	0.07521967
138	0x3d81287d	0.06306551
139	0x3de927e8	0.11384565
140	0x3df7ed22	0.12105776
141	0xbdc3c0f9	-0.09558291
142	0xbd461126	-0.048356198
143	0xbcf5f91a	-0.030026007
144	0x3d04a170	0.03238052
145	0x3de411d2	0.111362115
146	0x3bff3c6e	0.007789186
147	0xbd165966	-0.03670635
148	0x3db4b4e8	0.08823568
149	0x3bc97a9c	0.0061486494
150	0x3c4bdfe9	0.012443521
151	0x3d0de903	0.034646045
152	0xbe0861b6	-0.13318524
153	0xbcbaae28	-0.022788122
154	0x3c6018a9	0.013677754
155	0x3d83eb9a	0.06441422
156	0xbe0a2471	-0.13490464
157	0xbce04ec6	-0.027381312
158	0x3c69a71f	0.014261036
159	0x3da1cca0	0.07900357
160	0x3d9d82af	0.076909415
161	0xbd072547	-0.032994535
162	0x3caf32fb	0.021386614
163	0xbcbe874a	-0.02325787
164	0x3d9249a1	0.0714295
165	0x3d214cae	0.039379768
166	0xbd07a607	-0.03311732
167	0xbd8892e7	-0.066686444
168	0x3d784b27	0.060618546
169	0xbd03dd2a	-0.03219334
170	0xbcda30fd	-0.026634688
171	0xbc994636	-0.018710237
172	0x3c174502	0.009232761
173	0xbd85ffc4	-0.06542924
174	0xbcc14618	-0.023592994
175	0xbd3df7b4	-0.046378806
176	0xbce0e92f	-0.02745494
177	0xbd627d20	-0.05529511
178	0xbce796ae	-0.028270092
179	0xbdb1258e	-0.08649741
180	0x3d924af8	0.071432054
181	0xb7befa10	-2.276621e-05
182	0xbcc05674	-0.023478724
183	0xbd441170	-0.047868192
184	0x3dcbe171	0.09955109
185	0xbc4bfbeb	-0.012450199
186	0x3d744163	0.05963267
187	0xbcbc737d	-0.023004288
188	0x3d9f0d6f	0.07766234
189	0xbe0085cf	-0.12551044
190	0x3dbf9ede	0.093564734
191	0x3db3ac3b	0.08773085
192	0x3d3b0b6c	0.04566519
193	0x3e180464	0.14845425
194	0x3d174ee4	0.03694047
195	0x3daf4dbc	0.085597485
196	0xbd72f56c	-0.059316084
197	0xbddfbea5	-0.109250344
198	0xbb725869	-0.0036978966
199	0x3d075dc3	0.033048403
200	0xbd912fd3	-0.070892
201	0x3aa6219b	0.001267481
202	0x3d2eb55b	0.042653423
203	0xbdb0a995	-0.08626095
204	0xbdae3815	-0.085067905
205	0xbce23164	-0.027611442
206	0x3da30592	0.07960047
207	0x3cfe8f59	0.031074213
208	0xbd8bad73	-0.06820192
209	0xbb58a384	-0.0033056447
210	0x3c01230f	0.007881894
211	0xbd005a92	-0.031336375
212	0x3ccbcbe3	0.024877494
213	0x3dd81c9f	0.10552334
214	0x3e2cf757	0.16891228
215	0x3d286221	0.041109208
216	0xbd57dc85	-0.05270054
217	0x3cb378c8	0.021908179
218	0x3cfd7870	0.030941218
219	0xbdbe06ab	-0.092786156
220	0xbc49231a	-0.012276435
221	0xbd7a8cf8	-0.061169595
222	0x3d23f3bb	0.04002736
223	0x3cfd4335	0.030915836
224	0xbc133e92	-0.008987086
225	0x3d8c688b	0.068558775
226	0xbbc769ac	-0.006085595
227	0xbd3bf266	-0.045885466
228	0xbd3df2fd	-0.04637431
229	0xbda31754	-0.07963434
230	0x3cbc1460	0.022958934
231	0x3dfaace6	0.12240009
232	0x3d04e13e	0.03244137
233	0x3c903469	0.017603116
234	0xbd25e8af	-0.040505107
235	0x3d9a77c8	0.07542378
236	0x3c47dcc5	0.012198632
237	0x3d1cb205	0.03825571
238	0x3cb9f729	0.022700863
239	0xbd6bb6e4	-0.057547465
240	0x3d69adb4	0.05705042
241	0xbd6b1a89	-0.057398353
242	0x3d1df3ec	0.0385627
243	0x3cf6a1dc	0.030106477
244	0x3ca259d1	0.019818218
245	0xbd89918d	-0.06717215
246	0x3d950046	0.07275443
247	0xbd8d192f	-0.06889569
248	0xbd2a83f3	-0.041629743
249	0x3d35a1f4	0.044343904
250	0xbb35d6f0	-0.002774652
251	0x3caef56e	0.021357264
252	0xbdefaeb1	-0.117032416
253	0x3db25619	0.08707828
254	0xbd6ff04c	-0.058578774
255	0x3db8453b	0.0899758

network_body._body_endoder.seq_layers.2.bias f4 [256]
0	0x3a7133fc	0.00092011667
1	0xba4c5806	-0.0007795099
2	0xb9a51105	-0.00031483933
3	0x3a204f8c	0.0006115369
4	0xba617d57	-0.0008601746
5	0xbaf10768	-0.0018389048
6	0x38ee2979	0.00011356449
7	0x38901bb2	6.871614e-05
8	0x3b0d84fc	0.0021594157
9	0x3aba3f2f	0.0014209504
10	0x38abaee6	8.186493e-05
11	0x3af756d4	0.0018870481
12	0xbaa4705f	-0.0012545696
13	0x3af9aa74	0.0019047991
14	0x38ede503	0.000113436974
15	0x3a334d18	0.0006839796
16	0x3a4a9415	0.00077277544
17	0x3a1acbf4	0.0005905025
18	0x3a4bdcb1	0.0007776721
19	0x3a39b77b	0.00070845307
20	0xbab298b9	-0.0013625837
21	0xb963efb6	-0.00021737706
22	0xbb0a4aac	-0.0021101637
23	0x3ad0b87d	0.0015924122
24	0xbb26d6bd	-0.0025457584
25	0xba28bff2	-0.00064372935
26	0x39a54198	0.00031520124
27	0xbaee9dc0	-0.0018204972
28	0x38c7d5c9	9.52888e-05
29	0x39a6f1a6	0.0003184203
30	0x3a2763c9	0.00063854136
31	0xbabfe6c1	-0.0014640914
32	0xbb663996	-0.0035129539
33	0x3ad57f58	0.0016288562
34	0xba02a216	-0.0004983259
35	0xbaebcac0	-0.0017989501
36	0x3b0217a3	0.0019850514
37	0x3a64790f	0.0008715549
38	0x38d1bc5e	0.00010000983
39	0xbab00463	-0.0013429042
40	0xba9e49e9	-0.001207647
41	0x38e64e27	0.00010981812
42	0x3ac5eb7e	0.0015100089
43	0x3a99c176	0.001173063
44	0xbb3b6684	-0.002859504
45	0x3ad0c304	0.001592726
46	0x390deef5	0.00013535826
47	0x3b2d2818	0.0026421603
48	0x389d5f93	7.5041455e-05
49	0xba0a51cf	-0.00052764727
50	0xb9558254	-0.00020361814
51	0xbb3c35a7	-0.0028718503
52	0xb988f74f	-0.000261242
53	0x3a0556c0	0.0005086474
54	0x395f70e5	0.00021308994
55	0xbacf78b7	-0.0015828823
56	0xbb3505fe	-0.002762198
57	0x3a575881	0.0008214787
58	0xbab59d56	-0.0013856094
59	0xba845dd6	-0.0010098766
60	0xba00ee1c	-0.00049182936
61	0xb9e82689	-0.000442792
62	0x3ae214cb	0.0017248628
63	0x3a2bf38f	0.00065594254
64	0xbb043739	-0.0020174517
65	0xb9fd267e	-0.000482846
66	0x3a5f414e	0.0008516506
67	0x3998f3a0	0.00029173214
68	0x3b402bbe	0.0029322947
69	0x3aeaba00	0.0017908216
70	0x3b42add6	0.0029705665
71	0xbb2fd0fd	-0.0026827448
72	0xbb2075c4	-0.0024484256
73	0xba3946db	-0.0007067748
74	0x3a0c3e01	0.00053498155
75	0xb5887188	-1.0165832e-06
76	0xbab07afb	-0.0013464385
77	0x3b5ee83c	0.0034012934
78	0xbb516c00	-0.0031955242
79	0xb8c6c3cc	-9.477846e-05
80	0x3b31a7ba	0.002710803
81	0xba5dbe74	-0.00084588607
82	0xbb19af99	-0.0023450612
83	0xb9dfd24f	-0.00042690567
84	0x3ab83859	0.0014054879
85	0xbad0d7b6	-0.0015933427
86	0x3af68823	0.0018808882
87	0xba8a818f	-0.0010567176
88	0x3b2d76bf	0.0026468483
89	0x3a547747	0.0008104932
90	0x3aa715ce	0.0012747587
91	0xbb1965d3	-0.002340664
92	0x3a084982	0.0005198942
93	0xbb09e58b	-0.002104136
94	0xbab682b6	-0.0013924453
95	0x37095ae0	8.186995e-06
96	0x3b17f8f8	0.0023189168
97	0xbac12244	-0.0014734943
98	0xbb3d3e49	-0.0028876236
99	0xba5ecdce	-0.0008499295
100	0xbb47db66	-0.0030495762
101	0x3a067ede	0.0005130599
102	0x3a981a9b	0.0011604609
103	0xbb0e9a00	-0.0021759272
104	0xb9c1e9f7	-0.00036986146
105	0x3b416aad	0.0029513047
106	0xbabaead0	-0.0014260653
107	0x3b4150a5	0.002949753
108	0x3ac081d0	0.0014687125
109	0x3b07daa4	0.0020729685
110	0x3afde601	0.0019370915
111	0xbb06d108	-0.002057137
112	0xb962cfcb	-0.00021630448
113	0x3af372d0	0.0018573646
114	0x3b22dc03	0.0024850375
115	0x3ab29c43	0.0013626892
116	0x3a546706	0.000810251
117	0xbae6b9b9	-0.0017602957
118	0x3b00be54	0.0019644694
119	0x39ba00de	0.0003547733
120	0xbb063df5	-0.0020483707
121	0x38360e71	4.340563e-05
122	0x3ac8bb94	0.0015314692
123	0x3ac0e8da	0.0014717833
124	0x3a20086c	0.00061047706
125	0x39df9e57	0.00042651847
126	0x3a672b00	0.0008818358
127	0xba971553	-0.0011526741
128	0xbaf60e5c	-0.001877259
129	0xbac72d74	-0.0015196041
130	0x3a2b6cb8	0.00065393327
131	0xbab1d7c3	-0.001356833
132	0xba120cfa	-0.00055713917
133	0x3a87d4ea	0.0010363136
134	0x3ad42586	0.0016185499
135	0xbb5a009f	-0.003326453
136	0x3aa38c2a	0.0012477685
137	0xba0208db	-0.0004960426
138	0x3a56f27a	0.0008199584
139	0xb9231b69	-0.00015555102
140	0x3b5a68c0	0.0033326596
141	0xb99360e7	-0.00028110223
142	0xba25a0b4	-0.0006318197
143	0x3a343df9	0.000687569
144	0xbaa05cc6	-0.001223468
145	0x3ae72e0d	0.0017637626
146	0xba3c0172	-0.0007171846
147	0xb9af64a2	-0.00033453578
148	0x3abdccfb	0.0014480645
149	0xb9248aee	-0.00015692014
150	0xbac3f463	-0.0014950152
151	0x3a2bc989	0.00065531634
152	0xba69ebd6	-0.0008923387
153	0xbb0895de	-0.002084128
154	0x3b4e6f63	0.0031499497
155	0x3a990491	0.0011674335
156	0x3a1cb952	0.00059785426
157	0xbaac486a	-0.001314414
158	0xb88f20c8	-6.824877e-05
159	0x3885e8d8	6.385305e-05
160	0x3aae002a	0.0013275195
161	0x38040c86	3.1482916e-05
162	0xbb36c7b3	-0.0027890026
163	0x3b0c3505	0.0021393907
164	0xb9111462	-0.00013835871
165	0x3add85cf	0.001690084
166	0x38870160	6.437558e-05
167	0x3a5be2b8	0.0008387971
168	0x3a760201	0.0009384454
169	0xba35a1aa	-0.0006928692
170	0xbae97e9c	-0.0017814222
171	0x3aef150b	0.0018240524
172	0xbb50bfad	-0.003185253
173	0xba7fd657	-0.0009759417
174	0xbae2fef9	-0.0017318419
175	0x3b26a066	0.0025425195
176	0xbb251c5d	-0.0025193908
177	0xbaa64701	-0.0012685956
178	0xba22e38d	-0.0006213717
179	0xbb66d79b	-0.0035223726
180	0xbb0e8835	-0.0021748666
181	0xb96c4568	-0.0002253257
182	0x3a84d6a0	0.0010134764
183	0x39fb0b22	0.00047882745
184	0xba76c5e9	-0.0009413646
185	0x3ae9474a	0.0017797735
186	0x3a4bb00a	0.00077700673
187	0x3a216c9f	0.00061578484
188	0xbb48059d	-0.0030520924
189	0xbacd6167	-0.0015669287
190	0xbb455bf2	-0.0030114618
191	0xbb412eaa	-0.0029477277
192	0xba53a58d	-0.000807368
193	0xb9f82708	-0.00047331327
194	0x3b01880f	0.0019764935
195	0xba4dfdc6	-0.00078579446
196	0xbaa5cb47	-0.0012649082
197	0xba77394e	-0.00094308413
198	0x3aee35d4	0.0018174001
199	0x3b1fb878	0.0024371427
200	0x3aa86538	0.0012847548
201	0x3a455a62	0.00075284217
202	0x3ac2dd6c	0.0014867014
203	0xbaf9292d	-0.0019009464
204	0xba33ac90	-0.0006854022
205	0xba1edc99	-0.00060600933
206	0x39078e3f	0.00012927594
207	0xbb775e9f	-0.0037745608
208	0x3a68b5c6	0.0008877184
209	0xb9ce28a6	-0.00039321667
210	0x3a6f32e4	0.000912471
211	0x3a32a1b2	0.00068142556
212	0x39ca4b57	0.00038584575
213	0x3afd74d3	0.0019337184
214	0x3ad30c33	0.0016101658
215	0xbb04767a	-0.002021222
216	0x3a84e48e	0.0010138915
217	0xba33f3b9	-0.00068646256
218	0x3abbf7ae	0.0014340782
219	0x3998549f	0.00029054747
220	0x38f9948a	0.00011900913
221	0x3ac74fc3	0.0015206266
222	0xba370bb5	-0.00069826405
223	0x3a0c40a1	0.00053502066
224	0x3983f755	0.00025170544
225	0x3ac440dc	0.0014972943
226	0xbaa776d4	-0.0012776502
227	0xbaa71059	-0.0012745961
228	0xba649402	-0.00087195646
229	0xbb4c0b51	-0.0031134675
230	0xba8e6291	-0.0010863115
231	0xbb05ef39	-0.0020436777
232	0x399b5123	0.00029624355
233	0xb9492e8a	-0.00019186191
234	0x3a126ad4	0.00055853766
235	0x3aa4f03e	0.0012583805
236	0x3b03521b	0.0020037952
237	0x3b1afb6d	0.0023648397
238	0x3b52f32f	0.0032188406
239	0x3b0681c4	0.0020524124
240	0x3aa3a17a	0.0012484037
241	0xba3bb2f7	-0.0007160152
242	0x3b26c422	0.0025446494
243	0xbabfadd7	-0.0014623952
244	0xba8c65ca	-0.0010711488
245	0xba8ae68c	-0.0010597273
246	0x3a38b5e9	0.00070461497
247	0x3a57448e	0.00082118146
248	0xbaf845e2	-0.0018941725
249	0xbb1ecfc2	-0.002423272
250	0x3a80464e	0.0009786577
251	0x3a827218	0.0009952215
252	0x3a60211a	0.00085498544
253	0xbb171572	-0.0023053554
254	0xbb1733c0	-0.0023071617
255	0x3abf9421	0.0014616289

action_model._continuous_distribution.log_sigma f4 [1, 6]
0	0x3b340260	0.0027467236
1	0x3b8e044d	0.004334009
2	0x3b9c91b0	0.0047781095
3	0xbb616669	-0.0034393317
4	0xbb30e61e	-0.002699263
5	0xba0b53a8	-0.0005314895

action_model._continuous_distribution.mu.weight f4 [6, 64]
0	0xbcd628b4	-0.026142456
1	0xbd005d99	-0.03133926
2	0xbca879d1	-0.0205659
3	0xbcc04bb5	-0.0234736
4	0x3c2ea0bc	0.010658439
5	0xbc33ee7e	-0.010982154
6	0xbc0677b6	-0.008207252
7	0x3c1fed5d	0.009761182
8	0x3cc202d9	0.023682998
9	0x3c4480e2	0.011993619
10	0x3b9070af	0.004407964
11	0xba192d7a	-0.00058432634
12	0xba86f535	-0.0010296466
13	0x3cbc4860	0.02298373
14	0xbc531d24	-0.012885366
15	0x3d615235	0.05501004
16	0xbcd5607c	-0.026046984
17	0x3c68bf2b	0.014205734
18	0x3cb01012	0.021492038
19	0xbc8362af	-0.016038267
20	0x3cd1965f	0.025584398
21	0x3c1e686b	0.00966845
22	0xbd00760b	-0.031362575
23	0xbb3c73f8	-0.0028755646
24	0xbc26a1f9	-0.010170453
25	0xbb650b71	-0.0034949447
26	0xbd0d311e	-0.03447067
27	0x3d15e728	0.0365974
28	0xbd00d037	-0.03144857
29	0xbc9e10c3	-0.019295102
30	0x3c0a5976	0.008444181
31	0xbd154a75	-0.03644796
32	0x3c3017c1	0.010747851
33	0xbd26f1ac	-0.04075782
34	0x3cdc3180	0.026879072
35	0x3cf743b0	0.030183643
36	0xbcde915e	-0.027168926
37	0x3c1fba3e	0.009748993
38	0x3cf5a466	0.029985618
39	0x3b20f70e	0.0024561319
40	0xbc92c432	-0.017915819
41	0xba9f9ade	-0.0012176891
42	0x3ae818ea	0.001770762
43	0xbcb1d311	-0.02170709
44	0x3cd5ee4e	0.02611461
45	0xbc31d4ad	-0.0108539285
46	0xbc40aa02	-0.011759283
47	0x3cdb7ac0	0.02679193
48	0x3cfac64e	0.030612137
49	0xbc57f812	-0.013181703
50	0xbcf26d58	-0.029593155
51	0x3cb7192f	0.022350876
52	0xbd03b57e	-0.032155506
53	0x3d0a8ca4	0.03382553
54	0x39f3fd26	0.00046537182
55	0x3cc63e40	0.024199605
56	0x3cddb7ac	0.02706512
57	0xbcdae638	-0.026721105
58	0x3d5f5eb3	0.05453367
59	0x3cbd9295	0.023141185
60	0xbd0c25af	-0.034215625
61	0xbd076c62	-0.033062346
62	0x3cfe4c33	0.031042194
63	0x3d354324	0.044253483
64	0x3c0f6d41	0.0087540755
65	0xbc42074d	-0.011842561
66	0xbc3d2bfc	-0.011546131
67	0xbd824c22	-0.063621774
68	0xbb94c7ca	-0.0045404183
69	0x3d2b8bff	0.041881558
70	0xbcce4a03	-0.025181776
71	0x3be2a250	0.006916322
72	0x3c4574aa	0.012051741
73	0xbd18c50e	-0.0372973
74	0xbd1cfd20	-0.038327336
75	0xbbbb4db9	-0.0057160524
76	0x3c43b264	0.011944387
77	0x3d35eaeb	0.04441349
78	0xbc10534a	-0.00880892
79	0x3c7e9d8a	0.01554049
80	0x3cb9a7e2	0.02266306
81	0x3c4d4387	0.012528307
82	0xbd0d7434	-0.034534648
83	0x3a63103b	0.00086617813
84	0xbaec9c62	-0.0018051977
85	0xbc45cd4b	-0.012072871
86	0x3ccf9bf9	0.025342928
87	0x3c7ae848	0.015314169
88	0xbd018ce1	-0.031628493
89	0xbc8162fe	-0.015794273
90	0x3caa9135	0.020821193
91	0xbd81e30a	-0.063421324
92	0xbcd8356e	-0.026392665
93	0x3c20be1e	0.0098109525
94	0x3c876c17	0.016531033
95	0xbca0ea18	-0.019642875
96	0x3d2df65f	0.042471286
97	0x3ceb9f66	0.02876253
98	0xbd0b6b30	-0.03403777
99	0x3b0aab42	0.0021159207
100	0x3c7028d3	0.014658171
101	0xbcd4b7c8	-0.02596654
102	0xbceebd87	-0.029143108
103	0xb9f08348	-0.0004587418
104	0x3d985fb9	0.07440133
105	0xbd70a672	-0.058752485
106	0xbcb6adb0	-0.022299618
107	0x3bc3ea44	0.0059788544
108	0x3c674036	0.01411443
109	0x3c138b62	0.009005399
110	0x3c5b636c	0.013390403
111	0x3c8c7df3	0.017149901
112	0xbcab764a	-0.020930428
113	0x3bbe2fe2	0.005804048
114	0xbc40371d	-0.01173189
115	0x3ca3dbfa	0.020002354
116	0xbc45d420	-0.0120745
117	0xbcea1e9c	-0.028579049
118	0xbbe9ae64	-0.0071313847
119	0xbbb1fd5b	-0.0054318137
120	0xbc7b3761	-0.015333028
121	0x3c767d8f	0.015044584
122	0xbc30e949	-0.010797807
123	0xbc6fbf5d	-0.014633027
124	0xbb6c85db	-0.0036090526
125	0x3b0cad7e	0.0021465714
126	0x3b4c7c04	0.0031201849
127	0xbcef90ab	-0.029243788
128	0xbc605759	-0.0136927
129	0x3d1e8314	0.038699225
130	0x3c1c8175	0.009552349
131	0xbb0c272f	-0.002138566
132	0xbc5a086b	-0.013307671
133	0xbbcb4975	-0.006203825
134	0xbbdb8db9	-0.0067002443
135	0x3ca2e496	0.019884389
136	0xbbbc8294	-0.005752871
137	0xbc4386ef	-0.011934026
138	0x3c9289ff	0.017888067
139	0x3c80a344	0.015702851
140	0x3bb809d7	0.0056164074
141	0x38dd0539	0.00010539074
142	0x3c213108	0.00983835
143	0xbb11a0a7	-0.0022221
144	0xbca0341d	-0.0195561
145	0xbc65c97b	-0.0140250875
146	0xbc7677e1	-0.01504323
147	0x3ba7de3c	0.005122928
148	0x3b86ecc8	0.004117582
149	0x3cb7cd4d	0.022436762
150	0x3cab7ecb	0.020934483
151	0x3c312220	0.010811359
152	0xbc74ae4f	-0.0149341365
153	0x3b897c5e	0.004195734
154	0xbc877a1f	-0.016537724
155	0xbb7c035c	-0.003845415
156	0xbb2b80c5	-0.0026169282
157	0x3ccd8604	0.025088318
158	0x3c525b16	0.012839099
159	0x3cada1b8	0.021195278
160	0x3b90e0fa	0.0044213505
161	0xbd391819	-0.045188997
162	0x3d060124	0.03271593
163	0xbb02fe30	-0.0019987933
164	0xbae01cbe	-0.001709841
165	0x3cc8e377	0.024522526
166	0xbc0ecf2e	-0.008716388
167	0xbba74fcb	-0.0051059476
168	0xbc9aebbb	-0.018911233
169	0xbc85a085	-0.016311893
170	0xbd05695f	-0.032571193
171	0xbc33cfe7	-0.010974861
172	0xbce615bc	-0.028086536
173	0xba889b57	-0.0010422271
174	0xbcea5642	-0.028605584
175	0x3cd552bf	0.026040433
176	0xbc039ea6	-0.00803343
177	0x3bb3dbdc	0.0054888558
178	0x3d33a114	0.043854788
179	0x3b3e91b3	0.0029078543
180	0x3d17b977	0.037042107
181	0x3be57b70	0.0070032403
182	0x3cd129e0	0.025532663
183	0xbb941860	-0.0045195073
184	0xbc2fb2e6	-0.010723805
185	0x3a97c550	0.001157919
186	0xbcb37fe4	-0.021911569
187	0x3cdc02e4	0.026856847
188	0xbce89761	-0.028392496
189	0xbc8db33f	-0.017297385
190	0xbcb0627c	-0.021531336
191	0x3ca76874	0.02043555
192	0x3c775a8b	0.015097271
193	0x3da3d96e	0.08000456
194	0x3c9ef43d	0.019403571
195	0x3c9af5f9	0.018916117
196	0x3cae95d2	0.021311674
197	0x3cd2401e	0.02566534
198	0xbc9716e6	-0.018443536
199	0xbbd1529a	-0.0063880207
200	0x3ca1f48e	0.019769933
201	0x3c03a6ff	0.00803542
202	0x3c89cab6	0.016820293
203	0x3cfee27a	0.031113852
204	0xbb6d9c5d	-0.003625653
205	0xbcfb2f75	-0.030662278
206	0x3baf955b	0.0053583807
207	0xbc022f5b	-0.007945861
208	0xbcc045da	-0.023470808
209	0x3bb2d8ac	0.005457958
210	0x3c9f7394	0.019464292
211	0x3cacb18e	0.021080758
212	0xbd1d1b47	-0.03835609
213	0x3d15d0eb	0.036576193
214	0x3b7696c2	0.003762648
215	0xbc0430ad	-0.008068246
216	0x3c9e609d	0.019333178
217	0x3c3e3939	0.011610323
218	0x3cab5439	0.020914184
219	0xbcfe6736	-0.031055074
220	0x3c2c15a3	0.0105032055
221	0x3d737a90	0.059443057
222	0x3b4c5710	0.0031179823
223	0x3c9113b1	0.017709585
224	0x3cb56d83	0.022146946
225	0xbb080ea6	-0.0020760684
226	0x399f5651	0.00030391154
227	0x3a1e2dbf	0.00060340384
228	0xbb1195dd	-0.002221457
229	0xbc80ee78	-0.01573871
230	0xbd480edb	-0.048842292
231	0x3c5f4856	0.013628086
232	0x3c34af9c	0.011028197
233	0x3c367c8b	0.011138092
234	0xbc9c835d	-0.019105608
235	0x3b4c619d	0.0031186112
236	0xbc5e44a4	-0.01356617
237	0x3cacd230	0.021096319
238	0xbbd9912f	-0.0066396217
239	0xbd4c36e6	-0.049857043
240	0xbc879552	-0.016550694
241	0x3cd02542	0.02540839
242	0x3d66d2a0	0.05635321
243	0x3d575b1b	0.05257712
244	0xbc9ee50f	-0.019396333
245	0x3ca462d8	0.020066664
246	0x3cbba4bd	0.022905702
247	0x3c401041	0.011722625
248	0xbd2b4815	-0.04181679
249	0x3d134891	0.035957877
250	0xbc26f0c0	-0.010189235
251	0x3d10428b	0.03521971
252	0xbcc29033	-0.0237504
253	0xbd0456ba	-0.03230927
254	0x3ca483dd	0.020082409
255	0x3cccaccb	0.024984738

action_model._continuous_distribution.mu.bias f4 [6]
0	0xbad951db	-0.0016580181
1	0xba26a66f	-0.0006357198
2	0x3ae37d9a	0.0017356158
3	0x3a9d58f7	0.0012004663
4	0x3a998f05	0.0011715597
5	0x3afb275b	0.0019161509

onnx::LSTM_101 f4 [1, 256, 256]
0	0xbb9f02aa	-0.0048526125
1	0xbda8bc1c	-0.08239004
2	0x3da4dba4	0.080497056
3	0xbdcb9b2d	-0.09941707
4	0xbcc54eaa	-0.024085362
5	0x3d024dc3	0.03181244
6	0xbd669acb	-0.056299966
7	0xbd2ee07c	-0.042694554
8	0xbb85e994	-0.0040866826
9	0xbde1e14b	-0.11029299
10	0x3dfb24ff	0.12262916
11	0x3d365a2f	0.0445196
12	0x3d987307	0.07443815
13	0x3da34498	0.079720676
14	0x3cbec94f	0.02328935
15	0x3df2b296	0.11850469
16	0x3cff2b19	0.03114848
17	0xbdb11c2b	-0.08647951
18	0xbdbfdcb6	-0.09368269
19	0x3d80e3f9	0.06293482
20	0x3aaaf166	0.0013041913
21	0xbdb4b517	-0.08823603
22	0xbc825f36	-0.01591454
23	0x3c0e4161	0.00868258
24	0xbda1540d	-0.078773595
25	0x3db36a22	0.087604776
26	0xbd7bb140	-0.061448336
27	0x3d9a1bff	0.07524871
28	0xbd2aa241	-0.041658644
29	0xbd9814a0	-0.07425809
30	0x3db68fbf	0.08914136
31	0x3d782d48	0.06059006
32	0xbdaadbcf	-0.083427064
33	0xbda7fd4f	-0.08202612
34	0x3dc9acdf	0.09847426
35	0xbe0a1133	-0.13483123
36	0xb9c3297c	-0.00037224207
37	0xbdbd7c20	-0.092521906
38	0xbc968879	-0.018375622
39	0xbdce00ec	-0.100587696
40	0x3e0348df	0.12820767
41	0x3dc71bab	0.09722074
42	0x3e08daae	0.1336467
43	0xb9861b07	-0.0002557861
44	0x3c5dae07	0.013530261
45	0xbd8b5e37	-0.068050794
46	0xbc490c29	-0.012270966
47	0xbcdd51e6	-0.027016591
48	0xbe051c6e	-0.12999126
49	0xbd0d0ffa	-0.034439065
50	0xbd965aab	-0.07341512
51	0x3c1a708a	0.0094262455
52	0xbd284da4	-0.04108967
53	0x3d42d71a	0.047568418
54	0x3dd73e3f	0.105099194
55	0xbc8d2f62	-0.017234508
56	0x3de303e4	0.110847265
57	0xbc341c89	-0.010993131
58	0x3d5a769d	0.053335775
59	0xbda57c6c	-0.08080372
60	0x3d24b6c8	0.040213376
61	0xbdc0975a	-0.09403868
62	0xbc4ef613	-0.012631911
63	0x3dae9118	0.08523768
64	0xbdabdac2	-0.08391334
65	0x3c9af099	0.018913554
66	0xbde260e2	-0.11053635
67	0x3e0087ec	0.1255185
68	0x3dad14fa	0.084512666
69	0xbdb30433	-0.08741035
70	0x3d305152	0.043046303
71	0x3c9901fa	0.0186777
72	0x3d1b400c	0.037902877
73	0xbddd0f69	-0.10793955
74	0x3b3be6f3	0.0028671592
75	0xbdcfe4c2	-0.10151054
76	0x3e085d03	0.13316731
77	0xbde0d693	-0.10978427
78	0xbdfc75d6	-0.12327163
79	0xbc2eac17	-0.010661147
80	0xbca54126	-0.020172667
81	0x3e081503	0.13289265
82	0xbdd344ae	-0.10315834
83	0xbd970e74	-0.073758036
84	0xbc7b6538	-0.015343957
85	0x3d68c2db	0.056826454
86	0x3d7c91a1	0.06166232
87	0x3e06a69c	0.13149494
88	0xbe09c085	-0.13452347
89	0x3dd870c0	0.1056838
90	0xbdc66425	-0.0968707
91	0xbd60d3e6	-0.054889582
92	0xbe03dfe9	-0.12878384
93	0x3def2c96	0.11678426
94	0xbd7762d3	-0.06039698
95	0x3b213aea	0.0024601766
96	0xbb1d819c	-0.0024033552
97	0x3dc6f2ea	0.09714301
98	0x3daf7e13	0.085689686
99	0x3d9f34bb	0.077737294
100	0xbd8955c9	-0.06705815
101	0xbdcd1862	-0.10014416
102	0xbdc4e625	-0.09614209
103	0xbb0664fb	-0.0020506966
104	0xbd8152e4	-0.06314638
105	0xbd49f533	-0.049306106
106	0xbcdcca3e	-0.026951905
107	0x3cbc2efe	0.022971626
108	0x3ddd2e16	0.10799806
109	0xbcddd2bd	-0.027078027
110	0x3d85c7b3	0.0653223
111	0x3da6cf9d	0.08145068
112	0x3dd56fc4	0.10421708
113	0xbe02d0f9	-0.12775029
114	0x3d02aa8f	0.03190094
115	0xbdaebc15	-0.085319676
116	0x3d34095e	0.043954246
117	0x3dd79c4d	0.10527859
118	0xbc8758bb	-0.016521802
119	0x3da49922	0.0803702
120	0x3e026172	0.12732485
121	0xbd3268b1	-0.043556873
122	0x3b623679	0.0034517332
123	0xbd660ef7	-0.056166615
124	0x3e008bf6	0.12553391
125	0x3de7a9fc	0.11311719
126	0x3d5da867	0.05411568
127	0x3df724b0	0.120675445
128	0xbdd483a0	-0.10376668
129	0xbd179790	-0.037009776
130	0x3de59a7a	0.11211105
131	0x3db69855	0.08915774
132	0x3de09259	0.109654136
133	0x3d43b2ee	0.047778063
134	0xba904514	-0.0011006915
135	0xbdac55f8	-0.08414835
136	0x3cd81d2e	0.026381101
137	0xbdf77b45	-0.12084059
138	0x3ded5d78	0.115900934
139	0x3d22943d	0.039692152
140	0x3de7a060	0.11309886
141	0x3e04f205	0.12982948
142	0x3df6278b	0.12019261
143	0xbd5cecc5	-0.05393674
144	0xbb0ff92d	-0.0021968589
145	0x3c21b56d	0.009869915
146	0xbe02a5a1	-0.12758495
147	0x3da0d84d	0.07853756
148	0x3d785241	0.06062532
149	0xbca7fa84	-0.020505197
150	0x3d9fae63	0.077969335
151	0x3deb43aa	0.11487515
152	0xbd142001	-0.036163334
153	0x3de4ff75	0.11181537
154	0xbdd0742e	-0.101784095
155	0xbdec0dd8	-0.11526078
156	0xbd75948f	-0.05995613
157	0x3cd614fe	0.026133057
158	0xbd0249e0	-0.031808734
159	0x3d22cdb9	0.039746974
160	0x3e059352	0.1304448
161	0xbd106622	-0.03525365
162	0xbcd82aa9	-0.02638753
163	0xbd749ea6	-0.05972161
164	0x3db1fbb6	0.08690588
165	0x3ced7921	0.028988423
166	0xbb9d5044	-0.004800828
167	0xbdcdcf38	-0.100492895
168	0xbdad2a6a	-0.084553555
169	0x3cf3abab	0.029744944
170	0xbdc8de61	-0.098080404
171	0x3d3670ed	0.04454129
172	0x3df82eda	0.12118311
173	0xbd01a6ac	-0.03165309
174	0x3c8f9578	0.017527327
175	0xbd2eb7be	-0.0426557
176	0xbdfae8dd	-0.122514464
177	0xbdd7fd21	-0.105463274
178	0xbd90b3f8	-0.07065576
179	0x3daa363f	0.08311128
180	0x3ca929da	0.02064984
181	0xbe01665d	-0.12636705
182	0xbd9e5e8c	-0.07732877
183	0xbd830403	-0.063972495
184	0x3d8ab500	0.06772804
185	0xbd2217db	-0.03957353
186	0x3d6f8418	0.058475584
187	0x3dc07d09	0.093988486
188	0x3def3583	0.116801284
189	0x3deb05a3	0.114756845
190	0xbdf34482	-0.11878301
191	0xbddab6e1	-0.10679413
192	0x3dc60b87	0.096701674
193	0x3d996a85	0.0749102
194	0xbd5fce7e	-0.054640286
195	0x3d3f341f	0.046680566
196	0x3c9e837a	0.019349802
197	0x3e00a8d1	0.12564398
198	0x3d1ec581	0.038762573
199	0xbde817d7	-0.11332672
200	0xbdf15254	-0.11783281
201	0xbcb8553a	-0.022501577
202	0xbd197934	-0.037469104
203	0xbc9e06be	-0.019290324
204	0xba9c0423	-0.0011903088
205	0xbd9a4842	-0.07533313
206	0x3b96acfc	0.004598258
207	0x3ac7a07c	0.0015230323
208	0x3de21498	0.11039084
209	0x3d793a3d	0.060846556
210	0x3c597a9b	0.01327386
211	0x3d4f366c	0.05058901
212	0x3d5be614	0.053686216
213	0xbdfea823	-0.12434413
214	0xbd455868	-0.048180014
215	0x3dc06e77	0.093960695
216	0x3db11bfa	0.08647914
217	0x3d2de133	0.042451095
218	0xbdc596b7	-0.09647887
219	0x3dbc2a9d	0.09187815
220	0xbd6bb97e	-0.057549946
221	0xbdab09db	-0.08351489
222	0x3dcdd907	0.1005116
223	0x3be314bc	0.006929962
224	0x3e0df544	0.13863093
225	0x3cd2ce8c	0.025733255
226	0x3c9a2b01	0.018819334
227	0x3d899eff	0.06719779
228	0x3a967e22	0.0011481682
229	0xbdd93e65	-0.10607604
230	0x3cf879fe	0.030331608
231	0x3d8c5e81	0.06853963
232	0x3dbd3178	0.09237951
233	0x3d750d65	0.059827227
234	0x3d046d9a	0.032331087
235	0x3d8f7e91	0.070065625
236	0xbdba5723	-0.09098651
237	0x3c5779ae	0.013151569
238	0xbce91d38	-0.028456315
239	0xbd8746ca	-0.06605299
240	0xbd9cb1b8	-0.07651085
241	0xbdb6f112	-0.08932699
242	0x3d9aa301	0.07550622
243	0x3c53fc8e	0.012938632
244	0xbd9ccc81	-0.076561935
245	0xbbcb2c79	-0.00620037
246	0xbdfbc4ae	-0.12293373
247	0xbda2e48a	-0.079537466
248	0x3d84ecc3	0.06490471
249	0x3c3761ca	0.011192748
250	0x3e098ce6	0.13432655
251	0xbdfa6c4c	-0.12227687
252	0xbc2df4a4	-0.010617409
253	0x3d717c22	0.058956273
254	0xbdd46873	-0.103714846
255	0xbc52f88b	-0.01287664

onnx::LSTM_102 f4 [1, 256, 64]
0	0x3b3a380a	0.002841475
1	0x3df4a2a3	0.11945083
2	0xbbc3e8bc	-0.005978672
3	0xbde65b10	-0.112478375
4	0x3cdc9bb4	0.026929714
5	0xbe3e33d6	-0.18574461
6	0x3d97ea3c	0.074177235
7	0x3da4b116	0.08041589
8	0xbdd45688	-0.10368067
9	0x3d057f48	0.032592088
10	0x3e479e68	0.19494021
11	0x3e3488db	0.17630331
12	0x3dabd263	0.083897375
13	0xbdeac282	-0.11462881
14	0xbda13e36	-0.07873194
15	0x3d43f23d	0.04783844
16	0xbdd464da	-0.103707984
17	0x3db95775	0.09049884
18	0xbe1b4582	-0.15163234
19	0x3db30195	0.08740536
20	0xbdb3e651	-0.08784164
21	0xbdcc8a09	-0.099872656
22	0xbdc6a868	-0.0970009
23	0x3e22a2b4	0.15882379
24	0xbe3e527c	-0.18586153
25	0xbe4194b5	-0.18904383
26	0x3ddf975d	0.10917542
27	0x3a00b892	0.00049103156
28	0x3dac71da	0.08420153
29	0x3da5aa23	0.08089092
30	0x3e5ad5e2	0.21370652
31	0xbe09baff	-0.1345024
32	0xbd9b3683	-0.07578757
33	0x3e499e81	0.1968937
34	0x3d2ae255	0.041719753
35	0xbced1c27	-0.028944088
36	0x3e4b79c8	0.19870675
37	0x3dc6709b	0.096894465
38	0x3dcc81c1	0.09985686
39	0xbdf5cba8	-0.12001735
40	0x3e0d6062	0.13806298
41	0x3c198077	0.009369007
42	0x3e294845	0.16531475
43	0x3d621240	0.055193186
44	0xbd413fd5	-0.047180016
45	0xbe32a35c	-0.17445129
46	0xbe4885b0	-0.19582248
47	0xbcc444b7	-0.023958547
48	0xbc900349	-0.017579691
49	0x3e3a9f0b	0.18224733
50	0xbdcdbcc8	-0.10045773
51	0xbe43daa6	-0.19126377
52	0xbd4a7323	-0.04942621
53	0xbd182ab8	-0.037150115
54	0x3cdc9768	0.026927665
55	0xbe3a41f1	-0.18189217
56	0xbde5768e	-0.11204253
57	0xbd9e3391	-0.07724679
58	0x3d87473c	0.06605384
59	0x3e4f1d95	0.20226128
60	0x3dff331e	0.12460922
61	0x3dbf42f0	0.09338939
62	0x3e011d3c	0.12608808
63	0xbd7775e2	-0.060415156
64	0x3e290e2e	0.16509315
65	0xbdbf5113	-0.093416356
66	0xbd6aa912	-0.057290144
67	0x3e327437	0.17427145
68	0xbd819677	-0.06327527
69	0x3de06190	0.109561086
70	0xbe1fb3c8	-0.15595925
71	0xbda434f4	-0.080179125
72	0xbe047de6	-0.12938651
73	0xbe30895d	-0.172399
74	0xbddfaa76	-0.10921185
75	0x3cd0e39c	0.025499158
76	0xbcbefe81	-0.023314716
77	0x3df305ad	0.11866317
78	0xbd41b166	-0.04728832
79	0x3b7242fe	0.00369662
80	0x3ca61901	0.020275595
81	0x3d97c989	0.07411487
82	0xbbf2bb7b	-0.0074076033
83	0x3cd5f0ca	0.026115794
84	0xbd6f53fe	-0.05842971
85	0x3e479602	0.19490817
86	0x3de91601	0.1138115
87	0xbe288d1a	-0.16460076
88	0x3ca2d229	0.019875603
89	0xbe3d24fb	-0.18471138
90	0xba22457a	-0.00061901624
91	0x3d114509	0.035466228
92	0xbe269aa7	-0.16269933
93	0xbcdbf23d	-0.026848907
94	0xbdc0109d	-0.09378169
95	0x3e359298	0.17731702
96	0x3e181108	0.14850247
97	0x3e1d41fb	0.15357201
98	0xbe322d54	-0.17400104
99	0xbde93be2	-0.11388375
100	0xbe03e304	-0.12879568
101	0x3d951eb5	0.072812475
102	0x3e241f58	0.16027582
103	0x3de8bab4	0.11363736
104	0x3da8e634	0.08247033
105	0xbe169124	-0.14703804
106	0x3e2fa128	0.1715132
107	0x3e56883a	0.20950404
108	0xbd7c41ff	-0.061586376
109	0xbe179ed9	-0.1480669
110	0x3de39fab	0.111144386
111	0x3cd23cde	0.02566379
112	0xbe0752da	-0.13215199
113	0xbe51610b	-0.20447175
114	0x3e1be31f	0.15223359
115	0xbe024984	-0.12723356
116	0xbe14cb4a	-0.14530674
117	0x3c3d067e	0.011537192
118	0xbba34ccc	-0.00498352
119	0x3d864a00	0.06557083
120	0x3e2f6bf6	0.17131028
121	0x3d4beb80	0.049785137
122	0xbe535d9c	-0.20641178
123	0xbce8f75b	-0.02843826
124	0x3dd08ad9	0.10182733
125	0xbe125f11	-0.14294077
126	0xbe0a3111	-0.1349528
127	0x3e4071bc	0.18793386
128	0xbe4844f9	-0.19557561
129	0x3d984e04	0.07436755
130	0xbe161531	-0.14656521
131	0xbda5614b	-0.08075198
132	0x3dc8f778	0.09812826
133	0xbe41f38f	-0.18940566
134	0x3dafe6f5	0.085889734
135	0xbe4ac7f2	-0.19802836
136	0x3dc47ae5	0.09593753
137	0xbe25b7c9	-0.1618339
138	0x3cf5bf58	0.029998466
139	0x3dbfb4bd	0.09360645
140	0x3e21ab29	0.15787949
141	0x3e44aa35	0.19205554
142	0x3e010f64	0.12603527
143	0xbdee941f	-0.116493456
144	0xbccbf582	-0.02489734
145	0xbe0288b9	-0.12747468
146	0xbe3cedf0	-0.18450141
147	0x3daf25a0	0.08552098
148	0x3dad52e7	0.08463078
149	0xbdc70c59	-0.09719152
150	0xbd285052	-0.041092224
151	0x3e12acbd	0.14323707
152	0xbd51c0c1	-0.051209215
153	0x3e4a9f5c	0.19787353
154	0xbd01f659	-0.031729076
155	0xbe194522	-0.14967778
156	0x3e4aafa5	0.19793566
157	0xbd09866d	-0.033575464
158	0x3e208b02	0.15678027
159	0x3e34b62a	0.17647615
160	0x3d5933a8	0.05302778
161	0xbdae9863	-0.08525159
162	0xbdc2918c	-0.09500417
163	0x3daa1edf	0.083066694
164	0x3e31517b	0.17316239
165	0xbe3e3acc	-0.18577117
166	0x3dabee45	0.08395056
167	0x3cb623d8	0.022233889
168	0xbe55f4f9	-0.20894231
169	0xbd7a11af	-0.06105202
170	0x3e59e5e0	0.21279097
171	0x3dcccd14	0.10000053
172	0x3e190eda	0.14947072
173	0xbe4b895e	-0.1987662
174	0xbe004f8f	-0.12530349
175	0xbe26bd45	-0.16283138
176	0x3e384eca	0.17998806
177	0xbd1ac3fa	-0.037784554
178	0x3d8c6a6b	0.06856235
179	0x3e054854	0.13015872
180	0xbd9ac6cb	-0.07557448
181	0x3d822921	0.06355501
182	0x3d9e6f35	0.07736055
183	0x3dca7f8d	0.0988761
184	0x3e346ca2	0.17619565
185	0xbd5d5f2b	-0.054045837
186	0x3e2a79d0	0.1664803
187	0x3d8c26e6	0.06843357
188	0x3d2221e6	0.03958311
189	0xbe091d10	-0.13389993
190	0xbd1db0d1	-0.038498703
191	0x3e019e51	0.12658049
192	0xbcedb87d	-0.029018635
193	0xbde231d4	-0.1104466
194	0xbdeaa68f	-0.1145755
195	0x3da914f1	0.082559474
196	0x3d9ad8eb	0.07560905
197	0xbe4eab37	-0.20182501
198	0xbcc1b466	-0.023645591
199	0x3dbd9961	0.0925777
200	0xbd3ef2af	-0.04661816
201	0xbe4608b3	-0.19339256
202	0xbe41d64a	-0.18929401
203	0x3dbf5d22	0.093439355
204	0x3dca0e4b	0.098660074
205	0x3e418865	0.18899687
206	0x3e0d08da	0.13772908
207	0xbb22bb6a	-0.0024830946
208	0x3e259468	0.16169894
209	0x3e47670c	0.19472903
210	0x3dc3dc02	0.095634475
211	0xbc2ce1ed	-0.010551912
212	0x3c10b12e	0.008831305
213	0x3e440952	0.1914418
214	0xbe42f05c	-0.19037002
215	0x3d63d27c	0.055620655
216	0x3d999ec5	0.07500986
217	0xbc6479ee	-0.013945086
218	0xbe23202c	-0.15930241
219	0x3ccc9a9a	0.024976064
220	0x3e242f0a	0.16033569
221	0x3e547b14	0.20750076
222	0xbe3a284c	-0.18179435
223	0x3dcb8150	0.09936774
224	0xbe5377cb	-0.20651166
225	0xbd9e1a72	-0.07719888
226	0xbe136e55	-0.14397557
227	0x3deb2406	0.1148148
228	0x3cc223ad	0.023698652
229	0x3e500364	0.20313793
230	0xbd91dfb4	-0.07122746
231	0xbd9643c0	-0.07337141
232	0xbdf77a14	-0.120838314
233	0xbe3bc6f4	-0.18337613
234	0x3de9b17b	0.11410805
235	0xbd0bcb31	-0.034129325
236	0x3e341b72	0.17588595
237	0xbd8b9b7f	-0.06816768
238	0xbe3ffb12	-0.1874812
239	0xbe34c6c2	-0.17653945
240	0xbcb55d89	-0.022139328
241	0x3d0d86bd	0.034552325
242	0x3df1de58	0.11809987
243	0x3e430d02	0.19047931
244	0xbdaee9d0	-0.0854069
245	0x3e30ec7a	0.17277709
246	0x3e44ced2	0.1921952
247	0x3e1efefd	0.15526958
248	0xba3ac218	-0.0007124259
249	0x3e359062	0.17730859
250	0xbe47be40	-0.19506168
251	0xbd4d577b	-0.050132256
252	0x3e2adf17	0.16686665
253	0xbc47641b	-0.012169863
254	0x3e3cf96c	0.18454522
255	0x3e16b7d6	0.14718565
