code/selfparking/mla/results/run_03/Car/Car-1499935.onnx (onnx, 710320 bytes, 10 tensors)

network_body._body_endoder.seq_layers.0.weight f4 [256, 109]
0.085796684 -0.12778796 -0.029748285 0.036484197 -0.042473786 0.012673175 -0.13562502 0.064396724
-0.103345744 0.19927809 0.01422679 0.15310451 0.21885893 0.06436649 -0.05042345 -0.0565237
0.015815325 0.04015499 -0.02282885 0.061480533 0.16274281 0.18795365 -0.21148133 -0.027277334
-0.022382459 0.2607533 -0.04555594 -0.1468043 0.1703999 -0.0032546904 -0.04028818 0.0925491
-0.092775784 0.025102947 0.01826098 0.10340934 -0.041352246 -0.1593326 0.18512353 0.063879795
0.0629676 0.09396041 -0.02439191 -0.15537196 -0.15945756 -0.004152665 0.1817347 -0.006802151
-0.11048683 -0.03610452 0.09342183 0.14317772 0.13302074 0.047027536 0.16876349 0.13505508
0.20670024 -0.03374417 -0.09089565 -0.06571186 -0.03487647 0.16786961 -0.012221131 0.15897071
-0.010851075 0.10366702 -0.1379689 -0.12728843 -0.106678836 -0.075621925 0.034616172 0.0833803
0.09687062 -0.28471962 0.12712683 -0.0421065 -0.03811007 -0.18068083 0.092681766 0.03915772
-0.00015725527 -0.032885537 -0.02264696 -0.15540716 0.07318158 -0.007271357 0.059709463 0.088650495
-0.05022716 -0.0047771344 -0.11474548 0.018829005 -0.16047707 0.048103362 0.10110582 -0.15046063
0.11683271 -0.0010681419 0.01126866 -0.09141327 -0.054361157 -0.10922732 -0.01623807 -0.03139995
0.030012332 0.044805687 0.15203887 -0.04204372 0.025468526 -0.015466425 0.048442468 0.16870749
-0.057624158 0.005686812 -0.061088793 0.19912735 0.030149005 -0.1504336 -0.06305646 0.045216165
0.05219993 -0.02977636 -0.08734657 0.19337858 0.019444492 0.07360382 -0.018184299 0.078455046
0.04137308 0.00291861 0.12979925 0.018935636 0.07664215 -0.14699578 -0.010587676 0.05034249
0.0015254121 0.14800546 0.057470102 -0.00769467 0.014488682 0.17310193 -0.09182273 0.00810159
-0.06062095 -0.0062932977 -0.042433906 0.09305908 -0.0130048925 0.15331933 -0.020286266 -0.070779525
0.06543352 0.111328505 -0.14148545 -0.10742626 -0.1408166 0.045724194 -0.13332486 -0.05829309
0.01427619 -0.22934553 -0.039362498 -0.020001827 0.15625872 0.009774642 0.05552094 0.11050126
0.060287647 -0.09497179 -0.0005513935 -0.06042618 -0.19899315 0.0061258953 -0.059759382 -0.012480446
-0.01243343 0.14184707 -0.039753966 0.07187566 -0.21815838 -0.011750387 0.09955001 0.13648388
0.096134126 0.0060721533 0.009841147 0.051488455 -0.015262114 -0.15892343 -0.023476914 -0.051533863
0.028852772 0.014662464 -0.0074463957 -0.014926643 -0.032460462 -0.119416244 0.14783876 0.11648813
0.07721996 -0.014903264 0.044675063 -0.17024209 -0.05379338 -0.1711006 0.08619936 -0.038456507
0.024298485 -0.037110765 -0.010829515 -0.028280634 0.05860273 0.05458164 0.010963037 -0.05988703
-0.19870453 0.008715902 0.005573529 -0.0031945372 -0.03927352 -0.093066454 0.031254053 0.18084754
-0.057161998 -0.026962869 0.16925475 -0.035052635 -0.13873124 -0.06651479 -0.06344914 0.19726409
-0.07214802 0.13515288 -0.017278807 -0.10316443 0.040512603 -0.073286116 0.09097064 -0.00039614365
0.19736454 -0.04473493 -0.10566323 0.065223254 0.11631011 0.077259496 -0.17298217 0.14693122
-0.084695525 -0.047927868 0.07501613 -0.14276169 0.09070315 0.04008602 -0.12181119 -0.3184409
00000000: 2cb6 af3d d9da 02be adb2 f3bc 7470 153d
00000010: fef8 2dbd 26a3 4f3c 49e1 0abe 6ee2 833d
00000020: efa6 d3bd 8e0f 4c3e 7b17 693c 6ec7 1c3e
00000030: 8e1c 603e 94d2 833d d288 4ebd 6585 67bd
00000040: 248f 813c 8f79 243d 9203 bbbc 03d3 7b3d
00000050: 0da6 263e ec76 403e 908e 58be b774 dfbc
00000060: 6b5b b7bc 7581 853e de98 3abd de53 16be
00000070: 507d 2e3e a54c 55bb 3805 25bd 628a bd3d
00000080: 3b01 bebd b2a4 cd3c 0d98 953c 47c8 d33d
00000090: f960 29bd 1628 23be 0691 3d3e 69d3 823d
000000a0: 28f5 803d 516e c03d 8bd1 c7bc d419 1fbe
000000b0: d848 23be 1413 88bb a918 3a3e 94e4 debb
000000c0: eb46 e2bd 55e2 13bd f253 bf3d 2e9d 123e
000000d0: 9736 083e f29f 403d 56d0 2c3e e14b 0a3e
000000e0: 3aa9 533e 5437 0abd 8027 babd f193 86bd
000000f0: a1da 0ebd 03e6 2b3e 233b 48bc 38c9 223e
00000100: b5c8 31bc 604f d43d b847 0dbe e657 02be
00000110: 6f7a dabd abdf 9abd b0c9 0d3d 4ac3 aa3d
00000120: 1b64 c63d c5c6 91be 892d 023e de77 2cbd
00000130: 4e19 1cbd 6504 39be f0cf bd3d d863 203d
00000140: e4e4 24b9 fcb2 06bd 1e86 b9bc 0e23 1fbe
00000150: 39e0 953d 9044 eebb e991 743d 648e b53d
00000160: ffba 4dbd 8289 9cbb aeff eabd 493f 9a3c
00000170: 1a54 24be 0808 453d 9110 cf3d 5a12 1abe
00000180: fd45 ef3d e500 8cba 30a0 383c e136 bbbd
00000190: cea9 5ebd 93b2 dfbd b305 85bc 3c9d 00bd
000001a0: 6cdc f53c 2b86 373d 14b0 1b3e 0936 2cbd
000001b0: 5fa3 d03c e366 7dbc 9c6b 463d a8c1 2c3e
000001c0: 4f07 6cbd 7058 ba3b 3e38 7abd 0ae8 4b3e
000001d0: 0cfb f63c 440b 1abe bf23 81bd 9634 393d
000001e0: 98cf 553d 8eed f3bc c2e2 b2bd 0905 463e
000001f0: 0e4a 9f3c 99bd 963d 3df7 94bc 0aad a03d
00000200: d276 293d 2646 3f3b 18ea 043e e81e 9b3c
00000210: 8ff6 9c3d 1086 16be ef77 2dbc ed33 4e3d
00000220: 56f0 c73a be8e 173e c565 6b3d 9223 fcbb
00000230: f061 6d3c a241 313e 8e0d bcbd 88bc 043c
00000240: ac4d 78bd 0238 cebb 2dcf 2dbd c295 be3d
00000250: 7912 55bc beff 1c3e 622f a6bc dbf4 90bd
00000260: 0202 863d 3300 e43d 90e1 10be 4d02 dcbd
00000270: 3a32 10be 4b49 3b3d 5086 08be bcc4 6ebd
00000280: aee6 693c 8ed9 6abe 923a 21bd dfda a3bc
00000290: 4902 203e d225 203c ed69 633d 7c4e e23d
000002a0: 2ef0 763d 9280 c2bd 648b 10ba 7181 77bd
000002b0: dcc4 4bbe bcbb c83b 41c6 74bd c97a 4cbc
000002c0: 96b5 4bbc 5c40 113e 0ed5 22bd 8c33 933d
000002d0: e964 5fbe b284 40bc e0e0 cb3d 6ec2 0b3e
000002e0: f8e1 c43d eaf8 c63b c33c 213c 8fe5 523d
000002f0: f20d 7abc d3bc 22be a852 c0bc 2c15 53bd
00000300: a65c ec3c d53a 703c e500 f4bb e18e 74bc
00000310: 43f5 04bd 8190 f4bd 0b63 173e 5491 ee3d
00000320: 8025 9e3d d22c 74bc 33fd 363d f153 2ebe
00000330: 7256 5cbd ff34 2fbe 4a89 b03d 9284 1dbd
00000340: 9e0d c73c 7501 18bd 476e 31bc caac e7bc
00000350: 6b09 703d ff90 5f3d 4f9e 333c 1a4c 75bd
00000360: 3379 4bbe 25cd 0e3c 26a2 b63b 715b 51bb
00000370: 45dd 20bd a099 bebd 4004 003d 1930 393e
00000380: b322 6abd 3ce1 dcbc 1e51 2d3e 5a93 0fbd
00000390: 900f 0ebe e838 88bd 9ff1 81bd 99ff 493e
000003a0: 57c2 93bd 8465 0a3e 498c 8dbc df47 d3bd
000003b0: 8bf0 253d 0817 96bd d14e ba3d 80b1 cfb9
000003c0: ee19 4a3e f93b 37bd f765 d8bd c593 853d
000003d0: ff33 ee3d 3a3a 9e3d 3d22 31be 2375 163e
000003e0: d974 adbd 0350 44bd 0fa2 993d 1f30 12be
000003f0: 93c2 b93d 3d31 243d 2578 f9bd b00a a3be

network_body._body_endoder.seq_layers.0.bias f4 [256]
0.022238147 0.005248965 -0.0018980489 0.01954129 0.006475853 0.006586429 0.0033177915 0.0075801793
0.02035148 0.0049774772 -0.009644896 0.014883301 -0.0007386129 0.0031388449 -0.012265278 -0.010429053
-0.011899829 -0.011414642 -0.011618814 0.0037715437 -0.013285238 0.027039085 0.00554666 -0.009972508
-0.0050314423 -0.0097717885 -0.007162922 -0.0067337207 -0.015563865 0.0023273276 -0.006740925 -0.010928023
0.0018844807 -0.018405216 -0.019356566 -0.011320841 0.013239326 0.00014122651 -0.007415526 0.011846647
0.016511919 -0.0067374003 0.029216342 -0.004657583 0.014653122 -0.0030713906 0.0056936755 -0.019541493
-0.012704992 0.038015302 0.008701047 -0.0030512062 -0.019534208 -0.016794866 -0.009431097 0.004792988
0.037942525 0.0043164203 -0.011221085 0.012335779 -0.0073944572 0.0011028979 0.0036932435 -0.0031556848
-0.0079508675 -0.025839435 0.019866083 -0.012097621 -0.017697308 -0.0075104507 0.0019630704 -0.0233711
0.013994996 -0.0014751053 0.011650364 0.0029446548 0.0038013845 -0.014989069 -0.01439681 0.0027773355
0.0053796186 -0.0051006903 0.007539812 0.020661307 -0.0113675445 -0.004958568 0.011607304 0.0318827
-0.015352699 0.008714011 -0.0067098723 0.009543709 0.016291004 0.0022507473 0.014841005 -0.0011883659
0.011295519 0.006530369 -0.014216065 8.184304e-05 -0.018334147 0.027588245 -0.0062669623 0.010154163
0.01863632 0.004563933 0.012664795 -0.0104227 -0.024890745 0.013094084 0.005626422 -0.006922754
-0.0066808946 -0.0013897521 -0.01149586 -0.007174212 -0.0035252557 0.0058082966 0.0005600752 -0.016665421
0.020421868 0.004286667 0.021932872 0.012876725 0.012323839 -0.007541886 0.008000644 0.009846931
-0.013216257 0.005564001 -0.0064532794 -0.0025532856 0.0061233165 -0.00226261 -0.008398074 0.009325856
-0.00089700957 0.03032786 -0.0121879745 -0.0019280385 0.0014897238 -0.0020573372 -0.014663966 0.016666818
0.010186526 0.014813533 0.013059495 0.0022113398 0.018935598 7.5939795e-05 -0.0011730584 -0.007520139
0.012599084 -0.018513102 0.018916836 -0.022936765 -0.0047086515 0.0058120787 -0.010423539 -0.01496509
-0.0056619435 -0.015448824 -0.008990543 0.012033582 -0.0031231618 -0.024000276 0.020104926 -0.015936816
0.016845262 0.002397705 0.007629258 -0.021634478 -0.003534989 0.007425234 0.0013257625 -0.00822494
0.0049766437 0.012444093 -0.0065204697 0.011998459 0.017944768 -0.00424958 -0.020107714 -0.01168811
8.212219e-05 -0.00048803654 0.0011499799 -0.017608093 0.012966714 -0.008829981 0.013003392 0.0031731445
0.0061330916 -0.022352433 -0.0007986916 -0.0073110145 0.017609118 -0.008137328 -0.0025609767 0.006479285
-0.0069741504 -0.02563205 0.015802514 0.012875492 -0.0010765047 0.019172303 -0.006351376 -0.002902501
0.027949268 -0.012089528 -0.016359368 0.0019875548 -0.003457265 -0.0061540194 -0.011147097 0.018701842
-0.0060519353 0.01055456 0.031344917 0.010295374 0.009623635 -0.020281198 0.0036664803 -0.000574991
-0.0034474242 -0.0009219389 -0.006809475 0.006158318 -0.006336206 0.018849708 -0.020251775 0.024722353
-0.019396449 0.0012230332 -0.017733118 0.012824026 0.0032193193 -5.349738e-05 -0.016950961 -0.029984575
-0.008237776 -0.002509005 0.0036256076 0.0045221583 0.011139164 0.030636426 -0.022104073 0.0006690961
-0.0052226544 0.0036123407 -0.0022330403 -0.025420133 -0.010032766 0.05506176 0.0016958603 -0.011925308
00000000: c62c b63c 83ff ab3b f4c7 f8ba 0e15 a03c
00000010: 6433 d43b f9d2 d73b 4e6f 593b 2763 f83b
00000020: 26b8 a63c 1b1a a33b a005 1ebc 17d9 733c
00000030: 799f 41ba 14b5 4d3b 4ef4 48bc 9ede 2abc
00000040: 80f7 42bc 7b04 3bbc d75c 3ebc 012c 773b
00000050: 54aa 59bc 1281 dd3c c2c0 b53b bb63 23bc
00000060: ccde a4bb da19 20bc f2b6 eabb 8ba6 dcbb
00000070: 95ff 7ebc 1486 183b fae2 dcbb 730b 33bc
00000080: ae00 f73a 89c6 96bc a991 9ebc 0c7b 39bc
00000090: c2e9 583c 3416 1439 f1fd f2bb 7018 423c
000000a0: 0144 873c 69c5 dcbb 1c57 ef3c a39e 98bb
000000b0: a613 703c 6249 49bb 0392 ba3b 7b15 a0bc
000000c0: 9928 50bc efb5 1b3d d68e 0e3c bff6 47bb
000000d0: 3406 a0bc 6395 89bc e384 1abc 7f0e 9d3b
000000e0: 9f69 1b3d c270 8d3b a4d8 37bc 021c 4a3c
000000f0: 344d f2bb 1d8f 903a 580a 723b 9bcf 4ebb
00000100: 5b44 02bc 39ad d3bc 32be a23c 1a35 46bc
00000110: f2f9 90bc 3a1a f6bb dba6 003b c074 bfbc
00000120: 454b 653c 5258 c1ba 2be1 3e3c 1cfb 403b
00000130: a620 793b b694 75bc 99e0 6bbc f503 363b
00000140: 8347 b03b b123 a7bb 8710 f73b e741 a93c
00000150: f03e 3abc 7c7b a2bb 902c 3e3c 6f97 023d
00000160: e389 7bbc 36c5 0e3c 7dde dbbb 385d 1c3c
00000170: b674 853c 4681 133b b027 733c f1c2 9bba
00000180: d710 393c b5fc d53b 80ea 68bc 26a3 ab38
00000190: 7e31 96bc be00 e23c 175b cdbb a65d 263c
000001a0: 32ab 983c 0b8d 953b 0080 4f3c f9c3 2abc
000001b0: ade7 cbbc 9288 563c d95d b83b 45d8 e2bb
000001c0: 68eb dabb 5828 b6ba 2259 3cbc a715 ebbb
000001d0: fa07 67bb 8653 be3b 03d2 123a ec85 88bc
000001e0: c34b a73c 2b77 8c3b 91ac b33c e6f8 523c
000001f0: ede9 493c ed21 f7bb 2215 033c 0655 213c
00000200: 0089 58bc 3952 b63b 0876 d3bb 0655 27bb
00000210: 1aa6 c83b 4c48 14bb 1398 09bc 7acb 183c
00000220: 4b25 6bba 2272 f83c 12b0 47bc 3db6 fcba
00000230: d642 c33a 64d4 06bb 2241 70bc da88 883c
00000240: 63e5 263c 76b4 723c 7ef7 553c 20ec 103b
00000250: d41e 9b3c de41 9f38 4fc1 99ba 806b f6bb
00000260: 636c 4e3c caa8 97bc 7bf7 9a3c e2e5 bbbc
00000270: 084b 9abb 4073 be3b 7ec7 2abc 2330 75bc
00000280: d387 b9bb 101d 7dbc 124d 13bc 8028 453c
00000290: f6ad 4cbb 3a9c c4bc 16b3 a43c ed8d 82bc
000002a0: 13ff 893c d122 1d3b dbfe f93b ca3a b1bc
000002b0: 46ab 67bb 614f f33b 35c5 ad3a e6c1 06bc
000002c0: 1d13 a33b 4fe2 4b3c aaa9 d5bb 2f95 443c
000002d0: e800 933c 1040 8bbb efb8 a4bc 7d7f 3fbc
000002e0: 0439 ac38 28df ffb9 ecba 963a d93e 90bc
000002f0: 5772 543c a0ab 10bc 2e0c 553c 88f4 4f3b
00000300: 1af8 c83b 731c b7bc 495f 51ba 3c91 efbb
00000310: ff40 903c 6d52 05bc 0fd6 27bb 2f50 d43b
00000320: 6a87 e4bb 4efa d1bc 4674 813c baf3 523c
00000330: 8119 8dba 3c0f 9d3c 341f d0bb e337 3ebb
00000340: ddf5 e43c 2813 46bc 1504 86bc a341 023b
00000350: 4893 62bb a8a7 c9bb 50a2 36bc 9b34 993c
00000360: 504f c6bb 09ed 2c3c 8763 003d eead 283c
00000370: 73ac 1d3c c124 a6bc 5549 703b feba 16ba
00000380: 2eee 61bb 46ae 71ba 0422 dfbb b7cb c93b
00000390: f39f cfbb b46a 9a3c 0de7 a5bc 8886 ca3c
000003a0: 4de5 9ebc 2f4e a03a 0b45 91bc dd1b 523c
000003b0: 37fb 523b 6062 60b8 bedc 8abc 36a2 f5bc
000003c0: bdf7 06bc 1e6e 24bb 9a9b 6d3b 9d2e 943b
000003d0: 0a81 363c 3ef9 fa3c 9a13 b5bc 4766 2f3a
000003e0: cd22 abbb 05bd 6c3b 3358 12bb e23d d0bc
000003f0: 7860 24bc 7188 613d a147 de3a 5e62 43bc

network_body._body_endoder.seq_layers.2.weight f4 [256, 256]
0.02254589 -0.018103976 -0.11206526 0.053892728 0.027371317 0.027846996 -0.05843843 -0.036383525
-0.010310896 0.035731748 -0.035789195 -0.02190412 -0.05897882 0.013341332 0.040818103 -0.07201887
-0.012100861 0.002556469 -0.024055453 0.036668386 -0.060954496 -0.029412488 -0.024100142 -0.11640844
0.09039233 -0.058212224 0.032647546 0.05483778 0.065292194 0.05041764 0.14033724 0.03237959
-0.036703244 -0.052345324 0.03425403 -0.036519762 0.013669784 -0.07620207 0.034988727 0.18657014
-0.004818477 -0.015532412 0.041348267 -0.12043598 0.13733658 0.043748308 -0.069910236 0.04828627
-0.116275765 0.034626033 -0.03950931 0.12114374 -0.02301333 -0.030314423 0.0012629369 -0.024566427
-0.07823028 -0.041205388 -0.0485813 -0.050121818 0.12997264 0.082518555 -0.047373325 0.019954883
-0.06308514 0.013278577 -0.07233989 0.14463796 0.032424428 -0.115270525 0.11468504 0.042255543
0.05657307 0.023685684 7.441615e-05 -0.0539024 -0.05148163 -0.012926104 0.050633363 -0.04940043
-0.040274024 0.014341091 0.030032681 0.042119112 0.03639198 -0.06698024 0.16271959 0.022586523
0.023691775 -0.011721853 0.00175617 0.02779292 0.102252625 -0.0038175178 0.10633402 -0.054695178
0.06472261 -0.036172394 -0.073200345 -0.033030827 -0.006795842 0.024151837 -0.036833428 0.027605925
-0.047975052 0.032343592 -0.055608798 -0.038604636 -0.00808115 -0.07784975 -0.094516315 0.016849834
-0.06851093 -0.079773284 -0.0540335 -0.077452496 0.026100757 0.007422464 0.0021087716 -0.081604175
-0.02011993 -0.01790963 0.026364086 -0.039388247 -0.010854881 -0.06379847 0.15744923 -0.09719977
-0.024274034 -0.07014595 0.021187497 -0.03659801 0.010990127 -0.06505323 0.017158616 -0.021394799
0.072265156 0.009654677 0.03510553 0.029533204 -0.045219526 -0.10711803 -0.070049986 0.023590574
0.025116911 0.051769834 0.053621672 0.067525014 0.02335292 -0.082665145 -0.06975717 0.033660755
0.031039085 0.06619152 0.048040595 -0.024011921 -0.032440465 0.024578044 -0.060646936 -0.04089783
0.063868456 0.12339194 0.08026946 0.084659055 -0.13238321 0.04895018 0.07749729 -0.03287219
-0.02017718 -0.048998542 0.0057991673 0.09021506 0.019456316 0.08474187 -0.036545303 0.04765138
0.036903005 0.07869001 0.087286144 -0.0493775 -0.020545172 0.075524084 -0.026688077 -0.07162104
-0.0706421 0.013778168 0.031004986 0.052929755 -0.025883934 -0.05594071 0.013466051 -0.096305445
0.050347622 0.07918861 0.05756335 -0.016951108 -0.01588123 0.09666381 0.08493868 0.069545984
0.012453284 -0.05347913 0.023052868 0.012926086 -0.007987186 -0.011362206 0.0035410984 0.16546956
0.041038383 0.03830628 0.007459976 0.1430835 0.06183998 -0.024656635 -0.035566393 -0.028578775
0.0008467782 -0.0084554395 0.10977086 0.056561142 -0.15826531 -0.019726142 -0.060431 0.06952146
-0.029798506 0.012484616 0.0055657155 0.07672913 0.11563987 0.07443071 -0.060175184 -0.029331595
-0.13668843 0.07727365 -0.018287612 0.07258127 -0.1051781 -0.02678872 0.0010311943 -0.12327746
-0.004265139 0.12120095 -0.026252205 -0.04731058 0.01813306 -0.05128143 -0.1122461 0.047421094
-0.005046987 -0.035969403 0.07285586 0.030323833 0.077472545 0.07212721 -0.09748539 0.07841769
00000000: 29b2 b83c ca4e 94bc 7982 e5bd 9fbe 5c3d
00000010: d039 e03c 621f e43c 235d 6fbd e406 15bd
00000020: 08ef 28bc 745b 123d b197 12bd 4570 b3bc
00000030: c693 71bd 9a95 5a3c e230 273d a17e 93bd
00000040: b142 46bc 6f8a 273b f10f c5bc 9731 163d
00000050: 6cab 79bd 75f2 f0bc a96d c5bc 8c67 eebd
00000060: 9d1f b93d f16f 6ebd 6fb9 053d 949d 603d
00000070: eab7 853d ba82 4e3d 91b4 0f3e 76a0 043d
00000080: 2456 16bd 0d68 56bd f44d 0c3d bf95 15bd
00000090: 3bf7 5f3c d50f 9cbd 5750 0f3d 3e0c 3f3e
000000a0: 51e4 9dbb a87b 7ebc cd5c 293d 24a7 f6bd
000000b0: f6a1 0c3e 6d31 333d 192d 8fbd d3c7 453d
000000c0: fd21 eebd 07d4 0d3d 84d4 21bd 361a f83d
000000d0: 7386 bcbc f455 f8bc 2189 a53a 883f c9bc
000000e0: 3237 a0bd fbc6 28bd 2ffd 46bd 894c 4dbd
000000f0: 8c17 053e 7dff a83d 880a 42bd 6c78 a33c
00000100: c832 81bd 638e 593c f026 94bd f91b 143e
00000110: 7acf 043d f412 ecbd fedf ea3d 2614 2d3d
00000120: 2ab9 673d 7b08 c23c de0f 9c38 c3c8 5cbd
00000130: 67de 52bd 02c8 53bc ee64 4f3d 1b58 4abd
00000140: 60f6 24bd e5f6 6a3c 1907 f63c 1785 2c3d
00000150: c20f 153d f02c 89bd f79f 263e 5f07 b93c
00000160: 4115 c23c 040d 40bc 492f e63a faad e33c
00000170: d369 d13d 522f 7abb a7c5 d93d 0d08 60bd
00000180: 4a8d 843d 8129 14bd 10ea 95bd 554b 07bd
00000190: a8af debb 13da c53c a6de 16bd d225 e23c
000001a0: 7d81 44bd b77a 043d 0dc6 63bd e51f 1ebd
000001b0: cd66 04bc b16f 9fbd c591 c1bd aa08 8a3c
000001c0: 754f 8cbd 2d60 a3bd 3b52 5dbd 6a9f 9ebd
000001d0: 41d1 d53c 2438 f33b 5133 0a3b 1720 a7bd
000001e0: 8dd2 a4bc 37b7 92bc 7ff9 d73c 9255 21bd
000001f0: acd8 31bc c6a8 82bd 5f3a 213e ac10 c7bd
00000200: 57da c6bc aea8 8fbd 6791 ad3c cce7 15bd
00000210: ef0f 343c a13a 85bd 3a90 8c3c 2544 afbc
00000220: c1ff 933d a62e 1e3c d1ca 0f3d 9eef f13c
00000230: 1c38 39bd b360 dbbd 5e76 8fbd 0541 c13c
00000240: fbc1 cd3c 9b0c 543d 66a2 5b3d 8e4a 8a3d
00000250: 9f4e bf3c 584c a9bd d9dc 8ebd dcdf 093d
00000260: ae45 fe3c 6b8f 873d 37c6 443d a6b4 c4bc
00000270: 4be0 04bd e557 c93c ec68 78bd 7c84 27bd
00000280: 77cd 823d eab4 fc3d 5164 a43d ba61 ad3d
00000290: 778f 07be fc7f 483d e6b6 9e3d fda4 06bd
000002a0: 9d4a a5bc b2b2 48bd f106 be3b acc2 b83d
000002b0: da62 9f3c 258d ad3d 87b0 15bd 182e 433d
000002c0: 9b27 173d 3a28 a13d 14c3 b23d 1040 4abd
000002d0: 594e a8bc 5fac 9a3d f4a0 dabc 0dae 92bd
000002e0: ceac 90bd d3bd 613c 2bfe fd3c dfcc 583d
000002f0: 8b0a d4bc 1622 65bd b6a0 5c3c ca3b c5bd
00000300: 4f39 4e3d a32d a23d 8cc7 6b3d 0ddd 8abc
00000310: 5a19 82bc adf7 c53d 55f4 ad3d 206e 8e3d
00000320: dc08 4c3c ef0c 5bbd 5ed9 bc3c efc7 533c
00000330: b0dc 02bc 8c28 3abc c611 683b da70 293e
00000340: dd17 283d 0ce7 1c3d d072 f43b 7b84 123e
00000350: eb4b 7d3d b6fc c9bc 11ae 11bd 091e eabc
00000360: 53fa 5d3a af88 0abc 8bcf e03d a8ac 673d
00000370: 4d10 22be b898 a1bc 7f86 77bd 4461 8e3d
00000380: ff1b f4bc 468c 4c3c 9b60 b63b 2a24 9d3d
00000390: 99d4 ec3d 216f 983d 417a 76bd d048 f0bc
000003a0: 0df8 0bbe a641 9e3d e7cf 95bc 7da5 943d
000003b0: 9e67 d7bd 0574 dbbc 2429 873a e578 fcbd
000003c0: 94c2 8bbb 3438 f83d dd0e d7bc bdc8 41bd
000003d0: c88b 943c 7a0c 52bd 49e1 e5bd 9f3c 423d
000003e0: 3261 a5bb a754 13bd 7435 953d b069 f83c
000003f0: eda9 9e3d 6eb7 933d 6ca6 c7bd 7499 a03d

network_body._body_endoder.seq_layers.2.bias f4 [256]
0.018095871 0.00040329507 -0.0038417 -0.0033283562 0.005336115 -0.0011408419 0.021639295 -0.0037317672
0.004697408 0.0017391597 0.0066917655 -0.00256288 -0.005424548 0.0065918313 -0.008300954 0.011423925
-0.010670281 -0.0060735093 -0.003048459 -0.0050855256 0.0015243067 -0.008476548 0.016061382 -0.0056274263
-0.007513825 0.007389362 -0.0020918404 -0.010327714 -0.0057481127 0.0033380003 -0.0014652692 0.0066074603
0.016668893 0.0001572628 0.0020043023 0.006209938 -0.008258927 0.007459176 -0.0059434585 0.007323215
-0.013362441 0.004791502 0.010615826 -0.003819411 -0.005407751 0.015445228 -0.006732584 0.0012221772
0.035633087 -0.0046115476 -0.0016457769 0.0047730925 0.017974213 -0.0036372389 0.010520974 -0.009287371
0.0071139154 0.003719128 -0.0016560056 -0.008458663 0.010051744 -0.0023901341 0.008686632 0.010234396
-0.0061186245 0.015356499 0.0063508092 -0.017405929 -0.003923566 -0.0024880634 0.023829514 -0.0064055845
-0.0056381295 0.02522105 -0.0076824585 0.0085174 0.0015342063 0.0033486285 -0.0067435903 0.012605804
-0.0049673207 0.0057557835 -0.012358528 -0.0075141904 -0.003862919 -0.0016559717 0.009343264 0.011755728
-0.0038427706 -0.009204768 -0.013092824 0.0033595378 -0.0016453911 -0.0029452029 0.0061167646 -0.006535931
-0.010346192 0.025111362 0.0063860426 -0.0042547365 -0.007051983 -0.0031753017 0.0014059296 -0.0070368284
0.0056230132 -0.0064650723 -0.007990636 -0.00293966 -0.0012682048 0.01570687 0.021517908 -0.012525362
0.003372398 -0.004139777 -0.009898468 -0.0026104315 0.009105527 -0.0015222729 0.0061294474 -0.0023106919
-0.0006570564 0.007736835 -0.009315032 0.0047144275 0.00014485526 -0.0055867485 -0.0075692567 0.0105857095
-0.004296557 0.005965285 0.013672248 0.011280017 -0.0074218805 0.005504755 0.024894046 0.006748826
-0.0029043027 -0.008493034 0.014908887 0.0032424435 -0.007276269 -0.010350879 -0.014560691 0.0057523362
0.020118259 -0.01581121 0.0070511163 -0.0020073636 0.013865846 -0.0020513027 -0.0050191144 -0.003295494
0.0076041957 -0.0058963657 -0.0033288877 0.008018634 -0.010456455 0.013723799 0.003230148 0.015827935
-0.016111463 -0.0061932686 0.006381499 0.015491933 -0.006502429 -0.0065423204 0.013163647 0.003678291
-0.010651642 -0.011433639 0.00025574578 -0.002385605 -0.0051063085 0.022522269 -0.0015944266 -0.011829918
0.00020667519 0.0034769971 0.0035263698 -0.0013048842 -0.0030548528 0.012835261 0.0027437538 0.010248454
0.0030405493 -0.013270897 -0.00047537195 0.0055800993 -0.008199209 0.0068034204 -0.000665257 0.017879067
-0.0050901384 0.008034352 0.0023212775 0.017677946 -0.00082024885 0.02141011 -0.010705781 -0.0056943265
0.0007543694 -0.003614978 -0.0049487674 -0.010178181 0.013260314 -0.0034437329 -0.0034078965 -0.0066323928
0.0014699167 -0.0014527824 0.0017552113 0.018898737 0.004903968 0.024574835 -0.014672923 -0.013282022
-0.0012042095 -0.0061603314 0.008448083 0.019334638 0.0064233313 -0.01016997 0.009671463 -0.013630701
-0.0049022255 0.010973203 0.012478923 -0.010445353 0.0018733648 0.00033998978 0.008892877 -0.013404923
0.0069544343 -0.0017603842 0.0050694514 -0.0015343869 -0.0010476332 0.0040675635 -0.00047651943 0.0036455318
-0.0058455975 -0.015217042 -0.013415054 -0.008641688 -0.0018587529 0.0020459953 -0.0047189444 0.004221186
-0.0053581507 -0.0007516012 0.0035028455 -0.019169858 0.014469795 -0.0012336757 0.00091402215 0.006423657
00000000: cb3d 943c 5971 d339 08c5 7bbb 8d20 5abb
00000010: 94da ae3b 4d88 95ba e444 b13c aa90 74bb
00000020: b7ec 993b 84f4 e33a 9946 db3b fef5 27bb
00000030: 68c0 b1bb 4a00 d83b b900 08bc 6a2b 3b3c
00000040: 67d2 2ebc 4a04 c7bb a8c8 47bb 7ba4 a6bb
00000050: 3fcb c73a 38e1 0abc 2993 833c 4666 b8bb
00000060: 8836 f6bb 7622 f23b 4217 09bb 9235 29bc
00000070: aa5a bcbb 5ac2 5a3b 470e c0ba 6583 d83b
00000080: 348d 883c e9e6 2439 9d5a 033b bc7c cb3b
00000090: 7350 07bc 1a6c f43b 58c1 c2bb 94f7 ef3b
000000a0: 24ee 5abc 0802 9d3b 00ee 2d3c 154f 7abb
000000b0: 8133 b1bb fb0d 7d3c 029d dcbb 7631 a03a
000000c0: 00f4 113d 771c 97bb 1cb7 d7ba 9a67 9c3b
000000d0: a83e 933c be5e 6ebb 2a60 2c3c 0f2a 18bc
000000e0: d91b e93b 9dbc 733b 540e d9ba 3496 0abc
000000f0: 12b0 243c cca3 1cbb 6052 0e3c 2bae 273c
00000100: be7e c8bb d399 7b3c 731a d03b e196 8ebc
00000110: 4291 80bb c70e 23bb 1d36 c33c f0e5 d1bb
00000120: 0fc0 b8bb 609c ce3c 22bd fbbb 918c 0b3c
00000130: 6c17 c93a aa74 5b3b 56f9 dcbb 9388 4e3c
00000140: e8c4 a2bb 039b bc3b 6c7b 4abc 9939 f6bb
00000150: 0729 7dbb 310d d9ba 7d14 193c 199b 403c
00000160: fed6 7bbb 98cf 16bc 4983 56bc b12b 5c3b
00000170: 2aaa d7ba 4e04 41bb 246f c83b 5d2b d6bb
00000180: 1383 29bc 58b6 cd3c 0242 d13b 516b 8bbb
00000190: 5214 e7bb b918 50bb 2b47 b83a 3295 e6bb
000001a0: 4141 b83b f5d8 d3bb 28eb 02bc 50a7 40bb
000001b0: e439 a6ba b2ab 803c 5346 b03c 2d37 4dbc
000001c0: 7303 5d3b f7a6 87bb 2f2d 22bc c613 2bbb
000001d0: 592f 153c 0187 c7ba 88d9 c83b fa6e 17bb
000001e0: 4f3e 2cba 4785 fd3b 139e 18bc 7c7b 9a3b
000001f0: 4ae4 1739 0b11 b7bb 8707 f8bb af6f 2d3c
00000200: 22ca 8cbb 7078 c33b 9101 603c d2cf 383c
00000210: 3f33 f3bb 3b61 b43b 99ee cb3c 4125 dd3b
00000220: 1d56 3ebb 5e26 0bbc 6844 743c 2d7f 543b
00000230: c56d eebb bc96 29bc f78f 6ebc 187e bc3b
00000240: 0ccf a43c 8386 81bc 0d0d e73b f98d 03bb
00000250: 932d 633c 266f 06bb 6277 a4bb 37f9 57bb
00000260: 9e2c f93b 4d36 c1bb 7829 5abb 9760 033c
00000270: 8d51 2bbc c9d9 603c e4b0 533b 96a9 813c
00000280: 30fc 83bc e7f0 cabb e51b d13b e0d1 7d3c
00000290: 5412 d5bb f660 d6bb 56ac 573c 7c0f 713b
000002a0: 3a84 2ebc 2854 3bbc 9e15 8639 cf57 1cbb
000002b0: d252 a7bb 9f80 b83c 14fc d0ba 46d2 41bc
000002c0: f3b6 5839 55de 633b ab1a 673b a608 abba
000002d0: ed33 48bb fd4a 523c 8dd0 333b 22e9 273c
000002e0: f443 473b 2d6e 59bc 583b f9b9 44d9 b63b
000002f0: fa55 06bc 3aef de3b a464 2eba 1f77 923c
00000300: 2dcb a6bb 84a2 033c 9320 183b 57d1 903c
00000310: f805 57ba 4164 af3c 4d67 2fbc 7997 babb
00000320: e0c0 453a 44e9 6cbb 4529 a2bb 63c2 26bc
00000330: ca41 593c 40b0 61bb 0457 5fbb 8b54 d9bb
00000340: 38aa c03a 4a6b beba 1e0f e63a 86d1 9a3c
00000350: 77b1 a03b 2a51 c93c b366 70bc d79c 59bc
00000360: 91d6 9dba 9bdc c9bb d469 0a3c ad63 9e3c
00000370: cf7a d23b f29f 26bc 0e75 1e3c 4e53 5fbc
00000380: d9a2 a0bb f3c8 333c 6674 4c3c fc22 2bbc
00000390: b18b f53a a840 b239 6eb3 113c 52a0 5bbc
000003a0: 06e2 e33b b1bc e6ba a41d a63b 7b1d c9ba
000003b0: bd50 89ba 3249 853b 5bd5 f9b9 e0e9 6e3b
000003c0: 6d8c bfbb e650 79bc d1ca 5bbc de95 0dbc
000003d0: 66a1 f3ba 1b16 063b 60a1 9abb e051 8a3b
000003e0: 6d93 afbb 1a07 45ba ff8f 653b 1b0a 9dbc
000003f0: b812 6d3c 4ab3 a1ba fd9a 6f3a 8a7d d23b

action_model._continuous_distribution.log_sigma f4 [1, 2]
0.020604838 0.07494194
00000000: 7acb a83c 297b 993d

action_model._continuous_distribution.mu.weight f4 [2, 64]
0.048590343 0.037974477 0.058261666 0.026419837 0.074764565 0.08361428 0.056738183 0.02035952
-0.011024823 0.010496863 -0.0375655 0.03474224 -0.032056194 -0.052475706 0.018887699 0.018766886
0.029068122 -0.07541035 -0.040569596 -0.0076268516 -0.05124594 0.069529735 -0.02461435 0.068973616
-0.008718433 -0.048189547 -0.0091018975 -0.015444896 0.02968138 0.04930531 -0.026325298 -0.04626189
-0.038553096 -0.04127505 -0.030799005 0.06127718 0.013518399 -0.08521479 -0.08392119 -0.08236723
-0.021670379 0.052523363 -0.029820574 -0.05472902 0.062112607 0.053538352 0.04186252 -0.053767476
0.0061296923 0.029889053 0.040626604 0.043431085 0.0020233544 0.0018799738 -0.08698254 0.0028047725
0.0026795978 -0.05588641 0.010124606 -0.022627376 0.010586978 0.037076227 -0.033313617 0.020704962
-0.059770603 -0.032286864 0.029640203 0.063157715 0.009071709 -0.0080427 -0.033220828 0.024605468
-0.0033750397 0.09745774 0.036923 -0.015130716 -0.009208987 0.012683447 -0.029703252 0.085756324
-0.06398265 0.005227784 -0.023106048 -0.0073515885 -0.01732477 -0.050906967 -0.0481918 0.032802172
-0.081633255 0.020931164 0.04597758 -0.0100299865 -0.04196163 0.035735592 -0.05467282 0.026678247
-0.0066096825 0.047448177 0.065671705 0.02004331 0.032063536 0.07003502 0.07932981 -0.022599548
0.082062505 -0.020958867 0.030161284 0.024093937 -0.0019837504 0.04361352 -0.06886857 0.0315926
-0.07906628 -0.003085283 -0.041057553 0.003699398 0.07024598 -0.02609998 0.03082134 -0.059567243
-0.06257601 -0.015002252 0.0025799274 -0.06833824 0.044899803 -0.024183232 -0.014763527 -0.040307667
00000000: ab06 473d 208b 1b3d c9a3 6e3d 6a6e d83c
00000010: 2a1e 993d f73d ab3d 4c66 683d 02c9 a63c
00000020: 76a1 34bc 09fb 2b3c 48de 19bd e14d 0e3d
00000030: 5b4d 03bd c4f0 56bd 60ba 9a3c 03bd 993c
00000040: 4520 ee3c be70 9abd 4e2c 26bd abea f9bb
00000050: 43e7 51bd 9b65 8e3d 09a4 c9bc 0a42 8d3d
00000060: c2d7 0ebc 6762 45bd 2020 15bc 970c 7dbc
00000070: 5e26 f33c 5df4 493d 27a8 d7bc 1c7d 3dbd
00000080: dae9 1dbd 0710 29bd 324e fcbc c8fd 7a3d
00000090: 467c 5d3c 1885 aebd dfde abbd 26b0 a8bd
000000a0: 1486 b1bc bd22 573d 474a f4bc 892b 60bd
000000b0: ca69 7e3d 084b 5b3d 0978 2b3d 493b 5cbd
000000c0: 96db c83b e3d9 f43c 1568 263d cbe4 313d
000000d0: 419a 043b 7469 f63a e723 b2bd 46d0 373b
000000e0: 319c 2f3b 26e9 64bd ade1 253c 0c5d b9bc
000000f0: 0175 2d3c 3edd 173d dc73 08bd 749d a93c
00000100: 05d2 74bd 3b3f 04bd 03d0 f23c d558 813d
00000110: 81a1 143c 87c5 03bc 9012 08bd 6891 c93c
00000120: c52f 5dbb ec97 c73d 923c 173d d3e6 77bc
00000130: 4ae1 16bc 3cce 4f3c 3c54 f3bc 03a1 af3d
00000140: 5609 83bd d54d ab3b e548 bdbc 98e5 f0bb
00000150: adec 8dbc d383 50bd c464 45bd 925b 063d
00000160: 562f a7bd d577 ab3c fd52 3c3d d054 24bc
00000170: f5df 2bbd 7c5f 123d 9bf0 5fbd 578c da3c
00000180: 0996 d8bb 0559 423d e37e 863d de31 a43c
00000190: 0e55 033d 856e 8f3d ab77 a23d b022 b9bc
000001a0: 6310 a83d eeb1 abbc cc14 f73c a660 c53c
000001b0: cf01 02bb 17a4 323d f70a 8dbd 3e67 013d
000001c0: 80ed a1bd 7632 4abb f72b 28bd 9971 723b
000001d0: 20dd 8f3d a0cf d5bc 097d fc3c c8fc 73bd
000001e0: da27 80bd 01cc 75bc 0014 293b ebf4 8bbd
000001f0: dbe8 373d ea1b c6bc b8e2 71bc a719 25bd

action_model._continuous_distribution.mu.bias f4 [2]
0.00917146 -0.018748878
00000000: e443 163c 3f97 99bc

onnx::LSTM_101 f4 [1, 256, 256]
-0.08884775 -0.12044804 -0.10204936 -0.07265191 -0.064734794 -0.11554049 -0.078436606 0.11393002
0.054216065 -0.123449996 0.019255491 -0.02215513 -0.109260835 -0.09240725 0.0564635 0.1082961
-0.12582615 0.11256513 0.10364707 0.15018296 0.044678483 -0.038897526 0.010355988 -0.03269094
-0.030958613 -0.02636919 -0.07194351 -0.11265754 0.010162231 0.0064887227 -0.10083992 0.05908131
0.03149061 -0.08364637 -0.102036595 0.06335958 -0.11087295 0.08776055 -0.058019962 0.13747539
-0.011040105 0.006219395 -0.09634153 -0.06243535 0.10935752 0.10440007 0.066927195 0.16106364
0.0065479022 0.13276273 0.046643503 -0.105903216 -0.018872323 0.10151572 -0.11473154 0.088186696
0.059607398 0.025944343 0.11940035 -0.111686364 -0.052393347 -0.11777366 -0.04304397 0.11170901
-0.0050569884 0.032651156 -0.08973407 0.13153012 -0.02326855 0.059424154 0.120701276 -0.069081604
0.03808505 0.033277214 -0.0471594 0.030759066 0.11565977 -0.0114720855 0.08567845 0.06312065
0.083422676 -0.04797717 0.037239462 -0.17042668 0.14609636 -0.14776099 -0.09503719 0.046172496
-0.04152616 -0.10740716 0.080368735 0.03933584 0.081390016 -0.124241434 0.07625289 -0.01664288
-0.012059607 0.101342596 0.13859342 -0.015950672 -0.06746918 -0.09358967 -0.05689616 0.03603599
-0.064978994 -0.04791612 0.08489882 -0.10066228 0.11175626 -0.017615406 -0.11280273 -0.023562849
0.025981037 -0.06383511 -0.102204375 -0.084565215 -0.02544009 0.12960182 0.13329718 -0.14867067
-0.10481128 0.11425025 -0.011626291 0.13386488 -0.10092243 -0.08638389 0.0751804 -0.1327177
-0.102424644 -0.052668303 -0.030718692 -0.09173882 -0.13564289 0.020331124 0.049644556 0.059179723
-0.0059298454 0.08465804 -0.11117566 -0.12838162 0.105962545 0.13199563 0.11359044 0.1291581
0.11801941 0.06307855 0.15029377 -0.14018413 0.08942889 0.026934639 0.0005137259 0.13199629
0.007751663 0.031998746 -0.023097904 -0.03846328 0.092052504 0.019370986 0.08519671 0.054056495
0.033172067 0.017728653 0.11112505 0.020483889 0.081723146 0.030410908 -0.060778163 -0.113571435
-0.11045582 0.06269066 -0.07013716 0.100615725 0.03644982 0.07781306 -0.09617707 -0.10090797
-0.03162371 0.06482557 0.10007485 -0.083392 -0.04512138 0.15080492 0.09598865 -0.09119607
0.026698519 -0.02737956 0.020450447 -0.09470713 -0.0052133943 -0.06595165 -0.008922005 0.13094464
0.008564664 -0.053919267 -0.050023373 0.12719491 0.12444781 0.06459287 -0.08146588 -0.070810325
0.06630062 0.04604985 0.0028329198 0.04920692 -0.12997568 -0.13043061 0.02147818 0.020404706
-0.07843972 -0.07829888 -0.057724625 -0.045531943 -0.14276195 -0.021848118 -0.061579492 0.026420748
0.09639113 -0.079485305 -0.07699005 0.12198313 -0.093978226 0.12751494 0.036610607 -0.041014254
0.09456048 0.053617597 -0.11556521 0.098518655 -0.09524802 -0.03131903 -0.13166459 0.09303741
-0.025121013 0.015776625 0.020816337 0.0041580666 -0.06496468 -0.030999716 0.017389469 0.058332082
0.042375874 0.13956007 0.054214593 -0.042280477 -0.019788392 0.11397367 -0.12601286 0.010554362
-0.07223245 0.121417604 0.1159964 0.10816774 -0.026766988 0.013765505 -0.08510413 0.1458597
00000000: cff5 b5bd 76ad f6bd 41ff d0bd 86ca 94bd
00000010: ad93 84bd 7ea0 ecbd 5fa3 a0bd 2454 e93d
00000020: aa11 5e3d 5ad3 fcbd b1bd 9d3c ad7e b5bc
00000030: 25c4 dfbd 0340 bdbd 4546 673d 58ca dd3d
00000040: 92d8 00be 8c88 e63d ea44 d43d 90c9 193e
00000050: c900 373d 0353 1fbd 29ac 293c efe6 05bd
00000060: eb9c fdbc 3304 d8bc 1e57 93bd ffb8 e6bd
00000070: 7c7f 263c 5a9f d43b 2985 cebd 3eff 713d
00000080: 4cfc 003d ca4e abbd 90f8 d0bd abc2 813d
00000090: 5b11 e3bd cebb b33d 57a6 6dbd 59c6 0c3e
000000a0: 8ee1 34bc 11cc cb3b b54e c5bd 36bc 7fbd
000000b0: d6f6 df3d b4cf d53d 2011 893d deed 243e
000000c0: c98f d63b f4f2 073e 420d 3f3d c9e3 d8bd
000000d0: 219a 9abc 79e7 cf3d 5ff8 eabd 3a9b b43d
000000e0: e326 743d 3b89 d43c 2c88 f43d d2bb e4bd
000000f0: 689a 56bd 5133 f1bd e04e 30bd b2c7 e43d
00000100: 18b5 a5bb 38bd 053d 7fc6 b7bd d5af 063e
00000110: b09d bebc be66 733d 3b32 f73d a87a 8dbd
00000120: 12ff 1b3d b04d 083d 372a 41bd 70fa fb3c
00000130: 08df ec3d 6af5 3bbc 2f78 af3d 6645 813d
00000140: 82d9 aa3d b683 44bd 6888 183d 5584 2ebe
00000150: 499a 153e a84e 17be dca2 c2bd 5f1f 3d3d
00000160: 5617 2abd 49f8 dbbd 5d98 a43d 9e1e 213d
00000170: cfaf a63d 4b72 febd 7a2a 9c3d a656 88bc
00000180: a895 45bc b58c cf3d 6feb 0d3e fcaa 82bc
00000190: 482d 8abd f1ab bfbd f30b 69bd 799a 133d
000001a0: b513 85bd b243 44bd 6fdf ad3d 0728 cebd
000001b0: 77e0 e43d 2f4e 90bc 1e05 e7bd e006 c1bc
000001c0: 2fd6 d43c fbbb 82bd 8750 d1bd 8730 adbd
000001d0: bc67 d0bc 57b6 043e 0e7f 083e 203d 18be
000001e0: 4ca7 d6bd 09fc e93d 337c 3ebc e013 093e
000001f0: 6bb0 cebd 09ea b0bd 2ef8 993d 26e7 07be
00000200: 03c4 d1bd b8ba 57bd c4a5 fbbc 90e1 bbbd
00000210: f8e5 0abe 758d a63c 1758 4b3d 7066 723d
00000220: 264f c2bb 3261 ad3d 10b0 e3bd 7976 03be
00000230: e402 d93d dd29 073e 1ba2 e83d 0542 043e
00000240: 29b4 f13d 542f 813d 9ce6 193e 6e8c 0fbe
00000250: 7e26 b73d 08a6 dc3c 90ab 063a 092a 073e
00000260: aa01 fe3b 1e11 033d d137 bdbc ac8b 1dbd
00000270: 0686 bc3d e7af 9e3c 9d7b ae3d 586a 5d3d
00000280: 6fdf 073d ae3b 913c 8895 e33d d4cd a73c
00000290: 775e a73d 4c20 f93c 86f2 78bd 2498 e8bd
000002a0: a936 e2bd f663 803d 12a4 8fbd 9e0f ce3d
000002b0: 684c 153d 745c 9f3d 7cf8 c4bd d6a8 cebd
000002c0: dd87 01bd 45c3 843d 0bf4 cc3d 6dc9 aabd
000002d0: 32d1 38bd 9b6c 1a3e b395 c43d 01c5 babd
000002e0: dab6 da3c 194b e0bc b287 a73c d0f5 c1bd
000002f0: 1fd5 aabb a911 87bd 9a2d 12bc 5a16 063e
00000300: ce52 0c3c 73da 5cbd 4fe5 4cbd 623f 023e
00000310: 7ede fe3d 4449 843d 95d7 a6bd 0105 91bd
00000320: 9fc8 873d c49e 3c3d 82a8 393b 328d 493d
00000330: 5818 05be 9a8f 05be 02f3 af3c c527 a73c
00000340: 01a5 a0bd 2a5b a0bd a870 6cbd b47f 3abd
00000350: 3030 12be d3fa b2bc c73a 7cbd 5370 d83c
00000360: b668 c53d 31c9 a2bd f6ac 9dbd 4bd2 f93d
00000370: a877 c0bd 4793 023e 01f5 153d 90fe 27bd
00000380: eda8 c13d 209e 5b3d 74ad ecbd 26c4 c93d
00000390: 6511 c3bd 6248 00bd 15d3 06be 668a be3d
000003a0: 95ca cdbc fb3d 813c 0687 aa3c 6440 883b
000003b0: 340c 85bd 1ef3 fdbc 5c74 8e3c 9fed 6e3d
000003c0: 5392 2d3d d6e8 0e3e 1f10 5e3d 4b2e 2dbd
000003d0: 441b a2bc 076b e93d 8409 01be 34ec 2c3c
000003e0: 9bee 93bd cba9 f83d 858f ed3d 0c87 dd3d
000003f0: 7146 dbbc b688 613c 134b aebd 3f5c 153e

onnx::LSTM_102 f4 [1, 256, 64]
-0.17450832 -0.18406667 -0.14371257 0.13788211 -0.019728906 -0.14060017 0.1924044 -0.20674677
-0.15561262 -0.04631577 0.012910857 -0.20115715 0.037854206 -0.13375838 -0.11391091 0.13259788
0.21312802 0.07432671 -0.001001418 0.21308199 -0.014887443 -0.011971745 0.21031559 -0.026818058
-0.11344813 -0.04377121 -0.1756766 -0.041396044 0.0839669 0.14533384 -0.030980963 -0.11399125
-0.04607478 -0.07473215 -0.16705531 -0.07092792 0.1802381 0.049771264 -0.145708 0.24968867
0.22338594 0.066860296 -0.12939842 0.117300205 -0.08423365 -0.0065221163 0.10391368 0.20409755
0.102724954 0.21078171 0.13443862 -0.06501609 0.0094493115 0.07203593 -0.05333831 0.082038596
-0.117136456 -0.12701714 -0.19866356 0.07413787 0.13708507 0.054513115 -0.012975255 -0.16788793
-0.042946186 0.23769346 0.13456406 -0.123553626 0.04539006 0.05910925 -0.076447345 -0.12631911
0.08563822 -0.06333225 0.16944952 0.1975257 0.06423132 0.20226407 -0.13360712 0.17068015
0.11262154 0.059078995 -0.049584337 0.1368857 0.18281256 0.072968066 -0.11042031 0.04806049
0.011939925 -0.14976664 0.18874106 -0.10626954 0.13189577 0.04600355 0.02513697 0.15096965
0.00895879 0.18139262 0.12496988 0.06376353 -0.16840321 -0.016247151 0.17214303 -0.03627202
-0.16136314 0.1610744 -0.15995392 -0.157456 0.026090669 0.050845217 -0.15074576 0.19480461
0.069942825 -0.1817685 -0.09768139 0.03764672 0.033134535 -0.033985894 -0.018195488 -0.12622753
-0.21676312 0.08044146 -0.092573166 0.1736151 0.0067542763 0.15969945 -0.18751709 -0.022787655
0.22061852 -0.15438384 -0.12419014 0.12749213 -0.022278363 0.09042873 0.17628026 -0.118556336
0.18802662 0.09937442 -0.0316166 -0.15171704 0.17697823 0.19265208 0.18473518 0.044268336
0.14482953 0.020221937 -0.101299986 -0.224888 -0.07199185 0.115258716 0.10152105 -0.18484548
-0.09095167 0.046727628 0.1580055 -0.0915084 0.05121509 -0.06500253 -0.16550697 0.19856694
0.20511654 -0.034898557 -0.072578855 0.1613473 -0.13704959 -0.16433929 0.044988383 0.037959296
0.05162386 0.16531537 0.19462945 -0.12712221 0.14095144 -0.012070722 -0.20251721 -0.045438685
0.010653301 -0.2197554 -0.16902241 0.081754014 0.17373109 -0.19384727 0.031884387 0.06771361
0.051703475 0.09544532 0.11429294 -0.02167765 -0.13962144 -0.17813215 0.14418915 -0.041270703
-0.16218244 -0.18710539 0.15465349 -8.0917256e-05 -0.2092146 -0.020938432 0.01840387 -0.17294645
0.10667724 -0.050627284 -0.02514188 -0.06835708 0.054640424 0.18014489 -0.19051977 -0.0036037613
0.15306671 -0.18244344 -0.17730193 0.0021797265 0.16768545 0.0349447 -0.017978014 -0.109064005
-0.1589545 0.035851385 -0.027340205 -0.09511934 -0.083903566 0.19890743 0.080208294 0.12236631
0.1648943 -0.19989577 0.22488795 0.08481551 -0.011598712 0.11644473 0.15605924 -0.0075492854
-0.04995873 -0.09489231 -0.057806145 0.04202761 0.033067547 0.23406877 0.1574316 0.15848649
-0.14616352 -0.041118294 -0.15909533 0.06150028 0.17989898 0.05599853 0.11997387 0.045137495
0.1916986 0.039198507 0.024351906 0.10460589 -0.045182947 -0.15124542 -0.114044145 0.019494914
00000000: 4fb2 32be f97b 3cbe 6329 13be f830 0d3e
00000010: 849e a1bc 7ef9 0fbe a905 453e 6db5 53be
00000020: ea58 1fbe 9bb5 3dbd 0f88 533c 24fc 4dbe
00000030: 030d 1b3d f5f7 08be 204a e9bd bdc7 073e
00000040: 3b3e 5a3e 9a38 983d 0342 83ba 2a32 5a3e
00000050: 76ea 73bc 2325 44bc f85c 573e 8bb1 dbbc
00000060: 7e57 e8bd 7149 33bd 91e4 33be e68e 29bd
00000070: d7f6 ab3d 65d2 143e cacb fdbc 3f74 e9bd
00000080: e9b8 3cbd 2b0d 99bd 8c10 2bbe a842 91bd
00000090: 5690 383e f4dc 4b3d 7a34 15be 63ae 7f3e
000000a0: 49bf 643e 0dee 883d 0581 04be 173b f03d
000000b0: b182 acbd 7ab7 d5bb b2d0 d43d f3fe 503e
000000c0: 7661 d23d 29d7 573e 47aa 093e 2827 85bd
000000d0: 49d1 1a3c 9387 933d 4679 5abd da03 a83d
000000e0: 3de5 efbd c810 02be 766e 4bbe 98d5 973d
000000f0: 0760 0c3e 2549 5f3d 2a96 54bc d0ea 2bbe
00000100: 57e8 2fbd ea65 733e 29cb 093e af09 fdbd
00000110: edea 393d 8a1c 723d 6d90 9cbd cc59 01be
00000120: 1763 af3d 57b4 81bd 2d84 2d3e 2d44 4a3e
00000130: b68b 833d 501e 4f3e 4ed0 08be c7c6 2e3e
00000140: 1fa6 e63d d1fc 713d f218 4bbd c42b 0c3e
00000150: 3733 3b3e 4870 953d 0b24 e2bd 14db 443d
00000160: ad9f 433c 6d5c 19be 5645 413e d8a3 d9bd
00000170: af0f 073e 386e 3c3d 0cec cd3c ca97 1a3e
00000180: e4c7 123c fdbe 393e 35f0 ff3d 7496 823d
00000190: e471 2cbe bf18 85bc 4346 303e f891 14bd
000001a0: 613c 25be b0f0 243e f6ca 23be 253c 21be
000001b0: 19bc d53c 1343 503d 195d 1abe dc7a 473e
000001c0: 2f3e 8f3d 8621 3abe 2e0d c8bd 7233 1a3d
000001d0: 14b8 073d cb34 0bbd b40e 95bc ca41 01be
000001e0: 27f7 5dbe 7ebe a43d 0097 bdbd 28c8 313e
000001f0: fa52 dd3b 4188 233e 7b04 40be 2dad babc
00000200: d2e9 613e cc16 1ebe 6657 febd 4c8d 023e
00000210: 1d81 b6bc b332 b93d d082 343e aacd f2bd
00000220: 0d8a 403e d184 cb3d 6880 01bd b65b 1bbe
00000230: c839 353e 9646 453e 382b 3d3e b752 353d
00000240: 314e 143e 7aa8 a53c 5e76 cfbd 0a49 66be
00000250: 7770 93bd c30c ec3d 45ea cf3d 2248 3dbe
00000260: df44 babd 7865 3f3d 32cc 213e c268 bbbd
00000270: eac6 513d 0c20 85bd a97a 29be 2255 4b3e
00000280: 120a 523e caf1 0ebd 39a4 94bd 3a38 253e
00000290: ba56 0cbe 8f48 28be bd45 383d 357b 1b3d
000002a0: 8a73 533d 6f48 293e f14c 473e 532c 02be
000002b0: 9355 103e 47c4 45bc ac60 4fbe ea1d 3abd
000002c0: 2f8b 2e3c 8f07 61be 3614 2dbe a66e a73d
000002d0: 90e6 313e e67f 46be 3499 023d 6fad 8a3d
000002e0: 06c7 533d d678 c33d 6b12 ea3d 5495 b1bc
000002f0: ecf8 0ebe 4668 36be 52a6 133e 780b 29bd
00000300: 2713 26be 8e98 3fbe 7c5d 1e3e 1fb2 a9b8
00000310: 5a3c 56be 1387 abbc b6c3 963c e018 31be
00000320: 9979 da3d 8e5e 4fbd 58f6 cdbc ccfe 8bbd
00000330: a3ce 5f3d e777 383e 9d17 43be 152d 6cbb
00000340: 85bd 1c3e 74d2 3abe a38e 35be bed9 0e3b
00000350: bcb5 2b3e 2c22 0f3d a146 93bc f35c dfbd
00000360: f8c4 22be e7d8 123d 91f8 dfbc eecd c2bd
00000370: a2d5 abbd 64ae 4b3e 3f44 a43d 309b fa3d
00000380: 0dda 283e 7ab1 4cbe 0749 663e c1b3 ad3d
00000390: 8608 3ebc 937a ee3d fecd 1f3e ff5f f7bb
000003a0: 86a1 4cbd e656 c2bd 23c6 6cbd 2525 2c3d
000003b0: d671 073d b9af 6f3e c035 213e 484a 223e
000003c0: e4ab 15be a86b 28bd e3e9 22be b8e7 7b3d
000003d0: 7037 383e b75e 653d dcb4 f53d 18e2 383d
000003e0: a34c 443e 9d8e 203d a67d c73c 9d3b d63d
000003f0: c111 39bd 14e0 1abe fa8f e9bd ccb3 9f3c

onnx::LSTM_103 f4 [1, 512]
-0.005697943 0.018378137 0.010674773 -0.00593366 0.002996534 0.027204694 0.027342547 0.003140242
-0.008175435 -0.015839107 0.007837803 0.006191224 -0.001843699 0.020920787 0.00779711 0.010881909
0.015218274 0.019685188 0.0024402817 -0.0084831165 0.007263105 0.004276217 -0.003461966 0.005285824
-0.0056312494 -0.0025632686 0.0044218157 0.009058653 0.025639853 -0.0012909602 0.014382515 0.014949617
0.030147357 0.014695343 0.019395873 0.008851336 -0.004315138 -0.0005616117 0.019493632 0.036942564
0.009858013 0.012159179 0.010323824 0.00235053 0.0062817377 0.007565028 0.023992311 0.0135832
0.006308129 0.007784566 -0.009773972 -0.003871789 0.0015340858 -0.0055758073 0.01600761 0.005610897
-0.01643876 0.02248999 -0.0074606035 -0.018963404 3.9092854e-05 0.020550663 0.0006888859 0.008211861
0.023718107 0.018342167 0.008631562 0.0060726893 -0.0005102889 0.032647 0.01382261 0.0045241136
-0.005111678 0.009478972 0.0049984576 0.0051179533 -0.012295425 0.017970687 0.00035886868 0.018632565
0.011685526 0.018098366 0.0053536934 0.0033085712 0.0018587221 0.0055601685 0.008853548 0.00046392492
0.017793719 0.011853566 0.01460848 -0.00830851 0.025154918 0.0052616857 -0.0034262286 0.010448264
0.012223927 0.016921505 0.02229931 0.012538794 0.0073490604 0.00654444 0.024969473 0.022106526
0.023240464 0.024045872 0.010172416 0.003487415 0.020716509 0.009275765 0.01826154 0.012073333
0.009072333 -0.0059119537 -0.0043831286 0.011707285 0.009476746 -0.009210892 0.031365983 0.01534057
0.0064689014 0.022840437 -0.010107898 0.01224162 0.015162146 0.008489614 -0.008868735 -0.0005000017
0.994502 1.0217646 1.0108784 0.9950102 0.9959238 0.9984793 0.98915535 1.0045264
0.9902135 1.0125854 1.0081999 0.9893187 1.0048661 1.0008711 0.9999755 1.0210087
0.9959228 1.0137144 0.9853305 1.0074661 1.014043 0.9933113 1.0262843 1.0036277
1.0065343 0.99064654 1.0113814 0.992932 1.0069112 0.98495966 1.009948 1.0220944
0.9986661 1.0060029 0.99929744 1.003382 0.99884003 1.0062093 1.008669 0.9974857
1.0206393 0.9917009 0.99899566 0.99538344 1.0075954 1.0104346 1.0060523 1.0029926
0.9852306 0.9956513 0.9991161 1.0002277 1.0068746 1.0046871 0.9821808 1.0112606
0.99991846 1.0024006 0.99174297 1.0242852 1.016304 1.0151551 0.9844572 1.0073506
0.010415041 0.0050294893 -0.004505972 -0.00060177787 0.006907672 0.009299125 0.0011419328 -0.0032153954
0.0010755142 -0.0065841824 -0.006468715 0.014399342 0.014748696 0.0018318022 0.0027383633 0.0020516622
0.0091324 -0.011245304 0.0017154382 -0.012200028 -0.0068242187 0.0077721654 0.005140174 0.005403502
0.00042289155 -0.004909661 -0.010089595 0.0050941794 -0.00046527706 -0.0036011753 0.011469568 -0.014384556
-0.0040821596 -0.0058920467 -0.013596906 -0.0022375386 -0.004260228 -0.0064703957 0.00023947717 0.0028174296
0.010046729 -0.0019060378 -0.007894423 -0.0013643805 -0.0012007484 0.0013902787 0.009018817 -0.010861011
-0.009824318 -0.0032754987 -0.0038639868 -0.0035032632 -0.006961684 0.008288012 -0.0010127696 0.009425039
0.017495047 0.004634714 -0.0013266981 0.009407475 -0.0038462488 0.015231673 0.0013991197 0.002157395
00000000: cfb5 babb bf8d 963c 3ee5 2e3c 266f c2bb
00000010: 8061 443b 61dc de3c 7afd df3c 85cc 4d3b
00000020: 42f2 05bc 04c1 81bc 216a 003c c0df ca3b
00000030: 46a8 f1ba 1262 ab3c e67e ff3b 094a 323c
00000040: 1156 793c d542 a13c 22ed 1f3b c5fc 0abc
00000050: 57ff ed3b 821f 8c3b 27e2 62bb b534 ad3b
00000060: 5886 b8bb 83fc 27bb e1e4 903b bf6a 143c
00000070: ab0a d23c 7035 a9ba a4a4 6b3c 3def 743c
00000080: 97f7 f63c bcc4 703c 18e4 9e3c 3205 113c
00000090: 0066 8dbb 2039 13ba 1cb1 9f3c 1651 173d
000000a0: 8183 213c 4b37 473c 4225 293c 590b 1a3b
000000b0: 09d7 cd3b 0ee4 f73b 868b c43c 128c 5e3c
000000c0: 6cb4 ce3b ac15 ff3b 0323 20bc d7bd 7dbb
000000d0: 6113 c93a 43b5 b6bb 6422 833c 9edb b73b
000000e0: 94aa 86bc ed3c b83c 1478 f4bb 2459 9bbc
000000f0: a2f7 2338 dd59 a83c 5a96 343a 0b8b 063c
00000100: 7a4c c23c 5042 963c 656b 0d3c 69fd c63b
00000110: e9c4 05ba dcb8 053d 3a78 623c 043f 943b
00000120: dd7f a7bb b14d 1b3c 1aca a33b 81b4 a73b
00000130: c072 49bc 4337 933c 8a26 bc39 52a3 983c
00000140: a674 3f3c 0643 943c 096e af3b 9dd4 583b
00000150: 5da0 f33a 1332 b63b 790e 113c f33a f339
00000160: 22c4 913c 7635 423c 6858 6f3c 6b20 08bc
00000170: b011 ce3c 386a ac3b 948a 60bb 322f 2b3c
00000180: de46 483c f89e 8a3c 0bad b63c 846f 4d3c
00000190: 63d0 f03b be72 d63b c88c cc3c bf18 b53c
000001a0: c962 be3c d9fb c43c 35aa 263c 1d8d 643b
000001b0: abb5 a93c 61f9 173c 3a99 953c 3bcf 453c
000001c0: 1fa4 143c 10b9 c1bb 59a0 8fbb eacf 3f3c
000001d0: 5b44 1b3c 48e9 16bc 9e79 003d 0457 7b3c
000001e0: 14f9 d33b de1b bb3c 999b 25bc 1391 483c
000001f0: a66a 783c 0618 0b3c 2c4e 11bc 8c12 03ba
00000200: af97 7e3f 2fc9 823f 7764 813f fdb8 7e3f
00000210: ddf4 7e3f 579c 7f3f 4939 7d3f 5294 803f
00000220: a27e 7d3f 669c 813f b20c 813f fe43 7d3f
00000230: 749f 803f 8b1c 803f 65fe 7f3f 6ab0 823f
00000240: ccf4 7e3f 65c1 813f 9f3e 7c3f a6f4 803f
00000250: 29cc 813f a649 7e3f 495d 833f df76 803f
00000260: 1ed6 803f 039b 7d3f f274 813f cb30 7e3f
00000270: 77e2 803f 5126 7c3f fa45 813f fdd3 823f
00000280: 95a8 7f3f b4c4 803f f5d1 7f3f d26e 803f
00000290: fbb3 7f3f 77cb 803f 111c 813f 395b 7f3f
000002a0: 4fa4 823f 1ce0 7d3f 2ebe 7f3f 73d1 7e3f
000002b0: e3f8 803f ec55 813f 52c6 803f 1062 803f
000002c0: 1338 7c3f 01e3 7e3f 13c6 7f3f 7607 803f
000002d0: 44e1 803f 9699 803f 3370 7b3f fd70 813f
000002e0: a8fa 7f3f aa4e 803f dee2 7d3f c71b 833f
000002f0: 4016 823f 9af0 813f 6305 7c3f ddf0 803f
00000300: d9a3 2a3c 6ace a43b d5a6 93bb a1c0 1dba
00000310: c159 e23b 5b5b 183c e8ac 953a 62b9 52bb
00000320: 45f8 8c3a 20c0 d7bb 84f7 d3bb 38eb 6b3c
00000330: 84a4 713c 1519 f03a 1d76 333b 2e75 063b
00000340: 10a0 153c 393e 38bc 8ed8 e03a a0e2 47bc
00000350: b29d dfbb a6ad fe3b e86e a83b dc0f b13b
00000360: 8bb7 dd39 39e1 a0bb d44e 25bc 13ed a63b
00000370: 6ef0 f3b9 b201 6cbb dbea 3b3c 33ad 6bbc
00000380: a3c3 85bb 1212 c1bb 8fc5 5ebc aba3 12bb
00000390: 6299 8bbb 9d05 d4bb 2a1c 7b39 a0a4 383b
000003a0: 099b 243c 04d4 f9ba 9c57 01bc 03d5 b2ba
000003b0: 6e62 9dba 033a b63a a9c3 133c 62f2 31bc
000003c0: 2df6 20bc c0a9 56bb f13a 7dbb 0197 65bb
000003d0: d71e e4bb 71ca 073c e9be 84ba 7b6b 1a3c
000003e0: c651 8f3c cdde 973b 9ae4 adba cf21 1a3c
000003f0: 5911 7cbb 448e 793c ab62 b73a 1563 0d3b
