code/selfparking/mla/results/run_09/Car/Car-10499979.onnx (onnx, 712368 bytes, 10 tensors)

network_body._body_endoder.seq_layers.0.weight f4 [256, 111]
-0.1667081 -0.071142465 -0.08547492 0.119592115 0.013520018 0.16217801 0.065408625 0.18856469
-0.32335415 0.030537521 0.16772854 0.041415982 -0.105163924 0.018690653 -0.028240755 0.063343465
-0.11877914 0.076184504 -0.036220893 0.028755562 -0.19225311 0.10380881 0.09504338 -0.10347105
-0.13516583 -0.022847524 0.0537547 0.0058023827 -0.2002627 0.020956231 -0.12176649 -0.03393788
0.17092074 0.15148865 0.056398317 -0.12175899 0.042149853 -0.053442545 -0.013724869 -0.0936218
-0.004460316 0.16917418 -0.037450213 0.10855735 -0.10085976 0.12684074 -0.024121152 -0.15833837
0.029544046 -0.09293058 -0.056467146 0.08822813 0.0861154 -0.20005216 0.109205805 -0.08504855
-0.0918572 0.080621615 -0.08683342 9.105802e-05 0.010951293 -0.009189222 0.085696064 -0.03487631
-0.10230912 -0.10977684 0.013129095 -0.047432393 -0.008591372 -0.08763709 -0.036010195 0.115765184
-0.01374082 0.020520408 -0.050209437 -0.0116221355 0.16011302 0.046793096 -0.052300513 0.04858992
-0.15365843 -0.099300675 0.082361415 0.12680602 0.08449604 0.08359737 0.045081727 -0.15112773
-0.023719607 -0.12139558 0.067362964 0.0938883 0.00477949 0.054237373 -0.17199512 -0.011996052
0.010778279 0.1468524 0.011382065 0.07527292 -0.10073935 0.044425894 -0.029564755 0.1699712
-0.27164564 0.0015479804 0.3012492 0.24825607 -0.07357354 -0.2370811 -0.051367298 -0.15338501
-0.04311447 0.036898274 -0.12866387 0.14216007 0.00035953612 0.026212534 -0.12429437 -0.21909851
0.26063728 -0.10244821 -0.122537546 0.13870814 -0.043072082 -0.060368273 0.038634002 0.13118595
-0.017039655 0.005369354 -0.12475581 0.038277376 -0.11893884 -0.09878874 0.11550211 0.14805114
0.0025649054 -0.15194039 -0.16743162 -0.29043588 -0.21486709 -0.025688438 0.017012952 -0.0030268445
-0.1326383 -0.13748232 -0.011802897 -0.20519213 0.05941034 -0.018948337 -0.002226131 -0.065475225
0.015308906 0.10129299 0.067571096 -0.015286869 0.21719472 -0.17306143 -0.036498617 -0.010634535
-0.14547488 -0.12561506 -0.11967221 0.050417867 0.042169426 -0.068002425 -0.09409332 -0.114515714
0.03491137 0.06639747 -0.093151234 -0.09720065 -0.048689403 -0.07379572 0.10977147 0.12693122
-0.044843547 0.00066175504 -0.058683075 0.04590643 0.16417919 -0.18564276 -0.18754712 0.20528527
-0.031235747 -0.036970213 -0.07635191 -0.048120156 0.061696276 -0.19302456 -0.005789333 -0.06784485
-0.17994058 -0.2587055 -0.108038165 0.10784733 -0.120157495 -0.032766666 0.009502806 -0.0210454
0.068895586 0.0034576291 -0.020654036 -0.210152 0.07835252 -0.24469048 -0.1561512 -0.05665948
-0.15240163 -0.1915113 -0.008960222 -0.016821807 -0.020420762 -0.0043331506 -0.08092228 0.041750148
-0.03656235 -0.059385758 -0.08237893 -0.06763627 -0.021145001 0.053760376 0.077216394 0.073559925
-0.104939654 -0.007889406 -0.059800174 -0.0686919 0.18620904 -0.09317214 -0.048524063 0.059451874
0.11782326 -0.017090177 0.13380425 0.053957768 0.22065237 -0.12569688 0.1315948 0.08305051
-0.096818835 -0.069876336 -0.022869766 -0.03320689 0.002654512 -0.03203836 -0.009374885 -0.15478534
0.09450391 0.12334259 0.027711624 0.26129076 0.041994356 0.17759208 0.05746604 0.006291461
00000000: 87b5 2abe 24b3 91bd 7a0d afbd b6ec f43d
00000010: 1183 5d3c fe11 263e f5f4 853d 1a17 413e
00000020: ad8e a5be d329 fa3c 08c1 2b3e cea3 293d
00000030: 2f60 d7bd 241d 993c 2859 e7bc 38ba 813d
00000040: 7a42 f3bd 9f06 9c3d 5c5c 14bd c990 eb3c
00000050: 00de 44be b799 d43d 1ba6 c23d a1e8 d3bd
00000060: e968 0abe bb2a bbbc e32d 5c3d ea21 be3b
00000070: aa11 4dbe 67ac ab3c b660 f9bd 7202 0bbd
00000080: d905 2f3e d71f 1b3e ec01 673d c75c f9bd
00000090: 53a5 2c3d 92e6 5abd 46de 60bc c9bc bfbd
000000a0: d827 92bb ff3b 2d3e 6565 19bd 5153 de3d
000000b0: 908f cebd 8ae2 013e b999 c5bc 7423 22be
000000c0: 5b06 f23c 6352 bebd 184a 67bd f3b0 b43d
000000d0: 455d b03d 79da 4cbe 4ba7 df3d ef2d aebd
000000e0: a11f bcbd f21c a53d b8d5 b1bd 67f6 be38
000000f0: 0d6d 333c 648e 16bc 6b81 af3d 76da 0ebd
00000100: 7287 d1bd aed2 e0bd 6a1b 573c 7848 42bd
00000110: d3c2 0cbc 137b b3bd 6d7f 13bd 4c16 ed3d
00000120: 2d21 61bc 6a1a a83c 69a8 4dbd c56a 3ebc
00000130: abf4 233e 1eaa 3f3d 1039 56bd 3906 473d
00000140: a358 1dbe 275e cbbd 1aad a83d 70d9 013e
00000150: 430c ad3d 1935 ab3d 9ea7 383d 3ac1 1abe
00000160: 9f4f c2bc 3f9e f8bd 98f5 893d 8248 c03d
00000170: 459d 9c3b 0228 5e3d 7d1f 30be 178b 44bc
00000180: 6197 303c 7a60 163e d77b 3a3c b028 9a3d
00000190: 6f50 cebd edf7 353d c931 f2bc ee0c 2e3e
000001a0: 2315 8bbe 9ae5 ca3a 563d 9a3e d736 7e3e
000001b0: b9ad 96bd 63c5 72be 8466 52bd f610 1dbe
000001c0: cc98 30bd a522 173d 76c0 03be 6992 113e
000001d0: 1f80 bc39 abbb d63c 0c8e febd 5c5b 60be
000001e0: 4072 853e 5ed0 d1bd f7f4 fabd 8209 0e3e
000001f0: 5a6c 30bd b944 77bd b03e 1e3d 9c55 063e
00000200: bf96 8bbc 68f1 af3b f97f ffbd bdc8 1c3d
00000210: 3596 f3bd c051 cabd 5f8c ec3d b89a 173e
00000220: f917 283b 4396 1bbe 3273 2bbe 03b4 94be
00000230: 1e06 5cbe 8f70 d2bc bf5e 8b3c 065e 46bb
00000240: 56d2 07be 2ac8 0cbe f060 41bc e31d 52be
00000250: 4258 733d 8b39 9bbc 48e4 11bb e017 86bd
00000260: 35d2 7a3c b372 cf3d b762 8a3d c775 7abc
00000270: 4b68 5e3e 0437 31be 937f 15bd 793c 2ebc
00000280: 5ef7 14be 3ca1 00be b416 f5bd f782 4e3d
00000290: d9b9 2c3d db44 8bbd 00b4 c0bd 3787 eabd
000002a0: 3aff 0e3d 66fb 873d 13c6 bebd 2211 c7bd
000002b0: 8a6e 47bd 3622 97bd ddcf e03d 42fa 013e
000002c0: dead 37bd a179 2d3a aa5d 70bd 6108 3c3d
000002d0: 971e 283e 2319 3ebe 5a0c 40be 4d36 523e
000002e0: 1ce2 ffbc 146e 17bd 645e 9cbd a419 45bd
000002f0: 3cb5 7c3d 3ba8 45be 72b4 bdbb 3ef2 8abd
00000300: 5842 38be 0c75 84be 1d43 ddbd 10df dc3d
00000310: 2215 f6bd 5736 06bd a8b1 1b3c 6767 acbc
00000320: 2119 8d3d 6499 623b a732 a9bc 1632 57be
00000330: 4977 a03d 2490 7abe 1ae6 1fbe c513 68bd
00000340: 2c0f 1cbe 8a1b 44be e5cd 12bc e3cd 89bc
00000350: 7149 a7bc 1afd 8dbb 95ba a5bd 3402 2b3d
00000360: 67c2 15bd 7b3e 73bd 49b6 a8bd e284 8abd
00000370: 4838 adbc d733 5c3d a123 9e3d 96a6 963d
00000380: 9aea d6bd 9142 01bc 07f1 74bd 57ae 8cbd
00000390: 95ad 3e3e 09d1 bebd 2bc1 46bd cf83 733d
000003a0: 524d f13d b300 8cbc fb03 093e d202 5d3d
000003b0: b2f2 613e afb6 00be cac0 063e 6316 aa3d
000003c0: f448 c6bd 531b 8fbd 6059 bbbc f303 08bd
000003d0: 52f7 2d3b a83a 03bd 1e99 19bc 0c80 1ebe
000003e0: 448b c13d 0a9b fc3d 7d03 e33c e7c7 853e
000003f0: 4602 2c3d b3da 353e 8361 6b3d 9a28 ce3b

network_body._body_endoder.seq_layers.0.bias f4 [256]
-0.00066165294 -0.03381251 0.0148939835 0.01982624 0.018989004 0.008819198 0.011636247 0.020840783
0.0704174 -0.028776538 -0.013785309 0.00621275 -0.007791731 0.06281332 -0.001427237 0.028817413
-0.06953976 0.033953395 -0.046965215 -0.026899513 0.016663918 -0.057765175 -0.036282975 -0.010284979
0.003397339 -0.043005418 -0.01685418 -0.0075795287 -0.030947369 0.01856381 0.0014494016 0.04023899
-0.04541788 -0.03541646 -0.017220573 0.041544113 0.011778168 -0.009388413 -0.017174374 -0.04669961
-0.01986659 -0.012524796 0.0333262 0.008758851 0.019046227 0.0037392022 0.052225016 -0.023996618
-0.032730047 -0.009657024 0.028799227 0.0412798 -0.009113931 0.013269353 0.002987535 -0.004978343
-0.0027234866 0.029114675 0.026172495 -0.001953497 -0.0776641 -0.013027714 0.008202986 -0.014910658
-0.0022225082 -0.011669267 0.004557849 -0.005054932 0.012669928 -0.03939347 -0.060418203 0.0010176473
-0.042924065 -0.02625729 -0.04719486 -0.009723174 0.05865046 0.02337388 -0.009290479 -0.0044873
0.0062179845 0.011424783 0.024824668 -0.008591512 -0.008725401 -0.014607474 -0.040177964 -0.027497655
-0.07799615 -0.016091159 0.031770308 -0.003058066 0.008881906 0.0061753048 0.038962033 -0.0030889532
0.03542012 -0.050967466 0.018350963 0.024369761 0.00926762 -0.039269403 0.01270493 0.0014207482
-0.034398817 0.03747287 0.05950826 -0.0049791946 0.03804224 0.06806023 0.019456703 0.004608319
-0.01520358 -0.024825804 0.045307778 -0.00979446 -0.03400784 0.0027122272 -0.0062694694 -0.049476378
-0.037138563 -0.061854422 -0.024000881 -0.018450882 -0.013376726 0.022517424 0.02644499 -0.027184725
0.049966335 0.009081813 -0.048753995 -0.018764546 -0.007262499 0.016036434 -0.027287522 -0.027100522
-0.0001228263 0.001042989 -0.050367057 0.038114015 0.015123062 -0.06767677 0.0056252046 0.02907247
-0.021415211 -0.083953306 -0.071604304 0.013713984 0.0028067045 -0.027459808 0.010248683 0.022315295
-0.003947972 0.021286383 -0.013498035 0.023328785 -0.06777585 0.0013014444 -0.019792033 -0.009891587
-0.026528511 0.0060820845 0.016315984 -0.072776854 -0.079000846 0.020161895 0.026707554 -0.041772354
0.02256628 0.001891854 0.008882911 0.02845659 0.023594461 -0.031797677 -0.03153213 0.0001505492
-0.060450304 -0.0147640705 -0.020467034 0.00418228 -0.034872502 0.0014309884 -0.00085911935 0.03659578
0.03673527 0.026176002 -0.041135237 0.03398695 -0.03933482 -0.048424292 0.021446077 0.033681914
0.044214733 -0.03856718 -0.054230265 0.014013335 0.0028547372 -0.051506646 -0.019736318 -0.06657977
0.00222653 0.0010659333 -0.030023184 0.006671719 0.027291255 0.0240239 0.038021278 -0.05697597
-0.023261292 -0.04360167 -0.021965979 0.02059111 -0.02995846 -0.039571702 0.02307247 0.010580062
-0.027100278 -0.05697366 -0.027618375 -0.028047435 0.070264824 -0.044518948 0.0111692175 -0.0123089915
-0.016982237 0.025797008 -0.04999608 0.0222293 0.03181945 0.058662564 -0.0051017087 -0.0319452
-0.022507733 0.030529981 0.04752206 -0.044560052 0.025557097 0.034505527 -0.07946264 -0.0075406116
-0.06041213 0.06696161 0.015229842 -0.0427036 -0.020378135 -0.017201718 0.03822864 -0.011184598
0.043899495 0.035211746 -0.017895808 -0.025356406 -0.007916033 -0.012858889 -0.016893009 9.5651616e-05
00000000: c772 2dba fd7e 0abd e505 743c a46a a23c
00000010: d48e 9b3c 667e 103c f5a5 3e3c 4aba aa3c
00000020: ff36 903d c6bc ebbc c7db 61bc 5394 cb3b
00000030: c751 ffbb 45a4 803d 2012 bbba 7f12 ec3c
00000040: dd6a 8ebd b712 0b3d 995e 40bd 5e5c dcbc
00000050: c582 883c 2d9b 6cbd 759d 14bd 5482 28bc
00000060: e4a5 5e3b 7326 30bd c711 8abc b25d f8bb
00000070: 5685 fdbc 2213 983c d9f9 bd3a a4d1 243d
00000080: 1908 3abd da10 11bd 2912 8dbc 292a 2a3d
00000090: 38f9 403c dcd1 19bc 46b1 8cbc 1748 3fbd
000000a0: 42bf a2bc cd34 4dbc 0e81 083d 4981 0f3c
000000b0: d506 9c3c 670d 753b e6e9 553d 8e94 c4bc
000000c0: f10f 06bd 7f38 1ebc 5bec eb3c 0215 293d
000000d0: 9952 15bc b367 593c 85ca 433b 5e21 a3bb
000000e0: 867c 32bb e681 ee3c b367 d63c 3e06 00bb
000000f0: 5b0e 9fbd 3172 55bc d165 063c d54b 74bc
00000100: 80a7 11bb 7430 3fbc 025a 953b d8a3 a5bb
00000110: 8895 4f3c 0c5b 21bd 1479 77bd 9462 853a
00000120: 25d1 2fbd 8719 d7bc 664f 41bd f34d 1fbc
00000130: 773b 703d 947a bf3c 1837 18bc 330a 93bb
00000140: 3cc0 cb3b 032f 3b3c 1a5d cb3c 6ac3 0cbc
00000150: fcf4 0ebc 3054 6fbc a691 24bd c342 e1bc
00000160: 72bc 9fbd 9bd1 83bc 9521 023d d569 48bb
00000170: 6a85 113c 365a ca3b a796 1f3d 0970 4abb
00000180: b014 113d 43c3 50bd c254 963c 18a3 c73c
00000190: 37d7 173c f4d8 20bd 5728 503c 6638 ba3a
000001a0: c6e5 0cbd 277d 193d efbe 733d 8328 a3bb
000001b0: 2ed2 1b3d 2963 8b3d aa63 9f3c 6201 973b
000001c0: 7018 79bc 7c5f cbbc a694 393d f178 20bc
000001d0: ce4b 0bbd 9fbf 313b 1f70 cdbb bea7 4abd
000001e0: 9b1e 18bd 105b 7dbd 7f9d c4bc 4e26 97bc
000001f0: 0e2a 5bbc 7676 b83c 2aa3 d83c 80b2 debc
00000200: 80a9 4c3d e2cb 143c 45b2 47bd 1bb8 99bc
00000210: 42fa edbb d75e 833c 158a dfbc ea01 debc
00000220: efca 00b9 e7b4 883a b04d 4ebd 711d 1c3d
00000230: b8c6 773c 1e9a 8abd a353 b83b 6329 ee3c
00000240: f46e afbc b6ef abbd 47a5 92bd 9eb0 603c
00000250: b0f0 373b 64f3 e0bc 18ea 273c 91ce b63c
00000260: fd5d 81bb c860 ae3c dd26 5dbc 021c bf3c
00000270: 11ce 8abd 3a95 aa3a e722 a2bc 5310 22bc
00000280: 5252 d9bc 394c c73b 19a9 853c 080c 95bd
00000290: 32cb a1bd 8f2a a53c cdc9 da3c 7d19 2bbd
000002a0: ebdc b83c 16f8 f73a a189 113c cb1d e93c
000002b0: 2c49 c13c 483e 02bd d627 01bd bedc 1d39
000002c0: bd9a 77bd 00e5 71bc 7baa a7bc 820b 893b
000002d0: 78d6 0ebd 0190 bb3a 8636 61ba 75e5 153d
000002e0: b977 163d 0e6f d63c 6c7d 28bd e635 0b3d
000002f0: 8c1d 21bd 8d58 46bd afaf af3c 0cf6 093d
00000300: 821a 353d 9ff8 1dbd 8e20 5ebd 3098 653c
00000310: 8b16 3b3b a2f8 52bd 0fae a1bc f95a 88bd
00000320: faea 113b c9b6 8b3a 2ef3 f5bc 6f9e da3b
00000330: e991 df3c c5cd c43c 33bc 1b3d a25f 69bd
00000340: 778e bebc aa97 32bd fff1 b3bc b0ae a83c
00000350: 726b f5bc f015 22bd 7a02 bd3c ff57 2d3c
00000360: 6701 debc 365d 69bd ee3f e2bc bcc3 e5bc
00000370: 01e7 8f3d 8059 36bd 18ff 363c a7ab 49bc
00000380: 551e 8bbc 3f54 d33c b1c8 4cbd 391a b63c
00000390: 1d55 023d 2848 703d 3c2c a7bb f8d8 02bd
000003a0: 2362 b8bc 031a fa3c 7ea6 423d 9a84 36bd
000003b0: 1e5d d13c ab55 0d3d 4fbd a2bd 3c17 f7bb
000003c0: b672 77bd 2b23 893d 9686 793c f8e9 2ebd
000003d0: 0cf0 a6bc 9eea 8cbc a295 1c3d 9b3f 37bc
000003e0: f5cf 333d 313a 103d 3b9a 92bc 3db8 cfbc
000003f0: 40b2 01bc 17ae 52bc 3563 8abc 9298 c838

network_body._body_endoder.seq_layers.2.weight f4 [256, 256]
-0.118287615 -0.03573341 -0.08854352 0.0040250085 0.12752812 0.024712054 -0.016156295 0.048891664
-0.04192842 -0.14301987 0.010841118 0.04421333 0.121751 0.042821098 -0.031129308 0.07379882
-0.020148138 0.0074385153 -0.018787574 0.018345332 -0.056176644 0.08288062 0.04870485 0.0007810105
-0.017511606 -0.041170247 -0.01723685 0.0081886705 0.033213623 0.072160505 -0.017177409 -0.07109139
0.091681354 0.09537622 -0.006448939 -0.07727873 -0.13709517 -0.07361403 0.017668707 0.092844166
0.043973986 -0.055918563 0.08068931 -0.15067615 -0.031716708 -0.03617301 -0.00058100803 0.05324752
0.032195088 0.065489 0.0027514908 -0.052490436 -0.037291173 0.061511364 0.017550569 -0.017134039
0.071806155 0.059775773 -0.04033632 -0.06716818 -0.054068144 0.09110948 0.12536252 0.1733197
0.070277154 -0.005462244 -0.09775533 -0.07002513 -0.0078200055 -0.038500976 -0.06258942 0.024471676
-0.032484166 -0.09261187 -0.024137247 0.008895981 -0.04159486 -0.16505401 -0.023294214 0.07960439
0.025724407 0.057487138 -0.0807187 0.041461322 0.02345866 0.00496873 -0.11831857 -0.05208268
-0.009138997 -0.03136717 -0.18198638 0.008214219 -0.0077532125 0.15921871 -0.07828029 -0.054254983
-0.09838803 0.00027567658 -0.04226722 0.039963532 -0.13382614 0.05513492 -0.043396465 0.06136148
0.018050544 0.14626953 0.050751578 -0.071388766 0.061605845 -0.02858043 0.0060068965 0.12113065
0.049646556 -0.08361734 0.08485087 0.014193483 0.005351843 0.09456784 -0.04844451 0.02357775
-0.03624944 0.04939624 0.009050457 -0.014563239 0.005233789 0.008426987 0.024262244 -0.018303862
-0.09475477 0.024359208 -0.0011481191 0.086065486 -0.053993348 0.045744542 -0.108557895 0.037861325
0.0048076524 -0.05130238 -0.018960936 0.041514803 -0.11451707 -0.018473085 -0.032518554 0.021984726
-0.08276889 0.08651863 -0.02057344 -0.17443612 -0.04661938 0.06519001 0.015668865 0.034028582
0.05147994 0.10439836 0.1078804 -0.07738941 -0.026397496 0.06819039 0.08511831 0.030251766
0.061700836 -0.021704718 0.14661379 -0.009497083 0.012985605 -0.0010487771 0.039253183 0.14115153
-0.058897007 -0.16513546 0.019221324 -0.10279365 0.0057610692 0.045183856 0.04012378 -0.09659593
0.04484485 0.044742484 0.055081718 -0.072817124 -0.05818501 0.029529605 -0.11582693 -0.052332845
0.07338491 -0.04968831 -0.018731013 0.032197967 0.013717005 0.0733226 0.06476292 -0.058420848
-0.039545882 0.07803014 0.054730173 0.14026728 -0.13847019 0.107218996 0.0072238944 0.029444491
-0.0023278443 -0.056501456 -0.025392761 -0.023535123 -0.11229149 0.08539105 -0.03473389 -0.1153881
0.08227152 -0.12691276 -0.0333202 -0.16313049 -0.08474011 0.0745367 0.015529414 0.13517788
0.050578978 -0.004775907 -0.09501966 -0.084293954 0.12733445 -0.01896564 0.12054403 0.089324825
-0.011747351 0.05854892 0.010706566 0.14632113 0.061709262 -0.039209582 0.00844824 0.106802
0.086531416 -0.030573249 0.11236925 -0.09310185 -0.10509607 0.0143362535 0.016707877 -0.011209634
0.033152305 0.021574344 -0.15751527 0.119665995 0.046916682 0.036852352 -0.018997753 0.018452952
-0.02473416 -0.12952767 -0.052708313 -0.04123081 0.01789794 0.079722345 0.0028242604 -0.041022148
00000000: c740 f2bd 325d 12bd 4e56 b5bd 38e4 833b
00000010: bb96 023e ef70 ca3c 355a 84bc a042 483d
00000020: 23bd 2bbd cd73 12be f29e 313c 0919 353d
00000030: 9758 f93d 2d65 2f3d e402 ffbc d623 973d
00000040: b50d a5bc cabe f33b 66e8 99bc f348 963c
00000050: 7b19 66bd 51bd a93d bd7e 473d babc 4c3a
00000060: 8074 8fbc 22a2 28bd 4b34 8dbc c629 063c
00000070: 020b 083d e3c8 933d a3b7 8cbc 5d98 91bd
00000080: 6fc3 bb3d 9c54 c33d 9f51 d3bb 5044 9ebd
00000090: ad62 0cbe f4c2 96bd f7bd 903c 1525 be3d
000000a0: 111e 343d dd0a 65bd 7040 a53d d94a 1abe
000000b0: 61e9 01bd 262a 14bd ca4e 18ba 121a 5a3d
000000c0: ffde 033d 191f 863d 5b52 343b 3600 57bd
000000d0: a1be 18bd 57f3 7b3d 36c6 8f3c af5c 8cbc
000000e0: 1b0f 933d 71d7 743d b237 25bd 798f 89bd
000000f0: 8f76 5dbd 9b97 ba3d 085f 003e b87a 313e
00000100: 78ed 8f3d a0fc b2bb f233 c8bd 5669 8fbd
00000110: 7b1f 00bc 33b3 1dbd e22e 80bd d378 c83c
00000120: 1e0e 05bd 4bab bdbd 7abb c5bc 73c0 113c
00000130: 5f5f 2abd eb03 29be 82d3 bebc a007 a33d
00000140: febb d23c a277 6b3d d94f a5bd 59d3 293d
00000150: 602c c03c bad0 a23b 0251 f2bd a654 55bd
00000160: bbbb 15bc dd7a 00bd a35a 3abe ee94 063c
00000170: a90e febb 3b0a 233e 6b51 a0bd 793a 5ebd
00000180: aa7f c9bd af88 9039 6420 2dbd cdb0 233d
00000190: b809 09be 27d5 613d 7ec0 31bd 2d56 7b3d
000001a0: bcde 933c aec7 153e e3e0 4f3d 4634 92bd
000001b0: 6956 7c3d 8221 eabc 80d5 c43b 5913 f83d
000001c0: 305a 4b3d 913f abbd 4bc6 ad3d c88b 683c
000001d0: 835e af3b c9ac c13d c06d 46bd 2026 c13c
000001e0: 4b7a 14bd b653 4a3d 5e48 143c a79a 6ebc
000001f0: 3480 ab3b 5811 0a3c 9dc1 c63c fbf1 95bc
00000200: ca0e c2bd f68c c73c 7c7c 96ba 1a43 b03d
00000210: 2128 5dbd a15e 3b3d 9a53 debd 7a14 1b3d
00000220: 8389 9d3b 7222 52bd f753 9bbc 6d0b 2a3d
00000230: ed87 eabd de54 97bc 2d32 05bd 5019 b43c
00000240: bc82 a9bd ae30 b13d a189 a8bc 629f 32be
00000250: f7f3 3ebd 5782 853d fe5b 803c 8e61 0b3d
00000260: a1dc 523d cfce d53d 66f0 dc3d 577e 9ebd
00000270: 903f d8bc 67a7 8b3d 8252 ae3d 8dd2 f73c
00000280: 04ba 7c3d 18ce b1bc ed21 163e a799 1bbc
00000290: 93c1 543c 1f77 89ba f2c7 203d 078a 103e
000002a0: fd3d 71bd 4519 29be 0a76 9d3c 7a85 d2bd
000002b0: 5ac7 bc3b b512 393d d558 243d 16d4 c5bd
000002c0: 3caf 373d e543 373d 5e9d 613d 2521 95bd
000002d0: 6853 6ebd 12e8 f13c ab36 edbd f75a 56bd
000002e0: d44a 963d f885 4bbd c871 99bc 04e2 033d
000002f0: 4abd 603c 292a 963d 6ca2 843d b34a 6fbd
00000300: ddfa 21bd 44ce 9f3d bf2c 603d 3aa2 0f3e
00000310: 21cb 0dbe a295 db3d 6bb6 ec3b 9335 f13c
00000320: bf8e 18bb 126e 67bd 7b04 d0bc bbcc c0bc
00000330: 15f9 e5bd 81e1 ae3d 2045 0ebd 9950 ecbd
00000340: f87d a83d 6bf5 01be c37a 08bd ae0b 27be
00000350: 398c adbd b3a6 983d 156f 7e3c 126c 0a3e
00000360: e72b 4f3d 367f 9cbb ab99 c2bd 4fa2 acbd
00000370: f663 023e d45d 9bbc cadf f63d efef b63d
00000380: f677 40bc fed0 6f3d 986a 2f3c 35d5 153e
00000390: dac2 7c3d 3a9a 20bd 7d6a 0a3c 02bb da3d
000003a0: 6237 b13d c074 fabc d921 e63d 2fac bebd
000003b0: 9c3c d7bd 9be2 6a3c f5de 883c 9da8 37bc
000003c0: b6ca 073d aebc b03c af4b 21be 7213 f53d
000003d0: b52b 403d 7ef2 163d 2da1 9bbc a52a 973c
000003e0: 4b9f cabc e7a2 04be ace4 57bd a3e1 28bd
000003f0: b39e 923c 7845 a33d 3a17 393b d706 28bd

network_body._body_endoder.seq_layers.2.bias f4 [256]
-0.00036314648 0.034925714 -0.018413423 0.00589094 -0.029769987 0.00611349 -0.005744595 0.0033960359
0.038248245 0.02556447 0.009593925 -0.00842926 -0.0009895947 -0.006286437 0.0053704926 0.00033099254
0.030971909 -0.020030618 -0.01155961 0.008067662 -0.0163223 -0.006432011 0.018877935 0.008228705
0.0037760953 -0.0007780466 0.012514187 -0.025040612 0.009412664 0.0032302549 -0.0011133044 0.0290622
0.025743328 -0.011266406 -0.013352748 0.0017989574 0.022282798 0.036916748 -0.03666288 0.0034129284
0.036781438 0.0012761957 0.002355699 -0.01952848 0.022848465 0.008595569 -0.011783489 0.000304173
-0.016592696 0.01818045 -0.008957204 0.013074503 -0.008330405 0.023086194 0.024192203 0.021034125
-0.036342893 -0.007445121 0.033986874 0.028425965 0.015995633 0.006481792 0.010789024 -0.0049101426
0.0031318923 0.020624176 -0.0025503258 0.015476268 0.009529636 -0.006988743 0.01029147 -0.017687077
0.016432937 -0.014919606 0.005855271 -0.009217771 0.008246972 0.0052257585 0.0070583196 -0.017924758
-0.0071450216 0.0018806835 0.0039255247 -0.011583522 -0.006460083 -0.00346009 0.002088132 0.032768697
-0.031379443 0.044990104 -0.058040965 0.003171447 0.026365966 0.029408213 0.015288286 0.010935774
0.025989624 0.025236791 0.007027305 -0.014062757 0.02408828 0.013994663 0.03630539 -0.017008888
0.00834625 -0.0022478634 0.0018884665 0.0011540747 0.0020440214 -0.0052791345 -0.007910826 -0.022821669
-0.018889755 -0.03917415 -0.0003030036 0.01854791 -0.007853236 0.0049439287 -0.0009710286 0.0048233923
-0.016092023 -0.011905573 0.0074652038 0.05020618 -0.010487591 -0.020032326 -0.010656255 -0.018694678
-0.010162166 0.014707481 0.0042480524 -0.023910942 0.008208604 0.006643039 -0.010889753 0.0016378709
0.017042205 -0.0073407614 0.0011795971 0.011490809 0.028820358 -0.0029887555 -0.0006294673 -0.0018088333
-0.012438016 -0.012028123 0.005111575 -0.011401809 0.00037194078 -0.019578345 -0.02261169 0.001190529
-0.0020384092 -0.0007860701 0.003890648 -0.014815486 0.005631984 0.0009384292 -0.0072539803 -0.024152365
0.0027990069 0.0070619606 -0.02777717 0.017782016 0.008040858 0.005850856 -0.0013672228 0.0074398606
0.012340492 -0.0037464902 0.008204694 -0.0042689485 0.028443063 -0.007414565 -3.1907563e-05 -0.0046787076
0.0051045567 -0.0029275946 -0.008463516 0.006493896 0.019008154 0.017116224 0.014417158 0.0341903
-0.010875593 0.037727997 -0.004912798 0.025033839 0.06220083 0.020517819 0.0010794109 -0.00058654335
0.008134503 -0.010039057 -0.002151556 0.0051144036 0.003359115 0.0016784304 -0.028682103 0.0055612433
-0.0023108511 -0.009885227 -0.011755863 0.043220565 0.015402712 -0.0038636716 0.019366916 -0.005218898
0.011066946 -5.982947e-06 -0.015620455 -3.268611e-05 -0.01572096 0.01839675 0.0040787365 0.007200348
-0.033448838 0.030589884 0.0025184066 0.021277871 0.0030633588 -0.007542217 -0.020286903 -0.001801137
0.003641794 -0.0015370619 0.011537756 0.016573178 -0.011366082 0.0013311382 -0.0019132751 0.033109017
-0.011357038 0.0390587 0.0065818783 -0.009830206 0.0028308474 -0.013141254 -0.0036656677 -0.0309265
-0.02135812 0.0022514076 -0.019834777 0.024463475 0.02058145 -0.023650652 -0.013213422 0.03219977
0.004847372 -0.024669284 -0.007595484 -0.0014640142 0.008156655 -0.006373639 -0.008841187 0.002962671
00000000: b264 beb9 440e 0f3d bfd7 96bc c908 c13b
00000010: 30e0 f3bc ac53 c83b 283d bcbb 0790 5e3b
00000020: 31aa 1c3d 946c d13c d72f 1d3c e11a 0abc
00000030: 4ab5 81ba 75fe cdbb f5fa af3b 1189 ad39
00000040: cdb8 fd3c 4017 a4bc 8564 3dbc 3a2e 043c
00000050: 58b6 85bc 9ec3 d2bb e6a5 9a3c b1d1 063c
00000060: 5e78 773b d3f5 4bba 4e08 4d3c f821 cdbc
00000070: 9337 1a3c afb2 533b 4cec 91ba da13 ee3c
00000080: ace3 d23c bb96 38bc 7cc5 5abc feca eb3a
00000090: 6a8a b63c 0436 173d d12b 16bd 70ab 5f3b
000000a0: 22a8 163d 0646 a73a 1262 1a3b 31fa 9fbc
000000b0: b42c bb3c 6ed4 0c3c 890f 41bc 6979 9f39
000000c0: 68ed 87bc 2bef 943c 3dc1 12bc 7136 563c
000000d0: 407c 08bc 421f bd3c ba2e c63c c24f ac3c
000000e0: 49dc 14bd 34f6 f3bb d235 0b3d 92dd e83c
000000f0: 4609 833c 3665 d43b 72c4 303c 43e5 a0bb
00000100: 6f40 4d3b 08f4 a83c 5e23 27bb 2c90 7d3c
00000110: 3122 1c3c d301 e5bb 8e9d 283c 7de4 90bc
00000120: 5e9e 863c 5d71 74bc 93dd bf3b 2206 17bc
00000130: 4f1e 073c d73c ab3b 7a49 e73b f1d6 92bc
00000140: c920 eabb 4481 f63a b0a1 803b d0c8 3dbc
00000150: 1baf d3bb adc2 62bb 0bd9 083b 7838 063d
00000160: bb87 00bd 8b47 383d 5dbc 6dbd 0dd8 4f3b
00000170: 70fd d73c 7ee9 f03c b87b 7a3c f62b 333c
00000180: 31e8 d43c 63bd ce3c 4f45 e63b 7a67 66bc
00000190: c954 c53c df49 653c f6b4 143d 3956 8bbc
000001a0: b6be 083c e450 13bb 6c86 f73a 5244 973a
000001b0: fdf4 053b 97fc acbb 699c 01bc 82f4 babc
000001c0: b0be 9abc 1375 20bd 74dc 9eb9 c9f1 973c
000001d0: dcaa 00bc ae00 a23b a08c 7eba 8c0d 9e3b
000001e0: 6bd3 83bc 980f 43bc ab9e f43b ffa4 4d3d
000001f0: 25d4 2bbc d51a a4bc 9397 2ebc 9525 99bc
00000200: 377f 26bc a5f7 703c 3f33 8b3b e1e0 c3bc
00000210: 617d 063c daad d93b ef6a 32bc d4ad d63a
00000220: 189c 8b3c c58a f0bb b69c 9a3a f243 3c3c
00000230: ac18 ec3c ffde 43bb d602 25ba 6016 edba
00000240: d2c8 4bbc 9b11 45bc 007f a73b a7ce 3abc
00000250: 0c01 c339 c462 a0bc 273c b9bc 860b 9c3a
00000260: d596 05bb 4510 4eba 3efa 7e3b a7bc 72bc
00000270: 828c b83b eb00 763a ccb2 edbb 2edb c5bc
00000280: 8b6f 373b 0568 e73b f38c e3bc 97ab 913c
00000290: cebd 033c 8ab8 bf3b 6234 b3ba 13ca f33b
000002a0: c62f 4a3c ad87 75bb fb6c 063c 89e2 8bbb
000002b0: 6d01 e93c e1f5 f2bb 7cd4 05b8 d84f 99bb
000002c0: 2044 a73b e3dc 3fbb 8faa 0abc bfca d43b
000002d0: fdb6 9b3c 5337 8c3c f235 6c3c 210b 0c3d
000002e0: 8b2f 32bc ac88 1a3d 89fb a0bb c413 cd3c
000002f0: 4cc6 7e3d fc14 a83c 057b 8d3a 42c2 19ba
00000300: 9446 053c db7a 24bc 1f01 0dbb ba96 a73b
00000310: 9924 5c3b c7fe db3a bbf6 eabc 173b b63b
00000320: a671 17bb a6f5 21bc aa9b 40bc 0c08 313d
00000330: a85b 7c3c a735 7dbb 5ea7 9e3c 4a03 abbb
00000340: 2352 353c 20c1 c8b6 f0ec 7fbc 7218 09b8
00000350: 3ec9 80bc c8b4 963c eca6 853b e6f0 eb3b
00000360: a601 09bd a397 fa3c da0b 253b ee4e ae3c
00000370: a2c2 483b b424 f7bb b830 a6bc 2114 ecba
00000380: 2aab 6e3b 3d77 c9ba db08 3d3c 79c4 873c
00000390: ce38 3abc 9679 ae3a dcc6 faba 529d 073d
000003a0: df12 3abc 04fc 1f3d ccac d73b df0e 21bc
000003b0: bd85 393b 6a4e 57bc b33b 70bb 9259 fdbc
000003c0: 39f7 aebc 5a8c 133b 8b7c a2bc a067 c83c
000003d0: 6e9a a83c 03bf c1bc 1c7d 58bc e8e3 033d
000003e0: b4d6 9e3b 3d17 cabc 8ae3 f8bb 2ae4 bfba
000003f0: 7ea3 053c f6d9 d0bb a0da 10bc 5f29 423b

action_model._continuous_distribution.log_sigma f4 [1, 2]
-0.09917996 0.22221805
00000000: dd1e cbbd 218d 633e

action_model._continuous_distribution.mu.weight f4 [2, 64]
-0.01703525 -0.13632344 -0.034528054 -0.13244122 -0.17623383 -0.21126918 -0.15373684 -0.08361228
0.13444163 0.16404177 0.050544795 0.009094362 -0.17462234 0.067714244 0.0135871805 0.13181414
-0.2091577 -0.21290748 0.13372515 -0.08007327 0.23667106 -0.1563454 -0.124686204 0.048501056
0.15750174 0.022371762 -0.14836174 0.10793643 0.0279122 -0.1896609 0.0008250936 0.07163543
0.12341307 -0.12824835 0.09529039 0.021641554 -0.07196535 -0.20168565 0.034563486 0.15312359
0.013538251 0.13634734 -0.19457555 0.17900874 0.119877145 0.22305883 0.24168903 -0.25926086
-0.034655172 0.12811139 -0.09010175 0.029314889 -0.005146928 0.025065443 -0.018999603 -0.08629992
-0.22523028 -0.069580376 0.19547778 -0.10742445 0.025214791 -0.0704006 0.11094292 0.010963469
0.10429451 0.070809476 0.14542027 -0.011469906 0.06921092 0.050870385 0.09630942 0.20947406
-0.052263696 0.06076394 0.14629629 0.2048471 -0.02931604 -0.38536197 -0.199443 -0.06981644
0.20385306 -0.017717686 -0.25515115 0.2436533 -0.24819694 0.007466995 0.29445723 -0.0725827
0.029506342 -0.106431656 0.2506102 0.0018521313 -0.017131332 0.17339796 -0.034502022 0.106752366
-0.035913393 0.25603047 0.114692464 0.11566696 0.2164171 0.015901795 0.015926462 0.0026991568
0.22774735 -0.063371986 0.0060175797 -0.011566824 -0.24025221 -0.0054690866 -0.18602426 -0.016519746
0.055823125 0.06695808 0.10587288 0.2195986 0.22310542 0.16729951 0.12880404 -0.113067515
-0.10221037 0.13246445 -0.17107087 0.1731461 0.031867664 0.009577533 0.0023218966 -0.21669717
00000000: 828d 8bbc 5f98 0bbe 4a6d 0dbd ac9e 07be
00000010: a476 34be f356 58be 316d 1dbe ea3c abbd
00000020: 11ab 093e 91fa 273e 0f08 4f3d 8500 153c
00000030: 33d0 32be c4ad 8a3d c49c 5e3c 49fa 063e
00000040: 702d 56be 6b04 5abe 3fef 083e 74fd a3bd
00000050: e659 723e 0219 20be 7b5b ffbd 0ba9 463d
00000060: 2348 213e fc44 b73c 24ec 17be c60d dd3d
00000070: 20a8 e43c 7836 42be 184b 583a 99b5 923d
00000080: febf fc3d 8953 03be 9c27 c33d a149 b13c
00000090: 9262 93bd af86 4ebe 7192 0d3d 6ecc 1c3e
000000a0: 8acf 5d3c a39e 0b3e d03e 47be 114e 373e
000000b0: 2682 f53d 8969 643e 547d 773e d7bd 84be
000000c0: 95f2 0dbd a22f 033e 4487 b8bd c725 f03c
000000d0: 90a7 a8bb 0b56 cd3c 0ea5 9bbc 03be b0bd
000000e0: c4a2 66be 2880 8ebd 542b 483e 5a01 dcbd
000000f0: 408f ce3c 312e 90bd 0b36 e33d 1fa0 333c
00000100: 5c98 d53d 8f04 913d 0de9 143e 46ec 3bbc
00000110: 74be 8d3d 775d 503d e03d c53d 5e80 563e
00000120: 7512 56bd 9ce3 783d b2ce 153e 70c3 513e
00000130: 3128 f0bc 2a4e c5be c93a 4cbe ecfb 8ebd
00000140: dbbe 503e ae24 91bc 2ca3 82be 4080 793e
00000150: 5727 7ebe b2ad f43b 19c3 963e 3da6 94bd
00000160: 49b7 f13c d7f8 d9bd fb4f 803e 37c3 f23a
00000170: 0257 8cbc 3c8f 313e fe51 0dbd fca0 da3d
00000180: ec19 13bd 6d16 833e e2e3 ea3d cde2 ec3d
00000190: 729c 5d3e 7b44 823c 3678 823c 56e4 303b
000001a0: 9a36 693e 2cc9 81bd 1e2f c53b c782 3dbc
000001b0: ad04 76be 0636 b3bb 257d 3ebe 6b54 87bc
000001c0: caa6 643d 5121 893d e1d3 d83d 75de 603e
000001d0: bf75 643e 9050 2b3e 35e5 033e f18f e7bd
000001e0: ac53 d1bd c3a4 073e 342d 2fbe 364d 313e
000001f0: ab87 023d 16eb 1c3c f62a 183b dde5 5dbe

action_model._continuous_distribution.mu.bias f4 [2]
0.030367984 -0.03576559
00000000: 47c6 f83c f07e 12bd

onnx::LSTM_101 f4 [1, 256, 256]
0.058507305 -0.0094175115 0.0052957917 0.0722598 -0.13488579 -0.113865845 -0.15345117 -0.003798032
-0.023354618 0.033281554 -0.059467085 0.10237572 0.16326131 0.11362326 -0.061040927 -0.07753452
0.019780274 -0.04354708 0.025675962 -0.08328661 0.024202581 0.088355005 -0.13869998 0.11931575
0.00040751902 0.10845953 0.012447122 0.08707593 0.1339602 0.0659112 -0.044826202 -0.10283993
0.11473452 -0.09866027 0.09746739 0.0641052 -0.13409737 0.007607561 -0.053521 -0.056127116
-0.093677156 0.092526816 -0.092573754 -0.093000315 -0.091130674 0.12487264 0.057792574 -0.020170761
0.14072217 0.053659774 0.064545475 0.090215996 0.12217637 -0.11972329 -0.018070132 -0.043811284
0.067573376 0.057915807 -0.11541881 0.09864557 -0.105247185 -0.0042084726 0.12192019 -0.019510627
0.038124982 -0.06287559 0.13937332 0.03577465 -0.12178876 0.09169831 -0.00026338117 0.026948016
0.010043217 -0.05593639 -0.054443065 -0.061416116 0.0055416655 0.016597733 -0.05045435 -0.11734276
0.12399762 -0.08349096 -0.01848519 -0.029349634 0.1662796 -0.14018543 0.16055268 0.0016065215
-0.073423944 0.0197129 -0.08609268 0.06731997 -0.059081953 0.10218167 0.009838903 -0.13544436
0.04721351 0.15952073 -0.020011272 -0.08948978 -0.08021491 0.10277324 -0.11208142 0.011272376
0.09536814 0.0067960517 -0.05030132 0.056091923 0.12186984 -0.037881948 0.09727003 0.03327924
-0.1000186 -0.006231712 -0.10729292 -0.08388942 -0.10810504 0.15574078 0.062150285 0.047333572
-0.041451704 0.07266106 -0.022896789 -0.0015712716 0.05323264 -0.049158502 0.010952311 -0.08230951
-0.005407496 -0.09783074 -0.08908972 -0.09482931 0.08027005 -0.07504785 -0.045565233 -0.13348825
-0.018093286 -0.02781434 -0.083753124 -0.1227128 0.09255484 0.064565524 0.19242549 0.04469079
-0.103132635 -0.108548306 0.051371552 -0.08434093 -0.044068694 0.04082591 -0.12862854 -0.11761205
0.046538714 -0.055871923 0.08511304 0.04087317 -0.013855579 -0.10084612 0.062243186 -0.0923569
-0.05807145 0.08137972 0.019550065 -0.12987892 0.020929934 0.0155139025 -0.0066684466 -0.16431893
0.027065776 -0.03915925 -0.073485486 0.004084044 -0.14333777 -0.044179704 0.077112146 -0.030061219
0.05964654 -0.07844652 -0.14017522 -0.034527898 0.13481937 0.06227343 0.05119849 -0.100232214
0.07080274 0.16948473 -0.14429912 0.15564053 0.13936037 -0.032775756 0.00739518 0.05602354
-0.15554214 0.06917651 0.052722584 0.09144028 0.107003845 -0.078877665 0.15567718 0.090680405
0.0792436 -0.10965356 -0.09674788 0.09819052 0.11669412 0.110742636 0.008648647 -0.06196444
-0.04543307 0.048699863 -0.11445077 0.073616914 0.14232267 -0.07650112 0.14362858 0.17331757
0.061906278 -0.13346735 -0.01839893 0.09983116 0.10034116 -0.0073646624 -0.07660205 0.095884055
-0.088576324 -0.0352178 0.08788099 0.023952473 0.047121204 0.07984803 0.070488155 0.101443574
-0.05588451 0.05026107 0.061641116 0.119812 0.08724712 -0.016270764 0.124064505 0.044188097
0.003812261 0.044924308 -0.033757165 -0.028245484 0.07874203 -0.0124020735 -0.062222037 -0.062215377
0.024854777 0.101920284 0.026318595 -0.017566308 0.083345875 -0.15090933 -0.017915009 0.11023338
00000000: 5ba5 6f3d e84b 1abc 5288 ad3b f2fc 933d
00000010: 801f 0abe 7f32 e9bd 4e22 1dbe 67e8 78bb
00000020: 2f52 bfbc 3d52 083d c293 73bd 5daa d13d
00000030: f92d 273e 50b3 e83d 0d06 7abd 6bca 9ebd
00000040: 3e0a a23c 6c5e 32bd 6556 d23c 2c92 aabd
00000050: 7e44 c63c 78f3 b43d 5e07 0ebe d15b f43d
00000060: 47a8 d539 0820 de3d 03ef 4b3c dd54 b23d
00000070: dd2c 093e 74fc 863d ae9b 37bd be9d d2bd
00000080: eff9 ea3d 650e cabd fc9c c73d 9649 833d
00000090: d250 09be d948 f93b d638 5bbd 8ce5 65bd
000000a0: cfd9 bfbd b37e bd3d 4f97 bdbd f376 bebd
000000b0: b8a2 babd 3abd ff3d e8b7 6c3d 273d a5bc
000000c0: 7919 103e 5aca 5b3d 6b30 843d 2ac3 b83d
000000d0: 9b37 fa3d 7c31 f5bd d007 94bc 7673 33bd
000000e0: e963 8a3d 2039 6d3d b260 ecbd b006 ca3d
000000f0: d68b d7bd 3ae7 89bb 4bb1 f93d c0d4 9fbc
00000100: f128 1c3d ebc4 80bd e1b7 0e3e 7088 123d
00000110: 636c f9bd 53cc bb3d 6c16 8ab9 16c2 dc3c
00000120: 4e8c 243c 8e1d 65bd b1ff 5ebd 778f 7bbd
00000130: dc96 b53b f8f7 873c 38a9 4ebd 6751 f0bd
00000140: 77f2 fd3d 4ffd aabd 416e 97bc a56e f0bc
00000150: 3345 2a3e c58c 0fbe ec67 243e eb91 d23a
00000160: 4b5f 96bd f37c a13c 5c51 b0bd 0ddf 893d
00000170: ebff 71bd a044 d13d 5a33 213c edb1 0abe
00000180: f462 413d 6759 233e aeee a3bc 6b46 b7bd
00000190: b747 a4bd c77a d23d f28a e5bd c6af 383c
000001a0: 5f50 c33d 6ab1 de3b c208 4ebd a5c0 653d
000001b0: e596 f93d 1a2a 1bbd 8235 c73d d04f 083d
000001c0: 8dd6 ccbd 6433 ccbb 64bc dbbd 37ce abbd
000001d0: 2d66 ddbd 837a 1f3e 4c91 7e3d d9e0 413d
000001e0: 43c9 29bd 52cf 943d 0c92 bbbc 20f3 cdba
000001f0: 780a 5a3d 6d5a 49bd 5271 333c e391 a8bd
00000200: 5d31 b1bb 7c5b c8bd ac74 b6bd df35 c2bd
00000210: a064 a43d b0b2 99bd 9ca2 3abd 25b1 08be
00000220: 5f38 94bc e6da e3bc c286 abbd d950 fbbd
00000230: 648d bd3d ee3a 843d 300b 453e b10d 373d
00000240: 3437 d3bd 934e debd fa6a 523d f0ba acbd
00000250: 6081 34bd 1239 273d 33b7 03be 96de f0bd
00000260: 619f 3e3d f5d9 64bd bf4f ae3d a06a 273d
00000270: 8302 63bc 6988 cebd b6f2 7e3d 9d25 bdbd
00000280: 54dc 6dbd 69aa a63d 7527 a03c fbfe 04be
00000290: 4175 ab3c 062e 7e3c fc82 dabb 3943 28be
000002a0: 0cb9 dd3c 7365 20bd 8f7f 96bd 72d3 853b
000002b0: 23c7 12be c7f5 34bd f9ec 9d3d f242 f6bc
000002c0: ee4f 743d 92a8 a0bd 188a 0fbe 206d 0dbd
000002d0: 170e 0a3e 6d12 7f3d 82b5 513d 8c46 cdbd
000002e0: 0701 913d 688d 2d3e 26c3 13be 3b60 1f3e
000002f0: 7cb4 0e3e df3f 06bd 4453 f23b f178 653d
00000300: 7046 1fbe 6aac 8d3d a3f3 573d 0b45 bb3d
00000310: d524 db3d 9d8a a1bd d769 1f3e a6b6 b93d
00000320: 784a a23d 0c92 e0bd c123 c6bd 1d18 c93d
00000330: 54fd ee3d 09cd e23d 0eb3 0d3c 6dce 7dbd
00000340: 0718 3abd 8279 473d 2a65 eabd 77c4 963d
00000350: 09bd 113e 9fac 9cbd 5f13 133e 297a 313e
00000360: 7091 7d3d aaab 08be 5ab9 96bc 4774 cc3d
00000370: ab7f cd3d 4453 f1bb 89e1 9cbd dc5e c43d
00000380: 8167 b5bd 8a40 10bd f3fa b33d fa37 c43c
00000390: 2a02 413d 5d87 a33d 185c 903d a6c1 cf3d
000003a0: 28e7 64bd 8dde 4d3d 657b 7c3d fe5f f53d
000003b0: 9eae b23d 444a 85bc 8815 fe3d 94fe 343d
000003c0: 20d7 793b 8d02 383d f444 0abd 1363 e7bc
000003d0: 8043 a13d 1132 4bbc 89dc 7ebd 8dd5 7ebd
000003e0: 3f9c cb3c 95bb d03d 189a d73c 38e7 8fbc
000003f0: 3eb1 aa3d fa87 1abe 7fc2 92bc 0ac2 e13d

onnx::LSTM_102 f4 [1, 256, 64]
0.19295983 -0.14925587 -0.058210045 0.17315897 0.09381293 -0.09299304 0.026748767 0.049397066
-0.03179665 0.075756036 -0.1246363 0.013558401 -0.006732928 -0.15829319 0.1117993 -0.091945305
-0.25401908 -0.04530787 -0.10717214 0.07746644 -0.055329826 0.17753169 0.13994454 -0.074005745
0.06976655 -0.0018511738 -0.0654053 -0.06985623 0.13644587 0.17333417 0.21049419 -0.18646894
0.1244932 -0.051300753 -0.1137901 -0.16772653 -0.25283596 -0.07974052 0.04544785 -0.15290074
-0.17418669 -0.19902681 0.16001213 0.038973995 0.002412454 -0.02147533 -0.055913545 0.04867035
-0.058891118 -0.073098436 0.128325 0.07188989 -0.07811294 -0.02628158 0.035821125 0.112308696
0.1881753 0.06991421 0.08838603 0.11027711 -0.012087084 -0.0641119 -0.088950895 0.095462315
-0.008060996 0.21291697 -0.08943985 0.20228073 0.10814313 0.09896674 -0.017970422 0.08825537
-0.0733078 0.0098642185 -0.031593263 -0.1162998 0.2479757 0.09290096 0.08944546 -0.061064724
-0.19556297 0.19253626 0.046817053 -0.18944475 0.0662813 0.10351473 -0.19044575 -0.15060243
-0.06305231 -0.05450588 -0.13328926 0.070559174 -0.12195544 -0.07046482 -0.16940175 -0.2571111
0.08377366 0.06256247 -0.046932455 0.19510321 0.0010092225 0.048515916 -0.12625337 -0.25208285
-0.15494 -0.12498954 0.0015514639 -0.0290438 0.0077881278 -0.25434253 0.024688937 0.23166877
-0.19984955 -0.2964635 -0.20580877 0.21896759 -0.14094177 0.0694485 0.08084621 -0.03919084
0.10172203 0.0814259 -0.10708196 -0.038073327 0.13192345 -0.23121272 -0.22944734 -0.05620398
-0.16464832 -0.23603651 -0.090126455 -0.024898324 -0.103704326 -0.016080387 -0.009530317 0.04092224
-0.13840531 -0.25247878 -0.1558133 -0.10111087 -0.12649468 0.044296082 -0.17225154 0.09213354
0.17966722 -0.043231286 -0.024166185 0.10124296 0.2045273 -0.1790382 0.07434872 -0.14319009
0.19374786 -0.03907413 0.012809839 0.15044905 -0.057070445 -0.077608556 0.052806344 -0.15197758
-0.18280706 0.07341511 -0.21157728 0.13797791 0.21421449 -0.087649815 -0.010413107 -0.20792896
-0.1345864 -0.08415913 0.105877824 0.034287486 -0.20818219 0.16327882 0.18439914 0.18202287
0.09125401 -0.049942516 -0.09566701 -0.13997601 -0.030694803 -0.17526981 0.032525543 -0.05294286
0.10613225 0.14006197 0.04934771 0.036022495 -0.01721705 0.1271084 0.13512866 -0.1874812
0.17844993 -0.059731055 0.16158383 -0.15307821 -0.1617195 -0.04293739 0.14060898 0.08579324
-0.041186046 0.0017079713 0.14796883 0.07966208 -0.23719443 0.15652283 -0.10564629 0.21659456
0.18059313 -0.0655433 -0.09584386 0.22417709 -0.121331 0.00921888 0.14530072 -0.039194252
0.14140359 0.014924569 -0.14213073 -0.20306636 -0.14556178 -0.174512 -0.03938912 0.067304365
0.20855449 0.01556632 0.12414474 0.040731754 -0.09648747 7.698869e-06 0.07583735 0.09434508
-0.17850535 -0.07863602 -0.18173088 0.13227776 -0.15319078 -0.0775388 -0.018384509 -0.026351683
0.15622935 -0.16383858 0.09048034 0.13376065 0.16112265 -0.10775373 9.872375e-05 -0.21209204
0.088269636 -0.10046537 -0.13912873 0.0741278 0.035678647 0.100170456 -0.13707788 0.1697606
00000000: 4397 453e 88d6 18be a86d 6ebd 9650 313e
00000010: fe20 c03d 2373 bebd 3b20 db3c 9454 4a3d
00000020: 343d 02bd fb25 9b3d 5141 ffbd 0e24 5e3c
00000030: e59f dcbb 9c17 22be 08f7 e43d d24d bcbd
00000040: ca0e 82be bf94 39bd 117d dbbd baa6 9e3d
00000050: 87a1 62bd deca 353e 9f4d 0f3e 5390 97bd
00000060: c4e1 8e3d 16a3 f2ba 37f3 85bd c810 8fbd
00000070: 77b8 0b3e 837e 313e ca8b 573e b7f1 3ebe
00000080: 4af6 fe3d bd20 52bd c90a e9bd 81c0 2bbe
00000090: b773 81be ff4e a3bd 8627 3a3d 0392 1cbe
000000a0: ff5d 32be afcd 4bbe 38da 233e 32a3 1f3d
000000b0: 431a 1e3b 08ed afbc 9a05 65bd 905a 473d
000000c0: d037 71bd a2b4 95bd a167 033e 023b 933d
000000d0: adf9 9fbd 784c d7bc 2cb9 123d 1a02 e63d
000000e0: 07b1 403e 2e2f 8f3d bc03 b53d f7d8 e13d
000000f0: e808 46bc 1a4d 83bd e32b b6bd bf81 c33d
00000100: 4512 04bc e806 5a3e 3d2c b7bd ae22 4f3e
00000110: 257a dd3d 13af ca3d b536 93bc 3bbf b43d
00000120: 6622 96bd 889d 213c f067 01bd 972e eebd
00000130: 58ed 7d3e dc42 be3d 2e2f b73d 011f 7abd
00000140: a941 48be 3a28 453e 3dc3 3f3d cefd 41be
00000150: 7dbe 873d 88ff d33d 3604 43be 8637 1abe
00000160: 9221 81bd 8f41 5fbd fb7c 08be 5481 903d
00000170: c6c3 f9bd dc4f 90bd a777 2dbe 11a4 83be
00000180: 8691 ab3d c120 803d 3f3c 40bd 23c9 473e
00000190: e347 843a a0b8 463d 9048 01be 0111 81be
000001a0: 97a8 1ebe 84fa ffbd 7d5a cb3a 43ed edbc
000001b0: 8d33 ff3b 2f39 82be 7440 ca3c 943a 6d3e
000001c0: 5ca5 4cbe 10ca 97be 89bf 52be 0a39 603e
000001d0: 0a53 10be 043b 8e3d b392 a53d 9386 20bd
000001e0: a453 d03d 9fc2 a63d c94d dbbd c7f2 1bbd
000001f0: f116 073e 07c3 6cbe 3ef4 6abe 2536 66bd
00000200: 9299 28be 8eb3 71be 3894 b8bd 92f7 cbbc
00000210: ef62 d4bd 04bb 83bc 0c25 1cbc 149e 273d
00000220: 1fba 0dbe e644 81be 868d 1fbe 3713 cfbd
00000230: d287 01be cf6f 353d b562 30be 82b0 bc3d
00000240: affa 373e 4a13 31bd 2af8 c5bc 7858 cf3d
00000250: 9b6f 513e ca55 37be 2444 983d 6ca0 12be
00000260: d765 463e 320c 20bd 5ce0 513c 510f 1a3e
00000270: b3c2 69bd 3cf1 9ebd 774b 583d 03a0 1bbe
00000280: c631 3bbe a95a 963d b7a7 58be 154a 0d3e
00000290: 0b5b 5b3e bf81 b3bd bd9b 2abc 54eb 54be
000002a0: 04d1 09be 9f5b acbd 79d6 d83d 0971 0c3d
000002b0: b62d 55be 9032 273e 21d3 3c3e 3464 3a3e
000002c0: 62e3 ba3d 8690 4cbd 11ed c3bd df55 0fbe
000002d0: ab73 fbbc ee79 33be 8139 053d 9dda 58bd
000002e0: dd5b d93d 686c 0f3e d320 4a3d 538c 133d
000002f0: c50a 8dbc b428 023e 2b5f 0a3e 12fb 3fbe
00000300: 94bb 363e 8da8 74bd 3b76 253e 89c0 1cbe
00000310: cc99 25be 1edf 2fbd cdfb 0f3e 5eb4 af3d
00000320: b3b2 28bd 02de df3a 2485 173e df25 a33d
00000330: 19e3 72be 8547 203e 155d d8bd f7ca 5d3e
00000340: 68ed 383e 913b 86bd c949 c4bd ae8e 653e
00000350: 637c f8bd c90a 173c b6c9 143e 278a 20bd
00000360: 1acc 103e 2e86 743c b88a 11be a1f0 4fbe
00000370: 260e 15be 46b3 32be 7c56 21bd dfd6 893d
00000380: 4f8f 553e e109 7f3c 993f fe3d 57d6 263d
00000390: 399b c5bd 642a 0137 9d50 9b3d fe37 c13d
000003a0: 1bca 36be ec0b a1bd a917 3abe d273 073e
000003b0: 0bde 1cbe aacc 9ebd 1c9b 96bc 7cdf d7bc
000003c0: 96fa 1f3e 4dc5 27be c24d b93d 8df8 083e
000003d0: 56fd 243e fdad dcbd e909 cf38 a82e 59be
000003e0: b6c6 b43d cac0 cdbd c377 0ebe 51d0 973d
000003f0: c623 123d 2b26 cd3d 255e 0cbe b9d5 2d3e

onnx::LSTM_103 f4 [1, 512]
-0.013827059 -0.03297725 -0.021286407 0.05260929 0.026523907 -0.024583112 0.014565389 0.039099246
0.04902897 0.04702771 0.004832689 0.0014825731 0.034132753 0.02198004 0.018482586 -0.0005386542
-0.030488327 -0.03221302 -0.020856867 0.007971489 0.06590916 -0.009924674 0.008933854 0.011090339
0.011567407 0.018132146 0.02316783 0.015807545 0.003567786 -0.018268099 -0.0015053148 -0.0076354323
0.030298492 0.03518829 0.056261048 -0.0089114625 0.024286857 0.0162739 0.0001459085 0.01815046
0.008147669 -0.035402007 -0.000361937 -0.029494526 0.02341275 -0.020726789 0.013118796 -0.04144821
-0.0024724617 0.04667048 0.03620067 0.021791985 0.018970214 0.021607611 0.013238157 0.010863264
-0.005773551 0.051999196 0.049798712 0.00626543 0.026885742 0.020923028 0.025076162 0.052871343
0.015189258 -0.009920489 -0.015484104 0.008763895 0.028354628 0.06223014 0.011389781 0.031255342
0.01617741 0.026696527 0.029551301 -0.01717802 0.014467749 0.023140082 -0.0061090454 0.0012377944
0.01183825 -5.9388185e-08 0.04992442 0.031743616 0.004838765 0.06107063 0.017654913 -0.021324046
0.024207821 0.037899002 0.034153886 0.0037075514 0.00041745295 -0.009251396 0.0066589788 0.045825977
0.0023303085 0.031314775 -0.038558554 -0.0124242455 0.004037194 -0.005633975 -0.013459583 -0.016207421
0.03519494 0.029835103 0.022567807 -0.017147731 0.05759733 0.04527895 -0.004616668 0.006893335
0.041536726 0.06134888 0.014949128 0.045985498 0.038828198 -0.020157909 0.020645924 0.024036193
0.007552704 -0.0193098 0.076506525 0.0035360998 0.035936505 -0.009373016 -0.008243864 0.0032672011
0.9906336 1.0308249 1.0439805 1.0099053 1.0034902 1.0092436 1.0213646 1.0288134
0.9689414 0.99054605 1.0262969 1.0131309 1.0213699 1.0301313 1.0578686 0.9999329
0.9738967 1.0026324 0.96638227 0.9708026 1.0386819 0.9906983 1.0583148 1.0361699
1.0218762 1.0069824 0.9612998 0.9996939 1.0079385 1.0384727 1.0211152 0.9715479
1.0323564 0.98168564 1.021486 1.0303211 1.0083358 1.0093105 1.0288628 1.021243
0.95871884 1.0020889 1.0202961 1.0133208 0.96555734 0.9719735 1.0067463 1.0293132
1.0516547 1.0209811 1.0223521 1.0019114 0.9608397 0.9893926 0.9518869 0.9697788
1.0065397 0.9637813 0.95703936 1.0151963 0.9952669 0.9899939 1.0305896 0.99741197
0.02026068 -0.024538243 0.0073584677 -0.01022759 0.01903403 0.004173187 0.02118419 -0.028865244
-0.021103345 -0.022281045 0.005992535 0.032831416 0.007665513 0.00097500696 0.006165009 -0.006737564
-0.012325013 0.023099279 -0.015660798 -0.011289518 -0.018307723 -0.0039774044 -0.004968531 0.0033907613
-0.008128046 -0.008696755 -0.045505885 -0.046536878 0.0076357187 -0.02271364 -0.019903928 -0.0036277354
0.025673935 0.0061158957 0.012444872 -0.009102626 0.040660065 -0.01654629 -0.015081307 0.010608616
-0.019800063 -0.005162337 0.02506491 0.013032408 0.012431306 -0.008688781 0.00990391 0.0014133933
-0.017844759 0.010063289 0.018514222 -0.013725045 0.008535255 0.04542276 -0.017472759 -0.00893563
-0.012772595 0.007945256 -0.0007736399 -0.0038803555 0.0057707676 0.023565149 -0.01542367 -0.016834754
00000000: e48a 62bc 2713 07bd d560 aebc d77c 573d
00000010: aa48 d93c 8662 c9bc aba3 6e3c 8826 203d
00000020: 9ad2 483d 21a0 403d 895b 9e3b e652 c23a
00000030: c9ce 0b3d 7c0f b43c cb68 973c 7934 0dba
00000040: a8c2 f9bc cdf1 03bd 05dc aabc d99a 023c
00000050: 62fb 863d 1a9b 22bc 4d5f 123c 41b4 353c
00000060: 3985 3d3c de89 943c 76ca bd3c d37e 813c
00000070: 84d1 693b fba6 95bc fc4d c5ba a632 fabb
00000080: 8b34 f83c 9921 103d fc71 663d 6201 12bc
00000090: 3bf5 c63c d850 853c 04ff 1839 46b0 943c
000000a0: cd7d 053c b201 11bd 5dc2 bdb9 819e f1bc
000000b0: 18cc bf3c 3acb a9bc 38f0 563c 99c5 29bd
000000c0: 0609 22bb 8c29 3f3d 2747 143d 1b85 b23c
000000d0: 6c67 9b3c 7202 b13c dbe4 583c d5fb 313c
000000e0: 0e30 bdbb 1cfd 543d bcf9 4b3d 3c4e cd3b
000000f0: 7d3f dc3c c566 ab3c 866c cd3c 9f8f 583d
00000100: 5edc 783c 8c89 22bc 0ab1 7dbc 7196 0f3c
00000110: f747 e83c 08e5 7e3d 349c 3a3c 9a05 003d
00000120: 7d86 843c adb2 da3c 9215 f23c ebb8 8cbc
00000130: 230a 6d3c 4590 bd3c 632e c8bb 7d3d a23a
00000140: 38f5 413c 0012 7fb3 8c7d 4c3d 9805 023d
00000150: 818e 9e3b 3225 7a3d 09a1 903c c4af aebc
00000160: 7b4f c63c fc3b 1b3d f2e4 0b3d 64fa 723b
00000170: 96dd da39 2b93 17bc 9033 da3b 05b4 3b3d
00000180: 17b8 183b ec43 003d 93ef 1dbd 108f 4bbc
00000190: 704a 843b 359d b8bb 9585 5cbc 6dc5 84bc
000001a0: 9228 103d bf68 f43c 1fe0 b83c 6679 8cbc
000001b0: 2eeb 6b3d 6c76 393d 6b47 97bb 7ce1 e13b
000001c0: 6a22 2a3d f748 7b3d 30ed 743c 4a5b 3c3d
000001d0: 510a 1f3d 3322 a5bc a421 a93c 8de7 c43c
000001e0: ac7c f73b 962f 9ebc 74af 9c3d e9bd 673b
000001f0: 2832 133d 4791 19bc 4611 07bc 8a1e 563b
00000200: 2a9a 7d3f 12f2 833f 27a1 853f 9444 813f
00000210: 5e72 803f e52e 813f 13bc 823f 28b0 833f
00000220: 8b0c 783f 6d94 7d3f b25d 833f 46ae 813f
00000230: 40bc 823f 58db 833f 3d68 873f 9afb 7f3f
00000240: 4b51 793f 4256 803f d464 773f 8586 783f
00000250: 87f3 843f 679e 7d3f dc76 873f 37a1 843f
00000260: d7cc 823f cde4 803f be17 763f f0eb 7f3f
00000270: 2104 813f acec 843f e7b3 823f 5db7 783f
00000280: 4124 843f c04f 7b3f 0ec0 823f 90e1 833f
00000290: 2611 813f 1631 813f c7b1 833f 17b8 823f
000002a0: 996e 753f 7344 803f 1099 823f 7fb4 813f
000002b0: c42e 773f 41d3 783f 10dd 803f 89c0 833f
000002c0: 9f9c 863f 82af 823f 6fdc 823f a23e 803f
000002d0: 97f9 753f d548 7d3f dcae 733f 6c43 783f
000002e0: 4bd6 803f 5fba 763f 8800 753f f4f1 813f
000002f0: d0c9 7e3f 3d70 7d3f 5cea 833f 6456 7f3f
00000300: baf9 a53c 6d04 c9bc 4d1f f13b 9f91 27bc
00000310: 41ed 9b3c 3bbf 883b 778a ad3c ce76 ecbc
00000320: ece0 acbc bd86 b6bc 075d c43b 3c7a 063d
00000330: fc2e fb3b 9c97 7f3a d803 ca3b c9c6 dcbb
00000340: daee 49bc b33a bd3c 134b 80bc acf7 38bc
00000350: 14fa 95bc e354 82bb 0fcf a2bb 8937 5e3b
00000360: 7f2b 05bc d67c 0ebc 6164 3abd 749d 3ebd
00000370: 0d35 fa3b f511 babc 900d a3bc 4dbf 6dbb
00000380: 2552 d23c da67 c83b 94e5 4b3c 2e23 15bc
00000390: 2b8b 263d 168c 87bc 9617 77bc c3cf 2d3c
000003a0: be33 a2bc d228 a9bb ed54 cd3c e285 553c
000003b0: adac 4b3c 645b 0ebc 0244 223c 9c41 b93a
000003c0: 2c2f 92bc 7ee0 243c 23ab 973c 03df 60bc
000003d0: 74d7 0b3c 370d 3a3d 0823 8fbc c066 12bc
000003e0: 2544 51bc d22c 023c 18ce 4aba 904d 7ebb
000003f0: b518 bd3b b30b c13c 90b3 7cbc 0ae9 89bc
