code/selfparking/mla/results/run_09/Car/Car-9499976.onnx (onnx, 712368 bytes, 10 tensors)

network_body._body_endoder.seq_layers.0.weight f4 [256, 111]
00000000: cc78 06be 24b3 91bd 8ffc babd e628 f33d
00000010: 00f1 593c fe11 263e 9d33 843d 4e6e 3f3e
00000020: da8e 95be d329 fa3c 67ea 2a3e 2b1b 273d
00000030: 396d dabd df2f bb3c 363b edbc 5f5d 7d3d
00000040: 5315 e3bd 9f06 9c3d 120a 1bbd ca63 e13c
00000050: ed18 38be 4cdc d73d 6e25 b33d 52c7 c8bd
00000060: 4095 07be bb2a bbbc 9887 613d a5d8 a13b
00000070: dc1d 49be 0ce4 b53c 576e 03be 2f0f 06bd
00000080: 070f 443e 9605 283e 432c 4d3d 79f1 fbbd
00000090: efbb b33c 1c49 4abd 1897 38b9 54e2 babd
000000a0: d827 92bb 6224 2d3e 30f4 0cbd 2370 db3d
000000b0: db5b e3bd 41c7 063e 1a96 a4bc 5397 1ebe
000000c0: 5b06 f23c 0c52 b5bd 96ca 7dbd 19c7 aa3d
000000d0: 804c a03d 8c64 5abe 5fd1 063e 3ef1 a3bd
000000e0: 3a80 a6bd bc3a a13d 718b babd 2b10 6aba
000000f0: f18d 143c 5897 52bc 5638 be3d bccf e8bc
00000100: 5f1f cebd 139d e4bd ecdb 2b3c fb70 3dbd
00000110: b667 00bc 4ec0 b1bd 2304 32bd 9dba f33d
00000120: 9a80 1cbb 8e68 c43c cbbb 86bd 461b 58bc
00000130: abf4 233e 9adf 2f3d 9096 4fbd 0c54 453d
00000140: a358 1dbe 275e cbbd 9b6c ae3d fc47 013e
00000150: 430c ad3d e5cd 483d fc43 473d 59b6 18be
00000160: 0947 aabc 3f9e f8bd 18e3 8c3d 6ffa bd3d
00000170: 459d 9c3b ae3f 573d 76f4 32be 0fe9 82bc
00000180: 0879 2b3c e4f4 143e 85d8 383c 1bfa 983d
00000190: 0a7f cfbd cd9a 333d fccf 21bd ec81 323e
000001a0: 4979 87be 9273 633b b807 9a3e 86b6 7b3e
000001b0: 0393 98bd 2a41 73be a1a3 51bd bff9 0fbe
000001c0: cc98 30bd 2862 1c3d 83a8 ffbd 0e7f 0e3e
000001d0: 1f80 bc39 9115 ff3c 9347 f7bd b0f2 54be
000001e0: 4072 853e 3faa cbbd 1390 f3bd 5d88 0a3e
000001f0: f852 febc 2dee 5dbd 4845 2d3d 7399 0a3e
00000200: bf96 8bbc b120 2c3c c523 f8bd a246 563d
00000210: 9787 e3bd 40cc d2bd fc23 e63d 82e9 133e
00000220: f917 283b c94d 13be 7bdf 26be a4e1 8cbe
00000230: 38c0 55be b9cf d5bc dbda eb3c e378 4bbc
00000240: 891f 02be b5d0 03be 2035 b5bb 2d91 2dbe
00000250: afc5 543d 8358 0abd 355b 6f3b e017 86bd
00000260: 637b ff3c 3229 c33d f593 853d 8390 13bc
00000270: 0f32 593e 6dde 29be 24b8 f9bc 793c 2ebc
00000280: 7659 08be 9f3c 04be bb5f ecbd b145 5d3d
00000290: 42c0 d63c 1ef1 4fbd 3141 b1bd d98b 00be
000002a0: d88d 333d f56c 6d3d 55d4 cebd 8cc6 c0bd
000002b0: 73a6 25bd 2c10 a7bd 948d ca3d 56b6 033e
000002c0: e53a 08bd faff 81bc b350 8cbd f9b2 643d
000002d0: e0bd 2b3e 4066 3dbe 72b3 3fbe 35e0 5e3e
000002e0: 54b4 83bc bad4 45bd 89eb a4bd a419 45bd
000002f0: 6687 923d 892c 3ebe d974 80b9 3ef2 8abd
00000300: 5842 38be f380 7fbe 6f9f d1bd 10df dc3d
00000310: 415f f1bd 618f e0bc 8253 753c f2c7 d7bc
00000320: 2119 8d3d 069f 4e3c 88a9 78bc 1632 57be
00000330: 6a76 823d 575f 73be 2f8e 19be c829 5dbd
00000340: f548 17be d4e4 3ebe ef04 9ebb d0cf 4fbc
00000350: 9263 85bc e6fc ad3b bcfc 9ebd e0b5 2b3d
00000360: 4849 09bd 4c66 71bd fc51 92bd 05ca 92bd
00000370: debe b0bc 2a4a 6d3d a70a b73d 96a6 963d
00000380: f855 f0bd 41c6 81bc 3108 3cbd 57ae 8cbd
00000390: a5cb 303e 1351 d1bd 2b39 5cbd cf83 733d
000003a0: d94e e43d 3a57 c0bc c039 173e 91db 273d
000003b0: c462 503e 382c 0abe 61a9 fe3d 6316 aa3d
000003c0: 033a d5bd d4a5 9cbd 2638 bbbc 0b0f 51bd
000003d0: dc0b dcba c7ad e6bc a303 12bc 0c80 1ebe
000003e0: cbe5 ac3d bafa ed3d 6428 ee3a eb6d 7b3e
000003f0: be03 373d 78ad 283e 2ac8 a53d 5f08 3cbc
-0.13132018 -0.071142465 -0.09130203 0.11873035 0.013302088 0.16217801 0.06455157 0.18694422
-0.2921055 0.030537521 0.1669098 0.040797394 -0.10665364 0.022849975 -0.028958898 0.061856624
-0.11088052 0.076184504 -0.0378514 0.027513403 -0.17978258 0.10540065 0.087473735 -0.09803642
-0.13240528 -0.022847524 0.055060953 0.004939156 -0.19640297 0.022203468 -0.1283506 -0.032729324
0.19146357 0.16408381 0.05009104 -0.12301917 0.0219402 -0.04938613 -0.00017603894 -0.091252
-0.004460316 0.1690841 -0.034412563 0.10714748 -0.111015044 0.13161947 -0.020091105 -0.15487413
0.029544046 -0.0885354 -0.06196078 0.08338756 0.07827091 -0.21327418 0.13165806 -0.08004998
-0.08129926 0.07872531 -0.091086276 -0.0008928801 0.009067045 -0.012853466 0.09288089 -0.028419368
-0.10064577 -0.11162772 0.010489445 -0.046250325 -0.007837227 -0.08679257 -0.043460976 0.11900828
-0.0023880363 0.023975637 -0.065787874 -0.013190096 0.16011302 0.042937852 -0.050680697 0.048175856
-0.15365843 -0.099300675 0.085168086 0.12625116 0.08449604 0.04902448 0.04864882 -0.1491331
-0.020785825 -0.12139558 0.06879252 0.09276282 0.00477949 0.052550964 -0.17476067 -0.015980272
0.010465868 0.14546543 0.011282091 0.07469579 -0.10131653 0.0438488 -0.03950499 0.17432374
-0.2645972 0.0034706336 0.30084014 0.24581346 -0.07449915 -0.23755327 -0.05118144 -0.14060114
-0.04311447 0.038179547 -0.12483313 0.13915655 0.00035953612 0.031138213 -0.120741986 -0.20795703
0.26063728 -0.09944581 -0.11892714 0.13528581 -0.031045422 -0.05418222 0.0423024 0.13535099
-0.017039655 0.010505841 -0.121161975 0.052313454 -0.11109846 -0.10292864 0.11237332 0.14444545
0.0025649054 -0.14385141 -0.16296189 -0.275159 -0.20874107 -0.026100026 0.028790882 -0.012418958
-0.12707342 -0.12872584 -0.0055300146 -0.16949911 0.05194634 -0.033775818 0.003652287 -0.065475225
0.031186765 0.09529342 0.06522361 -0.009006622 0.21210502 -0.16588755 -0.030483313 -0.010634535
-0.13315377 -0.1291375 -0.11541697 0.05402154 0.026214723 -0.050767057 -0.086550124 -0.12553348
0.043836445 0.057965238 -0.10099093 -0.0941287 -0.04044194 -0.081573814 0.09890285 0.12862524
-0.03325929 -0.01586913 -0.0685133 0.055834744 0.1677165 -0.18496037 -0.18720797 0.21765216
-0.016077198 -0.048298575 -0.08052737 -0.048120156 0.071547315 -0.18571676 -0.0002450112 -0.06784485
-0.17994058 -0.24951534 -0.10235488 0.10784733 -0.11785746 -0.027412118 0.014973523 -0.026340459
0.068895586 0.012611156 -0.015177138 -0.210152 0.06370242 -0.23766838 -0.14995645 -0.053994924
-0.14773925 -0.18641979 -0.0048223655 -0.012683824 -0.01628283 0.005309689 -0.07763049 0.041921496
-0.033517152 -0.05893545 -0.071445435 -0.071674384 -0.021575388 0.057932056 0.08937579 0.073559925
-0.11735147 -0.015841605 -0.04590625 -0.0686919 0.17265184 -0.10220542 -0.053765457 0.059451874
0.111478515 -0.023479093 0.14768124 0.04098088 0.20350176 -0.1349343 0.1243465 0.08305051
-0.104114555 -0.07648817 -0.022853922 -0.051039737 -0.0016788202 -0.028159035 -0.008912 -0.15478534
0.08442267 0.11620088 0.0018169996 0.24553649 0.044681303 0.16472423 0.08094819 -0.011476605

network_body._body_endoder.seq_layers.0.bias f4 [256]
00000000: be5e a2ba d917 f3bc 5a8b fa3b 5297 823c
00000010: 8b08 843c af2d dc3b 8d2e 353c ade4 493c
00000020: c8ef 723d a6f6 e7bc 17a4 39bc 92f9 593b
00000030: 2270 98bb a9ff 593d 10a7 84bb e591 c63c
00000040: dec0 88bd 3259 ff3c ca35 3abd e7f4 cabc
00000050: bf3d a33c 82df 52bd 2ea6 21bd 5a54 2ebc
00000060: 3ac0 b53b f3f5 27bd 3012 a9bc 41a5 abbb
00000070: 6aad e4bc 34db 043c d344 033b 01a7 1f3d
00000080: 97b1 24bd a724 05bd 59cb 6dbc 0470 1d3d
00000090: 35fb e23b 974d 34bc 7042 70bc 74ee 28bd
000000a0: 5d12 b7bc 7516 77bc 618a ce3c 3dab 1f3c
000000b0: 0542 833c 3413 873a beb9 453d 8ab6 dcbc
000000c0: e243 ebbc 2509 22bc d9bd bd3c fff5 153d
000000d0: 84f6 81bb 0a2b 753c af76 04bc 44ef 95bb
000000e0: 946f d2ba 70f9 b33c ab69 ec3c 1ecf bbba
000000f0: 4f7e 97bd f2c9 3bbc 1f89 123c 233f 51bc
00000100: 6ced 18bc 257f 02bc ab23 573b e6b9 efbb
00000110: b1e9 293c 8b00 16bd 7f5c 70bd f89d 1f3a
00000120: 1951 2dbd 33e8 d6bc f0d7 31bd 427b 0bbc
00000130: e5f6 5c3d f647 943c dffb 09bc eea6 43bb
00000140: 00ec 6d3b 4397 3f3c b829 b83c 80ec 21bc
00000150: 4e62 bdbb 87a7 8abc 6adf 1bbd f0b7 cabc
00000160: 8e86 8fbd 792a 84bc 2f93 f33c 93e9 72bb
00000170: 7ef3 bc3b 92a8 153c 01b0 193d 6e36 8abb
00000180: f317 f53c 3ec3 52bd 3a20 6f3c dfb8 ca3c
00000190: 6ff0 443c e662 21bd 3f7f 733c 5f33 783a
000001a0: c677 0abd c920 f93c 9b9f 693d d1a6 81bb
000001b0: 1bcb 803c c5dd 693d 0020 543c 754f 6a3b
000001c0: 1d91 b7bc 8ddd bdbc 4c2e 193d 97c7 28bc
000001d0: b223 f9bc dcf3 e13a 1963 f3bb cd10 4fbd
000001e0: dd99 11bd 678f 77bd 0b4c d9bc 9131 4bbc
000001f0: cc15 37bc 5439 c13c d293 cd3c 6b47 bfbc
00000200: 840e 403d 1f51 f63b f9dd 36bd 57c0 85bc
00000210: 236f aebb 0e0d 363c d296 d1bc 3115 debc
00000220: 4551 2dbb 3d9b fb3a 8541 58bd 0709 023d
00000230: 5a77 3b3c d2a4 80bd 8197 863b 7500 d93c
00000240: 6bca 8dbc bae0 9dbd 91dd 92bd ca30 723c
00000250: 7991 533b 3980 cfbc 55aa 313c 2097 8b3c
00000260: 84ad cabb a7aa 8f3c fcc2 1dbc ddda a43c
00000270: 84e3 73bd dc94 773b 4c6c 87bc 39c6 0abc
00000280: e29f bbbc 3d82 fd3b 89c6 853c f266 85bd
00000290: d3f1 98bd 023b 7d3c 5951 bb3c 827f 35bd
000002a0: f1bb 9f3c e3f0 bb3a f95d 413c adb3 f23c
000002b0: 91f0 cb3c b3f8 02bd 04d4 00bd 1f97 8b3a
000002c0: 8f06 57bd 4775 48bc 9bf8 9fbc e8c8 fd3a
000002d0: 1281 07bd d009 0b3b 7970 3cbb 2de5 143d
000002e0: 5db5 083d 050a 8d3c 28ee 16bd 2529 063d
000002f0: 89a0 19bd e360 36bd 492a af3c b2bb 0a3d
00000300: 4ecf 243d 49b5 12bd 5058 4fbd b208 633c
00000310: d6f3 273b f55d 5bbd 5f53 b1bc 99c7 81bd
00000320: 81a9 20bb e605 2c3b cc71 e8bc f250 aa3b
00000330: 1efc c23c d2ff b13c 8281 033d ca9f 47bd
00000340: dbf5 c8bc c9e5 20bd 7d59 89bc 76ad ac3c
00000350: 81b1 d4bc 8fae 0fbd 63c0 9f3c 40fe 2b3c
00000360: 126c b8bc 0abf 53bd f549 bbbc 0cfa ecbc
00000370: ff00 833d f191 2fbd 980e 763c 2f74 0bbc
00000380: 8be9 5bbc d448 dd3c 210f 4ebd e9b4 b03c
00000390: 24c1 ee3c f1c2 5b3d 1f64 4cbb f3ac edbc
000003a0: 5200 afbc 9214 fa3c 8007 2a3d 6180 32bd
000003b0: 66f6 b83c 87b4 f93c 7cec 89bd 838b a4bb
000003c0: 1a37 71bd 0413 773d 0893 403c c272 1ebd
000003d0: a0c0 96bc 1c94 74bc 58f4 bb3c 83eb 48bc
000003e0: 0868 ff3c 8221 093d 659d 7ebc 6862 b0bc
000003f0: 5815 cbbb 6917 25bc cc67 56bc 2a68 6bbb
-0.0012387855 -0.029674457 0.0076460065 0.015941296 0.016117355 0.006719313 0.011058462 0.012322587
0.059310704 -0.028315853 -0.011330626 0.0033260328 -0.004652039 0.053222332 -0.0040482357 0.02423949
-0.066774115 0.031170461 -0.045461453 -0.024774982 0.019926904 -0.051482685 -0.039465122 -0.010640228
0.005546597 -0.04100604 -0.020638555 -0.0052382057 -0.027914722 0.008108903 0.0020030036 0.038977627
-0.040208425 -0.032505658 -0.014513814 0.038436905 0.006926919 -0.011004827 -0.014664277 -0.04124303
-0.022347623 -0.015081038 0.025212469 0.009745416 0.016022692 0.0010305406 0.04827284 -0.02694251
-0.028718892 -0.009889876 0.023161815 0.036611553 -0.0039661545 0.014963875 -0.008084937 -0.004575642
-0.0016054981 0.021969527 0.02885898 -0.0014328694 -0.07397138 -0.011461722 0.008943825 -0.012771401
-0.00933395 -0.007964884 0.0032827656 -0.007315862 0.010370658 -0.03662161 -0.05868196 0.0006088908
-0.04231367 -0.026233768 -0.043418825 -0.008513274 0.053946394 0.01810072 -0.008421867 -0.0029854137
0.0036303997 0.011693778 0.02248083 -0.009883046 -0.005779541 -0.016925586 -0.03805486 -0.024745911
-0.07008086 -0.016133534 0.029733269 -0.003706549 0.005766331 0.009134429 0.037521366 -0.0042179143
0.029918646 -0.05145573 0.014595086 0.024746357 0.012020214 -0.039400958 0.014861881 0.0009468104
-0.03380563 0.030411141 0.057036977 -0.0039566536 0.015721848 0.05709626 0.0129470825 0.0035752926
-0.022408063 -0.023176933 0.037397668 -0.010301492 -0.030412529 0.0017238813 -0.007427585 -0.05055313
-0.035547126 -0.060439494 -0.026525518 -0.012401954 -0.01117463 0.023586906 0.0250949 -0.023349484
0.046888843 0.0075169946 -0.044645283 -0.016327066 -0.005323307 0.011111511 -0.025584612 -0.027109714
-0.0026446145 0.0019196045 -0.05279686 0.03174689 0.01144203 -0.06281437 0.004107416 0.026489476
-0.017308434 -0.07708879 -0.07171167 0.01478214 0.0032282753 -0.025329696 0.010843833 0.017039835
-0.0061852355 0.017537428 -0.009629007 0.020123893 -0.059543148 0.0037777936 -0.016531132 -0.0084701115
-0.022903387 0.007736473 0.01633002 -0.06513776 -0.07467999 0.015455963 0.022865938 -0.044311054
0.019498797 0.0014338758 0.01180219 0.029626692 0.024894984 -0.03197546 -0.031452194 0.0010649896
-0.05249649 -0.012234992 -0.019527724 0.0019362243 -0.033082075 0.0021215566 -0.0028753562 0.03635137
0.033376087 0.017216692 -0.036848217 0.032754082 -0.037506614 -0.044525992 0.021382468 0.033870406
0.040236764 -0.03581742 -0.05062133 0.013857054 0.0025627515 -0.0535564 -0.0216462 -0.06336898
-0.0024515095 0.0026248633 -0.028374575 0.0051976377 0.02380186 0.02172843 0.03210593 -0.04873637
-0.024531296 -0.03928164 -0.016766304 0.021078806 -0.025963547 -0.03507858 0.019500917 0.01049763
-0.02251247 -0.05169586 -0.022862414 -0.028927825 0.06396674 -0.04286379 0.015018128 -0.008511587
-0.01342238 0.027012266 -0.050307397 0.02157064 0.029144831 0.053652707 -0.0031187607 -0.029013133
-0.021362457 0.030527387 0.04151106 -0.043579463 0.02257843 0.03048159 -0.06734559 -0.005021514
-0.05889044 0.06032087 0.011753805 -0.03868366 -0.018402398 -0.01492789 0.02294366 -0.012263182
0.031177536 0.03347922 -0.0155404555 -0.021531299 -0.0061976127 -0.010076382 -0.013086271 -0.003592024

network_body._body_endoder.seq_layers.2.weight f4 [256, 256]
00000000: 76f6 f8bd 9ac2 26bd 3358 c0bd 84da 123b
00000010: 5f6a 003e 2e58 bb3c 8865 cdbc 05b5 2c3d
00000020: 394f 2cbd 33ad 13be 43fd 1e3c 8be5 1b3d
00000030: f493 f73d 0dae 043d cc9d e7bc c0cd 903d
00000040: 97a2 b3bc b9e0 9bb9 c65d a3bc 0656 4d3c
00000050: 50ba 3ebd 2966 a03d 854b 433d 0717 0d3c
00000060: a32d 4ebc 2462 32bd 2f8e 9fbc 825d 193c
00000070: 4fef ff3c 271b 7d3d e432 bbbc 1f38 81bd
00000080: 09dd b03d 72e6 b83d b906 32bc 519f 98bd
00000090: 7db5 06be ef04 9bbd 5c32 093c c7a2 b43d
000000a0: a1cc 2b3d b702 5ebd 488b 923d e664 13be
000000b0: a490 26bd d35b 27bd add5 afbb 3439 4b3d
000000c0: 1072 f73c 897d 6f3d 4a88 1d3b 8aa3 57bd
000000d0: 65e3 2ebd 969a 883d 9dbd 8f3c aedf b0bc
000000e0: adcf a33d 651d 4e3d 1eb5 11bd d818 59bd
000000f0: 6c14 65bd ed13 d13d cd47 f83d c500 2b3e
00000100: d6f8 9f3d 6524 b5bb ec6d d3bd 515f 97bd
00000110: f50a 82bc ffed 33bd 4545 89bd 8148 863c
00000120: 07fc 10bd 8a85 bebd ac9c 9fbc f871 cb3b
00000130: 7d0b 4cbd 6a6d 30be 3ef8 f7bc aa95 aa3d
00000140: 5249 963c a1e5 573d 8935 62bd 47c7 f73c
00000150: fa36 bc3c 137e 7bbb b705 01be cba7 69bd
00000160: 632b 49bc d60f d6bc aa45 3bbe 7bc5 a13b
00000170: 1f19 47ba ed88 283e 23f6 9ebd 5e58 42bd
00000180: 80a9 ccbd 0d63 83bb 5bb0 4bbd fd9f 063d
00000190: 39bc 05be eb9d 813d b760 4bbd c1e8 843d
000001a0: 7c42 6e3c 0b78 0b3e a045 653d 9cf5 9abd
000001b0: 4c54 7d3d 87bc e9bc e684 b7ba d566 f53d
000001c0: 1753 493d dc40 aabd f222 9a3d f325 713c
000001d0: 89ca fe39 02b3 b43d db39 68bd 2db9 863c
000001e0: 417e 2abd 21b2 403d 5eb5 443c 1e6c 9cbc
000001f0: d04d 9d3c 996f d13b dadd 903c 9724 adbc
00000200: ecbc d1bd 0ce0 f23c b6c8 a3bb e68f a93d
00000210: 4311 5fbd 35f7 2b3d 437d e1bd 16ea fb3c
00000220: 5820 5a3b ac4e 66bd 649e 98bc 6e33 063d
00000230: a290 f1bd 213e bbbc 94d9 15bd b4cc 633c
00000240: c187 b3bd 7196 af3d 68b4 c1bc 6fca 34be
00000250: d43c 42bd 80fd 7b3d fe42 0c3c 207f f23c
00000260: 6ecd 453d 5c44 c73d c774 d93d 5ffe a5bd
00000270: d3d3 e6bc 2482 993d 0603 ab3d 8181 dc3c
00000280: 6066 7a3d 6ce7 adbc 7db3 123e 23cf 81bc
00000290: 8b2a 0c3c 9825 50bc 785e 1b3d 50f4 0a3e
000002a0: 9b75 84bd 874d 2bbe 5f3c 6e3c 95d8 d4bd
000002b0: 954a 853b 66a1 3b3d a137 1e3d 7d44 cfbd
000002c0: 2bf3 243d 9d43 2a3d 38d5 6c3d 1334 95bd
000002d0: eacb 72bd 4ac5 0a3d 0871 f4bd 59df 32bd
000002e0: 3e19 8c3d 7aa6 62bd 3961 d7bc b936 b83c
000002f0: 0cff 443c 747b 933d e41f 603d b55e 77bd
00000300: f184 4fbd cbe9 9a3d 06b6 5d3d 117c 0c3e
00000310: 9368 f9bd 6e4e d43d f134 cf3b 4ecb dd3c
00000320: 2989 27bc b447 7bbd f132 debc af93 edbc
00000330: 5e09 e7bd cfa2 aa3d 2dce 2dbd 7aec efbd
00000340: 6722 a33d e5ea 03be ebf3 16bd 1e69 2abe
00000350: 03a4 bcbd 6043 873d 0809 183c bc59 0b3e
00000360: 0845 463d f9f7 02bc 2a9f c9bd a874 b3bd
00000370: 5dd4 f73d bc14 b0bc 3a39 ef3d 56fc ac3d
00000380: 2597 28bc c29f 703d b068 0d3b 6ac6 153e
00000390: 373c 773d aa3a 23bd a573 403c f088 da3d
000003a0: f669 9f3d 24a2 0dbd 142b cd3d 324b c3bd
000003b0: cccb dbbd b8ce 573b cb7f 6a3c e37a 3abc
000003c0: 2e31 d23c e3dc 5c3c e62b 1dbe 6385 f13d
000003d0: 763b 3e3d 2d61 0d3d bb57 dcbc 5e09 4a3c
000003e0: acf9 d9bc ac68 f9bd d3f3 5fbd 5f55 1dbd
000003f0: 8cc4 b43c 8499 a03d a148 62bb 940e 3abd
-0.12156384 -0.04071293 -0.09391823 0.0022408077 0.12540577 0.022869196 -0.025072828 0.04216482
-0.04206774 -0.14421539 0.009703937 0.038060706 0.12088767 0.03239255 -0.028273486 0.07070494
-0.021928115 -0.00029731335 -0.019942176 0.012532717 -0.0465644 0.078319855 0.047679443 0.008611447
-0.012584123 -0.043550625 -0.019476978 0.009360673 0.03124204 0.061793473 -0.022851415 -0.063095324
0.08635909 0.09028329 -0.010865861 -0.07452262 -0.1315517 -0.075693004 0.008373823 0.0882011
0.041943196 -0.054201808 0.07155472 -0.14393958 -0.040665284 -0.040859055 -0.0053660483 0.0496151
0.030205756 0.05846933 0.0024037533 -0.052646197 -0.04269733 0.0667011 0.01754647 -0.021591034
0.079985954 0.050321 -0.035573117 -0.05300221 -0.05592768 0.10208879 0.1212307 0.16699512
0.078111336 -0.00552802 -0.103237 -0.07391227 -0.015874365 -0.043928143 -0.06702665 0.016391994
-0.035396602 -0.09302814 -0.019483887 0.0062086545 -0.049815644 -0.17229238 -0.030269738 0.083293274
0.018345509 0.052709226 -0.055226836 0.03024639 0.022975434 -0.0038374707 -0.12599836 -0.057044785
-0.012278411 -0.026130598 -0.18288293 0.0049368716 -0.0007594991 0.16458483 -0.077617906 -0.047447555
-0.09993267 -0.0040096105 -0.049728733 0.03286742 -0.13060082 0.063289486 -0.04965278 0.06489707
0.014542218 0.13620012 0.055974603 -0.075663775 0.06184797 -0.02853228 -0.0014001399 0.11982504
0.049151506 -0.08313152 0.075261965 0.01471852 0.00048597556 0.088232055 -0.0566958 0.01644572
-0.04162431 0.047044877 0.012006132 -0.019094523 0.019202143 0.0063914773 0.017683912 -0.021135611
-0.10241112 0.02964785 -0.004998292 0.082793996 -0.05445982 0.041983802 -0.1101022 0.03075127
0.0033283439 -0.05622737 -0.018630214 0.03276389 -0.11795165 -0.022856774 -0.03658445 0.0139037855
-0.087661274 0.08573616 -0.023645595 -0.17655347 -0.04742129 0.061521053 0.008560894 0.029601634
0.048291616 0.097298354 0.10617977 -0.08105158 -0.028177178 0.074955255 0.08350186 0.026917221
0.06113279 -0.021228515 0.14326282 -0.01584584 0.008555065 -0.012704276 0.03793189 0.1356976
-0.06467744 -0.16728793 0.014540761 -0.10392872 0.0040677288 0.04580822 0.03862727 -0.10120485
0.040270966 0.041568387 0.05782053 -0.07285323 -0.0592765 0.033879556 -0.119356215 -0.043670032
0.06840752 -0.055334546 -0.026291477 0.022487031 0.012023699 0.07201281 0.054717913 -0.060393054
-0.050663892 0.07564124 0.05412867 0.13719203 -0.12178149 0.10366522 0.00632345 0.027074482
-0.010225573 -0.06134768 -0.0271239 -0.029001085 -0.112810835 0.083318345 -0.042432953 -0.11715026
0.07965546 -0.12882574 -0.036853712 -0.16641662 -0.0921097 0.06604648 0.009279497 0.1360845
0.048405677 -0.007993692 -0.09844811 -0.08762485 0.12101052 -0.021494262 0.11680837 0.08446567
-0.010289942 0.058746107 0.0021577291 0.1462647 0.06036016 -0.03985087 0.011746322 0.1067065
0.07783882 -0.034578457 0.10017982 -0.09535827 -0.107322305 0.003292961 0.014312695 -0.011381838
0.025658216 0.013480398 -0.15348777 0.117930196 0.046443425 0.034516502 -0.026897302 0.012331335
-0.02660831 -0.12178168 -0.05467589 -0.038411494 0.022066377 0.07841781 -0.0034528153 -0.04542406

network_body._body_endoder.seq_layers.2.bias f4 [256]
00000000: a45d 9639 efe6 ec3c 37c3 59bc e0b3 033c
00000010: 419b b5bc b75a 313c ed39 6939 dcea f43b
00000020: 0f9a 343d 0010 c33c 1670 1c3c b87e 3abb
00000030: aa98 483b c6eb dcbb e9f0 0c3c 752b 95bb
00000040: a01d f23c 482f 84bc 1082 a0bb 2535 f53b
00000050: 6080 2ebc 1f14 96bb c9bf 7a3c 7830 bc3b
00000060: 2579 8a3b 3d35 953b 0660 0c3c 50cd a7bc
00000070: 081e cb3a e25a f23b 5251 29bc d640 c63c
00000080: 0ad5 083d a21d 6dbc 7ecc 1ebc 265e 71bb
00000090: d793 953c e9c6 233d bb09 eebc 54df 9cba
000000a0: 6928 0d3d 3666 c5bb dfcc b33a 4aee 38bc
000000b0: 36b1 9d3c aefd a9bb 2db1 adbb 64bc 91bb
000000c0: 80d9 38bc 6363 763c e653 bbbc 5b67 ab3c
000000d0: 6712 17bb eca0 b83c d52c 923c 3167 5d3c
000000e0: 7a64 0fbd a138 dfbb 4f4f 023d 839a c93c
000000f0: 5c38 a93c fe8a c13b 95ee 983c 44f1 8dbb
00000100: 96ae 2f3b dfd9 253c d43f 87ba 93bd 333c
00000110: c1c5 7d3c 7500 9fbb c0cf f73b f316 cabc
00000120: 1586 8e3c 9ec0 19bc 9735 853b 01bd 86bb
00000130: 70cd e43a d9c4 af3b 936a e43b 1f02 8abc
00000140: 3db3 edbb c1f0 403b 0ba3 a9bb ff6e 1bbc
00000150: 1b5d 1bbc beb1 323b 5742 61bc 3e65 163d
00000160: 4865 9bbc 8940 533d cc1c 4abd 3bb2 cb3b
00000170: 2a31 c73c 91bd 2e3d 14ed 633c 9030 223c
00000180: 34d0 fe3c 791f 9e3c 58d3 db3b 55ba aabc
00000190: 941a 7c3c 5460 7d3c ba3f f73c a28d 8cbc
000001a0: 90a2 f03b 968f 43bc c7f5 d9ba d23e 5b3b
000001b0: 3edf 1a3c bb63 88bb 1e9b 133b a72b 71bc
000001c0: d495 7bbc f2ea 2bbd 063d 9bb9 539e bb3c
000001d0: d05e 84bb 0b37 3e3c e6fe cf3b 7fe9 213b
000001e0: eec1 d7bb b3dc 03bd 003c 1c3a ef0d 493d
000001f0: c2da 49bc 00df a0bc 2e90 05bc 862d 62bc
00000200: ddb0 0dbc fb67 e3ba 8694 fe3b e728 e3bc
00000210: 80bb b53c 36ce 8f3b 134b a6bb 89bc 4e3b
00000220: 564b 733c 97ea b2bb dbee 233b a6c2 483b
00000230: 1aef c63c 301c 3cbb 977b b63b 6e4a 88bb
00000240: 5b5b 75bc 29f0 7ebc 4f2b 313c 334b d6b9
00000250: 5999 c1bb 0cd1 95bc c460 9dbc 3598 473c
00000260: 3a66 85bb 7d22 a23b 23f5 b03b 6a4b 3cbc
00000270: fbad 753b 1f06 0b3c a171 c4bc 4b25 5ebc
00000280: decb 9cba 1199 1b3c adeb ccbc 1803 be3c
00000290: 0a36 2aba c2a1 3e3c 08dc 71bc 0fb7 5f3b
000002a0: 85cd 9d3c 09fa 9abb 945b f73b 8bad 30bc
000002b0: 285a bf3c cebf cdbb 559a cbbb 2746 75bb
000002c0: 21c9 2fbb b974 803b a91a 44bc 0d89 3c3b
000002d0: 1f6f 313c 2d9d 1a3c 25cf a03c b6cc 073d
000002e0: d4ba e8bb b0cb 1a3d 35cd 31bc 66b5 0b3d
000002f0: d4fc 673d 5818 e13c 8713 2f3c 5b9d 26bb
00000300: f203 c33c 79c8 dfbb a1ed 03bb 632e 083c
00000310: 761d 32ba cdaf 9a3b db5d f7bc 9a05 7b3c
00000320: 7636 a33a 98b4 53bc dcff a9bc f89a 003d
00000330: 4395 8b3c 0221 05bc b1a4 a63c 75c6 8abb
00000340: ea84 123c 6a08 40bb 1b16 d1bc d063 e13b
00000350: 8010 2bbc 3f25 ca3c 7b3a 193c 3e9c 903c
00000360: deb9 c8bc 6f69 013d 0866 bb3a a9bb 963c
00000370: a4e5 cf3b 8264 dbbb 9e6e a6bc c9ad 95bb
00000380: dab1 d53b 548b 8eb8 b54f cd3b 077e e23c
00000390: 9b07 a7bb e750 8d3b 7a10 dfba 78ce 1c3d
000003a0: a16a 23bc 086c f43c 3ef3 0f3c d166 6ebc
000003b0: a73d 95bb 9a60 3ebc e152 3eba fdd8 c5bc
000003c0: b90d efbc c2e0 093c 2e69 aebc 40d2 ae3c
000003d0: e84f c53c 10be c8bc 9d85 59bc 905f a73c
000003e0: 8bfd 383b 3357 27bc 5360 98bb 76a1 28bb
000003f0: 7b29 093b d572 cdbb a3cd 05bc 6fed c43a
0.00028679997 0.028918711 -0.013291172 0.008038491 -0.022168757 0.010824851 0.0002224219 0.0074742865
0.044092234 0.02381134 0.009548208 -0.0028456878 0.0030608573 -0.0067419736 0.008602359 -0.0045522996
0.029555142 -0.016135827 -0.004898317 0.007483142 -0.010650724 -0.0045800353 0.015304514 0.0057430826
0.0042258673 0.0045534656 0.008567816 -0.020483643 0.0015496621 0.007396088 -0.01033433 0.024200838
0.033406295 -0.014472397 -0.009692309 -0.0036829798 0.018258972 0.039984617 -0.029057374 -0.0011968412
0.034462366 -0.0060241474 0.0013717673 -0.011287281 0.01924954 -0.0051877117 -0.005300662 -0.0044475067
-0.011282325 0.015038344 -0.022867154 0.020923307 -0.002305174 0.022537671 0.017843643 0.013513372
-0.03500793 -0.0068121706 0.031813916 0.02460981 0.020656757 0.0059064617 0.018668452 -0.0043317396
0.0026806942 0.010122745 -0.0010318705 0.010970491 0.015489043 -0.0048523494 0.0075626075 -0.024669146
0.01739792 -0.009384302 0.0040652263 -0.0041118865 0.0017456245 0.0053640422 0.0069707124 -0.016846715
-0.007254033 0.0029440376 -0.005176907 -0.009486913 -0.009482647 0.0027266587 -0.013748727 0.036717646
-0.018969193 0.051575217 -0.04934387 0.006216315 0.024315435 0.042661253 0.013911504 0.0098992735
0.031105138 0.019302117 0.0067085437 -0.020840803 0.015387196 0.015464861 0.030181754 -0.01715738
0.0073435977 -0.011936089 -0.0016629033 0.0033454192 0.009452639 -0.0041622794 0.0022522877 -0.01471988
-0.015355546 -0.04197211 -0.0002960937 0.022902643 -0.004039623 0.011609803 0.006347525 0.0024705825
-0.0065843975 -0.032192897 0.00059598684 0.049085554 -0.012320222 -0.019637585 -0.008152051 -0.013804799
-0.0086481245 -0.0017349714 0.00776917 -0.027729465 0.022184134 0.004388596 -0.0050748675 0.0031545481
0.014849504 -0.005460094 0.0025014195 0.0030633598 0.024283934 -0.0028703324 0.0055689323 -0.0041592633
-0.014975394 -0.015560188 0.010813548 -0.00040873289 -0.005908173 -0.018288158 -0.01921118 0.012182285
-0.0040710242 0.004947959 0.0054003163 -0.0114925895 0.0037487734 0.008485346 -0.023979964 -0.013558696
-0.0011962613 0.009496943 -0.025014723 0.023194835 -0.0006493038 0.011635246 -0.014761932 0.003413621
0.019263038 -0.0047295135 0.0075487588 -0.010783563 0.02335842 -0.0062789684 -0.006213466 -0.0037425847
-0.0026822763 0.0039201644 -0.011969247 0.0028768212 0.010829716 0.009436888 0.019630024 0.033154212
-0.00710235 0.037791908 -0.010852148 0.034108542 0.0566376 0.027477428 0.010685808 -0.002542338
0.023805592 -0.006829318 -0.0020130652 0.008311841 -0.0006794551 0.004720664 -0.030196121 0.01532116
0.0012452144 -0.012921475 -0.020751886 0.03139779 0.017038947 -0.008125545 0.020342203 -0.0042350837
0.008942822 -0.002930189 -0.025523236 0.0068783537 -0.010440946 0.024675963 0.009352322 0.017652627
-0.02450269 0.03159469 0.0014297375 0.01840003 0.006344514 -0.006695331 -0.020316418 -0.004567836
0.0065214457 -6.7970395e-05 0.0062656053 0.027647985 -0.005097342 0.004312623 -0.001701846 0.03828284
-0.009974153 0.02983667 0.008786021 -0.0145508805 -0.0045544687 -0.011619711 -0.0007260275 -0.02415132
-0.029181348 0.008415403 -0.021290388 0.02134049 0.024085954 -0.024504691 -0.013276485 0.02043131
0.0028227295 -0.010213661 -0.0046501546 -0.0025731004 0.0020929265 -0.0062697926 -0.008166703 0.0015024374

action_model._continuous_distribution.log_sigma f4 [1, 2]
00000000: 2ad4 92bd 331e 6c3e
-0.07169373 0.23058395

action_model._continuous_distribution.mu.weight f4 [2, 64]
00000000: 060b 45bc cd33 0ebe 149f 3fbd f279 00be
00000010: 4417 2bbe f122 54be da62 1dbe 3370 babd
00000020: 45cc 0d3e b22b 1e3e 2333 203d 6a4e cbbb
00000030: a67a 28be 7941 be3d 21f3 fd3c f30a 0b3e
00000040: 25d8 5dbe 9675 58be 32f8 0b3e af47 acbd
00000050: 8cef 693e b714 18be a51f 11be 085c bb3c
00000060: 7f5a 1d3e 6c74 993c 407d 21be d1ad dc3d
00000070: 1372 2f3d a15f 44be 8deb a13b f902 883d
00000080: 0993 f93d ddc0 fabd 3081 b93d c4d2 ba3a
00000090: 48cc 8bbd 899f 43be 0b04 fa3c e4a9 173e
000000a0: ded5 213b b390 063e baa1 47be 4292 373e
000000b0: d256 f73d 23b4 603e e87f 7d3e 9d41 85be
000000c0: a863 f8bc a2af 023e c124 b8bd 2c9d bc3c
000000d0: 95a5 85bc 4a92 9b3c 9f2e 10bd 03c0 b6bd
000000e0: 5b04 65be 0c17 8ebd 9872 443e fcd0 f4bd
000000f0: 281a af3c c37e 97bd 3a6c e83d a72b 603c
00000100: de82 a83d ce56 6b3d bf7e fc3d e807 b1bb
00000110: ce9f 943d 68d7 383d 7426 9c3d f781 503e
00000120: 94f9 0fbd 8544 493d b865 fa3d 2608 3a3e
00000130: fa3d dcbc 4aa1 b5be 1870 2abe 10ba 56bd
00000140: 6d8a 313e 2631 60bc 2277 6fbe bd23 593e
00000150: c689 5abe 4414 7e3c 189d 883e d1de a3bd
00000160: 691b 193d f1f6 a3bd dd2f 703e 203c 283b
00000170: 5244 e2bc ec19 243e 7363 edbc 4b16 de3d
00000180: 6ef7 eebc 0e03 593e 01a4 e33d c970 a53d
00000190: d99f 3f3e 5eca 793c 9724 8f3c c71f 113b
000001a0: 659e 533e 21c0 7cbd 01b1 26bb c5a7 26bb
000001b0: d865 64be b12c 11bc d1d3 29be 6df5 c2bc
000001c0: 348a 753d 4909 863d cd38 bc3d 9373 4b3e
000001d0: d988 403e ec64 1c3e a8e2 dd3d e2cf eabd
000001e0: dac0 c7bd a0fa f13d 9e62 26be 9aee 243e
000001f0: dd30 543c 0643 f33b 9d92 ce3b 21cd 39be
-0.012026554 -0.13886948 -0.046782568 -0.12546518 -0.16708094 -0.20716454 -0.1536974 -0.091034316
0.13847454 0.15446356 0.039111268 -0.006204416 -0.16453037 0.09289832 0.030999722 0.13578396
-0.21664484 -0.21138605 0.13668898 -0.0841211 0.22845286 -0.14851652 -0.14172228 0.022871032
0.15366553 0.018732272 -0.15770435 0.1077534 0.0428334 -0.19177105 0.00494141 0.06641192
0.12186248 -0.12243817 0.09057844 0.0014253487 -0.06826073 -0.19103827 0.030519506 0.14810902
0.0024694125 0.13141136 -0.19495288 0.17926887 0.120771065 0.21943717 0.24755824 -0.2602662
-0.030320957 0.12762311 -0.08991385 0.023024164 -0.016314307 0.018990654 -0.03520071 -0.08923342
-0.22364943 -0.069379896 0.19184339 -0.11953923 0.021374777 -0.07397225 0.113487676 0.0136822825
0.08228086 0.05745583 0.123288624 -0.005402554 0.07257043 0.045127302 0.07624522 0.20362078
-0.035150126 0.04913761 0.122264326 0.18167171 -0.026885021 -0.35474616 -0.16644323 -0.052423537
0.17337961 -0.013683593 -0.2338529 0.2120504 -0.21341619 0.015507761 0.26682353 -0.08001483
0.037379656 -0.08006085 0.23455758 0.0025670603 -0.027620468 0.16025513 -0.028978085 0.10844096
-0.029170718 0.21192572 0.11115266 0.08078153 0.18713321 0.015246002 0.017473502 0.0022144185
0.20665891 -0.061706666 -0.0025435092 -0.0025429588 -0.22304475 -0.008860753 -0.16584708 -0.023798669
0.059946254 0.0654474 0.091905214 0.19868307 0.18802203 0.15272874 0.10834247 -0.11465432
-0.097535804 0.11815381 -0.16248557 0.16106644 0.012951103 0.0074237613 0.0063040988 -0.18144657

action_model._continuous_distribution.mu.bias f4 [2]
00000000: 9368 d43c a71d 23bd
0.025928771 -0.0398232

onnx::LSTM_101 f4 [1, 256, 256]
00000000: 6466 6a3d 2cce 843b aeb8 c0ba 6d08 933d
00000010: 3e10 0abe dabd ebbd fdd7 1bbe 7c2d 02bc
00000020: 7395 f1bc e460 493d 0444 7cbd 5c0d c43d
00000030: 6cce 253e bf99 dd3d 6a16 6ebd 25ae 79bd
00000040: 5487 ba3c 4152 26bd adc8 b03c d572 91bd
00000050: b4fa c63c e52b b03d 6a1f 03be 7891 fd3d
00000060: b2da 8aba c91d d83d 3cda 493c 059f b53d
00000070: 3d03 0e3e 8896 8b3d f689 55bd 8bdf d3bd
00000080: 32b4 ce3d 39c3 cbbd 718f bb3d 336e 773d
00000090: 1c2b 09be 11f0 013c 386a 5bbd 0e1b 77bd
000000a0: 2f64 cbbd 4390 c23d 4bd0 c1bd bf73 c3bd
000000b0: a3ba b3bd 6617 ff3d 9c79 603d 5556 dabc
000000c0: 5dfb 0f3e d538 6b3d 5fd6 823d 2c13 ab3d
000000d0: d0a5 fb3d c620 e3bd 4cfe 14bc 681f 11bd
000000e0: 5db8 8d3d 49ca 643d c8df cabd 07d5 ca3d
000000f0: 80cd c5bd e549 96bb ad09 f93d 1f21 91bc
00000100: 2bf7 0e3d bff4 74bd f90b 0f3e a70a 4c3d
00000110: 21d9 e8bd 518d ba3d 9dfd ba3b 799a 853c
00000120: f495 433b 0c06 65bd 8d3c 67bd 32b5 84bd
00000130: a77f 783b 5bd8 343c 7aad 64bd 153e f2bd
00000140: eb54 063e 67f8 adbd 1e43 83bc a542 adbc
00000150: 0426 2b3e 56a5 10be 47d4 253e 84fd bab9
00000160: be10 9cbd 4deb ca3c 22f5 aebd b412 843d
00000170: 7138 6ebd 0d25 c53d 48a5 843c 59ae 04be
00000180: 869d 203d 6ba2 163e 77f7 86bc 6754 b2bd
00000190: e3fb 9abd 9a40 e63d 6923 ddbd 18d8 5b3c
000001a0: 902d c33d 95cb 9d3b 7e72 52bd dd3e 553d
000001b0: 84b8 ed3d a01c 2bbd afcb ca3d 9abe 133d
000001c0: d124 d2bd 61fd d6bb 5d5d e8bd b2e7 a7bd
000001d0: 95ca d9bd a758 243e 1489 7f3d aa63 423d
000001e0: 146e 3abd 4f2a 9a3d a8ea c1bc 3ad9 f63b
000001f0: f313 593d 89d5 4bbd 3717 173c 465b a9bd
00000200: 949f 93bb 0136 cfbd 3d82 b3bd d330 b4bd
00000210: 0642 a23d c132 91bd 691e 4dbd 8a44 06be
00000220: 0797 33bc f124 e4bc 81b9 adbd 2af0 e6bd
00000230: 0777 da3d f265 823d 98ff 413e 9c6c 2a3d
00000240: 2266 dabd 74b0 d9bd 260f 4b3d df5a abbd
00000250: 3387 2fbd 74a2 243d 5171 05be 52b1 e3bd
00000260: 0c09 323d c43e 5abd 2591 843d 0d58 2e3d
00000270: 6566 6bbc de3c cfbd 023e 793d 4548 bcbd
00000280: 193a 6cbd eac2 9d3d a92d a43c 7b62 04be
00000290: 23cd f73c d201 7e3c 54ff 6bbc a004 28be
000002a0: 2e7a ac3c 7f7c 17bd 1bc3 72bd 9b6d 913b
000002b0: c4a9 04be 80dd 2bbd d23c 9a3d 9c2a 1abd
000002c0: dd4d 6f3d 702c a5bd 1615 0dbe 807b 21bd
000002d0: 9efb 0c3e 1aa4 993d afc6 243d 99a5 b0bd
000002e0: f14b 913d 9f2d 2e3e 3fad 16be 9b70 153e
000002f0: 2eff 0d3e 1bb9 08bd bf4f 163c 6493 7d3d
00000300: 3d28 22be 5ec6 8e3d 3361 353d f67b b83d
00000310: d79f db3d fe61 98bd f448 1f3e 104a b93d
00000320: 5deb a53d 1691 e3bd 8815 cdbd cd57 dd3d
00000330: dbc0 e93d 2a7b e03d f83c 66bc b619 81bd
00000340: c2a0 2fbd c9c5 353d 37ca f0bd c42c 8b3d
00000350: c7f6 093e f173 46bd 9f58 0d3e d4fa 323e
00000360: 5846 7a3d 60d3 04be 71a6 8fbc 97af e13d
00000370: 212a cc3d 4e85 05bc 8614 9dbd 801b b83d
00000380: df95 bfbd c814 12bd b04e c83d 4e4a 763c
00000390: 8ea9 363d 969d 983d 284a 943d 34f1 d03d
000003a0: f8bf 72bd 7cbb 6b3d f772 663d 906e ff3d
000003b0: 3e62 ba3d b029 74bc d02f fb3d 5548 2d3d
000003c0: f28a 9e3b e624 313d 9cca 07bd 27ad 33bd
000003d0: bc1e 9e3d 9e45 55bc fdbd 83bd d4de 85bd
000003e0: 7b2f d93c 6878 d43d 6059 aa3c 84ea f0bc
000003f0: fce9 a73d 84ce 1abe 3caf 8ebc 5747 e23d
0.057226554 0.004052898 -0.0014703476 0.071793415 -0.13482758 -0.11510821 -0.15219112 -0.007945415
-0.029490208 0.049164668 -0.061588302 0.095728606 0.16192025 0.1082034 -0.058126844 -0.060957093
0.022769608 -0.040605787 0.021580065 -0.071019806 0.024289466 0.08602122 -0.12804952 0.123812616
-0.0010593741 0.10552556 0.012320098 0.08868221 0.13868423 0.06815821 -0.052133523 -0.10345372
0.10092963 -0.09949345 0.09158219 0.06040783 -0.13395351 0.007930771 -0.053568095 -0.060328536
-0.09931218 0.09500172 -0.09463557 -0.09543561 -0.087758325 0.12455635 0.054803476 -0.026652494
0.14060731 0.057427246 0.06388544 0.08353266 0.122874856 -0.110902354 -0.009093832 -0.035430342
0.0691993 0.055856977 -0.09905964 0.09903913 -0.09658337 -0.0045864456 0.12160049 -0.017715989
0.034903686 -0.05980372 0.13969411 0.049814846 -0.11369539 0.09108985 0.0057065026 0.01630901
0.0029844018 -0.05591397 -0.05645423 -0.06479873 0.0037917884 0.011037911 -0.055829503 -0.118282475
0.13118331 -0.084946446 -0.016023215 -0.021149943 0.1671372 -0.1412557 0.16194259 -0.00035665568
-0.07620381 0.024770403 -0.08542849 0.0644888 -0.058159295 0.096262075 0.016192093 -0.12957133
0.039212726 0.14710395 -0.016475422 -0.08707505 -0.07567575 0.112427905 -0.107977696 0.01341822
0.09530175 0.0048155286 -0.05137872 0.052061904 0.11607459 -0.041775346 0.09902131 0.036070444
-0.102609284 -0.006560967 -0.11345933 -0.08198489 -0.106343426 0.16049443 0.062386587 0.04745833
-0.045515135 0.07527601 -0.023671463 0.0075332196 0.05299754 -0.04976419 0.009221843 -0.08269362
-0.004505107 -0.10117722 -0.08765075 -0.08798375 0.07922749 -0.07089759 -0.05007783 -0.13112083
-0.010961301 -0.027849646 -0.08482648 -0.112762764 0.10667234 0.06367101 0.18945158 0.041607484
-0.106640115 -0.10629359 0.049574994 -0.08366942 -0.042853545 0.04019399 -0.13031508 -0.111178055
0.04346566 -0.053282514 0.064729966 0.04256444 -0.0143676745 -0.10119031 0.06085015 -0.09193472
-0.057672594 0.077031925 0.020041304 -0.12928192 0.030249184 0.015503364 -0.014404137 -0.16408014
0.021054354 -0.036983963 -0.0592681 0.004438115 -0.12955385 -0.041959286 0.07531132 -0.03763829
0.058423866 -0.080651164 -0.13777575 -0.03942442 0.1376786 0.07502003 0.040228542 -0.08625335
0.07094563 0.1700959 -0.14714526 0.14593737 0.13866875 -0.033379655 0.009174286 0.06190814
-0.15835662 0.06971429 0.04428215 0.09008019 0.107238464 -0.074405655 0.15555173 0.090473294
0.081015326 -0.11111657 -0.100138724 0.10807762 0.114137374 0.10960992 -0.014052622 -0.06303732
-0.04287792 0.044378076 -0.117573194 0.06795648 0.13473044 -0.048450414 0.13803338 0.17478496
0.06110224 -0.12971258 -0.01753542 0.11019819 0.09968973 -0.008149458 -0.0766993 0.0898962
-0.093547575 -0.03566435 0.097806334 0.015032364 0.044595294 0.07451932 0.07240707 0.10202256
-0.059265107 0.057551846 0.056261983 0.1247226 0.091007695 -0.014902517 0.12264979 0.04230531
0.004838341 0.04324808 -0.033152208 -0.043866303 0.07720706 -0.013017086 -0.06432722 -0.06536642
0.026511898 0.10374528 0.02079457 -0.0294087 0.08198926 -0.15117842 -0.017417543 0.11048763

onnx::LSTM_102 f4 [1, 256, 64]
00000000: 67b4 463e 8340 17be a02f 61bd 0c84 373e
00000010: b9d1 ce3d b22f b5bd fab6 253d c337 073d
00000020: 5698 0ebd c0b1 813d d7aa 0bbe 2067 553c
00000030: 37e3 08bb 50b1 11be 072f d03d 7c62 c4bd
00000040: 5cad 80be d79d 21bd 5930 c6bd 0fd7 8e3d
00000050: a075 16bd f4f4 3a3e ba1d ff3d 6551 97bd
00000060: 9491 823d e8b5 643a 31d8 8bbd 556c 99bd
00000070: 24fa 063e dfe2 303e 81f6 5b3e af2f 4abe
00000080: 527e f23d 09d6 77bd 0800 f9bd 28e8 31be
00000090: 812c 7dbe e561 99bd 940e 363d 328a 23be
000000a0: af43 3cbe 9713 51be 0fca 2e3e 57d4 193d
000000b0: d56b 603b 70c4 0ebd 3a92 72bd a043 543d
000000c0: d4be 71bd f788 a4bd 8f2f 073e 8f4c 823d
000000d0: 7377 bebd bd46 08bd 8494 033d f539 013e
000000e0: 4f3e 4c3e 2353 883d d12d aa3d 7534 d93d
000000f0: ceba 0bbd 710b 69bd 2718 c3bd c1c0 b83d
00000100: a908 01bc 3c90 573e 1a1e c9bd 01e9 4f3e
00000110: c52f f33d e841 da3d 92a2 8fbc 6979 d23d
00000120: 0a05 92bd 0591 7d3c 758d 57bd 4f97 f3bd
00000130: d09f 823e af0d a83d 2b2b 813d a97c 8cbd
00000140: 476b 48be b28c 533e 611d 333d d4b2 30be
00000150: e6cb 8d3d 81d2 d43d 0233 37be cb97 07be
00000160: e6ba 81bd cf90 32bd 5f22 fcbd 4e6d 933d
00000170: 9b63 f6bd 7917 86bd a6fe 2bbe fb00 84be
00000180: 21f7 a53d a9af a93d 960c 5bbd d5d5 3f3e
00000190: e9c7 643c 66ca 793d cf64 f9bd b2e3 83be
000001a0: e99b 17be c278 02be 3445 8f3c c40c ecbc
000001b0: 0108 2f3b d367 87be 2f74 3f3b 17d0 6e3e
000001c0: 0188 49be 453d 99be f3f4 52be c291 4c3e
000001d0: 468a 14be efb4 8d3d 9ab1 9e3d 61fc 1bbd
000001e0: 0c16 d73d c17d a63d e586 f6bd 2761 1abd
000001f0: 861f 003e e950 74be 2aca 67be b040 77bd
00000200: 9977 01be 1cb1 73be 48d1 bdbd 62d2 17bd
00000210: 8e5b eabd bcc6 f2bc 0cd4 35bc e0b3 663d
00000220: b594 0bbe 3435 71be 8933 17be b40a c1bd
00000230: 7bb4 09be ff8a f73c 3ac4 1cbe fa94 c93d
00000240: fd7f 323e d996 6dbd 1e0d a5bc 2d38 ca3d
00000250: 93f7 433e 65d6 38be 7ac9 b53d eb8a 09be
00000260: cbff 453e 1f25 53bd 8bf0 943c 4b20 1c3e
00000270: 4e24 57bd 9457 bfbd 59f0 403d b145 1dbe
00000280: 1703 35be 735e 913d fef2 45be b150 133e
00000290: 4311 483e 7ff3 cdbd d14e 7fbc ae5b 43be
000002a0: b466 e3bd 4df4 94bd 9336 b63d df9b 323d
000002b0: 3542 50be f476 333e 25e0 633e b30e 2b3e
000002c0: a925 a83d dea1 19bd 30ca b9bd 4ba4 f2bd
000002d0: 813e 51bc fc63 21be e4e4 2c3d 5c04 80bd
000002e0: 6627 ef3d e316 193e 31b1 4e3d 77a2 3c3d
000002f0: 6936 59bc 970e 103e 4c1b 033e d7c1 1dbe
00000300: c009 373e 37c4 75bd 0c96 2c3e ed18 18be
00000310: 63cc 17be 0ddd 2dbd 18d1 123e 8c4d ad3d
00000320: af44 07bd 54e6 73bc 233a 213e 40f7 903d
00000330: 16a6 67be 08cf 2a3e fb3d edbd 067a 5e3e
00000340: e8e9 383e 7d13 86bd e727 c4bd 89a2 563e
00000350: e200 e4bd 1e1e 9b3c 2fb3 153e 9bd2 fabc
00000360: 4b15 193e 7c4f c33c 38c2 0fbe a3bd 4cbe
00000370: 0019 11be 4fa1 2cbe 34ce f3bc eede 923d
00000380: fb5b 493e 8fee 833c 7e29 e33d ddd7 263d
00000390: c2cd c9bd 5eb5 233c 7c39 af3d b46c a63d
000003a0: 7da3 41be f466 b7bd 88ff 39be 0156 073e
000003b0: 1a32 18be 0028 a0bd 45f8 e8bc 4c63 d7bc
000003c0: cab5 293e 89f4 35be 68bc b43d 41a4 f93d
000003d0: a581 173e 74d6 f7bd 0d19 16bc e6f7 50be
000003e0: 9bdf b43d c745 e6bd 7b3d 10be 37d9 9e3d
000003f0: 9bdd cf3c 7109 c23d 510f 09be a5d2 2e3e
0.19404756 -0.14770703 -0.05497706 0.17921466 0.10098595 -0.08846988 0.040457703 0.033012163
-0.034813248 0.06332731 -0.13639389 0.013025075 -0.0020887384 -0.14227796 0.1016522 -0.09589097
-0.25132263 -0.03945717 -0.0967719 0.06974613 -0.03673327 0.18257505 0.12456842 -0.07388572
0.06375423 0.0008724616 -0.068283446 -0.07491366 0.13181359 0.17274044 0.21480753 -0.19744752
0.118405 -0.060506854 -0.12158209 -0.17373717 -0.24724008 -0.07489375 0.044447497 -0.15970686
-0.18385194 -0.20417629 0.17069267 0.03755602 0.003424396 -0.034855306 -0.059221484 0.051822305
-0.05901988 -0.080339365 0.13201736 0.06362259 -0.09300127 -0.033270586 0.032124057 0.12619765
0.19945644 0.06656482 0.0830952 0.106057085 -0.034113698 -0.056895677 -0.09526091 0.0902114
-0.0078756 0.21051115 -0.098201945 0.20303728 0.11874346 0.10657102 -0.017533574 0.102770634
-0.071298674 0.01547647 -0.05262514 -0.11894094 0.25512552 0.08205735 0.06307062 -0.068597145
-0.19572173 0.2065914 0.04372919 -0.17255718 0.06923656 0.10391713 -0.17890552 -0.13241498
-0.06334476 -0.04359513 -0.12311243 0.071985826 -0.12030717 -0.06547446 -0.1679636 -0.25781998
0.08103777 0.08285458 -0.0534788 0.18733914 0.013963678 0.060984038 -0.12177431 -0.25759655
-0.14805569 -0.12741378 0.017489053 -0.02881468 0.0026707652 -0.264464 0.0029213538 0.23321567
-0.19680788 -0.29929557 -0.20601253 0.19977477 -0.14505872 0.06919276 0.077487186 -0.038082484
0.10502252 0.081294544 -0.12037448 -0.037690308 0.12512025 -0.2385899 -0.22635713 -0.060364425
-0.12643279 -0.2379803 -0.09268433 -0.03706587 -0.11443244 -0.02963578 -0.011097919 0.056323886
-0.13630946 -0.23555452 -0.14765753 -0.094258696 -0.13447754 0.030217646 -0.1530923 0.09842868
0.17431636 -0.058005188 -0.020147856 0.09873996 0.19137411 -0.18050535 0.08876319 -0.13431899
0.19335859 -0.051549073 0.018181106 0.15246694 -0.052524857 -0.09342876 0.047104213 -0.15358616
-0.1767696 0.07098093 -0.19330975 0.1438625 0.19537835 -0.10056209 -0.015582756 -0.19077942
-0.111035734 -0.07273159 0.08897128 0.04360568 -0.20337756 0.17525846 0.22253473 0.16704826
0.08210308 -0.037507884 -0.09071767 -0.11847743 -0.01277125 -0.15760797 0.042210475 -0.062508315
0.116774365 0.14950137 0.05046195 0.046053376 -0.013257601 0.14068066 0.12803382 -0.15405975
0.17874813 -0.06000158 0.16854113 -0.14853258 -0.14824061 -0.04244714 0.14337575 0.084620565
-0.033024486 -0.0148864575 0.15744834 0.07078409 -0.2262195 0.16680539 -0.115840875 0.21726236
0.18057978 -0.06546686 -0.09577923 0.2096044 -0.11132981 0.01893526 0.14619134 -0.030618003
0.14949529 0.023841612 -0.14038932 -0.19994216 -0.14169693 -0.1685841 -0.029761411 0.07171427
0.19663994 0.016104965 0.110918984 0.040733207 -0.09853698 0.009991972 0.08555886 0.08126202
-0.18910022 -0.089551836 -0.18163884 0.13216402 -0.14862862 -0.078201294 -0.028438697 -0.026292466
0.16573253 -0.17769064 0.08824998 0.12189532 0.14795549 -0.121014506 -0.009161246 -0.20407066
0.08831712 -0.11243778 -0.14085953 0.07756274 0.025374224 0.09474457 -0.13384749 0.17072542

onnx::LSTM_103 f4 [1, 512]
00000000: a9b1 60bc 4170 13bd c499 46bc f772 303d
00000010: 7b29 e13c 3156 bcbc 9e2d 0c3c 18a2 333d
00000020: 3341 403d 0f9c 373d 27b1 993b 2cad c53a
00000030: 352a e93c 1907 c13c 6b68 973c 2494 ac38
00000040: 9b05 b9bc 1388 06bd 778d 80bc 1524 253c
00000050: 983d 543d 28b5 8abb 774e 123c 71f6 da3c
00000060: 0ddd 383c abd0 a03c 0e5c 023d de58 c03c
00000070: 0e8f 19bc e439 adbc ec4d c5ba 64e8 baba
00000080: d588 6d3c df51 ba3c ca21 663d a7ad 85bc
00000090: 04ce a53c cb50 853c a7fd 1839 1560 933c
000000a0: 48c8 3d3d 3adf febc 8e8e fbbb 1d5b cebc
000000b0: dc4c e33c ba80 89bc f387 553c dad5 1dbd
000000c0: 68c6 1bbb 687d 233d 9a4b 1d3d 6875 ad3c
000000d0: c043 5abc 7d03 d73c 81a7 273c bc99 983c
000000e0: 104f 94bc 13a5 613d 3b3e 303d b9b8 c73b
000000f0: 5658 0d3d 8cd9 783c ba15 ab3c 43dd 423d
00000100: 7b84 863b 6eb9 583b 6789 763b 59ac 143b
00000110: 7dca e63c bd11 793d 61e7 043c 3e75 b03c
00000120: adb3 473c 6c9c b33c 60e0 e93c b190 103b
00000130: a1e4 803c c8a8 b03c 6a38 53bc e220 a73b
00000140: de0d a73b 955e e6bb 69e6 403d ffd3 c03c
00000150: 74b9 a23a bb67 573d cdb7 723c 0d49 52bc
00000160: b81d 083d 7bb6 113d f24a 203d e6a5 253c
00000170: 2d1d 1c3c 7fd8 b0ba 8e6f 793c 47e9 453d
00000180: 6c3a 323c 6089 063d 0c90 1ebd ed05 afbc
00000190: 18e8 bdb8 ec6b 1dbb 5c95 ae3b 756e 6ebc
000001a0: ae0e 113d 0258 f63c 1270 9d3c 7aac 13bc
000001b0: 533e 643d c126 243d 2a2a daba 5096 2f3c
000001c0: b8f2 273d 6f54 763d 1170 823b ffda 453d
000001d0: aeef 1e3d aff2 5fbc 3975 1d3d a42b 573d
000001e0: 4c77 943a b9d1 8bbc a80e 863d 6c56 6c3c
000001f0: 0d29 183d 813c 88bc c051 d8bb d4cd b73a
00000200: 3290 7e3f e5de 823f 489b 843f 2f47 803f
00000210: 49ab 813f 0f74 803f 603c 823f 9aaa 823f
00000220: 2e67 7a3f 97b4 7c3f ead3 833f 81e1 813f
00000230: 7e79 823f d6bd 823f 1467 873f 1e9f 7f3f
00000240: 3b64 7a3f 121d 813f b68b 763f 67fb 7b3f
00000250: 74bc 843f cc2a 803f 0e1a 873f d8ef 833f
00000260: ef36 823f 8331 803f 466a 793f 0f10 813f
00000270: f976 803f ace4 843f ecb3 823f 0e8d 7f3f
00000280: 7a37 833f 7327 7c3f 0aa8 823f 6edb 833f
00000290: a26b 7f3f a62c 813f c7b1 833f 17b8 823f
000002a0: 40a4 733f 5046 803f 3393 803f 74d7 803f
000002b0: 9db4 763f 93b2 7a3f 00dd 803f 44a2 823f
000002c0: f395 863f 8112 843f dc72 803f c31a 7f3f
000002d0: 7a0a 743f a2ab 7d3f 7cfb 753f 762c 793f
000002e0: 7526 813f f475 783f 1546 733f 7fdb 813f
000002f0: cd92 7a3f e38d 7c3f 426a 833f 3892 7f3f
00000300: da82 8c3c ef47 bcbc 2e52 e03b 5c0b 5abb
00000310: 67c4 c13c 84d7 513b dbe0 983c fcea e5bc
00000320: b903 95bc bb0a 0abc 5a16 34bb 7ed0 f83c
00000330: 2183 9dbc 40c8 2dbc b12d ca3b d832 d5bb
00000340: 47f0 52bc 4d47 be3c 20b8 b83b bb35 57bc
00000350: 9649 2dbc 3077 a0bb 2bcf a2bb 18ee db3a
00000360: ca21 c7bb f883 beba a73c 2fbd 3302 23bd
00000370: ffb9 8e3b d877 bcbc 900d a3bc 003b 0bbc
00000380: 411d 673c a789 873b 261b 4b3c 6f0e 28bc
00000390: b066 143d 238c 87bc 9617 77bc 36d0 2d3c
000003a0: 5669 74bc b8e1 5abc c552 833c 626d ed3b
000003b0: 00d6 343c 1573 b4bb 0244 223c 193c 6ebb
000003c0: 6da9 91bc 3e1a a43b 469d a33c 3f82 68bc
000003d0: ee4e 393c 575f 393d 80bd f2bb aed0 4dbc
000003e0: 2634 a0bb 5154 303b 8715 35bb 1895 7dbb
000003f0: caa2 af3c ff1d b13c 902b 7cbc cc94 9abc
-0.0137142325 -0.035995726 -0.0121216215 0.04307839 0.0274856 -0.022990318 0.008555798 0.043855757
0.04693718 0.044826563 0.0046903077 0.0015081516 0.028462509 0.023562955 0.018482408 8.2291925e-05
-0.02258568 -0.032844614 -0.015692456 0.010079403 0.051816553 -0.0042330213 0.00892984 0.02672884
0.011283171 0.01963075 0.03182607 0.023479875 -0.009372486 -0.021145768 -0.001505313 -0.0014259932
0.014497955 0.022744117 0.056184568 -0.016318155 0.020239837 0.016273877 0.00014590342 0.017990151
0.04633358 -0.031112302 -0.007676906 -0.02518993 0.02774661 -0.016785014 0.013032901 -0.038534023
-0.0023769382 0.03991452 0.038402177 0.021174148 -0.013321817 0.02624678 0.010232807 0.018627994
-0.018104106 0.055089068 0.043028098 0.0060950187 0.03450807 0.015188586 0.020884383 0.047574293
0.0041051484 0.003306951 0.003761852 0.0022685735 0.028172726 0.060807932 0.008111806 0.02154028
0.012188834 0.021925174 0.028549373 0.00220589 0.015734019 0.021564856 -0.012891868 0.0051003555
0.0050980886 -0.007030318 0.047094736 0.023538588 0.0012414888 0.05258916 0.014814329 -0.0128347995
0.033231467 0.035574418 0.039133973 0.010110354 0.00952844 -0.0013492255 0.015224351 0.048318174
0.010878187 0.032845855 -0.038711593 -0.02136513 -9.055453e-05 -0.0024020625 0.0053278636 -0.014552702
0.03541439 0.030071262 0.019218478 -0.00901329 0.0557235 0.04007602 -0.0016644646 0.01071699
0.04100296 0.060139116 0.0039806445 0.048304554 0.038802795 -0.0136687 0.03844187 0.052531853
0.0011327057 -0.017067777 0.06545764 0.014424901 0.037148524 -0.016630413 -0.0066015422 0.0014023134
0.99438775 1.0224272 1.0359888 1.0021724 1.0130397 1.0035418 1.0174675 1.0208313
0.9781369 0.9871306 1.0299046 1.0146943 1.0193326 1.0214183 1.0578332 0.9985217
0.9780919 1.0086997 0.9630693 0.98430485 1.0370011 1.001306 1.0554826 1.030757
1.0173014 1.001511 0.97427785 1.0083026 1.0036308 1.0382285 1.0211158 0.9982461
1.0251305 0.98497695 1.0207531 1.030134 0.9977361 1.0091751 1.0288628 1.021243
0.951725 1.0021458 1.0044922 1.0065751 0.96369344 0.9792873 1.0067444 1.020577
1.0514511 1.0318147 1.0035052 0.9965021 0.95328486 0.99090016 0.9608686 0.97333467
1.0089861 0.9705498 0.9502881 1.014511 0.9788025 0.98654 1.0266802 0.9983249
0.017152239 -0.02298352 0.006845734 -0.003327093 0.023653222 0.0032019326 0.018661907 -0.02806615
-0.018190252 -0.00842541 -0.0027479143 0.030372854 -0.019227566 -0.010606825 0.0061699976 -0.006506305
-0.012874669 0.023227358 0.005637184 -0.013135369 -0.010576626 -0.0048970208 -0.004968544 0.0016779331
-0.006077026 -0.0014535179 -0.042782452 -0.03979702 0.0043556686 -0.023006365 -0.019903928 -0.008497953
0.014106096 0.0041362825 0.012396609 -0.0102573475 0.036230743 -0.016546315 -0.015081307 0.010608723
-0.014917692 -0.01335948 0.016030679 0.0072457055 0.01103735 -0.005506883 0.00990391 -0.003635174
-0.017780984 0.005008011 0.019972455 -0.014191209 0.011310322 0.04525694 -0.007407844 -0.01256196
-0.004889029 0.0026905725 -0.002763124 -0.0038693603 0.021439929 0.021620749 -0.0153912455 -0.01886978
