code/selfparking/mla/results/test_28/Car.onnx (onnx, 710352 bytes, 10 tensors)

network_body._body_endoder.seq_layers.0.weight f4 [256, 108]
-0.20117421 -0.02552096 -0.08214243 -0.017118188 -0.004437068 0.06892956 0.076845214 -0.16438833
-0.060532436 0.06981501 -0.057774607 -0.099886164 -0.02153855 -0.032615237 -0.074956596 -0.1373973
-0.0335783 0.0120976865 -0.07174838 -0.07931553 0.08127322 0.059724454 -0.14044482 -0.07590261
0.059236772 -0.16173139 0.008885645 0.06964198 0.012958275 -0.062605985 0.14224319 0.016659524
-0.10825107 -0.19839938 -0.08543949 -0.032338735 -0.07745965 -0.11399326 0.059539903 0.006686084
-0.23038174 0.1185335 -0.043821298 0.082515314 -0.025698794 0.10085812 0.04403473 0.08335805
0.049858324 0.089810155 -0.053292036 -0.11551132 -0.059003945 0.26528984 0.050874606 -0.031816155
0.04000046 -0.09281192 -0.08497096 -0.072752625 0.14577672 -0.16736361 0.08280324 -0.066855356
0.015343451 -0.12163998 -0.012834094 -0.107410125 -0.067741424 0.25497803 -0.025920106 -0.08000123
0.09281733 0.17046022 -0.02475722 -0.19957483 -0.10252003 0.008826315 0.047608674 -0.055855
0.14990374 -0.018454755 -0.021016382 -0.057170406 0.07241341 -0.054260053 -0.110113494 -0.08144692
0.052025896 0.08171154 0.19450709 0.032143727 -0.17103478 -0.18874758 -0.08205829 -0.038059354
-0.040212553 -0.049898922 -0.0061726808 -0.1408692 0.07668839 -0.018968072 0.010082764 0.012292703
-0.109822005 0.02025156 -0.069663316 0.09252782 0.00065894175 -0.0035558066 0.046940885 0.04202105
0.03548658 -0.04196702 0.10442783 -0.12585542 0.13283433 0.013359899 0.072628886 0.116997644
-0.11320916 0.041699935 0.029631238 0.09040151 0.040448826 0.04779324 -0.14316234 -0.20584925
0.09868656 0.21410331 0.046250433 -0.060159404 -0.046107978 0.061405607 0.056202758 0.19570096
-0.012587349 0.1836786 -0.18131827 0.014694447 -0.029646626 0.0015850483 0.17489284 -0.008071192
0.012491193 0.12375267 -0.14653884 0.0010100472 -0.01833516 -0.006002321 0.031867493 -0.18152176
-0.07003781 -0.05322339 -0.07529973 0.12266467 0.04668955 -0.0010818065 0.25010705 -0.14084816
0.058696583 -0.09908139 0.09310728 -0.0043528588 0.016433181 -0.05636123 -0.045662798 -0.11693277
0.005631366 0.07627884 0.026489558 0.02604535 -0.13722293 -0.07347708 0.10607446 0.0062792054
-0.047905095 0.06205104 -0.14911729 -0.060581077 0.0043276567 -0.042808138 0.05404508 0.14569905
-0.060563162 0.03610634 -0.05004878 -0.0070513887 -0.05234333 -0.06314077 -0.0765656 0.053775344
-0.23185292 -0.0802251 0.03963216 0.00011008959 0.09165995 0.030261451 0.14557564 0.1826999
0.1641342 -0.12255514 0.08631685 -0.0789859 0.060182653 0.021025337 -0.2378153 0.06338021
0.10048037 0.12892044 0.06065086 0.04748551 0.042902924 0.035079744 -0.054329023 0.045504775
-0.064412 0.014067077 0.02199998 0.08004258 0.08579233 0.14482407 0.17059742 0.12905739
0.10346583 0.09722254 -0.058309473 0.13422428 0.13469285 -0.098926455 0.05532002 -0.06644758
0.00873194 0.03460976 -0.036559977 0.038802415 -0.048909035 0.14249729 -0.1008909 0.012805655
0.09692383 0.13431354 -0.015876018 0.023438124 0.03044143 0.056257352 -0.052543666 0.042132556
0.15340532 0.15976153 0.2044112 0.11179485 -0.00456817 0.08260853 -0.079197615 0.08913063
00000000: 9d00 4ebe 5511 d1bc 4a3a a8bd 713b 8cbc
00000010: d364 91bb f12a 8d3d 0661 9d3d 6a55 28be
00000020: dcf0 77bd 2cfb 8e3d 11a5 6cbd 1e91 ccbd
00000030: 9d71 b0bc 8e97 05bd d882 99bd e1b1 0cbe
00000040: 6689 09bd 6035 463c d1f0 92bd 2e70 a2bd
00000050: 9372 a63d a1a1 743d c4d0 0fbe d472 9bbd
00000060: 42a2 723d ea9c 25be 1995 113c 74a0 8e3d
00000070: f24e 543c 9137 80bd 33a8 113e 8e79 883c
00000080: bdb2 ddbd 3529 4bbe e6fa aebd 9f75 04bd
00000090: 2aa3 9ebd 4c75 e9bd 1de0 733d f016 db3b
000000a0: 31e9 6bbe b1c1 f23d f67d 33bd cafd a83d
000000b0: 4786 d2bc b48e ce3d c35d 343d a0b7 aa3d
000000c0: 3e38 4c3d 63ee b73d c048 5abd 3391 ecbd
000000d0: 1fae 71bd 12d4 873e e461 503d a851 02bd
000000e0: 86d7 233d 2d14 bebd 4105 aebd 54ff 94bd
000000f0: 7e46 153e 5e61 2bbe bf94 a93d 76eb 88bd
00000100: 1963 7b3c 621e f9bd 1846 52bc d7f9 dbbd
00000110: 04bc 8abd 7b8c 823e 6756 d4bc afd7 a3bd
00000120: 0317 be3d 208d 2e3e a7cf cabc 585d 4cbe
00000130: 06f6 d1bd 409c 103c 5001 433d 36c8 64bd
00000140: 5e80 193e 6d2e 97bc 8c2a acbc 842b 6abd
00000150: 7b4d 943d ca3f 5ebd 2f83 e1bd a5cd a6bd
00000160: 1b19 553d 6158 a73d de2c 473e 24a9 033d
00000170: be23 2fbe 0c47 41be 2d0e a8bd 20e4 1bbd
00000180: ebb5 24bd d062 4cbd 3344 cabb 0440 10be
00000190: cd0e 9d3d ee62 9bbc 2d32 253c 5567 493c
000001a0: 5cea e0bd 99e6 a53c a4ab 8ebd 3a7f bd3d
000001b0: d5bc 2c3a 8908 69bb 1645 403d 441e 2c3d
000001c0: 605a 113d 9ce5 2bbd 42de d53d 3ee0 00be
000001d0: b905 083e 7ae3 5a3c 74be 943d 769c ef3d
000001e0: 34da e7bd 8dcd 2a3d 36bd f23c 6d24 b93d
000001f0: abad 253d d8c2 433d 2699 12be 25ca 52be
00000200: 2e1c ca3d e63d 5b3e 1871 3d3d b569 76bd
00000210: b8db 3cbd 7284 7b3d dd34 663d d565 483e
00000220: 2b3b 4ebc 3e16 3c3e 7fab 39be fac0 703c
00000230: 7bdd f2bc 65c1 cf3a 1c17 333e 083d 04bc
00000240: dca7 4c3c 0a72 fd3d 470e 16be 8f63 843a
00000250: 9e33 96bc 1eaf c4bb 7d87 023d d7e0 39be
00000260: fc6f 8fbd c500 5abd bf36 9abd 9d37 fb3d
00000270: 8b3d 3f3d 67cb 8dba 080e 803e 803a 10be
00000280: d46b 703d 2feb cabd 08af be3d 6da2 8ebb
00000290: e19e 863c 08db 66bd ea08 3bbd 737a efbd
000002a0: 5287 b83b 1538 9c3d a100 d93c 0f5d d53c
000002b0: 2b84 0cbe 277b 96bd 913d d93d cbc1 cd3b
000002c0: 2238 44bd 3b29 7e3d 34b2 18be dd23 78bd
000002d0: 04cf 8d3b 9657 2fbd 605e 5d3d 2232 153e
000002e0: 1411 78bd 3ee4 133d f3ff 4cbd 560f e7bb
000002f0: f665 56bd f34f 81bd 6dce 9cbd 8943 5c3d
00000300: da6a 6dbe 0f4d a4bd 5555 223d e6df e638
00000310: 36b8 bb3d dde6 f73c c811 153e af15 3b3e
00000320: cc12 283e 30fe fabd e3c6 b03d 5cc3 a1bd
00000330: 1682 763d 543d ac3c db85 73be 7ccd 813d
00000340: a7c8 cd3d b803 043e 096d 783d 2b80 423d
00000350: faba 2f3d c7af 0f3d 1c88 5ebd 3763 3a3d
00000360: 70ea 83bd 9979 663c 4d39 b43c 5ded a33d
00000370: e4b3 af3d c34c 143e 17b1 2e3e 9f27 043e
00000380: e5e5 d33d 9c1c c73d ead5 6ebd 1772 093e
00000390: ecec 093e f499 cabd 3f97 623d ab15 88bd
000003a0: 6910 0f3c f7c2 0d3d eabf 15bd 48ef 1e3d
000003b0: d754 48bd cfea 113e e39f cebd cfce 513c
000003c0: 0080 c63d 7d89 093e 6c0e 82bc 4f01 c03c
000003d0: 4e60 f93c 1c6e 663d 0738 57bd 3093 2c3d
000003e0: 4916 1d3e 8798 233e 2b51 513e b3f4 e43d
000003f0: 96b0 95bb a92e a93d 5c32 a2bd 1f8a b63d

network_body._body_endoder.seq_layers.0.bias f4 [256]
-0.015939964 0.0026348874 -0.0033044491 0.00060013845 0.00060231896 0.0022396746 0.0051476923 0.0050734486
0.007352657 0.00660926 0.012305406 0.007211352 0.00010134101 0.0031525814 0.002272679 0.002817391
-0.0024927019 0.00933139 -0.0010443241 0.0043884297 -0.0009824212 0.010292064 0.0008353286 0.002790807
0.003172091 0.00024941526 0.0011531068 -0.00063621864 0.0060756323 -0.004723628 0.0020876783 0.0065335655
0.010388591 0.0121050365 -0.00406437 -0.0019855308 0.011574163 0.002031997 -0.006391866 0.0077678747
0.0013565184 0.008190973 0.0050552124 0.008413039 0.00417754 0.011780596 0.0077790194 0.01697817
0.011555313 0.008259154 -0.0014433967 0.0082421275 -0.007626139 0.010304827 0.0037260528 0.019695822
0.010579471 0.0067379707 0.01046931 -0.011499265 0.005083491 0.0019505906 -0.0027285651 0.0038767809
-1.3813136e-05 0.003925858 0.0142654115 0.0046379715 0.003755325 0.009506722 -0.007831252 0.00929208
0.0140305115 0.0059707495 0.011610654 -0.011253641 0.0068941694 -0.008335625 0.0011783757 -0.009388069
0.0024555267 0.00025843832 0.0011323191 0.005669738 0.013297167 0.0034556943 0.006697721 0.00767702
0.007881349 -0.008320465 -0.0016813424 0.0068139415 0.0022363574 0.002434432 0.0007305863 4.3639673e-05
-0.002727834 0.00014011897 0.0016005826 -5.1094445e-05 0.004413148 -0.00989253 0.0095768655 0.0029533633
0.003612055 0.0008568165 -0.018428966 0.0047846185 0.0022283602 -0.0019749198 0.0055668633 0.006291517
-0.0060332096 -0.0052836807 0.0016640688 0.000460379 0.005113888 0.00385304 -0.014115405 -0.0031603158
0.008781207 -0.0033810467 0.0020005496 0.009597353 0.015429021 0.000665217 0.0016753721 -0.0017414908
0.0021926044 -0.005149254 0.005115639 0.006401198 0.003210373 0.005747334 0.004750411 -0.0046871467
0.013574019 -0.007840114 0.007966078 -0.016815059 0.003138594 0.008761273 -0.0004782342 0.0011603276
0.007459059 0.0064716632 0.0057246457 -0.000944854 0.0051338165 -0.005827253 0.01475943 0.01527759
0.014726727 0.003501662 0.011516376 0.0055231825 0.004084288 -0.0005521822 0.009508987 0.014441932
0.009146526 0.005531904 0.010440438 0.011580978 0.00025285003 0.00026570953 -0.015315438 0.013576518
0.010689918 0.008756594 -0.002729588 0.016853077 0.014941926 -0.00396813 -0.0034523362 0.008779455
0.0028181302 0.0056518265 0.0010319385 0.010449785 0.009910606 0.00919445 0.003500397 -0.0008427796
-0.01067661 0.0072486885 0.0070044305 -0.0032663983 0.015900265 0.013447166 0.0025424182 -0.014576786
0.0030648108 0.001978211 0.0035832594 -0.0026903702 0.007290796 0.0057445006 0.002515432 0.0096558845
-0.0011772178 0.0012728723 0.008294102 0.010141919 -0.004442261 0.0020955068 -0.0010364433 0.0046607275
-0.0046540503 -0.0009303888 0.011663394 0.0042955833 0.016063176 0.0062108124 0.0025694177 0.010334771
-0.00033735856 0.001817239 0.0037150127 0.012270064 0.00013858177 0.010185811 0.0043903845 0.010673801
0.0061924863 0.0063466216 0.007390621 -0.0013058375 0.0051675835 -0.0010546002 -0.006941677 0.0048171324
0.01039024 0.0052149952 0.006683504 0.0060417717 0.009875433 0.010874625 0.0075321747 0.0039867423
0.003711869 0.0013474171 -0.0014549936 0.0059088515 -0.0038364972 0.007289427 -0.007293334 -0.006224843
0.0020187972 0.008768328 0.0044202013 0.010459123 0.009139987 0.0040273843 -0.008639883 0.012305732
00000000: 8794 82bc 13ae 2c3b 758f 58bb 9c52 1d3a
00000010: f1e4 1d3a 81c7 123b f9ad a83b 2c3f a63b
00000020: 8fee f03b 7e92 d83b 9d9c 493c 344d ec3b
00000030: 0a87 d438 8a9b 4e3b 3af1 143b faa3 383b
00000040: 995c 23bb b0e2 183c b4e1 88ba d1cc 8f3b
00000050: 96c4 80ba 0ca0 283c f4f9 5a3a f9e5 363b
00000060: dbe2 4f3b f3c3 8239 d823 973a e9c7 26ba
00000070: 1916 c73b aac8 9abb 6ed1 083b 8517 d63b
00000080: e934 2a3c 3454 463c 682e 85bb ae1f 02bb
00000090: 8fa1 3d3c 412b 053b dc72 d1bb a889 fe3b
000000a0: 34cd b13a 6e33 063c 32a6 a53b d8d6 093c
000000b0: bfe3 883b 6703 413c 25e7 fe3b ce15 8b3c
000000c0: 7f52 3d3c 6751 073c 5b30 bdba fd09 073c
000000d0: b1e4 f9bb 94d5 283c cb30 743b 2259 a13c
000000e0: 8455 2d3c 32ca dc3b 7887 2b3c 6a67 3cbc
000000f0: 6a93 a63b f6aa ff3a bad1 32bb 9711 7e3b
00000100: f8be 67b7 7ca4 803b 79b9 693c 20fa 973b
00000110: e61b 763b 15c2 1b3c a74e 00bc cf3d 183c
00000120: 3be0 653c 47a6 c33b 9d3a 3e3c 3161 38bc
00000130: 7ce8 e13b 2592 08bc ba73 9a3a 6ad0 19bc
00000140: e7ec 203b 017f 8739 536a 943a 36c9 b93b
00000150: 5cdc 593c ee78 623b 8e78 db3b 838f fb3b
00000160: c620 013c 8f52 08bc 7d60 dcba 7c47 df3b
00000170: da8f 123b fe8a 1f3b d184 3f3a be09 3738
00000180: 76c5 32bb e6ec 1239 a4ca d13a 3e4e 56b8
00000190: 2b9c 903b 4714 22bc 49e8 1c3c 378d 413b
000001a0: 3ab8 6c3b fb9b 603a 58f8 96bc 4ac8 9c3b
000001b0: ae09 123b a86d 01bb 3c6a b63b 1229 ce3b
000001c0: 3bb2 c5bb ba22 adbb e21c da3a 065f f139
000001d0: 6792 a73b 4983 7c3b 4d44 67bc 4d1d 4fbb
000001e0: 0ddf 0f3c 8d94 5dbb a71b 033b 373e 1d3c
000001f0: 01ca 7c3c f561 2e3a 2998 db3a bc42 e4ba
00000200: ccb1 0f3b 13bb a8bb 17a1 a73b 24c1 d13b
00000210: 1f65 523b 2254 bc3b 56a9 9b3b a396 99bb
00000220: 9065 5e3c d273 00bc 2784 023c bcbf 89bc
00000230: dfb0 4d3b 718b 0f3c 82bb fab9 2216 983a
00000240: 1f6b f43b 3f10 d43b cf95 bb3b 14b0 77ba
00000250: 9339 a83b 8bf2 bebb 89d1 713c db4e 7a3c
00000260: 5f48 713c 247c 653b 2faf 3c3c d0fb b43b
00000270: 7ed5 853b 52c0 10ba 95cb 1b3c da9d 6c3c
00000280: 50db 153c f944 b53b 5f0e 2b3c 24be 3d3c
00000290: f590 8439 ee4e 8b39 9aed 7abc 0b70 5e3c
000002a0: c424 2f3c d177 0f3c e3e2 32bb 770f 8a3c
000002b0: fbce 743c 1607 82bb 9740 62bb b4d7 0f3c
000002c0: 61b0 383b f532 b93b 1c42 873a 9335 2b3c
000002d0: 1860 223c 52a4 163c eb66 653b fbed 5cba
000002e0: f3ec 2ebc 6886 ed3b 6c85 e53b 1211 56bb
000002f0: 4641 823c 8151 5c3c b39e 263b 79d3 6ebc
00000300: feda 483b e0a4 013b 1ed5 6a3b ec50 30bb
00000310: a1e7 ee3b 5d3c bc3b f2d9 243b b733 1e3c
00000320: e04c 9aba 82d6 a63a fce3 073c 4b2a 263c
00000330: 6390 91bb c554 093b 44d9 87ba 04b9 983b
00000340: 0181 98bb 56e5 73ba d217 3f3c f7c1 8c3b
00000350: ec96 833c 1284 cb3b ad63 283b 2c53 293c
00000360: 80df b0b9 6c30 ee3a 9277 733b 6108 493c
00000370: 4350 1139 63e2 263c 37dd 8f3b 2be1 2e3c
00000380: 57ea ca3b 52f7 cf3b 062d f23b a328 abba
00000390: d554 a93b 833a 8aba 0277 e3bb 09d9 9d3b
000003a0: d33b 2a3c 8de2 aa3b 4c01 db3b 0efa c53b
000003b0: 91cc 213c 7c2b 323c 76d0 f63b 38a3 823b
000003c0: d442 733b d19b b03a 7cb5 beba 0a9f c13b
000003d0: be6d 7bbb 25dc ee3b ecfc eebb c5f9 cbbb
000003e0: cc4d 043b 09a9 0f3c 56d7 903b be5c 2b3c
000003f0: e2bf 153c 26f8 833b 4c8e 0dbc fb9d 493c

network_body._body_endoder.seq_layers.2.weight f4 [256, 256]
0.046993032 0.050778568 -0.0050357664 -0.008794993 0.018963514 -0.010281007 0.041851044 -0.06898965
0.10184776 -0.03205884 0.08693734 0.08932555 0.021252058 0.07326488 0.042747643 -0.05058589
-0.15127897 -0.04701775 -0.11972724 0.01600625 0.005408442 -0.07657907 -0.012393601 0.045261174
0.06867425 -0.021379372 -0.098461986 -0.05534323 -0.055846427 0.05756685 0.032660283 -0.000923086
-0.03549315 0.0186109 -0.08747538 0.011375084 -0.10024388 0.008015835 0.027265506 -0.0043756724
-0.044273093 0.04483793 -0.076861 0.16975343 -0.044676065 0.023439785 0.053108055 -0.0005013261
-0.0048919483 -0.08693903 0.075789064 0.05187107 -0.018104775 -0.011115124 -0.015320465 0.01728601
-0.025470987 0.107368685 0.033407822 -0.098653145 -0.05449777 0.08663335 -0.079778716 0.013994332
0.009658601 -0.038204994 -0.008842958 -0.059106763 0.06975345 0.014833658 0.042117342 -0.031591747
-0.02802832 -0.043450896 -0.041274123 -0.08811569 0.007904793 0.06586145 0.028621072 -0.078739986
0.07751374 -0.016169142 0.015483435 -0.025071533 -0.0484105 -0.0025360256 0.000107107466 0.044738393
0.06665469 0.015377224 -0.03244264 -0.023573767 0.046470962 0.023840299 -0.07820122 0.038035903
-0.07188925 0.081795655 0.009172627 0.0242193 0.004467924 0.025045859 -0.112231225 0.006733643
-0.036817383 0.0247834 0.0249018 0.08219623 -0.007864794 0.019756574 -0.004627488 0.020037876
-0.03980798 -0.10921313 0.0073839338 -0.016055424 0.092380814 0.06667194 -0.02260423 -0.006055703
-0.06300751 0.006344052 0.010170466 -0.008504856 0.051547416 0.075733386 -0.06853014 -0.12647773
0.025736058 0.11014575 -0.04173149 -0.005369949 -0.0058988403 -0.008350326 0.02929887 -0.12741624
0.012746567 0.10899796 0.0694566 -0.06693142 -0.019759497 0.03826462 0.011883134 0.018744508
0.048329588 0.02766093 -0.123447835 0.072704464 -0.027898813 -0.06497369 -0.045861285 -0.0014859478
0.090436004 -0.031450037 -0.042187095 0.052021164 0.04735871 -0.14047763 0.050584327 0.036217134
-0.0011097243 -0.06803013 0.0058358563 -0.02946412 -0.012961008 -0.058166176 -0.09613894 0.023805419
0.0129052 0.013800269 -0.07433635 -0.067490354 -0.039233975 -0.119618215 -0.043522228 -0.0054405066
0.09579321 -0.02155076 0.10309693 0.066877045 0.019884367 0.021486629 -0.13297883 0.038053494
0.026650159 0.07197665 -0.07327726 -0.038307082 -0.09800796 -0.1773147 -0.0031505488 -0.023026789
-4.1220246e-05 -0.039557282 0.009567843 0.06648326 -0.008465861 -0.008189923 -0.1512181 -0.061797205
0.038160823 0.08575088 -0.00490359 -0.12340051 -0.00436525 0.004179729 -0.008158695 0.0319107
0.0026699228 0.055868078 -0.04234356 0.010127424 0.020131065 0.03765699 0.0064444207 -0.023123922
0.021288756 -0.023511887 -0.12893942 0.008367758 0.033823166 0.041975074 -0.097118676 -0.007984497
0.08125818 -0.00867399 0.04771678 0.05018256 0.06978243 0.039077282 0.014745441 0.010156496
0.03746002 0.0034233278 0.05450274 0.10063798 0.05173654 0.010592353 0.106017835 -0.02502858
-0.037379056 -0.072437964 0.035300843 0.003929938 0.017163984 0.05487039 0.06908952 -0.04968344
0.05588036 0.024545738 -0.02655672 0.06828619 -0.012667196 -0.0032770098 0.05326946 -0.024951907
00000000: c47b 403d 30fd 4f3d 1203 a5bb e018 10bc
00000010: 5f59 9b3c ab71 28bc 006c 2b3d 724a 8dbd
00000020: 8f95 d03d 2150 03bd 340c b23d 50f0 b63d
00000030: cc18 ae3c e60b 963d 2718 2f3d 2633 4fbd
00000040: e0e8 1abe af95 40bd 8e33 f5bd 8a1f 833c
00000050: 4d39 b13b 7dd5 9cbd 880e 4bbc c863 393d
00000060: 16a5 8c3d cb23 afbc 70a6 c9bd 95af 62bd
00000070: 39bf 64bd 38cb 6b3d cac6 053d 41fb 71ba
00000080: 4461 11bd e375 983c 4b26 b3bd 8f5e 3a3c
00000090: aa4c cdbd d954 033c e95b df3c cd61 8fbb
000000a0: b457 35bd faa7 373d 4d69 9dbd d8d3 2d3e
000000b0: 40fe 36bd cb04 c03c d587 593d 6d6b 03ba
000000c0: a34c a0bb 170d b2bd 4c37 9b3d c276 543d
000000d0: 7750 94bc 361c 36bc b002 7bbc 649b 8d3c
000000e0: 88a8 d0bc 1de4 db3d a4d6 083d a90a cabd
000000f0: 0e39 5fbd d36c b13d 0663 a3bd 7c48 653c
00000100: 1c3f 1e3c d77c 1cbd 0ee2 10bc ef19 72bd
00000110: e6da 8e3d df08 733c 3c83 2c3d 5966 01bd
00000120: a69b e5bc 91f9 31bd 0e0f 29bd 0076 b4bd
00000130: 1b83 013c 5ee2 863d bd76 ea3c 6e42 a1bd
00000140: 86bf 9e3d 2675 84bc 3cae 7d3c d162 cdbc
00000150: 174a 46bd 7333 26bb e29e e038 9b3f 373d
00000160: 4182 883d c1f0 7b3c 93e2 04bd c61d c1bc
00000170: 5658 3e3d bb4c c33c f627 a0bd 89cb 1b3d
00000180: ac3a 93bd 7b84 a73d c948 163c 8e67 c63c
00000190: aa67 923b f92c cd3c 7cd9 e5bd e4a5 dc3b
000001a0: d3cd 16bd 8f06 cb3c dcfe cb3c 7f56 a83d
000001b0: 56db 00bc 8ad8 a13c 2fa2 97bb 7926 a43c
000001c0: b10d 23bd 22ab dfbd edf4 f13b aa86 83bc
000001d0: 2732 bd3d 4c8b 883d 822c b9bc eb6e c6bb
000001e0: 150a 81bd c4e1 cf3b 07a2 263c f457 0bbc
000001f0: 6223 533d 1b1a 9b3d 8859 8cbd 6183 01be
00000200: 6dd4 d23c 1894 e13d a4ee 2abd 66f6 afbb
00000210: 0f4b c1bb cecf 08bc 2f04 f03c 6779 02be
00000220: fad6 503c 533a df3d 433f 8e3d 5713 89bd
00000230: abde a1bc 5dbb 1c3d 7ab1 423c 158e 993c
00000240: 3ff5 453d 2d99 e23c 38d2 fcbd 14e6 943d
00000250: 0d8c e4bc ed10 85bd 0bd9 3bbd 22c4 c2ba
00000260: 8336 b93d c1d1 00bd 60cc 2cbd 2514 553d
00000270: 35fb 413d 5ed9 0fbe 8331 4f3d 6b58 143d
00000280: 2b74 91ba 6153 8bbd b63a bf3b bd5e f1bc
00000290: 685a 54bc a83f 6ebd 7ee4 c4bd 9503 c33c
000002a0: 5570 533c 861a 623c a83d 98bd 6238 8abd
000002b0: ceb3 20bd 65fa f4bd 5d44 32bd 4746 b2bb
000002c0: 3b2f c43d 388b b0bc 7c24 d33d d5f6 883d
000002d0: 8ae4 a23c ba04 b03c 9a2b 08be fbdd 1b3d
000002e0: 6f51 da3c 7e68 933d 6312 96bd e3e7 1cbd
000002f0: 66b8 c8bd fc91 35be 7079 4ebb ada2 bcbc
00000300: e7e3 2cb8 d106 22bd 71c2 1c3c 6028 883d
00000310: 65b4 0abc 072f 06bc ebd8 1abe 111f 7dbd
00000320: 864e 1c3d 289e af3d 4bae a0bb 68b9 fcbd
00000330: 5f0a 8fbb 1cf6 883b 0cac 05bc cbb4 023d
00000340: dff9 2e3b edd5 643d 7170 2dbd 7fed 253c
00000350: e7e9 a43c 373e 1a3d b82b d33b 616e bdbc
00000360: c265 ae3c 009c c0bc b208 04be ec18 093c
00000370: 298a 0a3d 0eee 2b3d 28e6 c6bd 68d1 02bc
00000380: b06a a63d 5a1d 0ebc ac72 433d 3a8c 4d3d
00000390: 17ea 8e3d 800f 203d dd96 713c 6f67 263c
000003a0: ae6f 193d e959 603b 443e 5f3d 491b ce3d
000003b0: b2e9 533d 8c8b 2d3c e11f d93d bd08 cdbc
000003c0: c81a 19bd 5b5a 94bd 9e97 103d b6c6 803b
000003d0: 7c9b 8c3c c6bf 603d ce7e 8d3d dd80 4bbd
000003e0: cee2 643d 2514 c93c 7a8d d9bc a1d9 8b3d
000003f0: 128a 4fbc 1ac3 56bb 1431 5a3d f167 ccbc

network_body._body_endoder.seq_layers.2.bias f4 [256]
0.0053602047 0.0010249767 -0.0048546144 0.0035785714 0.0008573256 -0.0005328979 0.0070557906 -0.0003207495
-0.0009084638 -0.0030600417 0.001955043 -0.0034769492 0.0047152606 -0.00071003375 0.004049733 -0.0028558234
-0.0007372135 -0.005115991 0.0026260419 0.009627596 0.00022595744 0.0027341372 0.0004520499 -0.0042944434
-0.0042058504 0.007472654 -0.0059808046 0.0021616383 0.008058685 0.00049669866 -0.0016375297 0.0041916184
-0.005557866 0.0035581728 0.002725832 0.0011138776 0.00795887 0.00093143684 0.004466309 -0.0019368595
-0.0017935518 -3.231425e-05 0.01070002 -0.0028324053 0.003741069 0.0021567575 0.0066647073 0.004797483
0.004302681 0.0006261659 0.0041391863 0.0041349404 -0.0018064749 0.0031445299 0.0038272247 -0.00022308451
-0.0022510826 -0.002445433 -0.004487422 0.012645897 0.00807156 0.009580872 0.00044184647 0.0012956852
-9.664649e-05 -0.006292253 0.0016787094 0.000386085 -0.0029011054 -0.005439941 0.0023686127 -0.0015808551
-0.0087876255 0.00867814 0.0013082167 -0.010988886 -0.0019863667 0.008942847 0.0036637236 0.0077196374
-0.0008578198 -0.0021298658 0.011686847 -0.003705138 -0.00074921455 0.0020536617 0.0058867456 0.0009746348
0.002240491 0.0077300733 0.00030631848 -0.0029001427 -0.0026320182 0.0023739343 0.0028287487 -0.0010326772
0.013120916 0.008957239 0.005544873 0.004846958 0.0030886242 0.0070110876 0.002259842 0.00572712
0.008403687 0.0007911945 0.0053615253 0.0058753835 0.0046220534 0.001745747 0.0066109058 0.007612469
0.00092076755 0.0037525117 0.005377516 0.0025944847 0.001096322 0.0038925086 -0.004699816 0.0030154132
0.001167969 -0.00017707882 0.0109941475 0.006904619 -0.0010446844 0.008839543 0.0056067486 0.003458084
0.013885802 -0.00025352393 0.005042735 -0.0020545288 0.004526401 0.0093482975 0.0036545952 0.0005814334
0.009552649 -0.0007994754 0.0004944835 -0.00084261963 0.0022440378 0.0077489745 0.013159431 0.011794431
-0.00018448898 0.009392919 -0.0029741481 0.00024625877 0.004608349 0.0052662157 0.005274505 0.005415142
0.0016551523 0.0020499558 0.0018096152 0.0049966974 -0.0013907531 -0.0034392383 0.006787889 -0.0017314024
-0.011716168 0.00412645 -0.0053675743 0.002851138 -7.68702e-05 0.008607364 -0.00039204457 -0.011005748
0.006616534 0.0005977425 0.007521897 0.006708869 0.0010036068 0.015336298 0.0025490723 0.011196659
0.008643036 0.0005539197 0.006580328 -0.0077186944 -0.0035167194 -0.0060539874 0.0074373935 0.0065070065
-0.0031550738 0.002496845 0.00076855265 0.0045462335 -0.0013962013 0.0007328704 0.008287112 0.0039038763
-0.013221707 0.0011812679 0.0062570027 0.0054973313 0.001561661 -0.0029828511 0.0057560345 0.0024966476
0.009729681 0.0030930084 0.0019960336 -0.006631762 -0.00019984037 0.0019034251 0.008292836 0.007051481
0.002201449 0.00087313424 0.0053545763 0.011612221 0.0014685143 0.010086474 0.009274839 0.012848062
-0.0048380448 0.008570274 0.008154226 0.007904861 -0.0056194332 -0.010507018 -0.0039877878 -0.0019923148
0.012955477 0.010324622 0.0061696665 0.0043177432 0.0070198723 0.0021138585 0.006150704 0.002317779
0.00298763 -0.014890089 0.0052186768 6.011857e-05 0.008068772 0.006715941 9.7334e-05 0.00262369
0.005662646 0.00494527 0.014005416 0.009971351 0.0021655478 0.0064500445 -0.004184724 -0.0048969816
0.022712952 0.009892072 0.0027850927 -0.0011086882 0.003806247 0.0050652474 -0.00096327247 0.0028028728
00000000: a8a4 af3b 8358 863a 7513 9fbb 7786 6a3b
00000010: 26be 603a 2cb2 0bba 4334 e73b 452a a8b9
00000020: f925 6eba fb8a 48bb 2e20 003b 87dd 63bb
00000030: 7982 9a3b 8f21 3aba 9fb3 843b c428 3bbb
00000040: 8f41 41ba 0ba4 a7bb ac19 2c3b 10bd 1d3c
00000050: fdee 6c39 362f 333b 1c01 ed39 67b8 8cbb
00000060: 3bd1 89bb 2add f43b a0fa c3bb 46aa 0d3b
00000070: 9308 043c e234 023a 61a2 d6ba d859 893b
00000080: c21e b6bb 3c30 693b dfa3 323b 88ff 913a
00000090: ec65 023c ab2b 743a 1e5a 923b 38de fdba
000000a0: 9d15 ebba 2989 07b8 234f 2f3c e09f 39bb
000000b0: b92c 753b 6358 0d3b 9e63 da3b 3434 9d3b
000000c0: 81fd 8c3b 4825 243a 03a2 873b 657e 873b
000000d0: 3dc7 ecba 7514 4e3b 2dd2 7a3b cbeb 69b9
000000e0: e686 13bb 8f43 20bb 390b 93bb bd30 4f3c
000000f0: 943e 043c 17f9 1c3c a1a7 e739 fbd3 a93a
00000100: b0ae cab8 3e2f cebb 2408 dc3a 746b ca39
00000110: 7920 3ebb 8841 b2bb ba3a 1b3b b234 cfba
00000120: f9f9 0fbc c22e 0e3c 7878 ab3a ba0a 34bc
00000130: b42d 02bb 0585 123c 151b 703b 03f5 fc3b
00000140: 50df 60ba 3895 0bbb 307a 3f3c e7d1 72bb
00000150: f066 44ba ba96 063b 9ae5 c03b a27e 7f3a
00000160: 34d5 123b 8e4c fd3b 5f99 a039 5210 3ebb
00000170: f07d 2cbb 0294 1b3b 8762 393b e65a 87ba
00000180: 1cf9 563c 62c1 123c c4b1 b53b 3bd3 9e3b
00000190: 846a 4a3b 44bd e53b db19 143b 91aa bb3b
000001a0: 9eaf 093c 2a68 4f3a bcaf af3b 4a86 c03b
000001b0: 9874 973b 8dd1 e43a 4ca0 d83b 0572 f93b
000001c0: aa5f 713a b3ec 753b e035 b03b 3b08 2a3b
000001d0: 76b2 8f3a 7519 7f3b ea00 9abb 3d9e 453b
000001e0: 8916 993a 3cae 39b9 cc20 343c 2440 e23b
000001f0: cbed 88ba bbd3 103c d1b8 b73b 06a1 623b
00000200: 4681 633c 68eb 84b9 873d a53b 46a5 06bb
00000210: 3452 943b 9a29 193c ef81 6f3b 566b 183a
00000220: b782 1c3c e393 51ba 3aa0 013a 3fe3 5cba
00000230: b510 133b 1ceb fd3b a79a 573c 6e3d 413c
00000240: 6273 41b9 c2e4 193c ede9 42bb 4b1c 8139
00000250: a201 973b 3890 ac3b c1d5 ac3b 8171 b13b
00000260: b2f1 d83a 8d58 063b 9c30 ed3a 56bb a33b
00000270: ee49 b6ba d864 61bb f16c de3b 39f0 e2ba
00000280: 2cf5 3fbc 2c37 873b 7ae2 afbb 28da 3a3b
00000290: 6035 a1b8 e705 0d3c 558b cdb9 7451 34bc
000002a0: 83cf d83b d2b1 1c3a 3f7a f63b 12d6 db3b
000002b0: 758b 833a 1945 7b3c 560e 273b 3172 373c
000002c0: 859b 0d3c ec34 113a cb9f d73b 1aed fcbb
000002d0: c378 66bb 8760 c6bb 61b5 f33b ba38 d53b
000002e0: 5bc5 4ebb 1ca2 233b b278 493a 92f8 943b
000002f0: be00 b7ba 1a1e 403a abc6 073c 2dd8 7f3b
00000300: dc9f 58bc c6d4 9a3a 8b07 cd3b f522 b43b
00000310: a6b0 cc3a f07b 43bb 1e9d bc3b cc9e 233b
00000320: 3d69 1f3c 12b4 4a3b e3cf 023b 404f d9bb
00000330: 3e8c 51b9 597c f93a adde 073c 1c10 e73b
00000340: 2f46 103b 0ce3 643a 7175 af3b 2f41 3e3c
00000350: 2a7b c03a bd41 253c 7ff5 173c ae80 523c
00000360: 7688 9ebb 566a 0c3c 4d99 053c 6483 013c
00000370: 3923 b8bb a125 2cbc fdab 82bb 7f91 02bb
00000380: 3643 543c 9a28 293c ea2a ca3b db7b 8d3b
00000390: f506 e63b a988 0a3b d88b c93b e1e5 173b
000003a0: 1dcc 433b 8ff5 73bc 6f01 ab3b d327 7c38
000003b0: e232 043c 6511 dc3b cb1f cc38 37f2 2b3b
000003c0: b88d b93b ee0b a23b f976 653c e15e 233c
000003d0: ddeb 0d3b e55a d33b 0220 89bb dc76 a0bb
000003e0: 8310 ba3c 5b12 223c 1a86 363b 6751 91ba
000003f0: 3a72 793b 60fa a53b 1f84 7cba 67b0 373b

action_model._continuous_distribution.log_sigma f4 [1, 6]
-0.17877299 -0.00827297 0.02317153 0.038371887 0.0012846952 0.024119487
00000000: 4410 37be 5a8b 07bc 38d2 bd3c d72b 1d3d
00000010: 3863 a83a 3b96 c53c

action_model._continuous_distribution.mu.weight f4 [6, 64]
0.121078916 0.09652747 -0.08195152 0.013859813 0.10193497 -0.040440742 -0.02440104 0.036482222
0.006304865 -0.020463595 0.025792189 0.03280224 0.0862568 0.004399656 -0.12727903 -0.029838834
0.04112685 -0.05970473 -0.033728737 -0.07439057 -0.096806504 0.018283125 -0.025385346 -0.0047414466
-0.085236944 0.053006306 -0.03154142 0.008196383 -0.051753163 -0.070384644 -0.048876204 0.0644597
-0.06780178 0.018929029 0.042403556 0.007651587 0.0017479893 -0.014747121 -0.041992858 0.042179927
0.03924106 -0.044177897 -0.08610248 -0.030993324 -0.097745985 -0.107919864 -0.051249895 -0.08676232
-0.06824671 0.012643215 0.030642053 -0.054511588 0.07749599 -0.10343228 -0.03687374 0.051526982
0.0011977929 -0.03061866 0.0056673167 -0.04726947 0.08859774 0.07504748 0.059282996 0.037630796
-0.08165194 0.035708204 -0.0076811644 -0.021432692 -0.078077056 -0.01188798 -0.0882826 -0.016079042
0.010997426 0.052920695 0.0222066 0.026535835 -0.04662777 0.031150509 0.09101976 -0.012356517
-0.058109973 0.0048170714 0.027992198 0.0148337325 -0.04535177 0.08778162 0.0464235 -0.029065186
-0.004150099 -0.0037651965 0.033238895 -0.03082867 0.037087698 -0.047801234 0.053079512 -0.028456882
-0.005228453 -0.05642505 -0.010368103 0.03234009 0.00025362888 -0.0004503731 0.05639509 -0.0036137046
0.03519602 0.06587949 -0.052073844 0.005028681 0.04100081 -0.07967771 -0.04736365 0.002657657
-0.024667801 0.07644468 -0.10244789 -0.009633829 0.03578183 -0.0021513142 0.03065424 -0.025716009
0.024603065 0.008288525 0.01860093 0.029098812 0.027771713 -0.093324155 0.006426178 0.037830863
-0.003899702 -0.046404675 -0.025399594 -0.0027389908 0.062642194 -0.019401614 -0.021413099 0.040761787
-0.021231199 -0.018847097 -0.015738226 0.009072493 0.038121767 0.05479557 -0.040219307 -0.029664397
-0.04653298 -0.036474526 0.007990442 -0.026295934 -0.0010784653 0.014118973 -0.02791488 0.021915413
0.025967464 0.0077256165 -0.046833858 0.05700032 0.0014357626 -0.005909513 0.00948169 0.03757406
0.013428987 0.022782618 0.031858772 -0.02835689 0.013164491 -0.020067535 -0.0076234173 -0.018406702
0.0143749835 -0.005914861 -0.048047706 0.06695034 0.014363457 -0.07497728 -0.035219166 -3.3945897e-05
-0.039611984 0.008821269 0.033088695 0.0021624472 0.03128827 0.031536754 0.024427416 0.037077013
0.011951686 -0.018334776 0.025141483 -0.008982197 0.0074110166 0.019621924 0.038415115 0.0075288382
0.046863005 -0.0013216403 0.012145392 0.0041629053 0.027022025 -0.0013680055 0.043440476 -0.026329428
0.00504987 -0.052343853 -0.009946685 0.009385114 -0.007970777 0.0074139596 0.0014726715 0.040059295
-0.0024318073 0.018054448 0.0013795114 0.010981068 -0.039602526 0.038772482 -0.017461011 -0.037490416
0.012094875 -0.020081317 0.020527327 0.021410191 0.0006434254 -0.03252409 -0.03601215 0.008574352
0.008267166 0.0066716573 -0.02202573 -0.004258424 -0.020884672 0.027565312 0.011449387 0.024605583
-0.027592609 -0.038134523 0.010090165 -0.05983339 -0.033724435 -0.0036170264 0.030007737 -0.008294475
0.04273553 -0.009725277 -0.022029936 0.02414806 -0.0048939562 0.0017697973 0.028095828 0.027926007
0.03401061 -0.0008351335 0.010077347 0.012379124 0.008601983 -0.015782004 0.049616408 0.0194184
00000000: 39f8 f73d 32b0 c53d 33d6 a7bd 4514 633c
00000010: 48c3 d03d 31a5 25bd b1e4 c7bc 626e 153d
00000020: 0a99 ce3b 45a3 a7bc 244a d33c a45b 063d
00000030: 68a7 b03d fd2a 903b 6f55 02be 9270 f4bc
00000040: a174 283d f28c 74bd 2527 0abd 155a 98bd
00000050: 7d42 c6bd 7ec6 953c eef4 cfbc 235e 9bbb
00000060: b590 aebd 241d 593d 9331 01bd 1f4a 063c
00000070: 20fb 53bd d325 90bd 6a32 48bd 7203 843d
00000080: a9db 8abd 0d11 9b3c 5aaf 2d3d 2aba fa3b
00000090: ca1c e53a e99d 71bc b400 2cbd dcc4 2c3d
000000a0: 3cbb 203d e2f3 34bd 7f56 b0bd b6e5 fdbc
000000b0: 0c2f c8bd 1705 ddbd 69eb 51bd 71b0 b1bd
000000c0: eec4 8bbd 7d25 4f3c 0b05 fb3c 8b47 5fbd
000000d0: 38b6 9e3d 4ed4 d3bd eb08 17bd f50d 533d
000000e0: 43ff 9c3a fcd3 fabc e6b4 b93b a29d 41bd
000000f0: bb72 b53d 7eb2 993d bad2 723d c022 1a3d
00000100: 2239 a7bd c442 123d 47b2 fbbb 9d93 afbc
00000110: dde6 9fbd cdc5 42bc 82cd b4bd 32b8 83bc
00000120: 8c2e 343c 5fc3 583d 9eea b53c ae61 d93c
00000130: c3fc 3ebd 5a2f ff3c 9168 ba3d fd72 4abc
00000140: b904 6ebd 86d8 9d3b e54f e53c 2f09 733c
00000150: c7c2 39bd dac6 b33d 9126 3e3d 1d1a eebc
00000160: 8efd 87bb 84c1 76bb 8225 083d 688c fcbc
00000170: 45e9 173d 3acb 43bd e769 593d 681e e9bc
00000180: 7153 abbb f41d 67bd fade 29bc 0b77 043d
00000190: 7ef9 8439 0e20 ecb9 8afe 663d e7d3 6cbb
000001a0: b429 103d d3eb 863d 624b 55bd a2c7 a43b
000001b0: 77f0 273d 112e a3bd 6300 42bd 162c 2e3b
000001c0: 2114 cabc 078f 9c3d 33d0 d1bd 35d7 1dbc
000001d0: f88f 123d 10fd 0cbb 9a1e fb3c 61aa d2bc
000001e0: 5e8c c93c 98cc 073c fa60 983c a260 ee3c
000001f0: 8181 e33c bc20 bfbd b092 d23b 89f4 1a3d
00000200: 2592 7fbb d412 3ebd cf12 d0bc a480 33bb
00000210: 8d4a 803d 22f0 9ebc 866a afbc d5f5 263d
00000220: 0ded adbc 3a65 9abc 74ed 80bc cba4 143c
00000230: 9225 1c3d 5271 603d 00bd 24bd c002 f3bc
00000240: 5e99 3ebd 5066 15bd 58ea 023c 926a d7bc
00000250: 4a5b 8dba 4453 673c bfad e4bc f487 b33c
00000260: b8b9 d43c 2b27 fd3b dcd4 3fbd 2b79 693d
00000270: 3330 bc3a 97a4 c1bb 1759 1b3c 42e7 193d
00000280: 4105 5c3c 9da2 ba3c 587e 023d b54c e8bc
00000290: e1af 573c ac64 a4bc dccd f9bb a7c9 96bc
000002a0: 0d85 6b3c 73d1 c1bb accd 44bd 431d 893d
000002b0: b554 6b3c b08d 99bd f941 10bd 2161 0eb8
000002c0: 2d40 22bd 1587 103c 0388 073d d8b7 0d3b
000002d0: 2128 003d af2c 013d 011c c83c 11de 173d
000002e0: 01d1 433c d032 96bc 83f5 cd3c 112a 13bc
000002f0: 1dd8 f23b 28be a03c 2b59 1d3d 79b4 f63b
00000300: 6cf3 3f3d e43a adba 77fd 463c fb68 883b
00000310: 4b5d dd3c a64e b3ba a4ee 313d d0b0 d7bc
00000320: 6179 a53b 8266 56bd 6cf7 22bc 05c4 193c
00000330: dd97 02bc cdf0 f23b a806 c13a 3715 243d
00000340: f55e 1fbb ece6 933c b9d0 b43a f0e9 333c
00000350: 4236 22bd e5cf 1e3d 650a 8fbc 8d8f 19bd
00000360: 9529 463c 9381 a4bc ed28 a83c 6d64 af3c
00000370: 8cab 283a fb37 05bd 7a81 13bd 707b 0c3c
00000380: 0273 073c eb9d da3b 4e6f b4bc 408a 8bbb
00000390: 5516 abbc a6d0 e13c 3696 3b3c a691 c93c
000003a0: e509 e2bc f232 1cbd 3851 253c db13 75bd
000003b0: a222 0abd a20b 6dbb c9d2 f53c 8de5 07bc
000003c0: 730b 2f3d c556 1fbc 2078 b4bc 27d2 c53c
000003d0: 7b5d a0bb 8bf8 e73a 3929 e63c 15c5 e43c
000003e0: b64e 0b3d dcec 5aba 751b 253c cfd1 4a3c
000003f0: 55ef 0c3c 4349 81bc 933a 4b3d 5613 9f3c

action_model._continuous_distribution.mu.bias f4 [6]
0.011397628 -0.00067018747 -0.0028688908 -0.008912527 -0.008534521 0.0028262977
00000000: 1ebd 3a3c 85af 2fba 0004 3cbb d905 12bc
00000010: 60d4 0bbc 6839 393b

onnx::LSTM_101 f4 [1, 256, 256]
0.1275859 -0.10972443 -0.051831692 0.16382931 0.091604315 0.014863427 0.13379444 0.0859879
-0.017782953 -0.08034813 0.153766 -0.08351244 -0.13721257 -0.094567515 0.17232628 -0.05907387
0.085683934 -0.10345146 -0.08952282 -0.011524434 -0.11162008 0.07795936 -0.045187622 -0.08668536
0.10065899 0.19462807 -0.123257585 0.16190201 -0.024309812 0.067817286 0.15326943 -0.06675714
0.06581079 0.08125831 0.11103372 -0.08257678 -0.032657918 0.08718891 -0.04706761 -0.037924644
0.07620507 -0.08267746 0.15306553 0.027084712 -0.13512488 0.09607653 -0.048272725 0.08878254
0.18787307 0.14834584 -0.074067675 -0.07909306 0.025958156 -0.007083236 0.1447925 -0.09867199
0.16492087 0.015731895 -0.04626613 -0.1337677 0.04992044 0.14940974 0.050089933 0.06437558
-0.0051646614 -0.07855042 -0.023273222 -0.055637334 -0.02098911 -0.12330562 0.07763533 -0.0055855196
-0.11286398 0.018898914 -0.07102598 -0.04089954 -0.06707243 -0.08502764 -0.030555468 -0.022212224
-0.14891292 0.13431866 0.094698556 0.019127363 0.08941156 -0.054213192 0.18132627 0.080218725
-0.0050753783 0.13889673 0.07367525 -0.16033806 -0.11424358 -0.060850743 0.071098275 -0.09522799
0.091570504 0.020475416 -0.02321509 -0.074538305 -0.07927232 0.08267888 -0.057625912 0.076969214
-0.055545334 0.023952577 0.012966741 -0.072244 0.00804387 -0.050634634 -0.05929917 -0.006921516
0.048900846 -0.0302847 0.17134231 -0.13647138 -0.049896054 0.04669029 -0.09453727 0.023320183
0.074800335 0.111875474 0.14388894 -0.00094609364 0.044423983 -0.014802097 0.091175504 0.05324813
0.11309666 0.076958634 -0.027968686 0.0838924 0.06594347 -0.057867676 0.12670307 0.14508764
0.17923003 -0.14457622 -0.0041567124 -0.00031519835 0.0680215 0.14258608 -0.06403339 -0.028384391
-0.0122655425 -0.09221383 0.06727124 0.062456753 0.14040343 0.058590535 0.062436733 -0.023787055
-0.15538478 -0.0028656342 -0.08784784 -0.063527904 0.13627882 -0.059915192 0.119642645 -0.101224765
-0.16917126 0.120183095 0.03911035 0.041201476 -0.0429806 -0.036121078 -0.027887201 -0.047930576
0.00798583 -0.083874695 0.11367074 0.04055094 -0.04794841 0.21014842 -0.048849083 0.1547387
0.10555042 0.041750837 -0.050114736 0.041884825 -0.021915073 -0.11720031 0.13325788 0.096044734
0.010933176 -0.07354625 0.12422956 0.0814139 0.14548814 -0.027227923 0.07942986 0.08232706
-0.034737825 0.030796522 0.069959566 0.1778957 0.027885854 -0.078127466 0.073311746 -0.0045700455
0.18322015 -0.0038393028 0.0014457867 -0.0922105 -0.13884796 0.11493986 0.053096958 0.049450744
0.049333252 -0.0022360508 0.116374195 0.12532501 -0.015634663 0.024113614 0.15017922 0.16870204
-0.17925054 0.037844926 0.010831172 0.1438566 -0.120010905 -0.010707771 -0.022177812 0.11321054
0.014628935 0.05748014 0.030325351 0.04503376 0.17602369 -0.13586538 -0.068360694 -0.13174091
-0.033007137 0.06766818 -0.022842307 -0.084253706 0.12511191 0.025931979 -0.13075867 0.034153365
0.020617688 0.006437086 0.03607698 0.011880072 0.009681714 -0.06135608 -0.14045231 0.0400309
0.02210911 0.061420944 -0.020193495 -0.07705798 -0.094934866 0.03489319 -0.109686345 0.04102903
00000000: e1a5 023e 34b7 e0bd 784d 54bd dfc2 273e
00000010: 0b9b bb3d bb85 733c 6901 093e 6d1a b03d
00000020: 8ead 91bc 8f8d a4bd d674 1d3e 9208 abbd
00000030: 7481 0cbe 9dac c1bd 4d76 303e 71f7 71bd
00000040: 0f7b af3d 5cde d3bd be57 b7bd fbd0 3cbc
00000050: 1299 e4bd 28a9 9f3d a816 39bd 1888 b1bd
00000060: 4d26 ce3d 954c 473e 796e fcbd a4c9 253e
00000070: 5f25 c7bc cae3 8a3d a9f2 1c3e f8b7 88bd
00000080: cfc7 863d c26a a63d a665 e33d 041e a9bd
00000090: 4fc4 05bd 1990 b23d f7c9 40bd df56 1bbd
000000a0: 6711 9c3d cd52 a9bd 36bd 1c3e c2e0 dd3c
000000b0: 2d5e 0abe c6c3 c43d 9fb9 45bd 9fd3 b53d
000000c0: cc61 403e f9e7 173e cbb0 97bd 8bfb a1bd
000000d0: 33a6 d43c 7d1a e8bb 7c44 143e 8a14 cabd
000000e0: 04e1 283e 2de0 803c 8e81 3dbd 66fa 08be
000000f0: 6079 4c3d defe 183e 1a2b 4d3d 58d7 833d
00000100: 523c a9bb 0bdf a0bd 7ca7 bebc f9e3 63bd
00000110: 5bf1 abbc a887 fcbd 46ff 9e3d bc06 b7bb
00000120: 3b25 e7bd e5d1 9a3c 1276 91bd 4786 27bd
00000130: 455d 89bd f922 aebd 764f fabc 69f6 b5bc
00000140: a17c 18be d58a 093e 51f1 c13d fdb0 9c3c
00000150: 681d b73d a70e 5ebd 98ad 393e b749 a43d
00000160: 5c4f a6bb f23a 0e3e 0de3 963d a92f 24be
00000170: 8af8 e9bd a13e 79bd f99b 913d e406 c3bd
00000180: 5189 bb3d 0fbc a73c 932d bebc 8aa7 98bd
00000190: 8759 a2bd 8b53 a93d 2609 6cbd 09a2 9d3d
000001a0: 8183 63bd 3238 c43c 7472 543c aaf4 93bd
000001b0: 70ca 033c 4366 4fbd b0e3 72bd e2cd e2bb
000001c0: 414c 483d 9f17 f8bc 5c74 2f3e 27bf 0bbe
000001d0: ce5f 4cbd 513e 3f3d c29c c1bd f809 bf3c
000001e0: eb30 993d f81e e53d 9f57 133e 4503 78ba
000001f0: ecf5 353d 7f84 72bc 39ba ba3d b61a 5a3d
00000200: 399f e73d 7d9c 9d3d 961e e5bc c7cf ab3d
00000210: 5f0d 873d a806 6dbd 73be 013e db91 143e
00000220: 1488 373e ca0b 14be 0835 88bb 3541 a5b9
00000230: db4e 8b3d 1602 123e f023 83bd 6286 e8bc
00000240: 6af5 48bc 9bda bcbd 81c5 893d a7d2 7f3d
00000250: ebc5 0f3e a1fc 6f3d a9bd 7f3d 12dd c2bc
00000260: 301d 1fbe 5dcd 3bbb 91e9 b3bd eb1a 82bd
00000270: ad8c 0b3e a269 75bd 3407 f53d ee4e cfbd
00000280: 3b3b 2dbe 8e22 f63d 2d32 203d e1c2 283d
00000290: 6d0c 30bd b2f3 13bd b373 e4bc da52 44bd
000002a0: 00d7 023c 7fc6 abbd 34cc e83d be18 263d
000002b0: 8d65 44bd 2631 573e fa15 48bd d273 1e3e
000002c0: d22a d83d ed02 2b3d 1c45 4dbd 6c8f 2b3d
000002d0: 3d87 b3bc b706 f0bd c174 083e 1ab3 c43d
000002e0: 1021 333c 6b9f 96bd 116c fe3d 55bc a63d
000002f0: d8fa 143e 180d dfbc 1fac a23d 179b a83d
00000300: 4049 0ebd fd48 fc3c f646 8f3d 4a2a 363e
00000310: e070 e43c 4b01 a0bd 7824 963d 52c0 95bb
00000320: 109e 3b3e d09c 7bbb 8d80 bd3a dcd8 bcbd
00000330: 292e 0ebe 9765 eb3d 327c 593d dd8c 4a3d
00000340: aa11 4a3d b58a 12bb 9855 ee3d 3355 003e
00000350: 4414 80bc ea89 c53c 95c8 193e 3ac0 2c3e
00000360: 748d 37be 4803 1b3d 3a75 313c 254f 133e
00000370: 47c8 f5bd a66f 2fbc 3eae b5bc edda e73d
00000380: 33ae 6f3c 4c70 6b3d df6c f83c 5275 383d
00000390: 8e3f 343e 4b20 0bbe b100 8cbd 17e7 06be
000003a0: 7e32 07bd 9d95 8a3d ca1f bbbc 358d acbd
000003b0: 561d 003e 4d6f d43c 9ae5 05be 66e4 0b3d
000003c0: 6de6 a83c 31ee d23b 75c5 133d a2a4 423c
000003d0: 0da0 1e3c 8350 7bbd bbd2 0fbe 71f7 233d
000003e0: 2a1e b53c 8794 7b3d d46c a5bc 93d0 9dbd
000003f0: 366d c2bd 29ec 0e3d 3ca3 e0bd 0e0e 283d

onnx::LSTM_102 f4 [1, 256, 64]
-0.17344554 -0.12684667 0.016791178 -0.1332162 0.091330186 -0.046732094 0.07689578 -0.23191495
-0.1433751 0.14953037 0.20590484 0.0007490187 -0.12895605 -0.13485602 -0.08131434 -0.06508983
0.06782928 -0.016905282 0.102009095 0.19980063 0.100330375 0.13940969 0.022522401 0.2610732
-0.04966866 0.17289656 0.1253248 0.11740644 -0.13540329 0.17454715 0.21047759 0.023605019
0.15939046 -0.082597226 0.23062606 0.21894008 0.1369061 0.0365057 0.018764779 0.1481835
0.15310553 -0.06616019 -0.24773619 0.13914664 0.025999546 -0.006238588 -0.11438025 -0.07040287
-0.024659505 0.016880574 0.25913042 -0.005517851 0.17648883 0.14888918 -0.007982096 0.11231959
0.0034674443 0.18704495 -0.1667926 -0.042294215 -0.10381027 0.14044476 0.15308885 0.056050632
0.20522311 -0.1290154 -0.13331449 0.084966995 -0.19438069 0.08780449 -0.10959787 0.028393885
0.07903469 0.20998777 -0.21009842 -0.18516563 -0.09664376 0.10088687 -0.119374804 0.1783436
0.13370913 0.10979916 0.14748417 -0.10522044 0.13725834 -0.06637739 -0.06034485 0.17323361
0.08388612 0.20305917 -0.1178731 -0.19432786 -0.13636598 0.030380307 -0.076520346 0.19714521
-0.18889338 0.044134762 0.19713472 0.15124024 -0.14612028 0.16400401 -0.1336623 0.045259725
0.05329248 0.21182959 0.19812599 -0.10999873 -0.09106403 0.17194022 -0.009090081 0.035337802
0.06827055 0.09907806 0.0485447 0.1973415 0.029295329 0.114088506 -0.07949239 0.13975364
0.033169065 -0.09858057 -0.09651493 -0.03331894 0.12294882 0.082520865 0.090484254 -0.05712883
0.19935721 -0.18513374 0.15748738 0.11493311 -0.05244697 -0.09822104 0.04527356 -0.19005427
0.18608117 -0.12558307 0.07486753 -0.1658331 -0.124531575 -0.06283032 -0.16723394 -0.20543887
0.12562154 -0.07500592 -0.16857268 -0.053172316 0.015079364 -0.16433567 -0.086868174 0.14510247
0.15215419 0.11008683 0.072875336 0.0074834414 -0.07679243 -0.035540584 -0.07638785 -0.15235507
-0.017383717 -0.1111795 -0.0020177753 0.15859428 0.13350293 -0.032360267 -0.1558222 -0.08011038
0.019305287 0.18750416 0.036894698 -0.11216666 0.059070785 0.21440892 -0.114822164 0.038659893
-0.026263846 -0.013556641 0.1546311 -0.19390285 0.07834474 -0.027858265 0.088793054 0.11876176
0.027339177 0.031592682 -0.0627386 -0.18084724 0.20914531 0.026661517 0.045154452 0.20684028
-0.023060728 -0.015521026 0.18638098 0.09420954 -0.04628902 0.017346418 -0.07866879 0.18549989
-0.048171192 -0.18405029 -0.12736028 0.052441567 0.07218669 -0.15343349 0.08151572 0.018538956
-0.053396493 0.18700239 0.013403623 0.060902596 -0.098059766 0.11089232 0.05956641 -0.19337788
-0.077415586 0.20017882 0.026172584 0.008085268 0.19313438 0.036708754 0.05728574 -0.15656075
0.09154681 -0.00173434 -0.14687072 -0.18247597 0.20589034 -0.16652004 -0.06294981 -0.19936134
0.11873925 -0.038615253 0.19579367 0.15271962 -0.053011052 -0.05280089 -0.107990995 -0.010057389
0.059829693 0.09129599 -0.18579333 -0.095024385 0.16735634 -0.120195426 0.022313807 -0.10016112
-0.15609144 0.039387584 0.15254629 -0.20826122 0.204664 0.014514872 -0.08597623 0.20803273
00000000: b59b 31be 18e4 01be a78d 893c d469 08be
00000010: 520b bb3d 276a 3fbd 897b 9d3d 1d7b 6dbe
00000020: ecd0 12be 7d1e 193e b8d8 523e cb59 443a
00000030: 0e0d 04be b217 0abe 2288 a6bd d14d 85bd
00000040: 14ea 8a3d f27c 8abc 25ea d03d 8998 4c3e
00000050: 037a cd3d 6ac1 0e3e e680 b83c 63ab 853e
00000060: 5d71 4bbd cc0b 313e 2555 003e ca72 f03d
00000070: 29a7 0abe 7dbc 323e 7087 573e 505f c13c
00000080: 4137 233e bc28 a9bd 3d29 6c3e d431 603e
00000090: 1d31 0c3e 0087 153d 98b8 993c 6abd 173e
000000a0: b2c7 1c3e fe7e 87bd 8eae 7dbe 757c 0e3e
000000b0: 00fd d43c 126d ccbb 3140 eabd 612f 90bd
000000c0: bb02 cabc 2149 8a3c beac 843e 17cf b4bb
000000d0: 7db9 343e 6876 183e 56c7 02bc d007 e63d
000000e0: 103e 633b b688 3f3e aecb 2abe b33c 2dbd
000000f0: 7b9a d4bd c0d0 0f3e 53c3 1c3e 5995 653d
00000100: 0226 523e 9d1c 04be 9883 08be 2d03 ae3d
00000110: bb0b 47be d7d2 b33d d974 e0bd 4b9a e83c
00000120: f1dc a13d 0907 573e 0a24 57be 0f9c 3dbe
00000130: 2aed c5bd c69d ce3d c77a f4bd b49f 363e
00000140: 0ceb 083e 62de e03d 1706 173e d07d d7bd
00000150: 738d 0c3e def0 87bd 292c 77bd 2764 313e
00000160: 7ccc ab3d beee 4f3e 7467 f1bd e2fd 46be
00000170: 86a3 0bbe 1fe0 f83c b3b6 9cbd 6fe0 493e
00000180: 446d 41be a7c6 343d afdd 493e b9de 1a3e
00000190: 8ea0 15be abf0 273e c5de 08be 4362 393d
000001a0: 3749 5a3d dbe9 583e 8ae1 4a3e 0447 e1bd
000001b0: c77f babd 1911 303e 90ee 14bc 5fbe 103d
000001c0: 6ed1 8b3d 70e9 ca3d cfd6 463d e413 4a3e
000001d0: c2fc ef3c 3ca7 e93d e8cc a2bd 941b 0f3e
000001e0: 49dc 073d 9ce4 c9bd 9fa9 c5bd 7179 08bd
000001f0: 97cc fb3d b300 a93d cf4f b93d ecff 69bd
00000200: 4c24 4c3e b393 3dbe 5f44 213e 0d62 eb3d
00000210: a2d2 56bd 1d28 c9bd c570 393d 969d 42be
00000220: 108c 3e3e d998 00be 2654 993d 27d0 29be
00000230: 690a ffbd 2fad 80bd 603f 2bbe 915e 52be
00000240: efa2 003e b49c 99bd 519e 2cbe 37cb 59bd
00000250: 700f 773c 9c47 28be f1e7 b1bd be95 143e
00000260: 4fce 1b3e 3475 e13d aa3f 953d a837 f53b
00000270: 5945 9dbd 0193 11bd 3c71 9cbd f802 1cbe
00000280: 4c68 8ebc 14b2 e3bd a73c 04bb 8a66 223e
00000290: feb4 083e 338c 04bd db8f 1fbe e910 a4bd
000002a0: 1f26 9e3c 1701 403e e51e 173d a2b7 e5bd
000002b0: 35f4 713d 038e 5b3e e227 ebbd d659 1e3d
000002c0: 4727 d7bc ac1c 5ebc 9d57 1e3e 788e 46be
000002d0: 3573 a03d 0437 e4bc 22d9 b53d 5e39 f33d
000002e0: 69f6 df3c 5467 013d 187d 80bd 0530 39be
000002f0: 302a 563e 4169 da3c e0f3 383d f0cd 533e
00000300: dae9 bcbc e74b 7ebc a8da 3e3e eef0 c03d
00000310: 8e99 3dbd 131a 8e3c 1a1d a1bd aff3 3d3e
00000320: 284f 45bd ae77 3cbe bc6a 02be f8cc 563d
00000330: 9ed6 933d ab1d 1dbe b7f1 a63d 02df 973c
00000340: 48b6 5abd 8e7d 3f3e df9a 5b3c 0075 793d
00000350: 8fd3 c8bd 831b e33d e8fb 733d da04 46be
00000360: 108c 9ebd adfb 4c3e e367 d63c 1278 043c
00000370: 05c5 453e eb5b 163d 74a4 6a3d 7651 20be
00000380: e57c bb3d cb52 e3ba 4765 16be fbda 3abe
00000390: ebd4 523e 3b84 2abe d4eb 80bd 6125 4cbe
000003a0: 902d f33d 072b 1ebd 237e 483e 8862 1c3e
000003b0: 1e22 59bd bf45 58bd 622a ddbd bfc7 24bc
000003c0: fb0f 753d 64f9 ba3d 9b40 3ebe 259c c2bd
000003d0: 765f 2b3e 0529 f6bd 72cb b63c 4621 cdbd
000003e0: 6fd6 1fbe e054 213d 1835 1c3e 6e42 55be
000003f0: 7193 513e c9cf 6d3c 4e14 b0bd 8806 553e
