code/selfparking/mla/results/run_06/Car.onnx (onnx, 710320 bytes, 10 tensors)

network_body._body_endoder.seq_layers.0.weight f4 [256, 109]
0	0xbdc0d6f3	-0.09415998
1	0x3dd2ee80	0.102993965
2	0x3c4ef67b	0.012632008
3	0x3dd395c1	0.10331298
4	0x3d8c3bf9	0.068473764
5	0x3bc1eb39	0.0059179333
6	0x3d70a2a5	0.05874886
7	0x3e856e47	0.26060697
8	0x3d323b38	0.043513507
9	0x3d931e84	0.07183555
10	0x3d5e2cbb	0.054241877
11	0x3e801c71	0.250217
12	0x3d4344df	0.047673102
13	0xbdbaae28	-0.09115249
14	0x3e4e019c	0.20117801
15	0x3e8ee564	0.27909386
16	0xbc330a19	-0.0109277
17	0x3d678228	0.05652061
18	0xbe0c4775	-0.13699134
19	0x3e93538d	0.28774682
20	0x3cb4124d	0.021981383
21	0xbdad7960	-0.08470416
22	0xbe0cb00b	-0.1373903
23	0xbe11ddd2	-0.14244774
24	0xbe3c789c	-0.18405384
25	0x3e524796	0.2053512
26	0x3d3b70d1	0.045761887
27	0x3e35e2eb	0.17762344
28	0x3d92e180	0.07171917
29	0x3ddf69e8	0.10908872
30	0x3c1a2bcf	0.009409859
31	0xbde9f1d1	-0.11423076
32	0xbca18ef5	-0.019721488
33	0x3c8b9929	0.017040806
34	0x3d014a6f	0.031565126
35	0x3db2dd24	0.087335855
36	0xbdc30140	-0.09521723
37	0x3d5365b9	0.051610682
38	0xbe4e829e	-0.20167014
39	0xbd9ebe3b	-0.07751127
40	0xbdbac0a5	-0.09118775
41	0x3ccb460a	0.02481367
42	0x3a482089	0.00076342426
43	0x3e3fc1c9	0.18726267
44	0x3c222c7a	0.009898299
45	0x3d8a8d5e	0.06765245
46	0xbc45fb7d	-0.012083885
47	0x3de1193f	0.109911434
48	0x3d4ad09b	0.049515348
49	0x3c5f8558	0.0136426315
50	0xbcfc1172	-0.030770037
51	0xbe1defb8	-0.15423477
52	0xbe0922c2	-0.13392165
53	0xbbf9dcfb	-0.00762522
54	0xbd47a360	-0.04873979
55	0xbe324b1d	-0.17411466
56	0x3e2a4acb	0.16630094
57	0xbe00813b	-0.12549298
58	0x3c6bf1af	0.014400884
59	0x3d992577	0.07477849
60	0x3d92ef38	0.071745336
61	0xbd0e471c	-0.034735784
62	0xbde7bacb	-0.11314925
63	0x3d908385	0.07056335
64	0x3c98ff8a	0.018676538
65	0xbdf720c1	-0.12066794
66	0x3c9b2695	0.018939296
67	0xbeacc64f	-0.33745047
68	0xbd15df7f	-0.036590096
69	0x3e4d0de4	0.2002483
70	0x3c92dcd9	0.017927574
71	0xbe1130bd	-0.14178748
72	0xbd484a92	-0.04889924
73	0x3b5b0c6d	0.0033424154
74	0xbde9f794	-0.11424175
75	0xbd99bb01	-0.07506371
76	0x3d2766a3	0.040869366
77	0x3e74d54f	0.23909496
78	0x3ba9e3ef	0.0051846425
79	0x3e021ae6	0.12705573
80	0xbc382b9e	-0.011240868
81	0x3e1799cc	0.14804763
82	0xbc85cbcf	-0.016332535
83	0x3dd82efe	0.10555838
84	0xbea8559b	-0.32877812
85	0x3da286e0	0.079358816
86	0x3e89edc0	0.269392
87	0x3e06e04c	0.131715
88	0xbd20f144	-0.03929259
89	0xbe720197	-0.23633419
90	0xbe1353bd	-0.14387412
91	0x3d653b40	0.05596471
92	0xbc93b4ad	-0.018030489
93	0x3dd94e1d	0.10610602
94	0xba8e4fd5	-0.0010857532
95	0xbdbe93cc	-0.09305534
96	0x3bb59de1	0.0055425023
97	0x3cebb7eb	0.028774222
98	0x3e1fdc2b	0.15611331
99	0x39b9a41b	0.00035408218
100	0xbda85083	-0.082184814
101	0xbc943a25	-0.018094132
102	0x3d8eb64a	0.06968363
103	0x3e45811a	0.1928753
104	0xbdbbfecf	-0.0917946
105	0x3c9a03b5	0.018800596
106	0xbe2d4c52	-0.16923645
107	0x3de9b17d	0.11410806
108	0x3d3d6361	0.046237353
109	0xbe00b172	-0.1256769
110	0x3d8956a0	0.067059755
111	0xbe1e6cdc	-0.15471214
112	0x3e6a550f	0.2288401
113	0x3d18005c	0.037109718
114	0x3d82c67a	0.06385513
115	0xbda903d3	-0.082526825
116	0x3e673b45	0.22581203
117	0x3d130e74	0.035902455
118	0xbdff38c2	-0.124619976
119	0x3d84c6aa	0.06483205
120	0x3e45cd4f	0.193166
121	0xbdb2e311	-0.08734716
122	0x3c9609bd	0.01831519
123	0x3db59a81	0.0886736
124	0x3ec05f19	0.37572554
125	0xbe8f4de6	-0.2798912
126	0x3e464b60	0.19364691
127	0xbdf289f4	-0.11842719
128	0x3e3c565d	0.1839232
129	0x3b3a494a	0.0028425031
130	0x3d4a350b	0.049366992
131	0xbdbfcf75	-0.09365741
132	0x3d907888	0.070542395
133	0xbe6949fd	-0.2278213
134	0xbe40719b	-0.18793337
135	0xbc1d9f7a	-0.009620542
136	0x3e57778f	0.21041702
137	0x3d5c991c	0.053856954
138	0x3cab8386	0.020936739
139	0x3d747952	0.059686013
140	0xbce7ab41	-0.028279902
141	0x3d9e43d0	0.07727778
142	0x3cce789a	0.025203992
143	0x3c47bf1d	0.012191561
144	0xbd5bf51e	-0.05370056
145	0x3d01246d	0.03152888
146	0x3d81eaf8	0.06343645
147	0x3dc3d6ee	0.09562479
148	0xbd7bb85a	-0.06145511
149	0xbda43ea1	-0.08019758
150	0xbcf1652a	-0.029467184
151	0x3dbb9bfa	0.091606095
152	0x3e058436	0.13038716
153	0x3e683d90	0.22679734
154	0x3da2b24b	0.07944163
155	0x3d79b607	0.06096461
156	0x3d1744a3	0.03693069
157	0x3e19cc3a	0.15019313
158	0xbd8fd80a	-0.07023628
159	0x3b0dfa8b	0.0021664228
160	0xbe43aa92	-0.19108036
161	0xbcb77b1a	-0.022397567
162	0x3da82c06	0.08211522
163	0xbd9480be	-0.07251118
164	0xbd6d12ff	-0.057879444
165	0x3de8a655	0.1135985
166	0x3d654f10	0.055983603
167	0x3b74e574	0.003736821
168	0x3d23866e	0.039923124
169	0x3db70d1b	0.089380465
170	0xbd224fe9	-0.03962699
171	0xbc868338	-0.016419992
172	0xbe5f3434	-0.21797258
173	0x3c402105	0.0117266225
174	0xbca06998	-0.019581601
175	0x3d874022	0.06604029
176	0x3bc5d072	0.0060368115
177	0x3dc163f9	0.094428964
178	0xbddbd1fa	-0.10733409
179	0xbda3d552	-0.07999672
180	0xbdcd8850	-0.10035765
181	0x3d743210	0.059618056
182	0x3db8610a	0.09002884
183	0x3d7629d9	0.060098503
184	0xbd1a04b8	-0.037602156
185	0xbdeda605	-0.11603931
186	0xbd0590e5	-0.032608885
187	0xbd340306	-0.043948196
188	0x3cefebf2	0.029287312
189	0xbc6a4c8f	-0.01430048
190	0xbdcae1cf	-0.09906351
191	0xbe34bc3a	-0.17649928
192	0x3e0a5bb3	0.13511543
193	0xbdcb1055	-0.099152245
194	0x3dd96c15	0.10616318
195	0x3df7996c	0.1208981
196	0xbd01a3fe	-0.031650536
197	0xbdcee52c	-0.10102305
198	0xbdf16ef8	-0.11788744
199	0x3e38214b	0.1798145
200	0xbbe2e0c7	-0.006923768
201	0x3df62c49	0.120201655
202	0x3e4ae0f4	0.19812375
203	0x3ddb4857	0.10707157
204	0xbd09c29f	-0.03363287
205	0x3dee0712	0.11622442
206	0xbdea0faa	-0.11428769
207	0x3e31871a	0.17336693
208	0xbd08f56f	-0.03343719
209	0xbd87f043	-0.06637623
210	0xbdb91b50	-0.090384126
211	0xbdff5d88	-0.124690115
212	0x3d4a41c2	0.049379118
213	0xbe0b2a3f	-0.13590334
214	0xbd0bce92	-0.034132548
215	0xbe33a411	-0.17543055
216	0x3e3d9d8c	0.1851713
217	0x3d074cfb	0.0330324
218	0xbd848268	-0.064701855
219	0xbdd088c3	-0.10182335
220	0x3e03d31e	0.12873504
221	0x3e7259b9	0.23667039
222	0xbc48324c	-0.012219023
223	0xbda00e09	-0.07815177
224	0x3d3dbadf	0.046320792
225	0x3ec3992a	0.38202792
226	0x3bf5f9d4	0.0075065885
227	0xbd8c3955	-0.06846873
228	0x3dcf6e06	0.10128407
229	0x3ec051cf	0.37562415
230	0xbdb765e2	-0.089549795
231	0x3db435b7	0.08799308
232	0xbe83d69f	-0.2574968
233	0x3e9a0044	0.30078328
234	0xbdbf41da	-0.09338732
235	0xbd82bad8	-0.06383294
236	0x3d828512	0.063730374
237	0x3ea2411c	0.316903
238	0x3cc47183	0.023979908
239	0xbd120a0d	-0.035654116
240	0xbbd5d5b0	-0.0065257177
241	0x3c3d351a	0.011548305
242	0xbd50e314	-0.05099781
243	0x3dd3af8a	0.10336216
244	0x3abb313a	0.0014281638
245	0x3ed7e321	0.42165473
246	0x3cde4f3b	0.02713739
247	0x3e2acd50	0.16679883
248	0xbca0a649	-0.019610541
249	0x3d9ac49a	0.0755703
250	0xbc523a90	-0.012831345
251	0xbda330cc	-0.07968292
252	0x3cdb1bdd	0.026746685
253	0x3def2c66	0.1167839
254	0x3d1d4bc0	0.03840232
255	0xbbffc629	-0.007805605

network_body._body_endoder.seq_layers.0.bias f4 [256]
0	0xbcd20bc9	-0.025640385
1	0x3c4e9965	0.012609814
2	0x3b2f3d90	0.0026739575
3	0xbd574040	-0.052551508
4	0x3cce8834	0.025211431
5	0xbca95b56	-0.020673435
6	0xbd823e80	-0.06359577
7	0xbd0adb93	-0.03390081
8	0x3c414569	0.011796334
9	0x3c0db5a7	0.008649266
10	0xbc31a227	-0.010841883
11	0x3bb00422	0.0053715864
12	0xbd3340d7	-0.043763008
13	0x3daf1ec0	0.08550787
14	0x3aeddde8	0.0018147798
15	0xbd87dcf5	-0.06633941
16	0xbdb1c6c2	-0.08680488
17	0x3cf84d0b	0.030310174
18	0xbc5af6b2	-0.013364481
19	0x3a916f95	0.0011095876
20	0xbd8291c8	-0.06375462
21	0xbc732aee	-0.014841778
22	0xbd505ec6	-0.050871633
23	0x3cd99a2f	0.026562778
24	0xbbfcd340	-0.0077156126
25	0xbd098495	-0.033573706
26	0xbb6337b4	-0.0034670653
27	0x3c83db1f	0.016095696
28	0xbd2ba689	-0.041906867
29	0x3cb6af78	0.022300467
30	0xbb572051	-0.0032825659
31	0x3cec521b	0.028847745
32	0xbdb7655c	-0.0895488
33	0x39ab1885	0.0003263393
34	0xbd4b4152	-0.04962284
35	0xbd527849	-0.051384244
36	0xbbbf5be3	-0.005839811
37	0x3ca55ca1	0.02018577
38	0xbd2e97ea	-0.042625345
39	0xbd1aaebb	-0.037764292
40	0x3cdedd20	0.02720505
41	0xbd99e0f8	-0.075136125
42	0xbd0919a2	-0.03347171
43	0x3d131af1	0.035914365
44	0xbc116c45	-0.008875911
45	0x3d352e28	0.04423347
46	0x3d5c4320	0.053774953
47	0xbd1cdd46	-0.03829696
48	0xbb5319ee	-0.00322115
49	0xbcae4f8a	-0.021278162
50	0x3cbf43de	0.023347791
51	0xbc7f5cfd	-0.015586135
52	0x3c07fae8	0.008299567
53	0xbdadfa95	-0.0849506
54	0xbd19ff6c	-0.037597105
55	0xb8ed7037	-0.00011321942
56	0xbd98ba74	-0.07457438
57	0x3cba769a	0.022761632
58	0x3d086080	0.033295155
59	0xbd239330	-0.03993529
60	0x3c0d1ffa	0.008613581
61	0xbd0735bd	-0.033010233
62	0xbd6d2c39	-0.057903502
63	0x3d3313fe	0.043720238
64	0xb7c54617	-2.3516868e-05
65	0xbd639a70	-0.055567205
66	0xbce45b00	-0.027875423
67	0xbd972b70	-0.07381332
68	0xbc16e633	-0.009210157
69	0x3bf8c938	0.0075923465
70	0x3c058b26	0.008150851
71	0xbc1276bb	-0.00893944
72	0xbd84a4cb	-0.06476744
73	0xbd07b348	-0.03312996
74	0x3b97f39d	0.0046371953
75	0xbd8e9447	-0.069618754
76	0xbbf78348	-0.0075534917
77	0x3c2cd904	0.010549787
78	0xbd093787	-0.03350022
79	0xba94e969	-0.0011361066
80	0x3cbedf83	0.023299938
81	0xbbb4875a	-0.005509299
82	0xbcd07080	-0.02544427
83	0x3c8b6adf	0.017018734
84	0xbc98a81d	-0.01863485
85	0x3c86ecc8	0.016470328
86	0x3cf9c0d5	0.030487457
87	0xbd19c496	-0.037540995
88	0x3b6b8454	0.0035937028
89	0xbc3d7e01	-0.011565686
90	0x3d52163a	0.05129073
91	0xbddaea19	-0.10689182
92	0xbcfa12ac	-0.030526482
93	0xbd4ff969	-0.050774965
94	0x3c6ba123	0.01438168
95	0x3d124deb	0.03571884
96	0x3a66f24d	0.00088099093
97	0xbd34e4f5	-0.044163663
98	0xbb337f65	-0.0027389165
99	0xbc4a042e	-0.012330098
100	0xbc8aa433	-0.016924
101	0xbd54c656	-0.05194696
102	0xbdd00f4d	-0.101591684
103	0xbd11ac3d	-0.03556465
104	0xbb3dd562	-0.0028966297
105	0xbc9b7c0d	-0.01898005
106	0xbae6b6c3	-0.0017602075
107	0xbc4eff67	-0.012634135
108	0x3c27df2e	0.010246081
109	0xbbc44516	-0.005989681
110	0xbca16f19	-0.019706296
111	0xbb306c64	-0.0026920075
112	0xbc475da3	-0.012168321
113	0xbd25023b	-0.04028533
114	0x3b10526f	0.002202179
115	0xbc679e2b	-0.014136831
116	0x3d29c2ba	0.04144547
117	0xbce9b3ef	-0.028528182
118	0xbcf7dea0	-0.030257523
119	0xbcfc2fbc	-0.03078448
120	0xbc67f24d	-0.01415689
121	0xbc06085d	-0.008180705
122	0x3c034936	0.00801306
123	0xbc0a4ae0	-0.008440703
124	0x3cd010b1	0.025398584
125	0x3d32337c	0.04350613
126	0x3cf545dd	0.02994054
127	0x3be9c359	0.007133883
128	0xbbf8b2e7	-0.007589686
129	0xbd39a138	-0.045319766
130	0x3d05ab44	0.032634035
131	0xbd262589	-0.04056314
132	0x3ce430ce	0.027855303
133	0x3c375a0d	0.011190903
134	0xbc27b947	-0.010237045
135	0xbb959443	-0.0045647933
136	0xbdaafde8	-0.0834921
137	0xbd04a1a2	-0.032380708
138	0xbcd75837	-0.026287181
139	0x3bd25b08	0.006419543
140	0x3d106a68	0.035257727
141	0x3d880728	0.0664199
142	0xbd3ba2c9	-0.04580954
143	0xbcefb561	-0.029261293
144	0x3ba5ac0d	0.0050559104
145	0x3c447f2d	0.011993212
146	0x3aa8f777	0.0012891133
147	0x3cff003d	0.031128043
148	0x3c3e8d25	0.011630331
149	0xbd80f885	-0.06297401
150	0x3c0b6854	0.0085087605
151	0xbdded645	-0.108807124
152	0xbcaaf23e	-0.020867463
153	0xbb6d3a19	-0.003619796
154	0xbd311b53	-0.04323895
155	0xbd080eea	-0.03321735
156	0x3955a5f1	0.00020375081
157	0xbd51ec1d	-0.051250566
158	0xbb228d68	-0.0024803523
159	0xbc0f8be8	-0.008761384
160	0xbcc7d9ea	-0.024395902
161	0xbd83b428	-0.064308465
162	0xbd8f6b31	-0.07002867
163	0xbbc2c15b	-0.00594346
164	0x3cb6e351	0.02232519
165	0xbbf76986	-0.007550421
166	0x3c5a5425	0.013325726
167	0x3c8ca988	0.017170683
168	0xbda96b49	-0.08272416
169	0x3cded3aa	0.027200539
170	0xbd29f442	-0.041492708
171	0xbca1744e	-0.019708779
172	0x3b621e2a	0.0034502842
173	0xbd5c62c6	-0.053805135
174	0x3d178d2b	0.036999863
175	0xbc0f3c3b	-0.008742387
176	0xbd97f4bb	-0.074197255
177	0x3bcab0fd	0.0061856494
178	0xbd9e8932	-0.07741012
179	0xbb05d36f	-0.0020420214
180	0x3cfdbd8f	0.030974178
181	0x3ac8eb71	0.0015328956
182	0xbcc329be	-0.023823615
183	0xbd37b279	-0.04484794
184	0xbcbd4939	-0.023106204
185	0xbd6d48d9	-0.0579308
186	0x3d227e78	0.03967139
187	0xbc65c12c	-0.014023107
188	0xbd5e4ce8	-0.054272562
189	0x3c06e5c5	0.008233492
190	0xbd40c082	-0.04705859
191	0xbd0308ae	-0.0319907
192	0xbd434527	-0.04767337
193	0xbd3d83d1	-0.046268288
194	0x3d4b5926	0.049645565
195	0x3c75a380	0.014992595
196	0x3bc7a7a2	0.0060929814
197	0x3d0e8e62	0.034803756
198	0xbd22adcf	-0.039716538
199	0x3c376001	0.011192323
200	0x3a94bf3d	0.0011348497
201	0xbd72e18e	-0.059297137
202	0xbd12ea95	-0.035868246
203	0xbd24e81d	-0.040260423
204	0xbd047a58	-0.03234324
205	0x3c390145	0.011291807
206	0xbc8b6fd8	-0.017021105
207	0xbd0aab56	-0.033854805
208	0xbbbdac57	-0.005788367
209	0x3c8ca1bc	0.017166965
210	0xbd5deea3	-0.05418266
211	0xbbcb81ff	-0.006210565
212	0xbd474058	-0.048645347
213	0xbc546e32	-0.012965726
214	0xbc770ded	-0.015079004
215	0xbd6058f2	-0.054772325
216	0xbcc41e53	-0.023940241
217	0x3d382198	0.044953912
218	0xbb886146	-0.0041619865
219	0xbc9c8d0d	-0.019110227
220	0xbd382c18	-0.044963926
221	0xbb797784	-0.0038065622
222	0x3c841b09	0.016126173
223	0xbd9b5fbd	-0.0758662
224	0xbd480fb0	-0.048843086
225	0xbb3d5f01	-0.0028895738
226	0xbcbe49e1	-0.023228588
227	0x3cacc859	0.021091627
228	0xbd151db2	-0.036405273
229	0x3c5f3f7b	0.013625975
230	0x3b888873	0.0041666566
231	0xbdadaccb	-0.08480223
232	0xbcd629e5	-0.026143024
233	0xbc87b0a4	-0.016563721
234	0xbcc71114	-0.024300136
235	0x3cd113bf	0.025522111
236	0x3be72137	0.00705352
237	0xbd46cdbd	-0.04853605
238	0xbc1827cd	-0.009286833
239	0xbd2dd47e	-0.042438976
240	0xbce047fe	-0.027378079
241	0x3d1f0420	0.038822293
242	0x3c873138	0.016502962
243	0xbc2ae161	-0.010429711
244	0xbbb0b9dd	-0.0053932504
245	0xba3293ec	-0.0006812203
246	0x3c521fc6	0.012824958
247	0xbd4aa993	-0.049478125
248	0x3d89ebad	0.06734405
249	0xbd12857e	-0.03577184
250	0xbd8ad6ca	-0.06779249
251	0xbd218bbc	-0.0394399
252	0xbcfb1631	-0.03065023
253	0xbd2e4487	-0.04254582
254	0xbd8e12d8	-0.06937188
255	0x3b883f97	0.004157971

network_body._body_endoder.seq_layers.2.weight f4 [256, 256]
0	0xbd9f9933	-0.07792892
1	0x3c45c920	0.012071878
2	0xbd9430dc	-0.07235882
3	0x3da97bf6	0.08275597
4	0xbd7bbceb	-0.061459463
5	0xbe4b8df9	-0.19878377
6	0x3d505f19	0.050871942
7	0xbdd4173f	-0.10355996
8	0x3d360562	0.044438727
9	0xbe266cd3	-0.1625245
10	0xbdf06056	-0.117371246
11	0xbda1c1a2	-0.07898261
12	0xbe140b2e	-0.1445739
13	0xbdaddd70	-0.084895015
14	0xbdb125fe	-0.086498246
15	0xbe1419b3	-0.14462928
16	0xbcf184f2	-0.029482339
17	0xbcd5d2cd	-0.026101494
18	0xbd50b138	-0.05095026
19	0xbe65131d	-0.22370572
20	0xbcdc1c29	-0.026868897
21	0xbe471e21	-0.19445087
22	0xbd9fce55	-0.078030266
23	0x3d60caa5	0.054880757
24	0x3cdcec2f	0.02696809
25	0xbe2bcf4c	-0.16778296
26	0xbd7550ae	-0.059891395
27	0xbd5a1d70	-0.05325073
28	0x3d55afd6	0.052169643
29	0xbd3441f4	-0.04400821
30	0x3d1728b3	0.03690405
31	0x3de5fcad	0.11229835
32	0xbe07daa6	-0.13267002
33	0xbd8eade7	-0.06966763
34	0x3c6c1f77	0.014411799
35	0xbdaa0a55	-0.08302752
36	0xbe2a9e5a	-0.16661969
37	0x3d9f14f3	0.077676676
38	0xbe03ae53	-0.12859468
39	0xbd65b375	-0.056079347
40	0x3bf2a4e1	0.007404909
41	0xbe3962d3	-0.18104105
42	0xbdf32b90	-0.11873543
43	0xbcadef3a	-0.021232236
44	0xbd4903e0	-0.04907596
45	0x3d5152a5	0.051104207
46	0x3cdccd5a	0.026953388
47	0xbd6cd74d	-0.057822514
48	0xbdea72b8	-0.11447662
49	0xbd96ed0e	-0.07369433
50	0xbd340607	-0.04395106
51	0xbe310e4c	-0.1729061
52	0xbc963f60	-0.018340766
53	0xbe205f08	-0.15661252
54	0xbb387bc8	-0.0028149951
55	0x3d02837c	0.031863675
56	0xbde55fd4	-0.111999184
57	0xbca3b500	-0.019983768
58	0xbd96fb5f	-0.07372164
59	0x3e0073d3	0.12544183
60	0xbe0609df	-0.13089703
61	0xbd49530f	-0.049151476
62	0xbd88ceda	-0.06680079
63	0xbe56bb84	-0.20969969
64	0xbd8083dc	-0.0627515
65	0xbe29e8a2	-0.16592649
66	0x3d90cc4e	0.07070218
67	0xbcb68398	-0.022279546
68	0xbd78453c	-0.060612902
69	0xbe0373db	-0.12837164
70	0xbe22c60b	-0.1589586
71	0xbd3cf31d	-0.04613029
72	0xbe4ca321	-0.19984104
73	0xbd922867	-0.071366124
74	0xbdcac39d	-0.099005915
75	0xbcfa5cea	-0.030561883
76	0x3c3ed1e0	0.011646718
77	0xbc496d6a	-0.012294153
78	0xbca257bd	-0.019817227
79	0x3cf86645	0.030322203
80	0x3e00c3fd	0.12574764
81	0x3c8de9f1	0.017323466
82	0x3d3efff9	0.046630833
83	0xbe2452df	-0.16047238
84	0x3dbbaddb	0.0916402
85	0xbd489141	-0.04896665
86	0x3e0c90ee	0.13727161
87	0xbd399dfc	-0.04531668
88	0xbc93f721	-0.018062176
89	0x3e0b8870	0.13626266
90	0xbcb55037	-0.022132976
91	0xbd00e063	-0.03146399
92	0xbe5f3be0	-0.21800184
93	0x3d2da485	0.042393226
94	0x3d7fe035	0.06246968
95	0xbe095c42	-0.134141
96	0xbd189aa7	-0.037256863
97	0xbe8422a5	-0.25807682
98	0xbda454f6	-0.080240175
99	0xbd912d1c	-0.07088682
100	0xbd096f29	-0.033553276
101	0x3c9a2a27	0.018818928
102	0xbdea5135	-0.1144127
103	0xbd4c8f33	-0.049941253
104	0xbe089dd6	-0.1334146
105	0xbda49973	-0.080370806
106	0xbd876e5a	-0.06612845
107	0x3d9eaec9	0.077481814
108	0xbdc633f3	-0.09677877
109	0xbd38af5d	-0.045089114
110	0x3d81ceca	0.0633827
111	0xbd2abf5d	-0.041686404
112	0xbd899380	-0.067175865
113	0xbe0e8741	-0.13918783
114	0xbd0a7e5f	-0.033811923
115	0x3b6053aa	0.0034229555
116	0x3d385580	0.045003414
117	0x3d1ebbbd	0.03875326
118	0x3d98ce15	0.07461182
119	0x3d8071ee	0.0627173
120	0xbd1a1187	-0.03761437
121	0x3db73005	0.08944706
122	0xbda304e4	-0.07959917
123	0x3d250ca5	0.040295262
124	0xbcdf1156	-0.027229946
125	0x3d0d3cd0	0.034481823
126	0x3acd5d0a	0.0015667987
127	0x3c00a4df	0.007851808
128	0x3d44c899	0.048042867
129	0xbe78e9e4	-0.24307972
130	0xbd1cf58b	-0.038320106
131	0x3ca1da21	0.019757332
132	0x3c83c52d	0.016085232
133	0x3acc25c4	0.001557522
134	0xbb8ec83c	-0.004357366
135	0x3c9dc917	0.019260926
136	0xbdb30859	-0.087418266
137	0xbe6c23e9	-0.23060574
138	0x3ba784fd	0.005112289
139	0x3cd40e5c	0.025885753
140	0xbc4734ea	-0.012158612
141	0xbd6016ff	-0.05470943
142	0xbdbf7793	-0.09348979
143	0xbc89970b	-0.016795656
144	0xbe2694b4	-0.16267663
145	0xbcea200b	-0.028579732
146	0xbda9c983	-0.082903884
147	0xbd8d1f4e	-0.068907365
148	0xbcf7aa9d	-0.030232722
149	0x3d83f5fb	0.064434014
150	0xbb4450da	-0.0029955418
151	0xbdf38d65	-0.11892203
152	0xbd6fae51	-0.05851585
153	0xbd058b8f	-0.032603797
154	0xbd3007f9	-0.042976353
155	0xbe2bbbcf	-0.16770862
156	0xbcd3e56b	-0.025866231
157	0xbe102b61	-0.14079048
158	0x3d3f84a5	0.04675736
159	0xbe1410cd	-0.14459534
160	0xbdcca832	-0.09993018
161	0xbd857275	-0.065159716
162	0xbdfb068a	-0.122571066
163	0x3d3ec1eb	0.046571653
164	0x3e11da81	0.14243509
165	0xba2b12b4	-0.00065259193
166	0xbd3f61f8	-0.04672429
167	0x3d84b183	0.0647917
168	0x3e2edde4	0.17076832
169	0xbd050058	-0.03247103
170	0xbd9bae4c	-0.07601604
171	0xbc923afb	-0.01785039
172	0x3de02910	0.10945332
173	0xbd861ebc	-0.06548831
174	0x3cbe68e9	0.023243384
175	0xbd355430	-0.04426974
176	0xbe22b215	-0.15888245
177	0xbd61c49c	-0.055119142
178	0xbc4f8453	-0.012665826
179	0xbe150f76	-0.14556679
180	0xbd86c6ea	-0.065809086
181	0x3e149269	0.14508976
182	0x3dc5673d	0.09638832
183	0xbe34a0e2	-0.17639497
184	0x3d8a2948	0.06746155
185	0xbd6cbd5d	-0.05779778
186	0xbd9c448d	-0.076302625
187	0xbd8d9b74	-0.06914416
188	0xbd957116	-0.0729696
189	0xbdeba690	-0.11506379
190	0x3d5b854d	0.053593922
191	0xbd063485	-0.03276493
192	0x3d35f547	0.044423368
193	0xbda0ab5d	-0.07845185
194	0xbd6f2bc0	-0.058391333
195	0xbd74c2a1	-0.059755925
196	0xbc8b1ba1	-0.016980948
197	0x3c94569a	0.018107701
198	0xbccd4261	-0.025056066
199	0x3dc2a9fd	0.09505079
200	0xbdf48e98	-0.1194126
201	0xbe0b8a2c	-0.13626927
202	0xbe1bb4cc	-0.15205687
203	0xbda49969	-0.08037073
204	0xbcf47fe3	-0.029846137
205	0xbcb304c6	-0.021852862
206	0xbcffed02	-0.031240944
207	0x3c40f0a8	0.011776127
208	0xbe01c59b	-0.12673037
209	0xbe3ced04	-0.1844979
210	0x3be6a489	0.007038657
211	0x3c8197e4	0.015819497
212	0xbbf222c8	-0.0073894
213	0xbd2f02c1	-0.042727236
214	0xbd81e9e8	-0.06343442
215	0xbdd2313c	-0.10263297
216	0xbe04533c	-0.12922376
217	0xbe2a32f3	-0.16620998
218	0xbe287974	-0.1645258
219	0xbbf03820	-0.0073309094
220	0xbd769e7e	-0.060209744
221	0xbd0077f2	-0.03136439
222	0x3d9b5fb8	0.07586616
223	0xbd9b3594	-0.075785786
224	0xbe07eead	-0.13274641
225	0xbd8b36ac	-0.06797537
226	0x3d2fcb15	0.042918283
227	0x3dd09d9e	0.10186313
228	0x3d937453	0.071999215
229	0x3dc01744	0.093794376
230	0xbdf205a1	-0.1181748
231	0xbce69d64	-0.028151222
232	0x3d33bc6c	0.043880865
233	0xbd919b55	-0.07109705
234	0x3ceaf89d	0.028683001
235	0x3db93575	0.09043399
236	0xbd173adb	-0.036921363
237	0xbdafb7f1	-0.08580006
238	0xbdb83dc4	-0.08996156
239	0xbdb004e3	-0.08594682
240	0xbd8c29dc	-0.068439215
241	0xbd232ab3	-0.039835643
242	0x3e09e340	0.13465595
243	0x3e33f47e	0.17573735
244	0xbe319ee5	-0.1734577
245	0xbe102629	-0.14077057
246	0x3d08efa6	0.03343167
247	0xbe42df75	-0.19030555
248	0xbd7ab400	-0.061206818
249	0x3deaae2e	0.114590034
250	0xbe20b0e9	-0.15692486
251	0x3c862808	0.01637651
252	0xbd14a9a5	-0.036294598
253	0x3d83b7b7	0.06431525
254	0xbcd7ca1f	-0.026341496
255	0xbe091c74	-0.1338976

network_body._body_endoder.seq_layers.2.bias f4 [256]
0	0xbd30ebcf	-0.043193635
1	0x3c126e7d	0.008937475
2	0xbc2fd9d3	-0.010733086
3	0xba6d3862	-0.0009049234
4	0xbba16bb1	-0.004926168
5	0x3ca547a1	0.020175757
6	0x3b2a2202	0.0025960212
7	0xbda6055c	-0.08106491
8	0x3b64fd4d	0.0034941018
9	0xbcb56ddc	-0.022147112
10	0xbbfa8b4f	-0.0076460014
11	0x3cd29bf8	0.025709137
12	0xbd927a2e	-0.0715221
13	0x3c4b5e24	0.012412582
14	0xbc188d53	-0.009311038
15	0xbd4d2b9e	-0.050090425
16	0x3b8ce855	0.004300157
17	0x3bb287a1	0.005448297
18	0xbd60e887	-0.054909255
19	0xbccdeaeb	-0.025136432
20	0xbd07361d	-0.03301059
21	0xbd5409b6	-0.051767074
22	0xbda4160b	-0.08012017
23	0x3ceeb437	0.029138668
24	0x3d070893	0.03296716
25	0x3d582a60	0.052774787
26	0xbd291ca1	-0.04128707
27	0xbc9b6fc4	-0.018974192
28	0xbc096b7d	-0.008387444
29	0xbc5432d9	-0.012951576
30	0xbbe016f3	-0.0068386733
31	0xbd6c9b2a	-0.057765163
32	0xbb364765	-0.002781355
33	0xbc2b7519	-0.01046493
34	0x3bebb8af	0.007193647
35	0xbb209187	-0.0024500804
36	0xbd31c74e	-0.043402962
37	0x3c9f1f0b	0.019423982
38	0x3c68151e	0.014165191
39	0xbc0d0e36	-0.008609345
40	0x3cfd7dc8	0.030943766
41	0x3bd24df9	0.0064179865
42	0x3d0508bd	0.032479037
43	0xbd564ca1	-0.052319173
44	0xbc25f1cb	-0.010128449
45	0x3b37be47	0.0028036998
46	0x3c227c24	0.009917293
47	0xbc5da6dc	-0.013528552
48	0xbd6b9f26	-0.057524823
49	0xbd2aac03	-0.04166795
50	0xbc014ef7	-0.007892362
51	0xbd3de897	-0.046364393
52	0xbcf21ca5	-0.029554674
53	0x3cff3072	0.03115103
54	0x3c040352	0.008057432
55	0x3cb79b12	0.02241281
56	0x3c180665	0.009278868
57	0xbc427e8e	-0.011870993
58	0xbb011235	-0.001969469
59	0xbccb9c40	-0.02485478
60	0xbc8136e4	-0.015773244
61	0x3cf4b23d	0.029870147
62	0x3cad5897	0.021160407
63	0xbd8e5ffb	-0.069519006
64	0xbdafcfc3	-0.08584549
65	0xbd9512d9	-0.072789855
66	0xbd336c2c	-0.043804333
67	0xbb87e5dc	-0.0041472744
68	0xbd22d580	-0.03975439
69	0xbdd04957	-0.101702385
70	0xbd1cac26	-0.03825011
71	0x3cbe33e5	0.023218105
72	0x3c83614b	0.016037604
73	0x3cb5b936	0.022183042
74	0x3ce6196e	0.028088298
75	0x3d0df053	0.03465302
76	0xbd0cc68a	-0.03436903
77	0x3b6e8ce2	0.003639989
78	0xbcd20c72	-0.0256407
79	0xbd0b9850	-0.034080803
80	0xbba98bd7	-0.005174141
81	0xbd5138a2	-0.0510794
82	0xbb493313	-0.0030700609
83	0xb8832fd4	-6.2554755e-05
84	0xbd55ad13	-0.05216701
85	0xbd5d5b1e	-0.054041974
86	0xbcad954d	-0.021189356
87	0x3ca6401e	0.020294245
88	0xbb41a9bc	-0.0029550632
89	0xbd52d376	-0.051471196
90	0xba4b4f99	-0.00077556964
91	0x3d608244	0.05481173
92	0xbd367c2b	-0.04455201
93	0x3d0dd183	0.034623634
94	0x3b8f1603	0.0043666377
95	0x3b9bf73e	0.004759698
96	0xbca066ea	-0.019580323
97	0xbd2b3da9	-0.04180685
98	0xbd150c7a	-0.03638885
99	0xbc6b84f8	-0.014374964
100	0xbceba7a0	-0.028766453
101	0x3cd95f2e	0.026534643
102	0xbcacd426	-0.021097254
103	0xbd3348b5	-0.04377051
104	0xbd71cce7	-0.0590333
105	0xbd2fa14b	-0.04287843
106	0xbca5183b	-0.020153156
107	0x3cfa4cd7	0.030554218
108	0xbc956643	-0.018237239
109	0x3d3644d4	0.044499233
110	0x3c1c4469	0.009537795
111	0xbda14cee	-0.07876001
112	0x3c5f2fac	0.013622206
113	0xbd1017e2	-0.035179026
114	0xbd1baa72	-0.038004346
115	0xbbfbe4c3	-0.0076871826
116	0x3b578944	0.0032888213
117	0x3c6d688c	0.014490258
118	0xbb72ace9	-0.0037029332
119	0xbcd7a589	-0.02632405
120	0xbc732b82	-0.014841916
121	0xbd73641b	-0.05942164
122	0xbd1b9c26	-0.03799071
123	0xbd0818d0	-0.033226788
124	0x3cb9f548	0.022699967
125	0xbd582059	-0.052765224
126	0xbcd27733	-0.025691604
127	0x3d0b7707	0.03404906
128	0xbd97c191	-0.07409967
129	0xbb03e6c6	-0.0020126565
130	0xbd6bb0e2	-0.057541735
131	0xba7898e1	-0.000948323
132	0xbd1df3bc	-0.03856252
133	0x3d1c76e0	0.038199306
134	0xbc25a4ac	-0.010110062
135	0x3cb39d6b	0.021925649
136	0xbc051406	-0.00812245
137	0xbbcdf22a	-0.0062849717
138	0xbc131589	-0.008977302
139	0xbd0a42f3	-0.033755254
140	0xbcf0669c	-0.029345803
141	0xbd61fb67	-0.055171397
142	0xbbd36725	-0.006451505
143	0xbd1d3753	-0.03838284
144	0x3c8b1c0b	0.016981145
145	0x3a96b278	0.001149728
146	0x3bba50b7	0.0056858915
147	0xbd2ed6f8	-0.04268548
148	0x3cb829d7	0.022480888
149	0xbca894f3	-0.020578837
150	0xbbedd184	-0.007257642
151	0x3cbc7c10	0.023008376
152	0x3b6771bf	0.00353156
153	0x3d05bb93	0.032649588
154	0x3bf9faeb	0.0076287887
155	0xbbdd5f8e	-0.006755776
156	0xba86b9d0	-0.0010278765
157	0xbd8ee2cb	-0.06976851
158	0x3cf36422	0.029710833
159	0xbc1a87f1	-0.009431825
160	0x3cb6c9c0	0.022312999
161	0xbc373647	-0.011182374
162	0xbc249d44	-0.010047261
163	0xbc7aa2c6	-0.015297597
164	0x3c470812	0.01214792
165	0xbced2e8e	-0.028952863
166	0xbd83337e	-0.06406306
167	0xbd1dd6f1	-0.038535062
168	0xbcfce71d	-0.030871922
169	0xbcd1b391	-0.02559832
170	0xbc1fe2a6	-0.009758627
171	0x3cbf6e4a	0.02336802
172	0xbc81576c	-0.015788756
173	0xbd338551	-0.043828312
174	0xbc132c98	-0.0089828
175	0x3ce96f1f	0.02849537
176	0xbc0a8a35	-0.008455803
177	0xbd312143	-0.04324461
178	0xbbd24178	-0.006416496
179	0xbc899203	-0.016793257
180	0xbd53c835	-0.051704604
181	0xbccca8b3	-0.024982786
182	0x3d7c4a77	0.061594453
183	0xbd423931	-0.047417823
184	0x3c5c8df3	0.013461578
185	0xbdbadeda	-0.09124537
186	0x3cf9443e	0.030428048
187	0x3cfc40e1	0.030792655
188	0xbd38eb34	-0.045146182
189	0x3cbb15dd	0.022837574
190	0xbcd75632	-0.026286218
191	0xbd0caeef	-0.034346517
192	0xbd3197eb	-0.04335777
193	0xbc521275	-0.012821783
194	0xbb7fe46a	-0.0039046057
195	0xbc884408	-0.016634002
196	0xba633368	-0.0008667023
197	0xbc3d02c0	-0.0115363
198	0xbc452868	-0.012033559
199	0xbc8ecd9f	-0.017432032
200	0x3c61095d	0.013735143
201	0x3ca4d1f2	0.020119641
202	0xbde0e177	-0.10980504
203	0x3d83382d	0.06407199
204	0xbdb19927	-0.086717896
205	0x3a2d9226	0.0006621204
206	0x3bfb1417	0.007662307
207	0xbc26ad14	-0.010173101
208	0x3b99fa3c	0.0046990197
209	0xbc80b167	-0.015709592
210	0xbd33ba87	-0.04387906
211	0x3cdbf4bd	0.026850099
212	0xbc22ca63	-0.009935948
213	0xbbfa6039	-0.007640865
214	0x3c16aa72	0.009195911
215	0xbcb5566e	-0.02213594
216	0xbc95149b	-0.018198302
217	0x3d3e82e2	0.04651154
218	0xbd7ceed9	-0.06175122
219	0xbe09117e	-0.13385579
220	0xbd069722	-0.032858975
221	0x3bd14371	0.0063862135
222	0x3c2b7a88	0.010466225
223	0xbb9c37ae	-0.0047673797
224	0x3c25e85b	0.010126199
225	0xbced26da	-0.02894919
226	0x3a524e5b	0.000802254
227	0x3c35b0c8	0.011089511
228	0xbd4561c9	-0.04818896
229	0x3cfb6ac0	0.03069055
230	0x3c88d3b8	0.016702518
231	0xbd0305ac	-0.03198783
232	0x3bb02df4	0.005376572
233	0xbcd7823a	-0.026307214
234	0xbd858cec	-0.06521019
235	0x3b109e79	0.0022067113
236	0xbd2763c9	-0.040866647
237	0xbd57be43	-0.052671682
238	0xbb8372c4	-0.004011484
239	0xbb45396d	-0.0030094043
240	0x3cdb0334	0.026734926
241	0xbc31557d	-0.010823605
242	0xbd155d13	-0.036465716
243	0x3cc14e0d	0.023596788
244	0xbd6c409b	-0.0576788
245	0xbdba58b8	-0.09098953
246	0x3c63aa3c	0.0138955675
247	0x3b5b4ef1	0.00334638
248	0xbb46d572	-0.0030339626
249	0xbcde48eb	-0.02713438
250	0xbdc3457e	-0.09534739
251	0xbbf674f9	-0.0075212684
252	0xbd75e0a2	-0.06002868
253	0x3c12fb2c	0.008971017
254	0xbcfcbebe	-0.030852672
255	0x3cb6a295	0.022294322

action_model._continuous_distribution.log_sigma f4 [1, 2]
0	0x3d7b9b7a	0.06142757
1	0x3f806525	1.0030867

action_model._continuous_distribution.mu.weight f4 [2, 64]
0	0x3db36636	0.087597296
1	0xbe3138d7	-0.17306839
2	0xba93e811	-0.0011284371
3	0xbdbcba43	-0.09215214
4	0xbd3b720a	-0.045763053
5	0xbe3ed074	-0.18634206
6	0xbea23197	-0.3167846
7	0x3c7ae017	0.015312216
8	0xbdb144ae	-0.08655678
9	0xbdb147ca	-0.08656271
10	0x3d929e89	0.071591444
11	0xbe81f560	-0.2538252
12	0x3d6dba44	0.058038965
13	0xbe900b9e	-0.28133863
14	0xbe07db86	-0.13267335
15	0x3d425bb0	0.04745072
16	0xbe5d1e8d	-0.21593685
17	0x3d573352	0.052539177
18	0x3e1f3430	0.15547252
19	0xbe26aba7	-0.16276418
20	0x3e0452b4	0.12922174
21	0x3e175bb7	0.1478108
22	0x3e18de62	0.14928582
23	0x3ea5521e	0.32289213
24	0xbebf1a7d	-0.37324896
25	0x3e09de07	0.13463603
26	0xbe44a048	-0.19201767
27	0x3e259d76	0.16173348
28	0xbe12488b	-0.14285485
29	0x3de683ae	0.11255585
30	0xbddf0dcc	-0.108913034
31	0xbe29c65e	-0.16579577
32	0x3dd3ccc4	0.1034179
33	0x3e2f3057	0.17108284
34	0xbdc7929e	-0.09744762
35	0x3c63dc2e	0.013907475
36	0xbe1e1103	-0.15436177
37	0x3e542f1a	0.20721093
38	0xbcaebcba	-0.021330226
39	0xbb009917	-0.0019622499
40	0x3b328bd4	0.0027243989
41	0xbe8cab7d	-0.27474585
42	0x3c9e6492	0.019335065
43	0x3e337126	0.17523631
44	0x3e13a2c1	0.14417554
45	0x3df95e6c	0.12176213
46	0x3c9e2ee6	0.019309472
47	0x3e12dd33	0.14342193
48	0xbcc60665	-0.024172971
49	0x3dd348d3	0.103166245
50	0x3e7b941c	0.24568218
51	0xbe7aebba	-0.24503985
52	0x3e34c7ae	0.17654297
53	0x3e7043a7	0.23463307
54	0xbe55326b	-0.20820014
55	0x3df35a1b	0.11882421
56	0xbe3ffd2a	-0.18748918
57	0x3d9e2e84	0.07723716
58	0xbe8efe57	-0.2792842
59	0xbe2b3f3f	-0.16723345
60	0x3e64291f	0.22281311
61	0xbcd07989	-0.025448577
62	0x3df6186f	0.12016379
63	0x3e7ee37a	0.24891463
64	0x3e439e2b	0.19103305
65	0xbe160811	-0.14651515
66	0x3e61ee49	0.22063555
67	0xbeee5c16	-0.4655463
68	0xbf0c7cae	-0.54877746
69	0x3debfa6c	0.115223736
70	0xbec93286	-0.3929636
71	0x3e8b5889	0.27215984
72	0x3e8aa75d	0.27080813
73	0xbe5aaf60	-0.21355963
74	0xbeb6ec64	-0.35727227
75	0xbee4c8ae	-0.44684356
76	0x3ed207d1	0.41021588
77	0xbd95b559	-0.0730998
78	0x3e9fbb96	0.31197804
79	0xbe8afcc0	-0.27145958
80	0xbd008b3a	-0.031382777
81	0xbea2b1d6	-0.31776303
82	0x3db2c124	0.08728245
83	0x3e362d75	0.17790778
84	0xbd088b66	-0.033336066
85	0x3da68cc6	0.08132319
86	0xbe76381f	-0.24044846
87	0xbdabba7e	-0.0838518
88	0xbbdcebdd	-0.0067419843
89	0x3d193f32	0.037413783
90	0xbaa9802a	-0.0012931873
91	0xbd08c7ef	-0.033393797
92	0xbf040450	-0.5156908
93	0xbd88edc4	-0.06685975
94	0xbf1e368a	-0.6180197
95	0x3d1ab0fb	0.037766438
96	0x3da0796c	0.078356594
97	0xbcc7b5e3	-0.024378723
98	0xbe1ae7e4	-0.15127522
99	0xbf0c7a8b	-0.54874486
100	0x3b54e42d	0.0032484636
101	0x39babfc1	0.00035619552
102	0x3e2be4a6	0.16786441
103	0x3e742bea	0.23844877
104	0x3e5450a7	0.20733891
105	0xbed80c4e	-0.42196888
106	0x3e874417	0.26419136
107	0xbd5b5847	-0.053550985
108	0xbdc37993	-0.09544673
109	0xbe0c627b	-0.13709442
110	0xbeae90f7	-0.34094974
111	0x3d6bc86d	0.057564188
112	0xbe6aceb9	-0.22930421
113	0xbde43777	-0.111433916
114	0xbdeef23a	-0.11667295
115	0x3d8818fa	0.06645389
116	0xbc800555	-0.015627543
117	0x3ebda192	0.3703733
118	0xbe10fd60	-0.14159155
119	0x3d5117b1	0.051047985
120	0x3e0f6b52	0.14005783
121	0xbeaf3188	-0.34217477
122	0x3cf8a6cf	0.030352978
123	0xbf2535af	-0.6453504
124	0x3bd3772f	0.006453417
125	0x3d0e17b1	0.034690563
126	0x3dfa9524	0.122354776
127	0xbe6be5a1	-0.23036815

action_model._continuous_distribution.mu.bias f4 [2]
0	0x3a17bdd0	0.0005788477
1	0x3db0fa00	0.08641434

onnx::LSTM_101 f4 [1, 256, 256]
0	0xbd9888e0	-0.07447982
1	0x3dd94ac5	0.10609964
2	0x3dac6a03	0.08418658
3	0xbdd46c9a	-0.103722766
4	0xbd71ad20	-0.059002995
5	0x3df13ac0	0.11778784
6	0x3d5f52d3	0.054522347
7	0xbcc001b9	-0.023438321
8	0x3d11ca1b	0.035593133
9	0x3d0bc809	0.034126315
10	0xbe1f6c7e	-0.1556873
11	0x3c8d4eca	0.017249484
12	0xbd03d268	-0.03218308
13	0xbd32df68	-0.043670088
14	0xbdd97b7e	-0.106192574
15	0xbd8bc78e	-0.068251714
16	0x3dae5e00	0.08514023
17	0xbd545d64	-0.051846877
18	0x3d876f09	0.06612975
19	0x3cf3b4d7	0.029749317
20	0x3de92428	0.113838494
21	0x3d9f22a1	0.07770277
22	0x3c2e711c	0.010647085
23	0xbcf6c971	-0.030125352
24	0x3cea31ab	0.028588137
25	0xbd2f4a3b	-0.0427954
26	0xbc4c0ecb	-0.012454699
27	0x3d8c7120	0.068575144
28	0x3d22f3e4	0.039783373
29	0x3d951541	0.072794445
30	0xbd00db54	-0.031459168
31	0x3db7355b	0.089457236
32	0xbdd9f099	-0.106415935
33	0xbd8eb02a	-0.069671944
34	0xbd3c8ecd	-0.046034623
35	0x3e272f24	0.16326576
36	0xbc5effcf	-0.013610794
37	0x3d81b0b4	0.063325316
38	0x3ca182b7	0.01971565
39	0xbdd392d0	-0.10330737
40	0xbce39fc3	-0.027786141
41	0x3dfa5655	0.12223498
42	0x3da6b535	0.08140031
43	0xbddc9c86	-0.10772042
44	0x3d85ba35	0.06529657
45	0x3d13d998	0.036096185
46	0x3d448b8e	0.047984652
47	0xbe076bda	-0.13224736
48	0xbe3fc9a2	-0.1872926
49	0xbdb7b5f4	-0.08970252
50	0xbe04c0f1	-0.12964226
51	0x3dbc438f	0.09192573
52	0xbdcfbb90	-0.101431966
53	0x3e44d941	0.19223501
54	0xbda3ad5e	-0.079920515
55	0x3e4af11c	0.19818538
56	0x3e5f3943	0.21799187
57	0x3e22c57e	0.1589565
58	0xbcd6e80d	-0.026233697
59	0x3dbb2335	0.091375746
60	0x3e201341	0.15632345
61	0x3d95f71f	0.07322525
62	0xbe3179fe	-0.17331693
63	0xbb8e1c59	-0.0043368754
64	0x3d4f32b0	0.05058545
65	0x3d2d6694	0.042334154
66	0xbdf137b8	-0.11778206
67	0xbe06b178	-0.13153636
68	0x3db49794	0.08817974
69	0xbc99be3a	-0.018767465
70	0x3c96ae46	0.018393647
71	0xbca95276	-0.020669203
72	0xbd2bc4d6	-0.041935764
73	0xbca9bed6	-0.02072088
74	0x3e0d4c9a	0.13798752
75	0x3e3be423	0.18348746
76	0x3e0803bc	0.13282675
77	0x3dc00acc	0.09377059
78	0x3d3d3132	0.046189494
79	0xbda0e406	-0.07855992
80	0x3db70e59	0.089382835
81	0xbd892e2f	-0.06698262
82	0x3d45edf0	0.048322618
83	0xbe00983a	-0.1255807
84	0xbc7c997b	-0.015417452
85	0x3d9f6581	0.07783032
86	0x3e3656a7	0.17806493
87	0x3e2ea7e3	0.17056231
88	0x3e022a3c	0.12711424
89	0x3b1b183f	0.0023665575
90	0xbdf9602c	-0.121765465
91	0x3d41f5eb	0.047353666
92	0x3df9f205	0.12204365
93	0x3d2a8c33	0.04163761
94	0x3d92a731	0.071607955
95	0x3e05ef4c	0.13079566
96	0xbd5b931a	-0.053607084
97	0xbc078ae2	-0.008272858
98	0x3ddee349	0.10883195
99	0xbe281473	-0.16414051
100	0x3c1381fd	0.00900316
101	0x3c38eba0	0.011286646
102	0x3de90605	0.11378101
103	0xbd7aeeb9	-0.06126282
104	0x3db62345	0.08893446
105	0xbd526b0d	-0.051371623
106	0xbc0e2cd7	-0.008677683
107	0xbd9ff0de	-0.07809614
108	0x3d9e99e7	0.07744198
109	0x3ddab62e	0.10679279
110	0x3d92621b	0.071476184
111	0x3d1aaf52	0.037764855
112	0x3db030f6	0.086030886
113	0xbcc53627	-0.024073673
114	0xbd8ca6f5	-0.06867782
115	0x3ca651e3	0.020302719
116	0xbd285077	-0.041092362
117	0x3e1b28e2	0.15152314
118	0x3e32f098	0.17474592
119	0x3d91fffa	0.07128902
120	0xbe175e7e	-0.1478214
121	0xbdb1b4bb	-0.0867705
122	0x3d6ad608	0.057333022
123	0xbd772b1b	-0.060343843
124	0x3e844664	0.25834954
125	0x3dc9ac4d	0.09847317
126	0x3c6e0569	0.014527657
127	0x3db18a75	0.08668987
128	0xbe2571a6	-0.16156635
129	0xbe2ef948	-0.17087281
130	0x3d5ff13a	0.05467341
131	0x3df14c47	0.11782127
132	0xbe24074c	-0.16018409
133	0x3cb33acf	0.021878628
134	0x3b7b18d8	0.0038314369
135	0xbc5fe290	-0.013664857
136	0xbdc8b28a	-0.097996786
137	0xbd1ed716	-0.03877934
138	0xbd49147c	-0.0490918
139	0xbda49fb8	-0.080382764
140	0x3c89c672	0.016818259
141	0x3d142514	0.036168173
142	0xbcb88e3e	-0.022528764
143	0xbcb6c87a	-0.022312392
144	0xbd2be7a9	-0.041968975
145	0xbda61bee	-0.08110796
146	0x3e0d0c4f	0.13774227
147	0xbd54c77a	-0.05194805
148	0x3d9d88c9	0.07692105
149	0xbd0cb5e4	-0.034353152
150	0xbd844d77	-0.06460088
151	0x3e66a20e	0.22522756
152	0x3ddbb161	0.10727192
153	0x3e5c32fc	0.21503824
154	0x3d19cbee	0.037547998
155	0x3dd1a5e0	0.10236716
156	0x3d6e7ea4	0.058226243
157	0x3dc68c28	0.096947014
158	0xbbcb54f9	-0.006205198
159	0xbda07391	-0.078345425
160	0x3dd679ed	0.10472474
161	0x3d07185e	0.032982223
162	0xbdda1aaf	-0.10649621
163	0xbe4c6cff	-0.19963454
164	0x3e106ba0	0.14103556
165	0xbe07cb4f	-0.1326115
166	0xbcdfba17	-0.027310414
167	0x3d1a60b6	0.037689887
168	0xbe498a43	-0.19681649
169	0x3d76f38a	0.06029085
170	0xbd87b856	-0.06626956
171	0xbd149fa9	-0.036285076
172	0x3d1472bf	0.036242243
173	0x3e025818	0.12728918
174	0x3e9c71e1	0.30555633
175	0xbd0eacae	-0.03483265
176	0x3e367602	0.17818454
177	0x3dbdc5c5	0.09266237
178	0xbdb357cf	-0.087569825
179	0xbe10d32c	-0.14143056
180	0x3d707cdc	0.058712825
181	0xbd52af6b	-0.051436823
182	0xbcbdf523	-0.02318818
183	0x3b83ba42	0.0040200064
184	0xb9970d2b	-0.00028810775
185	0xbd51b6b9	-0.05119965
186	0x3cd82b55	0.02638785
187	0xbc6109a1	-0.013735206
188	0x3d84d677	0.064862184
189	0xbd6a79bc	-0.057245
190	0x3c79fb40	0.015257657
191	0xbdfe119b	-0.12405702
192	0x3d1d0cf3	0.038342427
193	0x3c04cb54	0.008105118
194	0x3e0da5f3	0.13832836
195	0xbd95aa0f	-0.07307827
196	0xbdf9be48	-0.121944964
197	0xbdfaad21	-0.12240053
198	0xbe05ea9d	-0.13077779
199	0x3d3713dd	0.044696677
200	0xbdde2832	-0.108475104
201	0xbd929879	-0.07157988
202	0xbd9c7b4e	-0.07640706
203	0xbc8796de	-0.016551431
204	0x3d561930	0.052270114
205	0x3e2083b3	0.1567524
206	0xbd1be395	-0.038058836
207	0x3d8c5b3c	0.06853339
208	0x3e04a601	0.1295395
209	0xbc2c6e8b	-0.010524402
210	0x3d06b889	0.03289083
211	0x3e2b3e40	0.16722965
212	0xbe2e66bc	-0.17031378
213	0xbd33cd2d	-0.043896843
214	0xbe20fd97	-0.15721737
215	0x3c933a49	0.017972128
216	0xbe6686cf	-0.22512363
217	0x3da27973	0.07933321
218	0xbcd1c1c6	-0.025605094
219	0xbde8e604	-0.11371997
220	0x3d7f98ff	0.062401768
221	0x3dc0d45b	0.094155036
222	0xbdea3a21	-0.114368685
223	0xbdda8294	-0.10669437
224	0xbd8441ab	-0.06457838
225	0xbdfa7f15	-0.1223127
226	0xbd72718a	-0.05919031
227	0xbca0933f	-0.019601462
228	0xbe1fd38a	-0.1560804
229	0x3b9c8dc2	0.004777641
230	0xbca95992	-0.020672593
231	0x3e295f4d	0.1654026
232	0xbd97bc79	-0.07408995
233	0xbbaff015	-0.005369196
234	0xbd21773a	-0.039420344
235	0x3d2f9b05	0.042872448
236	0x3d58b010	0.05290228
237	0x3d0b1d72	0.033963628
238	0xbdc90e5a	-0.098171905
239	0xbd9cf868	-0.07664567
240	0x3e055987	0.13022433
241	0x3cced6f2	0.025248978
242	0xbc633ef1	-0.013869987
243	0xbbc30429	-0.0059514237
244	0xbded8557	-0.11597698
245	0x3daa6500	0.083200455
246	0x3dd3e4dc	0.10346386
247	0x3d92e472	0.07172479
248	0x3c7afe59	0.01531943
249	0xbe0eb313	-0.13935499
250	0x3c3cec78	0.011530988
251	0x3bbd2667	0.0057724
252	0x3d9f59ea	0.077808216
253	0x3d6ae474	0.057346776
254	0x3d8a4d6f	0.067530505
255	0x3c6997d2	0.014257388

onnx::LSTM_102 f4 [1, 256, 64]
0	0xbe8e89a5	-0.2783939
1	0xbe43a6d6	-0.19106612
2	0x3da9f9cd	0.08299599
3	0xbc8fd758	-0.017558739
4	0x3c47a92b	0.012186329
5	0x3d581dff	0.05276298
6	0x3d981efc	0.07427785
7	0x3d393b10	0.045222342
8	0xbdbe4047	-0.09289604
9	0xbd37ae4a	-0.04484395
10	0xbe596949	-0.2123157
11	0xbd8f8916	-0.07008569
12	0xbd22a0b0	-0.039704025
13	0xbd1962e7	-0.037447836
14	0x3dad7c94	0.08471027
15	0x3d4dce9c	0.050245866
16	0x3e619b58	0.22031915
17	0xbe367c21	-0.17820789
18	0xbdb0f54d	-0.086405374
19	0xbe042ff2	-0.12908915
20	0xbe4e5bd5	-0.20152219
21	0xbd18fa44	-0.037348047
22	0xbe7f2659	-0.24916972
23	0xbe068c5c	-0.1313948
24	0x3d7ad2da	0.06123624
25	0xbd5c3e61	-0.053770427
26	0x37a74f48	1.994487e-05
27	0x3d6a25cd	0.057164956
28	0x3dbfc415	0.093635716
29	0xbd548299	-0.05188236
30	0x3e74df4a	0.23913303
31	0xbe2125f4	-0.15737134
32	0x3ca76d8f	0.020437984
33	0xbe451657	-0.19246803
34	0x3e507de3	0.20360522
35	0xbdb74684	-0.08948997
36	0x3e7d2da7	0.24724446
37	0xbe8aa6ed	-0.2708048
38	0xbdb1d0f5	-0.086824335
39	0x3e25785e	0.16159198
40	0xbdc59ed2	-0.09649433
41	0x3e922e24	0.28550828
42	0xbd001e1f	-0.031278726
43	0xbd82053f	-0.06348657
44	0x3d3f8e58	0.04676661
45	0xbd156151	-0.03646976
46	0x3ea2a142	0.31763655
47	0xbe771514	-0.24129134
48	0xbd8fcff5	-0.070220865
49	0x3e520703	0.20510487
50	0xbdb6c62c	-0.08924517
51	0x3e0ef2dc	0.13959831
52	0x3e31da10	0.1736834
53	0x3dc78469	0.09742052
54	0xbe3fd77d	-0.18734546
55	0xbcef1f87	-0.029189838
56	0xbd868e78	-0.065701425
57	0xbde5f988	-0.11229235
58	0xbda7953e	-0.081827626
59	0x3cabb283	0.020959144
60	0xbe6c6dd8	-0.23088777
61	0x3cf5062a	0.029910166
62	0x3c4f9669	0.012670138
63	0xbe584106	-0.21118554
64	0x3e359c16	0.17735323
65	0x3da130bb	0.07870623
66	0x3deb5a0d	0.11491785
67	0x3e2f51e0	0.17121077
68	0x3cd38d72	0.025824282
69	0xbda97038	-0.08273357
70	0x3e3cadf7	0.18425737
71	0x3d475ebd	0.048674334
72	0x3db9ff00	0.090818405
73	0xbe06a548	-0.13148987
74	0xbe8ab3df	-0.27090356
75	0xbdf65a41	-0.12028933
76	0x3c93f0ae	0.018059101
77	0xbdf5e764	-0.12007025
78	0x3de2fa90	0.11082947
79	0xbc2e80c8	-0.010650821
80	0xbde8c359	-0.113653846
81	0x3d9e925a	0.07742758
82	0x3e8f336b	0.27968916
83	0x3de57843	0.11204579
84	0xbe0b29a9	-0.13590111
85	0x3ea1328c	0.31483877
86	0xbde67e77	-0.1125459
87	0xbdfbb855	-0.12291018
88	0x3c266a6e	0.010157211
89	0xbc27a7bc	-0.010232862
90	0x3e3e9744	0.18612391
91	0x3e894fe5	0.26818767
92	0x3db9edb5	0.09078542
93	0x3d6e5a29	0.058191452
94	0x3dd28d0b	0.10280808
95	0xbb8bfb94	-0.004271934
96	0x3e7a18c1	0.24423505
97	0x3e282643	0.16420846
98	0x3e2ec314	0.17066604
99	0x3dcbf7de	0.09959386
100	0x3d900d60	0.07033801
101	0x3defd2cb	0.117101274
102	0x3e37a43e	0.17933747
103	0x3dd1a437	0.102363996
104	0x3db380ed	0.08764825
105	0xbe62b5a6	-0.22139606
106	0x3cebc912	0.028782401
107	0xbe39defa	-0.18151465
108	0xbe65033f	-0.2236452
109	0xbe7246ff	-0.23659895
110	0xbe5fdc4a	-0.21861377
111	0x3c2db533	0.010602283
112	0xbe0bf44c	-0.1366741
113	0x3e361866	0.17782745
114	0x3c26a8a7	0.010172046
115	0x3cd6adeb	0.026205977
116	0x3e611b12	0.21982983
117	0xbaa03005	-0.0012221342
118	0xbd628227	-0.055299904
119	0x3d97171e	0.07377456
120	0x3dddea1d	0.10835669
121	0x3c3e3de9	0.01161144
122	0xbe0869a7	-0.13321553
123	0xbc83aa84	-0.01607252
124	0x3e0d6c22	0.1381078
125	0x3dd2f111	0.10299886
126	0x3e8d4fd3	0.27599964
127	0xbde4ea93	-0.11177554
128	0xbe30efd5	-0.17278989
129	0x3e17731f	0.14790009
130	0x3e287dab	0.16454189
131	0x3e301027	0.17193662
132	0xbdd37e72	-0.10326852
133	0x3e816568	0.2527268
134	0xbcb395bf	-0.02192199
135	0xbe2c9798	-0.16854703
136	0xbbc77202	-0.006086589
137	0xbccbde71	-0.024886342
138	0x3d9cd9a4	0.07658699
139	0x3e7a9f3a	0.24474803
140	0xbe1acca7	-0.15117131
141	0x3d90bde8	0.07067472
142	0xbbcae9c2	-0.006192417
143	0x3ddcd77c	0.10783288
144	0x3d4e3fc3	0.050353777
145	0x3cfdf9a8	0.031002834
146	0xbc8dc38f	-0.017305164
147	0xbe140556	-0.1445516
148	0xbcbc8301	-0.023011686
149	0x3db658d8	0.08903664
150	0xbd8c73df	-0.06858038
151	0xbe19e60a	-0.15029159
152	0x3d8cc2f1	0.068731196
153	0x3d6549a5	0.055978436
154	0xbe1bebf1	-0.15226723
155	0x3d706e61	0.058699016
156	0x3da9b782	0.082869545
157	0x3e1b4640	0.15163517
158	0x3e5c50f6	0.21515259
159	0x3d90f5f7	0.07078164
160	0xbd433fee	-0.04766839
161	0x3d9ea6ec	0.077466816
162	0xbdb4a550	-0.08820593
163	0xbe0dbd4c	-0.13841742
164	0x3e450f6d	0.19244166
165	0xbe6c52a7	-0.23078404
166	0xbc8ddd62	-0.017317478
167	0xbe297b74	-0.16551
168	0x3e1a6d4e	0.15080759
169	0x3e58e49f	0.21180962
170	0xbde65c19	-0.11248035
171	0xbe44da29	-0.19223846
172	0xbe37d755	-0.17953236
173	0x3d9dc492	0.077035084
174	0x3e47d0d1	0.19513251
175	0x3dd93c93	0.10607257
176	0x3e130796	0.14358363
177	0xbdecab5d	-0.115561225
178	0xbdb63bb0	-0.08898103
179	0xbe13aa9c	-0.14420551
180	0x3d0ba1fd	0.03409003
181	0x3da28140	0.07934809
182	0x3dc20a17	0.09474581
183	0xbe56cffc	-0.20977777
184	0xbda03f90	-0.078246236
185	0xbe4a33fb	-0.19746391
186	0xbdda6cc4	-0.10665277
187	0x3e28f185	0.16498382
188	0xbe1fdc75	-0.15611441
189	0xbdbf8a73	-0.09352579
190	0xbd901759	-0.07035703
191	0xbcc70a51	-0.024296911
192	0x3e223e5e	0.15844104
193	0x3cffc49f	0.031221686
194	0xbd28f9ff	-0.04125404
195	0xbcf0b8d9	-0.029385017
196	0x3da260ca	0.07928617
197	0xbdd29752	-0.10282768
198	0xbd94464d	-0.07239971
199	0x3e31a864	0.17349392
200	0x3dd981d7	0.10620468
201	0x3e21d853	0.15805177
202	0xbde5139e	-0.11185382
203	0xbcdaa0bd	-0.026687974
204	0x3d59d277	0.05317923
205	0xbdd3e2c8	-0.103459895
206	0x3da30eb2	0.07961787
207	0x3e1f656d	0.15566035
208	0x3dbcb871	0.09214867
209	0x3e52de4e	0.20592615
210	0xbd81b7c5	-0.063338794
211	0xbe486586	-0.19569978
212	0xbdab721f	-0.08371376
213	0x3e1f553c	0.15559858
214	0xbe2b3ff3	-0.16723613
215	0x3e4b7a9b	0.19870989
216	0xbda0c377	-0.07849782
217	0xbdb0299a	-0.08601685
218	0x3d1321ff	0.035921093
219	0xbe1201d3	-0.14258508
220	0xbe19524e	-0.14972803
221	0x3d919598	0.07108611
222	0xbe459d75	-0.19298346
223	0xbcf919e9	-0.030407863
224	0x3e13a5cf	0.1441872
225	0xbde4a5f7	-0.11164468
226	0x3d3665c5	0.04453065
227	0xbe4f14d6	-0.20222792
228	0xbe04e7b4	-0.12979013
229	0x3e5c4510	0.2151072
230	0xbe31c439	-0.17360009
231	0x3e705eb0	0.2347362
232	0x3dbf9a38	0.09355587
233	0xbc968a1f	-0.018376408
234	0x3db931b3	0.090426825
235	0x3db4d40c	0.08829507
236	0xbdda8757	-0.10670345
237	0xbe1075bd	-0.14107414
238	0xbcf34d1c	-0.029699855
239	0xbded9382	-0.116004005
240	0xbd5094e2	-0.050923236
241	0x3deed718	0.116621196
242	0x3e136eec	0.14397782
243	0x3c959ec4	0.018264182
244	0xbe4fabee	-0.2028043
245	0x3e24e1a4	0.161017
246	0xbd2cb331	-0.042163078
247	0x3c62f576	0.013852468
248	0x3ca82ebc	0.020530097
249	0x3e191c78	0.14952266
250	0x3e3a8cff	0.18217848
251	0xbd79f4c0	-0.061024427
252	0x3e40066e	0.18752453
253	0xbe552f28	-0.2081877
254	0xbe5b4a9e	-0.21415183
255	0x3e74ca8d	0.23905392
