code/selfparking/mla/results/final_04/Car/Car-48999982.onnx (onnx, 712368 bytes, 10 tensors)

network_body._body_endoder.seq_layers.0.weight f4 [256, 111]
00000000: 8d85 c7bd ead3 973d baa8 f13c 09f6 2f3d
00000010: 9a9c 01be ca5a f7bc 1059 8cbd 0d00 6abd
00000020: 4449 08bd 9e8a 93bd 286f d7bd f40a 933d
00000030: 078b a0bd 307e 4f3e b2f3 0a3e 1671 a23c
00000040: 156a 0e3d a353 9ebc c533 e3bd 72cb 16be
00000050: 79e7 66be bf8c 4e3b 7f89 68bd 9786 9dbd
00000060: 5989 223e 8a7b 173e 9a60 34bd 162b dd3d
00000070: 5040 03bb e82e c23e aa94 d13d b225 d53d
00000080: a819 05be d349 263e ef19 9a3d 2879 143c
00000090: 4548 8f3c 3241 7b3e 4d89 9a3d 44af 60b9
000000a0: c6a8 06be 2d05 5f3c fde9 6dbe 3dcc 6cbd
000000b0: b60a 133e 4baa 87be 5951 823e 7d1e 863b
000000c0: 4959 0d3d 430f 4fbe 1131 05bc 0982 01bd
000000d0: a3c3 203e fa3c 473e bffd b8bd 7695 c3bd
000000e0: 6e06 f9bc 1c50 bfbb 1c18 d5bc beee 67bd
000000f0: d39b 44bc 81c9 313e 88bc 793d be79 fcbd
00000100: 8fb0 16be 4e71 20be b7eb ae3c bd32 a8bd
00000110: da42 5d3e 5002 213e 3f8f 57b9 88f7 f6bd
00000120: 098d f5bd 7720 373c 291d 263e 07f7 943d
00000130: d6c6 ad3c b230 213e f011 75be 5517 b4bd
00000140: 52f0 65be 9281 26be c3c8 44bd d73a 5c3d
00000150: 1fdb 7abe fb8c 443c dccc 91bc 6716 3cbe
00000160: 5452 46bd 1d37 8a3e 32cd c0bd 6fb9 393d
00000170: 3b5a bfbd 8c84 d4bc 3d1a 34bd 7de5 0f3e
00000180: 4ec5 ffbc fa54 923c f3ef 82be 5479 7f3c
00000190: 17ab 3dbe 0c98 23bd 2415 363e 3694 ac3d
000001a0: c9eb b0bd 8fcd f93d 6db4 3a3d 3fae 163e
000001b0: 2105 653d ae21 1abe 6978 fc3d b4c8 5d3e
000001c0: eee5 ae3c 98bb 90bd 2cec 1b3d 36f8 dd38
000001d0: 65f1 9bbe d5d4 33be e6d6 f8bd f222 323e
000001e0: 1ed3 57bd b47e 333c 0bff 54bd 6941 f1bd
000001f0: 5c8d 823d d590 6abe 5953 5bbd ce49 bbbd
00000200: d1af 6bbd f5a2 5d3e 0082 cfbd 677e f7bc
00000210: f3a6 89be 86b7 ae3d 3951 11bd c3f7 83be
00000220: a2b3 34be 58a1 073d 885e c7bb ff48 783d
00000230: 4493 6f3d e061 203e a0d2 733c 1e19 8f3e
00000240: c9a4 efbd 537d 773b a623 39be 84d3 303e
00000250: ce66 3fbe f729 a33d 914f 6dba 72bf 39bc
00000260: 5f69 ce3d f65e 1dbd c478 c33c 7b7a afbd
00000270: fffd 09be 3b04 833e 8d08 5b3e 34c9 34be
00000280: bbeb 833e 317c 7cbe 6617 c4bd 790b fc3d
00000290: 33a1 93be 2ea0 b93b 95ed a43d 6320 533c
000002a0: 0393 703e 4687 cabd 1b67 9b3d 4383 ad3b
000002b0: 983e 353d df1f 0bbe 711a f6bd 0093 8dbd
000002c0: 6abc 463d e250 14be a182 2f3e 6b4d 63be
000002d0: fc86 ca3c f9cc b4bd cbc8 49bd a6e6 cf3d
000002e0: 16fd 33bc 5406 d0bd 7325 38bb f6f4 bdbd
000002f0: a02c 6cbe e086 3c3e 245f e03d 8572 f5bc
00000300: 7c03 f6be 0da1 163e 2c49 043e 7170 9abe
00000310: aa36 1bbd 34d5 01bd 5c82 3c3d 79e6 2bbe
00000320: 63f1 5ebe 5fe1 373e 6683 39be b6a5 da3d
00000330: 5dea 943d c7e9 98bd 8b34 e53d 333d 26bc
00000340: d20e 32bb 6a9d ebbd 8e57 46be fb90 253d
00000350: b933 403d 0be3 a5bd c214 e8bd 0ace 50bc
00000360: d89a 503e 45de 52bc 7676 a73d c5e5 88bc
00000370: 4d9a c93d 9c32 b7bd 4d60 d7bd 26db ee3d
00000380: 0b92 0cbd 0fe5 823d 4de7 88be daa6 563d
00000390: 3bef 843d c3a3 063d 618d 72be 38b8 febb
000003a0: 83b5 fb3d cc8d 393e ade2 66be e28b 063e
000003b0: 4e8c 573d 5542 5cbd e7fb 1e3c a276 d63d
000003c0: 6437 bcbd 8623 b4bc a00c b93d 0c32 e33e
000003d0: 2d58 0f3e a06b b2bd c98a 22bd 407f 393e
000003e0: f0fb 98be 0d6c 62bd c130 c33d 973f 0dbd
000003f0: 9794 31be 2417 33bd 9186 a4bd 7f85 273e
-0.0974227 0.07413466 0.0294994 0.042959247 -0.12657395 -0.030194659 -0.06852925 -0.057128955
-0.033272997 -0.072041735 -0.10519248 0.071798235 -0.07839017 0.2026298 0.13569525 0.019829314
0.034769136 -0.01932699 -0.11093859 -0.14726046 -0.22549237 0.0031516997 -0.05677175 -0.076916866
0.15872706 0.1479322 -0.04403744 0.107992336 -0.0020027347 0.37926412 0.102334335 0.104075804
-0.12998068 0.16239099 0.07524478 0.009062089 0.017490515 0.24536589 0.07545719 -0.00021427596
-0.1315032 0.013612074 -0.2323379 -0.057811964 0.14359555 -0.2649711 0.25452688 0.00409299
0.034508977 -0.20220666 -0.008129374 -0.03161815 0.1569963 0.19456854 -0.09032773 -0.09549992
-0.030398574 -0.005838407 -0.026012473 -0.056624167 -0.012000042 0.17362024 0.060970813 -0.12327908
-0.1471579 -0.15668222 0.021352632 -0.082128026 0.21607533 0.15723538 -0.00020557361 -0.120589316
-0.11989791 0.011177174 0.16222061 0.07273679 0.021212976 0.15741232 -0.23932624 -0.08793513
-0.22454956 -0.16260365 -0.048043024 0.05376705 -0.2449765 0.011996503 -0.01779788 -0.18367921
-0.048418358 0.26995173 -0.09414138 0.04534286 -0.09343382 -0.02594211 -0.043970335 0.14052387
-0.031222012 0.017862786 -0.25573692 0.015592892 -0.18522297 -0.039939925 0.17781502 0.084267065
-0.086387224 0.1219741 0.045582224 0.14714907 0.055913094 -0.1505191 0.12327654 0.21658593
0.021349873 -0.07067031 0.038067028 0.00010584334 -0.30457607 -0.17561658 -0.121503636 0.17396143
-0.05269157 0.010955501 -0.05200104 -0.11780054 0.063746184 -0.22906812 -0.053546283 -0.091449365
-0.05754072 0.21644194 -0.101322174 -0.03021164 -0.26885185 0.08531098 -0.03547785 -0.25774965
-0.1764665 0.033112854 -0.006084267 0.06061649 0.058490053 0.15662336 0.01488176 0.2794885
-0.11701352 0.0037763908 -0.18080005 0.17268187 -0.1869156 0.079669885 -0.0009052689 -0.011337148
0.10078692 -0.03842064 0.023861296 -0.08568283 -0.13475798 0.25589165 0.2138998 -0.17654878
0.25765786 -0.2465675 -0.095747754 0.12306876 -0.28833923 0.005664847 0.08053128 0.01288614
0.2349358 -0.098890826 0.07588025 0.0052951886 0.044249147 -0.13586377 -0.12016762 -0.06912804
0.04851953 -0.1448398 0.17139675 -0.22197501 0.024722569 -0.08828158 -0.049263757 0.101514146
-0.010985633 -0.10157457 -0.0028098493 -0.09275238 -0.23063898 0.18410826 0.10955647 -0.029961834
-0.48049533 0.14709873 0.12918538 -0.3016391 -0.03789393 -0.031697467 0.046022758 -0.16787137
-0.21771769 0.17957066 -0.18116531 0.10676138 0.07271264 -0.074664645 0.111916624 -0.010146427
-0.0027169478 -0.11504634 -0.19369337 0.040421467 0.046924327 -0.08099946 -0.11332084 -0.012744436
0.20371568 -0.012870376 0.081768915 -0.016711125 0.09843884 -0.089452 -0.10516415 0.11662893
-0.034318965 0.06391346 -0.26738968 0.052405216 0.06490942 0.03287102 -0.23686744 -0.0077734254
0.1229048 0.18120497 -0.22547407 0.13139299 0.05262404 -0.053774197 0.009703613 0.10471846
-0.091902524 -0.021989595 0.09035611 0.4437412 0.1399848 -0.08711934 -0.039683137 0.18114948
-0.29879713 -0.055278827 0.095307834 -0.034484472 -0.17341839 -0.04372324 -0.08033479 0.16359518

network_body._body_endoder.seq_layers.0.bias f4 [256]
00000000: 91b6 413c e732 2abd aa0f c8bc 47e0 503c
00000010: 443c 4ebc 5f78 3abd 502a c6bd 4b4c 843d
00000020: 9b16 b1bd dfd1 35bd ef0e 0cbd cdcc 27bd
00000030: 9783 023d 7c0f 773c 7317 edbc 9d96 0c3d
00000040: 6170 96bd 1796 843c 2036 57bc a068 b6bd
00000050: 7af1 d73c 8ae5 74bd 7528 003d 188c b8bd
00000060: c9f1 bf3c 340b 81bc 3454 c4bc baed e6bc
00000070: 535a 583a 2763 3bbd 7288 983c 5ed4 0cbb
00000080: c6bf d6bc 2f8e 0c3c 5e7f 8bbb 59d0 cdbc
00000090: 21f9 c8bc 606d af3c e4b8 62bd 6cf7 abbd
000000a0: 68f0 28ba 872c 1a3d bac5 b43c 8b40 1b3c
000000b0: dc99 903b 3068 b8bd 749e c1bc c153 7a3c
000000c0: fcfb c23c 5480 dc3c c912 8dbd ae9a c2bc
000000d0: 8c4e f2bb 72b1 95bd 2b4d 1c3d 0e50 78bc
000000e0: 29dd 5dbd 1c88 c9ba 9c28 7f3c 76c4 963b
000000f0: a844 7e3a d79b 49bd 39c0 0a3d 5891 293c
00000100: 8fa5 e63c 2002 e0bc 2e20 e5bc ba41 84bc
00000110: 3761 12bd 9af7 9d3c b82f 463c ebb8 a7bd
00000120: c981 193d d2df d13c 2539 d43c 2600 cabb
00000130: 8d64 d5bc 9121 153d ccf9 173d 82c6 233c
00000140: ed00 4abd f291 f3bb cd74 493d fee2 4bbc
00000150: 53c7 e53c 99cb e33c b6f2 613a cdce 223c
00000160: 6473 6abd 41a2 883b 6d93 a0bc c531 cbbb
00000170: 32d4 85bc a127 4cbd b960 9a3c 2fd4 3dbd
00000180: 902a e83c 9011 223d e47f 40bd 97b5 8bbd
00000190: ad76 3bbc 6554 a2bd b539 8e3c ddb2 81bd
000001a0: 7b56 c4bc 2319 d53c 8de8 9dbc 3d68 1dbb
000001b0: 07e2 e7bc 067a bc3c 9863 5bbc 6d59 b1bc
000001c0: 5c98 563d 995b 02bd b1a8 6f39 be44 02bd
000001d0: 0378 2dbd 6b44 b33b 9ae5 883c 0c6f c13b
000001e0: 9b28 cb3c 67f2 3abd 4732 f93c 1e73 e7b9
000001f0: 24fb 423d e4d9 1b3d 6729 883d 884f 4ebd
00000200: 61a9 39bd e7a6 0fbd 7adf 9d38 36a3 b5bc
00000210: 3cd5 163d 1103 a4bd 0071 45bc 707f ce3c
00000220: 2d27 a5bb 95cb fbbd 1407 283d 717e 63bc
00000230: 6693 55bb 297d 25bc 039a 09bd 80a9 85bc
00000240: 475f 88bc cec3 ee3c d9ba 2fbd 5784 3e3c
00000250: 88c6 9ebd 6ef1 29bc 34eb 283d 569f 173d
00000260: f81a 283c 09fa 38bd aab7 0c3c 0272 34bd
00000270: 00e6 39bd 899d 8abc e73f 6e3c 9f0f 0ebd
00000280: 85bb 9cbd d6c9 683c 79fc 8b3d 77c6 c13c
00000290: 0e01 aa3c 46c6 dc3c afd1 3d3b 118c 16bd
000002a0: 2c2c bdbd fa68 2eba 1afc 4fbb 8982 8abc
000002b0: 8883 52bc af1a cfbc bb2d d8bd 50d6 b2bd
000002c0: 6b51 bcbc be62 4f3c 9494 68bc 183a b4bc
000002d0: 2801 733d 10bf 61bc fb68 5dbd de1d 933c
000002e0: e22a 073d f3fb fa3c 22b4 9dbd 405b f93c
000002f0: 17c8 d9bd fc05 6bbb fcf8 3a3d 51b2 3abc
00000300: 9d4e b3bc 4464 5e3b 95da df3c 79f8 b73c
00000310: a739 463d af35 e7bd 6b4c d4bc 5374 013d
00000320: ca45 4f3d 7c86 12bc e9c0 bdbb 171a 98bc
00000330: 3564 b6bc de47 99bd a81e dcbb 1d59 c9bd
00000340: 0a4a 64bd 457c 003b b5a5 f13c 13ce 0abd
00000350: 0fc5 47bd 88b9 753d 80d2 1d3d 9dde 81bd
00000360: 3827 dcbb f91f 3bbd 2887 063d 6ad2 e23c
00000370: 9db7 28bd 9ebe b3bc 67e1 9ebd 839f ffba
00000380: 8025 a3bc 8357 ae3c d731 f0bd b50a 1bbc
00000390: a764 4fbb 7128 383d d0cd d8bd 06e1 183d
000003a0: f227 31bd 2525 433d 2a74 35bc 6190 c7bd
000003b0: de51 ad3c cfa0 5c3c 13af 04bd 4854 d93b
000003c0: 536c 103d 2e2a 52bd 0928 ffbc f1eb d6bc
000003d0: 05db 3e3c 52db 4d3c 6e10 813c ec02 dabc
000003e0: df62 aa3c 436b 39bd 2b0a 36bd 1d25 793c
000003f0: 9fbd 91bd 9659 d2bb 4986 9dbb 41ff 7b3c
0.011823312 -0.04155245 -0.024421532 0.012748784 -0.012587611 -0.04552495 -0.09676039 0.06459864
-0.0864689 -0.0443896 -0.03419393 -0.040966798 0.031863775 0.015079375 -0.028941846 0.034323324
-0.07345653 0.01618485 -0.013135463 -0.089066744 0.026360262 -0.059789218 0.031288583 -0.09011096
0.023430722 -0.015752412 -0.023965932 -0.028189529 0.00082532055 -0.045748856 0.01861975 -0.0021488885
-0.026214492 0.008578821 -0.0042571267 -0.025123762 -0.024532856 0.021414459 -0.055352107 -0.08396801
-0.0006444515 0.03764012 0.02206694 0.009475837 0.0044128727 -0.09004247 -0.023635127 0.015278758
0.023801796 0.02691666 -0.068883486 -0.023755398 -0.0073946174 -0.07309236 0.03815953 -0.015155805
-0.054165993 -0.0015375647 0.015573647 0.0046010567 0.00096995616 -0.049220886 0.033874724 0.010349594
0.028155116 -0.027344763 -0.027969446 -0.016144622 -0.035737243 0.019283105 0.012096338 -0.08189567
0.03747729 0.025619421 0.025906155 -0.0061645685 -0.026048923 0.036408965 0.03710346 0.009996058
-0.04931729 -0.0074331695 0.049183656 -0.012444256 0.028049147 0.027807044 0.00086192356 0.009937
-0.05723895 0.004169733 -0.019601548 -0.0062010013 -0.016336534 -0.04984248 0.01884495 -0.046344932
0.028340608 0.03956753 -0.046996966 -0.06821745 -0.011441869 -0.07926253 0.017361501 -0.063329436
-0.023967018 0.026012963 -0.019275928 -0.002401843 -0.02830602 0.023007404 -0.013390444 -0.021649087
0.052391395 -0.031825636 0.00022855659 -0.03180384 -0.04235078 0.0054708025 0.016711045 0.0059031304
0.024799636 -0.04564133 0.030419482 -0.00044145522 0.047602788 0.038049594 0.06648522 -0.050368816
-0.045327548 -0.03507128 7.527969e-05 -0.022172552 0.03682445 -0.08008397 -0.012050867 0.025207251
-0.0050400705 -0.122946896 0.041022375 -0.013885126 -0.0032589077 -0.010100641 -0.033594143 -0.016316175
-0.016646994 0.029146101 -0.0429028 0.011628232 -0.077527106 -0.010372503 0.041239932 0.03701719
0.010260336 -0.045160327 0.008588711 -0.04405404 -0.04538536 -0.016920822 0.014541603 -0.034682866
-0.07652954 0.014208278 0.06835265 0.023654206 0.020752456 0.026950013 0.0028964092 -0.03675467
-0.09236941 -0.0006653216 -0.0031735958 -0.016907947 -0.012848742 -0.025281278 -0.105555974 -0.08732283
-0.022988042 0.012657819 -0.01419558 -0.022000358 0.059327275 -0.013778463 -0.054055195 0.017958578
0.03299988 0.030637717 -0.07700373 0.03043902 -0.10633867 -0.0035861721 0.045647606 -0.011395053
-0.021888072 0.0033934275 0.027325908 0.022457348 0.048394825 -0.11289536 -0.025915345 0.031605076
0.050603665 -0.008943196 -0.005790819 -0.018567128 -0.02226458 -0.07484411 -0.0067175217 -0.0983145
-0.05573467 0.001960532 0.02949796 -0.033887934 -0.048771914 0.05999139 0.038530827 -0.06341288
-0.0067185424 -0.04568479 0.03284374 0.027688224 -0.041190732 -0.02194148 -0.07757836 -0.0019502494
-0.019915342 0.021281963 -0.11728256 -0.009463002 -0.0031645687 0.044960443 -0.105861306 0.037323974
-0.043250985 0.047642846 -0.011075059 -0.09744335 0.021157201 0.013466074 -0.032393526 0.0066323616
0.035259556 -0.051309757 -0.03114702 -0.026235553 0.011648898 0.012564497 0.015754905 -0.026612721
0.020799099 -0.04526831 -0.04444329 0.015206602 -0.071162455 -0.006419371 -0.004807268 0.0153806815

network_body._body_endoder.seq_layers.2.weight f4 [256, 256]
00000000: bf2a a23b c8aa 2fbe 702c 59bc 36a5 87bd
00000010: 644b 8abd ac65 873b 6074 c0bd 6ede cebd
00000020: 0697 9d3d 6f39 973c e6e1 433c 6b05 e13d
00000030: 2d92 0e3d 9788 293d 1bdd c1bd cd32 6dbe
00000040: 7a53 d73d 9a16 a8bd a284 4f3d ea4c 753c
00000050: 07b6 bbbd 134a 94bc e023 3a3d f0b7 2f3d
00000060: db89 dc3d 1e66 01be 52e0 94bd 9293 033d
00000070: 541f 2b3e 9dd8 d6bc aae1 063c 7049 033e
00000080: 78bc a0bc 579c 753d 072f fa3c 8aca 80bd
00000090: 0343 80bd 45cf 91bc e7c1 bb3d 5b07 ffbd
000000a0: 1160 fb3d 8303 8ebd 8160 ac3c 2cd1 0bbe
000000b0: 3963 943c 9541 313d ecda 7bbd 1126 173e
000000c0: a2d4 1f3d 71a3 e6bd b690 8fbc c44c 36bd
000000d0: 7eb4 0abd 41f0 133d b2e2 ea3d 63b8 853e
000000e0: 4bd1 463c 7e85 1dbe ae01 1b3d 7183 303d
000000f0: 3231 443d fd09 dc3b 81ff 07be 25b4 cbbd
00000100: f20d 393d c7e2 dabd 970c 8cbd 0ee6 4b3d
00000110: f9fc 2d3d e67b e53c e92e 8d3d df84 863d
00000120: 72df 0fbe f788 56bd 8c0a 0a3e 88b2 96bd
00000130: 1ac1 acbd 3b3f e3bd 187b 0c3c 063a b6bd
00000140: 43d9 763d d036 203e 873e eebc 2039 cfbd
00000150: e15b 50bc 44a5 573d 60b0 0dbe 6dc3 e33b
00000160: 58a1 ee3c 6bf7 263e e614 063d 9553 8b3d
00000170: a72a f5bd f1c4 003e c4ba 773d 7f84 af3a
00000180: 20a2 a33d 9b1a 2b3c 7d79 3a3d 8e1a 9d3d
00000190: eea2 eabc b277 93bd 94f4 11bc d4ec 993d
000001a0: 2fde 583c bb31 6cbd 3c63 503d 9a5a 46bc
000001b0: c01f f8bb 83f4 2dbd 8f2a 29be a62c e83c
000001c0: 9ff3 803e 70c1 99bd 36a2 adbd df6b 863d
000001d0: 77e7 c93d c70a 10bd 172b 2b3d d775 ab3d
000001e0: ffca 703d 52d4 ea3c 7848 983d c720 6bbd
000001f0: 243b aa3d 7414 843d 0441 8cbd 04cd 9dbd
00000200: 0f18 9b3d 26e6 be3d e84e 963c 56b6 7b3c
00000210: 405b 89bd 9bd2 7e3d f128 483e 55b1 dd3c
00000220: 03c2 bdbd bbb1 e3bd e91f 8abc a409 6b3d
00000230: 33d3 59bd 350b 993d d4ca 63bc 1fff fabc
00000240: fca4 f7bc 1608 123d f96d d13c d223 043d
00000250: 0ddb 8e3d 8ccd 733d b51a 88bd 24b7 633d
00000260: 8d99 613d 9048 1d3d 79f1 413d 4500 fb3b
00000270: e101 b2bc 467b e4bd 1de9 0f3c bab0 1d3c
00000280: ad56 7c3d 3687 b1bd 6d6d febd 1117 a2bd
00000290: 5198 4f3b 3ae4 f93d 513a b23c 7d05 003d
000002a0: 23f3 83bd c4bd cebc 874a 4ebc 35cb 46bd
000002b0: 0610 bebd 7a1e 45bd fe8d 12bd 8ba3 16bd
000002c0: 3b0f acbc 2c44 c5bc c819 c33b 66a9 38bd
000002d0: 6fd4 40bd 9f4a c53d 1995 1c3c fa00 47bd
000002e0: 31bf f7bd 68ef a2bc 4ba5 09bd 6004 2ebd
000002f0: 736f d4bb 5a4d 78bd cb5c 1cbd 3fe3 133e
00000300: 5362 95bd cb38 b43d d91b 28be 63ec 0a3e
00000310: f279 7ebd 04ee 993d 47a3 53be 958e 96bd
00000320: 5560 cdbc 3a5a 523d 46d6 e73b db86 bf3c
00000330: 9e3d 7abd 9902 f4bd 98c4 3ebd d878 493b
00000340: 4c0f 16be 3ef1 32bd b806 d53c 232b b3bd
00000350: 9bca debd 12ad b6bc 3cb4 8e3d 2f2f d63d
00000360: 92e6 ecbc 544c 16bd c25b 0f3e b86a 29bc
00000370: 788a 80bd f475 cc3d 63e2 3cbd 7082 ba3b
00000380: 4e34 b93d 094a dd3d f02b 72bc c175 7b3d
00000390: b5ca 56bc 077b 663d 72c2 af3c 444e 45bd
000003a0: 98a7 03be 06d5 98bb 5b46 06bd 2843 583d
000003b0: 24ea f63d 7fd2 d8bd d30d 12bd b303 a43c
000003c0: d9b8 d0bc 97ab 883d 5a27 873c a511 103e
000003d0: 4cb0 6cbd b027 8f3c 5af9 c93c 58a8 0dbd
000003e0: bbcd f33d d449 b5bb da10 043d 68f4 cd3d
000003f0: ca32 00be 3caa c03d 6d5b 383d fb8f f23c
0.0049489434 -0.17154992 -0.013255224 -0.06623308 -0.06752661 0.0041319933 -0.09397197 -0.10101019
0.07694821 0.018460004 0.011955714 0.109873615 0.034807373 0.041390028 -0.09466001 -0.2316391
0.10513969 -0.08207436 0.050663598 0.014971951 -0.09165578 -0.018101728 0.04544437 0.042900026
0.10768481 -0.12636611 -0.07269348 0.032123156 0.1671117 -0.026226336 0.008232513 0.12820983
-0.019621119 0.05996355 0.030540003 -0.06288631 -0.062627815 -0.01779903 0.09167843 -0.12452575
0.122741826 -0.069342636 0.02104211 -0.13654011 0.01811372 0.043275435 -0.061488077 0.14760615
0.03902114 -0.11261643 -0.017525058 -0.044506803 -0.033863537 0.036117796 0.1146902 0.26117238
0.01213486 -0.15382954 0.0378434 0.043094102 0.04789848 0.006715058 -0.13281061 -0.09946469
0.045179315 -0.106877856 -0.06838339 0.049779944 0.04247758 0.028013181 0.06893713 0.06568312
-0.14050081 -0.052376714 0.13480586 -0.07358271 -0.08435269 -0.11096045 0.00857427 -0.08897786
0.06026579 0.1564591 -0.02908255 -0.101183176 -0.012717218 0.052647844 -0.13836813 0.006950787
0.02912967 0.1630532 0.032734774 0.068030514 -0.11971026 0.12575127 0.060480848 0.0013390927
0.07989907 0.010443355 0.045526017 0.076710805 -0.028642144 -0.072005644 -0.00890841 0.075158745
0.013236566 -0.057664614 0.050875887 -0.012106562 -0.0075721443 -0.042469513 -0.16520141 0.028341603
0.25185868 -0.075075984 -0.08478205 0.065635435 0.098586015 -0.035166528 0.04178914 0.083720855
0.058787342 0.028665695 0.07435697 -0.057404306 0.083120614 0.064492136 -0.06848338 -0.07705119
0.07572948 0.09321241 0.018348172 0.0153632965 -0.06706858 0.062212568 0.19546868 0.027062098
-0.092655204 -0.11117884 -0.01686092 0.05738224 -0.05317993 0.07472841 -0.013903338 -0.03063923
-0.030230038 0.035652243 0.025565134 0.032260723 0.06975374 0.059522197 -0.06645719 0.05559458
0.055078078 0.03839928 0.047349427 0.0076599442 -0.021729412 -0.11156325 0.008783606 0.009624654
0.061606098 -0.086683676 -0.12423215 -0.07914556 0.003167648 0.12201734 0.021756323 0.031255234
-0.06442859 -0.025236972 -0.012591011 -0.048533637 -0.092804 -0.048124768 -0.035779946 -0.03677706
-0.021003356 -0.024080358 0.005954001 -0.045083426 -0.047077592 0.096333735 0.009557032 -0.048584916
-0.12097014 -0.019889548 -0.0336049 -0.04248464 -0.0064830123 -0.060620643 -0.03817443 0.14442156
-0.072941445 0.08799895 -0.16416873 0.13566737 -0.062128015 0.07516101 -0.20667754 -0.07351414
-0.025070349 0.051355578 0.007075104 0.023379734 -0.06109392 -0.11914558 -0.046574205 0.0030742195
-0.14654273 -0.043687098 0.02600418 -0.08748462 -0.10878488 -0.022299323 0.06967971 0.10458218
-0.028918538 -0.036693886 0.13999847 -0.010340385 -0.06276411 0.09983435 -0.046114337 0.005691819
0.090431795 0.10805137 -0.014780983 0.061391596 -0.013109853 0.05626967 0.021455023 -0.048170343
-0.128569 -0.0046640662 -0.03278194 0.05279842 0.120563775 -0.10587024 -0.035657715 0.020021295
-0.025478767 0.06673353 0.016498256 0.14069231 -0.057785317 0.01747498 0.024655033 -0.034584373
0.11904474 -0.0055324826 0.032242633 0.100563824 -0.12519374 0.0940747 0.045009065 0.02960967

network_body._body_endoder.seq_layers.2.bias f4 [256]
00000000: e1d1 15bd 68ab 7bbd bb7d fe3c 9962 413d
00000010: dd0d c33c 7716 b03c dbfe 88bc 62cb 663a
00000020: 47a3 0abd 7c32 14bd c51e b3bc af29 8f3b
00000030: 94cf ddbc 8614 f83c 5af1 f0bc 4ccf 873c
00000040: 9879 6f3a f01d 25bd d856 1b3c bb30 553c
00000050: a0fd 85bc a5c1 d8bc 693d a43c a56b 2fbc
00000060: 3f22 91bd 28bb b3bc 735a d73c d07a 493d
00000070: 6e20 3ebd 9562 74ba 6392 0b3d b0c4 5f3c
00000080: da16 16bc 1a01 34bd 2af2 b8bb 9c13 1bbb
00000090: 91b8 a53d 5bbb a63b e064 8dbc 7651 043d
000000a0: 2dbf 08bd 6d73 243d f0c2 8e3c c741 b7bc
000000b0: b0d3 dd3a 1d0f 6bbb 3e15 4d3c 1476 20bd
000000c0: ae52 05bd f822 5cbb a83f a03c 3e56 e43c
000000d0: edac 3fbd 1cdd e63c 2d47 3ebd 6002 80bc
000000e0: 248d 963b 57f9 623d 9e69 b5bc a037 32bd
000000f0: 429f 48bb 61aa e9bc 9b53 0e3c 9f7f e33a
00000100: afe7 613d 7c5d 95bb eb69 5cbd 7ae6 8a3b
00000110: 60cb 1a3c 29aa 2fba 03a3 ed3b d135 193d
00000120: bb3c 113d 0203 fc3b 4b7f 0f3c ce16 adbc
00000130: 87b0 fa3b 58f7 633d 223b f5bc b3a5 32bd
00000140: 8eb1 efba 2e10 2ebc d9ae fdbc 64c6 fdbb
00000150: 6abc d8bc a541 9fbc c1e5 e6bc db72 21bc
00000160: 6f29 1c3c bdec d53c ac98 8d3d ae19 00bd
00000170: 5e2c 1dbd 1247 f4bc 61c9 86bc 4a29 a23d
00000180: 6e64 013d 3682 f4bc 8450 ccbc b55e 583c
00000190: 0e38 f6bc a205 573d 69c1 0bbc 8852 f0bb
000001a0: cd30 783b edec 9c3b abf7 b2ba 72af 17bb
000001b0: 05de 463c deef 513c 54f9 05bd 4bc6 33bb
000001c0: 53d2 95bc 05e4 043c 3791 10bd 23a1 7d3c
000001d0: b619 11bd 4219 dbbb 03b3 da3c 27a3 863c
000001e0: 8091 16bd 5785 773d c9af a3bc 3ae1 1cbd
000001f0: 18ed 403c 9ea6 f0bc 944a 36bc 9684 023d
00000200: b3fa 553b 90c9 9fbb e107 2f3d 64ef 59bc
00000210: 8bbd 0fbd 1808 19bd 4518 f839 1778 4c3c
00000220: 54e7 5b3d 4c58 743c b7d6 413d 2c87 31bd
00000230: a013 3fbb b2d4 a93b 7375 403d 5efe 32bc
00000240: 8700 a83b c909 433c 02c9 7f3c 0ece b4bb
00000250: bcdf 833c 945b 63bd 7853 f43a e7dd 0abc
00000260: c8f1 5b3d a329 01bc d65d 5abc 63ad 4d3d
00000270: 1155 e73c 6991 a93c ef55 513c afa7 1ebc
00000280: d34b 06bc 8665 553d b046 57bc 2bb4 bdbc
00000290: edd5 f73b a3e8 aebb 8d63 5bbc ce0f afbb
000002a0: be93 27bd 276a aebc e9af 39bd a480 ddbc
000002b0: 206c 163d dc0d be3c 8a88 a8bc 120d d6bc
000002c0: e524 973c 3207 edbc cdf9 2b3c 8b22 99bc
000002d0: 7055 663c e9a3 a53c 5f42 a7bc 9729 edbc
000002e0: 06f2 e9bd 85a1 f83a 697d c2bc dd47 693c
000002f0: 7ee4 ba3c 41e4 583d 4820 10bd 1489 febb
00000300: 115d 50bc 114c 8fbc b262 453c d7ae da3b
00000310: c369 cabc 2af8 c53b b956 e2bb 4aae 153d
00000320: b839 a9bc aa44 093c 4c7c 003d 2360 853c
00000330: 70e0 d3bc d7aa cabd e1ff 8cbc c2b4 bdbc
00000340: 4100 aabd 2449 21bd 06f5 703b 494c 10bd
00000350: 8a9d bb3b afa3 6c3c 951e aabc 0e10 ac3c
00000360: c7ba 32bd ffb2 9f39 4046 aaba aead 693c
00000370: 7b60 b4bc bde3 06bd 34d4 0ebd 8210 523d
00000380: ec0b 9cbb 52be 24bb bd44 2c3d 9b68 6dbd
00000390: fd19 06bc 3abe 9b3a 6c58 cb3a eed5 80bc
000003a0: 5a7d 2abc 8f34 2d3b 6bac 09bc bd83 cabc
000003b0: 1b27 33bd 54eb 37bd f4c3 bbbc 3173 6fbd
000003c0: 1672 28bd 2fd5 3b3d 4c9d 743c ab0c 4fbc
000003d0: 2677 0eba 3464 7bbc a78c 41bb ad9e 0fbd
000003e0: 99c6 c6bd 1025 44bc 79ad 45bd d1c2 d1bc
000003f0: c7ee d13c d4ff d83c 73bb 98bb 5bad 813d
-0.03657711 -0.061442763 0.031065812 0.04721317 0.023810321 0.021495087 -0.016723087 0.000880411
-0.03384712 -0.03618096 -0.021865258 0.0043689827 -0.02707652 0.030283224 -0.02941196 0.016578339
0.00091352453 -0.040311754 0.009481154 0.0130121065 -0.01635629 -0.026459524 0.020048814 -0.010706817
-0.0708661 -0.021939829 0.026288247 0.04918939 -0.046417646 -0.0009322551 0.034075152 0.013657734
-0.009160722 -0.043946363 -0.0056441026 -0.002366281 0.08091844 0.0050882525 -0.017260015 0.03230425
-0.033385444 0.04014914 0.017426938 -0.022370232 0.001692405 -0.0035867163 0.012517272 -0.039175108
-0.032549553 -0.003359018 0.019561604 0.027873155 -0.046795774 0.028181605 -0.046454597 -0.015626132
0.004594462 0.05541357 -0.022145089 -0.04351008 -0.0030612503 -0.028523626 0.008686925 0.001735676
0.05515259 -0.0045582633 -0.05381195 0.0042389007 0.009447902 -0.0006701076 0.0072520985 0.03740484
0.035458308 0.0076907882 0.008758376 -0.021129038 0.007650438 0.055655807 -0.029935423 -0.043615054
-0.0018287168 -0.010623975 -0.030967163 -0.0077445973 -0.02645703 -0.019440481 -0.028185727 -0.009854044
0.009531363 0.026113862 0.069138855 -0.03127449 -0.03837239 -0.029819045 -0.016453447 0.079180315
0.031589918 -0.029847246 -0.024940737 0.013206174 -0.030056026 0.052495606 -0.008529999 -0.0073340572
0.0037870884 0.004788986 -0.0013654133 -0.0023145345 0.0121378945 0.012813536 -0.03270848 -0.0027431424
-0.018288767 0.008111005 -0.035294738 0.0154803125 -0.03542491 -0.0066863606 0.026696688 0.016435219
-0.036759853 0.060429897 -0.019981282 -0.03830073 0.011775278 -0.029376324 -0.011126179 0.031864725
0.003265065 -0.004876323 0.042732123 -0.013301704 -0.03509287 -0.037361234 0.00047320328 0.0124798035
0.05368741 0.01491363 0.04732391 -0.0433418 -0.0029155985 0.005182826 0.04698701 -0.010924904
0.005127016 0.011904188 0.015611889 -0.0055177277 0.016097896 -0.055507258 0.0018640598 -0.008475757
0.053697377 -0.007883462 -0.013328036 0.050214183 0.028238805 0.02069922 0.012776836 -0.009683534
-0.008196789 0.052098773 -0.013139412 -0.0231572 0.0075633437 -0.005337791 -0.013390434 -0.0053424602
-0.040912382 -0.021290852 -0.045333777 -0.02703888 0.03672421 0.023199968 -0.02057292 -0.02612928
0.01845021 -0.028934095 0.010496569 -0.01869323 0.014058456 0.02021976 -0.02041739 -0.028950496
-0.114231154 0.0018969035 -0.02374144 0.014238325 0.022814032 0.052952055 -0.035187036 -0.007767806
-0.012717501 -0.017492326 0.012047457 0.0066736746 -0.024708634 0.0060415464 -0.006907311 0.036543168
-0.020657405 0.008378187 0.03136854 0.016281193 -0.025863856 -0.09895866 -0.017211856 -0.023157481
-0.0830083 -0.039376393 0.003676714 -0.035229 0.005725567 0.014443322 -0.020766536 0.02100375
-0.043635156 0.00030460206 -0.0012990907 0.0142626 -0.022018662 -0.032932032 -0.03487034 0.051285274
-0.0047621634 -0.0025137854 0.04205774 -0.057961088 -0.008184907 0.0011882253 0.0015514023 -0.01572701
-0.010405863 0.0026429032 -0.008402924 -0.02472102 -0.043738466 -0.04490216 -0.022920586 -0.058459464
-0.041124426 0.045857605 0.014930081 -0.012637298 -0.00054346246 -0.0153437145 -0.0029533298 -0.035063434
-0.09705848 -0.011971727 -0.04826114 -0.025605591 0.025626553 0.026489176 -0.0046610176 0.06331893

action_model._continuous_distribution.log_sigma f4 [1, 2]
00000000: 07a3 8ec0 af08 60c0
-4.457401 -3.50053

action_model._continuous_distribution.mu.weight f4 [2, 64]
00000000: d229 0fbd 0f74 10bd 183a 40bd 4bd2 9fbd
00000010: 0add 9c3c 6c57 b13d efa1 2c3d b664 5a3e
00000020: 8488 f13d 1ccc 803d 04b4 d63d 439b 753e
00000030: abfe 7dbb c74e e3bd 8c35 0d3e cf57 0ebe
00000040: 7d66 d83d ed2e 7e3e 239c 1bbe d4f9 5bbe
00000050: 382d 7ebd 9a87 163e a530 303d 2098 3dbe
00000060: 9a7c 0f3e 8795 e73d 7850 7ebe fbfd 22be
00000070: 94be 613e 8703 f2bc 97e5 15be 4b6e ee3d
00000080: 39c8 3ebe aa7b 893d f784 0e3e 6510 2a3e
00000090: 7132 273e 01a8 ef3d b92d 23be 2194 783e
000000a0: 7006 013e 6506 1a3d 6e37 aa3d 94bc 88bd
000000b0: d977 143e c3f2 a03d 2c95 063e a74a febd
000000c0: 1446 583e 9dbd d23d 4799 843e 7505 863e
000000d0: a848 2d3c 0706 65bd b6a4 333d 406a 6c3e
000000e0: 48c4 623e 32fb 123e f83b 813e 4a48 6c3d
000000f0: db97 9cbc 4c33 203e 2515 17bd 347d 743e
00000100: 97b7 ec3d 4de4 06be ef21 003e 0b08 8cbe
00000110: 5ab1 843c 38e4 07be 2d06 54be ddd6 17be
00000120: 45ca 983c e813 073d 89f2 83bd 7609 8cbb
00000130: 91fe 83be 2487 8c3e ed25 733e 81d6 02be
00000140: 6d5f f0bd 5dab 9b3c a246 4cbe 57a4 c93c
00000150: f6e9 2c3e aa54 fe3d a3b6 743e 3bbc 003e
00000160: f693 c2bd 72af a13e 3dee e1bc 6681 f43d
00000170: 96f5 813d 3081 1b3e 0b27 0d3e ed93 c1bc
00000180: 04e0 a93d 0302 55be 68b1 cdbd 3b65 97bd
00000190: e8f2 753b 3597 a63d 8564 d83d 6036 32be
000001a0: 5fb9 9fbd 043d 3cbe 1729 34be a808 273e
000001b0: 656a dfbc 326a 45be 08e8 fd3d d0d0 d1bb
000001c0: 868c 8d3c 6b7e 423e fe61 2a3e 5f7b 21be
000001d0: a3b6 163d 8d46 4f3e fe53 25be 043f 4ebd
000001e0: e183 053d 6c65 b5bc d0b3 52bd 5733 d5bd
000001f0: f8cb 13be 13d9 5cbd ce33 963d 9afc a23c
-0.034951992 -0.035266932 -0.046930403 -0.07803782 0.019148368 0.086592525 0.04214662 0.2132748
0.117936164 0.06288931 0.10483554 0.23985009 -0.003875653 -0.1109901 0.13789958 -0.13900684
0.10566423 0.24822588 -0.1519628 -0.2148202 -0.062054843 0.14700165 0.04301514 -0.18515062
0.14012375 0.11307817 -0.24835384 -0.15917198 0.22045356 -0.029542698 -0.14638363 0.116421305
-0.18631066 0.0671304 0.1391791 0.16607817 0.16327836 0.11701966 -0.1593541 0.24275257
0.12600112 0.037603755 0.083113536 -0.066765934 0.14498843 0.07858803 0.13142842 -0.124165826
0.21120483 0.10290072 0.2589819 0.26176038 0.010576405 -0.05591395 0.043858252 0.23087406
0.22145188 0.14353636 0.25241065 0.057686128 -0.01911538 0.15644568 -0.0368854 0.23875886
0.115584545 -0.13173027 0.12512945 -0.27349886 0.016197849 -0.13270652 -0.20705481 -0.14828058
0.018651137 0.03297797 -0.06442744 -0.004273589 -0.25780156 0.27446854 0.23744936 -0.12777139
-0.11736951 0.01900261 -0.1994882 0.024614496 0.16886124 0.12418492 0.23897795 0.12571804
-0.095008776 0.31579167 -0.027579421 0.11938743 0.0634567 0.15186 0.13784425 -0.023630107
0.08294681 -0.20801549 -0.10043603 -0.07392355 0.0037528817 0.08134309 0.105660476 -0.17403555
-0.077990286 -0.1838265 -0.175938 0.16311896 -0.027272413 -0.19278792 0.12397772 -0.006403066
0.01727892 0.18993537 0.16638944 -0.15769719 0.03679527 0.20241757 -0.16145322 -0.050353065
0.032596473 -0.022143088 -0.051441014 -0.10410183 -0.14433277 -0.053917956 0.073341 0.01989584

action_model._continuous_distribution.mu.bias f4 [2]
00000000: cb58 34bd 12d3 dfbb
-0.044029992 -0.0068305815

onnx::LSTM_101 f4 [1, 256, 256]
00000000: 500e c83c e550 f43d 67cc e83d f2c2 83bd
00000010: 1a49 76bc 398d 47bc a34a b0bd 062c b3bc
00000020: 00da da3c b04b 5a3c a238 503d 0129 43bd
00000030: 940f 213e 160f 083e 73ba 233d 35c3 0abc
00000040: be38 1fbe 897f c8bd 4193 90bd e837 1b3c
00000050: d02b 473e 9d71 973d e718 06be 8350 cbbd
00000060: 2b50 033e 9a7c 7abd a6ea 9ebc 17b0 dabd
00000070: 3427 bbbd ccc7 8c3b df5d 293e d844 6ebd
00000080: 4a70 bc3d a279 183e 5620 da3d 9312 0e3e
00000090: f391 32be 4e01 d03b 833b 343e 25cf e5bd
000000a0: 5f35 e4bd 308a a03d 0319 023e 79b2 99bc
000000b0: d6cf 0cbe a885 70be c608 e13d 705a f6bb
000000c0: afcc 553e 276d 533d c8ec a2bd 86f8 74bc
000000d0: 4064 033d 707c 2d3b 8fee ab3d 3370 c73d
000000e0: c2e8 123e 618b 30bc 52b2 57bd 8221 8dbd
000000f0: 4d02 22be 101a 8cbd 29c4 0e3e 817e a53d
00000100: 548c 4dbe 856a 09bd b822 88bc 811f 9b3d
00000110: 31be cebb ec46 c4bd e8d5 8cbd e6de 9439
00000120: edfe 0ebe b0ac 0b3c 799f aebd 161e 86bd
00000130: 575c 723c c5a1 23be 1e44 f2bc 5162 5f3d
00000140: d112 c53d 1748 14bc f1bf 6abc a5e0 62bc
00000150: 8d20 54bd 3cbd c43c ab38 4f3d 29e1 be3d
00000160: 58da ee3d 9302 12be 55d1 2c3d bbba d73d
00000170: bd69 163e 8459 1d3e 7519 233d 8c5e 17be
00000180: 9889 92bc 2f08 d63c e282 d0bc aa9b 6ebd
00000190: 74b0 0e3e 48e2 c3bc 0ecd 943d f529 5d3d
000001a0: 3ae4 cebd 8d7d debd 0448 54bd 3197 c5bd
000001b0: ee83 d63d 20fd 1b3c c290 2abd 3fbd 9e3d
000001c0: 3f0f b03c f37e 813d ab14 c8bd 5bd5 053d
000001d0: e067 203e 7cf2 e93d 4837 06be da0b 1cbe
000001e0: e25b 493d 7dee d13d cdc5 37bc 32a9 b33c
000001f0: 251f a13d 8935 31bd a317 cb3d 28f9 1abd
00000200: 8100 853d 9463 d3bc ee02 a5bd 38c6 eebc
00000210: 28aa 3a3c ce25 e83c 4c28 c9bd 751c d8bd
00000220: d5b1 34be 4163 82bd 2cf8 d73c 0e34 af3c
00000230: 80ad e03d d3b6 433c 2f67 36be 9ef6 dc3d
00000240: 433c a53d ddee a93d 8bad 0d3d ce06 063c
00000250: d4dd c4bd a5f0 823d 3c66 ef3d 84ed 963d
00000260: 374c 5dbc 9517 30bd f674 78bc 39a4 b7bd
00000270: af79 cc3d 19d7 543c 6abc e8bd 8b01 053c
00000280: 11e0 ef3c 1b7d ad3d f130 713c 6233 26bc
00000290: f952 cebc b641 d93c 814d da3d bc87 c93d
000002a0: 508b 173e 945d efbc a59a d03d d2ed cebd
000002b0: 9db3 25bd 73a5 b63d da76 a7bd 8875 043d
000002c0: 2a1c 9dbd aebc 123e 87fd a4bd aaf0 8bbd
000002d0: faf0 53be ba7a db3c 6bea 433d 74cf c3bd
000002e0: d3c9 033e 9ca3 65bd 27a5 1e3e cc01 9e3d
000002f0: a112 673d 4c26 df3c a4ed c83d 06cc 0fbe
00000300: 52b7 3c3d 1b39 123e e1a4 2cbd 4714 26be
00000310: 3c6b 53bd e8ec 80bd 2fc2 febd ba21 1ebe
00000320: ceaa bb3d 0b15 95bd 2a24 5fbe fb63 a43d
00000330: 9fe6 e63d cf9e ea3c 47f2 7abd e128 003e
00000340: 6038 823d 0d55 083d 5d32 2abd c6e9 1d3e
00000350: ddcf 99bd ad98 73bd 85a9 cdbc 2f79 4dbe
00000360: 2990 453d 9c63 67bd 9c48 f23d cc30 c3bd
00000370: d530 3dbd e826 a33d 0359 26bc c661 47bd
00000380: 9387 f0bd c637 8dbc 2317 fcbd f34a 163d
00000390: 2de0 1abe 6117 6ebc 767a bebc 0a57 013d
000003a0: 76b9 f7bc 79cb a5bd 2e09 1b3d 48c5 e2bd
000003b0: 1270 6d3d 9b87 ba3d f8ef 113c ed68 3e3e
000003c0: 2607 f7bb 9384 053e 05eb 30be d4dd dc3d
000003d0: ac5d dcbd c646 923c 2d13 9fbd 3a2d 8b3d
000003e0: 15d3 713c 37c4 c33d 4d44 333d 37f7 eabd
000003f0: cde6 a6bd e4fc dfbd 38bc 30bd 6d1e 63bd
0.024420887 0.11929492 0.11367112 -0.06433667 -0.015032077 -0.012179666 -0.08607986 -0.021871578
0.026715279 0.013323709 0.05083526 -0.047646526 0.15728599 0.13287005 0.039972734 -0.008469393
-0.15548989 -0.097899504 -0.070593365 0.009473778 0.19450307 0.07394717 -0.13095437 -0.09927466
0.1282355 -0.061153986 -0.019398998 -0.10678118 -0.09138337 0.0042962786 0.16539715 -0.058171123
0.09201105 0.14890149 0.10650699 0.13874273 -0.17438488 0.006347812 0.17600827 -0.1122115
-0.11142992 0.07838857 0.12704854 -0.01876186 -0.13751158 -0.23488486 0.109880015 -0.007518105
0.20878862 0.051617768 -0.07955319 -0.014951831 0.032078028 0.0026471876 0.08395111 0.09738197
0.14346603 -0.010775418 -0.052660294 -0.06891157 -0.1582119 -0.068409085 0.13942017 0.08080769
-0.20073062 -0.03354885 -0.016618118 0.07574368 -0.0063092937 -0.0958384 -0.06876737 0.00028394832
-0.13964434 0.008525059 -0.08526511 -0.06548707 0.014792523 -0.15979679 -0.029573496 0.05453712
0.096227296 -0.009050391 -0.014327989 -0.013847505 -0.051788855 0.024016015 0.050591152 0.0932029
0.116627395 -0.14258794 0.042191822 0.10533663 0.14688773 0.15366179 0.0398192 -0.1478216
-0.017887875 0.02612695 -0.025453035 -0.05825392 0.13934499 -0.02391161 0.072656736 0.05399509
-0.101021245 -0.10863791 -0.051826492 -0.09647978 0.10474382 0.009520799 -0.041641958 0.077509396
0.021491645 0.06323042 -0.09769567 0.032674175 0.15664625 0.11423203 -0.13107026 -0.15238896
0.049159892 0.10250566 -0.011216593 0.021931265 0.078672685 -0.043263946 0.09916618 -0.03783527
0.06494237 -0.025804318 -0.080571994 -0.029147252 0.0113931075 0.02833834 -0.09822139 -0.10552303
-0.17645963 -0.063665874 0.026363455 0.021387126 0.109705925 0.011945444 -0.17812799 0.10789226
0.08068135 0.08297513 0.03458933 0.008180333 -0.09612623 0.063935556 0.116894215 0.07369521
-0.013506941 -0.04299124 -0.015164604 -0.0896687 0.09984147 0.012990736 -0.11364062 0.008118044
0.029281648 0.084711276 0.014721141 -0.010144087 -0.025186049 0.026520591 0.10659314 0.098403424
0.14799237 -0.029219426 0.10185746 -0.101039544 -0.040454496 0.08918276 -0.08176966 0.03233865
-0.076713875 0.14329788 -0.08056169 -0.068330124 -0.20697394 0.026791919 0.04783098 -0.09561053
0.12869959 -0.056064233 0.15492688 0.077151865 0.05641425 0.027239941 0.09810951 -0.14042673
0.046073265 0.14279597 -0.04214943 -0.16218673 -0.05161594 -0.06295186 -0.12439381 -0.15442553
0.09163438 -0.07279404 -0.21791139 0.08026882 0.11274456 0.028640179 -0.06126621 0.12515594
0.06358409 0.033284236 -0.041551936 0.15421209 -0.0751035 -0.059471775 -0.025105247 -0.20065759
0.048233185 -0.05649148 0.118302554 -0.09530792 -0.046189148 0.07966405 -0.010153058 -0.04867723
-0.11744609 -0.017238509 -0.123091005 0.03669257 -0.15124579 -0.014531941 -0.023251753 0.031577148
-0.030239802 -0.0809545 0.03785055 -0.11072785 0.057968207 0.09107896 0.008907311 0.18594714
-0.007538694 0.13038854 -0.17277153 0.10784498 -0.10760054 0.017856013 -0.07767329 0.06795736
0.0147597985 0.095589094 0.04376631 -0.11472934 -0.081494905 -0.10936907 -0.04314825 -0.05544894

onnx::LSTM_102 f4 [1, 256, 64]
00000000: 882f a73e 99bb 023e c8b9 fcbd 967b ecbd
00000010: 1b61 51be 8c79 7bbc edd6 cc3c 23dd 82be
00000020: a6fc e3bd ccbb 94be 85df 25bd 1cd3 2ebe
00000030: c883 fe3d eca1 d5bd 5b31 da3d 23f1 7c3e
00000040: e579 32be 5784 05be 33b6 4dbe 9efb e43b
00000050: 73d2 543e f43a 2a3d b91e 763e 3693 27bd
00000060: 99d5 9dbb 3f93 933e e976 d53d 1892 183e
00000070: 51a7 96be 3222 b1bd 084a d7bd 9b3f 7c3e
00000080: 3b91 5ebd e687 88be 3ca2 a6be d542 19be
00000090: 8c7c a8bd 870e 9f3c 8cd8 973c 8bf0 16be
000000a0: 842e 1abd 9b52 b4bd 1461 cd3d d36f 51be
000000b0: 2aaf b0bc 9908 b03d f26b 88bd ce28 903e
000000c0: 30f4 753d b590 2abc f3b1 593e 92b5 e53d
000000d0: be63 bd3d 813c 6ebe f150 5abe 433f 90bd
000000e0: 0ead 0fbe e744 73be 80a9 623e f638 483d
000000f0: 3eee e23d c6aa eebd d847 4f3e 30ae be3d
00000100: 155a 5a3e 918d 873d 4cad 1c3e cee5 383e
00000110: 5557 5a3e 98cf e43d b652 5c3d 32cd bc3d
00000120: a157 2d3c a15c c8bc c359 5c3e 7330 1e3e
00000130: 34a7 7bbe a51c 543e 8d8f 7d3d e7a7 663e
00000140: 6a64 34be 7958 693d e0a1 983d f611 01be
00000150: fb8c 053e b3b2 09be 9faf 9fbd 3149 823e
00000160: aa51 82be 6143 f7bd 3776 dd3d 8090 b3bd
00000170: cdaa 11be 12ec f33d c873 43be 9057 59bc
00000180: 6115 6fbb cd42 dabd 0215 403e 23f7 3e3e
00000190: 13e0 ef3d 4e35 98bd b957 efbb 41a0 9e3d
000001a0: 8adb 323e b62a fcbd 6bbd 23bd 0904 9abd
000001b0: 0a95 483b 530b 083e b724 2f3e b976 ec3d
000001c0: 4669 403e 5cfa 9abd a44a a73d 4051 df3c
000001d0: 4eff 453e 54a3 49bd ece9 45be bf20 71bd
000001e0: a09a d03d d8eb 653b 5103 6b3e 1969 12be
000001f0: 204f 5b3e ee8b e93b 02c0 2a3e 855a dd3d
00000200: f785 60be c486 a3bd 0ee2 5d3d 37c8 323d
00000210: 1f25 cebd 5238 c7bc 51db 1b3e 8f0f 3a3d
00000220: 7b11 9f3d f6e7 a1bd ace7 273e ea31 da3d
00000230: 788a 013e 54c3 7ebd c26b 313e 2fb8 293d
00000240: 9809 bd3c cd09 eabc d5c9 d63d 83b5 f2bd
00000250: 254c 293e 7b54 36be d6fa a4bd 4d26 083e
00000260: 54a4 cd3d 6365 733d 33b6 3dbe 1792 40be
00000270: 1234 2b3c dbc7 163e 13f4 3bbe c486 c5bd
00000280: 29a4 c4bd f22a e6bd 266f 5e3c 50b2 2abe
00000290: cc26 ff3c a4f5 273e 49b4 d0bd d0bb e43d
000002a0: 1305 d83c 79b7 e2bd 591e 1c3e 9049 8c3d
000002b0: 282d f43c fcc6 b7bd 0c5b 7d3d 472a 0cbe
000002c0: 73d2 a8bd a42d 3e3d 92b2 19ba 9a3e e3bd
000002d0: d01e e1bd b138 9cbd a14a 023e 45f7 223e
000002e0: fbb9 d73d 5b8d e63d 20cc debd d445 963e
000002f0: ab3f 063e 8ee1 f3bd 77d9 6e3d 101a 773e
00000300: a028 313e 2b53 43be aee4 3f3e a636 06bd
00000310: e055 2e3e 8e7a d23d a1be 05be cbc6 2ebe
00000320: 6978 553e ec22 1c3e 424d 3bbe cec4 59be
00000330: 99f3 36be 3a09 60be f6a9 6dbd b9be a3bd
00000340: d7be 403d 1265 4bbe 8637 833d 5f15 fc3d
00000350: 88df 023e e3f8 bdbd f254 523e 264e 25be
00000360: 1f6e 2abe 0ed4 1fbe e630 37be 52a9 64bd
00000370: b0ca 50be b271 21be 7d0d 4fbe d7e4 223d
00000380: ecde c23c a4cb 1b3e 8730 003d 2ed7 863c
00000390: a5ad 8abd a480 b13b ee8c 053d 34ed 353e
000003a0: d76d 533e 4d2a ae3d 7405 133e 132c 613e
000003b0: 1e97 02bd b84e a5bd 055f a9bb 802a 5a3d
000003c0: 15fc 083e c5b4 9fbd f442 a03d ad5c 023e
000003d0: 5d53 35be fcf1 98bb 0c54 8c3d 7517 1dbe
000003e0: a710 673e 5853 43be 976c bf3d 310b 81bd
000003f0: 8e63 e0bd a5f5 153d 0ede 98bd 791b 3c3e
0.3265345 0.12766875 -0.123401225 -0.1154701 -0.20447199 -0.015348803 0.025004828 -0.2555934
-0.11132173 -0.29049528 -0.040496368 -0.1707272 0.12427479 -0.10431275 0.10653945 0.24701361
-0.17429312 -0.13038765 -0.20089035 0.006988003 0.20783405 0.04156013 0.24035157 -0.040911876
-0.0048167226 0.28823277 0.10423071 0.1489948 -0.29424527 -0.086491 -0.10512167 0.24633639
-0.05433772 -0.26666182 -0.3254565 -0.149669 -0.082268804 0.019416107 0.018535875 -0.14740197
-0.037642017 -0.08804818 0.10028282 -0.20452814 -0.0215679 0.0859539 -0.06661214 0.28156132
0.06004733 -0.010410477 0.21259288 0.112162724 0.0924754 -0.23265268 -0.21319939 -0.07043316
-0.14030859 -0.23756753 0.22134972 0.048882447 0.11080597 -0.11653666 0.2024225 0.093105674
0.21323426 0.066187985 0.15300483 0.18056414 0.21322377 0.11172408 0.053789817 0.092188254
0.010579974 -0.024458231 0.21518616 0.1544817 -0.24575502 0.20714052 0.06190448 0.22524987
-0.1761643 0.05696914 0.0745275 -0.12604508 0.13042061 -0.13447075 -0.07797169 0.25446466
-0.2545293 -0.120733984 0.10813563 -0.087677956 -0.14225312 0.11910261 -0.19087136 -0.013265505
-0.0036481249 -0.106572725 0.18758014 0.18648963 0.11712661 -0.07432042 -0.0073041585 0.0774541
0.1746656 -0.12312834 -0.039975565 -0.07520301 0.0030606412 0.1328557 0.1710385 0.11546082
0.18790159 -0.075672835 0.081685334 0.027260423 0.19335672 -0.049228027 -0.19327515 -0.05886912
0.101857424 0.00350832 0.22950484 -0.14297904 0.21416903 0.0071272766 0.16674808 0.10808281
-0.21926104 -0.07984689 0.05417066 0.04364797 -0.10065674 -0.024318848 0.15220381 0.045424994
0.07767006 -0.07905571 0.1639697 0.106540516 0.12650478 -0.062198 0.17326263 0.041435417
0.023075864 -0.028569127 0.10487715 -0.11851027 0.16532953 -0.17805664 -0.08055656 0.1329586
0.10041109 0.05942286 -0.18526535 -0.18805729 0.010449426 0.14724676 -0.18354826 -0.09644845
-0.096016236 -0.1123866 0.013576305 -0.16669583 0.03114643 0.16402298 -0.10190637 0.11168635
0.026369607 -0.11070151 0.15245952 0.068499684 0.029806688 -0.089735 0.061854407 -0.13688003
-0.08243265 0.046430245 -0.0005863096 -0.11095925 -0.10992205 -0.076280005 0.12723781 0.15914638
0.1053352 0.1125743 -0.108787775 0.2935015 0.13110225 -0.119082555 0.05831286 0.24131036
0.17300653 -0.19074695 0.18739578 -0.03276696 0.17024946 0.10277282 -0.13061 -0.17068021
0.20846714 0.15247697 -0.1829119 -0.21266481 -0.17866363 -0.2187852 -0.058023416 -0.07995362
0.047057 -0.19862774 0.06407075 0.12308764 0.12780583 -0.09275987 0.20540217 -0.16143093
-0.1664357 -0.15608236 -0.17889747 -0.05582554 -0.20389819 -0.15766028 -0.20219989 0.03976902
0.023787938 0.15214401 0.03129628 0.016460028 -0.06771401 0.0054169465 0.032605104 0.17766267
0.2064737 0.08504162 0.14357549 0.21989469 -0.031882398 -0.08071655 -0.005168798 0.053263187
0.13377412 -0.07798151 0.0782527 0.12730666 -0.17707582 -0.0046675187 0.06851968 -0.1534098
0.22564946 -0.19074762 0.09346884 -0.06300963 -0.109564885 0.036611218 -0.074642286 0.18369855

onnx::LSTM_103 f4 [1, 512]
00000000: aef7 80bd 6a2e a1bc 5e0b c93c 4152 283d
00000010: 3a8e 0c3d bd96 acba 2e27 8abc d910 3fbd
00000020: caf1 3dbd 037b d23d 5c41 acba 1e78 623d
00000030: d2f1 c33d 9423 993d 466a fb3c 9985 213d
00000040: 94ce d33d bfdf 21bc abf7 35bb dfe7 41bd
00000050: a4fd 5f3d ab41 723d a1be 7d3b 2e11 99bc
00000060: 11fa 353c 9d7c 1b3d 6294 213c 48b9 a7bd
00000070: 150b 1d3d 4df8 2d3d f1e1 4c3d ed78 9cbb
00000080: 2619 23bd a315 e23c cd57 953d 11a7 24bc
00000090: f59b f73b d81d 5d3c 851e 393d 79bc 9b3d
000000a0: e5f2 773c ba66 1a3d 50ae c73c 8b88 4b3c
000000b0: f1e3 4bbd 5708 5f3d 4be6 a13c 4e6b 33bd
000000c0: 9897 1d3d 1a8a acbc e772 bcbc d575 8a3c
000000d0: edf1 f0bb 7feb 3b3c a2b6 aebc a2a4 ecbd
000000e0: 8861 4d3d 7312 533c 647c ed3c 1400 28bc
000000f0: a6f3 043d 7837 883c e453 273d 6c20 8b3d
00000100: 62ff 523d cfd8 afbd 7947 c9bd 58dd 63bc
00000110: 2eb5 a83d 930a 773d 1952 2a3d 65af 69bb
00000120: 263c 3b3d 3ef3 9f3d d82c bebc ddb6 dfbc
00000130: 2a7d 833d 9897 ac3d 4526 babc 1aef 1a3d
00000140: 57cd a73d 9810 263d ae47 8f3d 8b95 2fbb
00000150: 0a63 453c 9b51 c33d 7a8d f03d e303 303d
00000160: 03ad 87bc 9f80 553d 6049 52bc 32bb 223d
00000170: 7696 7cbd 7f80 4e3d 00e9 fc3c dcbb f03c
00000180: a40a 863d 8869 a43c 2586 29bd 3260 023d
00000190: f073 e7bc 48db 7b3a 8a81 1dbc cafc 203d
000001a0: 2a78 4abd b13c dfbc 403a cd3c 7f2a 583a
000001b0: 73a5 8b3d 625a 443d adcc 3b3d 93b1 e6bc
000001c0: c4a9 393d d5b7 9f3d 5b89 383d df80 c1bc
000001d0: f623 b33d dbe2 72bc 3fdd 8b3d 0ac5 7b3d
000001e0: 70bc 4bbd 8ab3 543d cdf3 233d 3ae8 acbb
000001f0: 6d78 0cbd c5ad 3bbc 9fbf 7abc eccd d0bb
00000200: f26d 7c3f 91a5 6c3f 1e0e 833f 659a 853f
00000210: e5aa 6e3f 459c 8a3f e97d 803f d7ae 873f
00000220: fae4 733f 282c 7b3f 5d00 863f 0575 803f
00000230: 0806 813f c7f8 873f 7661 773f 5a69 863f
00000240: e444 833f ce75 8a3f 43c2 813f 666b 793f
00000250: c721 6d3f 742d 853f 8f5c 7f3f d9b1 893f
00000260: f35d 763f 4e3f 863f 7a18 893f ea83 5e3f
00000270: 0d14 873f f442 863f d865 6f3f b737 853f
00000280: ebad 843f 29e6 863f 6de7 7d3f 0981 853f
00000290: 1632 843f eea4 813f f032 833f f187 863f
000002a0: 88fb 863f b241 823f 66ad 853f cb78 823f
000002b0: cd35 813f 7a12 883f efdd 803f 847e 6f3f
000002c0: 9a62 863f 3b55 823f 72cb 863f bbbb 863f
000002d0: 50f6 7e3f 2451 853f 6267 873f 4495 833f
000002e0: 90dc 7b3f 20e7 783f a4ea 803f 9c7f 853f
000002f0: b2d6 853f 3f7e 833f 663c 873f 7068 8a3f
00000300: 6e8b b9bc 5768 86bd 41ca 1d3d 89fb 963b
00000310: e374 a23b 4d23 703d 8960 2f3d 1b09 893d
00000320: 0b0b f6bc c90b 213d a3bd 2ebd 0b77 0a3b
00000330: 9b70 debb 3f94 fdbc 94c6 b73b 4e08 6a3d
00000340: 9d18 a83c de4c 6fbc 7c4c 513d 6fbc d9bc
00000350: 0985 c03c 87e7 8abd 18ca 9a3d 2291 87bb
00000360: b832 29bd a2f1 9bbc 880a 8bbd 7bd9 54ba
00000370: b02b e43c 56b5 cebb 75e7 0b3d fe8b 933c
00000380: b30f 0b3d 72ea 5bbd 799c 793d 1bfc 62b8
00000390: 555a 0e3d bc5e d23b a8b7 b43b c81b 363d
000003a0: ae82 bf3c 2e5a 063d e461 c83b 81c4 76bc
000003b0: c7bb f2bc 933f 83bb d5d4 52bd 3e0a 4dbd
000003c0: 51cf b53b b546 5bbd fe1c 1dbc 6675 89bd
000003d0: b02d 1cbd b970 0d3d f43d 383c 816d ce3c
000003e0: 8880 423d 5e3a 583d 0967 d0b8 cd57 4d3d
000003f0: 7fb0 d9bb ce2b 04bd cba0 a83c a19c 01bd
-0.06297241 -0.019675452 0.024541553 0.04109407 0.034315325 -0.0013167482 -0.016864385 -0.046646927
-0.046373166 0.10277369 -0.0013142037 0.055290334 0.09567608 0.07477489 0.030690324 0.03943405
0.10342136 -0.009880005 -0.002776603 -0.04734027 0.05468525 0.059144657 0.003871836 -0.01868495
0.011106984 0.037960637 0.009862037 -0.081896365 0.038340647 0.042473126 0.050020162 -0.0047751577
-0.039818905 0.027598208 0.07292137 -0.010049597 0.0075564333 0.013495885 0.04519512 0.07604308
0.015133594 0.037695624 0.02437511 0.012422691 -0.04977793 0.054451313 0.019763133 -0.043803506
0.03847465 -0.021061946 -0.023004008 0.01690189 -0.0073530586 0.011469721 -0.02132732 -0.11554839
0.05014184 0.012882817 0.028989978 -0.010253925 0.032458924 0.016628012 0.04085149 0.06793293
0.051513083 -0.08586275 -0.098280855 -0.013907753 0.08237682 0.06031282 0.0415822 -0.0035657522
0.04571166 0.07810067 -0.023214743 -0.027308876 0.064203575 0.08427352 -0.022723326 0.03782568
0.08193462 0.04054317 0.06996094 -0.0026792015 0.0120475385 0.095370494 0.117457345 0.042972457
-0.01656199 0.052124616 -0.012834877 0.039729305 -0.06166693 0.050415512 0.030872822 0.029386453
0.06544998 0.020069852 -0.041387696 0.03183002 -0.028253525 0.00096075656 -0.009613404 0.03930358
-0.049431004 -0.02725062 0.02505219 0.00082460785 0.06818666 0.04793776 0.04584949 -0.028160846
0.045327917 0.07798735 0.045052867 -0.02362102 0.087470934 -0.014824594 0.06829309 0.061467208
-0.049740255 0.051929034 0.04002743 -0.005276707 -0.034294534 -0.011455004 -0.015304475 -0.006372204
0.98605263 0.92440134 1.0238683 1.0437742 0.93229514 1.082894 1.0038425 1.0600232
0.95271266 0.9811425 1.0468861 1.0035712 1.0079966 1.0622796 0.9663309 1.0500901
1.0255399 1.0817201 1.0137409 0.974295 0.92629665 1.0404496 0.9975061 1.07574
0.96237105 1.0488069 1.0710595 0.86920035 1.0552994 1.0489182 0.93514776 1.0407628
1.0365576 1.0538989 0.9918125 1.0430003 1.0327785 1.0128458 1.024992 1.0510236
1.0545511 1.0176299 1.0443542 1.0193113 1.0094544 1.0630639 1.0067729 0.9355242
1.0498841 1.018226 1.0530837 1.0526041 0.99594593 1.0415387 1.0578425 1.0279927
0.98383427 0.9722767 1.0071607 1.0429568 1.0456145 1.0272902 1.0565307 1.0813122
-0.022649493 -0.0656287 0.038522962 0.004607622 0.0049577816 0.058627415 0.042816672 0.0669119
-0.030034563 0.03931788 -0.04266132 0.0021128084 -0.006788326 -0.030954478 0.005608389 0.057136826
0.020519549 -0.014605729 0.05109833 -0.02657911 0.023500936 -0.067824416 0.075580776 -0.004137174
-0.041308135 -0.019036118 -0.06789118 -0.00081195653 0.027852863 -0.006308238 0.03415628 0.01801109
0.03395052 -0.05369038 0.06094024 -5.411739e-05 0.034754116 0.0064199846 0.0055150576 0.044460088
0.023377743 0.032800846 0.006115185 -0.015061499 -0.029630555 -0.0040053814 -0.051472504 -0.050058596
0.0055483957 -0.05353423 -0.009589432 -0.06711845 -0.03812951 0.03453133 0.0112452395 0.0251987
0.04748586 0.05279004 -9.937405e-05 0.05013256 -0.0066433544 -0.032268338 0.020584485 -0.031643514
