code/selfparking/mla/results/test_32/Car/Car-499975.onnx (onnx, 710352 bytes, 10 tensors)

network_body._body_endoder.seq_layers.0.weight f4 [256, 108]
0	0xbd7b94ef	-0.06142133
1	0x3da5cc4a	0.08095606
2	0x3e2c7e15	0.16844971
3	0xbd227b93	-0.03966863
4	0xbdab57c9	-0.08366353
5	0x3e45f869	0.19333042
6	0x3d2f53dc	0.042804584
7	0xbd7ab1be	-0.061204664
8	0x3e10b4a6	0.14131412
9	0xbd23b590	-0.039968073
10	0x3d306d86	0.0430732
11	0xbe4a8795	-0.19778283
12	0xbd8047ac	-0.0626367
13	0xbd7f5b8b	-0.06234316
14	0xbb33488d	-0.0027356476
15	0xbcb3efe6	-0.021964978
16	0x3d763b14	0.060114935
17	0xbd2d66fd	-0.042334545
18	0xbe0c53bf	-0.13703822
19	0xbe3dfa64	-0.18552548
20	0xbd08a560	-0.03336084
21	0xbcbb205b	-0.022842577
22	0xbe470a44	-0.1943751
23	0x3e0d7842	0.13815406
24	0x3b3d29a2	0.0028863926
25	0xbd19131e	-0.037371747
26	0xbe7bb35f	-0.24580143
27	0xbd678ab3	-0.05652876
28	0xbdc9ae9b	-0.098477565
29	0xbc1dc50e	-0.009629501
30	0xbdeefca0	-0.11669278
31	0xbe0c947c	-0.13728517
32	0x3e0c38eb	0.13693587
33	0x3e2b25f4	0.16713697
34	0x3cae8cfa	0.021307457
35	0xbc5d7efd	-0.013519046
36	0xbbb19c36	-0.005420233
37	0x3d345366	0.044024847
38	0xbd6c7bcb	-0.057735246
39	0xbd6f73e2	-0.058460124
40	0xbdb07b1f	-0.086172335
41	0xbd05f563	-0.032704722
42	0x3deac44c	0.11463222
43	0xbd9fb4cf	-0.077981584
44	0x3d87b356	0.066260025
45	0x3c5eea5d	0.013605681
46	0x3c829c67	0.01594372
47	0xbd8e44c9	-0.069467135
48	0x3e46b6bb	0.19405644
49	0x3d88dcbd	0.066827275
50	0xbd260cf1	-0.040539686
51	0x3e8bfbad	0.2734045
52	0x3cd92247	0.026505603
53	0x3e1236c1	0.142787
54	0xbdd91e93	-0.10601535
55	0x3e224026	0.15844783
56	0x3d82a0f7	0.06378358
57	0xbda4895f	-0.08034014
58	0x3e74f1bd	0.23920341
59	0x3e0a263f	0.13491152
60	0xbc4a29fb	-0.0123391105
61	0x3db98048	0.09057671
62	0x3d9ec83c	0.077530354
63	0xbcdbbc35	-0.026823143
64	0xbd1290bd	-0.035782564
65	0xbde0c635	-0.10975305
66	0xbd1a5cb9	-0.037686083
67	0x3d28895a	0.041146614
68	0x3e3caf22	0.18426183
69	0x3d87244e	0.065987214
70	0x3d551761	0.05202425
71	0x3db0bea8	0.08630115
72	0xbe137b99	-0.14402618
73	0x3e170c3c	0.14750761
74	0xbc3d0e01	-0.011538983
75	0x3bf2642a	0.0073971944
76	0x3bec6a59	0.007214826
77	0x3d878449	0.06617028
78	0xbd568523	-0.052373063
79	0xbd705390	-0.05867344
80	0x3d89309b	0.06698724
81	0x3d9da2af	0.07697045
82	0xbcf89ec6	-0.030349147
83	0xbd083c66	-0.033260725
84	0xbde1f826	-0.11033659
85	0xbc395ae0	-0.01131317
86	0x3d9afff5	0.07568351
87	0xbcbfc2fd	-0.023408407
88	0x3de7c0dc	0.11316082
89	0x3df6a518	0.12043208
90	0xbdc07e9f	-0.09399151
91	0x3e36dc17	0.17857395
92	0xbcc90903	-0.02454043
93	0xbd4758c7	-0.04866865
94	0x3d8cb29a	0.06870003
95	0xbd85acc6	-0.065270945
96	0x3d13ef4c	0.036116883
97	0x3cac1160	0.021004379
98	0xbd003ea5	-0.031309742
99	0xbc5bad7a	-0.013408059
100	0x3c73c598	0.014878653
101	0x3d097511	0.03355891
102	0x3c649b3e	0.013953028
103	0x3db47aad	0.08812461
104	0xbda36c62	-0.07979657
105	0xbe02dffa	-0.12780753
106	0xbc079690	-0.008275643
107	0x3df0a1ed	0.11749635
108	0x3d61c13d	0.055115927
109	0xbc244e4f	-0.010028436
110	0xbdf10451	-0.117684014
111	0xbd84fcb7	-0.06493514
112	0x3e139dd0	0.1441567
113	0xbd8eb410	-0.06967938
114	0xbcc61617	-0.024180455
115	0x3db2ee50	0.08736861
116	0x3df44e8d	0.11929045
117	0x3cf07c44	0.02935613
118	0x3d605c2a	0.054775394
119	0x3e1f0839	0.1553048
120	0xbd9ce403	-0.07660677
121	0x3dde26f8	0.108472764
122	0x3a5b76fc	0.0008371917
123	0xbd88c173	-0.066775225
124	0xbe4681ea	-0.19385496
125	0xbe0f5ca6	-0.14000186
126	0x3c86feeb	0.016478976
127	0xbd85d8aa	-0.06535466
128	0x3e276d79	0.16350354
129	0x3cb6059b	0.02221947
130	0x3d137c0c	0.036006972
131	0x3d7bf6ff	0.06151485
132	0xbdcaec4c	-0.09908351
133	0xbe223fee	-0.158447
134	0xba7081ef	-0.0009174635
135	0x3c42a2a8	0.011879601
136	0xbe1183ad	-0.14210387
137	0x3d39216a	0.04519788
138	0xbd8391c0	-0.06424284
139	0x3dd81efc	0.10552785
140	0xbe09ee3e	-0.13469788
141	0x3dec1f2e	0.115293846
142	0xbda5696a	-0.08076747
143	0xbd354150	-0.04425174
144	0x3dba379e	0.090926394
145	0xbda3bde0	-0.079952
146	0xbc8e6632	-0.017382715
147	0xbdc39b1e	-0.09551071
148	0xbc800e9a	-0.015631963
149	0x3d312839	0.04325125
150	0x3db08c34	0.086204916
151	0x3dc24082	0.0948496
152	0x3c33daa5	0.010977422
153	0x3d791c29	0.06081787
154	0xbca84c10	-0.020544082
155	0xbb5f2645	-0.003404991
156	0xbe04c768	-0.12966692
157	0x3dd6e865	0.104935445
158	0x3e0f0ad5	0.13968976
159	0x3de67686	0.11253075
160	0x3e042b9f	0.12907265
161	0xbe2f4101	-0.17114641
162	0x3c25882e	0.010103269
163	0xbdfefb68	-0.12450296
164	0x3e115e27	0.14196073
165	0xbcde68d6	-0.027149599
166	0xbd3fa123	-0.04678453
167	0xbccd07d4	-0.025028147
168	0xbdf12e63	-0.11776426
169	0x3d3f7bf6	0.046749078
170	0xbddf1226	-0.108921334
171	0xbbfab465	-0.0076508992
172	0x3d3020a8	0.042999893
173	0xbd5bd801	-0.053672794
174	0x3ceba8d4	0.028767027
175	0xbd9738ad	-0.07383857
176	0x3e01532e	0.12629387
177	0x3b46615e	0.0030270438
178	0xbe10a9cd	-0.14127274
179	0xbcb8ad93	-0.022543704
180	0x3dc47bc5	0.0959392
181	0xbd8fd00d	-0.070221044
182	0xbd1965ad	-0.03745048
183	0xbdd32cbf	-0.10311269
184	0xbe356991	-0.17716052
185	0x3db5852c	0.08863291
186	0x3c80bbee	0.015714612
187	0x3bdc86fd	0.006729959
188	0xbd771382	-0.06032134
189	0xbe2c31d8	-0.16815889
190	0x3ccc1b3d	0.024915332
191	0x3d8a8067	0.06762772
192	0x3d5fe4b2	0.05466146
193	0xbe1064b4	-0.14100915
194	0x3e0c392e	0.13693687
195	0xbda83b8d	-0.082144834
196	0xbdde8672	-0.10865487
197	0xbcf7acb2	-0.030233715
198	0xbd4e9d3e	-0.050442927
199	0x3e13f808	0.14450085
200	0xbde23c0f	-0.110466115
201	0x3dc1b8d2	0.0945908
202	0x3c073592	0.008252518
203	0x3d84fa45	0.064930476
204	0xbcb07663	-0.021540826
205	0x3d991cdb	0.07476207
206	0x3e8acfc2	0.27111632
207	0xbd47f9db	-0.048822265
208	0x3e4453c7	0.19172584
209	0xbda71fe4	-0.081603795
210	0x3d0fc234	0.035097316
211	0x3e1e006d	0.1542985
212	0x3e1a0ccf	0.15043949
213	0xbe705f41	-0.23473836
214	0xbd9e2c1c	-0.07723257
215	0x3e091f81	0.13390924
216	0x3d3d3c02	0.046199806
217	0x3cfffba6	0.031247925
218	0x3dc72df5	0.097255625
219	0x3cae3aac	0.021268211
220	0xbd1060f5	-0.035248715
221	0x3dc01ad3	0.09380116
222	0x3cf90a13	0.030400312
223	0x3d265aaa	0.040613808
224	0x3e0270c4	0.12738329
225	0x3dca525c	0.0987899
226	0x3d58eb0c	0.052958533
227	0x3d30ec95	0.043194372
228	0xbcbf6c3e	-0.023367044
229	0xbbc4ef94	-0.0060100053
230	0x3e656e2a	0.22405306
231	0x3d81cd20	0.063379526
232	0xbd86722d	-0.06564746
233	0x3dd9b7b9	0.106307454
234	0xbe110579	-0.14162244
235	0xbb6486a7	-0.0034870298
236	0xbdb0e5ea	-0.086376026
237	0xbe1590bb	-0.14605992
238	0x3d364585	0.044499893
239	0xbd94a669	-0.07258303
240	0xbe47acdb	-0.19499533
241	0xba349006	-0.0006887916
242	0xbd6ae882	-0.057350643
243	0xbc4c8367	-0.012482501
244	0xbc655397	-0.01399698
245	0x3bd78211	0.0065767844
246	0xbe3c63e7	-0.18397485
247	0xbde321bb	-0.11090418
248	0xbd6e5498	-0.058186144
249	0x3daa98d7	0.08329933
250	0xbd3b0fec	-0.04566948
251	0x3dc159d4	0.094409615
252	0x3dd2cd28	0.10293037
253	0x3e0d2fcc	0.13787764
254	0xbdeee67e	-0.11665057
255	0x3d81c56a	0.06336482

network_body._body_endoder.seq_layers.0.bias f4 [256]
0	0xb9fe29fe	-0.00048477942
1	0x3c1a1afb	0.009405847
2	0x3c822d93	0.015890872
3	0x3c0732d6	0.008251866
4	0x3bbbfcb4	0.0057369117
5	0x3a7e41bc	0.0009699126
6	0x3c72d81e	0.014822034
7	0x3c2fe6b6	0.010736158
8	0xbbd65b6c	-0.00654166
9	0x3bd262d7	0.006420474
10	0xbb863ab7	-0.004096355
11	0x3c0ecb10	0.008715406
12	0x3bb98625	0.005661743
13	0x3bfbbabe	0.0076821735
14	0x3c1132ea	0.0088622365
15	0x3c859ade	0.016309198
16	0x3c436c8b	0.011927734
17	0x3b6103e5	0.0034334597
18	0x3c42d0e2	0.011890622
19	0xbbc7172a	-0.0060757594
20	0x3bcba89a	0.006215167
21	0x3c38863b	0.011262472
22	0x3b8bf197	0.004270743
23	0x3b094133	0.0020943403
24	0x3b707fcd	0.003669727
25	0x3c83f8ee	0.01610991
26	0x3a06010a	0.0005111849
27	0xbb278aa1	-0.0025564807
28	0xbb32c498	-0.0027277824
29	0x3b5d03d2	0.00337242
30	0x3bb0a98c	0.0053913053
31	0x3c4a8fae	0.0123633575
32	0x3b55ce23	0.0032624088
33	0xbbcec7bf	-0.0063104327
34	0xbbc610d0	-0.0060444847
35	0x3a41bdbb	0.0007390638
36	0x3bbdf0ad	0.005796513
37	0xbb443a5f	-0.0029942018
38	0x3c1367c3	0.008996907
39	0x3c347b6a	0.011015752
40	0x3c10b405	0.0088319825
41	0x3b9868a0	0.004651144
42	0xbbe7f29f	-0.0070784832
43	0x3b0ccff2	0.002148625
44	0x3bec48cd	0.007210827
45	0x3b85fb5d	0.0040888027
46	0x3a949aa9	0.0011337596
47	0x3c0a41ca	0.008438537
48	0xbbdf8f0f	-0.006822474
49	0x3c53023e	0.012878953
50	0xb9f961cf	-0.00047565854
51	0x3b22aef7	0.0024823525
52	0x3b2589ea	0.0025259205
53	0x3b823ef1	0.0039747884
54	0x3c2e545d	0.010640231
55	0x3bc2ad66	0.005941081
56	0x3c66d33d	0.014088449
57	0xbb95c7c1	-0.0045709317
58	0xbaa89b94	-0.0012863749
59	0xbbca54b5	-0.0061746486
60	0xbaeacb1e	-0.0017913317
61	0xbae20bd1	-0.0017245953
62	0x3ca6494d	0.020298624
63	0x3c7241f3	0.014786231
64	0x3b03af7e	0.0020093615
65	0xbc0f527e	-0.008747695
66	0x3996d667	0.00028769972
67	0x3b04668c	0.0020202724
68	0x3ac86783	0.0015289638
69	0xbb28ec59	-0.002577564
70	0x3b2dceb9	0.0026520921
71	0xbba71885	-0.0050993585
72	0xba00d6ce	-0.0004914821
73	0x3bb94127	0.0056535187
74	0x3b65504b	0.0034990485
75	0x3b4edd73	0.00315651
76	0xbb8feff9	-0.0043926206
77	0xbb972915	-0.0046130517
78	0x3c59b001	0.0132865915
79	0xbc090d75	-0.008365025
80	0x3be3a3fe	0.0069470396
81	0x3b8b0d96	0.004243563
82	0x3a9cd04c	0.0011963933
83	0xbb15d84c	-0.0022864519
84	0x3b19c61b	0.0023464027
85	0x3c110679	0.008851641
86	0x3be69d09	0.007037763
87	0x3a870e31	0.0010303912
88	0x3bab6644	0.005230697
89	0x3b289c5f	0.002572797
90	0x3b152317	0.002275651
91	0x3c3c9eba	0.011512453
92	0x3b0430c0	0.0020170659
93	0xbbe38a4e	-0.0069439774
94	0x3b747daa	0.0037306347
95	0x3c479c4c	0.01218326
96	0x3c09873d	0.00839406
97	0x3c589437	0.013218931
98	0x3c25def7	0.01012396
99	0xb8f5f006	-0.00011727218
100	0xba3b77a6	-0.0007151313
101	0xbb53ffad	-0.003234844
102	0x3c1f05d0	0.009705976
103	0x3bfb7951	0.007674374
104	0xba9eaa27	-0.0012105153
105	0xbb9a4c8c	-0.004708832
106	0x3c07542b	0.008259813
107	0x3bc8ab61	0.0061239456
108	0xba10f4c6	-0.0005529638
109	0x3c03a127	0.008034027
110	0xb8960b48	-7.154659e-05
111	0x3b7ceb1d	0.0038592287
112	0x3bf1db09	0.0073808474
113	0x3aeab0f7	0.0017905523
114	0x3bc4a96a	0.006001641
115	0x3b12c4fa	0.002239524
116	0x3be3f96d	0.006957224
117	0x3b90d5c7	0.0044200155
118	0x3bf3bd6d	0.007438353
119	0x3b90ccc8	0.004418943
120	0x3bfb926e	0.007677368
121	0xbbf93e08	-0.0076062717
122	0x3c083711	0.00831391
123	0x3a151865	0.0005687534
124	0x3b99c550	0.004692711
125	0x3bf121cb	0.0073587648
126	0x3a5f1a5f	0.00085107045
127	0x3c9cf545	0.019159922
128	0x3c87daf7	0.016583903
129	0x3c4f3f9b	0.012649442
130	0x3bf5da00	0.0075027943
131	0x3c01afcf	0.007915451
132	0x3c7d211f	0.015449791
133	0x3b3484f5	0.002754507
134	0xbbacee26	-0.005277413
135	0xba610743	-0.0008584151
136	0x3a656d9b	0.0008751989
137	0x3ad4b900	0.0016229451
138	0xbb03f71b	-0.00201363
139	0xbc4f3e88	-0.012649186
140	0x3b48903e	0.0030603553
141	0xbc280add	-0.010256496
142	0x3becbc4c	0.007224595
143	0x3bc1dfd1	0.0059165736
144	0xbb21682f	-0.0024628749
145	0xb99ef569	-0.00030318953
146	0x3c2beefb	0.010493989
147	0x3c17fef5	0.009277095
148	0x3be1bb61	0.0068887924
149	0x3adba78f	0.001675831
150	0x3bded2ba	0.006800023
151	0x3c8b0204	0.016968735
152	0x385d274a	5.2727097e-05
153	0x3be92109	0.007114534
154	0x3aa97e43	0.0012931306
155	0xbb791e66	-0.0038012504
156	0x3a13c41e	0.0005636829
157	0x3bf3e3ff	0.0074429507
158	0x3b458c17	0.0030143315
159	0xba368b77	-0.0006963531
160	0xbb320bf0	-0.002716776
161	0x3bd95093	0.0066319196
162	0x3ade5500	0.0016962588
163	0x3b61773a	0.003440334
164	0x3bb9e56e	0.005673102
165	0x3c055a94	0.008139271
166	0x3be6827b	0.0070345975
167	0xbc1f4764	-0.009721611
168	0x3c582714	0.013192911
169	0xbb375c9b	-0.002797878
170	0xbb50dbc8	-0.003186928
171	0x3c50c888	0.012743123
172	0x3bb90edd	0.005647524
173	0xba187fec	-0.00058174017
174	0x3cc6b8a1	0.02425796
175	0x3c85cb8c	0.01633241
176	0x3acdece6	0.001571086
177	0x3b040f1d	0.002015061
178	0x3bbd9cc5	0.0057865107
179	0x3c0d307b	0.008617516
180	0x3af87932	0.0018957017
181	0x3a9cd2ad	0.0011964642
182	0x3bbf2362	0.0058330754
183	0x3b2e120d	0.0026561052
184	0x3c6d80dc	0.0144960545
185	0xbb6755d2	-0.0035298956
186	0xbb663886	-0.0035128905
187	0xba561424	-0.00081664533
188	0xbaed2c50	-0.0018094871
189	0xbb84c959	-0.004052323
190	0xbc3c835c	-0.011505928
191	0x3b93513c	0.004495768
192	0x3a0f1a2a	0.0005458916
193	0x3c04b36f	0.008099421
194	0x3ae3184e	0.0017325969
195	0x3c50ee2c	0.012752097
196	0x3bc09f5d	0.0058783726
197	0x3bab6735	0.005230809
198	0xb9d46fa4	-0.0004051897
199	0x3bdeb78f	0.0067967842
200	0xba7ed2da	-0.00097207504
201	0xbaf4de29	-0.0018681932
202	0x3b10279e	0.002199627
203	0x3c6f6b08	0.014612921
204	0x3c4a07a8	0.012330927
205	0xbc24d805	-0.010061269
206	0x3c230504	0.009949926
207	0x3c36ebb8	0.011164598
208	0x3c3b6be8	0.011439301
209	0xb8a99e1a	-8.087997e-05
210	0x3a7c4b81	0.0009624288
211	0x3a19ac32	0.0005862146
212	0x3beee42d	0.0072903843
213	0xb9fe2135	-0.00048471396
214	0x3be94865	0.007119226
215	0x3b7c7064	0.0038519138
216	0x3c08c5f7	0.00834798
217	0x3b7918b0	0.00380091
218	0x3bb21ca3	0.0054355427
219	0xbbd7f2f3	-0.006590241
220	0xbbbc6cf0	-0.005750291
221	0x3b45a44d	0.0030157745
222	0x3c1a9c70	0.009436712
223	0x3a114ea8	0.0005543032
224	0x3c26474e	0.010148836
225	0x3ba8960f	0.0051448415
226	0x39d04e52	0.00039731205
227	0x3c26baf9	0.010176414
228	0x3bea8791	0.007157274
229	0x39b24ab1	0.00034006455
230	0x3bfd558a	0.0077311443
231	0x3c69d581	0.014272095
232	0xbae78707	-0.0017664143
233	0x3bbae957	0.005704086
234	0xbc0aaaea	-0.008463601
235	0x3c46419c	0.012100603
236	0x3bb6c5c5	0.005577775
237	0x3c3f4536	0.011674216
238	0x353a6940	6.944356e-07
239	0xbaa14067	-0.0012302519
240	0x3b1ddf74	0.0024089487
241	0xb5734180	-9.061987e-07
242	0x391a7912	0.00014731687
243	0xbb122406	-0.0022299304
244	0xbc14c73f	-0.009080707
245	0x3b2984e7	0.002586657
246	0x3bf2edc6	0.0074135987
247	0xbb3a2720	-0.0028404668
248	0x3ba7f5fb	0.0051257587
249	0x3b30c95c	0.0026975488
250	0x3a87489b	0.0010321321
251	0xbc92d8ab	-0.017925581
252	0xb80d2f0c	-3.3660835e-05
253	0xbc3fad79	-0.011699074
254	0xbbb1898f	-0.0054180096
255	0x3bbb77ce	0.005721069

network_body._body_endoder.seq_layers.2.weight f4 [256, 256]
0	0xbd941a0a	-0.07231529
1	0xbc881620	-0.016612113
2	0x3c5b7574	0.013394702
3	0x3d9d300e	0.07675181
4	0x3d252c1a	0.04032526
5	0xbe010cab	-0.12602489
6	0xbd557760	-0.052115798
7	0x3db9e8ee	0.09077631
8	0x3c642cd0	0.0139267
9	0xbd6ee12c	-0.05832021
10	0xbd6a56d4	-0.057211712
11	0xbdb79549	-0.08964021
12	0x3d985c85	0.07439522
13	0xbc449fa7	-0.012000955
14	0x3c54803d	0.0129700275
15	0xbc192b64	-0.009348724
16	0x3d0f1109	0.034928355
17	0xbc754ece	-0.014972402
18	0x3daf9a3f	0.08574342
19	0xbc18e84c	-0.009332728
20	0x3db65e17	0.08904665
21	0xbb6c7e7f	-0.003608614
22	0x3d642732	0.055701442
23	0x3d082ff4	0.033248857
24	0xbd662c6f	-0.05619472
25	0x3bdbce6e	0.006707958
26	0xbcaf303b	-0.021385303
27	0xbd6f377a	-0.058402516
28	0x3d661f4f	0.056182202
29	0xbc98bbcd	-0.018644238
30	0xbb4f4deb	-0.0031632136
31	0x3d964614	0.07337585
32	0xbce57671	-0.028010579
33	0x3bfe8857	0.007767718
34	0x3cea6e47	0.028617037
35	0x3df17d26	0.11791448
36	0xbdc8907a	-0.09793182
37	0x3c96b3f9	0.018396365
38	0x3dc2d5e4	0.09513453
39	0x3d20d99a	0.03927002
40	0x3da5c537	0.08094256
41	0x3d6d962c	0.058004543
42	0x3d4080ab	0.046997707
43	0xbd6af775	-0.0573649
44	0xbb3189c6	-0.0027090176
45	0xbcc7009a	-0.024292279
46	0x3ddf350b	0.10898789
47	0xbd5e5a17	-0.054285135
48	0xbcc4c80b	-0.02402117
49	0x3d8961f0	0.06708133
50	0x3e27b839	0.16378869
51	0xbc466e96	-0.012111327
52	0x3d2f3dd6	0.04278358
53	0x3d121706	0.035666488
54	0xbd065240	-0.032793283
55	0x3d79d11b	0.060990434
56	0x3d572e56	0.052534424
57	0xbd3055da	-0.043050624
58	0xbd91e3b3	-0.07123508
59	0xbe0df298	-0.13862073
60	0x3cb5fc3e	0.022215005
61	0x3d8dea47	0.069294505
62	0x3d544bc9	0.051830087
63	0xbdb254d5	-0.08707587
64	0x3dcd25ab	0.1001695
65	0x3d1dc51e	0.038518064
66	0x3b724fcb	0.003697383
67	0xbd4e84b5	-0.050419528
68	0xbc006ddd	-0.007838693
69	0xbe17aa35	-0.14811023
70	0xbd24ffcc	-0.04028301
71	0x3aead448	0.0017916048
72	0xbd4cc70d	-0.049994517
73	0xbd6c3393	-0.057666373
74	0xbd1f7864	-0.038933173
75	0xba5fb400	-0.0008533597
76	0x3d7b03a8	0.061282784
77	0x3d080e1f	0.033216592
78	0x3d409971	0.047021333
79	0xbc8f92f7	-0.017526133
80	0x3dc9d7b4	0.09855595
81	0xbde7a276	-0.11310284
82	0xbcc678d1	-0.024227532
83	0xbd646e24	-0.0557691
84	0xbde0a941	-0.109697826
85	0x3cbc3890	0.02297619
86	0x3c456ca6	0.01204983
87	0x3c3647fd	0.011125562
88	0x3d8e8217	0.069584064
89	0x3d49d5a4	0.04927601
90	0x3cc049b7	0.02347265
91	0x3b974584	0.004616441
92	0xbc0ad9a8	-0.008474745
93	0x3dfae625	0.12250928
94	0x3dd6ad34	0.104822546
95	0xbdf01128	-0.11722022
96	0x3dbce4b4	0.09223309
97	0xbc4ea2a5	-0.01261202
98	0x3d1cff53	0.038329434
99	0xbdd52098	-0.104066074
100	0xbcd664d5	-0.026171127
101	0x3c8c3b73	0.017118191
102	0x3c26d11f	0.010181694
103	0xbbd0c03f	-0.006370574
104	0xbd349e60	-0.04409635
105	0x3dcb6d19	0.09932918
106	0x3ba4a00b	0.0050239614
107	0x3cd4bc7c	0.025968783
108	0x3dccf312	0.100072995
109	0x3da41a36	0.08012812
110	0x3dd3d831	0.103439696
111	0x3da1cec2	0.07900764
112	0x3d52f324	0.05150141
113	0x3db70090	0.08935654
114	0x3df688ce	0.12037812
115	0x3c1ba4c4	0.009499732
116	0xbbea47cf	-0.0071496735
117	0xbcaf3ccd	-0.021391297
118	0x3a26ca84	0.00063625746
119	0xbb94f767	-0.004546094
120	0xbd994b68	-0.07485086
121	0x3d590e98	0.052992433
122	0x3df1ab0d	0.118002035
123	0x3c0cd1a8	0.008594908
124	0xbd058fb8	-0.032607764
125	0x3c49a8f5	0.012308349
126	0x3c513c51	0.012770728
127	0x3dbf0d99	0.093287654
128	0xbcee2606	-0.029070865
129	0x3db2bdbc	0.08727595
130	0x3cff6f58	0.031181023
131	0xbdc90593	-0.09815516
132	0x3c5ac54e	0.013352705
133	0x3d5522c4	0.05203511
134	0xbbfb9473	-0.0076776086
135	0xbd385d62	-0.04501093
136	0x3d3f3db6	0.04668971
137	0xbd495cc6	-0.04916074
138	0x3d678b96	0.056529604
139	0x3c7dac43	0.015482965
140	0x3c9afc06	0.018919002
141	0x3d9a1bbb	0.075248204
142	0xbd7b2cca	-0.06132201
143	0xbc3c1719	-0.011480116
144	0x3d81fa1c	0.06346533
145	0xbd04dc72	-0.032436796
146	0x3d93ae12	0.07210936
147	0xbd0d12d5	-0.034441788
148	0x3d4e64cf	0.050389107
149	0x3d7cd806	0.061729454
150	0xbc84770a	-0.016170043
151	0x3cd53549	0.026026385
152	0x3cf037dd	0.029323513
153	0xbdca404f	-0.09875547
154	0xbbff64c6	-0.0077939956
155	0xbdafbfa3	-0.08581474
156	0xbd291b57	-0.04128584
157	0xbc16bd13	-0.009200352
158	0xbb848171	-0.004043751
159	0x3bf0c34f	0.0073475013
160	0x3c872e82	0.016501669
161	0xbc7c305e	-0.015392391
162	0xbc6f44a2	-0.014603766
163	0x3cf3d164	0.029762931
164	0xbda3f93c	-0.08006522
165	0x3cade52b	0.02122744
166	0x3dc95587	0.09830766
167	0xbc373f6e	-0.011184556
168	0xbd168522	-0.03674806
169	0x3cd3cab3	0.02585349
170	0xbd780fc8	-0.060561925
171	0x3dd04814	0.10169998
172	0x3c93080c	0.017948173
173	0xbc2db9bd	-0.0106033655
174	0x3dc6ae20	0.097011805
175	0x3e007e20	0.12548113
176	0x3d090539	0.033452246
177	0xbc9eef2a	-0.019401152
178	0xbc3b0e0f	-0.011416926
179	0x3dfa9604	0.122356445
180	0xbb9c1869	-0.004763652
181	0xbc6f80da	-0.014618123
182	0xbd7879cc	-0.06066303
183	0xbe16d5c1	-0.14729978
184	0xbd953eb0	-0.07287347
185	0x3e08c794	0.13357383
186	0x3dd05ce2	0.10173966
187	0x3d08be0c	0.033384368
188	0x3c6d6010	0.014488235
189	0xbd21bf62	-0.039489157
190	0x3e479c3b	0.19493191
191	0x3c462570	0.012093887
192	0x3bd71c62	0.006564663
193	0x3d2e2049	0.04251126
194	0x3d360cbb	0.044445734
195	0x3c3cc9c8	0.011522718
196	0xbd236afe	-0.039896958
197	0x3ca316b1	0.019908281
198	0xbcab1a10	-0.020886451
199	0x3d059998	0.03261718
200	0xbdda9df5	-0.10674659
201	0xbb50c713	-0.0031856939
202	0xbdb61f33	-0.088926695
203	0x3db620b4	0.088929564
204	0xbcecd439	-0.02890979
205	0x3d1e4768	0.038642317
206	0xbd9634dc	-0.07334301
207	0xbbc6554d	-0.006052649
208	0x3db6bd9c	0.08922884
209	0x3da0b4c7	0.078469805
210	0xbca1ea86	-0.01976515
211	0x3ca00e2c	0.019538008
212	0x3cbcb092	0.023033414
213	0x3d848793	0.06471171
214	0xbc3e4ef5	-0.0116155045
215	0xbde138da	-0.10997172
216	0x3d392d22	0.045209058
217	0xbd75ee7f	-0.0600419
218	0xbde028e3	-0.109452985
219	0xbdf5c514	-0.1200048
220	0xbb80a847	-0.00392631
221	0x3d93c6c8	0.07215649
222	0xbced8969	-0.028996186
223	0x3d3d8b14	0.046275213
224	0x3d46eafb	0.04856394
225	0xbd301989	-0.042993102
226	0x3d0c2316	0.034213148
227	0x3e33b5a2	0.17549756
228	0x3da4ab48	0.08040482
229	0x3e018bbd	0.12650962
230	0x3d195347	0.037432935
231	0x3b8b7b3c	0.004256634
232	0xbbcd9c22	-0.006274716
233	0xbc30b000	-0.010784149
234	0xbd4282a4	-0.04748787
235	0x3bd36ad8	0.0064519458
236	0xbd8be6af	-0.06831109
237	0xbd9a3ad4	-0.07530752
238	0xbdb15956	-0.086596176
239	0x39728082	0.00023126791
240	0x3da1868a	0.078869894
241	0xbac72d20	-0.0015195943
242	0xbc889b05	-0.016675482
243	0x3d919582	0.071085945
244	0xbde41733	-0.111372374
245	0xbd887ac4	-0.06664041
246	0xbd1fabb7	-0.03898212
247	0xbcb2458f	-0.021761684
248	0x3d311f59	0.043242786
249	0x3d714cc0	0.058911085
250	0xbcbaca88	-0.022801653
251	0xbd790d77	-0.060803857
252	0xbd832b25	-0.064047135
253	0x3da6a136	0.08136217
254	0xbd8ff8f1	-0.07029904
255	0xbdaa2f26	-0.08309774

network_body._body_endoder.seq_layers.2.bias f4 [256]
0	0x3a8c226f	0.0010691414
1	0x3b8bc7bc	0.0042657536
2	0xbbbe8a80	-0.0058148503
3	0x3bd34144	0.0064469893
4	0xbbd10787	-0.006379071
5	0xb88d51e5	-6.738658e-05
6	0x3ad7b640	0.0016457513
7	0x3ba30588	0.0049750246
8	0xbb1ef17f	-0.002425283
9	0xbc319772	-0.01083933
10	0xbabdb70a	-0.0014474106
11	0x3bc6a02f	0.006061576
12	0x3b32f12d	0.0027304396
13	0x3ac54be4	0.0015052524
14	0x3ba13ecf	0.0049208174
15	0x3bf88ae4	0.0075849164
16	0xbbaebb6d	-0.0053324015
17	0x3bc19ec5	0.0059088194
18	0x3ae9dbbc	0.0017841975
19	0xbb941215	-0.004518757
20	0x3c550ba2	0.013003262
21	0x3b37d296	0.0028049103
22	0x3b7791b0	0.0037776046
23	0x3bdb286a	0.0066881673
24	0xbb2b12aa	-0.0026103654
25	0xbbf5250f	-0.0074812244
26	0x3c31ddb8	0.0108560845
27	0xba41f681	-0.00073990977
28	0xbabbd123	-0.0014329295
29	0x3b8a8fb5	0.004228557
30	0x3b972d00	0.0046135187
31	0x3bd83c30	0.006598972
32	0x3b67fbb9	0.003539784
33	0x3b214010	0.0024604835
34	0xbacdb278	-0.0015693447
35	0x3b91b305	0.0044463896
36	0xbba28fc9	-0.004960988
37	0x3aaca924	0.0013172966
38	0xb830493c	-4.2029875e-05
39	0xbc04d6c0	-0.008107841
40	0xbbfaaaf6	-0.0076497747
41	0x3c074c17	0.008257887
42	0xbb8b7fb7	-0.004257168
43	0xbba79771	-0.005114489
44	0xba250905	-0.00062955945
45	0x3b36f476	0.0027916706
46	0xbae88942	-0.0017741101
47	0x3b9f4fba	0.004861799
48	0xbb371b66	-0.0027939915
49	0x3b0584ca	0.0020373338
50	0xbc53d829	-0.012929955
51	0x3adeed56	0.0017007987
52	0xb9b713bf	-0.00034919192
53	0xbc04ba58	-0.008101068
54	0x3bb2e80d	0.0054597915
55	0x3c1f2b43	0.009714904
56	0x3c82a8b4	0.015949585
57	0x3c15463a	0.009110982
58	0xbbbc5797	-0.005747746
59	0xbaa9935a	-0.0012937591
60	0x3beefc3a	0.0072932513
61	0x3bd2d60a	0.006434207
62	0xbae6724c	-0.001758167
63	0x3babed0d	0.0052467645
64	0x3c0c9af9	0.00858187
65	0xbb19e46d	-0.00234821
66	0xbb8f4452	-0.004372158
67	0x3bbadd8c	0.00570268
68	0x3bc55dba	0.006023136
69	0x3ba9f984	0.0051872153
70	0x3c1609a6	0.009157574
71	0x3afab709	0.0019128035
72	0xbc2237a4	-0.009900961
73	0x3bb59ff4	0.0055427495
74	0x3b5e6b64	0.0033938522
75	0xba7f2a65	-0.00097337953
76	0x3bafdc26	0.00536682
77	0xbbe6d363	-0.007044242
78	0x39c86898	0.000382249
79	0x3c3a275b	0.011361922
80	0xbbead445	-0.007166418
81	0xbc0232d0	-0.007946685
82	0xb7a21a22	-1.9324074e-05
83	0x3b1a26cd	0.0023521662
84	0xbbb38a8e	-0.0054791635
85	0xbc0fb938	-0.008772187
86	0x3b8798ee	0.0041381037
87	0x3b86fce4	0.0041195024
88	0x3bf44c9b	0.007455421
89	0x3babcd25	0.005242961
90	0x3b5d923a	0.0033809082
91	0xb9e1e2b6	-0.00043084257
92	0x3c0bdd14	0.008536596
93	0xbb08fa2a	-0.0020901063
94	0x3bbec33b	0.005821613
95	0x3b1de574	0.0024093064
96	0x3acd6743	0.0015671033
97	0x3a9aecda	0.0011819855
98	0x3c325b48	0.010886021
99	0xbb988779	-0.0046548215
100	0xbbba843a	-0.005692032
101	0x3b9f88f3	0.0048686205
102	0x3b70974b	0.0036711271
103	0x3c13e6e2	0.009027215
104	0x3b88b1fc	0.004171608
105	0x3bb7647f	0.005596697
106	0x3bdec087	0.0067978534
107	0xbbf7a5dd	-0.0075576142
108	0x3aca8dff	0.0015453695
109	0x3bba0e31	0.0056779613
110	0x3b4482a3	0.0029985092
111	0xbbb74d1e	-0.00559391
112	0x3b2041bc	0.0024453243
113	0xba9be029	-0.0011892366
114	0xbaf98916	-0.0019038047
115	0x3bb4759c	0.005507184
116	0xba2ae09f	-0.00065184565
117	0x3b61e435	0.0034468297
118	0x3c008b05	0.007845645
119	0xbb11ef1f	-0.0022267771
120	0x3b6684a8	0.0035174284
121	0xbad6430b	-0.0016346885
122	0xba3dd0a8	-0.000724087
123	0x3a707ba4	0.00091736973
124	0x3c8ce519	0.017199086
125	0xbb8419b9	-0.0040313867
126	0xbc098796	-0.008394143
127	0xbbbb45e0	-0.005715117
128	0x3bccb0d9	0.006246668
129	0x3bba2d28	0.0056816526
130	0x3c71f3e0	0.014767617
131	0x3b8777b5	0.0041341432
132	0x3b48bf3f	0.003063157
133	0x3b465624	0.0030263746
134	0x3b3ed900	0.0029121041
135	0x3c26e505	0.010186438
136	0x3be61639	0.007021692
137	0x3b4a7017	0.0030889565
138	0x3c0e9b8d	0.008704078
139	0x3ad1c4ee	0.0016004124
140	0xbaf29d4e	-0.0018510015
141	0x3637d9f8	2.7396e-06
142	0x3b66158b	0.0035108055
143	0xbba2d013	-0.004968652
144	0x3c13551d	0.008992461
145	0x3b9a04cf	0.0047002803
146	0x3c1b9315	0.009495516
147	0x3b9c4a02	0.0047695646
148	0xbbb8fcbf	-0.005645364
149	0x39460a82	0.00018886666
150	0x3bc4b3be	0.0060028723
151	0x3b8b923f	0.0042593773
152	0x3c35f1a4	0.011104975
153	0xbadf8d01	-0.0017055572
154	0x3aa1dbc3	0.0012348819
155	0x3ab34d4a	0.001367965
156	0xbb0ec704	-0.0021786103
157	0x3b8db353	0.0043243556
158	0x3c1c6033	0.00954442
159	0x3abd6910	0.0014450867
160	0x3c37ada3	0.011210832
161	0xbaca95a8	-0.0015455978
162	0x3c154a81	0.009112001
163	0xbbebc6f5	-0.0071953484
164	0xbb88e607	-0.004177812
165	0x3ac83b0d	0.0015276388
166	0x3c165a03	0.009176734
167	0xbbcfac14	-0.006337652
168	0x3bdd673f	0.0067566927
169	0x3a59c2e8	0.00083069364
170	0x3c2a5c28	0.010397948
171	0x3b26b6c8	0.0025438536
172	0xbae6ea8c	-0.0017617508
173	0xb8df275e	-0.00010640801
174	0x3b2ebec2	0.0026663993
175	0xbabe2111	-0.0014505704
176	0x3b955be1	0.004558072
177	0xbbb87cf3	-0.0056301295
178	0x3ba24b55	0.004952828
179	0x3bb357be	0.005473106
180	0x3a7694be	0.00094063196
181	0x3c57570b	0.013143311
182	0xbb9b5fa0	-0.004741624
183	0xb9f0e302	-0.000459455
184	0xbc1eca34	-0.009691764
185	0xbb15e3d8	-0.00228714
186	0x3ad1825b	0.0015984284
187	0xbae8f1da	-0.0017772273
188	0x3c10aa94	0.0088297315
189	0xbb91b710	-0.0044468716
190	0xbaadc43a	-0.0013257333
191	0x3bd353da	0.006449205
192	0x3b26e1bc	0.0025464138
193	0x3972c253	0.0002315131
194	0x3c6cb605	0.014447694
195	0x3b9aba42	0.0047219107
196	0xbb573d1c	-0.003284282
197	0x3aff32e8	0.0019470127
198	0xbc09dda4	-0.00841466
199	0x3bfdd63f	0.0077464874
200	0xbb844ead	-0.004037699
201	0x3b928f72	0.0044726664
202	0x3a44192a	0.00074805564
203	0x3c673987	0.014112837
204	0x3ada1fca	0.0016641554
205	0xbba84781	-0.005135477
206	0x3bcf5b70	0.006328039
207	0x3ab144be	0.0013524515
208	0x3b6acbaa	0.003582696
209	0xb6526e58	-3.1356667e-06
210	0x3bc16874	0.0059023444
211	0x3b9d5a0e	0.004801995
212	0x3b6f5c7f	0.0036523638
213	0x3ac19d1a	0.0014771551
214	0xbb6f780a	-0.0036540055
215	0x3b9938b3	0.0046759485
216	0x3b8e090d	0.004334575
217	0x3be8cf4d	0.0071047903
218	0x3b6dd30a	0.003628912
219	0x3bff145e	0.0077844104
220	0xbbb5d233	-0.0055487393
221	0x3ac0faf3	0.0014723226
222	0xb8fd5ec0	-0.00012081629
223	0x3afc1552	0.0019232428
224	0x3b502065	0.003175759
225	0x3bdfd8b9	0.0068312553
226	0x3b01449b	0.001972473
227	0x3aef693b	0.0018265614
228	0x3b6bfccc	0.0036008833
229	0x3bfe6983	0.007764043
230	0xbbcc10f5	-0.0062276074
231	0xbbed6659	-0.007244867
232	0x3bd224de	0.0064130863
233	0x3b8647c2	0.0040979097
234	0x3bc7245f	0.006077334
235	0x3b94fc26	0.00454666
236	0x3bdb00b0	0.0066834316
237	0x3b6ca233	0.003610742
238	0x3af76328	0.0018874155
239	0x3ac055f3	0.0014674052
240	0x3b067bb2	0.0020520505
241	0x3c155b89	0.009116062
242	0xbb5a680d	-0.003332618
243	0x3b41eda3	0.0029591105
244	0x3b44ba85	0.00300184
245	0xbbac5cc8	-0.005260084
246	0x3bde9a9a	0.0067933323
247	0xbb93a9d0	-0.004506327
248	0xb9e88a11	-0.00044353356
249	0x38eed33a	0.000113880684
250	0x3ad1bead	0.001600226
251	0x3b0a9c20	0.0021150187
252	0x3b36b31e	0.0027877758
253	0xbba74dd7	-0.005105715
254	0xbb1f9634	-0.0024351003
255	0x3a8844c2	0.0010396468

action_model._continuous_distribution.log_sigma f4 [1, 6]
0	0xbdc009a9	-0.093768425
1	0x3d13cd58	0.036084503
2	0x3c8e4fbd	0.017372007
3	0x3d048af1	0.032359067
4	0x3cbef965	0.02331228
5	0x3d05ae48	0.03263691

action_model._continuous_distribution.mu.weight f4 [6, 64]
0	0x3d02576d	0.031821657
1	0x3d62c871	0.055366937
2	0x3d10bd89	0.035337005
3	0x3d5e82dd	0.05432402
4	0xbde0ee45	-0.10982946
5	0x39be1504	0.00036255282
6	0x3c5f360c	0.013623726
7	0x3c2b21c2	0.01044506
8	0xbd31c219	-0.043397997
9	0x3d87760e	0.06614314
10	0x3cec5786	0.028850328
11	0x3d430222	0.047609456
12	0xbcf9bc6b	-0.030485353
13	0xbc77ed9c	-0.015132334
14	0xbbfeea1a	-0.007779372
15	0x3defaef2	0.1170329
16	0x3d106822	0.03525556
17	0xbce82461	-0.02833766
18	0xbde24f24	-0.11050251
19	0x3d945688	0.07243067
20	0x3cf9a78b	0.030475399
21	0x3d7ca8b7	0.061684337
22	0xbd624310	-0.055239737
23	0xbc9f7935	-0.019466976
24	0x3d1aecb9	0.037823413
25	0x3ca20d9c	0.01978188
26	0x3cd9c700	0.026584148
27	0x3dae864c	0.08521709
28	0xbd983b11	-0.07433141
29	0xbdc47de0	-0.09594321
30	0xbd0c1947	-0.034203794
31	0xbc4e44fc	-0.012589689
32	0xbd836e13	-0.06417479
33	0x3dc31aea	0.09526618
34	0x3cf771df	0.030205665
35	0xbd23314b	-0.03984193
36	0xbd9c89fd	-0.07643507
37	0xbd273ac6	-0.040827535
38	0xbc1a461d	-0.00941613
39	0x3d1bf76a	0.03807775
40	0x3d245308	0.040118247
41	0x3da4c691	0.08045686
42	0xbcddc5dc	-0.027071886
43	0xbd5779b7	-0.05260631
44	0x3c80369b	0.015651038
45	0x3ce9f72a	0.02856024
46	0x3c9ef392	0.019403253
47	0x3d8d5698	0.06901282
48	0xbce0d400	-0.02744484
49	0x3cd63102	0.026146416
50	0x3c2b76e1	0.010465355
51	0x3d09c21e	0.03363239
52	0xbca36fac	-0.01995071
53	0xbd160798	-0.036628336
54	0x3db6bca7	0.08922701
55	0x3d27cb73	0.04096551
56	0x3d309282	0.04310847
57	0x3d49732b	0.0491821
58	0xbcdb4952	-0.02676836
59	0x3d0d4816	0.034492575
60	0xbbe07f24	-0.006851094
61	0xbd4370f3	-0.04771514
62	0x3d5ffc91	0.054684225
63	0xbcc09d45	-0.023512492
64	0x3c19d585	0.009389286
65	0x3cfd3b4d	0.030912066
66	0x3cca444a	0.024690766
67	0xbdd00b38	-0.1015839
68	0x3db320be	0.087464795
69	0xbb6ddef8	-0.003629623
70	0x3cae2b1a	0.021260787
71	0x3d0e4846	0.034736894
72	0x3d1b2ebd	0.03788637
73	0x3c52a344	0.012856308
74	0x3d0464cc	0.03232269
75	0xbd9db329	-0.07700188
76	0x3b2c25c0	0.0026267618
77	0xbc2f8eb8	-0.010715179
78	0xbd4554ba	-0.048176505
79	0xbe0b0560	-0.13576269
80	0x3d06073b	0.03272174
81	0x3d3bed0a	0.045880355
82	0x3dc412cb	0.09573897
83	0xbc8da1e7	-0.017289115
84	0x3ce74288	0.028229967
85	0xbc629cbc	-0.013831314
86	0xbd9c355b	-0.07627364
87	0xbd96dc48	-0.07366234
88	0x3c925f47	0.017867697
89	0xbdb2da49	-0.08733041
90	0xbd19ed31	-0.03757972
91	0xbc2c15c9	-0.010503241
92	0xbd05eeb4	-0.03269835
93	0x3c8f9af9	0.017529951
94	0xbadb0e0a	-0.0016712558
95	0xbd392775	-0.045203645
96	0xbb63afc1	-0.0034742209
97	0x3dc9a3dd	0.098457076
98	0xbd829cd9	-0.063775726
99	0x3be7d1ac	0.0070745554
100	0xbc07347b	-0.008252258
101	0x3d510932	0.05103416
102	0xbd396807	-0.045265224
103	0xbd755db1	-0.059903804
104	0xbc464bc3	-0.012103024
105	0x3d5ba4b6	0.053623877
106	0x3d5d8972	0.054086156
107	0x3d4c89a4	0.04993595
108	0xbcb35da9	-0.021895247
109	0x3d293cac	0.041317627
110	0xbd306314	-0.04306324
111	0xbcf844fd	-0.030306334
112	0xbcd6ca7a	-0.026219595
113	0xbd583758	-0.052787155
114	0x3d4ad528	0.049519688
115	0x3cadb287	0.021203293
116	0xbd14f6c8	-0.03636816
117	0xbd207b00	-0.039179802
118	0xbca8c67b	-0.020602455
119	0x3bb5ee11	0.0055520614
120	0x3be9dd3b	0.0071369684
121	0x3bee17f7	0.0072660404
122	0x3dd7831b	0.10523053
123	0xbd5a2ece	-0.053267293
124	0x3cd77374	0.02630017
125	0xbcbfd83d	-0.02341854
126	0xbbb644a4	-0.005562382
127	0x3d0d2e6d	0.034468103
128	0x3baa932b	0.005205532
129	0x3c9080d0	0.017639548
130	0x3d6b7ec5	0.057493944
131	0x3d0e7de2	0.03478802
132	0xbd0265d2	-0.031835385
133	0xbcf50157	-0.029907865
134	0x3c0bd86b	0.008535485
135	0x3cd22a5d	0.025654966
136	0x3d0b2bca	0.033977307
137	0xbb4f3571	-0.0031617547
138	0xbb30a563	-0.0026954047
139	0x3c8129a9	0.015766935
140	0xbc2801f9	-0.010254377
141	0x3cc8dc8f	0.024519233
142	0x3cd70daa	0.026251633
143	0x3d22e75c	0.039771423
144	0x3c35a66a	0.0110870395
145	0x385161aa	4.992044e-05
146	0xbcb0e526	-0.021593641
147	0xbd0a0910	-0.03370005
148	0x3bb28d77	0.005448993
149	0x3d5238de	0.051323764
150	0x3cef1c62	0.029188339
151	0xbcca8014	-0.024719276
152	0x3b85c738	0.0040825866
153	0x3d025f4d	0.031829167
154	0x3b72a254	0.0037023025
155	0xbbb763e1	-0.0055966233
156	0x3d2b5577	0.041829553
157	0x3c9efa04	0.019406326
158	0x3d5414f0	0.05177778
159	0x3bcbe3d5	0.006222228
160	0x3cf96330	0.030442804
161	0xbc27e0bc	-0.010246452
162	0xbd243d52	-0.040097542
163	0xbd338111	-0.04382426
164	0xbaad61f8	-0.001322805
165	0xbd331f80	-0.043731213
166	0x3cdfe55c	0.027331047
167	0xbcfec431	-0.03109941
168	0xbcd1f258	-0.025628254
169	0xbcd4e9b4	-0.025990345
170	0x3cd74b9e	0.026281174
171	0xbc9cf421	-0.019159378
172	0x3be4b1e5	0.0069792145
173	0xbd07fdb9	-0.033200953
174	0x3cf13a6b	0.029446801
175	0xbcf4f02e	-0.029899683
176	0x3cb2888e	0.02179363
177	0x3d41bb3b	0.047297698
178	0xbc937962	-0.018002216
179	0x39a55362	0.00031533377
180	0x3d79c6fd	0.060980786
181	0x3cb1b42b	0.021692356
182	0x3c3fe049	0.011711189
183	0xbc35c1c3	-0.01109356
184	0x3cf7c6f0	0.030246228
185	0xbc06d52f	-0.008229538
186	0xba9f05ae	-0.001213243
187	0xbd49ac52	-0.049236603
188	0xbc0cf8c1	-0.008604229
189	0xbcb42ce6	-0.021994065
190	0x3cad0f28	0.021125391
191	0xbcf6d546	-0.030130994
192	0x3bce14bf	0.006289094
193	0xbba0043a	-0.0048833163
194	0xbcff2daa	-0.031149704
195	0x3bc98e25	0.006150978
196	0xbb84d6d8	-0.0040539317
197	0xbb35b8f5	-0.0027728651
198	0xbbaf7d33	-0.005355501
199	0xbb08e416	-0.0020887903
200	0xbd005fc5	-0.031341333
201	0xbb8a66aa	-0.0042236643
202	0x3ccb860b	0.02484419
203	0x3d4676f8	0.0484533
204	0xbc2d4561	-0.010575623
205	0x3c3e08a5	0.011598741
206	0xbce43694	-0.027858056
207	0xbc1ff628	-0.009763278
208	0xbc3091b8	-0.01077693
209	0x3c490dfa	0.012271399
210	0x3d08a10b	0.033356708
211	0x3d148803	0.036262523
212	0x3c8849cb	0.01663675
213	0x3c10e89f	0.008844524
214	0xbc4cb9c9	-0.0124954665
215	0x3c6aab0d	0.014323008
216	0x3c3b6d0a	0.011439571
217	0x3d1e46f9	0.038641904
218	0x3bf670f0	0.0075207874
219	0xbbf613b5	-0.0075096735
220	0x3c9d867e	0.01922917
221	0xbcacc76a	-0.021091182
222	0x3cc38a1f	0.023869572
223	0xbc0aa4b5	-0.008462121
224	0xbca317a9	-0.019908743
225	0x3b9e31b9	0.0048277047
226	0xbc4279ec	-0.011869889
227	0x3cfc270d	0.03078034
228	0x3c07da4c	0.008291792
229	0xbac1d586	-0.0014788366
230	0xbcccc127	-0.024994446
231	0x3cdbb18c	0.02681806
232	0x3d1ae3f4	0.03781505
233	0x3d3f47ea	0.046699442
234	0xbc5acd35	-0.013354589
235	0x3cc0f2ee	0.023553338
236	0x3c67e129	0.014152803
237	0x3bc32f23	0.005956547
238	0x38e7b3ae	0.00011048406
239	0x3da2fceb	0.079583965
240	0xbc032e72	-0.008006679
241	0xbc04281d	-0.008066204
242	0xbcd6fb19	-0.02624278
243	0xba9f4d3b	-0.0012153754
244	0x3cb508cb	0.02209892
245	0xbc9180f7	-0.01776169
246	0xbcb8670b	-0.022510072
247	0xbcfa619c	-0.030564122
248	0x3cce819f	0.025208293
249	0x3c1791c2	0.00925106
250	0xb8bfa626	-9.138537e-05
251	0x3cc2ffaf	0.02380356
252	0xbc3794cc	-0.0112049095
253	0xbc859b16	-0.016309302
254	0x3ceab6de	0.028651651
255	0xbd8e6095	-0.06952015

action_model._continuous_distribution.mu.bias f4 [6]
0	0x3ca46a0b	0.020070096
1	0x3b397106	0.0028296127
2	0xbb9c9c27	-0.004779357
3	0x3b87aae6	0.0041402457
4	0x3c076210	0.008263126
5	0xbc2b6421	-0.010460884

onnx::LSTM_101 f4 [1, 256, 256]
0	0x3d289664	0.04115905
1	0x3dd25fef	0.10272204
2	0x3d9b95b8	0.07596916
3	0x3d5d9b77	0.05410334
4	0xbd360457	-0.044437733
5	0x3e1baf54	0.15203601
6	0x3dc39c1a	0.095512584
7	0x3dcd34fc	0.100198716
8	0xbd23041f	-0.039798852
9	0xbd2ad582	-0.041707523
10	0xbe19676d	-0.1498086
11	0x3d4b6bd2	0.049663372
12	0xbc9ace6c	-0.018897258
13	0x3d685768	0.056723982
14	0xbdccb82b	-0.09996065
15	0xbb844511	-0.0040365537
16	0xbd4bd1cf	-0.049760636
17	0xbce9c3ae	-0.02853569
18	0xbdbfa5e5	-0.09357814
19	0x3d89bf0b	0.06725892
20	0x3cf34ded	0.029700244
21	0x3c901ab5	0.01759086
22	0x3b986653	0.00465087
23	0xbab2e365	-0.0013648091
24	0xbcfe2de7	-0.031027747
25	0x3dd55818	0.10417193
26	0x3e06028a	0.13086906
27	0xbb804b81	-0.0039152508
28	0x3bb52fdf	0.0055293883
29	0xba02c462	-0.000498837
30	0x3e115130	0.14191127
31	0x3cd544f8	0.026033863
32	0x3df2f96b	0.11863979
33	0x3de7c42e	0.11316715
34	0xbd477b51	-0.048701588
35	0x3d4e14d3	0.05031283
36	0xbdd52e2a	-0.10409196
37	0x3d1ccd46	0.0382817
38	0x3e04a674	0.12954122
39	0xbcd1708b	-0.02556636
40	0xbe05adb3	-0.13054542
41	0xbd08ef72	-0.033431478
42	0xbdb5a62f	-0.08869588
43	0x3dc4f1b4	0.09616414
44	0x3d4e66f9	0.05039117
45	0x3d9b4bbd	0.07582805
46	0x3b9efddb	0.0048520393
47	0x3dc27fed	0.09497056
48	0x3ba116c9	0.0049160463
49	0x390e9810	0.00013598823
50	0xbc766177	-0.015037886
51	0x3dc35ed6	0.09539573
52	0x3de40a70	0.11134803
53	0x3ccb5e1d	0.02482515
54	0xbdf07a69	-0.11742098
55	0x3d606ffc	0.054794297
56	0xbd891967	-0.06694298
57	0xbdc0eab2	-0.094197646
58	0x3a1683d0	0.00057416875
59	0xbdac3168	-0.08407861
60	0x3e246bde	0.16056773
61	0xbdb1a58d	-0.086741544
62	0x3bd31585	0.0064417743
63	0xbd67dd36	-0.056607448
64	0xbc8f20e7	-0.017471744
65	0x3cb76a46	0.022389542
66	0x3d92abee	0.07161699
67	0x3d70d444	0.058796182
68	0xbdbcfa93	-0.09227481
69	0xbd9c9a7f	-0.07646655
70	0x3cfd0fcd	0.030891323
71	0x3e235da8	0.15953696
72	0x3dd18ac9	0.10231549
73	0xbca19171	-0.019722672
74	0x3cba2d44	0.022726662
75	0x3d09c3a5	0.033633847
76	0xbdf54489	-0.11975963
77	0xbde77307	-0.113012366
78	0xbd7c7324	-0.061633244
79	0xbceb4429	-0.028719025
80	0xbd3aa1c5	-0.04556443
81	0x3d25dd8c	0.040494487
82	0x3dd17625	0.102276124
83	0x3d95a63b	0.073070966
84	0x3cf329e3	0.02968306
85	0x3d9ea92c	0.07747111
86	0xbc81772c	-0.015803896
87	0xbd980bf0	-0.07424152
88	0x3df467fe	0.119338974
89	0xbd7dc6ed	-0.06195729
90	0xbdde22df	-0.10846495
91	0xbe0f64e2	-0.14003327
92	0x3e20c319	0.15699424
93	0x3d55befb	0.052184086
94	0x3dc3dd60	0.09563708
95	0x3dec3e6f	0.11535346
96	0x3d06928e	0.03285461
97	0xbcec9a59	-0.028882192
98	0x3ddc48bb	0.1075606
99	0xbc743276	-0.014904609
100	0xbcdd50c3	-0.02701605
101	0xbd57f0cf	-0.052719887
102	0xbd65227b	-0.055941086
103	0xbdb40933	-0.08790817
104	0x3d244658	0.040106148
105	0x3e23b3c5	0.15986545
106	0xbd022dc6	-0.031781934
107	0xbd905a15	-0.07048432
108	0x3dd34545	0.103159465
109	0xbdabac9e	-0.083825335
110	0xbde8a25d	-0.11359093
111	0x3d82d0d8	0.0638749
112	0xbc0a1779	-0.008428448
113	0x3dc31822	0.09526087
114	0xbd6e48bb	-0.05817483
115	0xbdcb25a1	-0.099192865
116	0xbd0a8971	-0.03382248
117	0x3c379500	0.011204958
118	0x3d10667f	0.035253998
119	0x3c2d0af3	0.0105616925
120	0x3d450755	0.048102695
121	0x3dd218d1	0.102586396
122	0xbd716be8	-0.058940798
123	0x3cf251be	0.029579993
124	0xbd31b0db	-0.043381553
125	0xbdaaabd0	-0.08333552
126	0x3da24b2e	0.07924496
127	0xbc922c55	-0.017843405
128	0x3cb4d240	0.022072911
129	0x3c785812	0.015157716
130	0x3d789686	0.060690425
131	0x3d371232	0.044695087
132	0xbdaeb767	-0.08531075
133	0x3dd8f454	0.10593477
134	0x3dc64f3d	0.09683082
135	0x3d72d6d8	0.059286922
136	0x3e00260e	0.12514517
137	0xbcd39a75	-0.025830487
138	0xbc35cf4a	-0.011096785
139	0x3d0dae56	0.034590088
140	0x3dc36b52	0.09541954
141	0xbd5b303c	-0.053512797
142	0xbc656be3	-0.014002773
143	0xbdfa557a	-0.122233346
144	0xbd841680	-0.06449604
145	0xbd113237	-0.03544828
146	0x3caefa76	0.021359663
147	0xbcb11006	-0.021614086
148	0xbdf707b1	-0.12062014
149	0x3dd07d38	0.101801336
150	0x3d85a668	0.0652588
151	0x3d072bef	0.033000883
152	0x3d778402	0.060428627
153	0x3d6ef504	0.058339134
154	0xbda15554	-0.07877603
155	0xbd86e61d	-0.065868594
156	0x3d688d75	0.05677553
157	0xbe194aa4	-0.1496988
158	0x3d135b29	0.03597561
159	0x3d268574	0.040654615
160	0x3e08c95d	0.13358064
161	0x3dd4b82a	0.10386689
162	0xbd88b920	-0.06675935
163	0x3dd5c6cd	0.10438309
164	0x3daebaff	0.085317604
165	0x3c5d9a3f	0.013525545
166	0x3cc29f24	0.023757525
167	0x3dd188ba	0.10231157
168	0xbe199672	-0.14998797
169	0x3e0e4ee9	0.1389729
170	0x3c693a0c	0.014235031
171	0x3df1bc36	0.118034765
172	0x3da557d8	0.080733955
173	0x3ca6a8d6	0.02034418
174	0x3e012a54	0.12613803
175	0x3c927382	0.017877344
176	0x3df9de70	0.1220063
177	0x3cf23ef0	0.029571027
178	0x3c635490	0.013875142
179	0xbdca870c	-0.098890394
180	0xbdfbdfc2	-0.12298538
181	0xbd2dfe8f	-0.042479094
182	0xbc8ef3d1	-0.017450245
183	0x3c2e0fa7	0.010623849
184	0xbdd08899	-0.10182304
185	0x3e01eedc	0.12688774
186	0xbe13a48f	-0.14418243
187	0x3da3aec9	0.07992322
188	0x3d6bf0fb	0.057602864
189	0xbd6287e5	-0.05530538
190	0x3d88d848	0.066818774
191	0x3de73531	0.11289442
192	0x3bddec2b	0.006772538
193	0xbdd8d8cf	-0.10588228
194	0x3c07b016	0.008281728
195	0x3d4de08e	0.05026298
196	0xbd4ab982	-0.04949332
197	0xbd9b45d7	-0.0758168
198	0xbdcef4d1	-0.10105289
199	0x3e020bc6	0.12699804
200	0xbe03afea	-0.12860075
201	0xbd377c2d	-0.044796158
202	0x3d8eeba7	0.06978541
203	0x3e114f46	0.14190397
204	0x3dee8ce3	0.11647966
205	0x3d747796	0.05968436
206	0x3d71d4dd	0.059040893
207	0x3cb2b9fe	0.021817204
208	0xbce9a4a7	-0.028520895
209	0xbd9b5482	-0.07584478
210	0xbdb93e27	-0.09045058
211	0x3def21d1	0.11676372
212	0xbbed686a	-0.007245113
213	0x3df64058	0.12023991
214	0x3dcb6865	0.09932021
215	0x3bc0bc8a	0.0058818506
216	0xbdf01dd5	-0.1172444
217	0xbcf5de55	-0.030013243
218	0xbcf594de	-0.029978212
219	0xbcc8dbfe	-0.024518963
220	0xbc58711e	-0.013210563
221	0x3daf5481	0.0856104
222	0xbd7ff1b3	-0.06248636
223	0x3d59899d	0.053109754
224	0xbd7ba836	-0.061439715
225	0xbd1b680b	-0.03794102
226	0xbd29c3a4	-0.041446343
227	0xbd3b1a45	-0.04567935
228	0x3d91b6f1	0.071149714
229	0x3d9bd54a	0.07609041
230	0xbdc6d2e0	-0.0970819
231	0xbdbfb8ef	-0.09361445
232	0xbd982159	-0.074282356
233	0x3e140e4d	0.1445858
234	0xbd7f1542	-0.062276132
235	0xbdc84ae0	-0.09779906
236	0x3d80835e	0.06275056
237	0xbd7cea71	-0.06174702
238	0x3e0800ed	0.13281603
239	0x3c2c6baa	0.010523716
240	0xbc398ae7	-0.011324621
241	0x3d655327	0.055987503
242	0xbdb4cb5f	-0.088278525
243	0xbd9dec0a	-0.077110365
244	0x3e231e39	0.15929498
245	0x3bbec858	0.0058222227
246	0xbdb23a83	-0.087025665
247	0x3d984e64	0.07436827
248	0xbd6bcfba	-0.05757115
249	0xbdad204c	-0.08453426
250	0xbddb46d2	-0.10706867
251	0xbd8dc0ae	-0.06921516
252	0xbd380a11	-0.044931475
253	0x3dd3ed3d	0.10347984
254	0x3d8b39c7	0.067981295
255	0xbe16046e	-0.14650127

onnx::LSTM_102 f4 [1, 256, 64]
0	0xbe07e38b	-0.13270395
1	0xbd46fc5a	-0.048580505
2	0x3dc81cd3	0.09771123
3	0xbd597554	-0.05309041
4	0xbd625d3c	-0.055264696
5	0x3e2e219c	0.17005008
6	0xbca0ed02	-0.019644264
7	0x3d17731b	0.036975008
8	0xbd03972d	-0.032126594
9	0xbd8fda60	-0.070240736
10	0xbd230c1a	-0.039806463
11	0x3d5034a1	0.05083144
12	0x3e242d87	0.16032992
13	0x3d815a52	0.06316055
14	0xbdc94862	-0.09828259
15	0xbd879029	-0.06619293
16	0x3e2fbe13	0.17162351
17	0xbe010029	-0.12597717
18	0x3e44ed5e	0.19231173
19	0x3d166733	0.036719512
20	0x3e0fa515	0.14027818
21	0xbd85ab75	-0.065268435
22	0xbe37e607	-0.17958842
23	0x3e22bb88	0.1589185
24	0xbe1a3e05	-0.15062721
25	0xbc305dd1	-0.010764555
26	0xbd9b5243	-0.075840496
27	0xbdfeddfc	-0.12444684
28	0xbd9107af	-0.07081544
29	0xbdafb1aa	-0.085788086
30	0xbe356aaf	-0.17716478
31	0xbe5eda56	-0.21762976
32	0xbe4a3538	-0.19746864
33	0x3d2e8c85	0.04261448
34	0xbd7e2edc	-0.062056407
35	0x3cff98e9	0.031200843
36	0xbe46d5e8	-0.19417536
37	0xbccf1098	-0.025276467
38	0x3d76d440	0.06026101
39	0x3e2cada8	0.1686312
40	0x3e6f85f7	0.23390947
41	0x3bd606d6	0.0065315766
42	0xbe50359b	-0.20332949
43	0x3e18a46f	0.14906476
44	0x3e110900	0.1416359
45	0xbdaa920c	-0.083286375
46	0x3e23d502	0.15999225
47	0xbd70c260	-0.05877912
48	0x3d3db98e	0.046319537
49	0x3e07ce70	0.13262343
50	0x3e1554c2	0.14583114
51	0x3e335d22	0.17515996
52	0x3d6c86f7	0.0577459
53	0x3ac31605	0.0014883882
54	0xbc917c69	-0.017759519
55	0x3d8fd980	0.07023907
56	0x3e0ffb4e	0.14060709
57	0xbe2c5f41	-0.16833211
58	0xbcd8d58b	-0.026469013
59	0xbe01f8eb	-0.12692611
60	0xbd313596	-0.043263994
61	0xbe490e27	-0.19634305
62	0x3d97434d	0.073858835
63	0xbe36428d	-0.17798825
64	0x3da5e5b0	0.0810045
65	0x3bf12f11	0.007360347
66	0xbe0bf049	-0.1366588
67	0x3b5feab9	0.0034167005
68	0x3e30d16e	0.17267391
69	0x3cf29230	0.029610723
70	0x3e47725d	0.1947722
71	0x3e33675d	0.17519899
72	0x3d40929c	0.047014818
73	0x3e08431b	0.13306849
74	0x3c85666f	0.016284196
75	0x3dd24a31	0.10268057
76	0x3e0b0bea	0.13578764
77	0x3ce4bdb3	0.027922487
78	0xbc805f31	-0.01567039
79	0x3e2e6a5d	0.17032762
80	0x3d0e824c	0.03479223
81	0xbe3fd619	-0.18734016
82	0xbe237eed	-0.15966387
83	0xbdc66b4c	-0.09688434
84	0x3d72ab53	0.05924542
85	0xbc58c2cc	-0.013230037
86	0xbe4f26a8	-0.2022959
87	0x3dbeb915	0.09312645
88	0x3e25c86a	0.16189733
89	0xbe1eedc3	-0.15520386
90	0x3d89a63d	0.067211606
91	0x3e009225	0.1255575
92	0xbe35e2bd	-0.17762275
93	0x3cb330e7	0.021873904
94	0xbe3b4ce3	-0.18291049
95	0xbe0d78c9	-0.13815607
96	0xbc8224f0	-0.015886754
97	0xbe408f68	-0.18804705
98	0x3de8a2d2	0.113591805
99	0x3e331f5d	0.17492433
100	0x3de6edea	0.11275847
101	0xbcff1564	-0.03113813
102	0xbda5e6ad	-0.081006385
103	0x3d811447	0.06302696
104	0x3d939759	0.07206602
105	0xbe108bb6	-0.14115795
106	0x3e336696	0.17519602
107	0x3d0bc71e	0.03412544
108	0xbdf3f5df	-0.119121306
109	0xbe134e50	-0.14385343
110	0xbe4f16bd	-0.20223518
111	0xbe6bdf52	-0.23034409
112	0xbc80c5fe	-0.01571941
113	0xbe0f16e1	-0.13973571
114	0xbe126131	-0.14294888
115	0xbe2a9881	-0.16659738
116	0xbc86158f	-0.016367702
117	0xbdc9c580	-0.09852123
118	0xbe48fb6f	-0.19627164
119	0x3dca09a9	0.09865124
120	0x3e6b55ea	0.22981992
121	0x3d7728f4	0.06034179
122	0xbe4fb8cf	-0.20285343
123	0xbd99fb22	-0.07518603
124	0xbdb87456	-0.09006564
125	0x3e132479	0.14369382
126	0xbdb5fe9e	-0.08886455
127	0x3c8d750e	0.01726773
128	0x3d34d2f6	0.0441465
129	0x3bb61849	0.0055570942
130	0xbe239fce	-0.1597893
131	0x3e5115d9	0.2041849
132	0xbdd5f8cd	-0.104478456
133	0xbe39de77	-0.1815127
134	0xbdcca1ad	-0.09991775
135	0xbcde9b61	-0.0271737
136	0x3d0247a4	0.031806603
137	0x3e48ca9c	0.1960854
138	0x3d5fbb01	0.0546217
139	0xbe3b750a	-0.18306366
140	0xbe20cf99	-0.15704192
141	0x3d762efc	0.0601034
142	0x3de906df	0.11378264
143	0xbe4a3479	-0.19746579
144	0xbe0c9de3	-0.13732104
145	0x3da5b110	0.080904126
146	0xbe291313	-0.16511182
147	0xbdcd2e30	-0.10018575
148	0x3df44008	0.119262755
149	0x3dda6861	0.1066444
150	0x3e32970c	0.17440432
151	0x3e502279	0.2032565
152	0xbd8573d8	-0.06516236
153	0x3dc0e424	0.09418514
154	0xbd4c8146	-0.049927972
155	0xbe3ce476	-0.18446526
156	0x3e560e48	0.20903885
157	0xbc98e264	-0.018662639
158	0x3e1081bb	0.14111988
159	0xbde842f8	-0.11340898
160	0xbe3f56f2	-0.18685511
161	0x3e3d9a20	0.18515825
162	0x3da5b179	0.08090491
163	0x3c844a54	0.016148724
164	0x3dbb26b1	0.09138239
165	0x3c4562ac	0.012047451
166	0xbd4dfaf6	-0.050288163
167	0x3e0be99f	0.13663338
168	0x3dbed328	0.093176186
169	0xbce0ddeb	-0.027449569
170	0x3e113a97	0.14182507
171	0xbdb3a8ed	-0.087724544
172	0xbe20fccf	-0.15721439
173	0x3c07af32	0.008281516
174	0x3dca27f1	0.098708995
175	0xbc51108e	-0.012760295
176	0xbd465ba4	-0.04842724
177	0xbe0d7c75	-0.13817008
178	0x3ca6e5af	0.020373194
179	0x3cb8bf04	0.02255202
180	0x3dc2db85	0.09514526
181	0xbcf0939f	-0.029367266
182	0x3dca1795	0.09867779
183	0xbc9727e3	-0.018451637
184	0xbd7ac8f1	-0.06122679
185	0x3d643821	0.05571759
186	0xbd38c9ba	-0.045114256
187	0xbda02610	-0.0781976
188	0xbd7840bc	-0.06060861
189	0x3d930640	0.071789265
190	0x3da38828	0.07984954
191	0xbdc32afb	-0.09529682
192	0xbd8842a0	-0.06653333
193	0x3d91ca8e	0.07118712
194	0x3e25ce2e	0.16191933
195	0x3d9282a1	0.07153822
196	0xbdbe9a52	-0.09306778
197	0xbe32dc45	-0.17466839
198	0xbe1bd2b7	-0.152171
199	0xbd0991d4	-0.03358634
200	0xbd903086	-0.07040505
201	0xbdef7bef	-0.1169356
202	0x3bb110c9	0.0054036123
203	0xbd3a6924	-0.045510426
204	0xbd9c435f	-0.076300375
205	0xbd2fd24f	-0.042925175
206	0xbd741e8c	-0.059599444
207	0x3c890dad	0.016730154
208	0xbe0d12a0	-0.13776636
209	0x3e0133e7	0.12617455
210	0x3e4444e8	0.1916691
211	0xbdc217f1	-0.09477223
212	0x3da3c02d	0.07995639
213	0xbe016a40	-0.12638187
214	0xbd66429f	-0.05621588
215	0x3ddb0686	0.106946036
216	0xbc66eeb2	-0.014094995
217	0xbd3035a1	-0.043019895
218	0x3e708cf4	0.2349127
219	0xbd831dd9	-0.06402177
220	0x3e35dcf5	0.1776007
221	0x3e40ddf9	0.18834676
222	0xbe0ca664	-0.13735348
223	0xbe03e609	-0.1288072
224	0xbe0555e1	-0.13021041
225	0x3dc85ad6	0.097829506
226	0xbc9db4b3	-0.019251203
227	0xbd9b895f	-0.07594561
228	0x3e13a8d4	0.14419872
229	0xbd8515ce	-0.064982995
230	0xbe02b6f2	-0.127651
231	0x3e1fc7b3	0.15603523
232	0xbe0dd20e	-0.13849661
233	0x3dffa7c4	0.12483171
234	0xbdbe0f51	-0.09280265
235	0x3dc05376	0.09390919
236	0x3d4b7bec	0.049678728
237	0xbe49aa26	-0.19693813
238	0x3e360352	0.17774704
239	0xbe1f527b	-0.15558808
240	0xbd9d6885	-0.07685951
241	0x3e31f69e	0.17379233
242	0x3d5f2c61	0.054485682
243	0x3de79a98	0.11308783
244	0x3e60125e	0.21882007
245	0x3c927fae	0.017883148
246	0x3a1f5788	0.0006078412
247	0xbe5724b6	-0.21010098
248	0x3d408f23	0.047011506
249	0xbe1cdcac	-0.15318555
250	0xbcdc3d62	-0.026884738
251	0xbe56607d	-0.20935245
252	0x3de572ac	0.112035125
253	0x3d93e88c	0.07222089
254	0xbe255954	-0.16147357
255	0xbb99a917	-0.0046893465
