code/selfparking/mla/results/test_21/Car.onnx (onnx, 710352 bytes, 10 tensors)

network_body._body_endoder.seq_layers.0.weight f4 [256, 108]
0.051721744 0.05630109 -0.04000502 0.05534577 -0.07420744 -0.0437267 0.08772211 0.08686274
-0.007928321 -0.18553841 -0.06489638 -0.0396562 -0.052377187 -0.09296408 -0.06354613 0.02708016
0.050208006 0.0033882204 0.15384722 0.052724745 0.021414218 -0.1930913 0.11841098 0.066309296
0.094569445 -0.02656098 -0.00042868615 0.01961509 0.06636235 -0.18172815 0.19339181 0.111298725
0.011305 0.044183172 0.0054276204 0.07063018 0.035507284 -0.048090246 0.13629143 0.017370382
-0.012110865 -0.24333902 0.057073865 -0.08908297 0.12657793 0.05066673 -0.007230648 -0.030300718
0.0385972 0.039917376 0.14447369 -0.094341956 0.011411589 0.031911284 -0.051040586 0.0055827196
0.20010656 -0.071133226 -0.12585433 -0.008880736 -0.118058905 0.00087215746 0.044755574 0.09243491
0.103300035 0.039148707 0.08709057 -0.0969974 0.18513481 0.0031754435 0.058907673 0.02794941
0.017653413 -0.051426563 0.08450667 -0.007974234 0.01329328 -0.13487034 0.049527828 0.10570793
0.02636965 -0.043269012 -0.035401024 -0.12370983 0.13296118 0.15596285 0.23728034 -0.0764147
-0.047472633 -0.07739538 -0.123227276 0.06910127 -0.03672829 0.054845754 -0.03239211 0.019871049
0.07116265 -0.070049495 0.024817972 -0.068046495 0.09336098 0.02672944 -0.020555656 0.010243385
0.00045353363 0.02586974 -0.041252654 -0.040841732 -0.020716107 -0.2518035 -0.046030797 0.04430833
-0.17455614 0.14745457 0.0121723255 0.14615697 -0.032002907 -0.0038302687 0.058399267 0.10062489
0.19021007 -0.077206746 -0.09295901 0.013612753 0.066845804 5.7233836e-05 0.011473215 0.078311
0.0027690495 -0.12584306 -0.015250292 0.029953914 0.15766649 -0.11839309 0.049216308 0.05383244
-0.025313485 -0.078245245 0.23446067 0.10034702 -0.009197623 -0.046325363 -0.07154649 -0.06665545
-0.11186181 0.04000139 -0.019752381 -0.0054295924 -0.11029177 0.017390488 0.017621094 0.042334285
-0.042168934 0.039545346 -0.022512818 0.01718738 -0.17811053 0.012179075 -0.073603064 0.062528744
-0.11942695 -0.16812669 0.049090747 0.07618184 -0.07392299 -0.07982899 -0.028016446 -0.086291805
-0.037167203 0.09013129 0.05563813 0.030582817 -0.025418103 -0.013962702 -0.04586831 0.086853325
-0.058619153 -0.024142457 0.033208065 0.107677944 0.04831702 0.019800827 -0.040188983 0.049016416
-0.033744972 0.10195077 0.098350435 0.021458073 -0.12409142 0.04931849 0.026913542 0.059779085
0.09773373 0.10783985 -0.0036030475 -0.019736417 0.08792898 0.18966636 -0.20233122 0.058564823
-0.11463747 0.044664875 0.030577417 0.06768406 -0.04527738 -0.066654235 0.060017098 0.086195886
0.20227596 -0.05252327 0.059570942 -0.027369885 -0.13086471 -0.06737946 -0.038376834 0.10718612
-0.056687865 -0.03608892 -0.054396775 -0.057279203 -0.04705899 0.06303868 0.0805463 0.03766852
-0.060449168 0.04750836 -0.021088077 0.06345762 0.14265065 0.15261726 0.05450919 0.1966435
0.14258066 -0.046380006 -0.09506413 0.13591664 0.09890355 -0.0107348 0.023794148 -0.108450614
-0.12707569 -0.0044483044 -0.008599273 0.11104337 0.068139926 -0.08846406 -0.14395496 -0.038965255
0.023296658 0.058834277 -0.084652245 -0.04355462 -0.0079786815 0.07021811 0.11347532 -0.07540035
00000000: 2eda 533d f99b 663d 4edc 23bd 3fb2 623d
00000010: 12fa 97bd c51a 33bd a6a7 b33d 18e5 b13d
00000020: cae5 01bc c8fd 3dbe 65e8 84bd 8a6e 22bd
00000030: 7689 56bd f463 bebd 7924 82bd 36d7 dd3c
00000040: e9a6 4d3d e80c 5e3b 208a 1d3e e7f5 573d
00000050: df6c af3c bab9 45be 7581 f23d 2bcd 873d
00000060: a0ad c13d 6a96 d9bc 48c1 e0b9 d3af a03c
00000070: fce8 873d f216 3abe 8108 463e 96f0 e33d
00000080: 9b38 393c 6af9 343d 2eda b13b 8ea6 903d
00000090: 1670 113d 47fa 44bd fb8f 0b3e 554c 8e3c
000000a0: a66c 46bc dd2d 79be 49c6 693d 2271 b6bd
000000b0: a59d 013e eb87 4f3d 12ef ecbb 3639 f8bc
000000c0: 1918 1e3d 6780 233d e9f0 133e 5b36 c1bd
000000d0: acf7 3a3c 68b5 023d ef0f 51bd 3fef b63b
000000e0: bce8 4c3e 4cae 91bd f5df 00be 8280 11bc
000000f0: dec8 f1bd 7fa1 643a 9f51 373d 844e bd3d
00000100: f88e d33d 655a 203d 8a5c b23d 93a6 c6bd
00000110: fb93 3d3e 1a1b 503b 2c49 713d 29f6 e43c
00000120: e49d 903c a9a4 52bd d511 ad3d 5da6 02bc
00000130: 0fcc 593c 731b 0abe b1dd 4a3d 667d d83d
00000140: 2a05 d83c d93a 31bd aa00 11bd 945b fdbd
00000150: fa26 083e bab4 1f3e 9ef9 723e 4f7f 9cbd
00000160: aa72 42bd 7881 9ebd 955e fcbd f784 8d3d
00000170: 6770 16bd f1a5 603d 97ad 04bd 9cc8 a23c
00000180: b9bd 913d 1c76 8fbd 0f4f cb3c f65b 8bbd
00000190: 0b34 bf3d b3f7 da3c 5664 a8bc dfd3 273c
000001a0: 41c8 ed39 c7ec d33c 8bf8 28bd a949 27bd
000001b0: d3b4 a9bc 63ec 80be ca8a 3cbd a77c 353d
000001c0: d8be 32be 55fe 163e 6f6e 473c 2caa 153e
000001d0: 7b15 03bd 3f05 7bbb 1234 6f3d 6c14 ce3d
000001e0: 6ec6 423e 921e 9ebd 4b61 bebd 0608 5f3c
000001f0: 74e6 883d 5d0e 7038 27fa 3b3c 8461 a03d
00000200: f178 353b 01dd 00be 5cdc 79bc e961 f53c
00000210: 5373 213e 1478 f2bd 0a97 493d 687f 5c3d
00000220: 3a5e cfbc 0b3f a0bd 7516 703e bd82 cd3d
00000230: a0b1 16bc aabf 3dbd f786 92bd a782 88bd
00000240: ce17 e5bd 7fd8 233d bfcf a1bc b9ea b1bb
00000250: a7e0 e1bd 7f76 8e3c 1d5a 903c b766 2d3d
00000260: 55b9 2cbd 4dfa 213d cd6c b8bc 8ccc 8c3c
00000270: 9b62 36be be8a 473c 34bd 96bd 120f 803d
00000280: 1e96 f4bd 6729 2cbe 6113 493d 3905 9c3d
00000290: f064 97bd 627d a3bd bf82 e5bc c2b9 b0bd
000002a0: a33c 18bd c196 b83d cfe4 633d d188 fa3c
000002b0: a039 d0bc d1c3 64bc 69e0 3bbd 28e0 b13d
000002c0: a31a 70bd 67c6 c5bc 2e05 083d 4186 dc3d
000002d0: 11e8 453d 5835 a23c 349d 24bd 70c5 483d
000002e0: 2b38 0abd 91cb d03d f46b c93d d7c8 af3c
000002f0: a423 febd 2f02 4a3d ca79 dc3c eada 743d
00000300: 9f28 c83d 24db dc3d 1b21 6cbb 44ae a1bc
00000310: 1c14 b43d e637 423e ea2f 4fbe abe1 6f3d
00000320: 0dc7 eabd 84f2 363d 7e7d fa3c f19d 8a3d
00000330: c674 39bd 0482 88bd 7dd4 753d 7887 b03d
00000340: 6e21 4f3e a422 57bd a900 743d cf36 e0bc
00000350: 6601 06be 3efe 89bd 0731 1dbd 6584 db3d
00000360: 8931 68bd fad1 13bd 27cf 5ebd 999d 6abd
00000370: edc0 40bd 6c1a 813d 75f5 a43d 4e4a 1a3d
00000380: 8c99 77bd 2098 423d e7c0 acbc 12f6 813d
00000390: 0313 123e b347 1c3e 0745 5f3d ea5c 493e
000003a0: aa00 123e f6f8 3dbd fcb0 c2bd bb2d 0b3e
000003b0: f28d ca3d 04e1 2fbc f2eb c23c 5b1b debd
000003c0: 2120 02be 15c3 91bb f7e3 0cbc b56a e33d
000003d0: f28c 8b3d a52c b5bd ee68 13be 089a 1fbd
000003e0: a2d8 be3c 36fc 703d 285e adbd 5466 32bd
000003f0: 04b9 02bc 83ce 8f3d c065 e83d 806b 9abd

network_body._body_endoder.seq_layers.0.bias f4 [256]
0.011160963 -0.0007579937 0.00095688074 -0.0038703904 0.00700622 -0.0007145903 -0.0017678456 -0.0011968768
0.00630221 -0.0048930105 -0.0026079542 -0.0009689006 0.0049946867 1.703607e-05 0.002039711 0.0022763063
0.0016922624 -3.0812134e-05 0.0008476785 -0.0017096915 0.0016525832 -0.0037938706 -0.0018369288 -0.00036353464
-0.0045143617 -0.0018425559 0.0026326138 0.005576035 0.00078919024 -0.0044144895 -0.00030440348 -0.0046647075
0.0001472938 0.0029908067 0.00408622 -0.0010048562 -0.0021168448 -0.0005269128 -0.0008157121 -0.0039484473
-0.003500015 -0.006842949 0.007645726 0.0046648113 -0.0008002045 -0.0013657402 0.003986858 -0.0039374735
0.009498409 -0.0016122095 -0.00039371316 0.014503461 -0.005688177 -0.003693244 -0.00011807561 0.0024406684
0.0001813803 0.012020935 0.00059602765 0.0077111283 -0.0005326432 -0.0036606495 0.0028841714 6.194538e-05
0.009186007 0.0041984366 0.0048294095 -0.0012938612 0.0010786966 0.002916922 0.003625515 -0.00053893187
0.0040357644 0.012020009 -0.007980768 -0.005588931 0.00043714113 0.006913295 0.0023698376 -0.004942796
0.007652242 -0.006610911 -0.00015665482 -0.0020013738 0.0005830281 -0.007008206 -0.0017584336 0.0036563338
0.004145843 0.01041742 0.0007149778 -0.0034304198 0.0017959744 0.0051809666 0.007179298 0.00039015466
0.0070763626 -0.00054227 0.0014048159 -0.0011842538 -0.0011222612 -0.0003826454 0.007176138 -0.0019577714
0.0037073973 0.009223803 0.0056852447 -0.0046601663 -0.010348542 0.0002566482 0.0033499068 -0.0047411495
0.004771792 -0.0023075999 -0.0020221125 -0.0054631005 -0.002333128 0.0033409433 -0.002102618 0.000651677
0.00578885 -0.005467641 -0.009629642 0.010243994 0.0050158496 0.005603366 0.0015851733 -0.0023144
0.0031918618 -0.004373613 -0.008572652 0.008710755 -0.0027004012 0.0026597406 0.0078351 0.011828746
0.0016908029 0.006137691 0.0057219523 0.0013983804 0.0034532573 0.0071208687 0.0012535057 0.00083838764
-0.0053839698 0.0015154546 0.004312941 -0.006099577 0.0050913906 -0.002360762 0.0017608217 -0.00096762576
-0.0007373743 0.0046492657 0.0053293393 0.0045986297 0.010637911 -0.0044580298 0.013314447 0.0014928563
0.007373927 -0.0035745092 0.005824725 0.006163554 -0.003951546 -0.0040732822 0.0029035227 0.008350522
0.009918792 0.00064946985 -0.00021663499 -0.005943832 0.0005774371 0.0046231104 0.0047537535 0.0056787897
-0.0051403404 0.00092839333 -0.0006405094 0.0015910594 -0.0001927414 0.0009997537 0.0037842018 -0.00085600663
-0.0029744124 -0.0055823834 0.0012848965 0.0021507952 0.0040566055 0.0013727491 0.0016771621 -0.0040544756
0.0056496174 -0.002300016 -0.002422191 -0.0014920604 -0.00017588874 -0.00058444054 0.005373775 -0.00678739
-0.0005026122 -0.0061554075 0.0052804365 -0.008061403 0.0047680624 -0.00010117171 0.006360508 -0.0031250424
0.00039771636 0.0028404896 -0.0030756462 -0.002529086 0.0017083768 -0.0021297624 0.0012977618 0.0004379223
-0.0005837706 -0.002560283 0.0058019967 -0.0018730607 0.001974657 0.009861592 0.0054537007 -0.008644257
0.0031066756 -0.00012996548 0.0039946334 0.0052685775 0.0002840443 0.002517102 -0.0009981194 -0.0043570064
5.1426847e-05 -0.0009843962 0.0009945693 0.008008993 -0.0037057032 0.003844037 -0.0011380886 -0.0040518334
-0.0029026035 -0.0028814462 0.0014013415 -0.00063329714 0.00058207166 0.009138962 0.007228586 -0.0042777713
-0.0053616096 -0.0012353968 0.0030385365 0.012074156 -0.00464927 -0.0034590662 0.0021130256 -0.0039543672
00000000: 79dc 363c 19b4 46ba 2ed7 7a3a 60a6 7dbb
00000010: 6f94 e53b 5853 3bba 0eb7 e7ba 85e0 9cba
00000020: c582 ce3b 8c55 a0bb 36ea 2abb d2fd 7dba
00000030: 78aa a33b afe8 8e37 acac 053b 152e 153b
00000040: e7ce dd3a 473c 01b8 be36 5e3a ba17 e0ba
00000050: 7e9b d83a 96a2 78bb 1ac5 f0ba cb98 beb9
00000060: 36ed 93bb eb81 f1ba ee87 2c3b 2cb7 b63b
00000070: a9e1 4e3a 6ca7 90bb 5898 9fb9 67da 98bb
00000080: e172 1a39 6901 443b b3e5 853b 61b5 83ba
00000090: c3ba 0abb 8520 0aba 83d5 55ba fa61 81bb
000000a0: 8260 65bb d13a e0bb 0089 fa3b 46db 983b
000000b0: d1c4 51ba a302 b3ba 30a4 823b ec05 81bb
000000c0: 379f 1b3c c650 d3ba 496b ceb9 ed9f 6d3c
000000d0: e363 babb 5a0a 72bb 5c9f f7b8 9ff3 1f3b
000000e0: e730 3e39 75f3 443c bd3e 1c3a a2ad fc3b
000000f0: 14a1 0bba 82e7 6fbb 5e04 3d3b ace8 8138
00000100: e880 163c 0a93 893b 0640 9e3b c796 a9ba
00000110: 0d63 8d3a d529 3f3b 0c9a 6d3b 1b47 0dba
00000120: 723e 843b 92ef 443c c4c1 02bc 5a23 b7bb
00000130: 1730 e539 ec88 e23b 474f 1b3b 2ef7 a1bb
00000140: a9bf fa3b 57a0 d8bb b543 24b9 7b29 03bb
00000150: 5ad6 183a 18a5 e5bb 3e7b e6ba 1a9f 6f3b
00000160: dad9 873b d4ad 2a3c 596d 3b3a e5d0 60bb
00000170: e766 eb3a 19c5 a93b 5140 eb3b ac8d cc39
00000180: d5e0 e73b 2027 0eba cd21 b83a f738 9bba
00000190: d618 93ba cc9d c8b9 cf25 eb3b f44d 00bb
000001a0: cef7 723b 6f1f 173c 4a4b ba3b 4fb4 98bb
000001b0: ee8c 29bc bd8e 8639 1c8a 5b3b a55b 9bbb
000001c0: b15c 9c3b 1a3b 17bb 6b85 04bb cf03 b3bb
000001d0: 64e7 18bb baf3 5a3b 14cc 09bb 4ed5 2a3a
000001e0: 65b0 bd3b e629 b3bb a5c5 1dbc 6dd6 273c
000001f0: ff5b a43b 719c b73b 97c5 cf3a 30ad 17bb
00000200: 8e2e 513b 8650 8fbb 4f74 0cbc 8eb7 0e3c
00000210: 37f9 30bb 0b4f 2e3b cb5e 003c 5bcd 413c
00000220: ee9d dd3a af1e c93b 377f bb3b dc49 b73a
00000230: 0b50 623b 2d56 e93b ac4c a43a 3ec7 5b3a
00000240: 036c b0bb 38a2 c63a 9253 8d3b f6de c7bb
00000250: aed5 a63b 04b7 1abb 5fcb e63a 44a8 7dba
00000260: 5a4c 41ba de58 983b bda1 ae3b 1ab0 963b
00000270: a24a 2e3c aa14 92bb d724 5a3c f2ab c33a
00000280: fca0 f13b 5042 6abb 56dd be3b a3f7 c93b
00000290: f87b 81bb 2b79 85bb 0749 3e3b a1d0 083c
000002a0: 6e82 223c 2f41 2a3a 8328 63b9 7ac4 c2bb
000002b0: 265f 173a 767d 973b 60c5 9b3b 2415 ba3b
000002c0: 4d70 a8bb 6c5f 733a dce7 27ba 188b d03a
000002d0: a01a 4ab9 2b0a 833a 5f00 783b a265 60ba
000002e0: 5cee 42bb 6dec b6bb f969 a83a 5bf4 0c3b
000002f0: 46ed 843b d1ed b33a 39d4 db3a 68db 84bb
00000300: 6d20 b93b debb 16bb 9fbd 1ebb 3d91 c3ba
00000310: c66e 38b9 2435 19ba 7e16 b03b c168 debb
00000320: bcc1 03ba 4db3 c9bb 8307 ad3b fa13 04bc
00000330: 683d 9c3b 262c d4b8 cf6b d03b 83cd 4cbb
00000340: 9684 d039 8227 3a3b c890 49bb 06bf 25bb
00000350: 9deb df3a 7c93 0bbb a919 aa3a f098 e539
00000360: 2f08 19ba 6cca 27bb ad1e be3b 7d81 f5ba
00000370: 3f69 013b 8492 213c f5b4 b23b a4a0 0dbc
00000380: 5e99 4b3b 5847 08b9 6ae5 823b 08a4 ac3b
00000390: c8eb 9439 f7f5 243b 54d3 82ba 38c5 8ebb
000003a0: 28b3 5738 db06 81ba 355c 823a 2738 033c
000003b0: 62db 72bb 3dec 7b3b eb2b 95ba 3ec5 84bb
000003c0: 9b39 3ebb a5d6 3cbb 38ad b73a da03 26ba
000003d0: 2b96 183a 96bb 153c c6dd ec3b 8c2c 8cbb
000003e0: 71b0 afbb 0aed a1ba 2f22 473b aed2 453c
000003f0: e758 98bb 80b1 62bb b07a 0a3b a393 81bb

network_body._body_endoder.seq_layers.2.weight f4 [256, 256]
0.028297698 0.008688913 0.05357476 0.027570559 -0.09169857 -0.05821749 0.047971025 -0.06285399
0.059598856 -0.08224557 0.052285135 -0.014357057 0.05056658 0.022578722 -0.016407827 -0.087889776
0.06996719 -0.016765047 -0.10423121 0.040580437 0.039454766 0.05505438 -0.122240625 0.0040145507
0.014967781 0.025677918 -0.12765417 0.0021456322 -0.008062065 -0.017447574 0.016344648 -0.012901759
0.13636771 0.040972505 0.025772335 -0.03544891 -0.07334557 0.04902753 0.005863859 -0.066308215
0.04565338 -0.023809055 -0.05008732 0.07236926 -0.027395105 -0.15154359 0.029328328 -0.034251843
-0.03745158 0.0037241525 0.077713296 -0.053540517 0.011080758 -0.021244286 -0.023975043 0.079841286
0.017668616 -0.083224475 0.03800941 -0.010146877 -0.082262896 -0.105884194 -0.031166948 0.07374097
0.023691041 0.020593775 0.038268786 -0.13203806 -0.049832594 -0.0063418993 -0.04533056 0.048213944
-0.15172316 -0.053418636 -0.020260658 -0.00082076737 -0.07567423 0.0033766713 -0.04454845 0.04773879
-0.047714822 -0.009837046 -0.020439832 -0.032975495 -0.07783391 0.037097767 -0.11002436 -0.055460762
0.023765765 -0.05208697 0.045110073 -0.1684882 0.016830077 -0.07343416 0.044147436 0.020768074
-0.008872089 0.0044215554 0.10961939 0.015946023 -0.02308258 0.04536043 -0.10390102 -0.0023060997
0.012526171 0.0371832 -0.014159208 -0.010597322 -0.04301926 -0.05454839 -0.016175788 -0.008579856
0.040685963 0.09664732 0.008101229 0.024752295 -0.032517992 0.02204171 -0.050532814 -0.039817482
0.035689045 -0.019754497 -0.021196889 0.014144979 -0.0122705605 0.035128854 0.05109196 0.006891485
-0.024067046 -0.07616529 0.067962654 0.02107819 0.018296171 -0.043839365 -0.052863576 0.12349268
-0.08421124 0.120189585 -0.03169146 -0.027675662 0.008773401 -0.04089164 0.062233042 -0.013414591
0.15027921 0.067100525 0.0075368104 -0.0982046 0.0033920542 0.04759017 0.05328109 -0.005815604
0.057548147 0.042750522 0.00791822 -0.029012574 0.017850224 0.026588231 0.017846696 0.045654777
0.05188924 -0.15396708 -0.028633617 -0.031020503 0.012373591 -0.046081237 0.07521911 0.004340048
-0.044071965 -0.059548557 0.09470716 0.04166607 -0.025926262 0.037214596 -0.04402942 0.06550649
0.10702287 -0.050605033 0.05705832 -0.03476208 -0.019797325 0.08008604 -0.05656404 -0.022796242
0.0047777477 -0.07896768 0.043316655 -0.06741846 -0.092804566 -0.04897036 0.008932588 0.028010407
0.04487211 -0.063262686 0.018672904 -0.01714547 -0.10731278 -0.08496464 0.10597021 0.028516307
0.061504737 -0.03743795 0.10400137 0.06442909 0.0411545 -0.00046428063 0.022145709 -0.02821079
-0.040565297 0.14471048 0.09777662 -0.016760115 -0.065054044 0.03208498 0.012367015 0.08521651
-0.048143443 -0.021363648 -0.017795589 0.07980052 0.025448328 -0.062129058 -0.005801697 0.034252837
0.112215884 0.046474002 0.0007845814 -0.007911409 0.003911722 0.060114805 0.15675856 -0.07908266
-0.010877793 -0.024802951 -0.008154725 -0.119534664 0.0978927 0.07876861 -0.030643227 0.011815881
-0.049863543 0.0314544 -0.05309017 0.02686016 0.008288194 -0.027856726 -0.04450056 0.13557512
-0.076457106 0.04896034 0.058805972 -0.024200952 -0.0082223425 -0.032982357 -0.005194079 -0.03374619
00000000: 93d0 e73c f15b 0e3c 3571 5b3d a7db e13c
00000010: 76cc bbbd 7675 6ebd 447d 443d 98b9 80bd
00000020: ee1d 743d 5e70 a8bd f028 563d dd39 6bbc
00000030: e71e 4f3d 03f7 b83c b569 86bc 8eff b3bd
00000040: f54a 8f3d da56 89bc 2c77 d5bd ac37 263d
00000050: 529b 213d b480 613d 4b59 fabd 7e8c 833b
00000060: 6c3b 753c 7f5a d23c c6b7 02be bc9d 0c3b
00000070: c016 04bc 37ee 8ebc 36e5 853c e661 53bc
00000080: faa3 0b3e c9d2 273d 8120 d33c e032 11bd
00000090: 3436 96bd 17d1 483d 9d25 c03b 9acc 87bd
000000a0: 0aff 3a3d 350b c3bc 5d28 4dbd 5636 943d
000000b0: b36b e0bc 3e2e 1bbe f641 f03c a94b 0cbd
000000c0: d466 19bd e910 743b 2628 9f3d 4d4d 5bbd
000000d0: 118c 353c 7f08 aebc 4f67 c4bc d483 a33d
000000e0: c6bd 903c 9871 aabd c1af 1b3d 163f 26bc
000000f0: 7379 a8bd d0d9 d8bd d451 ffbc 8105 973d
00000100: b713 c23c 47b4 a83c bbbf 1c3d fc34 07be
00000110: 431d 4cbd b5cf cfbb 8aac 39bd fc7b 453d
00000120: 515d 1bbe 80cd 5abd aef9 a5bc c428 57ba
00000130: 17fb 9abd 254b 5d3b 6f78 36bd c089 433d
00000140: 9e70 43bd 902b 21bc 6f71 a7bc 5011 07bd
00000150: 6367 9fbd d4f3 173d 7454 e1bd d32a 63bd
00000160: 6cb0 c23c 2659 55bd 57c5 383d 2c88 2cbe
00000170: 3bdf 893c a664 96bd f1d3 343d cf21 aa3c
00000180: 3d5c 11bc b2e2 903b 2180 e03d 3ca1 823c
00000190: ae17 bdbc dccb 393d 0fca d4bd ef21 17bb
000001a0: 923a 4d3c 694d 183d 06fc 67bc 64a0 2dbc
000001b0: f734 30bd 226e 5fbd 1683 84bc 8692 0cbc
000001c0: 53a6 263d 08ef c53d 04bb 043c 53c5 ca3c
000001d0: 9631 05bd d190 b43c 7ffb 4ebd a817 23bd
000001e0: ad2e 123d 2fd4 a1bc 19a5 adbc 58c0 673c
000001f0: 760a 49bc 46e3 0f3d ce45 513d f7d1 e13b
00000200: 4128 c5bc 8cfc 9bbd 0130 8b3d 2bac ac3c
00000210: dae1 953c e890 33bd 7a87 58bd bbe9 fc3d
00000220: f176 acbd f525 f63d e8ce 01bd 12b8 e2bc
00000230: 50be 0f3c fe7d 27bd 13e8 7e3d dfc8 5bbc
00000240: cbe2 193e 006c 893d 59f7 f63b 7e1f c9bd
00000250: 3a4d 5e3b e9ed 423d 463d 5a3d d290 bebb
00000260: 9bb7 6b3d 2c1b 2f3d 6cbb 013c c7ab edbc
00000270: a23a 923c 90cf d93c 3c33 923c 8100 3b3d
00000280: d089 543d 8ca9 1dbe 0c91 eabc b61e febc
00000290: 9aba 4a3c aebf 3cbd 7a0c 9a3d f636 8e3b
000002a0: ce84 34bd 30e9 73bd d4f5 c13d 0baa 2a3d
000002b0: 5063 d4bc 556e 183d 3158 34bd 4428 863d
000002c0: ce2e db3d 3947 4fbd fcb5 693d af62 0ebd
000002d0: 002e a2bc 2604 a43d b2af 67bd 2fbf babc
000002e0: a78e 9c3b cfb9 a1bd ce6c 313d b112 8abd
000002f0: 5210 bebd 2595 48bd fd59 123c 1576 e53c
00000300: d1cb 373d de8f 81bd ebf7 983c a874 8cbc
00000310: cec6 dbbd f101 aebd e906 d93d 089b e93c
00000320: 64ec 7b3d 8958 19bd acfe d43d 66f3 833d
00000330: 9f91 283d b16a f3b9 eb6a b53c 511a e7bc
00000340: cc27 26bd fc2e 143e 1c3f c83d 824c 89bc
00000350: 0e3b 85bd 8a6b 033d 059f 4a3c fe85 ae3d
00000360: 0f32 45bd d102 afbc 0ec8 91bc 746e a33d
00000370: 0379 d03c 0a7b 7ebd 291c bebb b44c 0c3d
00000380: 71d1 e53d 865b 3e3d 5eac 4d3a db9e 01bc
00000390: e72d 803b f13a 763d 5185 203e 17f6 a1bd
000003a0: c538 32bc 8f2f cbbc 659b 05bc 97ce f4bd
000003b0: f87b c83d 7051 a13d 8107 fbbc 6697 413c
000003c0: b73d 4cbd 54d6 003d 1475 59bd d709 dc3c
000003d0: 35cb 073c ca33 e4bc 3846 36bd 34d4 0a3e
000003e0: 8b95 9cbd a38a 483d 88de 703d 1341 c6bc
000003f0: 01b7 06bc 8218 07bd 1833 aabb 7239 0abd

network_body._body_endoder.seq_layers.2.bias f4 [256]
0.00017504283 -0.0010322935 -0.003770107 0.0015088243 -0.0034554135 0.0073165386 -0.00058731576 -0.0057228375
0.00019114719 0.001858178 0.014265085 0.0008735458 0.008777323 -3.2663836e-05 0.002730709 -0.0005539219
-0.0029453584 0.005752173 -0.00067838636 0.0043832413 0.0008170645 -0.0030621516 -0.0044315807 0.0032278115
0.002489003 0.0035963014 -0.002546571 -0.0039422493 0.0017939329 -0.004138727 -0.0027788468 0.0040667458
-0.0039548115 -0.005227424 -0.00020870352 -0.005574662 0.0056734546 0.00082199235 0.004444026 -0.00026252455
-0.007364925 0.0045351824 0.008984439 -0.0039763227 -0.0041138222 0.00043237951 0.0019530642 -0.00401259
0.0025138184 0.002307939 0.013553345 0.013537695 -0.002166903 0.0024730798 -0.001313795 0.0034599828
0.0020392435 -0.0038012874 -0.00041291618 0.0062342533 -0.0019192093 -0.00371695 -0.0027670788 -0.0032473314
-0.00047198005 0.003176043 0.0005466902 -0.0075432546 -0.0060393442 0.004942863 0.0029575725 -0.0028690216
0.0018422137 0.0011161898 -0.0030426371 0.005367878 0.011601145 -0.0029438406 0.0018263867 0.0024204322
-0.00014006953 -0.005266924 0.010001584 0.00456953 -0.001968752 0.00402367 0.008630746 0.00034706562
-0.0013067381 -0.001578593 0.0014145462 0.002121548 0.0045396327 0.0010143017 0.0040940065 0.007999134
-0.0011749531 -0.005834257 0.0055810697 0.005844591 -0.009566018 -0.005433113 0.0022301492 0.002090473
0.007595227 -0.0034691934 0.0030330794 0.002176 0.0024605314 0.003071233 0.0041204705 0.004014846
0.0021418363 -0.00037045445 0.0064056534 -0.0014024308 0.00058350526 0.007805601 0.0018629412 -0.0020103375
0.00188631 0.0036040153 0.0096472595 0.0018565403 0.007978449 0.010065313 0.013385239 -0.0024497353
0.002254463 -0.0018086798 -0.0053391587 0.0014314422 0.001026435 -0.004681163 4.1232342e-06 0.00044404482
0.005575881 0.0014846324 0.007954617 -0.0030845227 -0.00065028196 -0.0012981619 -0.002320442 -0.002406715
0.0053836587 -0.00057109544 0.00020421445 -0.005951194 -0.0020753376 0.004641472 -0.0073564965 0.004920686
0.0064174356 -0.0011595833 -0.0055461437 0.0055036987 0.0039119343 0.0027133224 0.009336202 0.0024066619
0.0053107217 -0.0043838597 0.005478248 -0.00027920236 0.0032603475 0.010612293 -0.004521523 0.0016694866
-0.003770972 0.0016529174 -0.0031480342 -0.0018434346 0.0036761297 -0.0027048604 0.006287541 -0.0006093865
-0.0051960642 0.0021898022 -0.0015620226 -0.0024622988 -0.0036339688 -0.0027102313 0.0032026933 -0.0076673212
-0.006637663 -0.0019129852 0.0008951735 -0.0032582837 0.0014129163 0.0010380531 -0.00021086977 -0.005984293
-0.008559602 -0.007065009 0.0056304126 0.00081387605 0.00061288563 0.0010765134 -0.0034172044 0.0017819611
-0.002555118 -0.0045422916 0.00023811715 -0.0048257406 0.0068981643 -0.0056369444 0.0006202756 -1.1288786e-05
0.0056039873 0.0029362873 -0.008529094 -0.0017534752 0.0046849716 -0.0044235596 -0.0012433841 -0.0031935656
0.000699097 0.0012166795 -0.0036882581 0.0021162387 0.0015626595 0.001595422 0.0021845978 -0.0019339976
0.00435318 0.0044463724 -0.004441706 0.0071969233 -0.00017299507 -0.0028421339 -0.008030866 0.0021279906
-0.0019952306 0.005151437 0.001693882 -0.0017586536 -0.005106074 -0.0023297637 -0.00073984975 0.008582248
0.0015595342 0.001482258 -0.0018866246 0.0064536585 -4.940118e-05 0.0003065184 -0.00030084813 0.005472875
-0.0015543445 0.002962458 0.007010753 0.008103558 -0.0056435335 -0.0024750833 0.014391977 0.001300043
00000000: b48b 3739 064e 87ba e613 77bb bec3 c53a
00000010: 3874 62bb 93bf ef3b 18f6 19ba a486 bbbb
00000020: af6e 4839 1b8e f33a 1ab8 693c abfe 643a
00000030: c3ce 0f3c 8700 09b8 b2f5 323b 1235 11ba
00000040: ea06 41bb b97c bc3b bdd5 31ba 4ba1 8f3b
00000050: 4530 563a 61ae 48bb cb36 91bb b189 533b
00000060: 8a1e 233b edaf 6b3b 5fe4 26bb fc2d 81bb
00000070: 6622 eb3a 299e 87bb 501d 36bb 5642 853b
00000080: 5d97 81bb d04a abbb 6dd7 5ab9 a7ab b6bb
00000090: 63e8 b93b f97a 573a 319f 913b 73a3 89b9
000000a0: 7855 f1bb de9b 943b 7833 133c d04b 82bb
000000b0: 3ecd 86bb ffb0 e239 f6fd ff3a 0b7c 83bb
000000c0: e0be 243b cb40 173b d90e 5e3c 35cd 5d3c
000000d0: 9a02 0ebb 6513 223b a533 acba e1c0 623b
000000e0: d4a4 053b 051f 79bb ac7c d8b9 b548 cc3b
000000f0: fa8d fbba 1398 73bb e157 35bb 2ed1 54bb
00000100: 1774 f7b9 2925 503b c24f 0f3a 682d f7bb
00000110: b1e5 c5bb bdf7 a13b d5d3 413b 3206 3cbb
00000120: 6f76 f13a 1d4d 923a fb66 47bb 06e5 af3b
00000130: bb12 3e3c 73ed 40bb 5e63 ef3a 1da0 1e3b
00000140: a1df 12b9 2996 acbb afdd 233c ffbb 953b
00000150: 2d06 01bb fed8 833b f967 0d3c 5cf6 b539
00000160: db46 abba cbe8 ceba 4b68 b93a ab09 0b3b
00000170: 33c1 943b 51f2 843a 0427 863b cd0e 033c
00000180: e200 9aba 4c2d bfbb 68e1 b63b fc83 bf3b
00000190: caba 1cbc 4108 b2bb b227 123b 5100 093b
000001a0: 62e1 f83b 685b 63bb a1c6 463b 399b 0e3b
000001b0: de40 213b bd46 493b 0305 873b f88e 833b
000001c0: 0d5e 0c3b 8e39 c2b9 84e6 d13b c5d1 b7ba
000001d0: 60f6 183a 21c6 ff3b ef2d f43a debf 03bb
000001e0: 103e f73a 5831 6c3b 8a0f 1e3c 2857 f33a
000001f0: 0ab8 023c fce8 243c c34d 5b3c bd8b 20bb
00000200: 9dbf 133b 3911 edba 1cf4 aebb 3b9f bb3a
00000210: 7289 863a 7164 99bb 505a 8a36 b0ce e839
00000220: e1b5 b63b ff97 c23a 1554 023c b425 4abb
00000230: af77 2aba 1627 aaba 8f12 18bb fab9 1dbb
00000240: 6769 b03b 91b5 15ba 6622 5639 3c02 c3bb
00000250: 6302 08bb 7d17 983b c40e f1bb b53d a13b
00000260: 5a49 d23b 29fd 97ba 6dbc b5bb 5f58 b43b
00000270: af2f 803b ffd1 313b dff6 183c 16b9 1d3b
00000280: 9005 ae3b 7ba6 8fbb e082 b33b e861 92b9
00000290: 8eab 553b 2fdf 2d3c 4929 94bb add2 da3a
000002a0: 6922 77bb b4a6 d83a 404f 4ebb 679f f1ba
000002b0: 39eb 703b 0744 31bb b707 ce3b 3cbf 1fba
000002c0: bf43 aabb c982 0f3b c8bc ccba 855e 21bb
000002d0: e127 6ebb 239e 31bb 47e4 513b 273e fbbb
000002e0: c180 d9bb 22bd faba 14aa 6a3a ee88 55bb
000002f0: 9b31 b93a 480f 883a ec1c 5db9 e317 c4bb
00000300: 933d 0cbc 9781 e7bb 537f b83b 4c5a 553a
00000310: 0faa 203a cc19 8d3a 2df3 5fbb b190 e93a
00000320: c473 27bb 81d7 94bb 16af 7939 3f21 9ebb
00000330: ff09 e23b 1eb6 b8bb fe99 223a f764 3db7
00000340: a7a1 b73b ba6e 403b 9dbd 0bbc ddd4 e5ba
00000350: 6484 993b 82f3 90bb 0cf9 a2ba 244b 51bb
00000360: 9b43 373a fd78 9f3a b4b6 71bb 98b0 0a3b
00000370: 27d2 cc3a 7b1d d13a 782b 0f3b 317e fdba
00000380: 1fa5 8e3b e0b2 913b bb8b 91bb 2bd4 eb3b
00000390: 0366 35b9 1843 3abb e593 03bc c275 0b3b
000003a0: 6ac2 02bb 63cd a83b 4005 de3a 9f82 e6ba
000003b0: da50 a7bb f3ae 18bb 7af2 41ba 8f9c 0c3c
000003c0: 4969 cc3a 5348 c23a 9e48 f7ba 3679 d33b
000003d0: 1d34 4fb8 34b4 a039 27bb 9db9 ce55 b33b
000003e0: 26bb cbba cc25 423b 75ba e53b c9c4 043c
000003f0: 64ed b8bb 0235 22bb 54cc 6b3c 3466 aa3a

action_model._continuous_distribution.log_sigma f4 [1, 6]
-0.005615783 -0.0031354483 -0.0011512822 -0.0025773346 0.020504996 0.009881897
00000000: 9a04 b8bb 187c 4dbb 9fe6 96ba 80e8 28bb
00000010: 18fa a73c aee7 213c

action_model._continuous_distribution.mu.weight f4 [6, 64]
0.062351413 0.052198075 -0.021110488 0.028976489 -0.003720307 0.008503748 0.06609557 -0.021627536
-0.028278502 0.026069455 -0.030802082 0.02990249 -0.024106966 0.003854244 0.017919328 -0.011179661
-0.06544839 0.02999372 -0.027941868 -0.060966518 0.0543365 0.0049460167 -0.06330369 0.014247958
0.0009239394 0.0574018 0.013681258 -0.025719948 0.048715197 0.041326646 -0.010093358 -0.012837414
0.034273278 0.03506006 -0.0063324803 0.025591198 0.035552 0.0474566 0.020385752 -0.006667533
0.009832937 0.006840118 -0.02073038 0.005301081 0.009207001 0.0055893916 0.02646653 0.019226348
-0.074598595 0.007938883 -0.038852703 0.0068003084 0.0042289845 0.037246615 -0.00061917934 0.007273979
-0.07657595 0.040664274 0.019949399 -0.032401837 0.013208766 0.0045569986 0.09176071 -0.05609768
-0.008792369 -0.05658624 -0.02146246 -0.02130544 0.020465672 0.012845964 -0.026725516 0.011677812
0.011495691 0.03327763 0.026859123 0.004164338 0.00084453286 0.040931232 0.036211547 -0.02445238
0.022417204 0.017555771 0.007009192 0.024872556 -0.017179778 0.022800678 -0.05002487 0.020276012
-0.0006936761 -0.015175932 0.043525428 0.0044000153 0.0085005 0.046149 -0.022193754 -0.042363815
0.024337001 -0.03330752 0.0028531814 -0.017383106 0.04919863 0.024264129 -0.0020933778 0.014438189
0.031527128 0.015647689 -0.005513823 -0.007854626 -0.042794254 0.026542507 0.019827103 -0.013707845
-0.02511536 -0.019841993 0.031278975 -0.011698203 0.0052800095 0.022708833 -0.012493348 -0.053696036
-0.03988234 0.061494187 0.004978349 -0.006263407 -0.0350475 -0.021532208 -0.050684754 0.02206647
0.01380651 -0.005617233 -0.0026975498 -0.044218298 -0.010879381 -0.028477715 -0.017537752 0.0011723738
0.036569905 -0.00651211 0.0076560266 -0.000894766 0.04535865 -0.01698269 0.03535236 -0.0043458682
-0.041424688 0.0012005835 -0.03511889 0.003223183 0.023418095 -0.031248104 -0.0118246265 0.028889338
0.029747019 -0.00085244526 0.010484385 0.00048691724 0.020683834 -0.007677837 -0.052618753 0.018977853
0.02828212 0.0032729656 -0.022412093 -0.0022215145 -0.022430815 -0.0005656343 0.039249845 -0.0025528267
-0.0039602714 -0.018464694 0.036983095 0.039267756 -0.051421925 0.00025566126 -0.009440439 0.03036798
-0.010871314 -0.010929674 0.0041698567 0.010045229 -0.026351316 0.016011495 -0.024563227 -0.0072068167
-0.033669297 0.018517857 0.024818579 -0.0017088732 0.00082177954 -0.0210659 -0.03117257 -0.033491958
0.036717027 0.02061501 0.01002225 0.051703006 0.025597781 0.04056566 0.025468681 0.043130577
-0.02254869 -0.04018326 -0.031392492 -0.029236404 0.01656834 -0.0012741857 0.010115446 -0.009278748
-0.019686442 -0.012489709 0.056976262 0.0036717495 -0.018922916 0.0077829044 -0.0124540245 -0.049822815
-0.020059798 -0.03762231 0.023360884 -0.03599817 0.020505365 -0.010755641 0.008099009 -0.028887885
0.027561028 -0.0056353346 -0.02819718 -0.036946993 -0.019461319 -0.028079804 -0.042419698 -0.043222945
-0.0055391514 -0.010864815 -0.021797389 0.03189417 -0.028843427 -0.01713159 -0.027959052 -0.025233578
0.043704435 -0.033585697 0.017991086 0.008242976 -0.015716197 0.021865156 -0.03691154 0.0018746165
0.01873572 0.045052834 -0.037248064 -0.033233065 0.01954175 0.013858498 -0.021808328 0.021632442
00000000: 3264 7f3d a6cd 553d e7ef acbc 1a60 ed3c
00000010: 65d0 73bb 4e53 0b3c 1d5d 873d 3b2c b1bc
00000020: 51a8 e7bc 9c8f d53c a654 fcbc 11f6 f43c
00000030: f97b c5bc 7c97 7c3b 8ecb 923c e62a 37bc
00000040: ce09 86bd 64b5 f53c 58e6 e4bc 07b8 79bd
00000050: f38f 5e3d 3212 a23b 5da5 81bd 4470 693c
00000060: 8634 723a 261e 6b3d 5b27 603c a4b2 d2bc
00000070: 9689 473d 2146 293d 9d5e 25bc 0454 52bc
00000080: 2362 0c3d 239b 0f3d b280 cfbb a2a4 d13c
00000090: f99e 113d da61 423d 0500 a73c 527b dabb
000000a0: 541a 213c 1223 e03b c2d2 a9bc b1b4 ad3b
000000b0: f6d8 163c 3727 b73b 56d0 d83c 9380 9d3c
000000c0: 26c7 98bd 1712 023c 0324 1fbd 1fd5 de3b
000000d0: 4b93 8a3b e88f 183d 6c50 22ba 8f5a ee3b
000000e0: dad3 9cbd 958f 263d ec6c a33c cab7 04bd
000000f0: 9469 583c e052 953b 0aed bb3d aec6 65bd
00000100: de0d 10bc f9c6 67bd 0ad2 afbc bf88 aebc
00000110: a0a7 a73c e177 523c 78ef dabc 4b54 3f3c
00000120: 6c58 3c3c 204e 083d aa07 dc3c 0075 883b
00000130: a463 5d3a 82a7 273d 8f52 143d 5c50 c8bc
00000140: 49a4 b73c 1fd1 8f3c 5dad e53b 88c1 cb3c
00000150: 9bbc 8cbc 7dc8 ba3c e1e6 4cbd e119 a63c
00000160: d1d7 35ba 79a4 78bc b847 323d 012e 903b
00000170: ae45 0b3c bc06 3d3d adcf b5bc ae85 2dbd
00000180: 645e c73c 776d 08bd 71fc 3a3b 0467 8ebc
00000190: 8184 493d 91c5 c63c 0d31 09bb 278e 6c3c
000001a0: 9722 013d 952f 803c 4dad b4bb b0b0 00bc
000001b0: 0749 2fbd ac6f d93c 736c a23c de96 60bc
000001c0: babe cdbc ad8b a2bc 621e 003d d2a9 3fbc
000001d0: ee03 ad3b e007 ba3c e6b0 4cbc 60f0 5bbd
000001e0: aa5b 23bd 54e1 7b3d 6b21 a33b 443d cdbb
000001f0: f88d 0fbd 5064 b0bc d19a 4fbd bec4 b43c
00000200: b334 623c c410 b8bb 60c9 30bb 3f1e 35bd
00000210: 6e3f 32bc 194a e9bc 55ab 8fbc 56aa 993a
00000220: 53ca 153d 8a63 d5bb 68df fa3b bb8e 6aba
00000230: fec9 393d 481f 8bbc a3cd 103d c967 8ebb
00000240: efac 29bd e65c 9d3a d3d8 0fbd 0a3c 533b
00000250: 4ed7 bf3c 06fc ffbc 14bc 41bc 55a9 ec3c
00000260: 05b0 f33c a276 5fba b3c6 2b3c ed48 ff39
00000270: 2571 a93c 5d96 fbbb c386 57bd 7177 9b3c
00000280: e8af e73c 407f 563b 9199 b7bc d496 11bb
00000290: d4c0 b7bc 1347 14ba 72c4 203d 534d 27bb
000002a0: 2ac5 81bb 4543 97bc 967b 173d 3ad7 203d
000002b0: cc9f 52bd 460a 8639 12ac 1abc 45c6 f83c
000002c0: 991d 32bc 6012 33bc 4ba3 883b bf94 243c
000002d0: b7de d7bc 8a2a 833c d238 c9bc 2927 ecbb
000002e0: d1e8 09bd c3b2 973c 5550 cb3c 45fc dfba
000002f0: b16c 573a 6592 acbc 9e5d ffbc dd2e 09bd
00000300: 9864 163d cfe0 a83c 5d34 243c 88c6 533d
00000310: 70b2 d13c 2d28 263d b2a3 d03c b0a9 303d
00000320: 08b8 b8bc 3497 24bd 6a95 00bd 2f81 efbc
00000330: 54ba 873c 9402 a7ba 41bb 253c e405 18bc
00000340: 7645 a1bc a3a1 4cbc f15f 693d bca1 703b
00000350: 3b04 9bbc bc07 ff3b f70b 4cbc 0213 4cbd
00000360: 7254 a4bc da19 1abd 535f bf3c d172 13bd
00000370: defa a73c 6e38 30bc b5b1 043c 49a6 ecbc
00000380: aac7 e13c 9da8 b8bb c6fd e6bc bb55 17bd
00000390: 586d 9fbc 9e07 e6bc 47c0 2dbd 8b0a 31bd
000003a0: c581 b5bb 5602 32bc 7090 b2bc 76a3 023d
000003b0: 0d49 ecbc 8c57 8cbc 620a e5bc a6b6 cebc
000003c0: 6c03 333d 2891 09bd 0b62 933c 8c0d 073c
000003d0: 41bf 80bc 8e1e b33c 8e30 17bd b1b5 f53a
000003e0: a77b 993c 5289 383d 6d91 18bd 651f 08bd
000003f0: 0516 a03c c10e 633c 61a7 b2bc 8536 b13c

action_model._continuous_distribution.mu.bias f4 [6]
0.020252123 -0.010785158 0.003886816 -0.005404942 -0.004424437 0.003597696
00000000: c8e7 a53c 3bb4 30bc f4b9 7e3b f11b b1bb
00000010: defa 90bb 53c7 6b3b

onnx::LSTM_101 f4 [1, 256, 256]
-0.023021648 -0.13306168 0.068084545 0.09595471 0.114976645 0.11204107 -0.0624493 -0.03085689
-0.117745526 0.13209708 0.15704718 0.040161204 -0.045081522 -0.099732615 -0.1312972 -0.06890249
-0.06480101 -0.061496485 -0.09068636 0.063048884 -0.14012177 0.007577717 0.03325538 0.030771064
-0.077011704 -0.039088443 -0.051460918 -0.0132126445 -0.048872035 -0.10620799 0.04536094 -0.005524279
-0.059770968 -0.06251465 -0.024012571 -0.12278661 -0.07288662 -0.100527786 0.08178591 -0.122958094
-0.053109165 0.020891594 -0.046467774 -0.03157275 -0.06556963 -0.08382539 -0.13613342 0.049533434
0.093784384 0.1314996 0.05346313 0.0656757 0.00035614174 0.060298257 0.059367076 -0.08849691
-0.0029151938 -0.0731338 -0.00043815325 -0.086573936 0.03206893 0.019633425 0.016341893 -0.0967803
0.017441183 0.072245054 0.10009709 -0.07058184 -0.0076514287 0.061594084 0.031850934 0.06434846
0.019835008 -0.084621586 0.11142123 0.08444155 0.033655338 0.0677334 0.12548025 -0.007840828
0.08121444 -0.09813053 -0.01742325 -0.086494766 -0.029740445 0.032043945 0.060206074 -0.011385122
-0.124842286 0.02974967 0.063775115 0.05646205 0.10973047 -0.04462707 0.0774023 -0.105438516
-0.04294917 -0.028268602 0.016781216 0.06320763 0.09890653 -0.059828684 0.019459063 -0.078698486
-0.040609404 -0.022566164 -0.08373295 -0.029058691 0.028032815 -0.09820905 0.10457361 -0.094138205
0.096679434 0.012008835 0.046708226 -0.12419951 0.08992176 0.08760997 0.023134759 -0.05715141
0.12553391 -0.022899482 -0.013765486 0.047847766 0.003016895 0.085680194 -0.070306055 -0.11555805
0.048460435 -0.0131150745 0.075390585 0.030641973 -0.1293274 0.103583574 -0.06447781 -0.11551476
-0.10044048 -0.12076161 0.05537477 0.026919397 -0.09671641 0.036701042 -0.08975847 -0.0047014146
0.08988793 -0.13336125 -0.07113277 -0.06483449 -0.10113744 -0.11828801 0.07589426 0.10762541
-0.1048603 0.050145492 0.027596667 0.0787901 0.0670011 -0.011284928 0.12463496 -0.0012473247
-0.076811396 -0.04588931 0.13730608 0.07313829 -0.042183105 0.11750674 -0.1387925 0.119693145
-0.06587307 -0.05657966 0.11425802 -0.1255082 0.007123224 -0.057675637 -0.005391014 0.11935416
-0.056133058 0.065658316 -0.057403557 0.06506983 -0.030190866 -0.11818984 0.06879338 -0.119785935
-0.087508254 -0.067960896 -0.106075644 -0.030060811 0.048083764 -0.042770095 0.12623337 0.057348333
-0.060173977 -0.06956145 0.020639516 -0.062402003 0.08999676 -0.017503895 -0.079588525 -0.08867216
-0.128567 -0.10354065 -0.020535033 -0.093812965 -0.03175729 -0.039223593 0.00029364903 -0.14062947
0.1458629 -0.047638655 0.052784152 -0.017770005 0.07880491 0.039446417 0.046142984 -0.096710935
0.03966526 -0.026788205 -0.11632719 0.044346966 0.043115668 0.027667712 0.072153084 -0.003376585
0.16132568 -0.056210525 -0.12604544 0.07292397 -0.006615473 -0.11945116 -0.05968786 -0.10611268
-0.12763235 0.029010165 0.06164844 0.055071164 0.12509511 0.058922987 0.028364856 0.14782569
0.08302222 -0.08462702 -0.024260173 -0.059763204 0.050164208 -0.0056766896 -0.12803094 -0.08868564
0.065353885 -0.11339003 0.10369822 0.10575145 0.07950938 0.041557077 0.09032732 -0.020770364
00000000: e597 bcbc 5241 08be e96f 8b3d e783 c43d
00000010: e078 eb3d ca75 e53d d6ca 7fbd 97c7 fcbc
00000020: 9124 f1bd 7544 073e fad0 203e 1380 243d
00000030: 67a7 38bd 9d40 ccbd c672 06be c01c 8dbd
00000040: 64b6 84bd bde3 7bbd c5b9 b9bd c61f 813d
00000050: 157c 0fbe 7f4e f83b cb36 083d 9913 fc3c
00000060: 50b8 9dbd 341b 20bd afc8 52bd d979 58bc
00000070: 0b2e 48bd 9383 d9bd 65cc 393d 0305 b5bb
00000080: 67d2 74bd ae07 80bd 03b6 c4bc 8c77 fbbd
00000090: 9545 95bd 83e1 cdbd 5f7f a73d 74d1 fbbd
000000a0: ff88 59bd d924 ab3c fe54 3ebd 6e52 01bd
000000b0: 5f49 86bd a5ac abbd 8f66 0bbe 92e3 4a3d
000000c0: 0712 c03d d5a7 063e 28fc 5a3d fb80 863d
000000d0: 89b8 ba39 4efb 763d e42a 733d de3d b5bd
000000e0: d60c 3fbb 2cc7 95bd efb7 e5b9 ad4d b1bd
000000f0: b65a 033d 47d6 a03c 6fdf 853c c034 c6bd
00000100: d0e0 8e3c 37f5 933d b4ff cc3d 368d 90bd
00000110: d6b8 fabb 144a 7c3d 2076 023d 20c9 833d
00000120: 077d a23c 154e adbd d030 e43d b1ef ac3d
00000130: 2eda 093d cfb7 8a3d e57d 003e d176 00bc
00000140: c253 a63d a9f8 c8bd 34bb 8ebc 2b24 b1bd
00000150: 3ca2 f3bc 8340 033d a59a 763d aa88 3abc
00000160: 50ad ffbd 94b5 f33c 879c 823d c044 673d
00000170: 5eba e03d e0ca 36bd 1985 9e3d 26f0 d7bd
00000180: 78eb 2fbd 8e93 e7bc c378 893c 0073 813d
00000190: 828f ca3d ec0e 75bd 9d68 9f3c ac2c a1bd
000001a0: 0c56 26bd addc b8bc 2e7c abbd 7e0c eebc
000001b0: 13a5 e53c d421 c9bd b02a d63d 88cb c0bd
000001c0: deff c53d b4c0 443c 2051 3f3d 505c febd
000001d0: e628 b83d db6c b33d 1b85 bd3c 9917 6abd
000001e0: f68b 003e b297 bbbc a288 61bc 05fc 433d
000001f0: 19b7 453b 1979 af3d 9ffc 8fbd b3a9 ecbd
00000200: 737e 463d 9ce0 56bc 6166 9a3d e004 fb3c
00000210: 676e 04be a023 d43d f10c 84bd 0193 ecbd
00000220: bdb3 cdbd dd51 f7bd a8d0 623d 1186 dc3c
00000230: 4113 c6bd d553 163d 4ad3 b7bd 530e 9abb
00000240: 2a17 b83d da8f 08be 0fae 91bd f2c7 84bd
00000250: 2521 cfbd fc40 f2bd 736e 9b3d b66a dc3d
00000260: ffc0 d6bd 5c65 4d3d 6812 e23c b45c a13d
00000270: df37 893d 6be4 38bc 9d40 ff3d 467d a3ba
00000280: 4b4f 9dbd 6ef6 3bbd f799 0c3e 87c9 953d
00000290: 31c8 2cbd 60a7 f03d 9f1f 0ebe ae21 f53d
000002a0: 76e8 86bd 13c0 67bd 1c00 ea3d 3985 00be
000002b0: ef69 e93b 4a3d 6cbd 1aa7 b0bb f46f f43d
000002c0: c7eb 65bd de77 863d fe1f 6bbd 5543 853d
000002d0: d652 f7bc 840d f2bd 8be3 8c3d 5452 f5bd
000002e0: 8737 b3bd 152f 8bbd 303e d9bd 1742 f6bc
000002f0: 7bf3 443d b22f 2fbd 5243 013e 16e6 6a3d
00000300: fd78 76bd 3c76 8ebd 3414 a93c 3e99 7fbd
00000310: 3950 b83d 5464 8fbc 4fff a2bd c099 b5bd
00000320: 11a7 03be 1f0d d4bd 1639 a8bc 0321 c0bd
00000330: ef13 02bd eba8 20bd e8f4 9939 2c01 10be
00000340: 165d 153e c020 43bd 3234 583d 6792 91bc
00000350: 7864 a13d 9192 213d 6d00 3d3d 6210 c6bd
00000360: 0a78 223d f072 dbbc f33c eebd 2aa5 353d
00000370: 0e9a 303d 66a7 e23c ffc4 933d b249 5dbb
00000380: 8f32 253e 023d 66bd 0e12 01be 2a59 953d
00000390: 9cc6 d8bb cfa2 f4bd 427b 74bd 9b51 d9bd
000003a0: 0eb2 02be baa6 ed3c 1383 7c3d 4d92 613d
000003b0: ef18 003e 3b59 713d 6a5d e83c 9e5f 173e
000003c0: 8e07 aa3d ee50 adbd 45bd c6bc 43ca 74bd
000003d0: fc78 4d3d 8603 babb 8b1a 03be d1a0 b5bd
000003e0: 42d8 853d 0839 e8bd bb5f d43d 3794 d83d
000003f0: d0d5 a23d c137 2a3d 88fd b83d 9c26 aabc

onnx::LSTM_102 f4 [1, 256, 64]
-0.17104094 -0.014050293 0.19022614 -0.19655454 0.009822389 -0.15473238 -0.16434509 -0.03265898
0.18026625 -0.0036070158 0.013290426 0.022676086 -0.1308324 0.055560842 0.11438224 0.21932179
0.16410919 -0.20201966 -0.029736347 0.091666505 0.18722418 0.19880703 0.15970606 -0.058742624
0.18216163 0.21721675 0.075355165 -0.12737155 0.20681427 0.08902067 0.04320214 0.021355238
0.18648735 -0.16542743 0.087399594 -0.030280374 0.14862809 -0.19225316 -0.09785818 -0.16727208
-0.048317123 -0.053231847 0.05364253 -0.13178945 -0.11853977 0.03231458 0.11843753 -0.16100112
-0.08008238 0.13634917 0.010320498 -0.13024828 -0.082139716 -0.08851771 -0.039881743 -0.13372943
-0.21913281 -0.049154535 0.15521914 0.123464204 -0.015921721 -0.11944753 0.03887399 -0.03530476
0.0819249 -0.16640103 -0.10096541 -0.13833992 0.0593197 -0.21255529 -0.0070769046 0.0034701375
0.1263121 -0.0051609557 0.17378202 -0.13913117 0.20826602 0.110836424 -0.12044829 -0.06762709
0.05908689 -0.07930362 0.16632193 0.19560121 -0.08133629 0.063240014 0.110466726 -0.12830165
0.022821937 0.02979329 0.21739724 -0.007378082 0.18911 0.20315593 0.09162757 -0.19328837
-0.058323327 -0.09532985 0.019718636 0.036740497 0.04909531 -0.20830795 -0.050011136 -0.14057557
0.0051950514 0.21294035 -0.015400689 -0.050551612 -0.19841342 0.11198292 -0.13310091 -0.13990985
-0.09528944 -0.07982464 -0.092562035 0.16153342 0.109868884 0.13547029 -0.16384558 0.07198955
-0.02187353 -0.0022537983 -0.1752232 0.1707375 0.025517175 -0.18034203 0.025536591 0.19963972
-0.10652857 -0.024862142 -0.175115 0.029132036 -0.07475268 -0.11242341 0.1302339 -0.19592404
-0.1158114 -0.07270155 -0.013578776 0.19482598 0.16603138 0.023796814 -0.09010024 0.05966309
-0.18826665 -0.093169615 0.0131188985 0.20154224 0.17266797 0.14504355 -0.19073649 0.02916587
0.17686558 -0.2023398 0.0127092535 -0.09388542 0.11397243 0.18676378 -0.045641176 0.021939857
0.08205461 0.11148422 0.1418662 -0.113415964 -0.09186833 0.10234899 -0.039918635 -0.089008026
-0.03987218 -0.11146207 -0.11900376 0.09796479 0.11845791 -0.085123084 -0.03394154 -0.12311248
0.11738658 0.118427955 -0.19557217 0.18450707 0.10822337 0.099931836 -0.12273144 0.2069052
-0.0039986926 -0.10812328 -0.09934104 0.070628695 -0.17306761 -0.19687337 -0.18688397 -0.16031684
0.19432655 -0.11778824 0.20269457 -0.011394959 -0.19633856 -0.084568344 -0.1198908 0.08762136
0.12732786 0.09126555 0.14681304 0.15531029 0.1959853 0.006496185 -0.056625493 0.045381185
-0.07286495 0.18898936 0.1655883 -0.19046433 0.022628287 0.04422129 -0.025928881 0.14219837
-0.023577135 0.1443188 -0.07143249 0.0058254525 -0.15931797 0.11202032 0.042911973 -0.18042994
0.1805081 -0.04096918 -0.1815462 0.14497447 0.13358435 0.017715162 0.19261749 -0.042747248
-0.11776038 0.0075252857 0.20224556 0.06488057 -0.03480507 0.17113891 -0.1920409 0.18736616
-0.025445543 -0.05933025 -0.13930796 -0.15347315 0.016019685 0.17576033 0.19374765 -0.18921253
0.19515768 -0.028663853 -0.06897546 0.16152576 -0.10659907 0.003513087 -0.10890586 0.13810189
00000000: 5b25 2fbe 3333 66bc a4ca 423e 9845 49be
00000010: 16ee 203c 2a72 1ebe 144a 28be 6cc5 05bd
00000020: b797 383e af63 6cbb 16c0 593c 33c3 b93c
00000030: eef8 05be c493 633d 3c41 ea3d e495 603e
00000040: 3d0c 283e 3ede 4ebe a499 f3bc a6bb bb3d
00000050: b2b7 3f3e 1294 4b3e fc89 233e 1b9c 70bd
00000060: 9488 3a3e 116e 5e3e cf53 9a3d b06d 02be
00000070: 1fc7 533e 7850 b63d baf4 303d 2ef1 ae3c
00000080: 8af6 3e3e cf65 29be 8ffe b23d 8c0e f8bc
00000090: f631 183e 03de 44be df69 c8bd 5f49 2bbe
000000a0: 2de8 45bd a309 5abd 45b8 5b3d d0f3 06be
000000b0: fbc4 f2bd 4b5c 043d 608f f23d 7add 24be
000000c0: 3b02 a4bd 1e9f 0b3e 4e17 293c ce5f 05be
000000d0: de38 a8bd c648 b5bd 0a5b 23bd 5ef0 08be
000000e0: 5a64 60be 4456 49bd c4f1 1e3e cdda fc3d
000000f0: 456e 82bc e8a0 f4bd 553a 1f3d b99b 10bd
00000100: 3ec8 a73d 0865 2abe f4c6 cebd fba8 0dbe
00000110: 37f9 723d 18a8 59be 61e5 e7bb 3f6b 633b
00000120: f657 013e 3c1d a9bb eaf3 313e 6778 0ebe
00000130: b043 553e 35fe e23d 98ad f6bd 1280 8abd
00000140: 1805 723d f069 a2bd 4c50 2a3e af4b 483e
00000150: a493 a6bd fb83 813d 613c e23d 8261 03be
00000160: 12f5 ba3c 0f11 f43c 629d 5e3e d6c3 f1bb
00000170: 0da6 413e 1c08 503e 3ca7 bb3d 63ed 45be
00000180: 71e4 6ebd 4c3c c3bd fa88 a13c 347d 163d
00000190: 2a18 493d ae4e 55be 7ad8 4cbd 0bf3 0fbe
000001a0: 403b aa3b 090d 5a3e 2c53 7cbc 350f 4fbd
000001b0: e32c 4bbe 4d57 e53d 9b4b 08be 8744 0fbe
000001c0: 1c27 c3bd 1a7b a3bd 2a91 bdbd 0469 253e
000001d0: f002 e13d b9b8 0a3e 23c7 27be 426f 933d
000001e0: 1e30 b3bc 76b4 13bb b66d 33be d0d5 2e3e
000001f0: 6509 d13c 95ab 38be 1d32 d13c 5b6e 4c3e
00000200: a72b dabd b1ab cbbc 5951 33be 4fa6 ee3c
00000210: ef17 99bd 3f3e e6bd 095c 053e 50a0 48be
00000220: 872e edbd 8de4 94bd 8479 5ebc 7680 473e
00000230: 2104 2a3e 89f1 c23c 7a86 b8bd 4961 743d
00000240: f9c8 40be b6cf bebd a6f0 563c 1761 4e3e
00000250: dfcf 303e 4c86 143e 6d50 43be 43ed ee3c
00000260: 401c 353e 2a32 4fbe 793a 503c 0047 c0bd
00000270: 616a e93d 013f 3f3e 3ef2 3abd 37bb b33c
00000280: 3f0c a83d d751 e43d 6045 113e a146 e8bd
00000290: 7725 bcbd 599c d13d b981 23bd d749 b6bd
000002a0: 0351 23bd 3a46 e4bd 3eb8 f3bd c4a1 c83d
000002b0: 109a f23d 0355 aebd 4906 0bbd 6522 fcbd
000002c0: 6068 f03d 5b8a f23d 1244 48be 6cef 3c3e
000002d0: 37a4 dd3d 10a9 cc3d 9f5a fbbd f5de 533e
000002e0: 7707 83bb bd6f ddbd 5173 cbbd c7a5 903d
000002f0: a338 31be 2c99 49be 835e 3fbe 192a 24be
00000300: 8afd 463e f63a f1bd 2a8f 4f3e ecb1 3abc
00000310: fa0c 49be 2b32 adbd 4f89 f5bd d472 b33d
00000320: 3c62 023e 6fe9 ba3d 2856 163e a909 1f3e
00000330: 5fb0 483e f3dd d43b 22f0 67bd 9fe1 393d
00000340: 383a 95bd 6d86 413e fb8f 293e 1509 43be
00000350: f55e b93c 6221 353d ce68 d4bc 739c 113e
00000360: d624 c1bc 4fc8 133e 334b 92bd 70e3 be3b
00000370: 4024 23be e96a e53d 77c4 2f3d a0c2 38be
00000380: 1ed7 383e 4dcf 27bd 3fe7 39be 3074 143e
00000390: 56ca 083e 631f 913c 853d 453e bd17 2fbd
000003a0: 5b2c f1bd ac96 f63b 7619 4f3e 1be0 843d
000003b0: c38f 0ebd 0a3f 2f3e 5fa6 44be eadc 3f3e
000003c0: 2c73 d0bc 4704 73bd bfa6 0ebe 1128 1dbe
000003d0: b73b 833c 84fa 333e c965 463e eec0 41be
000003e0: 6ad7 473e 75d0 eabc 0243 8dbd 0267 253e
000003f0: 9d50 dabd d23b 663b 090a dfbd 956a 0d3e
