code/selfparking/mla/results/run_05/Car/Car-31499932.onnx (onnx, 710320 bytes, 10 tensors)

network_body._body_endoder.seq_layers.0.weight f4 [256, 109]
0	0xbcbff7b3	-0.023433542
1	0xbc225f32	-0.009910392
2	0x3dcdbede	0.10046171
3	0x3e30ef84	0.17278868
4	0x3cdadba4	0.026716061
5	0x3d87404b	0.0660406
6	0x3e49d442	0.19709876
7	0x3d664abd	0.05622362
8	0xbddecceb	-0.10878929
9	0xbcd49fc4	-0.025955088
10	0xbe01babb	-0.12668888
11	0x3e14bae5	0.1452442
12	0x3c2c9eb6	0.0105358865
13	0xbdcae715	-0.09907357
14	0x3cac699d	0.021046454
15	0x3c68487b	0.014177437
16	0xbd9a3186	-0.07528977
17	0x3d41f246	0.04735019
18	0xbdaed83f	-0.085373394
19	0x3d19b895	0.037529547
20	0xbdd23064	-0.10263136
21	0x3e3f45cc	0.18678969
22	0xbc9ef2e0	-0.019402921
23	0xbe07d308	-0.13264096
24	0xbe0c66ec	-0.13711137
25	0xbe5c2f32	-0.21502379
26	0x3d1b34de	0.037892215
27	0x3e03c46a	0.12867895
28	0x3ca1f849	0.019771712
29	0x3e7f3397	0.24922024
30	0xbd6e7a8f	-0.05822235
31	0x3de5441b	0.11194631
32	0x3da0f68c	0.07859525
33	0x3db8aa73	0.090168856
34	0xbd896f74	-0.06710711
35	0x3dd8b3aa	0.10581143
36	0x3ca2852f	0.019838898
37	0xbd537ac5	-0.051630754
38	0xbcbb1b5f	-0.0228402
39	0xbc4e0961	-0.012575478
40	0xbc8eec9b	-0.017446807
41	0xbd1f930c	-0.038958594
42	0xbd5b73f3	-0.053577375
43	0x3ce2dda5	0.027693579
44	0xbb9b0bf6	-0.0047316505
45	0x3da7fbc3	0.082023166
46	0xbe4017f9	-0.18759145
47	0xbdb7a1d9	-0.08966417
48	0x3d49a0de	0.04922568
49	0xbd4564c8	-0.048191816
50	0xbe02487c	-0.12722963
51	0xbddf7105	-0.10910229
52	0x3e011545	0.1260577
53	0x3b8df691	0.0043323715
54	0xbe25e15e	-0.16199252
55	0xbcd923cb	-0.026506325
56	0xbaf56a0f	-0.0018723625
57	0x3d5fa780	0.0546031
58	0xbde3d667	-0.111248784
59	0x3d8d4e39	0.068996854
60	0x3d39012b	0.04516713
61	0xbd081e99	-0.033232305
62	0x3e40da45	0.18833263
63	0x3b157fdc	0.0022811806
64	0xbe4a210b	-0.19739167
65	0x3e86a0ec	0.2629465
66	0xbcbb84af	-0.022890417
67	0x3daf42ed	0.08557687
68	0x3e13330e	0.14374945
69	0xbd550b67	-0.052012827
70	0x3de700d9	0.112794586
71	0x3d7a55b8	0.061116904
72	0xbd1a23d5	-0.03763183
73	0x3e00c255	0.12574132
74	0xbae8f9e0	-0.0017774664
75	0x3dc56f0d	0.09640322
76	0x3d4978e7	0.049187567
77	0xbc019abf	-0.0079104295
78	0xbcb7ba59	-0.022427725
79	0xbd0739cb	-0.0330141
80	0x3d9630ec	0.0733355
81	0x3cd3559d	0.02579766
82	0xbd01f7ba	-0.03173039
83	0x3de1e698	0.110303104
84	0x3d01230a	0.031527556
85	0x3d489bba	0.048976637
86	0xbe04cfc5	-0.12969883
87	0xbc59e4fa	-0.013299221
88	0xbcad84c0	-0.021181464
89	0xbeb6da60	-0.35713482
90	0x3e1eea1f	0.15518998
91	0xbdc8abbc	-0.09798381
92	0x3a202110	0.00061084423
93	0x3e93474d	0.28765336
94	0x3bb7f989	0.0056144637
95	0x3e09010c	0.13379306
96	0xbd0e767a	-0.034780957
97	0x3dd4015c	0.10351822
98	0x3e200ca1	0.15629818
99	0x3e8a9c23	0.27072248
100	0xbd09da55	-0.033655483
101	0x3e37c4dd	0.17946191
102	0x3cf81efd	0.030288214
103	0xbc2421b9	-0.010017806
104	0xbd7332c2	-0.05937458
105	0xbcd49695	-0.02595071
106	0x3d28411a	0.04107771
107	0x3e07d806	0.13266
108	0x3ddd4d16	0.108057186
109	0xbd6a1d98	-0.05715713
110	0xbd1e12e6	-0.03859224
111	0xbd527f2e	-0.05139082
112	0xbe42f404	-0.19038397
113	0x3cbe0401	0.023195269
114	0x3d8d4f55	0.06899897
115	0xbdb99711	-0.09062017
116	0x3ce892fb	0.028390398
117	0x3d692fcd	0.056930352
118	0x3d2446c8	0.040106565
119	0xbe40dc6e	-0.18834087
120	0xbdbeac21	-0.09310175
121	0x3e28a21b	0.16468088
122	0x3e6c8e6b	0.23101203
123	0xbe3cc7bb	-0.18435566
124	0xbdf34293	-0.118779324
125	0xbd576453	-0.05258591
126	0xbcc090d6	-0.023506563
127	0xbe08824d	-0.13330956
128	0xbea277f9	-0.31732157
129	0xbd3d7b20	-0.04626
130	0xbc66337b	-0.01405036
131	0xbd9f3c12	-0.077751294
132	0xbe137d52	-0.14403275
133	0xbe2dfa4c	-0.16990012
134	0x3e16a031	0.14709546
135	0xbde0f40a	-0.10984047
136	0xbe0019d6	-0.12509856
137	0xbe29d5a8	-0.1658541
138	0x3d7307f3	0.059333753
139	0xbe80e843	-0.25177202
140	0xbd39abd3	-0.04532988
141	0xbe23ee7f	-0.16008948
142	0x3a843ef9	0.0010089568
143	0xbe90fcb0	-0.28317785
144	0xbe7478b1	-0.23874165
145	0xbe2e52a3	-0.17023711
146	0x3e5ed59f	0.21761177
147	0x3c93ce82	0.018042807
148	0xbd2b2b47	-0.04178932
149	0x3d9daa95	0.076985516
150	0xbe3a8982	-0.18216518
151	0x3e14412d	0.14477988
152	0x3d9374ff	0.072000496
153	0xbccafb63	-0.024778074
154	0x3e8b5859	0.2721584
155	0xbe5d02b9	-0.2158307
156	0xbdc426f5	-0.09577743
157	0x3df155bd	0.117839314
158	0xbdcc7fd4	-0.09985319
159	0x3c78a0b4	0.015175033
160	0xbe7e6bac	-0.24845761
161	0xbe49815b	-0.19678251
162	0xbd95ac57	-0.07308262
163	0xbd6392bf	-0.05555987
164	0xbd9f0f53	-0.07766595
165	0x3e829949	0.25507572
166	0xbe7d5398	-0.2473892
167	0xbb875b30	-0.0041307434
168	0xbdc86564	-0.09784964
169	0x3da0a8d7	0.07844704
170	0xbe98b3aa	-0.29824573
171	0xbdce3b90	-0.100699544
172	0x3dd08249	0.101811
173	0x3e1c37b2	0.15255621
174	0xbe631037	-0.22174154
175	0x3df5173d	0.11967323
176	0x3d936148	0.07196289
177	0xbe21c51f	-0.15797852
178	0xbe9b0207	-0.30274984
179	0x3e3463ac	0.17616147
180	0x3e6b28aa	0.22964731
181	0x3d0c05d0	0.03418523
182	0xbe4217f5	-0.18954451
183	0xbe47dff1	-0.1951902
184	0xbdaeac48	-0.08528954
185	0x3d74e340	0.059787035
186	0xbce0bf36	-0.027434926
187	0xbe13223c	-0.14368528
188	0xbe15ec8f	-0.14641021
189	0x3d60b60e	0.05486112
190	0x3d078e5e	0.033094756
191	0xbdd5fba2	-0.10448386
192	0xbe497bff	-0.19676207
193	0xbce4a3c5	-0.027910123
194	0x3c198b2c	0.00937156
195	0xbd83fa69	-0.06444246
196	0x3d227aab	0.039667767
197	0x3e48ab58	0.19596612
198	0xbbe14a9d	-0.0068753497
199	0x3c40340d	0.01173116
200	0x3b4f967b	0.0031675387
201	0x3d4931ff	0.049119946
202	0x3e6f8004	0.23388678
203	0xbce3b043	-0.02779401
204	0xbdd4ca68	-0.103901684
205	0x3c903a54	0.017605938
206	0xbe1bc681	-0.15212442
207	0xbda39c08	-0.07988745
208	0xbe1788d6	-0.14798293
209	0xbddc0118	-0.10742396
210	0x3c05e500	0.008172274
211	0xbe820e9e	-0.25401777
212	0x3db8092b	0.08986124
213	0xbe368fb4	-0.17828256
214	0xbde63e88	-0.11242396
215	0xbdbec252	-0.093144074
216	0xbd1d58fd	-0.038414944
217	0xbdc03e7b	-0.09386917
218	0xbc4ec5a4	-0.012620363
219	0x3e0a388b	0.13498132
220	0x3e122406	0.14271554
221	0x3e49801d	0.19677778
222	0xbd31ad15	-0.043377955
223	0xbd74ef38	-0.05979845
224	0xbe2b18cc	-0.16708678
225	0xbe20e7aa	-0.15713373
226	0x3d699e87	0.05703595
227	0x3de31548	0.110880435
228	0x3c7c5465	0.015400981
229	0xbde7060a	-0.11280449
230	0xbe4a6e7c	-0.19768709
231	0xbd855e24	-0.065120965
232	0xbcdfd19f	-0.027321635
233	0x3ce2270f	0.027606515
234	0x3e189b56	0.14903006
235	0x3b718886	0.0036855056
236	0x3d3d6618	0.046239942
237	0x3de5eee9	0.11227209
238	0xbe033b62	-0.12815621
239	0x3debdef3	0.115171336
240	0xbd43dcab	-0.047817867
241	0x3d94fad1	0.07274402
242	0x3d924725	0.07142476
243	0x3d097e30	0.033567607
244	0x3d5986f9	0.053107236
245	0x3d9e61e5	0.07733516
246	0x39a02867	0.0003054768
247	0x3e31b44c	0.17353934
248	0x3c994c39	0.018713104
249	0x3c43dace	0.011954023
250	0x3e0cbbd1	0.13743521
251	0xbcd3b6ec	-0.02584406
252	0x3c764be8	0.015032746
253	0x3d0e8015	0.034790117
254	0x3d375eec	0.04476826
255	0xbd9e2c2e	-0.0772327

network_body._body_endoder.seq_layers.0.bias f4 [256]
0	0x3cb83d66	0.022490215
1	0xbddf1425	-0.10892514
2	0xbc5b2d11	-0.013377444
3	0xbd73df76	-0.05953928
4	0xbdbaad77	-0.09115117
5	0xbd5b9c2e	-0.05361574
6	0x3cbbc1dd	0.02291959
7	0xbdfb107a	-0.12259002
8	0xbc523ba9	-0.012831607
9	0x3b87d42c	0.004145166
10	0xbc43e6b1	-0.011956857
11	0xbcad800a	-0.021179218
12	0xbbd539f9	-0.006507155
13	0x3cd6b776	0.026210528
14	0x3c68243b	0.014168794
15	0x3cd1cf2d	0.025611484
16	0xbcb4089b	-0.02197676
17	0x3da4ad50	0.08040869
18	0xbd2659c8	-0.040612966
19	0xbd6f9ec3	-0.058501016
20	0xbdb885bd	-0.090098836
21	0xbd8627ac	-0.065505356
22	0x3d4dc3e8	0.05023566
23	0xbce6a01d	-0.02815252
24	0xbd5fa46e	-0.05460017
25	0x3c1dad27	0.009623802
26	0x3d9234c0	0.071389675
27	0xbd5ccca0	-0.053906083
28	0xbde8adc8	-0.11361271
29	0xb992079b	-0.00027852957
30	0x3cb625f1	0.022234889
31	0x3c4e3720	0.012586385
32	0x3d208488	0.03918889
33	0x3ab3f4a7	0.0013729528
34	0xbc6b5c0e	-0.014365209
35	0x3caaffad	0.020873869
36	0xbcf2f1cb	-0.029656311
37	0xbbec9c97	-0.0072208154
38	0xbd3786d8	-0.04480633
39	0xbcc4c44b	-0.024019381
40	0xbe02bb69	-0.12766804
41	0xbcd20b58	-0.025640175
42	0xbc3d2ec2	-0.011546792
43	0xbc9550d6	-0.018227022
44	0x3c98dde8	0.0186605
45	0xbc72a6b1	-0.01481025
46	0xbd2b0047	-0.04174831
47	0x3ac5124d	0.0015035361
48	0xbd27463e	-0.040838473
49	0xbc91d3ee	-0.017801251
50	0x3d8f18a5	0.069871224
51	0xb9b1a36d	-0.00033881832
52	0x3d6b6be6	0.057475947
53	0xbb44128b	-0.002991828
54	0xbd3e828b	-0.046511214
55	0x3d47895a	0.048714973
56	0xbd2928a0	-0.04129851
57	0xbce5815c	-0.028015785
58	0xbd706cba	-0.05869744
59	0xbdfc1c68	-0.123101056
60	0x3c1d59ce	0.009603931
61	0xbd810074	-0.062989146
62	0xbe142d68	-0.14470446
63	0xbb5d0b35	-0.0033728604
64	0x3d00a500	0.031407356
65	0x3ca9647f	0.020677803
66	0xbd1202f4	-0.035647348
67	0xbd056d6f	-0.032575067
68	0xbd856da9	-0.06515057
69	0xbb494c76	-0.003071574
70	0x3d2b7b91	0.04186589
71	0xbd0279e8	-0.03185454
72	0x3ca35aeb	0.019940814
73	0x3d2c4eb5	0.04206725
74	0xbc808bc4	-0.015691645
75	0x3d2f76eb	0.04283802
76	0x3bcdcf45	0.006280812
77	0xbc175456	-0.009236416
78	0xbb67d78f	-0.0035376286
79	0xbd28e3ff	-0.04123306
80	0xbd35d4a3	-0.04439224
81	0xbd4e6b48	-0.05039528
82	0x3dc3323d	0.095310666
83	0xbd564ae9	-0.052317534
84	0xbcaf035e	-0.02136391
85	0x3d3a7085	0.045517463
86	0xbd4ab8f8	-0.049492806
87	0xbdaddf62	-0.084898725
88	0xbd5d485f	-0.054024097
89	0xbcfec18e	-0.031098153
90	0x3b123f5d	0.00223156
91	0xbd1f5a29	-0.038904343
92	0x3d4bbbdc	0.049739704
93	0x3ca24c8e	0.019811895
94	0x3d1b6bff	0.03794479
95	0x3d2c111f	0.042008515
96	0xbd9c7485	-0.07639412
97	0xbcd3e50c	-0.025866054
98	0x3bd8c4c3	0.0066152527
99	0xbcc59ca1	-0.024122538
100	0xbbf0c91e	-0.007348194
101	0xbda291e4	-0.07937983
102	0xbd279037	-0.04090902
103	0xbd67bb03	-0.056574833
104	0xbd2d6ac2	-0.04233814
105	0x3da63f64	0.081175596
106	0xbbf90259	-0.007599157
107	0x3d145326	0.03621211
108	0xbd363223	-0.044481408
109	0x3d64800d	0.05578618
110	0x3c90bfbe	0.017669555
111	0xbcc00c6c	-0.023443423
112	0xbc851a71	-0.01624796
113	0x3d7d5508	0.06184867
114	0xbd1ef68e	-0.03880935
115	0x3c631391	0.013859645
116	0xbcca600d	-0.024704004
117	0xbae71249	-0.0017629351
118	0x3cfd2f9a	0.030906487
119	0xbaa829c1	-0.0012829826
120	0xbd837400	-0.064186096
121	0x3d40b95e	0.04705178
122	0xbdc65571	-0.096842654
123	0xbc845220	-0.016152442
124	0xbd85692f	-0.06514203
125	0xbc894e56	-0.016760986
126	0xbe138a8b	-0.14408319
127	0x3cedc8da	0.029026438
128	0xbadb6b94	-0.0016740435
129	0x3d51fe02	0.05126763
130	0xbc090a34	-0.008364249
131	0xbc16f7ce	-0.009214355
132	0x3c252601	0.010079862
133	0x3d1600c8	0.03662184
134	0xbddcce21	-0.107815035
135	0xbd733cb2	-0.059384055
136	0xbd9dac1d	-0.07698844
137	0x3cae1e74	0.021254756
138	0xbdb3486d	-0.087540485
139	0xbab6f38a	-0.0013958078
140	0xbd60c3be	-0.054874174
141	0x3bedbcf1	0.0072551896
142	0x3c9e84d0	0.01935044
143	0xbd75428e	-0.059877925
144	0xbb42f78c	-0.00297496
145	0xbc68ee64	-0.014216993
146	0xbd2e03f5	-0.042484242
147	0xbce4e28e	-0.027940061
148	0xbd9c11e9	-0.076206036
149	0xbcf7662c	-0.030200087
150	0x3d075dd3	0.033048462
151	0xbd996c4e	-0.074913606
152	0x3c72da61	0.014822573
153	0xbdb38af5	-0.08766738
154	0xbbba9c2c	-0.0056948867
155	0x3b8167e2	0.0039491514
156	0xbd9d0e5b	-0.07668754
157	0xbd078dc9	-0.0330942
158	0x3caefcf9	0.021360861
159	0xbdb9f44e	-0.090798005
160	0x3bf5f6ab	0.0075062118
161	0xbd4affa6	-0.04956021
162	0xbb5c4b02	-0.0033614044
163	0xbb6f6186	-0.0036526634
164	0xbd1836a3	-0.03716148
165	0x3d6cf5db	0.057851654
166	0xbc912423	-0.017717427
167	0xbda09101	-0.07840157
168	0xbd3b0879	-0.045662377
169	0x3d2e2653	0.042517018
170	0x3b995758	0.0046796016
171	0x3c774f3f	0.015094577
172	0xbd304aab	-0.04303996
173	0x3bef9dcf	0.0073125134
174	0xbd98887b	-0.074479066
175	0x3c56eb6b	0.013117651
176	0x3cb3578c	0.021892332
177	0x3cd64af9	0.026158797
178	0xbc4882c9	-0.012238213
179	0xba283dea	-0.00064179173
180	0x3d69b767	0.05705967
181	0xbd1dc8d5	-0.038521606
182	0xbb790b0e	-0.0038000974
183	0x3cdd0b8f	0.02698305
184	0xbd707b1b	-0.058711153
185	0x3d5982af	0.053103145
186	0x3d1bf145	0.03807189
187	0xbd692f4a	-0.056929864
188	0x3d3f1b90	0.046657145
189	0x3d2ba657	0.04190668
190	0x3c209a22	0.009802373
191	0xbe05e8a4	-0.13077027
192	0x3d50eabc	0.05100511
193	0xbdb745dc	-0.089488715
194	0xbdccdb52	-0.100027695
195	0x3cef2b03	0.029195314
196	0xbd06c72a	-0.03290478
197	0x3c9f0119	0.019409703
198	0xbc2cd1c6	-0.010548061
199	0x3d900ae6	0.07033329
200	0xbb16bb24	-0.0022999728
201	0xbcdd8679	-0.02704166
202	0x3d829c5e	0.06377481
203	0xbd3252bd	-0.043535937
204	0x3d42a11f	0.04751694
205	0xbdc78e87	-0.09743982
206	0x3c64d9e0	0.013967961
207	0x3c968119	0.018372105
208	0x3db8cdc5	0.090236224
209	0xbd264e15	-0.04060181
210	0xbcca415f	-0.024689374
211	0xbd4e00a5	-0.050293583
212	0x3d355fbe	0.04428076
213	0xbda9b004	-0.082855254
214	0x3cd639d7	0.026150627
215	0xbdd3802b	-0.103271805
216	0x3c3f59cf	0.011679127
217	0xbd0421c6	-0.03225877
218	0xbcc996e8	-0.02460809
219	0x3b92ba59	0.004477781
220	0x3d8c2f3d	0.068449475
221	0x3c02f915	0.007993956
222	0xbb15b3b3	-0.0022842705
223	0xbcd456d3	-0.025920307
224	0xbca2af00	-0.019858837
225	0xbd352247	-0.044222143
226	0xbcfaa49b	-0.030596068
227	0xbc89ccef	-0.016821353
228	0xbd46f6dc	-0.048575267
229	0xbda51adb	-0.08061763
230	0xbd0f71be	-0.035020582
231	0x3d3f9554	0.04677327
232	0xbb26420c	-0.0025368957
233	0xbdb3d4f1	-0.0878085
234	0xbc763a70	-0.015028581
235	0x3d34dc3a	0.044155337
236	0xbd762599	-0.06009445
237	0xbc3de9ad	-0.011591357
238	0x3d131856	0.03591188
239	0x3d5a8589	0.053350005
240	0xbe04c34d	-0.12965126
241	0xbb803bb2	-0.0039133662
242	0xbcd926c4	-0.026507743
243	0x3d3bf5b1	0.045888606
244	0xbb05b096	-0.0020399443
245	0x3c00ab6e	0.007853372
246	0xbb3d0fb9	-0.0028848483
247	0xbb6afc8b	-0.0035856094
248	0xbb99bba5	-0.0046915584
249	0x3c6a5c87	0.014304287
250	0xbc15b882	-0.009138228
251	0x3d40cb57	0.04706892
252	0xbd08a1be	-0.033357374
253	0xbc0ea1c7	-0.008705563
254	0xbcb0080c	-0.021488212
255	0xbce72d5a	-0.028219867

network_body._body_endoder.seq_layers.2.weight f4 [256, 256]
0	0x3d3abca5	0.04559006
1	0xbd7ec5d5	-0.062200386
2	0x3cac9225	0.02106578
3	0xbd2d0b71	-0.04224724
4	0x3d704ad4	0.05866511
5	0x3cbf8afb	0.0233817
6	0x3e027083	0.12738232
7	0x3c5c1a98	0.013434075
8	0xbc7cc6a2	-0.015428217
9	0x3d27c0a0	0.040955186
10	0x3d0ce9d6	0.03440269
11	0xbe48e175	-0.19617255
12	0x3e182581	0.14858057
13	0xbd74b327	-0.059741165
14	0xbd443514	-0.04790218
15	0xbdb7695f	-0.08955645
16	0x3c16dd5d	0.009208051
17	0xbc870272	-0.016480658
18	0x3cc670ae	0.024223652
19	0xbb0de1e7	-0.002164954
20	0x3d52557e	0.051351063
21	0xbe01604f	-0.12634395
22	0xbd7cc2f3	-0.061709356
23	0xbd941f7e	-0.07232569
24	0x3c3b4511	0.011430041
25	0x3d0c3cf2	0.03423781
26	0x3da72d72	0.08162965
27	0x3d982bac	0.07430205
28	0x3de24726	0.11048727
29	0x3d065548	0.032796174
30	0xbb2942b4	-0.0025827112
31	0xbd596bae	-0.053081207
32	0x3d8e7252	0.069553986
33	0xbc9eae7b	-0.019370308
34	0x3c6c9c87	0.014441616
35	0xbd92f1c4	-0.071750194
36	0xbdc6140a	-0.09671791
37	0x3cdc3bb9	0.026883947
38	0xbe10b2b6	-0.14130673
39	0xbc87380f	-0.016506223
40	0x3c84c0eb	0.016205272
41	0xbd8d08aa	-0.06886418
42	0xbd181804	-0.037132278
43	0xbc036d7b	-0.008021708
44	0x3db8ad32	0.090174094
45	0xbdbb63af	-0.091498725
46	0xbda11d3c	-0.07866904
47	0x3daa651c	0.08320066
48	0xbcabe97c	-0.020985357
49	0x3cc465d3	0.023974335
50	0xbde11e0c	-0.10992059
51	0xbd0fa317	-0.035067644
52	0xbdbd9e44	-0.092587024
53	0xbc48e0e8	-0.012260653
54	0x3cb9dd57	0.02268855
55	0xbdf2229f	-0.1182301
56	0xbd27ae49	-0.040937696
57	0x3e166597	0.14687191
58	0xbd5c4024	-0.053772107
59	0x3ac933bd	0.0015350502
60	0x3df5c26f	0.11999976
61	0x3d32035a	0.043460228
62	0x3db00443	0.08594563
63	0x3cdc773e	0.026912328
64	0x3be8eb25	0.0071081095
65	0x3ce13919	0.027493047
66	0xbc0b7eff	-0.008514165
67	0x3e135261	0.14386894
68	0xbcb9b030	-0.02266702
69	0x3d19c95a	0.03754554
70	0xbe45d3af	-0.19319032
71	0xbdd03032	-0.101654425
72	0x3dd3f203	0.103488944
73	0x3d4b3d19	0.049618814
74	0xbddbb691	-0.10728181
75	0x3ceb33d7	0.028711243
76	0xbb2e4864	-0.002659344
77	0x3dc873b0	0.09787691
78	0xbdaf8788	-0.085707724
79	0xbd1d5366	-0.038409613
80	0xbcf69f3a	-0.030105222
81	0xbd257495	-0.040394384
82	0x3d8c222e	0.06842457
83	0x3c9189e5	0.017765949
84	0x3d6af70d	0.057364512
85	0xbd4f5d02	-0.05062581
86	0xb9aee07c	-0.0003335512
87	0xbd43d4ef	-0.04781049
88	0x3d401dca	0.04690341
89	0xbcd92c9c	-0.02651053
90	0x3d0dea89	0.0346475
91	0xbdc26ac6	-0.09493022
92	0xbd5a86bd	-0.053351153
93	0x3b228130	0.002479624
94	0xbe25a6bd	-0.16176887
95	0xbd138254	-0.036012962
96	0x3cae07e3	0.021243995
97	0x3c2a2242	0.010384144
98	0x3d94352a	0.07236703
99	0x3d2a53fc	0.041584
100	0xbd3568eb	-0.04428951
101	0xbd1c0426	-0.038089894
102	0xbd1a4800	-0.03766632
103	0xbdcc7790	-0.09983742
104	0x3d906154	0.07049814
105	0xbe0d2e8a	-0.13787284
106	0x3da2e931	0.07954634
107	0x3d9eb777	0.07749837
108	0xbdcfa729	-0.10139305
109	0x3d7865f0	0.06064409
110	0x3d88dd18	0.06682795
111	0x3bf25211	0.007395037
112	0x3cc7a015	0.024368325
113	0xbcb5a128	-0.022171572
114	0xbdc3298a	-0.09529407
115	0xbd6dcf5f	-0.058059093
116	0x3d3a33e6	0.04545965
117	0x3cac6f19	0.02104907
118	0xbe10190e	-0.14072058
119	0xbd3389db	-0.04383264
120	0xbd2c11d9	-0.04200921
121	0xbdce7581	-0.10081006
122	0xbca9941f	-0.020700512
123	0x3d8abf73	0.06774797
124	0x3d30adf6	0.043134652
125	0xbe1bc67f	-0.15212439
126	0xbd3da460	-0.04629934
127	0xbc2e8427	-0.010651625
128	0xbcc35983	-0.023846393
129	0xbbf4c41e	-0.007469668
130	0xbdea51eb	-0.11441406
131	0xbd705380	-0.05867338
132	0x3e25cc0d	0.1619112
133	0x3cf7bd85	0.030241737
134	0x3de6466b	0.112439
135	0xbd95d93a	-0.07316823
136	0x3ca2b6a0	0.019862473
137	0xbda4914d	-0.080355264
138	0x3c55471d	0.013017443
139	0xbd38e7bd	-0.045142878
140	0xbe70d773	-0.23519687
141	0x3db378e8	0.087632954
142	0x3dc088c5	0.09401087
143	0x3d82c5d1	0.06385387
144	0xbdbd9e12	-0.09258665
145	0x3d2d2788	0.042274028
146	0xb5f5e860	-1.8321552e-06
147	0xbd8f98c0	-0.070115566
148	0x3d1f399f	0.03887331
149	0xbcfee4e9	-0.031115012
150	0x3e12492b	0.14285724
151	0x3dfbec2a	0.12300904
152	0x3d1b9283	0.03798152
153	0xbd9a14b3	-0.07523479
154	0xbca27e10	-0.019835502
155	0xbd22110f	-0.03956705
156	0x3d795de0	0.06088054
157	0xbe1ea472	-0.15492418
158	0x3b4571a8	0.003012756
159	0x3d3ce441	0.046116117
160	0xbe03949b	-0.12849657
161	0xbd910410	-0.07080853
162	0xbcf257ab	-0.029582819
163	0x3ba448ed	0.0050135762
164	0x3d06ab58	0.03287825
165	0xbcc049df	-0.023472724
166	0x3c9d1053	0.019172823
167	0x3e09ec70	0.134691
168	0x3d485a12	0.048914023
169	0xbd68b5ce	-0.056814007
170	0x3c491b5d	0.01227459
171	0xbdc18473	-0.09449091
172	0x3db5553c	0.08854148
173	0x3e0a3b3c	0.13499159
174	0xbd10ab63	-0.035319697
175	0xbd178fe0	-0.037002444
176	0xbd2b47fc	-0.041816697
177	0xbb8b6ede	-0.0042551598
178	0xbdf93b89	-0.121695586
179	0x3cc64892	0.024204526
180	0x3d05e0f0	0.03268522
181	0xbd5c9dad	-0.05386131
182	0xbd42b737	-0.04753801
183	0xbd831435	-0.064003386
184	0x3ceadd97	0.028670115
185	0x3ddc2a79	0.107502885
186	0xbd4d2058	-0.050079674
187	0xbdaf53cf	-0.08560907
188	0xbdaa642e	-0.08319889
189	0xbe3b2315	-0.18275101
190	0x3cc62775	0.024188736
191	0x3d28b15f	0.04118478
192	0xbd9493fd	-0.07254789
193	0x3d73edc7	0.059552934
194	0xbcf1c9de	-0.029515203
195	0xbb9f1d35	-0.0048557767
196	0x3d559a2e	0.05214899
197	0xbd0ff4d1	-0.035145584
198	0x3d2bb338	0.041918963
199	0xbda2a209	-0.07941062
200	0xbde4bcc5	-0.111688174
201	0xbd9c3261	-0.076267965
202	0x3cbd2d29	0.023092823
203	0xbe31bfb9	-0.17358293
204	0xbd2f3ef7	-0.042784657
205	0xbddc9cdb	-0.10772105
206	0x3b5e71eb	0.0033942412
207	0xbdc163cc	-0.09442863
208	0x3e0f995e	0.14023349
209	0x3a9989b1	0.0011714009
210	0x3d3f05a6	0.046636246
211	0x3d930156	0.07177989
212	0x3dec7813	0.1154634
213	0xbb7d0944	-0.003861026
214	0xbdbd3d1c	-0.09240171
215	0xbc7c358d	-0.015393627
216	0xbd952849	-0.072830744
217	0x3cc04f8b	0.023475429
218	0xbbb1a1b2	-0.005420887
219	0x3c0d78a8	0.008634724
220	0x3d2e11a1	0.04249728
221	0x3dfcd9c5	0.12346224
222	0x3df4157c	0.1191816
223	0x3ccd74fa	0.025080193
224	0x3cb951b7	0.022621972
225	0x3dca2b6b	0.098715626
226	0xbd5f6a26	-0.05454459
227	0xbcb58b21	-0.022161068
228	0x3d72a401	0.059238438
229	0x3ac25b67	0.0014828265
230	0xbcc5e855	-0.024158636
231	0x3d467d45	0.04845931
232	0x3dee8af1	0.11647595
233	0xbd98c26d	-0.07458959
234	0x3d97b862	0.07408215
235	0xbbc0fe03	-0.0058896556
236	0xbe1a2c4a	-0.15055957
237	0xbbca7d84	-0.0061795134
238	0x3bfa75fd	0.00764346
239	0x3c06b360	0.008221477
240	0xbde2cdaf	-0.11074387
241	0xbd202a91	-0.039103094
242	0xbd829795	-0.06376568
243	0xbdca8f56	-0.098906204
244	0xbd918a51	-0.0710646
245	0x3dc9bfb5	0.09851018
246	0x3caf02d3	0.021363651
247	0x3c8cc543	0.017183905
248	0xbd9a81f1	-0.075443156
249	0x3b8735ac	0.0041262712
250	0x3d83d259	0.06436605
251	0xbd1d5648	-0.038412362
252	0xbc9cbae1	-0.01913208
253	0xbd209cb1	-0.039211933
254	0xbd689bf6	-0.05678936
255	0x3d26545a	0.040607788

network_body._body_endoder.seq_layers.2.bias f4 [256]
0	0x3c9dc10e	0.019257095
1	0xbbd10448	-0.006378684
2	0xbc47bd67	-0.012191153
3	0xbc56e270	-0.01311551
4	0xbc11c43b	-0.008896883
5	0xbcafbf8c	-0.021453641
6	0xbc17a94b	-0.009256671
7	0xbcbd1109	-0.023079412
8	0xbca1ebe3	-0.0197658
9	0x3c8b6c22	0.017019335
10	0x3cf78dfd	0.030219072
11	0xbbf80a48	-0.007569585
12	0xbcec7224	-0.02886302
13	0x3ca472ae	0.020074215
14	0xbca5ae30	-0.02022466
15	0x3c353acd	0.0110613825
16	0x3c74fc11	0.014952675
17	0x3ca22244	0.01979173
18	0x3c46380a	0.012098322
19	0x3cb51844	0.022106297
20	0xbc0a7131	-0.0084498385
21	0x3ce84cfb	0.02835702
22	0xbd116b7a	-0.03550289
23	0x3cf28f12	0.029609237
24	0x3d522a69	0.051309977
25	0xbd748882	-0.059700496
26	0x3d2f93be	0.042865507
27	0xbc9328ba	-0.017963756
28	0xbd3ee775	-0.046607453
29	0x3d15e852	0.03659851
30	0x3c82d9d1	0.015973004
31	0xbd8bc096	-0.06823842
32	0xb84f6aec	-4.9452225e-05
33	0x3b985731	0.004649066
34	0xbc8250b4	-0.015907623
35	0x3cbfb34a	0.023400921
36	0xbbb0322d	-0.005377075
37	0xbcade983	-0.021229511
38	0xbd577c04	-0.052608505
39	0xbcc7682c	-0.024341665
40	0x3d4f847c	0.050663456
41	0x3bbc4c81	0.0057464247
42	0x3d18250b	0.037144702
43	0x3cff3aa4	0.031155892
44	0x3cac5903	0.021038538
45	0xbc6dd2b0	-0.014515564
46	0x3cad34c1	0.02114332
47	0x3c8349f7	0.01602648
48	0xbc72b108	-0.014812715
49	0x3c83a0da	0.016067911
50	0x3cefc99c	0.02927094
51	0x3d50796a	0.05089704
52	0xbc8e7e40	-0.017394185
53	0xbd8b4cfd	-0.06801794
54	0xbd798517	-0.06091794
55	0xbd93270c	-0.07185182
56	0xbc5e8914	-0.013582487
57	0xbc60f381	-0.013729931
58	0x3d0f8902	0.03504277
59	0xbdae49ff	-0.085102074
60	0x3d1aaf85	0.037765045
61	0x3d358113	0.044312548
62	0x3c1fc8d5	0.009752472
63	0xbd91101e	-0.07083152
64	0x3cfa1342	0.030526761
65	0xbccda64f	-0.025103716
66	0x3cf8c296	0.030366223
67	0xbd31c25e	-0.043398254
68	0x3d060c3d	0.032726515
69	0xbd37ae17	-0.04484376
70	0x3cd645f0	0.026156396
71	0xbba74ec7	-0.0051058265
72	0x3cd66fd1	0.026176365
73	0x3dc0ba5d	0.09410546
74	0x3cd7e52f	0.0263544
75	0x3d2c3281	0.04204035
76	0x3b841d5e	0.004031821
77	0x3c5f6fb5	0.013637473
78	0x3cfe67e2	0.031055395
79	0xbc798038	-0.015228324
80	0xbd89dc20	-0.06731439
81	0x3d5cb7cf	0.05388623
82	0x3d3da3c4	0.046298757
83	0xbc3a9c05	-0.011389737
84	0xbd398a6f	-0.045298036
85	0x3c2e27eb	0.010629634
86	0xbc9f2119	-0.019424962
87	0x3b955f28	0.0045584626
88	0xbb71cbbe	-0.0036895121
89	0x3be1e479	0.006893691
90	0xbcdd9402	-0.027048115
91	0xbd09ec49	-0.033672605
92	0x3c81aee7	0.01583047
93	0xbd47d839	-0.04879019
94	0x3d0a4fdf	0.033767577
95	0x3d02fbb8	0.03197834
96	0x3d3c3360	0.045947433
97	0x3ca4a0f1	0.020096274
98	0x3c702ab2	0.014658617
99	0x3cbf7f6d	0.023376191
100	0xbcdd9d58	-0.027052566
101	0x3cbf7585	0.023371467
102	0xbbb508b8	-0.005524721
103	0x3d9c6422	0.07636286
104	0xbc399d81	-0.011329056
105	0x3d54f549	0.051991735
106	0xbc3ce2d4	-0.011528689
107	0x3d1c9d39	0.038235877
108	0x3cc5b9f1	0.024136515
109	0x3cdfa18b	0.02729871
110	0xbce1a31d	-0.027543599
111	0xbc623091	-0.013805524
112	0x3d3905f5	0.045171697
113	0x3d6441dc	0.05572687
114	0x3c8dec18	0.017324492
115	0xbd5f03c2	-0.054446943
116	0x3b921662	0.0044582346
117	0x3d1a9359	0.037738178
118	0x3cc0e40f	0.023546247
119	0x3cc443ba	0.023958076
120	0xbb5c94ec	-0.00336581
121	0xbd39f784	-0.045402065
122	0x3bcca019	0.006244671
123	0x3c0aba07	0.008467204
124	0xbd38a412	-0.045078345
125	0x3c5162b4	0.01277988
126	0xbd4dda97	-0.05025729
127	0x3c4f6502	0.0126583595
128	0x3d1aefa0	0.03782618
129	0x3d23c149	0.039979253
130	0xbc56e60e	-0.013116373
131	0x3bd0a532	0.006367349
132	0xbd364cfe	-0.04450702
133	0x3abd3173	0.0014434293
134	0xbc8408fb	-0.016117563
135	0x3cf02280	0.029313326
136	0x3d208f5b	0.039199214
137	0x3c7fce09	0.015613087
138	0xbb04a932	-0.002024245
139	0xbbf68964	-0.0075237025
140	0xbd94df68	-0.07269174
141	0xbd579ae1	-0.05263794
142	0xbc830879	-0.015995251
143	0x3c463a4f	0.012098863
144	0x3caa657b	0.020800343
145	0xbc4b4cdc	-0.012408461
146	0xbc5487e7	-0.012971855
147	0xbc3ff7f4	-0.0117168315
148	0xbcb3d4dd	-0.021952087
149	0xbd140413	-0.036136698
150	0x3a95315d	0.0011382509
151	0x3d498c51	0.04920608
152	0x3c1ba952	0.009500818
153	0x3cd8b46d	0.026453221
154	0xbdad7add	-0.084707
155	0x3cea7375	0.028619507
156	0x3a7dcb92	0.00096815184
157	0xbc5de95c	-0.013544407
158	0xbd1a5c47	-0.03768566
159	0xbc81dc88	-0.015852228
160	0xbd3b7773	-0.045768213
161	0xbc24dbc1	-0.010062159
162	0xbd1ab80b	-0.037773173
163	0x3d28ec1b	0.041240793
164	0x3d1bf6c8	0.038077146
165	0x3c0fb68a	0.008771548
166	0x3c9f72b8	0.019463882
167	0xbd0c0df2	-0.034192987
168	0x3cb7056d	0.022341454
169	0xbb8c935b	-0.004290027
170	0xbd0d8397	-0.034549322
171	0xbc976da5	-0.0184849
172	0x3d0d3935	0.034478385
173	0x3824d21a	3.929632e-05
174	0x3d0b07d0	0.033942997
175	0x3b1f2e48	0.002428906
176	0xbc4a0140	-0.0123294
177	0xbbbf08b9	-0.0058298972
178	0x3b95ae25	0.004567879
179	0x3b3794d1	0.0028012285
180	0xbc7313d7	-0.014836273
181	0x3d7d0564	0.06177272
182	0xbd2a9c93	-0.041653227
183	0x3d11f772	0.035636373
184	0xbd0a436b	-0.0337557
185	0xbc6e59d4	-0.014547784
186	0x3d155b52	0.036464043
187	0xbc858dc4	-0.01630295
188	0x3d37a7b7	0.04483768
189	0xbce5b655	-0.028041044
190	0xbc5c5acd	-0.013449383
191	0xbc499dfd	-0.012305734
192	0x3c65b72f	0.014020725
193	0x3c12c9f1	0.008959279
194	0x3d259693	0.040426802
195	0x3d040a60	0.032236457
196	0xbc685f2b	-0.014182846
197	0x3c6dfc09	0.014525422
198	0x3b246fca	0.0025091046
199	0x3c7857b7	0.015157632
200	0xbc053b61	-0.008131833
201	0xbda8e565	-0.082468785
202	0x3927567e	0.00015958582
203	0x3d6db75c	0.058036193
204	0xbcd2d1a7	-0.025734736
205	0xbd036bc0	-0.03208518
206	0x3d88ce72	0.06680001
207	0xbc793b74	-0.015211929
208	0xbd86e40c	-0.06586465
209	0x3cc8a59d	0.024493033
210	0xbd865fb5	-0.065612234
211	0x3adf1274	0.0017019049
212	0xbd9628f2	-0.073320284
213	0x3b3b9300	0.0028621554
214	0x3cc8bad3	0.024503147
215	0xbcdcd16c	-0.026955329
216	0x3bc27416	0.0059342487
217	0x3d6e0f9a	0.058120348
218	0x3d69aea7	0.057051327
219	0xbc0b2ab8	-0.008494072
220	0xbda0480d	-0.078262426
221	0x3ca6c20e	0.020356204
222	0xbd2d7e6a	-0.042356886
223	0xbd8b9cdd	-0.06817029
224	0xbd28825f	-0.041139957
225	0xbcd7fae1	-0.026364746
226	0x3bd9f6c1	0.00665173
227	0x3d4799e9	0.048730765
228	0xbce9db70	-0.028547019
229	0xbd27d463	-0.040974032
230	0xbc3dbc88	-0.011580594
231	0xbc1cc04e	-0.009567333
232	0x3c84663d	0.016162032
233	0x3ce0e551	0.027453097
234	0x3c20fe13	0.009826201
235	0xbbbbe5d8	-0.0057341866
236	0x3cc3aa48	0.023884907
237	0xbd3d9314	-0.046282843
238	0xbd3ff20e	-0.0468617
239	0xbbd60539	-0.0065313843
240	0xbd0f67e4	-0.035011187
241	0x3c8a185b	0.016857317
242	0xbc5ec640	-0.013597071
243	0x3c7d2cd4	0.015452582
244	0x3cae4812	0.0212746
245	0xbd801b2a	-0.06255181
246	0x3bb383cd	0.0054783584
247	0xbc0c7e0c	-0.008574974
248	0xbc5354bd	-0.012898621
249	0xbcf95fa6	-0.030441117
250	0xbc8c30f4	-0.017113186
251	0xbd348225	-0.044069428
252	0xbca0b890	-0.019619256
253	0xbc8d09e7	-0.017216636
254	0xbcc459ef	-0.023968665
255	0xbd8a3657	-0.06748646

action_model._continuous_distribution.log_sigma f4 [1, 2]
0	0xbe9b3307	-0.30312368
1	0x3df29e47	0.11846595

action_model._continuous_distribution.mu.weight f4 [2, 64]
0	0xbeafa5e2	-0.34306246
1	0xbeb015e0	-0.3439169
2	0xbe2b0bb2	-0.1670368
3	0x3e92368b	0.28557238
4	0x3ecd63bd	0.40115157
5	0x3e2b5e7d	0.16735263
6	0xbe2fe111	-0.171757
7	0xbe7f7d84	-0.24950224
8	0x3e19c17d	0.15015216
9	0xbe1e65c9	-0.15468515
10	0x3de35075	0.1109933
11	0xbe171347	-0.14753447
12	0x3e877435	0.26455846
13	0xbe291b9b	-0.16514437
14	0xbe9c0e47	-0.30479643
15	0xbd1d5a23	-0.03841604
16	0xbe57e9c3	-0.21085267
17	0x3e189563	0.14900737
18	0x3e414d03	0.18877034
19	0x3e648297	0.22315441
20	0x3ed6fa1d	0.41987696
21	0x3e76fbec	0.24119538
22	0xbb72f957	-0.0037074888
23	0x3d29103a	0.04127524
24	0x3ef0ace2	0.470069
25	0xbcabe27b	-0.020982018
26	0x3e494fb0	0.19659305
27	0xbe1afac1	-0.15134718
28	0xbe832f9b	-0.25622258
29	0xbe551f8d	-0.20812817
30	0xbe6da111	-0.23205973
31	0x3e61538e	0.2200453
32	0xbe40d55f	-0.18831395
33	0xbe823d87	-0.25437567
34	0x3e17447c	0.14772218
35	0xbea0c1c0	-0.3139782
36	0xbca8040b	-0.02050974
37	0xbd895017	-0.06704729
38	0x3dd9b7e9	0.10630781
39	0x3df28166	0.11841087
40	0x3e6623a1	0.22474529
41	0x3e113e5d	0.14183946
42	0x3d294ca1	0.041332845
43	0x3d6c399f	0.05767214
44	0x3e2ed00e	0.17071554
45	0xbded0a36	-0.11574213
46	0xbe8fcb75	-0.28084913
47	0x3d7d07d9	0.061775062
48	0x3e75c299	0.24000014
49	0xbe63de65	-0.22252806
50	0x3e747a43	0.23874764
51	0x3e07b9a6	0.13254413
52	0x3c1a0212	0.009399908
53	0xbd6d7e56	-0.05798181
54	0xbe224604	-0.15847021
55	0x3d282af3	0.041056585
56	0xbe022f97	-0.12713467
57	0x3da026ac	0.07819876
58	0x3dbb9765	0.091597356
59	0x3e41eef8	0.18938816
60	0x3e4aef0d	0.19817753
61	0xbe995c44	-0.29953206
62	0x3e199744	0.1499911
63	0xbe4817fd	-0.19540401
64	0x3df4224e	0.119206056
65	0x3e8ef729	0.27922943
66	0x3ec32bb8	0.38119292
67	0xbe85d69f	-0.26140305
68	0x3b8e2875	0.004338319
69	0x3d42986d	0.047508646
70	0xbe2d6b47	-0.16935454
71	0xbc4e1f33	-0.012580681
72	0x3dcf2607	0.10114675
73	0xbe72e35f	-0.23719548
74	0xbe0e97d2	-0.13925102
75	0xbe3e0fe5	-0.18560751
76	0xbda68f4a	-0.08132799
77	0xbda2bd3a	-0.07946248
78	0xbdea0df0	-0.114284396
79	0x3e241ed6	0.16027388
80	0xbd3a82fc	-0.045535073
81	0x3ca859b5	0.020550588
82	0x3cddd103	0.027077204
83	0xbda9c107	-0.0828877
84	0xbeaedfab	-0.3415502
85	0xbc2a3e09	-0.010390767
86	0x3ec7c7f1	0.3901973
87	0x3d602f08	0.054732352
88	0x3d84c003	0.06481936
89	0xbe4f254e	-0.20229074
90	0xbb2ddf7d	-0.0026530914
91	0xbdab326a	-0.08359225
92	0x3ce9992c	0.02851542
93	0xbde7c2ce	-0.11316453
94	0x3e4b1b43	0.19834618
95	0xbe7aff24	-0.24511391
96	0xbe6fabf3	-0.23405437
97	0x3e59153c	0.21199507
98	0x3ec367bf	0.3816509
99	0xbd925fdb	-0.07147189
100	0x3e71ae54	0.23601657
101	0x3eb29f2c	0.34887064
102	0xbedeaa00	-0.43489075
103	0x3e966313	0.29372463
104	0xbd074096	-0.03302058
105	0xbecb9481	-0.39761737
106	0x3da43d74	0.08019534
107	0x3e425cf8	0.18980777
108	0x3da6387a	0.08116241
109	0x3eb20461	0.34768966
110	0x3c863ea0	0.016387284
111	0x3e3b4ab7	0.1829022
112	0xbcb33bd0	-0.021879107
113	0x3eaa11ff	0.33216855
114	0xbe618b76	-0.22025856
115	0x3e73f76f	0.23824857
116	0x3e392f9a	0.18084565
117	0x3e7f547a	0.24934569
118	0x3eb75d52	0.35813385
119	0x3d0fcda7	0.035108235
120	0x3ea3d9ca	0.32002097
121	0xbeb174da	-0.34659463
122	0xbc0b9cc7	-0.008521265
123	0x3d5cf93a	0.05394862
124	0xbdac3d0a	-0.0841008
125	0xbda412b0	-0.08011377
126	0xbd943040	-0.072357655
127	0xbe00e671	-0.12587906

action_model._continuous_distribution.mu.bias f4 [2]
0	0x3cceb23b	0.025231471
1	0x3bdcefca	0.0067424523

onnx::LSTM_101 f4 [1, 256, 256]
0	0x3e025832	0.12728956
1	0x3db5c5f1	0.08875645
2	0xbd973677	-0.07383435
3	0x3e0f8ade	0.14017817
4	0x3d4beb3d	0.049784888
5	0xbdcfd19a	-0.101474
6	0xbdbe67e2	-0.09297158
7	0x3d2a879d	0.041633237
8	0x3c13cbdf	0.009020775
9	0x3c809246	0.015694749
10	0xbd98602b	-0.074402176
11	0x3cd71998	0.026257321
12	0xbe05e3d0	-0.13075185
13	0xbb57e909	-0.0032945296
14	0xbcbd9b6b	-0.023145398
15	0x3e032901	0.1280861
16	0xbd5a47bd	-0.05329107
17	0xbdb67141	-0.0890832
18	0x3e005369	0.12531818
19	0x3e025eec	0.12731522
20	0x3e8c5804	0.274109
21	0x3e0a716f	0.13519834
22	0x3b16a670	0.0022987388
23	0x3d49c14d	0.04925661
24	0x3e046223	0.12928061
25	0xbd7eb601	-0.06218529
26	0xbd5f58dc	-0.054528102
27	0x3dd42170	0.1035794
28	0xbe0b13ca	-0.13581768
29	0xbe19f704	-0.15035635
30	0x3d9f58aa	0.07780583
31	0x3d36bc35	0.044613082
32	0x3d140920	0.036141515
33	0x3dcb4ed7	0.09927147
34	0x3d8b800c	0.068115324
35	0x3d85959b	0.065226756
36	0x3e103791	0.14083697
37	0x3df4fcab	0.11962255
38	0xbe0b2c08	-0.13591015
39	0x3cd8db7c	0.026471846
40	0x3d896c2b	0.067100845
41	0xbdb5973f	-0.088667385
42	0x3dfd7e2a	0.123775795
43	0xbd9e6a19	-0.0773508
44	0x3e10e671	0.14150406
45	0x3cfa7bbc	0.03057658
46	0xbe2aa1ea	-0.16663328
47	0x3c1604e7	0.009156442
48	0x3d34bebb	0.044127207
49	0x3df9c149	0.12195069
50	0xbdbb0fb4	-0.091338545
51	0x3d1dd9f8	0.03853795
52	0x3e1622c1	0.14661695
53	0xbd477093	-0.048691344
54	0xbda8d5a6	-0.08243875
55	0xbe3615af	-0.17781709
56	0x3df0b8db	0.117540084
57	0x3daa5f15	0.08318917
58	0x3e15bcf3	0.1462286
59	0x3bf2eaa0	0.0074132234
60	0x3d9a7d7c	0.075434655
61	0x3df413d8	0.119178474
62	0x3d18b454	0.03728135
63	0xbe2d13e5	-0.1690212
64	0xbd5eb677	-0.05437323
65	0xbcd1a0a5	-0.025589297
66	0x3e23b970	0.15988708
67	0x3dacc44d	0.08435879
68	0xbcf7b32c	-0.030236803
69	0x38dd272a	0.00010545396
70	0x3e0d17ca	0.13778606
71	0xbab279f5	-0.0013616668
72	0xbae59eb2	-0.0017518608
73	0xbd867796	-0.06565778
74	0x3d2f35b2	0.042775817
75	0xbc88f206	-0.016716968
76	0xbe0cc49e	-0.13746879
77	0xbcafd428	-0.021463469
78	0x3da8b537	0.08237689
79	0xbdb5b62e	-0.08872639
80	0xbdbbf61a	-0.091777995
81	0x3e4db4a2	0.20088437
82	0x3e6e4c6a	0.23271337
83	0xbdde9e60	-0.108700514
84	0x3cc923ff	0.024553297
85	0xbe113c9c	-0.14183277
86	0xbdcf73fd	-0.10129545
87	0xbbf5fc5f	-0.0075068916
88	0xbdd45290	-0.1036731
89	0xbe0ca161	-0.13733436
90	0xbe4b61b9	-0.19861497
91	0xbe42feab	-0.1904246
92	0x3c7a4c36	0.015276959
93	0x3d73094a	0.05933503
94	0xbc8b55b0	-0.017008632
95	0x3dd8b5f3	0.10581579
96	0x3dc85254	0.09781328
97	0xbd3a0ffb	-0.045425396
98	0xbdbbdbfb	-0.09172817
99	0xbdb69fa0	-0.08917165
100	0xbdd01dc0	-0.10161924
101	0xbbe9548a	-0.0071206735
102	0xbc4afcb7	-0.0123893535
103	0x3e147c72	0.14500597
104	0x3d151cc5	0.03640439
105	0x3e965ac3	0.2936612
106	0xbc902849	-0.017597334
107	0x3d39600b	0.04525761
108	0x3e0f7e6f	0.14013074
109	0xbd87add3	-0.06624951
110	0xbe363c24	-0.1779638
111	0x3e0bfd85	0.13670929
112	0xbe0a392a	-0.13498369
113	0x3d0bc9a3	0.034127843
114	0x3dadf35b	0.08493682
115	0xbdd77ee0	-0.10522246
116	0xbd82750c	-0.06369981
117	0x3de1fef2	0.11034955
118	0x3e45baa8	0.19309485
119	0xbc672c04	-0.014109615
120	0x3d973afd	0.07384298
121	0xbe1022dc	-0.14075798
122	0x3dd10936	0.10206835
123	0x3d18e61a	0.037328817
124	0xbe0fc858	-0.14041269
125	0xbde82d6a	-0.11336787
126	0x3e3c556e	0.18391964
127	0x3d8073a7	0.06272059
128	0xbd521df5	-0.0512981
129	0x3e02a2f8	0.1275748
130	0x3c296b58	0.010340534
131	0x3d48c6e5	0.049017806
132	0xbe3ffed4	-0.18749553
133	0x3e53ad45	0.20671566
134	0xbd3fb374	-0.046802
135	0x3c2a3d5d	0.010390607
136	0x3bec6a54	0.0072148237
137	0xbd46a693	-0.0484987
138	0x3c2289b4	0.009920526
139	0xbd94c9a7	-0.07265025
140	0xbd9a8e62	-0.075466886
141	0x3d561a30	0.052271068
142	0xbda72347	-0.081610255
143	0x3e2458dd	0.16049524
144	0x3e44ed9d	0.19231267
145	0xbdf56342	-0.119818226
146	0xbbff5568	-0.0077921636
147	0x3d0aee0c	0.033918425
148	0x3c51e85b	0.0128117455
149	0x3dcb1b69	0.099173374
150	0x3e033730	0.12814021
151	0xbda79ff2	-0.08184804
152	0x3e1b47f5	0.15164168
153	0x3d36729a	0.044542886
154	0xbd87f939	-0.06639332
155	0x3d990fa7	0.074736886
156	0xbd8d3d80	-0.06896496
157	0xbd437298	-0.047716707
158	0x3cb7920f	0.022408513
159	0xbd9cee9f	-0.07662701
160	0xbde9ef04	-0.11422542
161	0x3cc90da0	0.02454263
162	0xbc7f9dc9	-0.015601584
163	0xbcbb5c30	-0.022871107
164	0xbc6ce397	-0.0144585585
165	0xbe212b70	-0.15739226
166	0xbc3d3253	-0.011547643
167	0xbd5004bc	-0.050785765
168	0x3e10d38d	0.141432
169	0xbcac67ac	-0.021045528
170	0xbd766a3c	-0.060159907
171	0xbd8d1dfe	-0.06890486
172	0xbd7d09b7	-0.061776843
173	0xbc299181	-0.010349632
174	0xbc8eabcd	-0.017415905
175	0x3e084b8f	0.13310073
176	0xbe0b0de2	-0.13579515
177	0x3dad45e4	0.08460596
178	0xbb765355	-0.003758629
179	0x3cff045a	0.031130005
180	0x3c63fba9	0.013914981
181	0x3e4249d3	0.18973474
182	0x3d2c82f5	0.042117078
183	0x3d077fa5	0.033080716
184	0xbe322288	-0.17395985
185	0x3d7e4bdb	0.06208406
186	0xbd35233a	-0.044223048
187	0x3b3e548b	0.002904209
188	0x3e162322	0.1466184
189	0x3da4b86c	0.08042988
190	0xbd566a07	-0.05234721
191	0xba5a8ddd	-0.00083371793
192	0xbe1f7962	-0.15573648
193	0x3e3a73aa	0.18208185
194	0x3e417174	0.18890935
195	0x3e4d86dc	0.20070976
196	0x3e0fba28	0.14035857
197	0xbd4f839c	-0.05066262
198	0xbcf02364	-0.02931375
199	0x3da51d52	0.08062233
200	0x3dec3e6a	0.11535342
201	0x3d9bab1e	0.076009974
202	0x3cbe8590	0.023257047
203	0xbc554d13	-0.013018864
204	0x3e5c458c	0.21510905
205	0xbdf56109	-0.119813986
206	0x3e1da840	0.15396214
207	0xbe06b252	-0.13153961
208	0xbd576143	-0.05258299
209	0x3d9c8be0	0.076438665
210	0xbd438cd3	-0.047741722
211	0xbe03bd69	-0.12865223
212	0xbe51ae2c	-0.20476598
213	0xbb1d7c14	-0.0024030255
214	0xbe3b352e	-0.18282005
215	0x3c12857e	0.00894296
216	0xbdd778dc	-0.10521099
217	0x3db919ea	0.09038146
218	0xbc976c5c	-0.018484287
219	0xbd72a9c8	-0.059243947
220	0x3c7a8d1a	0.01529243
221	0x3d8a5882	0.06755163
222	0x3d055f88	0.03256181
223	0x3dae6dd3	0.08517041
224	0xbdd9153a	-0.10599752
225	0x3dbe19b6	0.09282248
226	0x3d3e2fc3	0.046432268
227	0x3b9204dc	0.0044561457
228	0xbd39a113	-0.045319628
229	0xbe4aa750	-0.19790387
230	0x3e17e9fe	0.14835355
231	0xbd26dccd	-0.040737916
232	0xbe1f54ec	-0.15559739
233	0x3d7d22af	0.061800655
234	0xbe01d859	-0.12680186
235	0xbd129d6a	-0.035794653
236	0xbcdedffe	-0.027206417
237	0xbd83e689	-0.064404555
238	0xbcc1ac1d	-0.02364164
239	0x3c83d77c	0.016093962
240	0x3d08a230	0.0333578
241	0x3dbfd75d	0.09367249
242	0x3e0fa7db	0.14028876
243	0xbcda6bdd	-0.026662761
244	0xbbf2cc4e	-0.007409609
245	0x3b4d52ab	0.0031329792
246	0x3d5b7e17	0.053587046
247	0x3d8a5399	0.06754226
248	0xbcd9803c	-0.026550405
249	0x3dad3c37	0.08458751
250	0x3d13d9f3	0.036096524
251	0xbda21f5e	-0.07916139
252	0x3cb0f7c4	0.021602519
253	0x3dcafbf6	0.09911339
254	0xbe2003b4	-0.15626413
255	0x3d07b84f	0.033134755

onnx::LSTM_102 f4 [1, 256, 64]
0	0x3e01390a	0.12619415
1	0xbe5b97b9	-0.21444596
2	0x3dd8ce5d	0.10586236
3	0x3de06c25	0.10958127
4	0x3e6a9d7b	0.22911637
5	0x3e30687b	0.17227356
6	0xbd9316a2	-0.07182051
7	0x3e0a6c05	0.13517769
8	0x3c1f8cd9	0.009738171
9	0xbe3ca801	-0.18423463
10	0xbe28a420	-0.16468859
11	0x3d3f5950	0.046716034
12	0x3e10f2db	0.14155142
13	0xbe483e91	-0.19555117
14	0x3d22f85d	0.03978764
15	0xbe864474	-0.262241
16	0xbe70f5a7	-0.23531209
17	0xbe9c7937	-0.3056123
18	0xbdb58a15	-0.08864228
19	0xbd4232e8	-0.04741183
20	0xbe10b0bd	-0.1412992
21	0x3dc3dfbd	0.09564159
22	0x3e0750c5	0.13214405
23	0xbdf4b2af	-0.11948144
24	0x3e5e4e7f	0.21709631
25	0xbde99919	-0.11406154
26	0xbe14072b	-0.1445586
27	0xbd849084	-0.06472877
28	0x3c6d934d	0.014500451
29	0xbd9bc413	-0.076057576
30	0x3d06a06c	0.032867834
31	0xbe09e1c0	-0.13465023
32	0x3e3ff175	0.18744452
33	0xbdeed024	-0.116607934
34	0x3e260caa	0.16215768
35	0x3d922365	0.07135657
36	0xbe626160	-0.22107458
37	0x3cfe33ce	0.031030562
38	0xbdd4649e	-0.10370754
39	0xbd6fe3c9	-0.058566842
40	0xbdd04365	-0.101691045
41	0x3e5df507	0.21675502
42	0xbe546b19	-0.2074398
43	0x3b63809f	0.0034714115
44	0x3e3361e1	0.17517807
45	0xbe75394a	-0.23947635
46	0xbe41d037	-0.18927084
47	0x3d035df0	0.032072008
48	0xbd070166	-0.032960318
49	0x3e18153c	0.1485185
50	0xbe0df2fa	-0.1386222
51	0x3e7928f8	0.24332035
52	0x3dde3b0e	0.108511075
53	0x3df00924	0.117204934
54	0xbe11bd37	-0.14232336
55	0x3d106b07	0.03525832
56	0xbdbe399f	-0.09288334
57	0x3cab6e66	0.020926666
58	0x3e17a576	0.14809212
59	0x3c9df84c	0.019283436
60	0x3e4c58ae	0.19955704
61	0xbd95a2e5	-0.0730646
62	0xbe018333	-0.12647705
63	0xbe3877cd	-0.1801445
64	0xbd0b4ffb	-0.034011822
65	0xbc39abf4	-0.011332501
66	0xbe454c40	-0.19267368
67	0xbdf9e814	-0.122024685
68	0x3e4ccfac	0.20001096
69	0xbdfde909	-0.123979636
70	0x3df01fca	0.11724813
71	0xbdd782d6	-0.10523002
72	0xbe3eb258	-0.1862272
73	0xbcbb4676	-0.022860747
74	0x3dd7b171	0.10531891
75	0xbdf2275e	-0.11823915
76	0x3dc47123	0.095918916
77	0xbd569a6a	-0.052393354
78	0xbbd77c7f	-0.0065761204
79	0x3e90f249	0.2830985
80	0xbebf6f02	-0.3738938
81	0x3d90adce	0.070644006
82	0x3d236702	0.039893158
83	0x3d7fa9d6	0.062417828
84	0xbd421a61	-0.047388438
85	0x3e074816	0.13211092
86	0x3df10b06	0.11769681
87	0x3e373538	0.17891395
88	0x3d8fb9a5	0.07017831
89	0xbc881bd5	-0.016614834
90	0xbdb6945e	-0.089150175
91	0x3e79a4fc	0.24379343
92	0xbe4477dd	-0.19186349
93	0xbd253e38	-0.04034254
94	0xbd755681	-0.05989695
95	0x3e5de6e4	0.21670109
96	0x3e569068	0.20953524
97	0x3e36aad1	0.17838599
98	0x3e0992a1	0.1343484
99	0x3e130f31	0.14361264
100	0xbdc78ebd	-0.09744022
101	0x3bc0387d	0.005866109
102	0xbe243308	-0.16035092
103	0x3d8ab8cf	0.06773531
104	0xbd06292a	-0.0327541
105	0xbe8eb636	-0.2787339
106	0x3e6a63ae	0.22889587
107	0x3da12faf	0.07870423
108	0x3e301493	0.17195348
109	0xbe97e7fd	-0.2966918
110	0x3e1c3aef	0.15256856
111	0x3d62cd80	0.05537176
112	0x3d39c96b	0.045358103
113	0xbe61b3f4	-0.22041303
114	0x3c15e430	0.009148642
115	0x3d2f1f45	0.04275443
116	0x3ce6744a	0.028131623
117	0xbbf84c65	-0.0075774663
118	0xbdf0ab48	-0.11751419
119	0x3e550712	0.20803478
120	0xbe7143e5	-0.23561056
121	0xbdd3648a	-0.10321911
122	0x3e031f56	0.12804922
123	0xbe4677ed	-0.19381686
124	0x3e99af8c	0.30016744
125	0x3e179d6c	0.14806145
126	0x3d69d744	0.05709006
127	0x3e5b6faa	0.21429315
128	0xbcc0f231	-0.023552986
129	0x3de12ec5	0.10995249
130	0x3d1818e1	0.0371331
131	0xbd034dfe	-0.0320568
132	0xbe74b472	-0.2389696
133	0xbd36d251	-0.044634167
134	0x3e1f773a	0.15572825
135	0x3e40d20a	0.18830124
136	0xbde26de5	-0.11056117
137	0xbe22fe17	-0.1591724
138	0xbd722d11	-0.05912501
139	0xbb62850f	-0.0034564172
140	0x3c147f1d	0.009063509
141	0x3e4813bd	0.1953878
142	0x3d718b76	0.05897089
143	0x3e65334f	0.22382854
144	0xbe34cfe1	-0.17657425
145	0xbdb57bf5	-0.088615336
146	0xbda8d8c7	-0.08244472
147	0xbdc6d569	-0.097086735
148	0x3e332caa	0.17497507
149	0x3de08253	0.10962357
150	0x3c9870bb	0.018608442
151	0x3e410a41	0.18851568
152	0xbe4ed02a	-0.20196596
153	0xbe13b75b	-0.14425413
154	0x3d9a22bf	0.075261585
155	0xbe363f43	-0.1779757
156	0xbe4b3bcc	-0.1984703
157	0xbe3ea51e	-0.18617675
158	0x3d5f7700	0.054556847
159	0x3e37e021	0.17956592
160	0xbe1a7adc	-0.1508593
161	0x3dec2209	0.11529929
162	0xbe5c8aaa	-0.21537271
163	0x3d28e7fd	0.041236866
164	0xbdda91e7	-0.1067236
165	0x3e37dbd1	0.17954947
166	0x3e1ce2f8	0.15320957
167	0xbdac87cf	-0.08424341
168	0x3d81e2e6	0.063421056
169	0xbe4e5df3	-0.20153026
170	0x3e5b87ef	0.21438573
171	0xbc8d15a0	-0.017222226
172	0xbdf3632d	-0.11884151
173	0xbda34d31	-0.079737075
174	0xbd8f9106	-0.07010083
175	0x3e530fe3	0.20611529
176	0xbda8fc77	-0.08251279
177	0xbdef51ac	-0.116854995
178	0xbcfa02a1	-0.030518832
179	0xbcbcba90	-0.023038179
180	0xbe145c96	-0.14488444
181	0xbc9ced4d	-0.019156123
182	0x3e300e44	0.17192942
183	0xbe4afd5d	-0.19823213
184	0x3e25f6cb	0.16207425
185	0xbd8f2532	-0.06989516
186	0xbdb36f6e	-0.08761488
187	0xbd97aea4	-0.07406357
188	0x3ddcb149	0.10776002
189	0xbdc98e82	-0.09841634
190	0xbe1c85fe	-0.15285489
191	0xbd873cb6	-0.066033766
192	0x3c812052	0.015762482
193	0xbbe76a84	-0.007062258
194	0x3e5717f9	0.21005239
195	0xbe13dbf3	-0.14439373
196	0xbd89c4b8	-0.06726974
197	0xbe5f5e2a	-0.21813264
198	0xbe25981f	-0.16171311
199	0x3ddec1e0	0.108768225
200	0x3e6cf0b6	0.23138699
201	0xbd569adf	-0.05239379
202	0xbe55d21a	-0.20880929
203	0xbe2cc10b	-0.16870515
204	0xbd7b88e9	-0.061409865
205	0xbc35609a	-0.011070395
206	0xbe447bae	-0.19187805
207	0xbbc4eed9	-0.006009918
208	0x3e77bf74	0.24194127
209	0xbd893ca0	-0.067010164
210	0xbe682067	-0.2266861
211	0xbe7e3476	-0.248247
212	0x3d884d14	0.066553265
213	0xbc871084	-0.016487367
214	0xbe4d0627	-0.20021878
215	0x3d2fa235	0.042879302
216	0xbe4757e1	-0.19467117
217	0xbca48909	-0.020084875
218	0xbe17b042	-0.14813331
219	0x3e1e213a	0.15442362
220	0x3dc1e394	0.09467235
221	0x3e0e280c	0.13882464
222	0xbe008815	-0.12551911
223	0xbddb8e87	-0.10720544
224	0x3d6c161e	0.05763828
225	0x3dcbf5e1	0.09959007
226	0xbdf2d3a3	-0.11856773
227	0xbdd96cda	-0.10616465
228	0x3d84adda	0.06478472
229	0x3e253571	0.16133668
230	0xbd9dc7ad	-0.07704101
231	0xbc54bbcc	-0.012984227
232	0x3e31f7f7	0.17379747
233	0x3d81a3b2	0.063300505
234	0xbe8231e6	-0.25428694
235	0xbe0119df	-0.12607525
236	0xbe40418e	-0.18775007
237	0xbc2e5df6	-0.010642519
238	0x3e422e35	0.18962939
239	0x3d1484f0	0.03625959
240	0xbe1569c3	-0.14591126
241	0x3dabe6cc	0.083936304
242	0xbe35e6b4	-0.17763788
243	0x3e39381e	0.18087813
244	0xbe2f705f	-0.1713271
245	0xbc1819b6	-0.009283474
246	0xbce94dce	-0.028479483
247	0xbda312c6	-0.07962565
248	0xbdb6fd3f	-0.089350216
249	0x3e8490b6	0.25891656
250	0x3e89f387	0.2694361
251	0x3db3aac1	0.08772803
252	0xbd428cb7	-0.047497477
253	0xbdccfa8c	-0.100087255
254	0xbe604732	-0.21902159
255	0x3df32397	0.118720226
