code/selfparking/mla/results/test_27/Car/Car-1031077.onnx (onnx, 710352 bytes, 10 tensors)

network_body._body_endoder.seq_layers.0.weight f4 [256, 108]
00000000: d48b a33d 592c 083c 4d8f 463b 82d2 7d3c
00000010: caea ddbd ecbe 26bd fbfa a93d 83d9 47bd
00000020: 8d6d 073d c3b4 053e 1b49 743d bbcc 4fbd
00000030: 5d7d 82be 0245 17bd a170 473b 24ea 15bc
00000040: 5edc 953d 25ed cbbd 3f50 9f3e eac1 833d
00000050: 5aba a2bd 4b44 debd b6f6 1e3e 6e06 1a3c
00000060: 53f3 643c 6d83 803c a572 803c 67d1 97bc
00000070: 57ac e0bd 4d3d 5b3d 1854 073c b723 cf3a
00000080: 347c ea3d 6c98 9dbc 787a 0fbd aad0 3aba
00000090: 8888 55ba d7c0 8fbd d9ac 483d d6c9 ad3d
000000a0: 0588 11be af86 45bd 9515 f7bb 2314 cc3d
000000b0: 1b4b 5d3d 5f53 8a3d 3659 a6bc f873 f73c
000000c0: c2dd a13d 1391 07be 0d22 d0bd 3ee2 c8bd
000000d0: b7e1 bb3c 69cd 393e ba08 47be 7a39 223d
000000e0: 88aa 783d 8d43 2b3e b8b6 863d 4a0e ddbd
000000f0: 56be e33d 6288 4c3d a1f4 19bd 0745 c6bc
00000100: 1c97 493d 6d3a b7bd 294b 0dbd 1518 5ebe
00000110: 1d87 d53d eb57 853d 27c1 74bc c818 853b
00000120: a1e4 8b3b d8e7 9ebd f0d6 9cbc 302e cabd
00000130: 61e2 e3bd 9a2a 703b d213 91bc 415b 213e
00000140: f9be 563c 0e6f 56be 4ba4 09bd 2cb1 b13d
00000150: 9ced 9b3d 593a 863d dbba 013e 39bc cb3d
00000160: 97b3 0dbe 8341 7c3d 98c1 0abe 7a7a 023e
00000170: 1cdb 2ebc e653 f63c 1a41 06be ec4c 84bc
00000180: 5fbd b1bd 3500 c8bb 06ae b9ba a40d 2cbe
00000190: 29eb 0abe dd00 063e 008d 913d 0b8e ef3c
000001a0: 2ebe eb3d 83f2 3a3e d063 c2bc 0607 2a3e
000001b0: b2b6 d23b 95ce 17be d57b 2fbd 24d7 8fbd
000001c0: 0d1c 3c3d 96d9 3d3e 4bfe 89be 2486 12bd
000001d0: 2b1e 38bc b16c 2d3d bacf fcbd e700 0c3e
000001e0: e4ce 8fbe ec62 7bbd de97 1e3d cea7 44be
000001f0: cb84 fc3c 1892 d23c 1171 8abd 5d10 343c
00000200: fc6a fcbd bf31 2dbc 8fe8 cebd b271 5d3e
00000210: d9d7 243e 78e8 08be 7e3a 1e3d 7a85 82bd
00000220: 0a93 6c3d d4b5 563e 2277 113e 0447 413d
00000230: 42b6 fe3b 9901 7b3d 1d49 043e 36ea c43d
00000240: fd09 2d3d 3033 4abc 1298 d7bd f290 1fbd
00000250: b4b3 383d cc17 f63b e6be 9dbd 6741 633b
00000260: 0ab6 cc3d 4751 e2bc ffca 023e 7f17 fc3d
00000270: a0fe 213e ab56 5cbd 1987 a83c 15bc 47bd
00000280: 03c1 b3bd 5998 36be 47ac 033e 11d3 ba3a
00000290: 1892 553d d03e 953d 50cc b83d c570 e23d
000002a0: 756e 163d 9ef0 353d 1bf0 bfbd f9bb 673d
000002b0: 13d0 1fbe a1f6 ae3d 2b59 78bd 79aa 8dbd
000002c0: 1973 db3b d8d9 aebc 8713 bc3d bc93 1e3e
000002d0: b4a5 4fbd 5898 593c 395a eebd 3523 ae3d
000002e0: c582 053e 1e82 1dbd 8d57 12b8 0dfc aebd
000002f0: ccae 933d 3ff5 16be d49f ad3d c950 e8ba
00000300: faa3 39bc 2f90 cdbc f01f 043d f924 433d
00000310: cd18 c63d 734e 763c a0ea 99bc 09c4 7bbd
00000320: f971 b93d 0a78 2bbe b233 60bd adc2 25be
00000330: 949f 9dbc 64f2 6dbd b63b f33d a749 0cbd
00000340: 0b3e 4b3d dca6 37be 11c8 57bd 6a39 d3bd
00000350: 3041 3dbe 429d 03be 8c75 35be 9d3f 003e
00000360: c62c a6bc 8be9 fabd e25b 153d 5c8f 20be
00000370: fc49 e8bd 2310 f9bd 61ba 9bbd 01b5 173e
00000380: d97f 483d 1d45 383e 990c f8bd 16dd 133d
00000390: 4fe9 173e ce4f 7bbd 19f1 92bd 44a4 bf3d
000003a0: 0fcf d43d 7510 873c 7cac 1dbc 3096 94bd
000003b0: a334 bcbd ce5f 63be 756d b3bc 2866 a2bc
000003c0: 481a 99bd ded4 52be 1e09 debd 8daa 493e
000003d0: 63e6 e43d ef53 0ebe 7d99 9b3d a7e7 fd3c
000003e0: 8567 ae3a 3534 3ebe c12d 413d 3ee0 b13d
000003f0: c87e 31be f96a 3d3d cf8d 463d 32a5 c53d
0.079856545 0.008311355 0.0030297816 0.0154920835 -0.10835798 -0.04070942 0.08299824 -0.04879142
0.03306346 0.13057236 0.05964003 -0.050732356 -0.2548627 -0.036931045 0.0030432122 -0.009150062
0.07317422 -0.09957341 0.3111591 0.064334705 -0.079457 -0.108528696 0.155238 0.009400947
0.013974029 0.015687669 0.015679667 -0.018532468 -0.10970371 0.053525258 0.008259796 0.001580349
0.11449471 -0.01923772 -0.035028905 -0.000712643 -0.000814565 -0.07019203 0.048992965 0.08485763
-0.14212044 -0.048224147 -0.0075404146 0.09964778 0.054026704 0.06754183 -0.020306211 0.030206665
0.07903625 -0.13238935 -0.10162745 -0.09808777 0.022934778 0.18144764 -0.19436923 0.039605595
0.060709506 0.16724987 0.065778196 -0.10793741 0.11120288 0.049934752 -0.037586812 -0.024202837
0.049216375 -0.08946691 -0.034495506 -0.21688874 0.104261614 0.0651091 -0.014938629 0.004061792
0.004269198 -0.077590644 -0.019145459 -0.09872091 -0.11127163 0.0036646486 -0.017709646 0.15757467
0.013107055 -0.20940802 -0.033603948 0.08676371 0.0761368 0.06554098 0.12668936 0.0994801
-0.1383804 0.061585914 -0.13550413 0.12742034 -0.010672357 0.030069303 -0.13110772 -0.01614996
-0.08678698 -0.0061035403 -0.0014166243 -0.16802078 -0.13566269 0.13086267 0.07106972 0.029242536
0.11510883 0.18256573 -0.023729235 0.16604242 0.0064304704 -0.14824899 -0.042842705 -0.07023457
0.04592519 0.18540034 -0.26951823 -0.035772458 -0.011237661 0.042339984 -0.12344308 0.13672219
-0.28087533 -0.061373636 0.03871905 -0.19204637 0.03082504 0.025704429 -0.06759847 0.010990229
-0.12325093 -0.010570942 -0.10102951 0.21625403 0.16097964 -0.1336993 0.03863 -0.06373115
0.057757415 0.209678 0.14205602 0.047186866 0.0077731917 0.06128082 0.12918516 0.09614985
0.042245854 -0.012341306 -0.10527052 -0.03895659 0.045093253 0.007510161 -0.077024266 0.0034676434
0.09995659 -0.027626647 0.1277275 0.12309169 0.15819788 -0.05379359 0.020572232 -0.048763353
-0.087770484 -0.17831554 0.12858687 0.0014253577 0.05214128 0.07287371 0.090233445 0.11056665
0.036726434 0.044418924 -0.09371968 0.05657575 -0.15606718 0.085431345 -0.060631912 -0.06917281
0.0066970703 -0.02134411 0.09183412 0.15486044 -0.050695136 0.0132809505 -0.11638302 0.08502809
0.13038166 -0.038454168 -3.489065e-05 -0.085441686 0.07211074 -0.14741991 0.084777504 -0.0017724271
-0.011330599 -0.025093166 0.03225702 0.04764268 0.09672699 0.015033352 -0.018788636 -0.06146625
0.09054942 -0.1674501 -0.0547368 -0.16187544 -0.019241132 -0.05809249 0.11876623 -0.034249928
0.049619716 -0.17934746 -0.052681033 -0.10313685 -0.18481898 -0.12852958 -0.17720622 0.12524267
-0.020285022 -0.12251576 0.03646458 -0.15679687 -0.113422364 -0.12161281 -0.07603908 0.14815141
0.04895005 0.17995115 -0.12111778 0.036099516 0.14835094 -0.061355405 -0.07174892 0.09357503
0.10391056 0.01648734 -0.009623643 -0.072552085 -0.09189727 -0.22204515 -0.02190278 -0.019824103
-0.07475716 -0.20589015 -0.10841583 0.19693966 0.11176755 -0.13899206 0.07597635 0.03099425
0.0013305998 -0.18574603 0.047162775 0.08685349 -0.1733352 0.046244595 0.048475083 0.09650649

network_body._body_endoder.seq_layers.0.bias f4 [256]
00000000: 5d74 193c a505 363a dc33 d23c 2920 643c
00000010: 5776 00bc c7eb 7f3b 5ae8 193c 82de 423c
00000020: 5696 ce3b 643d 343b d316 413c 8017 76ba
00000030: ae5a a9b9 32fd 343c b7d4 373c 56bb d93b
00000040: fb47 f73b bfe7 e53b b3e7 1e39 ce29 16b9
00000050: eef1 c63b 3000 61ba e06e 1d3b fc75 9e3c
00000060: cd46 ac39 3801 483c d2b7 20bb a459 a53c
00000070: 5f04 22bb 520d 623c 916c 2d3b a308 1b3c
00000080: 0621 893b 9581 de3c c571 7e3c 81d6 e23b
00000090: 17d4 d43b ff17 0abc d50a ab3a 0ff1 213b
000000a0: a705 033c d0b5 abba 2ad8 44bb c944 2d3c
000000b0: 9cdb 223c 7e33 d83b a203 bb3b 9b9a 2a3c
000000c0: f810 bb38 0215 b13c da76 103b 6bf2 1a3c
000000d0: e568 c2ba 0ec4 383b f8a5 63b9 24d6 fdbb
000000e0: 1e43 a73c 2481 643b 69d8 1f3c db14 7dba
000000f0: fb05 223c 4ebe a43b 4e35 153c f696 9fbb
00000100: 3264 88bb 0481 68b9 1680 ed3b 222f 503c
00000110: cfbc 0c3c fd5b 843b 0d8e 583b 29c2 573a
00000120: 919d eabb 5331 203c afa4 92ba 3008 b23b
00000130: f867 c63c bdef c23b 5514 bd3c 93d3 bd3b
00000140: 4f71 c43b eda7 463b ea36 4b3b 5936 4039
00000150: c539 973c cc69 903b fe18 863c 659f a03b
00000160: cd42 493b 6a9b f73b a6f6 e7bb 5e6d b13b
00000170: e153 eeba 038b d63b b2cf bf3b 6cc3 223b
00000180: 2510 833c 4a9f b43b 680c e8bb 2078 afbc
00000190: 8d06 7abb 2c49 183c b520 073b a1a0 4b3c
000001a0: 3fe9 953b 7d16 483c 0876 31bc eb8d a7b9
000001b0: fed9 dcbb 2ffe 7539 3039 beb9 9995 8c3b
000001c0: 2c4d a93b b0e9 a93b 81d0 103c 0d6b 3a3c
000001d0: 7dc4 583b 66ad 143b 4f7b 103b 2a8b 6fbb
000001e0: e165 583c a158 ad3b 7edb b53b bbc5 473b
000001f0: 7735 3eba c736 d439 ee8f 493c 7de5 8ebb
00000200: b3d3 74bb 416e c4bb 87d8 013c 6593 2c3c
00000210: 31ec 063c 24b4 a1ba cd1e 9d3b fb34 723b
00000220: c94c 363c e4eb c8bb 6e2a 043c cdda 14ba
00000230: 1338 333b d3e8 073c f658 423a 7dc8 8b3c
00000240: dc64 eb3b 52df 7abb 3441 9f3b 9795 86ba
00000250: 8fb0 4e3b 1170 f13b fafd fe39 c46a 7f3b
00000260: ca02 9d3b 46b8 ae3a 0de3 5e3b 1d0d 743c
00000270: 8761 9d3a 7278 563c 6837 ec3b a354 ce3c
00000280: 3bd7 7a3c e621 b73b fd13 aa3c 400a 783c
00000290: df77 88bb cb0c b03b 79e1 183c 8a61 c4b8
000002a0: 15bb 663c 140f 3c3c 15d0 443c cfbe 35bc
000002b0: 68aa c63b 8378 1c3c 188e 113b 5dfe e8bb
000002c0: 417b 0abb a42b a93c 2941 9c3b e1d5 063c
000002d0: 5e0b 31bc 4a67 3e3b 4c1f 3a3c 0d27 f13a
000002e0: b123 343c 224f 8b3c 02bb 123c a790 2f3b
000002f0: c680 3f3c 1d8a c23c c47d 0d3c 16a1 a8bb
00000300: 6f9a 013a dc5f f53b 4877 bebb 83c0 4d3b
00000310: c2d0 d03b 7846 c73c af38 843c 29c2 393b
00000320: 0523 633b eb14 c1ba e92c 893b 0a6c e63b
00000330: fd67 d6bb 0f2e c7bb e2b8 9b3b 680c bcb9
00000340: eb90 8c3c d0ba ee3a 4d10 c83b 4a9a bc37
00000350: 37bf 563b 23ab 2c3c 01f5 1bba eb06 023b
00000360: 1b93 483c fa46 8c3c ef1e f33b f070 e53b
00000370: 93e0 493b 7ec9 3a3c 3c2b bf3a 1b6d 3c3c
00000380: 3868 933c 1ab4 313c 6063 b13b 1081 963c
00000390: 6af2 f8ba feb9 823b cfa6 1d3c 50c3 4f3b
000003a0: c246 803c ca1c 943b a11b 703a 43a8 b23c
000003b0: 9e8f 323b 0f92 c63a d69d 6a3c bcce cab9
000003c0: 9604 95ba 3255 853b cd24 6cba 7294 243c
000003d0: a52e 1c3c e82c 49bb 2575 c53b 4b28 10bb
000003e0: 989a 2abb 0197 fe3b 87a7 bb3b faf9 203c
000003f0: 8e65 3f3c 5c2c 3b3c 3412 2f3b 77f0 943b
0.009366122 0.000694359 0.025659494 0.013923683 -0.007840714 0.0039050446 0.009393776 0.01189387
0.0063045425 0.0027502412 0.011785227 -0.0009387657 -0.00032301754 0.011046695 0.011220149 0.0066446466
0.0075464225 0.0070161517 0.00015154369 -0.00014320688 0.0060713207 -0.0008583097 0.0024022385 0.019343369
0.00032859147 0.012207322 -0.0024523628 0.020184346 -0.0024721844 0.013797121 0.0026462416 0.009462508
0.004184845 0.027161399 0.015530054 0.0069225435 0.0064950096 -0.008428573 0.0013049493 0.0024710333
0.007996953 -0.0013100449 -0.003003607 0.010575482 0.009940054 0.006597935 0.00570722 0.010412837
8.9200155e-05 0.021616463 0.0022043497 0.009457211 -0.0014832286 0.002819303 -0.00021710235 -0.007746475
0.020417746 0.0034867013 0.009756186 -0.0009654292 0.009889121 0.005027569 0.009106947 -0.004870291
-0.004162335 -0.00022173306 0.007247935 0.01270655 0.008589937 0.004039286 0.0033043653 0.0008230531
-0.0071598967 0.009777385 -0.0011187996 0.005433105 0.024219498 0.005948989 0.023080984 0.005793044
0.0059949527 0.0030312494 0.0031008073 0.00018330793 0.018460164 0.004407143 0.01636934 0.004901814
0.0030709982 0.0075563686 -0.0070789633 0.005414649 -0.0018182957 0.006547333 0.0058536166 0.0024835719
0.01599891 0.005512153 -0.007081557 -0.021419585 -0.0038150877 0.009294789 0.002061886 0.012428434
0.0045749242 0.012212393 -0.0108313635 -0.0003195846 -0.006739854 0.00023459712 -0.00036282232 0.0042902944
0.0051666703 0.0051853284 0.008838774 0.011378062 0.00330761 0.0022686361 0.0022046154 -0.0036551454
0.013207884 0.0052901064 0.005549847 0.0030482847 -0.00072558917 0.00040476603 0.012302382 -0.004360853
-0.0037357628 -0.0059945886 0.007925159 0.0105331885 0.008235023 -0.0012337011 0.0047949315 0.0036957848
0.011126705 -0.006131636 0.008066757 -0.0005678356 0.0027346655 0.008295256 0.0007413769 0.017063374
0.0071836542 -0.0038280082 0.0048600677 -0.001026797 0.0031538343 0.0073680957 0.00048635883 0.003897355
0.0047915922 0.0013330064 0.0034009845 0.014895705 0.0012007215 0.01309024 0.0072087534 0.025186842
0.015310104 0.005588758 0.020761484 0.015139163 -0.0041646804 0.005372619 0.009331101 -9.3641764e-05
0.01408269 0.011478204 0.012012501 -0.011092856 0.0060627945 0.009550217 0.0022209939 -0.0071104006
-0.0021130594 0.020650692 0.00476851 0.008229704 -0.010805933 0.0029053264 0.011360001 0.0018398479
0.010994838 0.017005507 0.008955719 0.00267891 0.011688417 0.023747498 0.008635942 -0.005146156
0.0004943972 0.007488234 -0.0058125593 0.0031395264 0.006372542 0.024325594 0.01614031 0.0028344488
0.0034658324 -0.0014730965 0.004186262 0.007031922 -0.006543158 -0.0060784887 0.0047522644 -0.00035867398
0.017158946 0.0018213633 0.006105459 2.2483193e-05 0.0032767782 0.010538849 -0.0005949289 0.001984055
0.012242104 0.017123688 0.007419459 0.0070019886 0.0030804023 0.011400579 0.0014585028 0.011500622
0.017994031 0.010846162 0.0054134578 0.018372089 -0.0018993143 0.003989457 0.00962229 0.0031702109
0.01565874 0.0045200335 0.00091593905 0.021808749 0.0027246247 0.001514973 0.014319858 -0.00038682471
-0.0011369165 0.004068994 -0.0009008169 0.010045158 0.009532605 -0.0030696932 0.0060259276 -0.0021996673
-0.0026032086 0.007769466 0.005726758 0.009825224 0.011681927 0.01142415 0.002671373 0.004545267

network_body._body_endoder.seq_layers.2.weight f4 [256, 256]
00000000: 93ae 163c 7950 2c3c 7c1c 57bc 7314 acbc
00000010: 1fd4 1f3d d32d 2bbd 0572 0bba 6b6f 45bc
00000020: 57fa 993d e493 aa3d c3f0 0ebc c2d6 abbc
00000030: 7a57 3f3d f707 26bd 2798 573c 0b99 07bd
00000040: f7cb febd 83c8 123d 8340 fabc f5f4 05bc
00000050: caf6 963d 8ddd b53c 6ce0 2f3e 9fc8 d63d
00000060: 4fe1 cfbd fe49 123d 2781 dd3c 7788 19bd
00000070: 77a6 d339 bc64 94bc 8447 33bd a14c 173e
00000080: e852 88bd 4625 b2bd 33ca 9bbd e46f bf3c
00000090: a6e2 b03d fd76 433d 1372 133d 5f23 e3bc
000000a0: 03ec b23d f2ae b13d a8f5 523d 0598 a53c
000000b0: 728f 3d3d 0d8f b1bc 3b87 9bbd 1448 053d
000000c0: c313 43bd 0bfd ecbc 6dff a53c 4270 5e3d
000000d0: b16b 933d d851 ce3d b0ca fb3d d452 723d
000000e0: 52d0 8dbc c3a6 fdbb 8ef2 053d aa5b 11bd
000000f0: 4072 12bd 6e79 c83d 2e3d 8a3d 2c0c 8fbd
00000100: 69b4 8c3d cb79 503d e49b bbbc 6bfc 063e
00000110: befe 0f3d faf5 d83c 0fd5 22bd 6ed8 0dbd
00000120: 18b3 373b a121 e73d fbfe 12be 5a10 edbd
00000130: 9c56 b5bd 182a bbbc 51d4 423d f22d d7bc
00000140: 2483 c7bd f913 5eba 5524 083d 5222 523d
00000150: 5d79 f9bc 9d86 31bd 8e47 39bd dca3 a83c
00000160: e870 433d f34d b5bc 346b 893c b429 8f3d
00000170: 4091 ac3d 0ff0 88bc 1175 173d f03a a43d
00000180: 69de 673c 3f1b b0bd e18f 6f3b 404e 113c
00000190: 3a45 91bd 4ae0 dc3c 272b 073d 26a8 2d3e
000001a0: 3917 91bc de24 7d3c bdb8 3f3c c769 8ebd
000001b0: 57e9 eabd 62bd 17bb 5808 773d c207 9fbd
000001c0: e5ae a83d 1fbc 913c b0ad ddbd c7be 633d
000001d0: f319 933d 575b 003d 5450 163c 29fe 323d
000001e0: 5c60 bf3d 00f9 ce3c f777 f1bd 8c91 d23c
000001f0: de32 153d 36d2 d23c 0223 d23c 1b07 bfbd
00000200: bcb2 a7bc 7779 52bd da89 973d 51be a2bd
00000210: 3b04 e5bc 293e 96bd ab0f b13d 34ea 733d
00000220: 8469 13bc f9e1 84bb 5398 8cbc 2337 85bc
00000230: b1f3 29bb 85a2 e9bc d83a 1c3d 9693 d03d
00000240: 4ede 90b9 a0cc ea3d d9d8 2e3d 6f59 0e3d
00000250: e2b0 20bd fc27 9f3d f577 32bc f98a 7c3c
00000260: 8b29 cd3d dd24 6f3d 4efb 1dbd bbb9 27bd
00000270: 9146 103e 278c 3b3d 4797 88bd 2db5 003d
00000280: 16a8 e6bc c6dc df3c 489e 0d3d f141 13be
00000290: be3e 5cbc ca95 19ba 396c f2bc 6765 b83c
000002a0: 1e32 75bd 6c74 4cbd 57d6 f1bd 314b 9b3d
000002b0: e691 e13c d863 923d 2764 e63c 8b04 133c
000002c0: ee43 df3b 0506 413d bce2 803d 5f22 c03c
000002d0: cdff 43bd 77c2 4e38 9ef4 5ebd 4d15 bebb
000002e0: 4c1e fdbb 60a2 6a3d 980c 613d fcdf 283e
000002f0: 2a12 6bbb 3c2d b53d f457 703d 1aac 42bd
00000300: 4c48 9fbc 4691 263c fdcf 7cbc 3ca6 1b3d
00000310: 9052 aa3d 663b 513d f9e2 1b3d 6011 263d
00000320: 1112 293d b347 443d afca b1bc a7ea c7bc
00000330: a8f6 94bd 992b f3bc 9d93 b9bc 5794 65bd
00000340: 14c2 b73d 59c9 fc3b e5f2 4a3c 966b a73d
00000350: fd6b a1bc d2aa 2abd a01e ca3c 2932 fe3c
00000360: 5ade 04be 9495 5b3a 0a94 3f3d c781 e93d
00000370: 8100 88bd 8b35 2abb c8fe 9cbc a20b bebd
00000380: aa9a 73bc 6c33 50bd f096 763d bd18 a1bb
00000390: 838b c83d 7f8f 5c3d cb6e d83d 7bee 77bd
000003a0: ef5c 61bd 803f b0bd 2939 093d ff88 a63c
000003b0: adae 8abd 38ad 023a 3be3 f53c 5706 54bc
000003c0: 7708 253d c93a 64bb 0c4c 0dbd b779 d43d
000003d0: 25e7 963d 1324 943b c2bd 68bb d783 6c3d
000003e0: 5537 86bd 24ea dcbc def7 f63c 90c1 a73c
000003f0: 1ec8 7ebb 24b1 19be 1261 cebc 02e5 78bd
0.009196895 0.010517233 -0.01312935 -0.021005845 0.039020654 -0.04179175 -0.00053194194 -0.01205049
0.07518452 0.08328989 -0.008724394 -0.020976428 0.046714284 -0.04053494 0.013158835 -0.033104938
-0.12441247 0.035835754 -0.03054834 -0.008176078 0.0737129 0.02220037 0.17175454 0.10487484
-0.10150396 0.035715096 0.027039124 -0.03748366 0.00040369082 -0.01811444 -0.043769374 0.14775325
-0.06656438 -0.086985156 -0.07606926 0.023368783 0.0863698 0.047720898 0.03599746 -0.027726827
0.08736422 0.08675946 0.051503807 0.02021409 0.04627938 -0.021674657 -0.075941525 0.032539442
-0.047626268 -0.028929254 0.020263398 0.054306276 0.07198275 0.10074204 0.12294519 0.059161022
-0.017311249 -0.007740827 0.03270202 -0.03548781 -0.03575349 0.09788786 0.0674995 -0.069847435
0.06870348 0.0508974 -0.022901483 0.13182227 0.03515505 0.026484478 -0.03975397 -0.03463023
0.0028030332 0.11285711 -0.1435508 -0.115753844 -0.0885441 -0.02284722 0.047565762 -0.026267026
-0.0974181 -0.0008471604 0.033237774 0.05130226 -0.030453378 -0.043341268 -0.045234255 0.020585947
0.047715098 -0.022131896 0.016774751 0.06990376 0.08426142 -0.016716031 0.036976878 0.08019054
0.014152148 -0.08598947 0.0036554264 0.008868754 -0.07093282 0.026962418 0.033000138 0.16958675
-0.017711269 0.015450684 0.01170176 -0.06953769 -0.11470287 -0.0023153652 0.06031069 -0.077651516
0.082364835 0.017789898 -0.10824144 0.05560186 0.07182684 0.03133711 0.009174425 0.043699417
0.09344551 0.025265217 -0.117904596 0.025704168 0.036425464 0.025735002 0.025651459 -0.09327527
-0.02047097 -0.05138537 0.0739934 -0.07946456 -0.027956119 -0.07336075 0.086455666 0.059549525
-0.008997325 -0.0040552584 -0.017162478 -0.016261643 -0.0025932605 -0.028519878 0.038142055 0.101844
-0.0002763145 0.1146481 0.04268727 0.03475326 -0.03923119 0.07771298 -0.010892858 0.015413993
0.10017689 0.058384765 -0.03856974 -0.04094861 0.14089419 0.045787957 -0.06669479 0.031422783
-0.028156321 0.027326953 0.034574777 -0.14380623 -0.013442693 -0.0005858807 -0.02959262 0.02250929
-0.05986225 -0.049915716 -0.1180846 0.07582701 0.02753539 0.0714795 0.028123928 0.008973251
0.006813518 0.04712488 0.06293246 0.02345389 -0.047851373 4.9295337e-05 -0.054432504 -0.005800879
-0.007724559 0.05728376 0.05494365 0.16491693 -0.003586898 0.088465184 0.05867763 -0.04752741
-0.019443654 0.010166472 -0.015430448 0.03800033 0.08316529 0.051082037 0.038058255 0.040543914
0.041276995 0.04791994 -0.021703092 -0.024403883 -0.072736084 -0.029683875 -0.022653395 -0.05604967
0.08972564 0.007714432 0.012387012 0.08174817 -0.019704813 -0.041666813 0.024672806 0.031029778
-0.12975445 0.0008376476 0.04677204 0.11401706 -0.06640721 -0.0025971856 -0.019164458 -0.092795625
-0.014868418 -0.05083029 0.06020254 -0.004916279 0.09792235 0.053847786 0.10568007 -0.060530167
-0.05502027 -0.08605862 0.033501778 0.020328997 -0.06771598 0.0004984918 0.030015578 -0.012940965
0.040291276 -0.0034825078 -0.034496352 0.10374778 0.07368306 0.004520902 -0.0035513495 0.05774292
-0.065535225 -0.026967116 0.03014749 0.02047804 -0.0038876603 -0.1500898 -0.025192771 -0.060765274

network_body._body_endoder.seq_layers.2.bias f4 [256]
00000000: 79f3 533b a0e9 813a 56e1 553b 9983 663a
00000010: 08a6 053b d36c d5ba 4f84 a73b 2ced b2bb
00000020: e6c0 103c a0af 613b efc3 5d3c 9f5a a63b
00000030: 26ed a03b 2f4a e63a 56b6 1a3b b36b 1d3c
00000040: 20b5 8a3c 11fc 723b 04ef af3b 32a6 4f3c
00000050: 1525 903a eaba 933b c235 123c 3637 ed3b
00000060: 8865 85bc 9992 77bc 9fef 403b 2ce3 b0bb
00000070: c1e9 fc3b ff62 a43b f223 263b 73df 34bc
00000080: 3102 283b 8953 d0bb 1abb 0eba 1d96 ec3b
00000090: 1228 9538 b420 463c 9645 bd3b 06ab 3a3c
000000a0: 8e52 bf3b e72a 3d3b 3583 133c 8ba0 b4ba
000000b0: a83d 913b d2f2 1d3c 1d03 223c 5fff 64bb
000000c0: 3d9c 343b 0f17 1f3c 46e5 533a 161b ab3a
000000d0: 6c68 dd3b 1446 043c 5918 86ba 6537 053b
000000e0: 2c3d 9b3b 0c4f a1ba 08e6 dc3b 4aa6 4a3b
000000f0: f63f 09bc f82d 533c 29f5 6a3c 6b7c e53b
00000100: 5fb8 40bb c67e e13b c818 143c a297 393c
00000110: 5219 bebb 8428 a1bb 7c98 85ba b166 48ba
00000120: 88eb ad3b d344 513b e0d3 d03b f788 d7bb
00000130: ec09 ff3b 628b 333b de90 ab3b c7d6 e43b
00000140: 8d4f 493b f12b 0d3c 33a5 993b 8d52 033b
00000150: 5e5a 86bb 6472 193b 2520 c03b 6e7b 0bbb
00000160: e61f e73a 09b9 deba 4318 69bb 1096 0f3c
00000170: 722a 213c 122f 963b f7b8 903c f23f 83ba
00000180: 368c 333c 00d1 443c 2d5c bebb 2b78 7dbb
00000190: 3d6f 863c 4afc dabb 8e3f 673b d88c 113a
000001a0: 0d77 7abb 626e 2b3b 1338 763c b54e 763b
000001b0: 18de 6d3b 5561 d1bb 2fb2 3e3b 56bb 05bc
000001c0: 14bf 753b a0db e53b 9697 463b 9f92 4e3b
000001d0: 62f6 0c3b 5e64 aaba 2f7a 90bb 6073 38bc
000001e0: e887 5db8 c631 003c d228 0f3b 0e01 cdb9
000001f0: 915d a93b f05d 1b3c 07a4 21bc 8735 f03a
00000200: 0320 1d3c e478 133c a916 563c d9e7 93bb
00000210: a2ac fc3a 40b4 6ebc 9770 973b aeec c43b
00000220: d909 e43b 3e28 103c fced b23a 5135 15bc
00000230: 2dd9 4c3c 2107 703a 737b 163c b088 9cb9
00000240: bcdb d33b 0ef6 e83b 54ac 58ba ba7a 2a3b
00000250: 4a2c 833b d581 893b bfa3 26b9 93c9 d4ba
00000260: 8e4a c83b 86cc 813b e706 00bb 9ae1 153c
00000270: 2da0 c63b e0f9 01ba 3a53 563c 82d9 b8bb
00000280: ec4a e2ba 62d1 d83b 5a65 6fba d9f0 463b
00000290: 5210 e73b 71bc 6c39 e202 a73b a029 47bb
000002a0: c954 0b3a 6af8 a0bb c47a 073c bdfa f03a
000002b0: 8dcb 043b e73c 533b 1aab e039 8139 91ba
000002c0: daa5 9dbb 5c35 4c3a dd1b 29ba 9747 273b
000002d0: 3c51 0bbc 4407 f63b 831f 703c 4eaf a23b
000002e0: 1a12 c23b 73dd 5e3b 8c4c 573a 8ad2 5bbc
000002f0: 0c0a 17bc 6db2 603a 82fe ed3b 91a8 4b3c
00000300: b28a bf3b 741d bb3b 2d0f 213a dfe2 62bb
00000310: da2e 763c 7f8e f23b 6cdb 58bb 1e70 dbbb
00000320: c458 933b 8f98 d33b de1e 233b a2e3 713c
00000330: 3176 b13a d037 e33a 744e 96ba 32de 8d3c
00000340: a46c d83b d579 633a c07e 8a3c f33f cc3a
00000350: 849d 333b 33f6 a23b e352 ddba 7f27 7b3a
00000360: 2545 203b ebf2 2639 ae12 553c 8760 863b
00000370: 1fef 413b 9a39 263b cb2a c3bb 83cc db3b
00000380: df33 51bb b422 77bc 83e2 143c 1762 ddba
00000390: 6f44 6a3a 9e2d 84bb 516b ad3b 606e afbb
000003a0: 8419 e839 8514 9abb f5e2 64bb 2a35 ef3b
000003b0: 9954 d93b d03b 623b 2bc9 9cbb a20a b3ba
000003c0: 94ff 8b39 8d0b 403c f839 de3b 0eca bb3b
000003d0: 5ae5 883c ae01 693c e4eb 6dbb 08d7 6c3a
000003e0: 905a ca3a 7fcc d93b f17e f63b 14fd 7c3b
000003f0: fac5 15bc e5f9 b43b 92b3 843b f76e 1d3c
0.0032341166 0.0009911545 0.0032635531 0.0008793413 0.0020393152 -0.0016283042 0.005112208 -0.005460402
0.008835053 0.0034436956 0.013535484 0.005076721 0.004911083 0.0017569716 0.0023607216 0.009608197
0.01693207 0.0037076513 0.005369069 0.012673901 0.001099738 0.004508366 0.00892395 0.0072392477
-0.016283765 -0.015110635 0.00294397 -0.0053981747 0.0077182953 0.005016684 0.0025351015 -0.011039603
0.0025636072 -0.0063576144 -0.00054447504 0.0072200433 7.112337e-05 0.012092758 0.0057761176 0.011393314
0.0058386987 0.0028864683 0.00900345 -0.0013780756 0.004432399 0.009640412 0.009888438 -0.0034942252
0.0027558946 0.009710087 0.00080831756 0.0013054337 0.006756833 0.008073349 -0.0010230645 0.0020327207
0.004737517 -0.0012306883 0.006741289 0.003092187 -0.008377066 0.012889378 0.014340677 0.007003357
-0.0029406769 0.0068815676 0.009039111 0.011327656 -0.0058013583 -0.00491816 -0.0010192539 -0.0007644697
0.0053076185 0.0031931892 0.0063729137 -0.006577607 0.007783165 0.002739631 0.0052357754 0.0069836113
0.0030717582 0.0086164335 0.0046888827 0.0020038218 -0.004100128 0.002341413 0.005863207 -0.0021283287
0.0017633408 -0.0016992401 -0.003556744 0.008763805 0.00983678 0.004583248 0.017666323 -0.0010013564
0.010958722 0.01201272 -0.005809328 -0.0038676362 0.016410464 -0.006682907 0.0035285684 0.00055522984
-0.0038217932 0.0026158323 0.015028018 0.0037583534 0.0036295708 -0.0063897767 0.0029097905 -0.00816234
0.0037497925 0.0070147067 0.0030302755 0.0031520498 0.002150916 -0.0012999882 -0.0044090967 -0.011257976
-5.281708e-05 0.007824367 0.00218444 -0.00039101433 0.0051686247 0.009482846 -0.009865767 0.0018326499
0.009590152 0.009000991 0.013066926 -0.0045137224 0.0019277523 -0.014569342 0.004621576 0.0060096597
0.0069591817 0.008798657 0.0013651247 -0.00910695 0.012502951 0.0009156336 0.009184706 -0.0002985648
0.0064654034 0.00710941 -0.0008265425 0.0026013092 0.0040030824 0.0041963854 -0.00015891994 -0.001623439
0.0061124032 0.0039611487 -0.0019535364 0.009148026 0.006061575 -0.0004958194 0.013081366 -0.0056411633
-0.001726476 0.0066167573 -0.0009132229 0.0030355959 0.007051506 0.00022576914 0.005096779 -0.00303898
0.0005315063 -0.0049124258 0.008269016 0.0018385273 0.0020262927 0.0032232346 0.0004285209 -0.001107976
-0.004811031 0.00077899336 -0.00064509903 0.0025524849 -0.0085032545 0.0075081903 0.0146559505 0.0049647456
0.005922568 0.0034006506 0.00082130055 -0.013416896 -0.009218704 0.00085715094 0.0072630057 0.012430326
0.005845391 0.005710298 0.0006143924 -0.003462009 0.015025819 0.0074022408 -0.003308977 -0.006696715
0.0044966657 0.0064573954 0.0024890224 0.014763745 0.0013539252 0.0017335359 -0.0011467473 0.017317865
0.006604748 0.0008677517 0.016906142 0.0015583023 0.002740712 0.004973197 -0.0016885664 0.00095807755
0.0024455276 0.00015921488 0.013004942 0.0041008624 0.002959199 0.0025363923 -0.005956029 0.0067077293
-0.0031921787 -0.015083957 0.009087208 -0.0016890195 0.0008936589 -0.0040337583 0.005292334 -0.005353734
0.000442695 -0.004702153 -0.0034925316 0.007300039 0.0066323993 0.0034520514 -0.0047847233 -0.0013659785
0.00026702567 0.011721504 0.0067818128 0.005730874 0.016710926 0.014221592 -0.0036303932 0.00090347277
0.0015438367 0.0066466923 0.007522457 0.0038602995 -0.00914144 0.005522954 0.0040497268 0.009608976

action_model._continuous_distribution.log_sigma f4 [1, 6]
00000000: 5cb8 5dbe 19f8 95bc 11f1 163d 9707 0f3d
00000010: cc7f f33c 1ff3 fc3c
-0.21652359 -0.018306779 0.036850993 0.034919348 0.029724024 0.030877648

action_model._continuous_distribution.mu.weight f4 [6, 64]
00000000: bf92 1bbe c304 2fbd 3b78 cbbd 1c69 26bd
00000010: a50e 15be 76c5 2b3d d3fe 243e b653 673e
00000020: b2d4 bf3d 8e61 aebd 3362 d63d 500f d6bd
00000030: 4027 24bc 9c0b 71bc 2607 583d 702d e23c
00000040: ca81 2fbd 4cfd b63d 0570 6cbd 401b 3b3d
00000050: 9cf1 e53d 6194 573c fd08 803c 585f efbc
00000060: 46de 253b 6386 15bd c68b 553d 488d 033d
00000070: fa3c ac3d 4e3a a73d bc38 0c3e 6d52 b9bc
00000080: e802 b73b db6f bd3d 0355 7b3b 3c9f 253d
00000090: 9d79 b3bd 0074 3dbe fb9f 4a3d c72b 8b3b
000000a0: 6097 183d ff8f 94bd f8a1 3b3d 39af 9fbc
000000b0: c174 ddbd 3008 1ebc 6a34 bc3d 0165 86bd
000000c0: feae eabd f718 b93d 99c0 44bd 5e0b 963d
000000d0: f40e 93bc 9ac7 253d 6c31 0d3c 9b35 1bbc
000000e0: 2d4c 473e 9f4a 933d 863b 8abd adbd aa3c
000000f0: 54fc 6f3d 3f33 40be 840d 1dbc 4b35 14bd
00000100: 8cfa 5b3b fb6f b83c ee94 823d b6bc 4ebd
00000110: 08c8 de3d a262 183d 78e1 c9bd b17e 293b
00000120: 4e3c 823d 956c a23b aac6 cb3d 5972 b6bd
00000130: 0b86 13bd 5a24 10be 5adc 82bd 360d d53d
00000140: 04a3 233d 97d4 ab3c c2c2 a83c 4ab8 663d
00000150: 8177 a13b 7e28 823c 10fc b4bc 2ac8 6b39
00000160: 8fb9 7f3b eb75 f5bc c5b6 93bd 2a60 973c
00000170: 59d4 833c 321d b4ba 7e7a 483c 2e19 bf3c
00000180: 675d a4bd e612 d43b 5169 9dbd 3121 9c3d
00000190: b2f5 f4bd 7b40 a1bc e85b cc3d ad70 543c
000001a0: 60ab 0d3e 5ef5 d5bd 8526 05be 9f89 86bc
000001b0: bd6a 64bc 0e36 1d3d ec3a e4bc 2535 913c
000001c0: acc0 7ebc bc04 4e3c d949 12bd f818 823c
000001d0: 2076 31bd 7999 a1bc f60b 293d 42c1 41bd
000001e0: 935e 423d d8ac 213d 2c13 eb3c 4ec1 043d
000001f0: 2b7b 81bc d573 a3bd 3112 b6bb ac91 0dbe
00000200: 5f70 cf3b 2722 4fbd b61a 9d3c 77b5 393c
00000210: 4763 893b 16c8 2a3c 8453 e93c 93a9 913b
00000220: 62a9 383c 92f9 993b 8dbe 5dbd 3fed e53c
00000230: 2d05 f6ba 4dd6 473d 9d13 8c3d 46d0 23bc
00000240: 7b62 373c a82d a7bc 6cfc de3c 10fd 45bd
00000250: 366a 75bd 7559 583c 685d 483c ab90 5d3c
00000260: b407 adb9 843d 933c 61f4 39bd 9774 01bd
00000270: fe90 1f3d ef88 223c f34e 3b3d e6a1 ee3c
00000280: 1bbb 52bd 5a97 253c 7a02 02bd 4ad0 1fbd
00000290: 0a1e 1cbd a064 cd3c 823f 713d 6d59 00bd
000002a0: 2fd3 253d 6f81 6abd 3fd4 e7bc 4aef 383c
000002b0: 5ec8 303d f47f a53b a0e2 993d 85ad e8bc
000002c0: a664 9cbc 277c 103d 839c 793d 4905 f4bb
000002d0: 2aa6 383d a4cf e83c a6e1 bcbc 3bc2 c63c
000002e0: 9524 f0bc 299d 003c 7179 fbbc 251d 74bc
000002f0: 7bf5 24bd 61ef 3ebc a331 103d 8ead 39bc
00000300: 2fff 1cbd 13a9 73bb 0e79 6d38 ff2e df3b
00000310: 6a86 a43b aeec e6bc 0379 c13c 3c67 bfbc
00000320: 2ed1 2cbc 362a 6ebd 64f5 1cbd d6b6 f7bc
00000330: 4ca1 2b3c 8901 cc3c d80d 0a3d fec9 b3bb
00000340: eeba 833c 2465 37bd 036e ab3b 4366 1cbd
00000350: 5bcd 743d b4d4 2f3d ca1b ed3a a92c 2ebd
00000360: 6684 a33c b1bd ea3c c0fc a03c 4970 aabc
00000370: 1e8b 16bc 0793 203d ead5 983c 3ef5 633d
00000380: 8442 193d 914b 3e3d e313 73bc 46eb 193d
00000390: b9cf 423d aa65 59b9 0a70 12bd 1f6e 003d
000003a0: 2810 adbc 8567 1a3d abd6 4c3d a8e5 093d
000003b0: fbe5 103b dd3e 49bd ac30 773d 53e1 513b
000003c0: dc0d b4bc fe17 063d d691 f5bb 9e8b 6e3c
000003d0: f65c 84bc 9265 80bd b85a c8ba 2011 c1bc
000003e0: 3877 c6b9 4659 9fbc 2ccb 0c3c 2b05 1e3c
000003f0: 9cb4 803c 2964 07bd 0620 e0bc 43e4 cfbb
-0.15192698 -0.04272915 -0.099350415 -0.040627584 -0.14556368 0.04193636 0.16112833 0.22590527
0.0936674 -0.08514701 0.10467949 -0.104521394 -0.010019124 -0.014712241 0.052741192 0.027609557
-0.042848386 0.08935031 -0.057724018 0.045680285 0.11227724 0.013157935 0.015629286 -0.029220268
0.0025309487 -0.036505114 0.05213525 0.03211716 0.08410068 0.081654176 0.13693517 -0.022622311
0.0055850632 0.0924985 0.0038350231 0.04043506 -0.0876343 -0.18501282 0.049468976 0.004247162
0.037253737 -0.072540276 0.045808762 -0.019492732 -0.10813285 -0.009645507 0.09189685 -0.06562234
-0.11459158 0.09037965 -0.048035238 0.07326387 -0.017951466 0.040473558 0.00861774 -0.00947323
0.19462653 0.07191967 -0.067496344 0.020842398 0.05859025 -0.18769549 -0.009585742 -0.036183637
0.0033566086 0.022514334 0.06376062 -0.050472938 0.10877997 0.03720344 -0.09857458 0.0025862867
0.063591585 0.0049567916 0.099500015 -0.08908529 -0.036016505 -0.14076367 -0.06389685 0.104029104
0.039950386 0.020975394 0.02060068 0.056328095 0.004927576 0.015888449 -0.022092849 0.00022485913
0.0039020514 -0.029963454 -0.07212595 0.018478472 0.016092466 -0.0013741611 0.012236236 0.023327436
-0.080256276 0.0064719794 -0.07686103 0.07623518 -0.11960925 -0.019684067 0.09978467 0.012966317
0.13834906 -0.10447191 -0.13002975 -0.016423045 -0.013941464 0.03838163 -0.027860127 0.017725537
-0.015548866 0.012574371 -0.035714958 0.015881047 -0.043325543 -0.019726502 0.041271172 -0.047303446
0.047453474 0.039471477 0.028695665 0.032410912 -0.015805801 -0.079810776 -0.005556368 -0.138251
0.0063305344 -0.05056968 0.019177776 0.0113347685 0.004192743 0.010423681 0.028482206 0.0044452637
0.011270853 0.0046989406 -0.0541368 0.02806723 -0.0018769853 0.048788358 0.068396784 -0.009998387
0.011192913 -0.020407513 0.027219974 -0.048337042 -0.059915744 0.013204922 0.012229301 0.013523261
-0.0003300287 0.017973669 -0.045399074 -0.03160533 0.038956635 0.009920343 0.04572959 0.029129934
-0.05144797 0.010106886 -0.031740643 -0.039017 -0.038114585 0.025072396 0.058898456 -0.031335283
0.040484603 -0.057252344 -0.028299449 0.01128752 0.043159835 0.0050506536 0.075139284 -0.028403053
-0.019090962 0.03527465 0.060940277 -0.007446919 0.04508034 0.028419323 -0.023056816 0.024262538
-0.029314319 0.00784997 -0.030697556 -0.014899527 -0.04027317 -0.011653752 0.035203587 -0.011332883
-0.0383293 -0.0037179634 5.6617944e-05 0.0068110223 0.005020906 -0.02818903 0.023617273 -0.023364656
-0.010547919 -0.058145724 -0.03831996 -0.03023855 0.010475468 0.024903076 0.03370461 -0.005486726
0.016080346 -0.04477419 0.0052316203 -0.038183462 0.059766155 0.04292746 0.0018089947 -0.04252306
0.019960593 0.028654905 0.01965177 -0.020805495 -0.009188442 0.039202716 0.01865669 0.055653803
0.03741695 0.046458784 -0.014836284 0.03757789 0.04756138 -0.00020732605 -0.03575138 0.03135502
-0.021125868 0.03769638 0.05000941 0.033666283 0.0022109735 -0.049132217 0.06034915 0.0032025173
-0.021979265 0.032737724 -0.0074941916 0.0145596545 -0.016157608 -0.06269373 -0.0015285825 -0.023567736
-0.00037854328 -0.019451749 0.008593362 0.009644787 0.015711121 -0.033054505 -0.02735902 -0.0063443496

action_model._continuous_distribution.mu.bias f4 [6]
00000000: 28da 843c 4089 6f3c 41b5 063b 5f4d f7bb
00000010: 03e4 5bbb d679 fe3b
0.016217306 0.014620125 0.0020554813 -0.007547065 -0.0033552654 0.007765989

onnx::LSTM_101 f4 [1, 256, 256]
00000000: ed3f f7bb 9f96 5bbd b20f 123d 3e33 cbbd
00000010: 9c6e f23d 68b0 873d a635 153c 3fdb f0bd
00000020: a5a1 a4bd 6b06 e0bc bdfc 27bd 7120 f63d
00000030: 2014 cebd 68b7 103e 621b f63c 8a8a fbbd
00000040: 9a86 a8bc bb2f 903d e816 0d3e f073 14be
00000050: c9c6 9abc 39fe 913c 0caa 6f3d 1baa ec3c
00000060: 5a2a 1cbe 59c8 19be 9447 a03d 7ea9 1ebd
00000070: 7647 593d ee5a a5bd 4ed0 d83d 1827 85bc
00000080: 17dc debc b578 fb3d fa20 11be 04b4 fa3d
00000090: f4f8 c93a 1bea 813d b3ba b53d 9a02 ee3d
000000a0: 3b4f 933d d303 ac3d b2bd cebc a266 c8bd
000000b0: 6eee c6bc ab1b f3bd b63d a93d 27bf 1c3e
000000c0: e364 b4bd b3c7 02bd d28c d4bd 0a57 d8bd
000000d0: 3ff0 1abd c252 243d 51a0 92bd 1733 103e
000000e0: 3913 7bbd 5963 01be 9d8e b9bd d48f 88bd
000000f0: 8d80 20be 1295 14bd 04f0 043e cb48 a8bd
00000100: 7c91 bc3b e9ef 96bd 4655 293d 31fe c4bc
00000110: 5076 8c3d b9c0 113b 4b33 1fbd ee1f ebbd
00000120: 430b 543d 91c3 253d 7bd6 5cbd aa16 453d
00000130: 5557 1e3d e8f6 043e ac9e 173d 1846 fc3c
00000140: a573 01be 5948 433d 163f e93d 1a43 a73d
00000150: 4a3f a2bc 2af4 8abb 46fa bf3d 72cc 0c3e
00000160: d84d bebd 31c4 573a ee6f 46bd 1fb8 ae3d
00000170: 2d52 ad3d c5d2 693d de1c e33d aa4d e7bc
00000180: 7b74 07bd b42e 753d c70c 1dbe d61c cabd
00000190: 9092 0bbc 80e7 d5bc 72d4 3a3d f706 533c
000001a0: 8ff9 9fbd ce60 243e 70c4 aa3d eeb6 b33d
000001b0: 561a d1bd 7070 993d a76b 163d 58e9 dfbd
000001c0: fffa 8b3d 5b89 173d 58d1 f63c c95b 213e
000001d0: 939c 7a3c b48d 24be fae4 adbd bd76 7cbd
000001e0: c303 cd3d 7bc9 f7bd 1673 7f3d 64c0 afbd
000001f0: 3ab0 4dbd 2934 eabd 5951 91bc 6ae7 4bbd
00000200: 4c1e afbd 6c6f 00bc 5117 f53d ac28 89bd
00000210: 16b6 743c 6ec1 8a3d bdb8 333d 701a e83d
00000220: 73b4 c83d e843 d43d 5015 f23d 80cb 063e
00000230: a19b b83c 01e8 c2bc bce0 8f3d 3215 6a3d
00000240: 3e64 c93c c14b e83d 9110 36bc 8ab6 783d
00000250: 7988 7fbc 3efd 92bd 72aa 553d 6ef3 99bd
00000260: 3dad f73d 83a0 083e 26da b03d 559f babc
00000270: bfc5 69bd 9e63 bbbc 9014 88bd 1c24 f9bd
00000280: d40d 283d f3f2 e3bc 3531 b4bd 10d6 e9bc
00000290: b3e2 1b3e 9876 88bd c295 993b a158 703c
000002a0: a720 2f3d a52a 463c 9daf 98bd 6144 cc3b
000002b0: 5664 00bd ab75 d5bd 5d55 f63d 5b87 1a3e
000002c0: 082e eebd 92f2 1dbd 8f50 b6bc 7f28 0c3e
000002d0: 5b4c 8b3d a7a2 693d 9b50 c13b 2bc9 1cbe
000002e0: f9e9 ccbd 0e5a 5d3d 5dcb 0bbe 842e 7dbd
000002f0: c9bb 353d 0342 053d c495 e03d 7272 c83c
00000300: b3f0 833c 14f2 3f3d 2f66 d23d bdaa e83d
00000310: c232 7e3d 6243 c43d 2054 63bc 4e78 b33d
00000320: 20d3 87bd 3342 0dbe 2308 a23d 2571 e6bd
00000330: a910 383d 8c99 2fbd 1632 c23c 5408 02be
00000340: f834 d03d 0769 b6bc 66f6 273e 41ac 6dbc
00000350: d088 dcbd ede9 cb3c 5f2a 503d 3dcb 07be
00000360: 9c28 443d e5d5 e73b de1c fc3d adcc 9ebc
00000370: 556b 7c3b 7bbe 43bd 6b81 81bd 3fdb 89ba
00000380: c500 153e e002 e4bb e4c9 a43d baab 27ba
00000390: b255 b93d f03e 813c fe74 793d 52ee b63b
000003a0: fb30 8dbd 57df 3dbd e81d 0b3c efb4 1fbe
000003b0: 567c 36bd f5d7 c4bd 45f4 d6bd 8c82 88bd
000003c0: 5dad ebbd f710 42bd 596f 12be 29c9 66bc
000003d0: e033 00bd 66b7 e83d 2d8e da3d f573 d3bc
000003e0: 1390 133d fbb9 a53d b3ff 7dbd 9d90 e83d
000003f0: 7935 13be 0aac e93d 86f8 8e3c eef8 313e
-0.0075454623 -0.05361044 0.0356595 -0.09921883 0.11837503 0.06625444 0.009107029 -0.11760568
-0.08038644 -0.02734681 -0.041012514 0.120179065 -0.10062432 0.14132464 0.030042354 -0.122822836
-0.020571996 0.07040354 0.1377827 -0.14497352 -0.018893616 0.017821418 0.05851178 0.028889706
-0.15250531 -0.15017833 0.078261524 -0.03873586 0.053046666 -0.08073984 0.10586606 -0.016253993
-0.027204556 0.122788824 -0.14172736 0.122413665 0.0015409277 0.0634348 0.08873501 0.1162159
0.071928464 0.08399167 -0.025236938 -0.09785201 -0.024283614 -0.118705116 0.082637236 0.15307294
-0.08808305 -0.03192873 -0.10378422 -0.105634764 -0.037826773 0.040117987 -0.07159484 0.14081989
-0.06129763 -0.12635554 -0.090604044 -0.06668058 -0.15674038 -0.036274977 0.12982184 -0.08217009
0.005754648 -0.07369978 0.04134109 -0.02404699 0.06858504 0.0022240116 -0.038867276 -0.114806995
0.051768553 0.04046971 -0.053915482 0.048117317 0.038657505 0.12984812 0.037016556 0.030795142
-0.12641771 0.047676418 0.11388986 0.081670955 -0.01980557 -0.0042405324 0.09373908 0.13749865
-0.09292191 0.0008230834 -0.04844659 0.08531212 0.084629394 0.05708577 0.1108949 -0.028235275
-0.03307007 0.059858993 -0.15336905 -0.09868781 -0.00851883 -0.026111364 0.04561276 0.0128800785
-0.078112714 0.16052553 0.08338249 0.087751254 -0.10210101 0.07492149 0.03672376 -0.10933179
0.06834983 0.036996227 0.03012912 0.1575767 0.015296119 -0.1606968 -0.084909394 -0.061636675
0.10010483 -0.12098976 0.062365614 -0.085816175 -0.05021689 -0.1143573 -0.017738985 -0.04978124
-0.085507005 -0.007839065 0.11967338 -0.06697211 0.014935991 0.06775175 0.043877352 0.113331676
0.09800043 0.103645146 0.11820471 0.13163567 0.022535147 -0.023792269 0.070252866 0.05714912
0.024583932 0.11342574 -0.011112348 0.060720958 -0.015596502 -0.07177208 0.052164502 -0.07517134
0.120935895 0.1334248 0.086353585 -0.022781054 -0.05707335 -0.02287465 -0.06644547 -0.121650904
0.041028813 -0.027825808 -0.08798448 -0.028544456 0.15223198 -0.06663245 0.004687042 0.014669568
0.04275575 0.012095128 -0.074553706 0.0062337373 -0.031345688 -0.10422834 0.120280005 0.15090697
-0.116298735 -0.03856141 -0.02225521 0.13687323 0.06801673 0.057039883 0.0058995015 -0.15311114
-0.10005564 0.05404096 -0.13651796 -0.06181194 0.04436854 0.032533657 0.109660655 0.024468634
0.016105985 0.046861723 0.10273396 0.11360691 0.062060125 0.09583165 -0.013875037 0.08763181
-0.06632066 -0.13794784 0.07911708 -0.11252049 0.044937763 -0.042871043 0.023705523 -0.1269849
0.10166353 -0.022266878 0.16402587 -0.014506401 -0.107682824 0.024891818 0.05082166 -0.13261123
0.04789029 0.0070750588 0.123101935 -0.019384706 0.0038516123 -0.04778908 -0.06323513 -0.0010517611
0.14551075 -0.0069583505 0.0804632 -0.00063961337 0.09049548 0.015777081 0.060902588 0.005582609
-0.06894108 -0.04635557 0.008491017 -0.15596364 -0.04455217 -0.09611503 -0.104958095 -0.06665525
-0.11507676 -0.04737946 -0.14300288 -0.014086046 -0.03129947 0.113631055 0.10671649 -0.025812129
0.03602607 0.080921136 -0.062011432 0.11355708 -0.14375867 0.11409767 0.01745249 0.17380115

onnx::LSTM_102 f4 [1, 256, 64]
00000000: a927 fb3d f952 7b3d 925d 353c 96e3 593d
00000010: 9267 06bd a5ee 26be 241f a13d 9d5e 243d
00000020: fea5 8b3e e2df 21be 1372 813e a9a4 07be
00000030: d469 06be 2244 0f3d add7 2bbe 6ce1 15bd
00000040: c8d8 c33d 4add 853d 303e 1f3e df5e 0dbe
00000050: 7a78 8cbb 553d 01be 91cf b5bd 8847 373e
00000060: 18d0 b0bd 755c 5bbe 6334 203e 0a27 593e
00000070: 38d7 18bd 7c44 123e 58cf 4e3e 4d55 523e
00000080: d035 2f3e bcfb 27be d971 51be 9a4c d03d
00000090: dc79 23be bdf6 32be 2017 543e b9ac a9bd
000000a0: db94 203d e947 e6bd 355d dd3d 7635 38be
000000b0: f42e 97bd b315 39be 4db5 333e 4918 12be
000000c0: 6572 b6bd 65b1 11be 8888 3c3d 008e 6abd
000000d0: d247 553c 5fba cd3d 93fa 3a3e 4779 1e3e
000000e0: de71 3c3e be21 9fbd d501 393e 3b51 0abe
000000f0: a6cd 3fbe 6fdb 72be 6fe3 a3bc 6614 263e
00000100: 15d9 1c3c bbd3 a53d b998 9bbc b99f 7c3c
00000110: e0cd 17be 8221 843d cc48 083e 0e42 3d3e
00000120: 2094 a4bb 812f 5f3e 9867 1ebe 27e4 383e
00000130: 88f7 fabd 58a7 3d3e 1022 01be 6530 1d3e
00000140: a2f8 433e af02 443e de09 473e bf93 c73d
00000150: 894f 4fbe a6a8 36be 4664 e53c 8ab0 813d
00000160: cd49 2f3e 58d6 6cbd 22df 423e f4da 213e
00000170: a3c0 7f3c 4b24 2e3e f47c 9bbd 4186 323e
00000180: e562 403e 1180 2bbe d12b c33c 3326 79bd
00000190: 7e2c 62be e21b 1a3c be66 5ebe cf4a 363d
000001a0: a4da d03d b638 69be e05f c73d 8102 adbd
000001b0: ecd2 20be 3866 7a3d 5ce4 1cbe fa95 2cbd
000001c0: 4218 333e 1364 ed3d ec64 ba3d 1ac8 42be
000001d0: 2f07 e4bc 13ff 41bb d04e 163e 7db8 28be
000001e0: bcf3 53be 0e5b 95bd c730 483d a410 d63c
000001f0: e8b3 e4bc fe4e 3d3e affb 18be d143 cebb
00000200: 0a6f 463e 3de7 55be b365 23bd 36c8 3ebe
00000210: f186 15be 5266 583d 0006 41be 4be6 52be
00000220: b1a2 b43d 912d 0e3e 0803 edbd d6d7 e8bc
00000230: fcda f23d f33f d23d 3981 d43c c1a9 4a3d
00000240: 5a7a 413d d036 603d 405c 3a3e b9d0 ddbd
00000250: 9adf 7d3d 78ef 733d 2065 a53d 7c18 fb3c
00000260: 28d6 1cbe 54ae 0d3e 24bc 19be 0c52 64be
00000270: bc28 0c3e 09cd 3b3b 6097 09bd 1ab3 453e
00000280: a991 73bd 1397 3e3d e1f7 34be 5d6d a3bd
00000290: e553 4e3d 0bba 2f3e 8c99 2d3e 003b 9a3d
000002a0: fadf 4e3e 6917 4abd 7d00 17be ce8b ffbd
000002b0: 39b2 48bc 5634 ba3d d17b 2e3e d858 d9bd
000002c0: 71cf 8cbd 711a 6f3e 131d 27bd d2fb 273e
000002d0: db7b 043d f8b1 d03d fa0e efbd 4a37 613e
000002e0: 759c e4bc bc11 13be 0835 7dbc 1f83 d73c
000002f0: b153 2abe 05cd 00be cfbb bdbc 8977 05bd
00000300: a998 12bd 9fa9 633d ff60 773d 7f4a 833c
00000310: 000f 5e39 f596 54be 5620 aabd f050 4e3e
00000320: 3815 553e 3084 993d 5c12 f63c 1ad3 da3d
00000330: f9d1 36bd bf95 debc f5b2 8fbd 7c93 82bc
00000340: 4f6f 20be 6e09 4a3e a03a 23be a3bd 8dbd
00000350: 94b1 013c be30 543d 8299 983d 2829 b33c
00000360: 3e1d 99bd fe15 d13d 5f10 1bbe cdf9 93bd
00000370: be70 2ebe 3a50 a23c f6a1 03be b315 453e
00000380: 6a9e 17be 7131 c83d 3f44 3abe 3684 b93d
00000390: 5f2b ce3d e578 bc3d c084 54be 8a77 d0bc
000003a0: bb20 953d d768 56bd 0860 ab3d 03a8 953d
000003b0: 8bba 20bc 0e4a 28be 8328 4e3e 46d5 f43d
000003c0: 6ea8 b33d 57a2 063e 537c 2abd 0bc0 8f3d
000003d0: 16bf fd3d 4719 d03d 6b6b 0ebe 8d7b 5abe
000003e0: 9f34 0e3e 1336 0d3d a294 3f3e d7e3 c9bd
000003f0: b759 be3d 20ce 343e ecda 27be e20b 8dbd
0.12263424 0.061358426 0.011069672 0.05319556 -0.032813616 -0.16301973 0.07867268 0.040129293
0.2727508 -0.15808061 0.25282344 -0.13246407 -0.13126308 0.034977086 -0.16781493 -0.036591932
0.09562832 0.06536348 0.15551066 -0.13805722 -0.004286823 -0.12621053 -0.08877481 0.17898381
-0.08633441 -0.21421988 0.15644984 0.21206298 -0.037314624 0.14283937 0.20196283 0.20540352
0.17110372 -0.16404623 -0.20453586 0.101708606 -0.15964454 -0.17476936 0.20711946 -0.08284897
0.03920446 -0.112441845 0.108087935 -0.17989144 -0.073820025 -0.18074684 0.1754963 -0.14267077
-0.08908538 -0.14227827 0.046028644 -0.057264328 0.013017612 0.10045313 0.18259649 0.15475951
0.18402812 -0.07770108 0.18067105 -0.1350755 -0.18730792 -0.2371652 -0.02000591 0.16218719
0.009573241 0.08097025 -0.018993722 0.01541894 -0.14824629 0.064517036 0.1330902 0.18482229
-0.0050225407 0.21795465 -0.15469205 0.18055783 -0.12254244 0.18520868 -0.1261065 0.15350492
0.19137815 0.19141649 0.19437358 0.09744977 -0.20245184 -0.17837772 0.028001916 0.063325
0.17117997 -0.0578216 0.19030431 0.1580618 0.015609893 0.17006032 -0.07592192 0.17434026
0.18787725 -0.16748072 0.023824604 -0.060827445 -0.22087285 0.009406062 -0.2171888 0.044504937
0.101979524 -0.2277554 0.097350836 -0.08447743 -0.1570546 0.06113264 -0.15321487 -0.042135216
0.17489722 0.11591353 0.091012806 -0.19021645 -0.027835457 -0.00296015 0.14678502 -0.16476627
-0.20698446 -0.07292758 0.048874643 0.026130982 -0.027917817 0.18487164 -0.1493976 -0.0062947054
0.19378296 -0.20888992 -0.03989191 -0.18631062 -0.14602257 0.052831955 -0.18849945 -0.20595662
0.088200934 0.1388457 -0.11572844 -0.028423231 0.11858174 0.102661036 0.025940524 0.049478296
0.047235824 0.054739773 0.18199253 -0.10830826 0.06198082 0.059554547 0.08075929 0.030651323
-0.15316069 0.13836032 -0.15013176 -0.22296923 0.13687414 0.0028656146 -0.033591628 0.19306603
-0.059465084 0.046530794 -0.17672683 -0.07979844 0.050372977 0.17160814 0.16953105 0.075307846
0.20202628 -0.049338732 -0.1474628 -0.124778375 -0.012249523 0.090920135 0.1703942 -0.10612649
-0.06875504 0.2334993 -0.04079921 0.16404656 0.03234468 0.10190195 -0.116727784 0.21993747
-0.027906636 -0.14362234 -0.015454538 0.02630764 -0.16633488 -0.12578209 -0.023160843 -0.0325847
-0.03579012 0.055581685 0.060395237 0.016026733 0.00021177158 -0.2076071 -0.08306949 0.20148063
0.20808876 0.07495916 0.030038051 0.10684796 -0.04463384 -0.027171014 -0.07016555 -0.015939467
-0.15667461 0.1973016 -0.15940332 -0.06920936 0.007915873 0.051804297 0.07451154 0.02187021
-0.07476281 0.10209273 -0.15142964 -0.0722538 -0.17035195 0.019813646 -0.12854752 0.19246559
-0.14806524 0.09775055 -0.18190096 0.0905842 0.10066866 0.09202746 -0.20753765 -0.025447626
0.072816335 -0.052346077 0.08367926 0.07307436 -0.0098101 -0.164345 0.20132641 0.11954741
0.0877236 0.13147865 -0.04162247 0.07019051 0.123899624 0.10161071 -0.13908164 -0.21336193
0.13887261 0.034475397 0.18709043 -0.0985791 0.092944555 0.17656755 -0.16392106 -0.06887032
