code/selfparking/mla/results/test_26/Car/Car-11755.onnx (onnx, 709388 bytes, 9 tensors)

network_body._body_endoder.seq_layers.0.weight f4 [256, 108]
000000 7a 87 35 bd 01 3e 15 bd 6e e4 c6 3c 9e 3a 96 bd
       -0.044318654 -0.036436085 0.024278846 -0.07335399
000010 22 34 12 be b1 15 46 3b 09 b5 09 be e7 18 cf bc
       -0.142777 0.0030225331 -0.13447966 -0.025280429
000020 b9 79 9e 3c 72 ad 3e bd f4 9d ce bd 1c 7d 61 3b
       0.019345151 -0.04655213 -0.10088721 0.0034406846
000030 0e fa a2 ba 06 f9 46 bd c2 69 21 be b6 dc 12 be
       -0.0012434141 -0.04857733 -0.15763 -0.14342007
000040 a2 74 87 3d 89 7b 20 3e f1 83 67 3e 8e 3b 31 be
       0.06614043 0.15672125 0.22608925 -0.17307875
000050 93 e4 fe 3d 2c 13 33 3d e7 b1 91 bc f2 6c 11 3e
       0.12445941 0.043719456 -0.017785026 0.14201716
000060 dd 21 a4 3d d0 fc 3a 3c c6 8b b2 3c 18 7a b5 bc
       0.080142714 0.011412814 0.021795165 -0.022152945
000070 11 c4 5c bd e2 d3 42 bd c1 06 7c bc 42 9c c1 bd
       -0.05389792 -0.04756535 -0.01538247 -0.09453632
000080 fb 3f 78 3d f2 31 14 3d d8 eb 7c 3d bf fb 16 3d
       0.06060789 0.036180444 0.061748356 0.036861178
000090 4f 5b 2e 3e 3e 77 4b 3d 47 c7 65 bd 4f 86 20 3b
       0.17027019 0.049674265 -0.05609825 0.0024494117
0000a0 bb f2 90 bc b8 0b 33 bc db 87 c5 bd 1a c0 80 bd
       -0.017693868 -0.010928087 -0.09645053 -0.062866405
0000b0 9e 22 7c 3d 9e 80 87 bd fc c4 95 bc 83 f8 97 3d
       0.06155645 -0.06616329 -0.018282406 0.07420447
0000c0 2b a3 4f 3e ae c7 fb 3c b7 dc 81 3b a5 d7 c0 3d
       0.20277087 0.030734863 0.003963079 0.09416131
0000d0 15 78 3b bc f2 de cf 3d 65 94 a1 bc fe 12 df bd
       -0.011442204 0.10149945 -0.01972408 -0.10892294
0000e0 ff 13 5e 3b c1 00 49 bd a7 13 38 3b 94 56 35 bc
       0.003388643 -0.049072985 0.0028087886 -0.011068005
0000f0 8a 3e 48 3e 71 bb 02 3e 45 25 73 bd ba 41 94 3c
       0.19555107 0.12766816 -0.059361715 0.018097747
000100 3e 23 1f bd ac 5c 76 3d 75 46 06 3e 06 b4 a8 3c
       -0.03885197 0.060146973 0.13112815 0.020593654
000110 f0 1b 5d bd 76 e1 a1 bd fe 54 05 bb 45 31 95 3a
       -0.05398172 -0.079043314 -0.0020344849 0.0011382481
000120 7d 9e f0 bd fd 6c ba 3b f4 f2 0b 3e 95 e9 c4 bd
       -0.11748979 0.005689262 0.13666898 -0.09614865
000130 5e 35 92 3d 65 0f 21 be 8e fb 79 3d 9f cd 36 3e
       0.07139085 -0.15728529 0.061030917 0.17851876
000140 ba 34 7e 3d 07 50 0d bc a2 97 f1 bd 14 38 9d bd
       0.062062003 -0.008625037 -0.117965 -0.07676712
000150 38 06 83 3d 9d c0 75 be 6b b4 14 3e 01 4f aa 3c
       0.063976705 -0.23999257 0.14521949 0.020789625
000160 d4 af f2 3c e1 7e db bd f2 2d ab 3c 68 19 a9 3c
       0.029624857 -0.107175596 0.020895932 0.020641997
000170 c4 1f 96 bd 6e 16 03 be 0c b0 77 bd 2b 85 62 3d
       -0.073302776 -0.12801525 -0.060470626 0.05530278
000180 5f 30 e9 3d 9a 2b 8e 3d f5 22 10 bd 78 cc a7 3d
       0.11386179 0.0694191 -0.035189588 0.08193296
000190 84 ce 13 3d c1 8f aa 3c 91 0b f2 3c 4e 03 5d 3e
       0.03608562 0.0208205 0.02954653 0.21583292
0001a0 95 87 eb bc ae 1e 1f bd 42 49 e8 bc c5 5a eb 3d
       -0.028751174 -0.038847618 -0.028355245 0.11491922
0001b0 a9 d8 a2 bd 63 71 e6 bd 7b 9f 68 3d b4 c6 29 bd
       -0.07951481 -0.112520956 0.056792717 -0.041449264
0001c0 f0 a6 b4 3d b8 d0 69 3d 1e f7 f1 3d 74 54 0b be
       0.08820903 0.057083815 0.11814712 -0.13606435
0001d0 f5 5f f7 bc 69 ab 95 3c a1 e1 85 3d 56 ab cc bd
       -0.030197123 0.018270211 0.06537176 -0.09993617
0001e0 1c 2a 93 3d 4b 28 f7 bb a6 84 25 be 11 36 3a 3d
       0.07185766 -0.007542645 -0.16163883 0.045461718
0001f0 3a fb 88 3d 56 81 43 bc b2 e8 61 3d d8 0f 00 bd
       0.06688543 -0.011932692 0.055153556 -0.03126511
000200 f0 6f 92 3c ea 01 52 3d 9f 78 f7 3d a8 7e db bd
       0.017875642 0.051271357 0.120835535 -0.10717517
000210 2f 8c 02 3e b1 db de 3b 74 81 8e 3c 49 20 f4 ba
       0.12748788 0.0068010916 0.017395712 -0.0018625344
000220 f5 d3 b9 3d 02 c3 3f 3e 78 f7 6a 3d e4 17 fc 3c
       0.09073631 0.18726733 0.05736491 0.03077311
000230 39 a1 60 bc 48 32 94 bc 69 f0 91 3c de 1b 3a bd
       -0.0137103135 -0.018090382 0.017814832 -0.045436732
000240 a7 a2 a8 3a 1a b3 ba bc bf bb b2 3d 7c 1b c7 bd
       0.0012865857 -0.02279048 0.08727216 -0.09722039
000250 a6 32 c1 bd e7 eb fb 3c 0c 1f 85 3d 9f d2 2c bd
       -0.094334885 0.030752135 0.06500062 -0.04219305
000260 33 f0 7f bb 7f 27 b2 3d ad 4a b0 3d c7 50 11 bb
       -0.0039053082 0.086989395 0.08607993 -0.0022173391
000270 41 f7 66 3a 84 6c de bc da ea 6e 3d 4a b0 ea 3d
       0.00088106474 -0.027151354 0.05832944 0.11459406
000280 d7 75 c1 3d b1 fd 90 bd 3e 99 96 bd 01 02 bc 3d
       0.09446304 -0.07079638 -0.073534474 0.0918007
000290 45 21 6b 3c f5 e0 52 be 4a a0 45 be 33 4f ab 3d
       0.014351194 -0.20593627 -0.19299427 0.083647154
0002a0 ff e8 9b 3d 13 6e 15 bd 21 a6 80 3d 14 f7 d4 3c
       0.076128 -0.036481928 0.062816866 0.025996722
0002b0 21 fc 28 3d 31 07 82 3e 63 b6 47 be 81 fe 43 3e
       0.041256074 0.25396112 -0.19503169 0.19140054
0002c0 8c 1a 51 bc 37 2a 09 bd f4 f6 22 bc e8 5e 91 bd
       -0.012762677 -0.033487525 -0.0099465735 -0.0709818
0002d0 da 27 33 bd 7b c9 f1 3d 44 a7 12 3d c7 53 55 bd
       -0.043739177 0.118060075 0.03580405 -0.05208185
0002e0 e8 d8 3d 3c 07 73 ce 3d aa 13 5f 3d 59 3e a5 bd
       0.011587359 0.100805335 0.054462112 -0.080685325
0002f0 bf b2 21 bd 85 f3 57 be 50 20 c3 3c ee a6 23 be
       -0.039477106 -0.21088989 0.023819119 -0.15981647
000300 c1 82 de bd 9c 6f 61 3c 15 1f 48 3e fe 36 0d be
       -0.10864783 0.01375952 0.19543107 -0.13790509
000310 96 fa d5 3d d9 03 67 3d bd 3b ba bd 3d 43 d2 bc
       0.10448186 0.056400154 -0.090934254 -0.025666827
000320 59 8e 00 3d e9 16 28 3d 29 d4 14 3d d9 70 62 3d
       0.031385753 0.041037474 0.036335144 0.0552834
000330 07 d4 ad bc ad 39 24 bc 45 a5 00 bb 4a 02 12 be
       -0.021219267 -0.010023517 -0.0019629758 -0.14258686
000340 34 f5 69 ba 35 e3 1b 3d 0c c0 14 3e d7 29 2a bc
       -0.0008924783 0.03805848 0.14526385 -0.010385952
000350 4f 60 ca 3d 67 d7 dc 3a cd bd ce 3d 3d 29 60 bd
       0.09881651 0.0016848863 0.100947954 -0.054726828
000360 5d 6f d2 bd 5e 23 b4 3d 49 5d f1 bd aa c8 16 3d
       -0.10275147 0.08795808 -0.11785371 0.036812462
000370 84 d8 ab bc 7f b9 d9 3c 17 6e 04 bd 0f e5 96 3d
       -0.020977266 0.02657771 -0.032331552 0.07367908
000380 16 8e 14 bc fa 18 99 3d 7c 72 9d bc bb 9e 97 3d
       -0.009067079 0.07475467 -0.01921963 0.07403322
000390 ff 14 27 be 31 66 84 3c 13 48 f6 bc 2e 2e 79 3c
       -0.16316603 0.01616201 -0.030063665 0.015208764
0003a0 84 8a 18 3c 4b dd 61 bc ea 5c 4e be 88 16 be bc
       0.009310368 -0.0137856705 -0.20152631 -0.023204103
0003b0 75 57 31 3e c0 ff 0e bd d2 2c 26 be 5d 7d b5 bd
       0.17318518 -0.03491187 -0.16228035 -0.08861802
0003c0 77 25 c5 bd 06 ac 08 be 00 df e2 3c 43 55 79 bd
       -0.096262865 -0.13346872 0.027694225 -0.060872328
0003d0 fa 87 98 bd f9 bf f7 3d cc 90 c5 bd 11 e6 3f 3d
       -0.074478105 0.12097163 -0.096467584 0.046850268
0003e0 1d 70 72 be fd 11 62 be 41 aa d3 bc 7c 41 2b bd
       -0.2367558 -0.22077174 -0.02583802 -0.041810498
0003f0 00 d8 41 3d 48 bb 9b bd 40 8e 07 be 48 bd 2e 3d
       0.047325134 -0.076040804 -0.13237858 0.04266098

network_body._body_endoder.seq_layers.0.bias f4 [256]
000000 00 00 00 00 00 00 00 00 00 00 00 00 00 00 00 00
       0.0 0.0 0.0 0.0
000010 00 00 00 00 00 00 00 00 00 00 00 00 00 00 00 00
       0.0 0.0 0.0 0.0
000020 00 00 00 00 00 00 00 00 00 00 00 00 00 00 00 00
       0.0 0.0 0.0 0.0
000030 00 00 00 00 00 00 00 00 00 00 00 00 00 00 00 00
       0.0 0.0 0.0 0.0
000040 00 00 00 00 00 00 00 00 00 00 00 00 00 00 00 00
       0.0 0.0 0.0 0.0
000050 00 00 00 00 00 00 00 00 00 00 00 00 00 00 00 00
       0.0 0.0 0.0 0.0
000060 00 00 00 00 00 00 00 00 00 00 00 00 00 00 00 00
       0.0 0.0 0.0 0.0
000070 00 00 00 00 00 00 00 00 00 00 00 00 00 00 00 00
       0.0 0.0 0.0 0.0
000080 00 00 00 00 00 00 00 00 00 00 00 00 00 00 00 00
       0.0 0.0 0.0 0.0
000090 00 00 00 00 00 00 00 00 00 00 00 00 00 00 00 00
       0.0 0.0 0.0 0.0
0000a0 00 00 00 00 00 00 00 00 00 00 00 00 00 00 00 00
       0.0 0.0 0.0 0.0
0000b0 00 00 00 00 00 00 00 00 00 00 00 00 00 00 00 00
       0.0 0.0 0.0 0.0
0000c0 00 00 00 00 00 00 00 00 00 00 00 00 00 00 00 00
       0.0 0.0 0.0 0.0
0000d0 00 00 00 00 00 00 00 00 00 00 00 00 00 00 00 00
       0.0 0.0 0.0 0.0
0000e0 00 00 00 00 00 00 00 00 00 00 00 00 00 00 00 00
       0.0 0.0 0.0 0.0
0000f0 00 00 00 00 00 00 00 00 00 00 00 00 00 00 00 00
       0.0 0.0 0.0 0.0
000100 00 00 00 00 00 00 00 00 00 00 00 00 00 00 00 00
       0.0 0.0 0.0 0.0
000110 00 00 00 00 00 00 00 00 00 00 00 00 00 00 00 00
       0.0 0.0 0.0 0.0
000120 00 00 00 00 00 00 00 00 00 00 00 00 00 00 00 00
       0.0 0.0 0.0 0.0
000130 00 00 00 00 00 00 00 00 00 00 00 00 00 00 00 00
       0.0 0.0 0.0 0.0
000140 00 00 00 00 00 00 00 00 00 00 00 00 00 00 00 00
       0.0 0.0 0.0 0.0
000150 00 00 00 00 00 00 00 00 00 00 00 00 00 00 00 00
       0.0 0.0 0.0 0.0
000160 00 00 00 00 00 00 00 00 00 00 00 00 00 00 00 00
       0.0 0.0 0.0 0.0
000170 00 00 00 00 00 00 00 00 00 00 00 00 00 00 00 00
       0.0 0.0 0.0 0.0
000180 00 00 00 00 00 00 00 00 00 00 00 00 00 00 00 00
       0.0 0.0 0.0 0.0
000190 00 00 00 00 00 00 00 00 00 00 00 00 00 00 00 00
       0.0 0.0 0.0 0.0
0001a0 00 00 00 00 00 00 00 00 00 00 00 00 00 00 00 00
       0.0 0.0 0.0 0.0
0001b0 00 00 00 00 00 00 00 00 00 00 00 00 00 00 00 00
       0.0 0.0 0.0 0.0
0001c0 00 00 00 00 00 00 00 00 00 00 00 00 00 00 00 00
       0.0 0.0 0.0 0.0
0001d0 00 00 00 00 00 00 00 00 00 00 00 00 00 00 00 00
       0.0 0.0 0.0 0.0
0001e0 00 00 00 00 00 00 00 00 00 00 00 00 00 00 00 00
       0.0 0.0 0.0 0.0
0001f0 00 00 00 00 00 00 00 00 00 00 00 00 00 00 00 00
       0.0 0.0 0.0 0.0
000200 00 00 00 00 00 00 00 00 00 00 00 00 00 00 00 00
       0.0 0.0 0.0 0.0
000210 00 00 00 00 00 00 00 00 00 00 00 00 00 00 00 00
       0.0 0.0 0.0 0.0
000220 00 00 00 00 00 00 00 00 00 00 00 00 00 00 00 00
       0.0 0.0 0.0 0.0
000230 00 00 00 00 00 00 00 00 00 00 00 00 00 00 00 00
       0.0 0.0 0.0 0.0
000240 00 00 00 00 00 00 00 00 00 00 00 00 00 00 00 00
       0.0 0.0 0.0 0.0
000250 00 00 00 00 00 00 00 00 00 00 00 00 00 00 00 00
       0.0 0.0 0.0 0.0
000260 00 00 00 00 00 00 00 00 00 00 00 00 00 00 00 00
       0.0 0.0 0.0 0.0
000270 00 00 00 00 00 00 00 00 00 00 00 00 00 00 00 00
       0.0 0.0 0.0 0.0
000280 00 00 00 00 00 00 00 00 00 00 00 00 00 00 00 00
       0.0 0.0 0.0 0.0
000290 00 00 00 00 00 00 00 00 00 00 00 00 00 00 00 00
       0.0 0.0 0.0 0.0
0002a0 00 00 00 00 00 00 00 00 00 00 00 00 00 00 00 00
       0.0 0.0 0.0 0.0
0002b0 00 00 00 00 00 00 00 00 00 00 00 00 00 00 00 00
       0.0 0.0 0.0 0.0
0002c0 00 00 00 00 00 00 00 00 00 00 00 00 00 00 00 00
       0.0 0.0 0.0 0.0
0002d0 00 00 00 00 00 00 00 00 00 00 00 00 00 00 00 00
       0.0 0.0 0.0 0.0
0002e0 00 00 00 00 00 00 00 00 00 00 00 00 00 00 00 00
       0.0 0.0 0.0 0.0
0002f0 00 00 00 00 00 00 00 00 00 00 00 00 00 00 00 00
       0.0 0.0 0.0 0.0
000300 00 00 00 00 00 00 00 00 00 00 00 00 00 00 00 00
       0.0 0.0 0.0 0.0
000310 00 00 00 00 00 00 00 00 00 00 00 00 00 00 00 00
       0.0 0.0 0.0 0.0
000320 00 00 00 00 00 00 00 00 00 00 00 00 00 00 00 00
       0.0 0.0 0.0 0.0
000330 00 00 00 00 00 00 00 00 00 00 00 00 00 00 00 00
       0.0 0.0 0.0 0.0
000340 00 00 00 00 00 00 00 00 00 00 00 00 00 00 00 00
       0.0 0.0 0.0 0.0
000350 00 00 00 00 00 00 00 00 00 00 00 00 00 00 00 00
       0.0 0.0 0.0 0.0
000360 00 00 00 00 00 00 00 00 00 00 00 00 00 00 00 00
       0.0 0.0 0.0 0.0
000370 00 00 00 00 00 00 00 00 00 00 00 00 00 00 00 00
       0.0 0.0 0.0 0.0
000380 00 00 00 00 00 00 00 00 00 00 00 00 00 00 00 00
       0.0 0.0 0.0 0.0
000390 00 00 00 00 00 00 00 00 00 00 00 00 00 00 00 00
       0.0 0.0 0.0 0.0
0003a0 00 00 00 00 00 00 00 00 00 00 00 00 00 00 00 00
       0.0 0.0 0.0 0.0
0003b0 00 00 00 00 00 00 00 00 00 00 00 00 00 00 00 00
       0.0 0.0 0.0 0.0
0003c0 00 00 00 00 00 00 00 00 00 00 00 00 00 00 00 00
       0.0 0.0 0.0 0.0
0003d0 00 00 00 00 00 00 00 00 00 00 00 00 00 00 00 00
       0.0 0.0 0.0 0.0
0003e0 00 00 00 00 00 00 00 00 00 00 00 00 00 00 00 00
       0.0 0.0 0.0 0.0
0003f0 00 00 00 00 00 00 00 00 00 00 00 00 00 00 00 00
       0.0 0.0 0.0 0.0

network_body._body_endoder.seq_layers.2.weight f4 [256, 256]
000000 b5 03 bf 3c 89 72 f1 3c 73 16 b9 bc cf ef bd bb
       0.023317197 0.02947356 -0.022593712 -0.0057964097
000010 2b 8f 34 bb c2 93 93 3d bd 81 cd 3d dd 71 d5 bb
       -0.0027551155 0.07205917 0.10034511 -0.0065138177
000020 2f c5 83 bd 5f 50 5a bd 2c b9 27 3c b8 22 ac bd
       -0.06434094 -0.053299304 0.0102370195 -0.084050596
000030 3b f4 09 be 81 0b 2e 3d 51 93 d4 bc fb af 15 bd
       -0.13472073 0.04249144 -0.025949152 -0.03654478
000040 9b 59 45 3b 75 63 38 3d 82 4b 04 3d 43 cf 10 bd
       0.0030113223 0.045016725 0.032298572 -0.03535391
000050 e4 97 b3 3c fe fe a0 bc d8 cb 66 3b 7d a8 de bc
       0.021923013 -0.01965284 0.0035216715 -0.02717995
000060 38 fd 64 3d 66 32 01 be 49 35 c5 bd 2c 93 a4 bc
       0.05590555 -0.12616882 -0.09629304 -0.020089708
000070 53 d8 4f bc 87 8e 9b bd bf fc 24 bd 7e ab 01 3c
       -0.012685853 -0.07595544 -0.0402801 0.007914422
000080 1c 75 13 bd a6 c8 1a be 55 1c 73 3d 81 89 61 bd
       -0.036000356 -0.15115604 0.05935319 -0.055062775
000090 72 5a 98 3d 02 0e 1b 3d 18 de f6 bc 62 db 17 3c
       0.07439126 0.037855156 -0.0301352 0.0092686135
0000a0 98 bc 1c 3d 24 94 c5 ba 54 4a 0f 3d 1a e3 09 3e
       0.038265795 -0.0015074057 0.034982994 0.13465539
0000b0 6c 8b 42 bd 96 bb e9 bd d5 26 9e 3c a7 5e 6a 3c
       -0.047496244 -0.11412732 0.019305626 0.014304793
0000c0 3c b0 72 bb 1f c9 05 bd 56 1b 05 3e 00 bf 4f bc
       -0.0037031313 -0.032662507 0.12998709 -0.012679815
0000d0 46 cf d0 bc 8e 2d 7d 3d d7 47 b4 ba 0b fb c2 bc
       -0.02548946 0.061811022 -0.001375432 -0.023801347
0000e0 6a 90 11 bd 9d ae 8a 3a 1f 33 89 3d 02 a8 a3 3b
       -0.035538115 0.0010580603 0.06699204 0.0049943933
0000f0 45 76 2e 3d c9 60 de 3c c1 cb a5 3d 27 f9 03 3e
       0.04259326 0.02714576 0.080955036 0.12888013
000100 14 7a 12 3d 75 62 d6 bd d6 67 8f 3d 4c 43 6b 3b
       0.035760954 -0.10467998 0.07002227 0.0035898266
000110 4c 85 ef bc 0b 79 e1 3d c8 78 1a 3d a1 c2 ce bd
       -0.029238366 0.11009415 0.037712842 -0.10095716
000120 ee 84 86 3d 66 45 45 3d bd db 44 3d c9 20 4c 3d
       0.06568323 0.048161887 0.04806112 0.049835954
000130 10 68 f3 3d 4a 9e 02 bc dc 53 76 3d bd b3 0c be
       0.11885083 -0.007972309 0.06013857 -0.1374044
000140 f8 4d a7 3b 43 b9 8f bc fe b0 ae 3d 17 87 88 bd
       0.00510573 -0.017544394 0.08529852 -0.06666391
000150 ff d7 9f bd 66 fc 04 bc d8 80 e0 bc 35 35 49 bd
       -0.0780487 -0.008116817 -0.027405187 -0.049123008
000160 f5 a2 90 bc 08 ca 05 bc f9 de eb bc bb 91 c7 bc
       -0.017655829 -0.008165844 -0.028792845 -0.024361482
000170 cd ab d6 3b fe 5d f8 3d 5c 02 35 3d df d4 a9 bd
       0.006551242 0.121273026 0.044191703 -0.08292555
000180 86 89 c2 bd ff d1 d6 3c 7c 4c 56 3d 33 ef c2 3c
       -0.09498887 0.02622318 0.052319035 0.0237957
000190 47 ae 32 bc 75 76 1a 3e a4 a2 08 3c 9f d7 23 bd
       -0.010905809 0.1508425 0.008339558 -0.040000554
0001a0 e4 1b 29 3d 2c 45 87 bd 82 07 53 3d 4a 93 66 bd
       0.041286364 -0.0660499 0.051520832 -0.05629281
0001b0 39 b7 be bd 89 30 4d 3d 87 ef 56 3c 79 6c 1e 3d
       -0.09312291 0.050095115 0.013118631 0.038677666
0001c0 16 7d 9e bd 15 9a 3a bd 4a a1 40 3c fc fa 97 bd
       -0.07738702 -0.0455571 0.011757204 -0.07420918
0001d0 d7 66 d6 3c e6 45 f5 3d ce cc 82 bc 9c 8f f3 bc
       0.026172085 0.11976223 -0.0159668 -0.029731564
0001e0 25 9e 19 3e cf b4 ea 3b 61 a5 07 3d 2b ce 21 3d
       0.15001734 0.0071626673 0.033116702 0.039503258
0001f0 38 95 d9 3d 74 ef cd bc 81 20 94 3d 6a 88 01 bd
       0.10624164 -0.025138594 0.07232762 -0.031624235
000200 72 d5 74 bd 09 66 a9 bc 96 a8 12 3d 53 aa 85 bd
       -0.05977387 -0.020678537 0.035805307 -0.065266274
000210 70 11 4c bd 37 75 a2 3c ce 84 13 3d 2e ee be bc
       -0.049821317 0.019831283 0.036015324 -0.023306932
000220 61 b3 db 3c 8e 51 75 3c 4c 39 1b bd 59 b2 29 bd
       0.026818933 0.014973057 -0.03789644 -0.04142985
000230 97 20 be bc cf 20 e7 3c ea 59 90 3c 5a be 69 3a
       -0.0232089 0.028213887 0.017621 0.0008916609
000240 71 87 12 3d ac 58 81 bd c5 fd 3d 3d 8a 00 f3 bc
       0.0357737 -0.06315741 0.04638459 -0.029663343
000250 a8 9c 1c bd 23 e3 b2 3c 43 0c 57 bc 18 3e 85 bd
       -0.038235337 0.021836823 -0.013125482 -0.06505984
000260 2d ea 95 3d e1 1c f8 bc 34 17 81 bc c9 0e 10 bc
       0.07320056 -0.030287208 -0.015758134 -0.008792588
000270 0d 53 fd bd 24 97 ac 3d ce bb dd bc 47 cc a7 3d
       -0.12369356 0.08427265 -0.027067091 0.0819326
000280 e6 75 eb 3c f8 6e 39 bd 40 48 be 3d 77 db cb 3d
       0.028742742 -0.045271844 0.09291124 0.09953969
000290 83 dd d3 3c ec 2b 06 bc eb 78 8d 3d 64 ab fe bd
       0.025862461 -0.008189183 0.06907829 -0.12435034
0002a0 c4 69 e4 3b ef 52 1a 3d 21 f0 82 3d 54 60 18 bd
       0.006970616 0.037676748 0.06393457 -0.03720124
0002b0 e1 2e 32 3d 8a 79 b5 3d 8a 96 0c bd ac 63 81 bd
       0.04350174 0.08861072 -0.034323253 -0.06317839
0002c0 a4 4c 08 3d c4 85 05 3d 15 54 b3 bc 00 5f 9b bd
       0.033276215 0.032598272 -0.02189068 -0.07586479
0002d0 e6 d0 4c bd 0c e9 b1 bc d6 46 15 3d c9 1a 12 3e
       -0.05000391 -0.02171757 0.036444508 0.1426803
0002e0 27 70 84 bd 0a f7 ec bc 5f e1 20 3d 4a fa f0 3d
       -0.06466704 -0.028926391 0.03927743 0.11766489
0002f0 b9 26 12 3d 49 b9 05 bd 4c 29 f9 3b d0 d8 b4 bc
       0.03568146 -0.032647405 0.0076038 -0.02207604
000300 ca 5b 56 bd 96 22 af 3b e0 1d fc 3d f5 a0 20 3c
       -0.05233363 0.005344699 0.12310386 0.009804
000310 17 cd 51 3c 69 cf 83 3d c9 3f 5c bd 0e 63 48 3b
       0.012805245 0.06436045 -0.053771768 0.003057662
000320 b9 9a 19 bd bd 89 b8 bc b4 bf 01 bc d2 1a 1f bc
       -0.03750107 -0.022526616 -0.007919241 -0.009710984
000330 03 bb 97 3d a2 38 44 bc 5b 79 cb bc 18 2c 68 bc
       0.074087165 -0.011976393 -0.02483814 -0.014170669
000340 96 32 19 bd 57 a2 bf 3d 92 8f 0d bd 4b 26 e3 3d
       -0.037401758 0.09357136 -0.034560747 0.11091288
000350 da 41 14 3e 59 ae 60 bd 94 47 0d bd d8 09 87 bd
       0.14478245 -0.05485377 -0.03449209 -0.065936744
000360 24 9d 5d bd 3a e3 03 bb c5 7d ae bc e6 06 35 bd
       -0.05410494 -0.0020124451 -0.021300206 -0.044196032
000370 f6 65 d3 3c a9 cc 08 bc a1 8d 06 bd b3 97 35 3d
       0.025805455 -0.008349576 -0.03284991 0.044334125
000380 ca 21 41 bc 63 9d f5 3c 43 79 cb 3c 9d 24 d5 3c
       -0.011787841 0.029982274 0.024838096 0.026018435
000390 54 9b 6c 3d 30 bd ab 3d d8 90 12 bd 6a 49 0e 3d
       0.05776532 0.08385694 -0.035782665 0.03473798
0003a0 11 6c c7 bb 76 7d 95 bd ad 5e c3 bd 2f 49 49 3c
       -0.0060858806 -0.072993204 -0.09539542 0.012285515
0003b0 f8 5a 16 bd b9 d5 68 bd 9d 78 3d bd a6 28 3a 3d
       -0.03670785 -0.056844447 -0.046257604 0.04544892
0003c0 5f 49 da 3d 94 4f 10 3e 8f 29 53 3c ff c5 bd 3b
       0.10658526 0.14092857 0.012888326 0.0057914252
0003d0 91 7f 3f b9 ec 67 28 3d ce 18 78 bd d1 98 52 bd
       -0.00018262702 0.041114733 -0.06057053 -0.05141527
0003e0 93 47 b1 3d d1 ce 3a bd e4 12 cb bc 15 18 0c be
       0.0865623 -0.04560739 -0.024789281 -0.13681062
0003f0 a0 29 9a bd 2b 0d 3d 3d b9 8f 9d bc 7f 24 24 3c
       -0.075274706 0.046155136 -0.019233571 0.010018467

action_model._continuous_distribution.log_sigma f4 [1, 6]
000000 00 00 00 00 00 00 00 00 00 00 00 00 00 00 00 00
       0.0 0.0 0.0 0.0
000010 00 00 00 00 00 00 00 00
       0.0 0.0

action_model._continuous_distribution.mu.weight f4 [6, 64]
000000 3b 80 66 bc 48 56 f1 3c c5 33 e1 3b 5a 72 ea 3c
       -0.014068658 0.029460087 0.0068726265 0.02861898
000010 35 ab 71 bd 62 71 4a bd 84 79 0c bc d7 47 fd 3c
       -0.059001166 -0.049424537 -0.008573893 0.030918045
000020 e3 19 ed 3c d3 39 a8 bb 8c a4 86 bc 5e 01 30 bd
       0.028943008 -0.0051338463 -0.016435884 -0.042970054
000030 bf 7b 4f 3b 5b 35 84 3c fe 22 1f bb 0f eb a3 3c
       0.0031659452 0.016138723 -0.0024282332 0.020009546
000040 57 ee 4a bb df d6 83 bb 48 35 63 3b cb 44 3a bd
       -0.0030964816 -0.0040234174 0.003466921 -0.045475762
000050 33 e5 8b bc 6f 5f fc 3c dd 91 40 3c 16 f0 a3 3c
       -0.017077064 0.030807225 0.0117535265 0.020011943
000060 8a d0 c5 bb e8 c2 88 3c e3 6b 63 3c d2 6d 0f 3c
       -0.0060368227 0.016694501 0.013880703 0.008754211
000070 1f cc 5c 3c 3f a3 88 3c 85 a5 cf bc f8 87 e7 bb
       0.013476401 0.016679404 -0.02534748 -0.0070657693
000080 24 be 45 3d b6 0c a8 bc f2 d3 a0 bc f2 3b 7f 3b
       0.048277035 -0.020513874 -0.019632313 0.0038945642
000090 1f 86 d1 bc 40 f9 2f 3c eb b8 92 38 c3 5d 04 bc
       -0.02557665 0.010740578 6.996266e-05 -0.008078995
0000a0 ee 93 2a bb 20 d6 a1 3c 1a 2f a2 bc 67 45 14 3b
       -0.0026028114 0.019755423 -0.01979785 0.0022624375
0000b0 37 bd cc 3b 90 78 4f 3c 72 84 81 3c 00 4e ac 3b
       0.006248142 0.012663022 0.015810225 0.0052583218
0000c0 73 40 01 3d 8f 0d b1 3c ee 67 45 3c 7a 0d 95 bc
       0.031555604 0.02161291 0.012048705 -0.018194903
0000d0 c3 c1 04 bc 46 a2 89 bc cb f5 6d bd 1a a6 0c bd
       -0.008102837 -0.01680101 -0.058095735 -0.034338094
0000e0 ba db 8a 3b a2 15 33 bc 1f 6e f2 bc 7c 7b 36 bd
       0.004237619 -0.010930451 -0.029593525 -0.044551358
0000f0 a2 77 e0 ba 28 9b 80 3c 1b 76 17 bd 70 f2 a8 3c
       -0.0017125497 0.015698984 -0.03697787 0.020623416
000100 35 bc ef 3b df c4 ce bc 98 0c 5d bd 9d 28 12 3d
       0.007316137 -0.02524036 -0.05396709 0.035683263
000110 c4 c1 0e 3d 9b 66 74 3c 6b 89 ba bc 31 7a 3b bd
       0.034852758 0.014917041 -0.022770604 -0.045770828
000120 37 aa 0e 3d 4e 68 4c bc 8a 63 ef 3b 93 26 a8 bc
       0.0348303 -0.01247604 0.007305567 -0.020526206
000130 d2 76 54 bd c7 fc 88 3c b4 bc 02 bb e7 03 89 3c
       -0.05187113 0.016722096 -0.0019948902 0.016725494
000140 d4 c0 23 3d 86 76 42 bc e2 3e fe bc f3 e0 46 bb
       0.039978817 -0.0118690785 -0.031035844 -0.0030346483
000150 b7 1c fd bc 77 f0 0f 3d bd d6 a0 3a 62 8f 4b bc
       -0.030897481 0.035141435 0.0012271028 -0.012424322
000160 16 4d 2a 3c 73 5c 8d bb fa 96 12 3b 5a 18 dc bb
       0.010394355 -0.0043139993 0.002236782 -0.00671677
000170 f7 a1 db 3c 54 d0 82 bb 83 12 06 3c 58 58 13 bd
       0.02681063 -0.00399212 0.0081831245 -0.035972923
000180 bf bf d2 bb b9 d4 af bc 42 61 5d 3a 02 c7 e7 bc
       -0.0064315493 -0.021463739 0.00084449735 -0.028293137
000190 11 1e 1d bc 2b e8 ec 3c ca bc c0 3c af af e5 bc
       -0.009589688 0.0289193 0.023527522 -0.028037874
0001a0 20 40 89 3c 00 df b1 bc ea b3 17 3c 46 78 0c bc
       0.01675421 -0.02171278 0.009259203 -0.008573597
0001b0 75 2e cf 3c af b7 45 bc dc 7b 43 3c 9f 3b 12 3d
       0.025290707 -0.012067719 0.011931386 0.03570139
0001c0 73 70 57 3c c6 94 a4 bb 77 09 86 bc 1f 62 fa 3c
       0.013149369 -0.005022618 -0.016361935 0.030564366
0001d0 9d b7 fd 3c f2 9a a3 bc 4f 17 fe bc 0b 1e 52 3d
       0.030971343 -0.019971345 -0.031016974 0.051298182
0001e0 e5 f2 e3 3c 3d a7 90 3c 1c 47 28 bd 43 5d 0a bb
       0.027825782 0.01765787 -0.04108344 -0.0021112717
0001f0 c6 7d b3 3b 07 15 04 3d ed 65 50 bc 36 a0 b1 bc
       0.00547764 0.032246616 -0.0127196135 -0.02168284
000200 84 ba 35 bc 3a 79 9e bc 05 e4 5c 3b 8d 82 85 bc
       -0.011091832 -0.019344915 0.0033705246 -0.016297603
000210 ff 5d c3 bb 22 64 cd bc 23 55 81 3b 7f 4d 85 3c
       -0.005962133 -0.025072161 0.0039469167 0.016272305
000220 92 00 14 3d d9 a2 9e bc df 26 b6 bb 5d 37 3f ba
       0.036133356 -0.019364761 -0.005558833 -0.00072943215
000230 b0 59 8e 3a c9 35 cb 3b 9f c4 5b 3c da 11 55 bd
       0.0010860469 0.00620148 0.013413577 -0.052018978
000240 db e5 02 3c 57 1e 6c bc ad 84 75 bd 86 66 9f 3b
       0.007989372 -0.01441153 -0.059940983 0.0048645167
000250 77 48 9e 3c cb 9e b5 bc 7f f7 c1 bc da 48 cf 3c
       0.019321663 -0.022170445 -0.023677586 0.025303293
000260 7a 4c 61 3c 80 74 2a bd d8 ef 01 3c 28 96 fe 3b
       0.013751144 -0.04161501 0.007930718 0.007769365
000270 0e f0 85 3c a0 89 83 bc ce b2 a6 3c b6 c3 1d bd
       0.016349819 -0.016056836 0.020348933 -0.038516723
000280 f9 ac 46 3b f3 13 fd bc ca 22 ae bb aa f6 8d bb
       0.0030315502 -0.030893302 -0.005314206 -0.004332383
000290 fb 14 a9 3c f4 9f 93 3c 7f 01 39 bc 3d 69 34 bd
       0.020639887 0.018020608 -0.011291861 -0.044045676
0002a0 e1 ea 81 3d 26 56 c0 3c 72 0a 83 3b 6d 7b 2e 3c
       0.06343628 0.023478579 0.003999048 0.010649544
0002b0 f0 b9 73 bd dd 3d d0 b8 1b 24 21 3d 82 82 f0 bb
       -0.059503496 -9.929736e-05 0.039341073 -0.0073397765
0002c0 25 a3 6f 3c d3 a7 f5 bc 3f 18 df bc d0 ea b4 bc
       0.014626299 -0.029987251 -0.027233241 -0.022084624
0002d0 ed d5 5f bc 97 3a d2 bc 46 d0 95 3c 6a cf 09 3d
       -0.013661844 -0.025662703 0.01828779 0.03364507
0002e0 42 cf 74 bd bb f2 6c 3c 5b c2 94 bc ad e5 23 3d
       -0.05976797 0.014462168 -0.018159082 0.040013958
0002f0 9b 0b 28 3d 1b 98 c8 bc 88 2f d6 bc c2 56 f3 3c
       0.041026693 -0.024486592 -0.026145712 0.029704455
000300 7e 2b b5 bc 45 69 e2 3c 72 53 70 3d f4 61 c8 3b
       -0.022115465 0.027638087 0.05867333 0.0061151925
000310 75 24 58 3c 5f 05 0b 3d a5 39 da bc d3 b7 13 bc
       0.013192286 0.03394067 -0.026638815 -0.009015995
000320 76 d0 81 3b cb 80 3f 3d 79 5f b1 bb 72 41 36 3c
       0.003961618 0.046753686 -0.0054129926 0.011124002
000330 c4 9e 20 bc 76 d7 bc 3b 32 d4 c7 3b 6e d1 08 bc
       -0.009803478 0.0057629896 0.0060982937 -0.008350713
000340 fb 17 49 bd f5 00 d1 3b 97 6a 46 bc 68 02 61 bc
       -0.049095135 0.006378288 -0.012110374 -0.013733484
000350 88 c5 d4 3c 53 8e d6 bb ce 56 25 3c 8e 18 c5 bb
       0.025973096 -0.006547728 0.010091497 -0.00601489
000360 9f c2 0e bd ab 95 43 bc fe 0a b8 bb 38 35 66 3c
       -0.034853574 -0.011937539 -0.0056165447 0.014050774
000370 a3 df 81 bd 26 ee 3d bc 0a 4f ed bb d3 61 9a 3c
       -0.063414834 -0.011592424 -0.007242088 0.018845474
000380 3f f2 30 bc a5 29 44 bd 3e 2e b1 3c 28 92 0a bd
       -0.0107999435 -0.047891278 0.021628495 -0.03383079
000390 34 ec 38 3d 15 38 bb 3c 25 35 0e 3d eb 60 ec bc
       0.045147136 0.02285389 0.03471865 -0.028854808
0003a0 47 22 04 3d 7f ed 0f 3d 3d df 19 3d e4 80 9f bc
       0.032259252 0.035138603 0.037566412 -0.01947064
0003b0 70 1d e2 bc 42 0b fb bc dc 8c 8f bc 3e d1 94 3c
       -0.027601928 -0.030645017 -0.017523222 0.01816618
0003c0 a1 c5 27 bd 93 00 4c bb 53 40 f7 bb 4f 0f af bc
       -0.040959958 -0.0031128272 -0.00754551 -0.021369604
0003d0 ea ce bf bc 19 11 ad 3c c8 a3 ab 3c 5e 3e 45 3c
       -0.023414094 0.021126317 0.02095212 0.012038795
0003e0 6d bc da 3c 42 eb 70 bc fb 5b 10 3c 36 e6 b8 bc
       0.026701177 -0.014704527 0.008810992 -0.02257071
0003f0 8c d3 36 bd 92 ea 59 3b 4d 69 15 bd d0 83 c0 bc
       -0.04463534 0.0033251387 -0.036477376 -0.023500353

action_model._continuous_distribution.mu.bias f4 [6]
000000 00 00 00 00 00 00 00 00 00 00 00 00 00 00 00 00
       0.0 0.0 0.0 0.0
000010 00 00 00 00 00 00 00 00
       0.0 0.0

onnx::LSTM_101 f4 [1, 256, 256]
000000 30 ba b1 3c 38 6e 91 bd 74 41 9f bc 24 6b a0 bc
       0.021695226 -0.07101101 -0.01944039 -0.019582339
000010 0d 22 07 be 90 b6 3d bc 20 68 6f 3d 1c a0 9e bd
       -0.13196583 -0.011579171 0.05844891 -0.07745382
000020 a6 4b cb 3d 94 d2 3a 3d c6 70 05 be a0 80 1c bd
       0.09926538 0.04561098 -0.13031301 -0.038208604
000030 40 b1 40 bc 67 6a 82 bd c2 b2 c1 3d 2b 2b c1 bd
       -0.01176101 -0.06367951 0.094579235 -0.09432062
000040 ba 0d 04 bd d8 0f e7 3c 46 50 35 bd b0 0b ef 3c
       -0.032239653 0.028205797 -0.044266008 0.029180378
000050 00 ce 0b ba 9a 2b 88 3d 70 b6 cb 3c 00 bc 03 b9
       -0.00053331256 0.06648941 0.024867266 -0.00012563169
000060 20 40 e8 3b f6 a9 8d bd a4 87 22 3d d4 6b ef 3d
       0.0070877224 -0.06917183 0.03968014 0.116904885
000070 cc b2 05 3d ae 4f 0a be be 4a af 3d d4 63 c1 bc
       0.032641217 -0.13506958 0.08559178 -0.023607172
000080 48 89 8d 3d 0c d6 ad bc 5a 7d 4a bd d0 25 eb 3c
       0.0691095 -0.02122023 -0.04943595 0.028704554
000090 64 e8 9b 3d 5a 5c be bd b0 e6 c5 bd b0 76 3b 3c
       0.07612684 -0.092949584 -0.09663141 0.0114418715
0000a0 18 f0 c8 bd e8 5d e3 3d 98 53 9e 3d 80 66 59 bd
       -0.09811419 0.111018956 0.07730788 -0.053076267
0000b0 f4 5e 72 3d 8c c7 07 be ec 54 64 bd 70 5d f8 3d
       0.059172586 -0.13259715 -0.05574505 0.12127197
0000c0 ba 0e 3e bd fc 20 fc 3d 40 59 54 bc 23 ce b8 bd
       -0.046400763 0.12310979 -0.012960732 -0.090236925
0000d0 80 4b a5 bb 3c 97 46 3d 90 1a e4 bd 8a 5a 00 3e
       -0.0050444007 0.048484072 -0.11137879 0.12534538
0000e0 00 d5 d5 ba 10 e6 7a bc 8c be 82 bd f8 18 65 bc
       -0.0016314089 -0.01531364 -0.06384 -0.013983004
0000f0 4c 04 d6 bd 94 3c 54 3d 18 0f be 3d 0c 2c 03 3e
       -0.10450038 0.051815584 0.09280223 0.12809771
000100 d0 da d7 3d 6e 53 d1 bd 6e fb 0c bd b8 5e d9 3c
       0.10539782 -0.10220991 -0.03441947 0.026534423
000110 44 75 dc bd 4d e6 c3 bd 82 4b a0 3d d4 12 de bc
       -0.10764554 -0.09565411 0.07826902 -0.027108587
000120 84 fc 90 bd c2 1c 96 3d 1c 31 9c bd 14 0e 61 3d
       -0.070794135 0.07329704 -0.07626554 0.054945067
000130 49 c5 84 bd 40 fa 65 3d d6 25 0b 3e 0c 25 b6 3d
       -0.06482942 0.05614686 0.13588652 0.08893785
000140 f8 6f 9f 3c 60 80 9c 3b 84 71 85 3d 07 f0 e0 bd
       0.01946257 0.0047760457 0.06515792 -0.109832816
000150 d2 15 0b 3e dc 4c 01 be a8 d9 2b bd 4c c4 02 3d
       0.13582543 -0.12626976 -0.04195562 0.031925485
000160 6e c4 da 3d fd c5 f9 bd 9a 9c a2 3d 86 07 c1 bd
       0.10681997 -0.121959664 0.07940026 -0.09425263
000170 be 29 d0 bd 90 c8 10 3d c6 60 b7 3d 10 89 51 3c
       -0.10164212 0.03534752 0.08954005 0.012789026
000180 5b 9b 06 be 38 f2 c2 3c 26 f4 f0 bd 40 1f 16 3c
       -0.13145201 0.02379714 -0.117653176 0.009162724
000190 f0 7c 79 3d f8 ed fa 3d 26 71 0b 3e 70 06 0d 3d
       0.060910165 0.1225242 0.13617381 0.034429967
0001a0 3c 12 5e 3d 50 ea ae bd 88 87 7f bd 70 19 2a bc
       0.05421661 -0.08540785 -0.062385112 -0.010382041
0001b0 fa ea b2 3d b2 b9 00 bd 4a 4c 00 3e 80 77 f6 3d
       0.087362245 -0.031427093 0.12529102 0.120345116
0001c0 22 65 98 bd 92 1a 2b bd 08 7c 17 3d 64 05 db 3d
       -0.074411646 -0.041773386 0.03698352 0.106943876
0001d0 88 2d 3f 3d 76 df 07 3e 80 05 c0 3a f4 61 f5 bd
       0.04667428 0.13268837 0.0014650077 -0.11981574
0001e0 00 7c e6 bb b6 40 04 3e 38 a6 00 3e 8c b3 b9 bc
       -0.007033825 0.1291531 0.12563407 -0.022668622
0001f0 0c 24 22 bd c8 e8 e1 3c fc 45 cd 3d 4a 0d 0b be
       -0.03958516 0.027576819 0.10023114 -0.13579288
000200 02 58 a4 bd 50 e3 57 3c d9 1f 9e bd 24 12 55 3d
       -0.08024599 0.013176754 -0.07720918 0.052019253
000210 1e 6b 08 3e 00 5c 13 bb c8 79 f0 3c 10 52 bd bd
       0.13322112 -0.0022485256 0.029354945 -0.09244168
000220 90 87 8e 3c 4a d3 9a 3d 60 8a ba bb bc e8 3d 3d
       0.017398626 0.075598314 -0.005692765 0.04636453
000230 64 d5 e9 bc 80 64 48 3b 02 58 be 3d b0 d8 5a bc
       -0.028544135 0.003057748 0.0929413 -0.013357326
000240 d9 20 85 bd d0 21 66 bd c2 6c a9 bd b8 2f ce bd
       -0.06500406 -0.05618459 -0.08272697 -0.100676954
000250 90 31 bd 3c a8 dd 38 3d 34 c7 b7 3d 4c cf b0 3d
       0.023094922 0.045133263 0.08973542 0.08633289
000260 14 1e 6f 3d 48 67 c7 3d 62 ad 9b 3d a6 43 c0 3d
       0.058378294 0.09736496 0.076014295 0.09387903
000270 71 6a a0 bd 5e c4 bd bd 8e eb 56 bd bc 00 66 3d
       -0.07832802 -0.0926597 -0.052470736 0.056153044
000280 f8 6a ba bc c0 d3 db 3b 88 b4 88 3d c8 4f 29 3d
       -0.022756085 0.006708592 0.066750586 0.04133585
000290 f6 a2 b6 bd b2 fa 83 bd 4a 19 25 bd 5e 1e f4 bd
       -0.08917801 -0.06444301 -0.04030732 -0.119198546
0002a0 00 48 ad b8 17 83 a0 bd 68 6d 04 bd 56 a2 de 3d
       -8.262694e-05 -0.078375034 -0.0323309 0.10870807
0002b0 40 7e 02 3d 12 a8 df bd d4 cc 68 3d fc b1 79 bd
       0.031858683 -0.10920729 0.056835964 -0.060960755
0002c0 8c e1 18 3d 42 1e ac 3d bc de 03 3e 0f ab 8e bd
       0.037324473 0.08404209 0.12877935 -0.069662206
0002d0 34 81 dd bd f4 cf 77 bd 34 49 33 3d 1a ea 98 3d
       -0.10815659 -0.060501054 0.043770984 0.07466526
0002e0 72 69 b3 bd 80 e2 90 ba 4c f3 b5 bd 00 75 7f 3c
       -0.087603465 -0.001105383 -0.08884296 0.01559186
0002f0 f7 e9 d9 bd 08 78 9f bd 98 ee c8 bd ee 6c 80 3d
       -0.106403284 -0.07786566 -0.09811133 0.06270777
000300 a0 8e 4f 3c 66 68 d4 bd e6 7e cb bd 00 7c 67 ba
       0.012668282 -0.10371475 -0.09936313 -0.0008830428
000310 12 ce b7 3d 79 b9 fe bd b0 8e 2e 3c ac 97 75 bd
       0.08974852 -0.1243772 0.010654137 -0.0599591
000320 c0 1e 76 3b 38 db 62 bc a0 91 e0 bb c0 90 e8 3c
       0.003755495 -0.013846211 -0.0068532974 0.028389335
000330 fa d1 50 bd 2e 65 45 bd 90 38 04 be 31 66 bf bd
       -0.0509815 -0.048192196 -0.12912202 -0.09345663
000340 56 85 90 3d 20 02 ea 3d d0 66 e1 3c 90 6e 55 3c
       0.07056682 0.114261866 0.027514845 0.013026848
000350 f5 e4 86 bd 16 d1 c8 bd 38 01 54 bc b0 ef b1 3c
       -0.06586639 -0.09805505 -0.012939744 0.021720737
000360 2b 5a d4 bd 00 27 07 3b 90 3d 0b bd c2 af 95 3d
       -0.10368761 0.002062261 -0.033994257 0.07308914
000370 6c 99 44 3d 82 06 cf bd 00 16 df bd c4 48 26 3d
       0.047997877 -0.10108663 -0.10892868 0.04059674
000380 98 61 f3 3c d6 18 58 bd 34 24 45 3d d8 8d f5 3c
       0.029709622 -0.05275806 0.04813023 0.029974863
000390 c0 cb 0f bc 4d 6e 0b be 04 0d ba 3d 04 a8 23 bd
       -0.008776605 -0.13616295 0.09084514 -0.039955154
0003a0 7e c4 e6 3d 2c bf 98 bd 98 81 ca bd 18 4c 61 bd
       0.11267947 -0.07458338 -0.09887999 -0.05500421
0003b0 90 60 4d bc 11 85 f9 bd b4 91 c0 bd 5f fe e1 bd
       -0.012535229 -0.121835835 -0.09402791 -0.110348456
0003c0 26 95 70 bd 70 3a b5 bc f6 19 c8 bd c2 04 56 bd
       -0.05873599 -0.022122592 -0.09770577 -0.05225063
0003d0 1e 45 84 3d a6 59 20 bd 58 0c 77 3d d4 8b ed 3d
       0.064584956 -0.039147995 0.060314506 0.11598936
0003e0 ec db e6 bc 16 88 e0 3d 05 cc ee bd 0c f3 09 be
       -0.028181039 0.10963456 -0.116600074 -0.13471621
0003f0 74 4c f4 bd 2e 64 a8 bd c7 dd 02 be 43 eb 04 be
       -0.11928645 -0.08222233 -0.12779914 -0.1298037

onnx::LSTM_102 f4 [1, 256, 64]
000000 dc 34 30 3d fd 2d 2e 3e 26 14 80 3d bd 12 23 3e
       0.04301916 0.1700973 0.06253843 0.15925117
000010 c0 e3 59 3b 6c 7d 25 be 6e b5 85 3d 80 68 f7 3b
       0.0033247322 -0.16161126 0.065287456 0.007550299
000020 57 39 12 3e d0 33 c0 bc 48 8e b5 bd 92 6b 22 be
       0.14279686 -0.023462206 -0.088650286 -0.15861347
000030 20 1e 84 3c a0 3e a3 bd fc 97 2b 3d 80 32 5f bc
       0.016127646 -0.07970929 0.04189299 -0.01362288
000040 fc 2c 37 3d 87 07 3f 3e b4 95 12 3d 28 dc 47 bd
       0.044720635 0.18655215 0.0357873 -0.04879394
000050 0a 0f 59 be 2c 70 33 bd 2a d3 c9 3d 22 69 85 3d
       -0.21197143 -0.043808147 0.098547295 0.06514193
000060 8c be ba bd 6a 23 ac 3d d8 e4 6e bd 9c 70 47 bd
       -0.09118375 0.08405192 -0.05832371 -0.048691377
000070 ab e3 4c 3e b2 5a fd 3d b0 08 92 bc 3e 17 b0 3d
       0.20008723 0.123708144 -0.017826408 0.08598183
000080 27 06 2c 3e 72 72 d2 3d 22 62 95 3d 57 9e 12 3e
       0.16799222 0.10275735 0.07294108 0.14318214
000090 31 c0 56 be 20 18 2d 3c 00 79 4f be 8f db 2d 3e
       -0.20971753 0.010564834 -0.20261002 0.16978286
0000a0 f0 bd 06 be 82 2f 35 be a0 f5 cd bc fa 75 2a be
       -0.13158393 -0.17693904 -0.025141537 -0.16646567
0000b0 56 d3 b7 3d 10 4c 32 bd 63 7f f1 bd 85 c9 3f 3e
       0.08975856 -0.04352957 -0.11791875 0.18729217
0000c0 b7 c3 34 3e 10 47 4e bc de e3 4a be af f7 4e be
       0.17652784 -0.012590185 -0.19813487 -0.20211671
0000d0 84 3b 3d bd 04 3c 41 3d 80 a7 48 3b ad fa 26 be
       -0.046199337 0.047176376 0.0030617416 -0.16306563
0000e0 2d 3b 25 3e 9e 82 e0 3d ab 8e 1f be 50 a8 ee 3c
       0.16135855 0.10962413 -0.15581767 0.029132992
0000f0 53 7e 00 be 5a 6b da 3d d0 92 62 bc 00 c2 b3 b9
       -0.12548189 0.10665007 -0.013828948 -0.00034286082
000100 14 ee d2 bd 5e ba 10 be a8 22 2f bd e0 93 2c 3c
       -0.10299316 -0.14133593 -0.04275766 0.010533303
000110 be 9c 9f 3d 5b 0e 1d 3e 8a 16 84 3d 7d 3e 54 be
       0.07793568 0.15337507 0.064496115 -0.20726962
000120 a0 07 ed bd cd a5 43 be 0e 09 ef 3d 51 6b 40 3e
       -0.1157372 -0.19106217 0.11671649 0.18790938
000130 72 be a9 3d 90 3e 88 bc 95 32 47 3e bc bd 2f 3d
       0.08288278 -0.016631395 0.1945289 0.042905554
000140 6c 83 20 3d 54 17 61 3d 54 59 6f 3d 9b 38 44 be
       0.039187834 0.054953888 0.0584348 -0.19162218
000150 72 59 1d be d7 2d 40 be 7f f8 40 3e 8e 56 fc 3d
       -0.15366152 -0.18767487 0.18844794 0.123211965
000160 1a 49 e7 3d a7 8e 52 be b1 73 c4 bd 98 0e a3 bc
       0.1129324 -0.2056223 -0.09592379 -0.01990442
000170 76 03 af 3d f0 8d 3f be de 17 85 3d bb f5 de bd
       0.08545582 -0.18706489 0.06498693 -0.10886713
000180 6c 3a 7c 3d 8c e2 1a 3d da 14 17 be 87 1b d8 bd
       0.061579153 0.03781371 -0.14754048 -0.105521254
000190 87 1c 18 be d6 20 3f be 70 27 05 bc 08 7d 72 bd
       -0.14854632 -0.1866487 -0.008127078 -0.05920127
0001a0 55 5e 07 3e 7c 14 03 bd fc 6c 7f 3d c5 1e 25 3e
       0.13219579 -0.032001957 0.062359795 0.16125019
0001b0 20 b7 6f 3c 77 ae 4f 3e 41 12 4c 3e 60 3c 33 bd
       0.014631063 0.20281397 0.19928838 -0.04375875
0001c0 bd 09 30 3e e9 c7 3d be c5 de 4a be f0 62 33 bd
       0.17191215 -0.18533291 -0.19811542 -0.043795526
0001d0 da 53 a4 3d 98 52 03 bd 9c 00 11 3d 53 c1 10 3e
       0.08023806 -0.03206119 0.03540097 0.14136247
0001e0 54 48 4f bd a3 1e 5a be 90 54 e7 bd 00 14 ae bc
       -0.050606087 -0.2130075 -0.11295426 -0.021249771
0001f0 a4 2c 23 be 60 2b 6f bc d0 12 a4 3c dc 6e 63 3d
       -0.15934998 -0.014597744 0.020028502 0.055525646
000200 e4 0f 2a 3d bf a3 58 be 08 6b 41 bd 61 39 e5 bd
       0.04151906 -0.21156214 -0.047221214 -0.11192585
000210 d5 b9 17 3e 28 11 25 be e7 33 2f 3e 07 36 42 3e
       0.14816983 -0.16119826 0.17109643 0.18965922
000220 98 17 29 be a8 81 ce 3c 2a fc 5b be 10 07 4a bd
       -0.16512907 0.02520831 -0.21482912 -0.04932314
000230 75 6f 1b be ff 22 24 be 46 31 a1 bd 42 ff 3a be
       -0.15179236 -0.16028975 -0.07870726 -0.18261436
000240 38 53 ba bc 9c ef 15 be 39 72 48 3e ae 2f ae 3d
       -0.02274476 -0.14642185 0.19574822 0.08505188
000250 90 af 3a be 78 e5 5c be 82 79 95 3d d9 9c 4c 3e
       -0.18231034 -0.2157191 0.072985664 0.19981708
000260 f6 7c 15 be df 29 29 be 18 18 46 bd c0 b1 30 be
       -0.1459845 -0.16519879 -0.04836282 -0.17255306
000270 92 e2 32 be db da 45 be 0e c0 e0 3d 98 0e 35 be
       -0.17469242 -0.19321768 0.109741315 -0.17681348
000280 d6 42 b5 3d 99 99 11 be 17 0a 35 3e 70 6e c0 3c
       0.088506386 -0.14218749 0.1767963 0.02349016
000290 66 bb 98 bd 32 ac d5 3d 98 77 37 bd 01 8b 19 be
       -0.074576184 0.10433234 -0.044791788 -0.14994432
0002a0 f0 6d c1 3c bc 40 9e bd c5 d3 2a 3e 26 d3 ff 3d
       0.023611993 -0.07727191 0.16682346 0.12491445
0002b0 d6 e6 0b be 50 53 a0 3c ac 7a 6f bd 4a 94 80 bd
       -0.13662276 0.019570976 -0.0584666 -0.06278284
0002c0 89 9a 22 3e 84 dd 1b be 45 1c 2e 3e cd 74 21 3e
       0.15879263 -0.1522122 0.17002971 0.15767212
0002d0 98 d8 97 bd d0 56 85 bc bd ca 46 be 36 90 dd bd
       -0.07414359 -0.016276747 -0.19413276 -0.10818522
0002e0 b0 c9 10 bc 29 4b 35 be 9a 04 b1 3d 10 fb 98 3c
       -0.008837149 -0.17704453 0.08643456 0.018674403
0002f0 92 a4 92 3d 70 92 25 be 1d 7b 36 3e 20 22 d4 bb
       0.071602955 -0.16169143 0.17820401 -0.0064737946
000300 84 43 3c be 60 2e ab bb 7c bd 7b 3d 40 b7 05 3d
       -0.1838513 -0.005224034 0.061460003 0.032645464
000310 05 8e 0d be 56 b2 aa 3d 67 21 57 3e 2d 7c 4a 3e
       -0.13823707 0.08334796 0.21008836 0.19773932
000320 c2 6f de 3d ee a1 fb 3d 43 ca e7 bd 90 09 f3 bd
       0.1086116 0.12286745 -0.11317875 -0.11867058
000330 a9 e5 2b 3e 8c 00 a4 bd b0 01 42 bc 28 c2 4f be
       0.16786827 -0.08007917 -0.011841223 -0.20288908
000340 d5 16 3c 3e 1a 1f fa bd 61 f7 23 3e ce 78 85 bd
       0.18368085 -0.122129634 0.16012336 -0.06517182
000350 20 01 de bc ca bc d9 3d 80 ef c9 bc c0 71 21 bb
       -0.027100146 0.10631712 -0.024650335 -0.002463445
000360 34 fc b3 bd 0b ca 3b 3e 6c f4 53 be df 39 50 be
       -0.08788338 0.18338792 -0.20698708 -0.20334576
000370 10 53 46 3c cd a2 2c 3e 04 31 82 bd 2f 8f 22 3e
       0.012104765 0.16858979 -0.06357005 0.15874933
000380 20 82 ef 3c 63 39 1b 3e 72 45 9b bd 7b 3f 44 be
       0.029236853 0.1515861 -0.07581605 -0.19164841
000390 19 b6 44 be 18 7b dc bc ff 3e 45 be 00 a1 e2 bb
       -0.1921009 -0.026914164 -0.19262312 -0.0069161654
0003a0 ca 0c d1 3d 22 c0 e2 3d db 84 22 be d4 1c 71 bd
       0.102075174 0.11071803 -0.15870993 -0.058865383
0003b0 1b 88 09 3e 90 1b 6c bc 1b b2 f1 bd ac 99 11 bd
       0.13430826 -0.014410868 -0.11801549 -0.035546944
0003c0 5d f1 04 be a0 a7 b5 bc c3 c7 d1 bd 30 62 d3 bc
       -0.12982698 -0.022174656 -0.1024318 -0.025803655
0003d0 92 c8 d9 3d 80 5c 0f bd 1f b0 32 3e 10 e5 5c be
       0.10633959 -0.035000324 0.17449997 -0.21571755
0003e0 5e ef ca 3d a8 fc ad bd 65 d6 04 be e6 e7 52 be
       0.09908937 -0.08495456 -0.1297241 -0.20596275
0003f0 d8 61 bd bc 3f f4 58 3e d1 50 12 be 92 e3 5b be
       -0.023117945 0.21186922 -0.14288642 -0.2147353

onnx::LSTM_103 f4 [1, 512]
000000 00 00 00 00 00 00 00 00 00 00 00 00 00 00 00 00
       0.0 0.0 0.0 0.0
000010 00 00 00 00 00 00 00 00 00 00 00 00 00 00 00 00
       0.0 0.0 0.0 0.0
000020 00 00 00 00 00 00 00 00 00 00 00 00 00 00 00 00
       0.0 0.0 0.0 0.0
000030 00 00 00 00 00 00 00 00 00 00 00 00 00 00 00 00
       0.0 0.0 0.0 0.0
000040 00 00 00 00 00 00 00 00 00 00 00 00 00 00 00 00
       0.0 0.0 0.0 0.0
000050 00 00 00 00 00 00 00 00 00 00 00 00 00 00 00 00
       0.0 0.0 0.0 0.0
000060 00 00 00 00 00 00 00 00 00 00 00 00 00 00 00 00
       0.0 0.0 0.0 0.0
000070 00 00 00 00 00 00 00 00 00 00 00 00 00 00 00 00
       0.0 0.0 0.0 0.0
000080 00 00 00 00 00 00 00 00 00 00 00 00 00 00 00 00
       0.0 0.0 0.0 0.0
000090 00 00 00 00 00 00 00 00 00 00 00 00 00 00 00 00
       0.0 0.0 0.0 0.0
0000a0 00 00 00 00 00 00 00 00 00 00 00 00 00 00 00 00
       0.0 0.0 0.0 0.0
0000b0 00 00 00 00 00 00 00 00 00 00 00 00 00 00 00 00
       0.0 0.0 0.0 0.0
0000c0 00 00 00 00 00 00 00 00 00 00 00 00 00 00 00 00
       0.0 0.0 0.0 0.0
0000d0 00 00 00 00 00 00 00 00 00 00 00 00 00 00 00 00
       0.0 0.0 0.0 0.0
0000e0 00 00 00 00 00 00 00 00 00 00 00 00 00 00 00 00
       0.0 0.0 0.0 0.0
0000f0 00 00 00 00 00 00 00 00 00 00 00 00 00 00 00 00
       0.0 0.0 0.0 0.0
000100 00 00 00 00 00 00 00 00 00 00 00 00 00 00 00 00
       0.0 0.0 0.0 0.0
000110 00 00 00 00 00 00 00 00 00 00 00 00 00 00 00 00
       0.0 0.0 0.0 0.0
000120 00 00 00 00 00 00 00 00 00 00 00 00 00 00 00 00
       0.0 0.0 0.0 0.0
000130 00 00 00 00 00 00 00 00 00 00 00 00 00 00 00 00
       0.0 0.0 0.0 0.0
000140 00 00 00 00 00 00 00 00 00 00 00 00 00 00 00 00
       0.0 0.0 0.0 0.0
000150 00 00 00 00 00 00 00 00 00 00 00 00 00 00 00 00
       0.0 0.0 0.0 0.0
000160 00 00 00 00 00 00 00 00 00 00 00 00 00 00 00 00
       0.0 0.0 0.0 0.0
000170 00 00 00 00 00 00 00 00 00 00 00 00 00 00 00 00
       0.0 0.0 0.0 0.0
000180 00 00 00 00 00 00 00 00 00 00 00 00 00 00 00 00
       0.0 0.0 0.0 0.0
000190 00 00 00 00 00 00 00 00 00 00 00 00 00 00 00 00
       0.0 0.0 0.0 0.0
0001a0 00 00 00 00 00 00 00 00 00 00 00 00 00 00 00 00
       0.0 0.0 0.0 0.0
0001b0 00 00 00 00 00 00 00 00 00 00 00 00 00 00 00 00
       0.0 0.0 0.0 0.0
0001c0 00 00 00 00 00 00 00 00 00 00 00 00 00 00 00 00
       0.0 0.0 0.0 0.0
0001d0 00 00 00 00 00 00 00 00 00 00 00 00 00 00 00 00
       0.0 0.0 0.0 0.0
0001e0 00 00 00 00 00 00 00 00 00 00 00 00 00 00 00 00
       0.0 0.0 0.0 0.0
0001f0 00 00 00 00 00 00 00 00 00 00 00 00 00 00 00 00
       0.0 0.0 0.0 0.0
000200 00 00 80 3f 00 00 80 3f 00 00 80 3f 00 00 80 3f
       1.0 1.0 1.0 1.0
000210 00 00 80 3f 00 00 80 3f 00 00 80 3f 00 00 80 3f
       1.0 1.0 1.0 1.0
000220 00 00 80 3f 00 00 80 3f 00 00 80 3f 00 00 80 3f
       1.0 1.0 1.0 1.0
000230 00 00 80 3f 00 00 80 3f 00 00 80 3f 00 00 80 3f
       1.0 1.0 1.0 1.0
000240 00 00 80 3f 00 00 80 3f 00 00 80 3f 00 00 80 3f
       1.0 1.0 1.0 1.0
000250 00 00 80 3f 00 00 80 3f 00 00 80 3f 00 00 80 3f
       1.0 1.0 1.0 1.0
000260 00 00 80 3f 00 00 80 3f 00 00 80 3f 00 00 80 3f
       1.0 1.0 1.0 1.0
000270 00 00 80 3f 00 00 80 3f 00 00 80 3f 00 00 80 3f
       1.0 1.0 1.0 1.0
000280 00 00 80 3f 00 00 80 3f 00 00 80 3f 00 00 80 3f
       1.0 1.0 1.0 1.0
000290 00 00 80 3f 00 00 80 3f 00 00 80 3f 00 00 80 3f
       1.0 1.0 1.0 1.0
0002a0 00 00 80 3f 00 00 80 3f 00 00 80 3f 00 00 80 3f
       1.0 1.0 1.0 1.0
0002b0 00 00 80 3f 00 00 80 3f 00 00 80 3f 00 00 80 3f
       1.0 1.0 1.0 1.0
0002c0 00 00 80 3f 00 00 80 3f 00 00 80 3f 00 00 80 3f
       1.0 1.0 1.0 1.0
0002d0 00 00 80 3f 00 00 80 3f 00 00 80 3f 00 00 80 3f
       1.0 1.0 1.0 1.0
0002e0 00 00 80 3f 00 00 80 3f 00 00 80 3f 00 00 80 3f
       1.0 1.0 1.0 1.0
0002f0 00 00 80 3f 00 00 80 3f 00 00 80 3f 00 00 80 3f
       1.0 1.0 1.0 1.0
000300 00 00 00 00 00 00 00 00 00 00 00 00 00 00 00 00
       0.0 0.0 0.0 0.0
000310 00 00 00 00 00 00 00 00 00 00 00 00 00 00 00 00
       0.0 0.0 0.0 0.0
000320 00 00 00 00 00 00 00 00 00 00 00 00 00 00 00 00
       0.0 0.0 0.0 0.0
000330 00 00 00 00 00 00 00 00 00 00 00 00 00 00 00 00
       0.0 0.0 0.0 0.0
000340 00 00 00 00 00 00 00 00 00 00 00 00 00 00 00 00
       0.0 0.0 0.0 0.0
000350 00 00 00 00 00 00 00 00 00 00 00 00 00 00 00 00
       0.0 0.0 0.0 0.0
000360 00 00 00 00 00 00 00 00 00 00 00 00 00 00 00 00
       0.0 0.0 0.0 0.0
000370 00 00 00 00 00 00 00 00 00 00 00 00 00 00 00 00
       0.0 0.0 0.0 0.0
000380 00 00 00 00 00 00 00 00 00 00 00 00 00 00 00 00
       0.0 0.0 0.0 0.0
000390 00 00 00 00 00 00 00 00 00 00 00 00 00 00 00 00
       0.0 0.0 0.0 0.0
0003a0 00 00 00 00 00 00 00 00 00 00 00 00 00 00 00 00
       0.0 0.0 0.0 0.0
0003b0 00 00 00 00 00 00 00 00 00 00 00 00 00 00 00 00
       0.0 0.0 0.0 0.0
0003c0 00 00 00 00 00 00 00 00 00 00 00 00 00 00 00 00
       0.0 0.0 0.0 0.0
0003d0 00 00 00 00 00 00 00 00 00 00 00 00 00 00 00 00
       0.0 0.0 0.0 0.0
0003e0 00 00 00 00 00 00 00 00 00 00 00 00 00 00 00 00
       0.0 0.0 0.0 0.0
0003f0 00 00 00 00 00 00 00 00 00 00 00 00 00 00 00 00
       0.0 0.0 0.0 0.0
