code/selfparking/mla/results/test_30/Car.onnx (onnx, 710352 bytes, 10 tensors)

network_body._body_endoder.seq_layers.0.weight f4 [256, 108]
0	0x3dcf2215	0.101139225
1	0x3da82a6c	0.08211216
2	0x3d7a9a78	0.06118247
3	0x3df1a0bf	0.11798238
4	0x3d0f9106	0.035050415
5	0xbd76f9fd	-0.060297
6	0xbd62aff3	-0.05534358
7	0xbe7ead24	-0.24870735
8	0xbd507374	-0.050891355
9	0xbc9cf71d	-0.019160802
10	0xbc541c33	-0.012946176
11	0xbdfc560e	-0.12321101
12	0x3df3f849	0.11912591
13	0xbc9b4de4	-0.01895804
14	0xbd2c5755	-0.042075474
15	0xbce15668	-0.027507022
16	0x3db67348	0.08908707
17	0x3e001b91	0.12510516
18	0x3d7ddd27	0.061978485
19	0xbc68b602	-0.01420355
20	0xbd599d2d	-0.05312841
21	0x3d7596ea	0.059958376
22	0xbd3a0322	-0.045413144
23	0x3e8c9772	0.27459294
24	0xbd38c2e1	-0.045107726
25	0xbe171bdb	-0.1475672
26	0x3c66a829	0.014078178
27	0x3dd9ca9b	0.10634347
28	0xbe4ecf68	-0.20196307
29	0xbcc29902	-0.0237546
30	0x3d8bc1a9	0.06824047
31	0xbbc8f9bb	-0.006133286
32	0xbd5d2ae3	-0.053995978
33	0x3e0b6879	0.13614072
34	0x3de9355a	0.11387129
35	0xbd17cb17	-0.037058916
36	0xbe12a509	-0.14320768
37	0x3d871491	0.065957196
38	0x3e495e84	0.19664961
39	0xbe4f66b3	-0.2025402
40	0x3d56bca4	0.052425995
41	0x3d1bdf18	0.038054556
42	0x3d95aeac	0.07308707
43	0x3d9f3fee	0.077758655
44	0xbd4aacdd	-0.04948126
45	0x3dd811b7	0.10550254
46	0xbd9885e8	-0.074474156
47	0x3daac4de	0.08338331
48	0x3cf3a120	0.029739916
49	0x3d907f1b	0.070554934
50	0x3d28dd0f	0.041226443
51	0x3d42339b	0.047412496
52	0x3de77ae3	0.11302736
53	0x3d6e9310	0.05824572
54	0xbd780a46	-0.060556673
55	0xbd4a3d9c	-0.04937516
56	0x3e128408	0.14308178
57	0x3c92575a	0.017863918
58	0x3d88a499	0.066720195
59	0xbe2297d9	-0.15878238
60	0x3d7a6477	0.061130967
61	0x3e1cbfe8	0.15307581
62	0x3d93f754	0.072249085
63	0xbd95e3cf	-0.07318842
64	0x3bf053fb	0.00733423
65	0x3d85c5f3	0.065318964
66	0xbd9a2d1b	-0.075281344
67	0x3c52eee0	0.012874335
68	0xbd8870dc	-0.06662151
69	0xbcef38d7	-0.029201908
70	0xbd5ced9a	-0.053937532
71	0xbd04632e	-0.032321148
72	0xbda3b103	-0.07992747
73	0x3cdf7eee	0.027282204
74	0xbc878973	-0.016545033
75	0x3d218bf7	0.03944012
76	0x3db0e47e	0.086373314
77	0xbcc11f65	-0.02357454
78	0x3cf983be	0.030458327
79	0xbe466d88	-0.1937772
80	0xbe087907	-0.13327418
81	0xbc9e1f9e	-0.019302186
82	0x3dd0bd92	0.10192408
83	0x3d1214b5	0.03566428
84	0xbdca8eb2	-0.09890498
85	0xbd9ecfbb	-0.07754465
86	0xbd266cb4	-0.04063101
87	0xbd1b0a1f	-0.03785145
88	0xbb981e2e	-0.0046422696
89	0x3da9b0ef	0.082857005
90	0xbe349808	-0.1763612
91	0x3d460c3d	0.048351515
92	0xbd89c628	-0.067272484
93	0x3d00900b	0.03138737
94	0xbce796b4	-0.028270103
95	0xbe1264eb	-0.1429631
96	0x3b5142ab	0.0031930606
97	0xbd07f7af	-0.033195194
98	0x3d15e589	0.036595855
99	0x3b8b8a68	0.0042584427
100	0xbd68befd	-0.056822766
101	0x3d1b8fb3	0.03797884
102	0x3debe15a	0.11517592
103	0xbd908190	-0.07055962
104	0xbd40f123	-0.047104966
105	0x3e0b1303	0.13581471
106	0xbe0e50d7	-0.13898025
107	0x3ca08609	0.019595163
108	0x3d8c322b	0.06845506
109	0x3c911c13	0.017713582
110	0x3df7d3af	0.12100922
111	0xbce84d55	-0.028357187
112	0xbda6cfe9	-0.081451245
113	0xbc2cccaf	-0.010546847
114	0x3d8d28f0	0.06892574
115	0x3dd63718	0.10459727
116	0x3e140532	0.14455107
117	0x3d8f7c15	0.07006089
118	0x3cf1b7e7	0.029506637
119	0x3d9c085c	0.07618782
120	0x3d9ab28e	0.07553588
121	0xbceb50b9	-0.028725015
122	0xbe45bff4	-0.19311506
123	0x3db80ac8	0.08986431
124	0x3d1d089a	0.03833828
125	0x3da6bbef	0.08141314
126	0x3dfcf7f8	0.12351984
127	0x3de412fb	0.11136433
128	0xbbe1518d	-0.0068761767
129	0x3d8ea534	0.06965104
130	0x3e83bc85	0.25729766
131	0xbe165b49	-0.1468326
132	0x3d011680	0.0315156
133	0xbd9788c5	-0.073991336
134	0x3db30a24	0.087421685
135	0x3d8d1c2d	0.0689014
136	0x3c8bb955	0.017056147
137	0x3d70fdad	0.058835674
138	0xbd63bcd0	-0.055599988
139	0x3da3d2ac	0.07999167
140	0xbda308d4	-0.07960668
141	0xbde9be27	-0.11413222
142	0x3e0008b9	0.12503327
143	0x3cdc1d0c	0.02686932
144	0x3ccf8425	0.025331566
145	0xbceb5950	-0.028729111
146	0x3bc1a3af	0.005909405
147	0xbdda75c9	-0.10666997
148	0x3d3ddc45	0.046352644
149	0xbe7db856	-0.2477735
150	0x3e162781	0.14663507
151	0x3d562e98	0.05229053
152	0x3d228975	0.03968187
153	0xbce5ca4d	-0.028050566
154	0xbd327f73	-0.043578576
155	0xbe30e6dc	-0.17275566
156	0x3d1a2c70	0.037640035
157	0x3d831a3b	0.064014874
158	0xbdaa1dc9	-0.08306462
159	0xbdff6438	-0.12470287
160	0xbca68274	-0.020325877
161	0xbd236119	-0.03988752
162	0xbcc3dc11	-0.023908647
163	0x3c90474e	0.017612126
164	0x3d0807db	0.033210617
165	0x3bc2f334	0.005949402
166	0xbc4006df	-0.011720388
167	0x3db70f08	0.08938414
168	0xbdae0b7a	-0.08498283
169	0xbe39e016	-0.18151888
170	0xbe2c5d69	-0.16832508
171	0x3d90b61d	0.07065985
172	0xbdc69344	-0.096960574
173	0xbd947b78	-0.07250112
174	0xbdaa7097	-0.08322256
175	0x3d44f423	0.04808439
176	0xba4717c0	-0.00075947866
177	0xbdcf7fd9	-0.10131807
178	0xbcfa3027	-0.030540539
179	0x3be7515b	0.007059259
180	0xbe174fef	-0.14776586
181	0xbe090a4d	-0.13382836
182	0xbd6468ef	-0.055764135
183	0xbe022af6	-0.12711701
184	0x3d88bbf1	0.06676472
185	0x3c3d4491	0.011551992
186	0xbdad1a69	-0.08452303
187	0xbe3b9ae6	-0.18320808
188	0xbde04348	-0.10950333
189	0x3e05982f	0.13046335
190	0x3d96660c	0.07343683
191	0xbd9d2c2a	-0.07674439
192	0xbdba3f31	-0.09094084
193	0x3e0ac83a	0.13552943
194	0xbe5561c8	-0.20838082
195	0x3e3cfe9a	0.18456498
196	0x3e276bde	0.16349742
197	0xbd695d53	-0.056973767
198	0xbc92d19a	-0.017922211
199	0x3e0f772b	0.14010303
200	0xbe707c84	-0.23484999
201	0x3e113640	0.14180851
202	0xbd36f06b	-0.044662874
203	0x3d960357	0.07324856
204	0xbdfc6e9a	-0.12325783
205	0x3da61104	0.08108714
206	0xbaeb1d6d	-0.0017937847
207	0xbe04c005	-0.12963875
208	0xbe1a9800	-0.15097046
209	0xbd45c079	-0.04827926
210	0xbd1e2040	-0.038604975
211	0xbc04d034	-0.00810628
212	0xbe388908	-0.18021023
213	0x3d5c9452	0.053852387
214	0x3dc83b61	0.09776951
215	0x3d7780d9	0.060425613
216	0x3dcfa6ed	0.101392604
217	0xbd6e4d49	-0.058179174
218	0x3dfb7002	0.12277223
219	0xbd1df5ee	-0.038564615
220	0x3d6bd711	0.05757815
221	0x3d746111	0.059662882
222	0xbd39c84b	-0.04535703
223	0x3e410085	0.18847854
224	0xbde1d5d0	-0.110271096
225	0x3c7a78bd	0.015287575
226	0xbe04d3c6	-0.1297141
227	0x3cc246f3	0.023715472
228	0x3de280c6	0.11059718
229	0xbcdc4642	-0.02688897
230	0xbdd222c6	-0.10260539
231	0x3d997ec9	0.074948855
232	0x3dda7177	0.10666173
233	0x3c51a8e0	0.012796611
234	0x3d91f879	0.071274705
235	0x3e0e0f7a	0.13873091
236	0xbd89dbaf	-0.067313544
237	0xbd058b5d	-0.03260361
238	0x3dc98d9d	0.09841464
239	0xbe4a751b	-0.19771235
240	0x3dbc025d	0.09180138
241	0xbda29cff	-0.07940101
242	0xbca28f47	-0.01984371
243	0xbd907d57	-0.07055157
244	0x3bf3bdd5	0.007438401
245	0xbdb97115	-0.09054772
246	0x3db0c676	0.086316034
247	0x3cb403d9	0.021974491
248	0x3a1830b9	0.00058056
249	0x3d864603	0.065563224
250	0x3be2bb98	0.0069193356
251	0xbdfd3bef	-0.12364947
252	0x3e4df1ab	0.2011172
253	0x3d8c02fa	0.06836505
254	0xbdee0371	-0.1162175
255	0xbdae79ec	-0.085193485

network_body._body_endoder.seq_layers.0.bias f4 [256]
0	0x3a038726	0.0005017392
1	0x3ae73248	0.0017638886
2	0x3b032aa1	0.0020014422
3	0x39d3dd21	0.0004040981
4	0x3b3f98f4	0.0029235454
5	0x3ab91168	0.0014119567
6	0x3a222743	0.000618566
7	0xba6f08ee	-0.0009118457
8	0xbb321370	-0.002717223
9	0x3a5aff6a	0.00083540997
10	0x3ac90f75	0.001533969
11	0x38e29cbf	0.00010805716
12	0xba882a13	-0.0010388516
13	0x3a7d2ebb	0.00096581475
14	0xbaf61e5f	-0.0018777362
15	0xbb16f5ba	-0.0023034648
16	0xb9f12099	-0.0004599139
17	0x3a88c8b3	0.001043579
18	0xba535f8f	-0.00080632506
19	0x3ad06cf7	0.0015901615
20	0x39bbe183	0.0003583544
21	0x3ade46d3	0.0016958363
22	0xba855884	-0.0010173474
23	0xba116bae	-0.00055473566
24	0xb9f889d6	-0.00047404942
25	0xba088e72	-0.0005209214
26	0x3a41556a	0.00073750934
27	0xba943b72	-0.001130922
28	0xba33bad2	-0.00068561465
29	0xb8dcaac8	-0.00010522228
30	0xb8e26cbd	-0.00010796774
31	0xbaae1007	-0.0013279923
32	0x3a3e97ef	0.00072705647
33	0xb9897742	-0.0002621953
34	0xb9cea3a9	-0.00039413318
35	0x3b074f5f	0.0020646674
36	0x398c3033	0.00026738792
37	0x39a71649	0.00031869326
38	0xb9a1534e	-0.0003077038
39	0x3831eb14	4.2419022e-05
40	0xbb57460a	-0.0032848143
41	0x3aa2c2ba	0.0012417652
42	0xba8e4775	-0.0010855036
43	0x3af9edfc	0.0019068117
44	0xbb029eb5	-0.0019931023
45	0xbb648df7	-0.0034874657
46	0x3bb34ef8	0.0054720603
47	0xb9badc54	-0.00035640842
48	0x395f5302	0.0002129786
49	0x3981682f	0.0002468242
50	0x3b535091	0.0032244066
51	0x39d789ad	0.00041110572
52	0xba155c7e	-0.00056976813
53	0xbaa2a0c0	-0.0012407526
54	0x3aad7e09	0.0013236414
55	0x3b1a04b1	0.0023501331
56	0x3b100c80	0.0021980107
57	0x39c7adc3	0.000380857
58	0xbb09dd14	-0.0021036314
59	0xba93f12f	-0.0011287088
60	0xb9ec7ddd	-0.00045107203
61	0x3b232a7c	0.0024897149
62	0x3afe0505	0.0019380158
63	0x3adcf4fa	0.0016857677
64	0xbb431d26	-0.0029772012
65	0x3aa4911e	0.0012555455
66	0x3b34022a	0.002746711
67	0x39db747c	0.00041857723
68	0x39a39cb7	0.00031206544
69	0xba517d28	-0.0007991367
70	0x3afad97f	0.0019138305
71	0xba28fbc0	-0.0006446205
72	0x3ad41a88	0.0016182223
73	0xbb1ecc90	-0.0024230815
74	0x3aed52b3	0.0018106311
75	0xbba0395b	-0.00488965
76	0xba252e58	-0.0006301156
77	0x38df1c0c	0.00010638693
78	0x39d4a20d	0.00040556528
79	0x3a39455e	0.00070675265
80	0x3af93500	0.0019012988
81	0xb9d3c589	-0.0004039223
82	0x3a84c76f	0.0010130237
83	0xbad3c918	-0.0016157953
84	0xbb244d07	-0.0025070326
85	0x3ac6a5de	0.0015155633
86	0x3a145e55	0.00056598085
87	0xba136dc4	-0.00056239613
88	0x39aa5e10	0.0003249501
89	0xbac6bf89	-0.0015163283
90	0x3a8a2ab2	0.0010541289
91	0x3b7a749a	0.0038216473
92	0x3a2cec80	0.00065965205
93	0xba83b3c6	-0.0010048083
94	0x3b4753ef	0.0030415019
95	0x3982c833	0.00024944692
96	0x3a65cf48	0.0008766544
97	0xbacf0c5c	-0.001579653
98	0xbb464f7f	-0.0030259786
99	0xbadd1d11	-0.0016869624
100	0xbaa3ce81	-0.0012497456
101	0xba21666c	-0.00061569246
102	0xba65f8ee	-0.000877275
103	0xba846b12	-0.001010271
104	0x3b135d01	0.0022485855
105	0xbb091280	-0.0020915568
106	0xbb6676b7	-0.0035165974
107	0xba850777	-0.001014932
108	0xb9e3d223	-0.00043453378
109	0xbb50966b	-0.0031827937
110	0x3907b0ee	0.00012940515
111	0xbb034188	-0.0020028073
112	0x3a670382	0.00088124734
113	0xbaf15479	-0.0018412016
114	0xbb0021c1	-0.001955137
115	0x3aaace5b	0.001303147
116	0x3b31d537	0.0027135143
117	0x375ff6a0	1.3349258e-05
118	0xb9997c07	-0.00029274842
119	0x3b388218	0.0028153714
120	0xbacb9531	-0.0015532133
121	0xbadf0458	-0.0017014844
122	0xbb3272eb	-0.002722914
123	0xbb33dcb0	-0.0027444772
124	0x3a4a656d	0.0007720802
125	0xbac58b76	-0.001507147
126	0xba4ef851	-0.00078952784
127	0xb797e66c	-1.8107901e-05
128	0xbae3ee65	-0.0017389773
129	0x390bd9bc	0.00013337185
130	0x3903a541	0.00012554695
131	0xbb10732f	-0.002204131
132	0xba103ac9	-0.0005501924
133	0x3993c0db	0.00028181713
134	0x3a7cc19c	0.0009641887
135	0x3b28ceb5	0.0025757973
136	0x3b26a863	0.0025429956
137	0x3b46b674	0.0030321153
138	0xb9e8b142	-0.00044382556
139	0xba22f432	-0.00062161975
140	0x3a751f98	0.0009350716
141	0xba74006a	-0.0009307923
142	0xba87e0cc	-0.0010366677
143	0xba253b04	-0.00063030445
144	0x3aab2c34	0.0013059438
145	0xbb110dc6	-0.0022133454
146	0x3a5c5d62	0.0008406249
147	0x3a026618	0.00049743196
148	0x3b0b242f	0.0021231284
149	0xba86e276	-0.0010290879
150	0x3847d3f3	4.764269e-05
151	0x3a92a341	0.001118757
152	0x3afc0697	0.0019228038
153	0xbab3bb41	-0.0013712422
154	0x3905c389	0.00012756711
155	0xbb3efa98	-0.0029141065
156	0xbb5ebfa7	-0.0033988745
157	0x3a34aae0	0.00068919174
158	0xbb082bba	-0.0020778016
159	0x3b898a21	0.0041973745
160	0x3a747cf5	0.00093264814
161	0x3a85a903	0.0010197464
162	0xba8373fe	-0.0010029075
163	0xbab3f1be	-0.0013728661
164	0x3b5235ad	0.003207545
165	0x3b9f688a	0.004864757
166	0x39c61408	0.00037780427
167	0x3a7bc98f	0.00096049247
168	0xbb8377ac	-0.0040120687
169	0x3af120f5	0.0018396663
170	0xba32e8dd	-0.00068248605
171	0xba7087a3	-0.0009175485
172	0xbaaab017	-0.001302245
173	0xbb04bf0b	-0.0020255472
174	0x3b083cca	0.0020788186
175	0xba3d2592	-0.0007215376
176	0xb987bbf5	-0.00025889245
177	0xbb501a49	-0.0031753948
178	0xbaa28122	-0.0012398104
179	0xbab0a12e	-0.001347577
180	0x390831fa	0.00012988588
181	0x3a667aad	0.0008792084
182	0xbb2228a6	-0.0024743467
183	0xb793efdc	-1.7635459e-05
184	0x39c9349b	0.00038376902
185	0xb94d6ea4	-0.0001959154
186	0x3aa8eacf	0.0012887361
187	0xbb04607d	-0.0020199113
188	0x3b30c173	0.0026970773
189	0x39b23031	0.0003398671
190	0x3b079d5c	0.0020693159
191	0xb985953e	-0.0002547893
192	0x38245a0c	3.918451e-05
193	0xbb275d49	-0.002553778
194	0xba1473b5	-0.00056629936
195	0x3a6e7375	0.0009096184
196	0x3b3929c8	0.0028253663
197	0xb9499108	-0.00019222882
198	0x3a720c02	0.00092333567
199	0x3b0064df	0.0019591374
200	0xbb52cc1a	-0.003216511
201	0x3af46426	0.0018645569
202	0xb95b500a	-0.00020915284
203	0x3ac1ccec	0.0014785803
204	0x3b39c48d	0.0028345913
205	0x38be07de	9.0613714e-05
206	0xbb2215c2	-0.0024732207
207	0xba8dbe1e	-0.0010814106
208	0xba23cfe5	-0.0006248935
209	0x3ab85ef6	0.0014066387
210	0x3acedd52	0.0015782511
211	0xb91444ab	-0.0001413996
212	0xb9cb4023	-0.00038766963
213	0xbb1829e2	-0.0023218323
214	0xb9839af2	-0.0002510171
215	0x3a9ff4b3	0.0012203663
216	0x3b0c65ba	0.0021422938
217	0xbb6c3ed1	-0.0036048184
218	0x398ffc1c	0.00027462922
219	0x396eeb55	0.00022785117
220	0x3b623309	0.0034515283
221	0xb9405d5f	-0.0001834533
222	0xbb0d02fb	-0.002151667
223	0x3a26a456	0.00063568854
224	0xba1a109c	-0.0005877109
225	0x39b9167e	0.00035302708
226	0x3a378646	0.00070009043
227	0xba3ad9bf	-0.00071277836
228	0xba7d2f10	-0.0009658197
229	0xbb464aa6	-0.0030256896
230	0xb93bf1af	-0.00017923744
231	0xbb5b3e49	-0.0033453873
232	0xba3cf9d4	-0.0007208858
233	0x3b08d8ef	0.0020881256
234	0xbacbd7fc	-0.0015552039
235	0x3a45be13	0.0007543277
236	0xbb496c74	-0.003073481
237	0x3a733c27	0.0009278678
238	0xba0fbab6	-0.0005482839
239	0x393a470b	0.00017764808
240	0x395ced31	0.00021069196
241	0x3a2903ec	0.0006447423
242	0xba8e3ea6	-0.0010852411
243	0xbb50eedb	-0.003188065
244	0xba3cf03a	-0.00072074274
245	0x3aa39564	0.0012480435
246	0xbafff053	-0.0019526578
247	0xba849992	-0.0010116568
248	0x39d0b4cb	0.00039807553
249	0xbb35a65b	-0.0027717564
250	0x3ae04999	0.0017111778
251	0x3a6ca1dd	0.0009026805
252	0x3992e7b5	0.00028019925
253	0xba360c69	-0.0006944598
254	0xbab5c79c	-0.0013868692
255	0x399d914a	0.00030053622

network_body._body_endoder.seq_layers.2.weight f4 [256, 256]
0	0xbc4247ea	-0.011857966
1	0xbca2a900	-0.019855976
2	0x3d2e6c8d	0.04258399
3	0x3cff4d93	0.03116492
4	0x3ce892c5	0.028390298
5	0xbda698d7	-0.08134621
6	0xbac51fad	-0.0015039347
7	0x3e093424	0.13398796
8	0x3c737729	0.014859953
9	0xbd0923cb	-0.0334814
10	0x3dc4a469	0.09601671
11	0xbc396527	-0.0113156205
12	0x3d1f734a	0.038928308
13	0x3e359947	0.17734252
14	0xbd445866	-0.047935866
15	0x3ddf6613	0.10908141
16	0x3b14bdfe	0.0022696252
17	0xbd88319b	-0.066500865
18	0xbd0f39fa	-0.0349674
19	0x3d2bdd35	0.041959006
20	0xbd135d2e	-0.035977535
21	0x3cf6c633	0.030123806
22	0x3db64b83	0.089011215
23	0x3c134fa4	0.008991156
24	0x3c5c6033	0.01345067
25	0xbc44017a	-0.011963243
26	0xbc542a71	-0.012949572
27	0xbd67b223	-0.05656637
28	0x3c1b14de	0.009465424
29	0xbe00f3e2	-0.12593034
30	0xbd3cccd7	-0.046093788
31	0x3c420206	0.011841303
32	0xbc40f64b	-0.011777471
33	0x3d89be3a	0.06725736
34	0xbd192866	-0.037392043
35	0x3b120ea0	0.002228655
36	0xbd9638fc	-0.07335088
37	0xbd9b2192	-0.075747624
38	0xbcc6a24c	-0.024247311
39	0xbdc41743	-0.09574749
40	0x3dcd1e49	0.10015542
41	0xbd146f9c	-0.03623925
42	0x3d467847	0.04845455
43	0x3d2271e9	0.039659414
44	0x3cb221f7	0.021744711
45	0x3d598324	0.05310358
46	0xbc0258c4	-0.007955734
47	0xbc5360fd	-0.012901542
48	0xba345b30	-0.0006880043
49	0xbd90681a	-0.07051106
50	0x3d17ded5	0.037077744
51	0x3aa8bd2a	0.0012873758
52	0x3ddf77e5	0.1091154
53	0xbd1d6149	-0.038422856
54	0x3cb89e9c	0.022536568
55	0x3e0c7ccb	0.1371948
56	0xbd946579	-0.07245917
57	0xbd602a57	-0.05472788
58	0xbd71e991	-0.059060637
59	0xbe3d2bb8	-0.18473709
60	0xbda994a0	-0.08280301
61	0xbc848033	-0.016174411
62	0x3c61a634	0.013772536
63	0x3dd6fd73	0.1049756
64	0xbcfdb043	-0.030967837
65	0xbdeb623c	-0.11493346
66	0x3ac4895f	0.0014994553
67	0x3d764d3b	0.060132246
68	0x3d174c32	0.0369379
69	0xbc26b8bb	-0.010175879
70	0xbd835772	-0.06413163
71	0x3cf8cc65	0.0303709
72	0xbd15bfec	-0.036559984
73	0x3dc928a3	0.09822204
74	0xbd469428	-0.048481137
75	0x3dab0d13	0.08352103
76	0x3d8aef57	0.06783932
77	0xbdab2e7a	-0.08358474
78	0xbd7bf50c	-0.06151299
79	0xbd6451b2	-0.055741973
80	0xbb5f7033	-0.0034093976
81	0xbd1e08cd	-0.03858261
82	0x3d7ab410	0.061206877
83	0xbe032514	-0.12807113
84	0x3cda8d35	0.02667866
85	0x3d59375f	0.05303132
86	0xbdee43aa	-0.11634
87	0x3d8adc6a	0.06780322
88	0xbc82eb67	-0.01598139
89	0x3a34d4bc	0.0006898155
90	0x3dc5b0fc	0.09652898
91	0x3d04ab16	0.032389723
92	0x3d64be83	0.05584575
93	0x3deeea03	0.11665728
94	0xbd39b715	-0.045340616
95	0xbcf9e614	-0.030505218
96	0xbc3e742f	-0.01162438
97	0xbd334a40	-0.043771982
98	0xbcc9666c	-0.024584971
99	0x3cee26bd	0.029071206
100	0xbdb38b2a	-0.08766778
101	0xbd08d591	-0.033406798
102	0xbbda889a	-0.006669116
103	0x3c5a89a6	0.013338482
104	0x3d332a8f	0.04374176
105	0x3e2c8826	0.16848812
106	0x3d491879	0.049095605
107	0xbd0098cf	-0.03139573
108	0x3d8e6a07	0.06953817
109	0xbccc08f1	-0.024906607
110	0x3c06bbf3	0.0082235215
111	0xbdae406a	-0.0850838
112	0xbcc56e2a	-0.024100382
113	0x3d7bd129	0.061478768
114	0x3c7d9edf	0.015479772
115	0xbd0a66be	-0.03378939
116	0x3cd35c27	0.025800778
117	0xbc330a8f	-0.01092781
118	0xbd1ccedd	-0.038283218
119	0x3d881c1d	0.06645987
120	0x3d885088	0.06655985
121	0xbcddc3f2	-0.027070973
122	0x3dcc583d	0.099777676
123	0x3d8eaff8	0.06967157
124	0xbd9d8d4d	-0.076929666
125	0xbc059eb0	-0.00815551
126	0x3dcabc0f	0.098991506
127	0xbd1ed208	-0.03877452
128	0xbda8e34e	-0.0824648
129	0xbad5a264	-0.0016299007
130	0xbd7d3f87	-0.061828163
131	0xbd20563d	-0.039144743
132	0x3cb8d82c	0.022564016
133	0xbd54cd53	-0.051953625
134	0x3dba8608	0.09107596
135	0xbd90bd6e	-0.07067381
136	0x3d8a7a26	0.06761579
137	0xbdcd6f6d	-0.100310184
138	0x3d99eadd	0.075155
139	0x3c4fb59c	0.012677576
140	0xbd39ddf8	-0.0453777
141	0xbb9ed725	-0.0048474246
142	0xbcd654b8	-0.026163444
143	0x3c8d6a6c	0.01726266
144	0xbd73465b	-0.059393268
145	0xbd011408	-0.031513244
146	0x3c334333	0.0109413145
147	0xbd28d0c9	-0.041214738
148	0xbcaec633	-0.021334743
149	0xbc483394	-0.012219328
150	0x3da0d550	0.07853186
151	0xbcf352ce	-0.02970257
152	0xbdc89a5b	-0.09795066
153	0xbcbb18c4	-0.022838958
154	0xbd5a75ac	-0.053334877
155	0x3d2a1d09	0.041531596
156	0xbcf3b0b5	-0.029747346
157	0x3a8e0de7	0.0010837883
158	0xbd335f4c	-0.043792054
159	0x3bbce69a	0.0057647945
160	0xbd46bfbe	-0.048522703
161	0x3c73fda7	0.014892018
162	0x3e17ad95	0.1481231
163	0x3d09ddf3	0.033658933
164	0xbd00d7dd	-0.031455863
165	0x3d8abf61	0.06774784
166	0xbe1660f9	-0.1468543
167	0xbd11a54d	-0.035558034
168	0xbccb7ad2	-0.024838839
169	0xbce90e2c	-0.02844914
170	0xbd98bc61	-0.074578054
171	0x3cc9902b	0.024604877
172	0x3e080a61	0.13285209
173	0xbd6f1795	-0.0583721
174	0xbd00baf2	-0.031428285
175	0xbdd2b11b	-0.102876864
176	0x3d3292a8	0.043596894
177	0xbd08526d	-0.033281732
178	0xbdb8ffcc	-0.090331644
179	0x3cb2d06c	0.021827899
180	0xbc51179a	-0.012761975
181	0xbbb49e0d	-0.005512005
182	0x3d809f4f	0.06280386
183	0x3ce1b174	0.027550437
184	0xbd49a7b6	-0.049232207
185	0x3d6a9b28	0.057276875
186	0xbd564859	-0.05231509
187	0xbcbd1694	-0.023082055
188	0xbd4b86a6	-0.049688958
189	0xbd498a0e	-0.049203925
190	0x3d8e087d	0.06935213
191	0x3da21147	0.07913452
192	0x3de969d0	0.11397135
193	0x3c9ebeef	0.019378154
194	0x3ba23293	0.0049498766
195	0x3da3521a	0.07974644
196	0xbbdd81f9	-0.0067598787
197	0x3d13ee3f	0.03611588
198	0xbd278315	-0.040896494
199	0xbc067b53	-0.008208114
200	0x3cf4b3e4	0.029870935
201	0x3d62c26a	0.05536119
202	0x3e090610	0.13381219
203	0xbd7cc171	-0.061707918
204	0x3dbcde54	0.09222093
205	0x3da0532f	0.07828366
206	0x3ce877db	0.028377464
207	0xbd040ddb	-0.032239776
208	0xbb0c8ebb	-0.0021447379
209	0x3daaf9d8	0.08348435
210	0xbc43d594	-0.011952776
211	0x3dbb5bab	0.09148344
212	0xbda47633	-0.08030357
213	0x3d1117a5	0.03542294
214	0x3d95fca3	0.07323577
215	0x3bf43220	0.0074522644
216	0x3bc3adcb	0.0059716455
217	0xbc97d895	-0.018535892
218	0xbc583670	-0.013196573
219	0x3de86068	0.11346513
220	0xbd0cdcf0	-0.03439039
221	0x3cdaa3d8	0.026689455
222	0x3ce37421	0.027765336
223	0x3c6336b1	0.01386802
224	0xbd7a1c81	-0.06106234
225	0x3d8d9493	0.06913104
226	0x3c83ebad	0.01610359
227	0xbd8915ee	-0.06693636
228	0x3d47616c	0.048676893
229	0x3de3d97d	0.11125467
230	0xbe138d69	-0.14409412
231	0x3d762179	0.060090516
232	0xbdbf21d1	-0.09332622
233	0x3bbe7e80	0.00581342
234	0xbde88ed2	-0.11355366
235	0xbddb42bf	-0.1070609
236	0x3ba7bbf7	0.0051188427
237	0x3cfc24fa	0.03077935
238	0xbcd4a5eb	-0.025958022
239	0x3d0ae809	0.033912692
240	0x3da7c333	0.08191528
241	0x3e0a8ff6	0.13531479
242	0x3d3c384e	0.045952134
243	0x3d0a913d	0.033829916
244	0x3d910ef9	0.07082934
245	0xbdb842e8	-0.08997136
246	0xbcde39b2	-0.02712712
247	0xbd48952d	-0.04897039
248	0x3d87a713	0.06623664
249	0xbdafd557	-0.08585613
250	0xbd47a2b2	-0.048739143
251	0x3d45b6f9	0.0482702
252	0xbcf85cac	-0.030317627
253	0xbb9b1988	-0.004733268
254	0x3cfdae40	0.030966878
255	0xbdb659d9	-0.08903856

network_body._body_endoder.seq_layers.2.bias f4 [256]
0	0x3924cc1c	0.00015716295
1	0xba1746e7	-0.0005770758
2	0xb9f1308a	-0.00046003266
3	0xba94ff47	-0.0011367582
4	0xbb1e2189	-0.0024128875
5	0x3a207aea	0.0006121831
6	0xba97a5de	-0.0011569818
7	0x39a98ebd	0.0003234054
8	0x3a5d545e	0.00084430526
9	0xba3854f7	-0.0007031704
10	0xbb6625ec	-0.0035117818
11	0xbb15fbd5	-0.00228857
12	0x3a08263a	0.00051936845
13	0xbacb777a	-0.0015523278
14	0xbb49cb3d	-0.0030791305
15	0xb9b2c6a0	-0.00034098793
16	0xbb662bcd	-0.0035121322
17	0xb7ae9ba8	-2.08149e-05
18	0xbaa22b15	-0.0012372459
19	0x392c14aa	0.00016410896
20	0x3a76d980	0.00094165653
21	0xbb0dc82e	-0.002163421
22	0x3b421425	0.0029614058
23	0x3a9b35e6	0.0011841625
24	0xba84e50d	-0.0010139063
25	0xba2b65b4	-0.0006538287
26	0x3ac2f481	0.0014873893
27	0x39db473a	0.00041824003
28	0x3a2ae0da	0.0006518491
29	0x39971099	0.0002881333
30	0x39e1eb5d	0.00043090704
31	0x3b1cb9a4	0.0023914361
32	0x3a0533eb	0.0005081284
33	0x39dfe444	0.00042703946
34	0xb9ba83c4	-0.00035574858
35	0x3aeeb6ed	0.0018212475
36	0xb7c7b176	-2.3805285e-05
37	0x3b10cd07	0.0022094862
38	0xbadecf42	-0.0016999024
39	0xba801bbb	-0.0009773889
40	0x3b3d15c1	0.0028852078
41	0x3ad37c36	0.001613504
42	0x39409813	0.00018367199
43	0xbaa0ab97	-0.0012258169
44	0xbaa91d1d	-0.0012902353
45	0x3af5060c	0.0018693819
46	0x3adf541b	0.0017038615
47	0xb969d116	-0.00022298502
48	0x3ae32af1	0.0017331523
49	0xbac6c302	-0.0015164318
50	0xba93c5e6	-0.0011274188
51	0xbb0306bd	-0.001999303
52	0x3bdceaae	0.006741843
53	0xb98bed7e	-0.00026689091
54	0x3b12bca3	0.0022390268
55	0x3ab3f817	0.0013730553
56	0x3acf0bb2	0.0015796332
57	0x3ad29251	0.0016065334
58	0x3a96f1e3	0.001151618
59	0x3991eacf	0.000278315
60	0xba5fc41b	-0.0008535997
61	0x3b239285	0.0024959159
62	0xba85adcf	-0.0010198894
63	0xba65fcad	-0.00087733084
64	0xbb0fdd31	-0.0021951909
65	0x3a68cebf	0.0008880905
66	0xb8bb97b4	-8.945112e-05
67	0x3a44ccae	0.0007507306
68	0x3a83ccb6	0.0010055515
69	0x3964f80a	0.00021836176
70	0x39a25f19	0.000309699
71	0xba897929	-0.0010488379
72	0x3a016e7d	0.00049374235
73	0xb9138e0e	-0.00014071932
74	0xbb3b33fb	-0.0028564918
75	0x3b03eb86	0.0020129397
76	0xbacecfca	-0.0015778479
77	0xba80d645	-0.0009829482
78	0xba81186c	-0.0009849197
79	0xbaf9534c	-0.0019022017
80	0xbb50e219	-0.0031873046
81	0xba5267b5	-0.0008026318
82	0xb985c63b	-0.0002551543
83	0x3a0677c6	0.0005129542
84	0xb88fd54c	-6.858501e-05
85	0x3af1bd58	0.001844327
86	0x3aa81a86	0.0012825287
87	0x3b76cb9d	0.0037657984
88	0xb9ba38e8	-0.00035519083
89	0xbabcb682	-0.0014397653
90	0xbabd8ed2	-0.001446212
91	0xbacf8f38	-0.0015835529
92	0xbb3be83b	-0.0028672356
93	0x396684ea	0.00021984024
94	0xba2515da	-0.00062975066
95	0xbb263114	-0.0025358843
96	0x3b394aaa	0.0028273263
97	0xbb4d1e94	-0.0031298744
98	0xb99ebf5f	-0.0003027869
99	0x3b09d093	0.002102886
100	0xb8edb2cb	-0.000113343434
101	0x3aff8ab1	0.0019496289
102	0x3ab7a289	0.0014010231
103	0x3a6bd970	0.0008996939
104	0xba5c0226	-0.0008392654
105	0xba344825	-0.00068772055
106	0x3b3a1a16	0.0028396896
107	0xb93d8d9e	-0.00018077201
108	0xbb75cbfc	-0.0037505617
109	0x39e10079	0.00042915696
110	0x3ac2e4aa	0.0014869173
111	0x3a520de0	0.0008012932
112	0xbaf07f6d	-0.0018348523
113	0x383f127b	4.555516e-05
114	0x3904b79f	0.00012656905
115	0xba61d90e	-0.00086154125
116	0xba183f9a	-0.0005807817
117	0xbb5ca9a5	-0.0033670452
118	0xbaa5a679	-0.0012638114
119	0xba027599	-0.000497663
120	0x3ae13f32	0.0017184971
121	0x3acda850	0.001569042
122	0x3af01489	0.0018316667
123	0xb8a9cfe8	-8.0972735e-05
124	0xbaa500ea	-0.0012588773
125	0xbac28d6a	-0.001484317
126	0xba7b7746	-0.0009592663
127	0x3a37b002	0.0007007123
128	0xbad22e66	-0.0016035556
129	0xba08237d	-0.00051932764
130	0x3b6e6473	0.003637579
131	0x39d6f82f	0.00041002172
132	0x3ace5228	0.0015741037
133	0xbb6753e7	-0.0035297812
134	0x39b2b2ed	0.00034084116
135	0x3ab9a454	0.0014163353
136	0x391d42f7	0.00014997633
137	0x39853c99	0.00025412886
138	0xb9a241d1	-0.00030948085
139	0x39cd06f8	0.0003910584
140	0x3b05e93c	0.0020433208
141	0x3a5cba33	0.000842008
142	0x3913d1ea	0.00014097212
143	0xba3d1eb2	-0.0007214352
144	0xbb3282b2	-0.0027238545
145	0x3adcf47f	0.0016857533
146	0xb9462819	-0.00018897689
147	0xba1cbeb8	-0.0005979347
148	0xbb16df49	-0.0023021272
149	0x38cdff9d	9.8227734e-05
150	0xb8359e36	-4.330111e-05
151	0x3ab74d43	0.0013984818
152	0xbb0f45d8	-0.0021861698
153	0xbab4fc27	-0.0013808057
154	0x3b0efd65	0.0021818515
155	0x38e32a90	0.000108321314
156	0xb87a70ae	-5.9709586e-05
157	0xbb08fb75	-0.0020901833
158	0xba56596f	-0.0008176779
159	0xba66ebb6	-0.00088089274
160	0xbb01a291	-0.0019780735
161	0xbb7032af	-0.0036651304
162	0x3a2c8e11	0.0006582449
163	0x3a8f4d38	0.0010933047
164	0xbac156ae	-0.0014750564
165	0xba105599	-0.0005505919
166	0x39104bf4	0.00013761205
167	0xba5a67a5	-0.0008331484
168	0x392b27ba	0.0001632263
169	0x3b1634de	0.0022919695
170	0xb96be8a7	-0.00022498016
171	0x3a82b726	0.0009972795
172	0x3b504dfa	0.003178476
173	0x3a5f4530	0.00085170846
174	0xba0b475b	-0.0005313062
175	0xba67d2d8	-0.0008843369
176	0x3a2905a8	0.0006447681
177	0xbb028594	-0.0019916045
178	0x3a5691f6	0.0008185202
179	0x3b42a895	0.0029702534
180	0xbab92804	-0.0014126305
181	0xbb4dfda3	-0.0031431697
182	0x3a98915d	0.0011640001
183	0xba368271	-0.00069621863
184	0x3996c978	0.00028760335
185	0x3b1804d1	0.002319623
186	0xb9f7fffa	-0.0004730223
187	0xbaa05c3b	-0.0012234518
188	0xba7556bf	-0.00093589345
189	0xb96f6d70	-0.00022833585
190	0xb8c1b706	-9.237048e-05
191	0x3a0d0cad	0.0005380612
192	0xba554247	-0.0008135181
193	0xbb531d33	-0.003221345
194	0x3a0434d7	0.0005043274
195	0x3b1895f1	0.0023282731
196	0xbabfc869	-0.001463187
197	0x398675a6	0.00025646127
198	0xb9cdbb52	-0.00039240211
199	0xbaaec426	-0.0013333603
200	0x3b102a22	0.002199777
201	0x3ad1b67e	0.0015999821
202	0xbaa9bf77	-0.0012950738
203	0xba5a9a9d	-0.0008339079
204	0xba462544	-0.00075586536
205	0xba05ff3c	-0.000511158
206	0xb9c7fbee	-0.0003814394
207	0x3b2cdadd	0.002637557
208	0xbb61eec9	-0.0034474602
209	0xbab8d661	-0.0014101976
210	0x3b061f35	0.0020465378
211	0xbb111979	-0.0022140427
212	0xb8eda7f0	-0.000113323214
213	0xb934a6c2	-0.0001722826
214	0xba92e0d8	-0.0011205925
215	0xb9dd5a10	-0.00042219507
216	0xba6bb19b	-0.0008991004
217	0xba33fe2e	-0.0006866184
218	0xba190077	-0.0005836556
219	0x3ab6338d	0.0013900861
220	0x3a83e8ac	0.0010063848
221	0x395ce69b	0.00021066742
222	0x3ada34af	0.0016647781
223	0x3b43db0b	0.0029885198
224	0x3b8206e2	0.0039681057
225	0x3b98e08c	0.00466544
226	0xbb1fa94c	-0.0024362383
227	0x3ac4f8dd	0.001502778
228	0x3b11071c	0.0022129482
229	0x3a970c58	0.0011524064
230	0x3a25fca2	0.0006331896
231	0x3abc581a	0.0014369518
232	0xbae473fb	-0.0017429584
233	0xb8f02374	-0.000114506955
234	0xb846e5e3	-4.7420977e-05
235	0x3a42e9c8	0.0007435349
236	0xba0da5c6	-0.00054034253
237	0xbb036c57	-0.002005359
238	0xbad5cf28	-0.0016312348
239	0xbae17f50	-0.001720408
240	0x3abcd1ed	0.0014405824
241	0xb96c1920	-0.00022516074
242	0x3a25af7a	0.00063203985
243	0x3ad36f66	0.0016131222
244	0xba9495aa	-0.0011336107
245	0x39d9d278	0.00041546277
246	0xbaa734c7	-0.0012756818
247	0x3af9e6ac	0.0019065938
248	0xb9cfd7aa	-0.000396428
249	0x3a0ea86c	0.0005441967
250	0xbb24d91f	-0.0025153828
251	0x3acde5fe	0.0015708802
252	0x3afa3560	0.0019089393
253	0x3b0c82fe	0.0021440382
254	0xbafb60d5	-0.0019178638
255	0x3a46ab09	0.0007578587

action_model._continuous_distribution.log_sigma f4 [1, 6]
0	0xbba2fd96	-0.0049740775
1	0xba6ec6ef	-0.0009108623
2	0x3b1c1dd8	0.00238215
3	0x3bae39f8	0.005316969
4	0xba22905c	-0.0006201321
5	0x3b22f231	0.0024863596

action_model._continuous_distribution.mu.weight f4 [6, 64]
0	0xbcd695c0	-0.026194453
1	0xbd483aae	-0.048884086
2	0xbcc3b25f	-0.023888765
3	0xbcb98005	-0.022644052
4	0x3c259155	0.010105451
5	0x3c006ac6	0.007837957
6	0xb9f6cee2	-0.00047074916
7	0xbaa1e8b5	-0.0012352677
8	0xbc45b30b	-0.012066613
9	0x3c0fcf75	0.008777489
10	0x3ab68455	0.0013924936
11	0x3cf56779	0.029956566
12	0xbd1c8acf	-0.038218316
13	0x3cfa7d80	0.030577421
14	0x3c169e20	0.009192973
15	0x3c00c709	0.007859954
16	0xbd77d4f2	-0.060505815
17	0x3b87b826	0.0041418253
18	0xbcf83145	-0.030296931
19	0xbc1f2966	-0.00971446
20	0xbc7ab5e8	-0.015302159
21	0x3b65a6c6	0.0035042032
22	0xbc29536b	-0.01033483
23	0x3cae22bd	0.021256799
24	0x3cf59231	0.029976936
25	0xb923d711	-0.0001562501
26	0xbcb4ca74	-0.022069193
27	0xbd283deb	-0.041074675
28	0x3bb56f3c	0.005536942
29	0xbcb7f828	-0.022457197
30	0x3c9ccad5	0.019139687
31	0x3c72d233	0.014820623
32	0xbb5d9838	-0.0033812653
33	0x3d842ca5	0.06453828
34	0x3cc1d344	0.02366031
35	0xbd0f7de6	-0.035032175
36	0x3ca26714	0.019824542
37	0x3cd526f4	0.02601955
38	0x3ce56f4e	0.028007176
39	0xbd8555b8	-0.0651049
40	0xbd44d098	-0.048050493
41	0xbc2bcd90	-0.010486022
42	0x3cf4c63e	0.029879685
43	0xbcc980c8	-0.02459754
44	0xbbb91b9f	-0.0056490446
45	0x3cea26e9	0.028583007
46	0x3cdf0b08	0.02722694
47	0x3b8c8bfb	0.004289148
48	0x3c9b24eb	0.018938502
49	0x3c44b198	0.012005232
50	0xbca433bc	-0.0200442
51	0x3bdd2a2d	0.0067494125
52	0xbca27091	-0.019829066
53	0xbb7855e4	-0.0037892992
54	0xbce05f11	-0.027389081
55	0x3c2debc9	0.010615298
56	0xbc9bbfd4	-0.01901237
57	0xbc86cc7d	-0.01645493
58	0xbc9c5387	-0.019082798
59	0x3b367bd7	0.002784481
60	0xbb61d365	-0.0034458276
61	0x3d3e1f5e	0.046416633
62	0xbc156b0d	-0.009119761
63	0x3c786b7e	0.015162347
64	0xbbad8328	-0.005295176
65	0xbc0058ed	-0.007833702
66	0xbd3d8d65	-0.046277422
67	0x3d1b8384	0.03796722
68	0xbc43b777	-0.011945597
69	0xbc8e94be	-0.01740491
70	0xbced105f	-0.02893847
71	0x3cbb968b	0.022898933
72	0x3c7be479	0.015374296
73	0x3d382bc4	0.044963613
74	0xbd1f7429	-0.03892914
75	0xbc41274c	-0.011789154
76	0x3c928e18	0.017890021
77	0x3c90ac4f	0.017660288
78	0xbb9fc4e7	-0.0048757675
79	0x3b409d2f	0.0029390564
80	0x3ccb3c40	0.024809003
81	0xbd516c77	-0.05112883
82	0x3a5c5cec	0.00084061804
83	0xbba789f7	-0.0051128822
84	0x3b9e2888	0.004826609
85	0x3c8ace92	0.016944204
86	0xbcb03937	-0.021511657
87	0x3cc5355a	0.024073292
88	0x3d8a4176	0.06750767
89	0xbb01d4d7	-0.00198107
90	0xbc37d9be	-0.011221347
91	0x3c5ee86a	0.0136052165
92	0x3d060722	0.032721646
93	0xbd6eb339	-0.05827639
94	0xbc612213	-0.013741034
95	0x3ca2b63c	0.019862287
96	0x3a881e2d	0.001038497
97	0x3ccfcab2	0.025365207
98	0x3c920096	0.017822545
99	0x3caafb13	0.020871675
100	0x3d44c9c9	0.048044
101	0x3b2a098a	0.0025945627
102	0xbca17265	-0.019707868
103	0x3c7d7fd2	0.015472369
104	0x3c8fa11a	0.017532874
105	0x3cdc19d7	0.02686779
106	0xbd0b22ef	-0.033968862
107	0xba95ea63	-0.001143765
108	0x3c38e6e0	0.011285514
109	0xbabfae31	-0.0014624057
110	0xbce5fea7	-0.02807553
111	0x3c7320bc	0.014839347
112	0xbc5925c0	-0.013253629
113	0xbd12795b	-0.035760265
114	0x3c2a9255	0.010410865
115	0xbc1085e6	-0.008820986
116	0xbd04614a	-0.032319345
117	0x3bcf62b8	0.006328907
118	0x3bf22dbf	0.0073907073
119	0x3cc5b534	0.024134256
120	0xbc2cdf91	-0.010551349
121	0xbb586847	-0.0033021139
122	0xbc8cd262	-0.017190162
123	0x3c56f071	0.013118849
124	0x3c16498f	0.009172811
125	0x3cb28325	0.02179105
126	0xbc8bf2db	-0.017083576
127	0xbc950249	-0.018189566
128	0x3d52d066	0.051468275
129	0x3c53d1d1	0.012928442
130	0x3bc60568	0.006043125
131	0xbc291050	-0.010318831
132	0xbd8e014f	-0.06933843
133	0xbc34ef25	-0.011043345
134	0x3bea1728	0.0071438737
135	0xbb5688b7	-0.0032735297
136	0x3aad089d	0.001320142
137	0x3a5e0242	0.00084689644
138	0x3d29169c	0.041281328
139	0xbbd6a5e9	-0.0065505398
140	0x3cc6a5d0	0.024248987
141	0x3b84f740	0.004057795
142	0xbc8a33a1	-0.016870322
143	0x3cfe6edb	0.03105872
144	0x3b185191	0.0023241977
145	0x3cb597e9	0.022167163
146	0xbbe7b657	-0.007071297
147	0xbbce6d76	-0.00629967
148	0x3cc18aae	0.023625698
149	0x3d1527d3	0.036414932
150	0x3c18c860	0.009325117
151	0x3ca1aaf4	0.019734837
152	0x3cd2375f	0.025661169
153	0x3c3df605	0.0115943
154	0xbc746158	-0.014915787
155	0xbc76de8d	-0.015067709
156	0x3d661541	0.056172613
157	0xbbe8a412	-0.007099637
158	0xbd4179db	-0.04723535
159	0xbb48de9d	-0.0030650266
160	0x3b70b1f4	0.0036727162
161	0x3cd14019	0.02554326
162	0xba4478b4	-0.0007494793
163	0xbb505025	-0.003178605
164	0xbcfa2f3b	-0.0305401
165	0x3c948e24	0.018134184
166	0xbd663e8f	-0.056212004
167	0xbd71a9c2	-0.058999784
168	0x3ca777f0	0.020442933
169	0xbba29092	-0.004961082
170	0x3c06dd89	0.008231529
171	0xbc433234	-0.011913825
172	0xbce59093	-0.02802304
173	0xbb2b5c2c	-0.0026147468
174	0x3b83e81b	0.004025472
175	0xbcd742b9	-0.026276933
176	0x3ce196df	0.027537761
177	0xbcde7c12	-0.02715877
178	0x3cc7dfe9	0.02439876
179	0x3c209344	0.009800736
180	0xbc908065	-0.017639348
181	0x3a788d74	0.00094815274
182	0xbccec98f	-0.025242595
183	0xbcf922ed	-0.030412162
184	0xbced8770	-0.028995246
185	0x3bcf638e	0.0063290065
186	0xbbcfd8f6	-0.0063430024
187	0x3d0daff7	0.03459164
188	0xbb8614db	-0.0040918416
189	0xbd0acd7d	-0.033887375
190	0x3ca74a52	0.02042118
191	0xbcee4b6d	-0.0290887
192	0x3c1632d8	0.0091673955
193	0xbc671db4	-0.014106203
194	0x3d3b6b6e	0.04575675
195	0x38be4251	9.0722584e-05
196	0x3d90f058	0.07077092
197	0x3c03d571	0.008046494
198	0x3d3146ed	0.04328053
199	0x3cf3fd4e	0.029783871
200	0x3d02991f	0.03188431
201	0x3c03c761	0.008043141
202	0xbd26c3ef	-0.0407142
203	0x3caea060	0.021316707
204	0x3c819175	0.01581643
205	0x3be4529e	0.0069678565
206	0xbc676540	-0.014123261
207	0xbd1adf26	-0.037810467
208	0xbaa95b4b	-0.0012920884
209	0x3aaf46a6	0.0013372495
210	0x3c2fe2b0	0.010735199
211	0x3cf12c02	0.02943993
212	0xbb7a2ddf	-0.0038174314
213	0xbbd6cfab	-0.0065555177
214	0x3c1ba603	0.0095000295
215	0x3b347d56	0.0027540526
216	0xbcb62ef7	-0.022239191
217	0xbcbe14ee	-0.02320334
218	0xbda25a4b	-0.07927378
219	0x3a86cbfb	0.001028418
220	0xbd2062cd	-0.039156724
221	0x3bbb12ae	0.005709014
222	0x3b704a2a	0.00366653
223	0xbccf9402	-0.02533913
224	0x3bff7b2f	0.007796667
225	0x3a1d4df8	0.0006000693
226	0x3c7a3b00	0.015272856
227	0x3cad63dc	0.02116578
228	0xbb51970b	-0.0031980898
229	0x3bb1b23d	0.005422859
230	0xbd35d681	-0.04439402
231	0xbd761298	-0.060076326
232	0x3cf80f5d	0.030280763
233	0x3d836253	0.06415238
234	0x3c49f9e5	0.012327646
235	0x3acf588c	0.0015819236
236	0xbc422053	-0.011848527
237	0x3b9630d5	0.004583458
238	0x3c5d1b18	0.013495229
239	0x3c9e1266	0.019295882
240	0xbb58c182	-0.0033074324
241	0x3d2afeea	0.04174701
242	0xbd2bafc0	-0.041915655
243	0x3bc249bf	0.0059292014
244	0xbd0a8638	-0.033819407
245	0xbc9c1e95	-0.019057551
246	0x3ca8c7cf	0.020603089
247	0xbcdf89a8	-0.02728732
248	0xbcab6c66	-0.020925712
249	0x3b1d8512	0.0024035615
250	0x3b872267	0.004123974
251	0xbc2bd801	-0.010488511
252	0xbc767a30	-0.01504378
253	0xbb5047de	-0.0031781117
254	0x3ca004ec	0.019533597
255	0xbd272ef4	-0.040816262

action_model._continuous_distribution.mu.bias f4 [6]
0	0x3bcb110f	0.006197102
1	0x39aec9e6	0.00033338292
2	0x3b08bc74	0.002086428
3	0x3aa5ddae	0.0012654567
4	0xbbad24c9	-0.005283926
5	0xb9eff35c	-0.0004576695

onnx::LSTM_101 f4 [1, 256, 256]
0	0xbd18ee90	-0.037336886
1	0x3deae0bf	0.11468648
2	0x3deaa5f8	0.11457437
3	0xbdba0103	-0.09082224
4	0x3db229cd	0.08699379
5	0xbd00f8f6	-0.031487428
6	0x3de6b6a2	0.11265303
7	0xbd1da814	-0.03849037
8	0xbd503e80	-0.050840855
9	0xbd68cdae	-0.056836776
10	0x3d49d98a	0.049279727
11	0xbe04f8e9	-0.12985577
12	0x3ae248aa	0.0017264087
13	0xbdcbb536	-0.099466726
14	0xbde5a74d	-0.11213551
15	0xbd264f04	-0.0406027
16	0xbd789c81	-0.06069613
17	0xbdba0215	-0.09082428
18	0x3ca4daaa	0.020123798
19	0x3dc88446	0.09790854
20	0x3e0d28c7	0.13785087
21	0xbb00ef31	-0.001967382
22	0xbd6c93c7	-0.05775812
23	0x3dbdee73	0.09273996
24	0xbe01111f	-0.12604187
25	0xbdc834bf	-0.097756855
26	0x3db1d7a3	0.086837076
27	0xbd77fb9c	-0.060542688
28	0x3c32d5d2	0.010915237
29	0xbdeafcf1	-0.11474026
30	0x3d20866f	0.039190706
31	0x3d718053	0.05896027
32	0x3d2c9894	0.042137697
33	0x3d6cfed7	0.05786022
34	0x3cb04595	0.021517554
35	0xbcdc2700	-0.026874065
36	0xbdaf9fae	-0.08575378
37	0xbaae19e9	-0.0013282868
38	0xbd6306d9	-0.055426452
39	0x3d9bc2dd	0.076055266
40	0x3dd7161f	0.10502266
41	0x3df32a05	0.11873249
42	0x3d980276	0.074223444
43	0x3d7b7526	0.06139102
44	0x3dd0951f	0.101846926
45	0x3d06195d	0.032739032
46	0xbdb8008a	-0.08984478
47	0xbde09db1	-0.10967577
48	0xbce8a84b	-0.02840056
49	0xbe00853d	-0.12550826
50	0x3dd05127	0.101717286
51	0xbe0bcfb0	-0.13653445
52	0xbd3b3b2a	-0.04571072
53	0x3dc8de20	0.09807992
54	0xbda2382b	-0.079208694
55	0x3dd7609e	0.10516475
56	0xbca92cb7	-0.020651205
57	0x3db8df7e	0.09027003
58	0xbbc39140	-0.005968243
59	0xbce35a3d	-0.02775299
60	0xbddb418e	-0.10705863
61	0x3d36815a	0.044556953
62	0x3d451d55	0.048123676
63	0x3d93f471	0.07224358
64	0x3d8f6a6d	0.07002721
65	0x3daee135	0.085390486
66	0xbd63e1ac	-0.05563514
67	0xbd9597b1	-0.073043235
68	0x3d9c575d	0.07633851
69	0x3df981c0	0.12182951
70	0xbdb8fda8	-0.09032756
71	0x3e008e4e	0.12554285
72	0xbc81e8e5	-0.015858123
73	0x3db77ca4	0.0895932
74	0xbc1704b3	-0.009217429
75	0x3db62a37	0.088947706
76	0xbc6de846	-0.01452071
77	0xbda166d0	-0.07880938
78	0xbda96046	-0.08270316
79	0x3e02420c	0.12720507
80	0x3dce3a85	0.100697555
81	0x3d60a9b2	0.054849334
82	0xbd2e4fc8	-0.042556554
83	0xbdaaffcf	-0.08349573
84	0xbe09edec	-0.13469666
85	0xbcb8baa4	-0.022549935
86	0x3df2676d	0.11836133
87	0xbdc72074	-0.09722987
88	0x3dcb37ff	0.0992279
89	0x3d102fd9	0.03520188
90	0xbd98254c	-0.07428989
91	0xbbbeeae4	-0.005826341
92	0xbcb3f2c5	-0.021966347
93	0x3dfbea3d	0.12300537
94	0xbdf6f39d	-0.12058184
95	0x3df1a95f	0.11799883
96	0x3da740e5	0.081666745
97	0x3de9cf76	0.11416523
98	0xbde78f17	-0.11306589
99	0x3dff527f	0.12466907
100	0x3d2ce7a5	0.0422131
101	0x3db0a046	0.0862432
102	0xbd88ffc4	-0.066894084
103	0xbd0c3789	-0.03423265
104	0x3e0239af	0.12717317
105	0x3e0458f0	0.12924552
106	0xbdf9b36f	-0.12192427
107	0xbd7f39a8	-0.062310845
108	0xbdac2478	-0.08405393
109	0xbd5cb5f9	-0.05388448
110	0x3db86531	0.09003676
111	0xbc23d964	-0.01000056
112	0x3d9b6741	0.075880535
113	0xbdb261de	-0.08710073
114	0x3c9934e2	0.018701974
115	0x3b903930	0.0044013485
116	0x3d4feba8	0.05076185
117	0xbd92b227	-0.07162886
118	0x3b981b45	0.0046419227
119	0xbc663f8e	-0.014053239
120	0x3dbb4890	0.091446996
121	0xbd29ae5c	-0.041426048
122	0xbdd46473	-0.10370722
123	0xbda493e8	-0.080360234
124	0xbe05dbd4	-0.13072139
125	0xbde13fc3	-0.1099849
126	0xbca296ce	-0.0198473
127	0x3d5bd5b5	0.053670604
128	0x3e034f09	0.12823118
129	0x3e0bb0a6	0.13641605
130	0xbd8d3864	-0.06895521
131	0xbc3dcfca	-0.011585185
132	0x3d0f7bff	0.03503036
133	0x3df28a32	0.11842765
134	0xbc97d404	-0.018533714
135	0x3d6f6633	0.058447074
136	0xbde6059e	-0.1123154
137	0x3dcd46e1	0.10023285
138	0x3ddcdb82	0.10784055
139	0x3d9f7e0b	0.07787713
140	0x39dba5a6	0.00041894353
141	0xbe0c5975	-0.13706
142	0xbe01a150	-0.12659192
143	0xbd4e61fb	-0.05038641
144	0x3ce136f0	0.027492017
145	0x3dfe5d63	0.12420156
146	0x3e07f51e	0.13277099
147	0x3da3b7bc	0.07994029
148	0xbda4b1fc	-0.0804176
149	0xbd8d2d7f	-0.06893443
150	0xbd192584	-0.037389293
151	0x3d35f85b	0.044426303
152	0xbdeefb62	-0.11669041
153	0xbcb3a06e	-0.021927085
154	0x3c5b9dc9	0.013404318
155	0xbda388e8	-0.07985097
156	0x3cba8b57	0.02277152
157	0xbe0d62c3	-0.13807206
158	0xbd94e7a8	-0.072707474
159	0xbdb2a944	-0.08723691
160	0xbdaf72d8	-0.085668266
161	0x3cfb1039	0.030647384
162	0xbc8ed60d	-0.017436052
163	0x3da12043	0.078674816
164	0x3df43ae1	0.11925293
165	0xbcd4d071	-0.025978299
166	0x3ddca5d6	0.10773818
167	0xbdf8ac67	-0.12142258
168	0x3de845d3	0.11341443
169	0xbd902753	-0.070387505
170	0x3d004ab2	0.031321235
171	0xbda2c7e4	-0.07948282
172	0xbddc25ae	-0.10749374
173	0x3d2a3e31	0.041563217
174	0x3d171789	0.03688768
175	0xbdabd957	-0.08391064
176	0x3e026385	0.12733276
177	0x3d2f7387	0.042834785
178	0x3d57c3d7	0.052677
179	0xbdb17c78	-0.08666319
180	0x3db53b3f	0.08849191
181	0x3dfb96be	0.12284611
182	0x3e00ea2b	0.12589328
183	0xbaf93c46	-0.0019015155
184	0xbd216e47	-0.03941181
185	0xbde4f84e	-0.11180173
186	0x3dd3ac26	0.10335569
187	0xbe1037ab	-0.14083736
188	0xbe00222f	-0.1251304
189	0xbd0ebe88	-0.034849674
190	0x3d059f88	0.032622844
191	0xbd4f0dee	-0.050550394
192	0xbd939e46	-0.07207923
193	0x3d6d353a	0.05791209
194	0xbdc1034f	-0.09424459
195	0xbdaf69a8	-0.08565074
196	0x3d4cf549	0.05003861
197	0xbcfc9fcb	-0.030837914
198	0xbddd1614	-0.10795227
199	0xbe0c59ae	-0.13706085
200	0xbd76ef87	-0.060287025
201	0x3d11fe05	0.035642643
202	0x3d716dac	0.058942482
203	0x3d0c5815	0.03426369
204	0x3d5e6bf2	0.054302163
205	0x3d049a83	0.032373916
206	0x3d71be44	0.059019342
207	0x3c86273d	0.016376132
208	0x3d0484a6	0.032353066
209	0xbd31080c	-0.043220565
210	0xbe094492	-0.13405064
211	0xbd903619	-0.07041568
212	0xbda54bd1	-0.080711015
213	0xbd5f578b	-0.054526847
214	0xbe000555	-0.12502034
215	0xbe039cfd	-0.12852855
216	0xbe03b395	-0.12861474
217	0xbd9a94f9	-0.075479455
218	0x3d079822	0.03310407
219	0xbd90cc73	-0.070702456
220	0xbd17c5ed	-0.03705399
221	0x3d1259f7	0.03573033
222	0x3c131f41	0.0089796195
223	0xbdae8b0b	-0.08522614
224	0xbde73bc5	-0.11290697
225	0x3d63303d	0.055465925
226	0x3da8a104	0.08233836
227	0x3d38d9ad	0.045129467
228	0x3d96872c	0.07350001
229	0xbc6bcf43	-0.014392677
230	0x3d9c16a8	0.07621509
231	0xbd5bd00e	-0.053665213
232	0xbdfe3771	-0.12412918
233	0x3d1b70fb	0.037949543
234	0xbd514a3c	-0.051096186
235	0x3d873be1	0.06603218
236	0x3d8ba8f5	0.06819335
237	0x3ddb7ae4	0.10716799
238	0xbe098401	-0.13429262
239	0x3b96419e	0.004585459
240	0xbd36f4a6	-0.04466691
241	0x3e04dafb	0.1297416
242	0x3d6cb322	0.05778802
243	0x3d13e2a4	0.036104813
244	0x3da25a67	0.07927399
245	0x3df5adcf	0.11996042
246	0x3e045b1f	0.12925385
247	0xbcb5b57d	-0.022181267
248	0xbdae0269	-0.084965535
249	0x3d17e473	0.0370831
250	0x3afc6c52	0.0019258356
251	0x3d864c8d	0.0655757
252	0xbdf3c870	-0.11903465
253	0x3d8834d9	0.06650705
254	0x3de8fe79	0.11376662
255	0x3d2fcbde	0.042919032

onnx::LSTM_102 f4 [1, 256, 64]
0	0x3d66f1ba	0.056382872
1	0x3e204b8a	0.15653816
2	0x3da8a19c	0.082339495
3	0xbe4f23ec	-0.20228547
4	0xbcc8039c	-0.024415784
5	0xbd8dbf83	-0.069212936
6	0x3e0f0a23	0.1396871
7	0xbd1c3371	-0.038134996
8	0x3e04153a	0.12898722
9	0xbe27193a	-0.16318217
10	0xbc213743	-0.009839836
11	0xbdf99fd1	-0.12188686
12	0x3e40714b	0.18793218
13	0xbe3d0012	-0.18457058
14	0x3cf7f4a6	0.030268025
15	0x3e56b1c1	0.20966245
16	0xbc5fdbdf	-0.013663261
17	0xbe4f72a0	-0.2025857
18	0x3e060844	0.1308909
19	0x3e4cc467	0.19996797
20	0x3db4a1cb	0.08819922
21	0x3caa9ec8	0.020827666
22	0x3e301f92	0.17199543
23	0x3e350744	0.17678553
24	0x3e4b9e97	0.19884716
25	0xbdd6026f	-0.10449683
26	0x3dbdd775	0.09269611
27	0x3bb39e4d	0.0054815174
28	0xbdffed04	-0.12496379
29	0xbc9055f3	-0.017619109
30	0x3e29ecd6	0.16594252
31	0xbe0ad778	-0.13558757
32	0xbe1981f3	-0.14990978
33	0x3e53c329	0.20679916
34	0xbb5faae8	-0.0034128968
35	0x3e2ddd2f	0.16978906
36	0xbca8b366	-0.020593356
37	0xbe32e764	-0.17471081
38	0x3de6d601	0.11271287
39	0xbd90fcf7	-0.07079499
40	0x3e3bfd57	0.1835836
41	0xbd07bfb0	-0.03314179
42	0x3dea5ec7	0.114438586
43	0xbc9422f8	-0.01808308
44	0x3e11ff45	0.14257534
45	0x3b29ea57	0.002592703
46	0x3e4ad390	0.19807267
47	0xbdb9dc49	-0.09075219
48	0x3e31d93e	0.17368028
49	0x3c7f88b0	0.015596554
50	0x3da09cb2	0.07842387
51	0x3e57336a	0.21015707
52	0x3e3302da	0.17481557
53	0xbe172bfb	-0.14762871
54	0xbd505e44	-0.05087115
55	0x3d254e92	0.040358134
56	0x3ce0fc46	0.027464043
57	0x3d7bfc44	0.061519876
58	0x3d020de0	0.031751513
59	0x3de892a0	0.113560915
60	0x3cace797	0.021106524
61	0x3d0601da	0.03271661
62	0xbdb96dc6	-0.09054141
63	0xbe49b8e0	-0.1969943
64	0x3e382dc4	0.17986208
65	0xbd099b11	-0.03359515
66	0x3e02df36	0.1278046
67	0x3df7eb3d	0.12105415
68	0x3de286c9	0.110608645
69	0xbc1d8da2	-0.009616287
70	0x3d22c79a	0.039741136
71	0xbdea9051	-0.114533074
72	0xbe3f23a7	-0.18665944
73	0x3dec54e2	0.115396276
74	0x3c362d2b	0.011119167
75	0x3dfa09d6	0.12208907
76	0xbe0df187	-0.13861667
77	0xbe52020b	-0.20508592
78	0xbe3e7dcf	-0.1860268
79	0x3e3b29ed	0.18277712
80	0x3e1f07eb	0.15530364
81	0x3bdd54ed	0.0067545087
82	0xbe35d38d	-0.17756481
83	0xbd976ae6	-0.07393436
84	0x3de2b5ee	0.110698566
85	0xbda39a4b	-0.079884134
86	0x3e12c4b6	0.14332852
87	0x3e336448	0.17518723
88	0xbe5e0693	-0.21682195
89	0x3db98293	0.09058108
90	0xbe212888	-0.15738118
91	0x3e060424	0.13087517
92	0xbd5c9aeb	-0.05385868
93	0x3cd1d5b1	0.025614591
94	0xbde3cbed	-0.1112288
95	0x3dddc269	0.108280964
96	0xbe1be5c9	-0.15224375
97	0xbca9c156	-0.020722073
98	0xbde43468	-0.11142808
99	0x3dae462a	0.085094765
100	0x3e24e6e3	0.16103701
101	0xbd4704d3	-0.048588585
102	0xbe5916cf	-0.21200107
103	0x3df2f9a2	0.1186402
104	0xbe16c325	-0.14722879
105	0xbdaf3019	-0.08554096
106	0x3e445950	0.19174695
107	0xbe194e55	-0.14971288
108	0xbdf4acf2	-0.11947049
109	0xbd69d8d0	-0.057091534
110	0xbddb7db2	-0.10717334
111	0x3dfad516	0.12247674
112	0x3e5d0aff	0.21586226
113	0xbe191e53	-0.14952974
114	0x3c44eff4	0.0120201
115	0xbd269eea	-0.040678896
116	0xbe1389a3	-0.14407973
117	0x3e250bd8	0.161178
118	0x3da584cd	0.0808197
119	0xbe11e9cf	-0.14249347
120	0xbe384cf8	-0.17998111
121	0x3d9f962f	0.07792317
122	0xbe3e7346	-0.18598661
123	0xbdbc37dc	-0.09190342
124	0x3e3e9665	0.18612058
125	0x3e3ad47d	0.1824512
126	0xbdd8d32a	-0.10587151
127	0x3e489911	0.1958964
128	0x3d492bb1	0.049113933
129	0x3db8e55f	0.09028124
130	0xbdb1b389	-0.08676822
131	0xbbc78b1a	-0.0060895802
132	0x3dbffa1a	0.09373875
133	0x3de0dee0	0.1098001
134	0xbe20ca9d	-0.15702291
135	0x399f962c	0.0003043873
136	0xbd9a910a	-0.07547195
137	0xbdefaafc	-0.117025346
138	0x3d7155bc	0.058919653
139	0xbe2be112	-0.16785076
140	0xbdec2aba	-0.11531587
141	0xbe53f4a1	-0.20698787
142	0x3e494f5c	0.1965918
143	0xbab7cf9a	-0.0014023662
144	0xbe114b40	-0.14188862
145	0xbd5262b4	-0.051363662
146	0x3d8b83f0	0.068122745
147	0x3e2fe6d6	0.171779
148	0x3c038609	0.008027562
149	0xbdc662bf	-0.09686803
150	0x3d843a7d	0.06456468
151	0xbe5d64ac	-0.21620435
152	0xbdceeab7	-0.10103362
153	0x3dab2b07	0.08357816
154	0x3d259dac	0.04043357
155	0x3db3b13e	0.08774041
156	0x3e3f0438	0.18653953
157	0x3b93944f	0.0045037637
158	0xbc32c27c	-0.0109106265
159	0x3c7745b1	0.015092299
160	0xbdb58703	-0.08863642
161	0xbe3ec9f2	-0.18631724
162	0xbdab23b8	-0.08356422
163	0xbd320531	-0.043461982
164	0x3ded06f3	0.11573591
165	0xbe1a2476	-0.15052971
166	0x3d7c68af	0.06162327
167	0xbbbf162a	-0.0058314996
168	0xbe302dc4	-0.17204958
169	0xbe1e4c10	-0.15458703
170	0xbe0029f0	-0.12515998
171	0xbe513494	-0.20430213
172	0xbd93f972	-0.07225312
173	0x3d3f4825	0.04669966
174	0xbe3de0a6	-0.18542728
175	0x3d02cb21	0.031932
176	0x3c71b5b6	0.014752796
177	0xbe45994d	-0.19296761
178	0xbe3d2c7f	-0.18474005
179	0xbe42203e	-0.18957612
180	0xbd9d8ed2	-0.076932564
181	0x3e21bd8c	0.15794963
182	0x3d82211d	0.06353972
183	0x3b1c54bc	0.0023854217
184	0x3d5c5afd	0.05379771
185	0xbdc5eed4	-0.096646935
186	0x3e1fec81	0.15617563
187	0x3e3d8c7c	0.18510622
188	0x3d8bac9c	0.06820032
189	0x3e26cd06	0.16289148
190	0x3dedaa43	0.116047405
191	0xbd9be94d	-0.07612858
192	0xbdf929fe	-0.121662125
193	0x3e3d32c5	0.18476398
194	0x3e3b99bc	0.18320364
195	0x3e3616fa	0.17782202
196	0xbe056bad	-0.13029356
197	0x3d8da01f	0.06915306
198	0x3e20dcee	0.15709278
199	0x3e5fce1f	0.21855973
200	0xbdaa0902	-0.08302499
201	0x3d921a87	0.07133966
202	0x3d825be1	0.06365181
203	0xbd9de668	-0.07709962
204	0xbe1ee766	-0.15517959
205	0xbe04905f	-0.12945698
206	0x3c600e12	0.01367523
207	0xbddbc46e	-0.10730825
208	0x3e1ab35d	0.15107484
209	0xbcb4e1ef	-0.02208039
210	0xbd0bbf25	-0.034117837
211	0xbdfeca59	-0.124409385
212	0xbe1b3b74	-0.15159398
213	0x3deacdbe	0.114650235
214	0xbddb4a6e	-0.10707556
215	0x3dfa0540	0.122080326
216	0x3d43beb6	0.047789298
217	0xbe19df31	-0.15026547
218	0xbd5df689	-0.054190192
219	0x3e080371	0.13282563
220	0xbe4a117d	-0.19733234
221	0xbd5dca3f	-0.054147955
222	0xbd70f1bb	-0.058824282
223	0x3ddb0b58	0.10695523
224	0xbe0c6ea8	-0.13714087
225	0xbe0d33e4	-0.13789326
226	0xbd838605	-0.064220466
227	0xbe38c8c6	-0.18045339
228	0xbe151eb8	-0.145625
229	0xbd989f5c	-0.074522704
230	0xbe164e04	-0.14678198
231	0xbd7f2722	-0.06229318
232	0xbe51ec34	-0.2050026
233	0xbe2bdbd1	-0.16783072
234	0x3e504e8a	0.2034246
235	0xbe308b6d	-0.17240687
236	0x3e4379e5	0.19089468
237	0x3cf13240	0.029442906
238	0xbe2e6c2d	-0.17033453
239	0x3e421080	0.18951607
240	0x3dc11bcb	0.09429129
241	0x3e067f27	0.13134442
242	0xbd65fa64	-0.056146994
243	0xbe14d6d2	-0.14535072
244	0xbe1201b2	-0.14258459
245	0xbe20c78e	-0.15701124
246	0xbdfee871	-0.124466784
247	0x3c4cd2a3	0.012501392
248	0x3e2f83a6	0.17140064
249	0xbe29e5bd	-0.16591544
250	0x3e4452e2	0.19172242
251	0xbca80c89	-0.02051379
252	0xbe14b94d	-0.14523812
253	0x3e3ddd80	0.18541527
254	0x3d9b1eae	0.07574211
255	0xbe5364ee	-0.2064397
