code/selfparking/mla/results/test_18/Car/Car-999972.onnx (onnx, 692944 bytes, 10 tensors)

network_body._body_endoder.seq_layers.0.weight f4 [256, 91]
00000000: ee2a 183e 9c82 2cbe 577c 4bbd 7129 ccbc
00000010: efe8 29be 1f33 61be 9afb f439 7bd3 c33d
00000020: f3f4 fd3d 38c0 39bc 8f38 eb3d 7eab f0bd
00000030: 56e0 843e 8418 853d e009 8fbd e563 d2bc
00000040: 3116 cb3d c2fc e03d c023 42bd 0124 00bd
00000050: 0373 83be 042c 64be bdf7 3d3e 4b6e 6e3e
00000060: abbb 233e 1eef 90bd f683 a43d 388d 92bd
00000070: 90b7 313c f3c4 9dbb 1d2f b03c 5d59 ac3c
00000080: 3e87 7bbd 58a2 ca3c 8790 95bd a01b 69bd
00000090: a9ed 0f3e a103 1abe 7abb 93bd ddbf 923b
000000a0: e1e5 013e de4f 9b3d a647 933d 8171 d7bd
000000b0: d414 0ebd 5503 903d 9d8e 2a3e a252 8f3e
000000c0: 9a9c b2bc 69b8 d03c 2016 72bd c8dd b6bd
000000d0: a812 7bbd 737e f23d 91c3 383d b7b6 3fbe
000000e0: cc01 c63d dbd5 4b3e 4096 a1bc 1fbd 043e
000000f0: 89d9 7c3d 02db 903d f469 59bd 50b3 d93d
00000100: c6f0 063e 8461 80bc fb69 44be 5bf6 4cbe
00000110: 1d91 163d a9b2 173e f37a b8bd 7e91 97bd
00000120: f9f2 513d 8f1f 0ebe ef82 c33c 00fa 993d
00000130: 6122 4b3d 4022 d03c 7495 eabd 29e2 f3bd
00000140: f7f4 16be 8cf2 8cbd 059a 5bbc b81c b6bd
00000150: d4af 26be c459 a7bc fbc3 0f3e a071 20be
00000160: 15dc dd3d 7636 57be 352a eb3d 9be5 523d
00000170: b554 843d e0ef 21bd 1a50 dfbc 03e5 d4bc
00000180: e177 ab3d 44cd 00be cae6 973d b81b 8dbe
00000190: e535 98bd a00e afbc fe8a bebd ee6e db3d
000001a0: 407f aebc 05b8 693d 4e88 513d f102 0a3e
000001b0: b53e 7cbd 0c99 4a3d e398 113e 1e0c eabd
000001c0: 83e9 4f3d 4ce5 0a3e 17f5 193e c583 dcbd
000001d0: 0d5c 4f3e d7c0 4fbd 67ce 193b a016 91be
000001e0: 3867 1d3e 8471 523e a896 9abc d478 12bd
000001f0: 939f d13d 367e ab3d 2c67 b0bd 521b ef3c
00000200: b4ca 9dbd 94b3 003e b107 5d3d a9b2 27bc
00000210: 8675 4b3d c21d 673d 56fb aabd 8920 12bd
00000220: 00c3 273d 951c e3bd 4cd5 19bd 93b8 8c3e
00000230: 4636 46bd 5684 bbbc 68f1 7b3d c5c8 e33d
00000240: b94c 763c 1693 0ebd 9f0e 823b 5dce 00be
00000250: c24c e6bc 8d8e 88bd ea37 2ebd cd91 06be
00000260: 2f4d 53be b4df aa3d 2635 203e 6bfb c2bc
00000270: a60f 133d 32da 663d 8741 8fbb 5bcd 553d
00000280: 5904 c73c 6fe1 23be ccb8 cabd 827e b5bd
00000290: a13f d33d 106b 1dbe 7586 0ebd 0668 1c3e
000002a0: 8a55 4abe 9b9b d6bd 5bb9 80bd 83d8 2d3d
000002b0: 10fa 433c 58d2 bd3c ea2f d2bd a822 1d3e
000002c0: 93a2 dfbd 6b5e 113e cd54 643d a68a 2c3d
000002d0: 287a fb3c ceef b43b a0e6 f13d 130a b83d
000002e0: 362f debc 2433 28be 4480 3bbd 1f2c 1c3e
000002f0: 23d3 00be 2ef7 25bd 94b7 c43d 491a 763d
00000300: 524e 30bd d3fc ae3d 2c04 75bd a31a 86bd
00000310: 8e1e ae3c 2d22 3b3b 810f 103e 45a8 87bd
00000320: 9d37 ddbc e0c7 be3b 09f7 a4bd e9e3 40bc
00000330: e8f4 9cbc 8fc0 713d 7504 863d 12da 8f3d
00000340: 1169 0e3e 2a5f 083c 8dbf c4bd ec2b ac3d
00000350: 7ced 883c 1118 2fbd cc5c 293e cbcd 3fbc
00000360: cd51 e1bd c43b 0d3e b313 1c3d 3646 49bb
00000370: b0a8 b93c 96a8 36bc 952d 13bd 8835 2d3d
00000380: ae75 13be 131b 23bd 7369 c9bd b785 e1bd
00000390: 5960 95bd e5aa 94bc 9a75 583e 7928 0b3b
000003a0: 2e85 8fbd d35d 093d d4dd d4ba 1300 0b3d
000003b0: 67d0 e13c 2e06 f43d 6e4a 033e 874b 56be
000003c0: 2e4a 193e c7b5 433e 7baf 97bb 794b 14be
000003d0: 1652 a3bb 2562 b3bd fedd 62bd 26a2 2e3e
000003e0: 5481 d8bd ea77 9dbd ed61 f73b d1f8 813c
000003f0: 8f55 c2bd ef23 18be 5f15 1cbe f697 0cbd
0.14860126 -0.16846699 -0.049679127 -0.024922105 -0.16592763 -0.21992157 0.00046726764 0.09561821
0.12400236 -0.011337332 0.11485397 -0.117514595 0.25952405 0.064988166 -0.069843054 -0.025682399
0.09916342 0.1098571 -0.047397375 -0.031284336 -0.25673684 -0.22282416 0.18551536 0.23284261
0.15989558 -0.07076858 0.08032982 -0.071558416 0.010846987 -0.004814738 0.02150684 0.021038705
-0.061408274 0.024735615 -0.07302957 -0.05691111 0.14055504 -0.15040447 -0.07213493 0.0044784383
0.12685348 0.07583593 0.071914 -0.10519696 -0.034687832 0.070318855 0.16655965 0.2799273
-0.02180319 0.025478559 -0.05910313 -0.0892902 -0.06129709 0.118405245 0.04510838 -0.18722044
0.096683115 0.19905798 -0.019724965 0.12962769 0.061730895 0.070730224 -0.05307956 0.10629904
0.13177785 -0.0156715 -0.19181053 -0.20015852 0.036759485 0.14814247 -0.09007826 -0.07400797
0.051257107 -0.13879226 0.023866145 0.07518387 0.049593333 0.025406957 -0.11454287 -0.11908371
-0.14741884 -0.068822 -0.01340342 -0.088921964 -0.1627801 -0.020428546 0.14039604 -0.15668344
0.10832993 -0.21016869 0.1148266 0.0514885 0.06461469 -0.039535403 -0.027259875 -0.025988108
0.083724745 -0.12578303 0.074170664 -0.2756021 -0.074321546 -0.021369278 -0.093038544 0.107145175
-0.021300912 0.05706026 0.05115538 0.13477685 -0.06158324 0.049462363 0.14218478 -0.114280924
0.050759804 0.13564032 0.150349 -0.107673205 0.20249958 -0.050721016 0.0023468973 -0.28337574
0.15371406 0.20551115 -0.018870667 -0.035759762 0.102355145 0.08373682 -0.086134285 0.029187832
-0.07704678 0.12568504 0.053962413 -0.010235467 0.049672626 0.056424864 -0.0834872 -0.03567556
0.04095745 -0.11089436 -0.03755693 0.2748457 -0.048391603 -0.022890251 0.06150952 0.11122278
0.015032941 -0.03480824 0.003969028 -0.12578721 -0.028112773 -0.066678144 -0.042533793 -0.13141556
-0.20634912 0.08343449 0.15645275 -0.023801526 0.035903595 0.05636043 -0.004371825 0.052197795
0.024294065 -0.16003965 -0.098985285 -0.0886202 0.103148706 -0.15372872 -0.034796197 0.15274057
-0.19759193 -0.10478898 -0.06285354 0.04244281 0.011961475 0.023171589 -0.10263045 0.15345252
-0.109196804 0.14196174 0.055744935 0.042124413 0.030697897 0.005521751 0.11811566 0.089862965
-0.027122121 -0.16425759 -0.04577662 0.15251206 -0.12580542 -0.040518932 0.09605327 0.06008366
-0.043043442 0.08544316 -0.05981843 -0.06548049 0.021254804 0.0028554306 0.14068414 -0.06623892
-0.027004058 0.005822167 -0.08054931 -0.011773088 -0.01915975 0.05902153 0.06543819 0.070240155
0.13907267 0.00832347 -0.09606848 0.08406815 0.016714804 -0.04274756 0.16539305 -0.01170678
-0.110019304 0.1379233 0.038104724 -0.0030712015 0.022663444 -0.011148592 -0.035932142 0.04228738
-0.1440036 -0.03982074 -0.09834566 -0.11011832 -0.072937675 -0.018147895 0.21138611 0.002123384
-0.07007824 0.033536743 -0.0016240426 0.033935618 0.027565194 0.11915241 0.12821361 -0.20927249
0.14969704 0.19112311 -0.004629073 -0.14481916 -0.0049841506 -0.08758954 -0.05538749 0.17054042
-0.105715424 -0.076888874 0.0075495155 0.015865715 -0.09488975 -0.14857458 -0.15242527 -0.03432461

network_body._body_endoder.seq_layers.0.bias f4 [256]
00000000: 021f cbb9 983c 33bb d169 a6bb 2d6a 5d3b
00000010: 156d 8b3b 4a4e 413b 516a 20ba 0614 2b3b
00000020: f59c 5f3a e5ea 6a3c 9e36 733b 6dcd 13bc
00000030: 62d8 be3b 277f e63b 08f7 7f3b f756 3d3b
00000040: cea9 bbba ff2a 59bb a29d 293c 1c79 053b
00000050: 508d 463c 0e56 e1b8 da68 5d3a 7fe7 013c
00000060: fac3 4bbb b4fe e53b 4922 8d3c 0142 b83a
00000070: 9e71 74ba 7bdd dcbb a1cf cdb9 8e07 bcbb
00000080: e70d 523c f371 ad3b 7c1f e439 7fc9 f63b
00000090: d1d3 8a3b 967f f63a b827 293c 9465 433c
000000a0: dac7 36bb 3155 5bbb 8708 25bb e4fd 8ebc
000000b0: f388 22bb 352b cd3b d9a6 513b cf0a 0d3c
000000c0: 716c 58ba 9c0b 2bbb d464 423b a0b2 013c
000000d0: 762d 7fbc 42c1 603b bfc5 5e3b 4e85 85ba
000000e0: fd61 203c ad2a dbbb abe5 863b 1ec4 0e3c
000000f0: 1b4a 3abb 3997 563b cb21 853b f508 2d3c
00000100: ce52 0b3c 77aa 963b 664c b1bb 92a1 d03b
00000110: e407 d0b9 92cb 62bb 8844 d33b ffcc 0e3a
00000120: 437f fa3a 4c70 bbbb 055d 29bb 51fa 38bb
00000130: 395b cdbb 2827 80bb e038 debb 3f00 963b
00000140: 28d6 453c 8e41 29bb 0bc7 3bbb b41a c6bb
00000150: da59 e93a fac2 99bb 1964 0e3b 2722 833b
00000160: 1432 123c 3f39 983b 99c1 793a 9716 6cbc
00000170: d052 9f3b f303 d73a af49 623b c107 a03a
00000180: 910e b33b f809 853b 9028 10bb 4ce1 933b
00000190: d8bc 94ba bb1f 8a3b 9c0f 3b3c 1c1e fdb9
000001a0: 182f 70bb 72f0 893b 7636 77ba d45a 22bb
000001b0: eb66 b33b 02f2 48bb 36af 463b b687 4c3b
000001c0: b2e6 01bc 6078 873b 93da 8a3b ad5d d7bb
000001d0: 0734 8ebb ec09 45bb 2c99 c83a 7628 3bba
000001e0: 1e23 55ba 0d8f da3b 9df5 3a3b a867 273b
000001f0: 1fdd 853c fbca 773c 6a57 c4ba 2af4 6e3c
00000200: 6971 b53a e373 123b 8749 d7bb bdc8 be3b
00000210: b2b3 99ba 9e1d 833a 32e6 0a3c 110e 3d3c
00000220: 86eb 143c 627a 1abb 37b1 27ba 4280 f23b
00000230: 8fa4 053b d276 f4bb 5a21 bc3b 96af ad3a
00000240: b4b6 b93b 21a2 10bb 07fb 093b 656b e93b
00000250: 66d2 b7bb d650 b2bb 0c5f 383c 43fa 253c
00000260: d716 4bb9 a35d dd3b 760a 4c3c 5045 c83b
00000270: 32eb 513b 271c 1b3c 8c45 4fbc 8d94 d8ba
00000280: 312a 8e3b ae4f 223c 8d36 28bc 0fb1 383c
00000290: 45a1 11bb 90f3 a1ba ab9a 203a 32fc c9ba
000002a0: 7822 5f3b 0c7a 03bc 87e6 53bb 83f3 c2ba
000002b0: f14a c63b 034f 693a b0dd 6fbb 9f10 d43b
000002c0: 7903 99bb 8add 4939 5bc6 163c c1ae 143b
000002d0: cb13 c8bb e09b f23b 5876 a4bb 13f5 933b
000002e0: a584 b33b 07e9 fe38 165b 823b cf36 b33a
000002f0: fecb 0c3c 25ae 243c 725f 06bb 371b eabb
00000300: 49f5 40bb 49dc 94bb 86e6 b03a 8a1a d43b
00000310: 9afa e53b 5d6b 59bb 7c3c 5f3b 50c8 78bb
00000320: f61c cebb 1928 84bb 2bc9 613b 7fa8 8e3a
00000330: be51 afbb 62fb 8f3b 372d 70b9 29a6 4a3c
00000340: b24b 5dbb 0467 343c d46a 13bc 793f ccbb
00000350: 4bc4 dfbb cc46 653b 6c32 043c e642 ea3b
00000360: 4542 313c b9bd c33a 6b38 7a3a abe4 a3bb
00000370: 0c28 d739 c862 423c 977f d63b c4ce 8bbc
00000380: 3142 813b 2f65 f73a 24ff 88bb cd5d be3a
00000390: 774e ec3b 3f86 683b 257d 5f3b e967 7c3b
000003a0: 7b79 803c 9b1a 113b 82b3 12bb 3675 4dba
000003b0: eceb 4c3b e33f 863b a658 a5bb 5764 09bb
000003c0: a9f5 083b f15d 26bc 1403 5abb 4464 613c
000003d0: 29a6 dd38 1518 033b d2d9 c2bb 0246 fe3b
000003e0: dec6 a7bb ee2c a83a 9298 ae3b d8fc 783b
000003f0: bfab 40bb a3be e03b d4e8 bebb 6273 b93b
-0.0003874228 -0.002734935 -0.0050785323 0.003378521 0.004254947 0.0029496127 -0.0006119358 0.0026104464
0.00085301633 0.01433823 0.0037111412 -0.009021145 0.0058241347 0.0070342007 0.0039057154 0.0028890946
-0.0014317574 -0.00331372 0.010352524 0.0020366376 0.012118652 -0.00010744865 0.0008446105 0.007928728
-0.0031092153 0.0070188884 0.017228262 0.0014057757 -0.00093247916 -0.0067402697 -0.00039255343 -0.0057382053
0.012820697 0.005293125 0.00043511007 0.0075313444 0.0042366763 0.0018806334 0.010324411 0.011926074
-0.0027890117 -0.0033467526 -0.0025182085 -0.017455049 -0.0024800866 0.006261254 0.0031990318 0.008608534
-0.0008255905 -0.002609945 0.002966215 0.007916123 -0.015574804 0.0034294878 0.0033992378 -0.0010186823
0.009788987 -0.006688437 0.004116734 0.00871375 -0.0028425518 0.0032743944 0.0040628663 0.010561218
0.008503629 0.0045979577 -0.0054107187 0.006366917 -0.0003967873 -0.00346062 0.0064473785 0.0005447417
0.0019111413 -0.005720174 -0.0025842797 -0.0028225372 -0.006266978 -0.003910918 -0.0067816824 0.004577666
0.012074985 -0.0025826427 -0.0028652574 -0.0060456637 0.0017803267 -0.0046924325 0.0021727143 0.004001874
0.008923072 0.004645496 0.00095274445 -0.014409683 0.004862167 0.0016404375 0.0034528782 0.0012209342
0.005464383 0.0040600263 -0.0021996833 0.0045129415 -0.0011347784 0.0042152083 0.011417296 -0.00048278354
-0.0036649164 0.0042095715 -0.00094304176 -0.0024773376 0.0054749153 -0.0030661826 0.0030316836 0.003120882
-0.007928537 0.004134223 0.004237482 -0.0065724463 -0.0043396982 -0.0030065728 0.0015304438 -0.0007139513
-0.0008130538 0.006669885 0.0028527745 0.0025543962 0.01634079 0.015124078 -0.0014979665 0.01458458
0.0013843003 0.0022346906 -0.0065700444 0.0058222697 -0.0011726527 0.0010003333 0.008477734 0.011538998
0.009089356 -0.002357148 -0.00063969515 0.0074005434 0.0020392274 -0.0074604535 0.0057412805 0.0013251181
0.005667532 -0.0022069293 0.0021054165 0.007123398 -0.0056097982 -0.0054417653 0.01125313 0.010130468
-0.00019368097 0.006755547 0.012453666 0.0061117783 0.0032031056 0.009467161 -0.012650859 -0.0016523764
0.0043385257 0.009906692 -0.010266912 0.011272683 -0.0022221368 -0.0012355912 0.0006126563 -0.0015410243
0.0034047645 -0.008024704 -0.003233345 -0.0014873598 0.006051414 0.00089000183 -0.0036600642 0.006471708
-0.0046696034 0.00019251383 0.009202565 0.002268717 -0.006105875 0.0074038357 -0.0050189905 0.004515299
0.005478459 0.000121550685 0.0039781434 0.001367295 0.008593557 0.010051285 -0.0020503667 -0.0071443575
-0.0029443076 -0.0045428616 0.0013496436 0.0064728903 0.0070183994 -0.0033175566 0.003406315 -0.0037961192
-0.0062900735 -0.0040331003 0.003445218 0.0010883956 -0.0053503206 0.004393981 -0.00022905027 0.012368717
-0.0033767042 0.011010889 -0.008997638 -0.0062331525 -0.00682882 0.0034984825 0.008068662 0.007149088
0.010819023 0.0014933861 0.000954515 -0.0050016246 0.00041037833 0.011864372 0.0065459716 -0.017066367
0.003944658 0.001887476 -0.0041808058 0.0014523804 0.007211502 0.0035480408 0.0034101692 0.0038514084
0.015682926 0.0022141102 -0.0022384827 -0.0007837595 0.003126855 0.0040969714 -0.005045968 -0.0020964348
0.0020898378 -0.010154233 -0.0033265995 0.013756815 0.00010569051 0.0020003368 -0.0059463764 0.0077598104
-0.0051201424 0.0012830773 0.0053282464 0.0037992503 -0.0029399244 0.006858663 -0.005826095 0.0056595067

network_body._body_endoder.seq_layers.2.weight f4 [256, 256]
00000000: e69b c03c 3228 0dbd dcfc ccbd e88c 51bc
00000010: 529b dbbc d7cd 65bd c580 abbc d0d2 043e
00000020: 09b6 ff3b 2b6f 873d 6460 1cbd c70a 433c
00000030: 39b1 453e c3d7 ff3b 1d76 4cbc 4a1a 2c3e
00000040: 1fb8 a83d 586d 71bd 3426 4e3d a835 6a3a
00000050: faed 373c aa51 fe3c e7ba 38bd b1b7 86bc
00000060: a6d0 c63c 3ab6 98bd ae1f 243c fe82 723d
00000070: ab83 cd3d 0343 393d 4b80 b5bc a455 a93b
00000080: 910e 8ebc 1ae0 2a3d 50a5 c23c 3efa 83bc
00000090: 0d51 e63d 9f92 bf3d 84e6 113d c668 273d
000000a0: fd9f febd c041 5e3d e925 593d 3177 403b
000000b0: b33f 893c dbe4 4f3d 5ac4 47bd afd4 9c3d
000000c0: 9bfd 9bbd f51e c3bd 2772 a7bd 65d4 d33d
000000d0: 04c0 973d 44ab ff3c 1ee8 25bd 631d a5bd
000000e0: a765 353d b654 e93a 2831 16ba 4a56 1bbd
000000f0: afd6 913d ce48 bd3c 6e7d 063d 7fcf 863b
00000100: 6a6e a1bd 978c 8fbd b5b7 3d3d 5b2d a5bc
00000110: bfb0 e8bd 16ed f0bc 0d8e 07bd 7865 9f3d
00000120: f432 103e c9d0 e139 561b bd3c cafc 3bbd
00000130: 13ef 4c3d 47bf 8bbd 14e2 e43d 32e3 2cbd
00000140: 1f9a 96bd ab2b 84bd b3e8 b63c 8e17 f53c
00000150: 9dd4 ae3b c8e6 5abd 8b7d 6fbd f960 f73d
00000160: 7eb7 74bd 8bc0 c0bc 99ca 09be ecc3 523d
00000170: 1856 f1bd 1edd 823d b2dd dfbb 1c60 943c
00000180: 6c1f d0b9 1e4d a53d cc24 d8bb bf66 1abd
00000190: 47f3 45bd 7cc5 61bd fe85 c8bd 0d80 b83d
000001a0: 61fa e2bc b8e0 3e3b ffa6 643c 16cb 503c
000001b0: ddb8 abbc 3904 b1bc d18b 6abd 273e de3c
000001c0: 8c87 1c3d bf77 593d dae4 d13b 7fca cb39
000001d0: 4773 2c3d c93b 6cbd 333a a7bd 1320 88bd
000001e0: 9c55 5fbd 5c2d 88bb ad25 61bd 1ae2 62bc
000001f0: a4b1 24bd c372 133c c308 33bc 1947 4b3d
00000200: 691f 373c 8116 92bd 41d9 3cbc 5b53 21bb
00000210: 93e3 72bc 5e52 8c3d 5766 ebbc 71ad 783d
00000220: 8ea2 75bd 4e39 a63c 2f72 a2bd 9d1f 68bd
00000230: 18b1 323d 5dcb 5d3d 5679 3ebe 26ed b1bc
00000240: 76a7 a3bc 3be0 0d3d b438 b53d 09cb b8bb
00000250: 1ba2 6fbd ad93 233b 7bc0 b23b 7f26 5cbd
00000260: 2905 2abd 4182 863d 7fd3 173b 70a9 f13c
00000270: 4fbe b33d 8681 68bd 9d7a f43a d7bb a7bd
00000280: 7b17 a03c 63b8 6e3b 9e3e f5bc 2c0c 6a3d
00000290: 5324 293d 5f9d a63c 0c9b 94bd 81e2 f63d
000002a0: 914a 6cbd adc7 8c3c a1a6 a73d b976 84bb
000002b0: 1f28 283d c831 b4bc d566 543c 1a90 d63c
000002c0: 9361 0dbd 28ec 063e 20bd a1bd e271 dd3c
000002d0: 579f dd3d e819 e63b cc76 253d 7a70 2b3c
000002e0: c5e4 44bc 9afc b5bd f983 523c ad58 7bbc
000002f0: 4ba9 613d ddd3 51be 637a 16bd f3c3 f1bd
00000300: 462e b03c 7053 cf3d 3789 d33c 9473 3dbd
00000310: 7183 3ebc 37bd 823d b845 903d 13d3 6b3c
00000320: 145e 56bc 11a7 d13d 532a b83d 6637 6c3d
00000330: a876 99bd eeea 083d 5322 a1bc 5b82 3cbd
00000340: a9c4 a63c 1a76 bebd 64cb 043d 5b1c eebc
00000350: 88f1 123d a05b 3e3d bf82 0a3d 0820 e93c
00000360: 2c68 203d f949 1c3e 9640 6ebd f35a 18bd
00000370: 95c9 0f3c 4d69 80bd 1e09 0b3d 175e 773c
00000380: 9d61 573d 481c 96bd 0742 36ba d71d 643c
00000390: a233 9bbd ca59 fabc bf9e 683d 0048 893d
000003a0: 030e 8bbd b95c 383b 7d82 99bd 62b8 8d3d
000003b0: 364e dcbc 59f0 0fbc a1a4 b6bc 16da e53b
000003c0: 3e10 3a3c fbb0 b63d 8d0d 433d f8f8 963d
000003d0: 0f40 b93d 8cd9 d6bb 507d 953d 3b66 0ebd
000003e0: 25e0 8c3c f352 53bc 1eaf d23c 9bbf 96bd
000003f0: 20c9 be3b fa17 3ebd dea7 e7bc 99b9 143d
0.023511838 -0.03446216 -0.100091666 -0.012789942 -0.026807461 -0.056104507 -0.020935426 0.12971044
0.0078036827 0.066130005 -0.038177863 0.011904425 0.19305886 0.007807703 -0.012479332 0.16806903
0.08238243 -0.05894217 0.050329402 0.0008934387 0.011226172 0.0310448 -0.04510012 -0.016445013
0.024269413 -0.07456632 0.010017319 0.059206955 0.10034879 0.045229923 -0.022155901 0.00516768
-0.01734093 0.041717626 0.023760468 -0.016110536 0.11245928 0.09354138 0.035620227 0.040871404
-0.12432859 0.054261923 0.05301467 0.0029367919 0.016754007 0.050755363 -0.04877124 0.07657754
-0.07616731 -0.09527389 -0.0817607 0.103432454 0.07409671 0.031209596 -0.040504567 -0.08062246
0.044286396 0.0017801735 -0.0005729371 -0.03792409 0.07121026 0.023106005 0.032834463 0.004114091
-0.07882388 -0.07009237 0.046317775 -0.020163229 -0.11361837 -0.029409926 -0.033094455 0.077830255
0.14081937 0.000430709 0.023084324 -0.045895375 0.050032686 -0.06823593 0.111759335 -0.042208858
-0.07353615 -0.064536415 0.022327757 0.029918458 0.005335404 -0.053442746 -0.058469336 0.12079043
-0.059745304 -0.023529312 -0.13456191 0.051456377 -0.11783999 0.06389831 -0.006831848 0.018112235
-0.00039696263 0.080713496 -0.0065961834 -0.037695643 -0.04832771 -0.055119976 -0.09791182 0.09008799
-0.02770728 0.0029125642 0.013955831 0.012743732 -0.020962173 -0.021608459 -0.057262246 0.027129246
0.038215205 0.053092714 0.006405455 0.0003887005 0.042102125 -0.057674203 -0.081653975 -0.06646743
-0.054525003 -0.004155798 -0.05496757 -0.013847852 -0.040208474 0.008999529 -0.010927382 0.04962835
0.011176922 -0.071331985 -0.011526407 -0.0024616334 -0.014824766 0.06851648 -0.028735323 0.06071228
-0.059969477 0.020290997 -0.07931935 -0.056670774 0.04362592 0.05414902 -0.18600973 -0.021719526
-0.019977313 0.03463767 0.08848706 -0.005639438 -0.058504205 0.0024959848 0.0054550744 -0.05374765
-0.041508827 0.06567813 0.0023166833 0.02949974 0.08776533 -0.05676415 0.0018652264 -0.081901245
0.019542446 0.003642582 -0.029937085 0.057140514 0.041294407 0.020338712 -0.07256135 0.12054921
-0.0576883 0.017185057 0.08186079 -0.004042473 0.041053887 -0.021996394 0.01296397 0.02619176
-0.034516882 0.13176024 -0.07897401 0.027031843 0.10821407 0.0070221312 0.040396497 0.010463828
-0.0120174335 -0.088860705 0.012848848 -0.015340966 0.05509309 -0.20490976 -0.03673781 -0.118049525
0.02150644 0.10123336 0.025822265 -0.046252802 -0.011628018 0.06383746 0.07044548 0.014393586
-0.013083953 0.102369435 0.08992448 0.05767002 -0.07493335 0.03342717 -0.019669687 -0.046022754
0.020357447 -0.0929987 0.03242053 -0.029066255 0.035874873 0.0464741 0.033816095 0.028457657
0.039161846 0.15262593 -0.058167063 -0.03719611 0.008776088 -0.062700845 0.03394424 0.015098116
0.052583326 -0.07329613 -0.0006952588 0.01392313 -0.075782076 -0.030560393 0.056792017 0.06703186
-0.06789782 0.002813144 -0.07495592 0.06919934 -0.026892763 -0.008785331 -0.022295298 0.0070145233
0.0113564115 0.08920475 0.047620345 0.07371706 0.09045421 -0.0065566953 0.07299292 -0.034765463
0.017196724 -0.012898195 0.025718268 -0.073607646 0.005822316 -0.046409585 -0.028278288 0.036309812

network_body._body_endoder.seq_layers.2.bias f4 [256]
00000000: 07a1 e4bb 74e0 04bc 2a45 61bb 4615 17bb
00000010: 803d c3bb 1526 713c dff4 c7ba 1c55 82bb
00000020: 5693 a0bb dd04 c5b8 59c3 fc3b 35f6 ea3a
00000030: 5094 7136 e5ac c73b dc12 83bb 9c98 d23b
00000040: 780e ffba 8e38 703b 9cd0 803b f030 c83b
00000050: 5151 57bb 8c0c 24bb 950d abbb a963 51bc
00000060: a40a 8f3b 1a59 183c 8716 de39 dadf 203b
00000070: 8a07 44bc 2aa1 503b ac9a d23b 5b3e 993a
00000080: e66c 14bc 1704 82ba 7fea eb3b e547 c93a
00000090: ffce 35bc b6a0 0cbb b98e 8ebb 5388 e8b8
000000a0: 9866 d8ba 4203 a73b 532d 6a3b 5bce 9f3a
000000b0: ed79 18bb f6ab 74bb b293 843b bd7a 6fbb
000000c0: 7725 3fba 17f6 653a 0d37 233b f6c2 a03a
000000d0: b35d 05bc 244c 4e3c c2dd dd39 b049 02bc
000000e0: f215 4b3c e353 c6bb 6051 a53a c1ae fabb
000000f0: 9716 25ba 3a28 363b e432 0c3c 9f20 ae3b
00000100: 18e8 ef3b c6ce 193c f5ea 1fbb fdb5 1e3a
00000110: d8d5 00bb 91aa 3d3c 7a72 03bb 5115 113b
00000120: 155b 153c a531 ac3a 6cb8 faba 204e 183b
00000130: 3cd1 9abb 2d84 f2ba dc8e 4b3b cd88 c2bb
00000140: a885 043c 761d b5bb bca4 313c 953a 023b
00000150: 8e40 3fbb eef9 4d3b aa19 8e3a 2fa0 88ba
00000160: 0410 51ba ea56 983b bc79 e23b dc40 993b
00000170: 6095 cb3a d046 203b 2e76 4c3c 34cb e2bb
00000180: dd29 78ba fb3b 563b 90f1 463c 940a 0fbc
00000190: bae8 39b9 d398 083b c763 eaba 58f4 033c
000001a0: d347 92b9 3a0b 903a 0f4b 413c 69a5 f23a
000001b0: 8597 3b3a 058a 3f39 9b8d b5ba 294c e8ba
000001c0: 2b8a 5cbb c999 f0bb 478e ae3b 7f8f 27ba
000001d0: 57ce 4739 45a8 b1bb 6af1 153b 5e29 e73b
000001e0: 92b7 8b3b 27c3 4d3a 90d8 da3a b3a0 073a
000001f0: 07dc 463a b6aa 3fbb d843 a93b 3a93 003a
00000200: 16b7 3b3c adf6 1c3c 8fdd 6938 6a6c cfba
00000210: eced da39 4dee 963b 6bc0 ad3b 41f3 92b9
00000220: f4ce 0b3c abaf 25ba a8c5 a538 cc5f f73b
00000230: 97af 0c3c 457f a93b 70ca 0036 1ec5 193c
00000240: 5a20 96bb 12ad afbb 0923 0abb 6a8f 7dba
00000250: 553a 6ebb 3a7b cf3a 6ee8 edbb 898f 913b
00000260: 1d20 033c 2a43 b63b 5bdc 143b f2a1 263b
00000270: 169d 193c c3e8 143c d883 733b 3fd6 433b
00000280: a1f6 7bbb a2dc 103c 6436 e33a 0051 ac3b
00000290: 3319 68bb 347b 42bb ec96 023a b2dc 1cbb
000002a0: 1dcf b639 044b d0bb f06a 473c 2b35 46bb
000002b0: f96b 223c f329 9c3b 6546 63ba b998 bcba
000002c0: 2408 c23a 61fe f33a 96a0 93b9 4635 433a
000002d0: 8e54 273c 7226 ab3b 1484 7fbb 2f26 903b
000002e0: 682f 55bb ce61 433a f897 37bb 108a cdbb
000002f0: 676d 0abc da1f 773b 1b7c 14bb d709 6bbb
00000300: 4e12 33ba 7bdf ecbb 05ec e23a d9c7 f8b9
00000310: 778b 8dbb 7262 393a a48a 4cbb 4164 a93b
00000320: 4073 073c 0745 893a 4789 a0bb 5fe2 38ba
00000330: 26d9 003b b577 8dba 3709 8b3b 51ac 173c
00000340: 5115 733b 6ca2 faba 6f6e 2e3b e1dc 00bb
00000350: b902 333c ee54 f43b c0d1 833a 9303 f1bb
00000360: f438 05bb e1f3 9a3b 2196 023c 6bc8 a03b
00000370: ec9a a43a 2405 96b9 68c8 8fbb 2b8f 3fbb
00000380: 2dbf 33bc cb65 163b fc13 03bb c5ff 993a
00000390: f51f 4dba fbc3 4c3b abe0 7b3a a219 bb3a
000003a0: ebbb 643b 3597 10bb e759 44bb 658b 84ba
000003b0: ed90 41bb 1a57 a5bb cc34 2fba a8f5 f43b
000003c0: fb49 c53b 3eef f7ba 87a8 833c d9bb b73a
000003d0: 31f0 8d3b 2ab3 953a 389c 9c3b 5c97 683b
000003e0: 0778 0ebc f30c 2dbb a100 1b3b 21ba d3ba
000003f0: a134 03bb cab5 0e3c 0db1 e1bb a237 edbb
-0.006977204 -0.008110154 -0.00343735 -0.0023053451 -0.005958259 0.014718552 -0.0015255472 -0.003977431
-0.0049003763 -9.394598e-05 0.007713717 0.0017926159 3.5998128e-06 0.0060936087 -0.004000051 0.006426884
-0.0019459268 0.0036654803 0.003931118 0.0061093494 -0.0032854865 -0.0025031893 -0.005220125 -0.0127801085
0.004365282 0.009298587 0.00042359924 0.0024547488 -0.011964688 0.0031834343 0.0064271297 0.0011691557
-0.009059167 -0.0009919432 0.007199585 0.0015356509 -0.011096715 -0.0021458096 -0.00435051 -0.000110880144
-0.0016510068 0.005096824 0.0035732582 0.0012192236 -0.0023266033 -0.0037333942 0.004045927 -0.0036541664
-0.00072916545 0.0008772327 0.002490464 0.0012265134 -0.008140015 0.0125913955 0.00042317627 -0.007952139
0.012395369 -0.0060524805 0.0012612753 -0.007650227 -0.00062976166 0.0027794973 0.008557055 0.0053139473
0.007321369 0.009387678 -0.002440152 0.000605434 -0.001965871 0.011576311 -0.0020057247 0.002213795
0.009115954 0.0013137354 -0.0019128448 0.0023239926 -0.0047246497 -0.0018502526 0.0031060493 -0.005936718
0.008088507 -0.0055271937 0.010842498 0.0019871343 -0.0029182765 0.0031429487 0.0010841389 -0.0010423715
-0.0007975104 0.004649033 0.0069114845 0.0046769213 0.0015532188 0.002445627 0.012479348 -0.0069211964
-0.00094666873 0.003268956 0.012142554 -0.008730549 -0.00017729672 0.0020843043 -0.0017882519 0.008053862
-0.00027900803 0.0010989674 0.0117976805 0.0018512431 0.0007156062 0.00018266596 -0.0013851406 -0.0017722893
-0.003365169 -0.0073425514 0.0053270194 -0.0006391927 0.00019054986 -0.0054216706 0.002287949 0.007054492
0.0042638266 0.00078492094 0.0016696621 0.00051737874 0.0007585887 -0.0029246039 0.0051655583 0.0004904751
0.011457225 0.009580296 5.575787e-05 -0.0015825157 0.00041757466 0.0046060444 0.005302479 -0.00028028528
0.008533228 -0.0006320427 7.9046295e-05 0.0075492617 0.008586786 0.0051726424 1.919132e-06 0.009385375
-0.0045814933 -0.0053612078 -0.0021078011 -0.00096725544 -0.0036350687 0.0015829571 -0.007260374 0.0044421596
0.008003262 0.005562206 0.002271435 0.0025426117 0.009375831 0.009088698 0.0037157442 0.002988234
-0.0038446563 0.008841665 0.0017334935 0.0052586794 -0.003541541 -0.0029675486 0.00049815956 -0.0023935256
0.00034868057 -0.006356599 0.012171492 -0.0030244093 0.009913438 0.004765743 -0.00086698524 -0.0014388777
0.0014803451 0.001861524 -0.0002815767 0.0007446598 0.0102130305 0.005223089 -0.0038988637 0.004399083
-0.0032529477 0.00074532337 -0.0028014164 -0.006272562 -0.008448935 0.0037708194 -0.002265698 -0.003586402
-0.0006831036 -0.0072287894 0.0017312771 -0.00047451144 -0.004319604 0.00070718594 -0.0031210566 0.005169422
0.008267224 0.0010472842 -0.0048991772 -0.0007052775 0.001966068 -0.0010793122 0.004243042 0.009257392
0.0037091563 -0.0019121892 0.0026616117 -0.0019662904 0.010925942 0.0074564135 0.0010057017 -0.0073551624
-0.0020328136 0.0047287797 0.007970364 0.004906704 0.0012558377 -0.0002861406 -0.004387904 -0.0029229622
-0.010970873 0.0022948857 -0.0020000925 0.0011749199 -0.00078248914 0.0031244743 0.0009608368 0.0014274607
0.0034902047 -0.0022062783 -0.0029960813 -0.0010112344 -0.0029535845 -0.0050457837 -0.00066835876 0.0074755736
0.006020782 -0.0018915904 0.016071571 0.0014017775 0.0043316116 0.0011421193 0.004779365 0.0035490608
-0.008695609 -0.0026405423 0.0023651498 -0.0016153493 -0.0020020383 0.008710334 -0.006887561 -0.007239298

action_model._continuous_distribution.log_sigma f4 [1, 6]
00000000: ad8a 8ebc 0bff c43c 5750 3f3d 5f39 233c
00000010: f047 64bc bf2f 873d
-0.01740011 0.024047395 0.046707477 0.009962409 -0.013933167 0.06600904

action_model._continuous_distribution.mu.weight f4 [6, 64]
00000000: 8941 783c 60f9 eebc 46e4 933a 2ce1 813a
00000010: 739b 353d a0aa 35bc 578a 0abc b9d5 5c3d
00000020: e134 9b3a 23a9 92bc 10db 84bc 5b3b 473c
00000030: 7859 abbc d6f5 9dbb 8d67 833d 0cd1 1c3c
00000040: 9aaa dcb9 4271 a13c e5e6 c8bc a128 893d
00000050: 27d8 e4bb 6fa1 943d 41d8 80bd 2211 293d
00000060: 1fe3 3f3d 5d7b c2bd b76f 4f3d 55da 8cbd
00000070: 5f97 383a 9a0b 8cbd 0a12 2e3d c2f5 923d
00000080: 1558 b3bc a24f 0cbd 0c5e 233d 426d b93c
00000090: 5a74 88bc daf7 17bd 5802 5ebd 1552 ddbc
000000a0: 37ac 7cbd 0a5c aa3b 0eb2 f33c a490 f5bc
000000b0: a88b 803c a7ba ef3c c80f b73b 116f 23bc
000000c0: c174 9a3d 3599 a73c 9580 0bbc ad5f a93d
000000d0: 8dfe ca3c ac79 6bbd db8f 463b 242e c63c
000000e0: 424c c2bb 3988 a63c a052 793c ee25 5b3b
000000f0: 42a0 03bd 8006 f9ba 2057 883d 3c94 28bc
00000100: 179c 5abd ef73 0bbc b35f 833c 027f 6cbc
00000110: 6f74 043d 9104 ecb9 3760 0b3d 7cd6 693c
00000120: 5084 8c3b 6645 313b c97c 233d d287 f3bc
00000130: 0ad2 e9bc 1b0a 333c 8401 1c3d 7e5e cc3c
00000140: 4084 063b 345a 053d e0cc 98bc 17d2 b93c
00000150: 5711 8fbc 7543 d7bc 0784 573c d503 1dbd
00000160: 98c8 16bc dce0 37bd 2e0a c93b d1aa 153d
00000170: 3e5d eeba f023 803c cf14 afbd bc46 ffbb
00000180: 3b2e cfbc feef 113d b262 f83c 5304 afbc
00000190: 835b 7d3b 3b52 8dbc 4acf ca3c 0504 de3c
000001a0: d627 b8bc 661b 453d eee5 9fbc 6a89 7b3c
000001b0: ce27 45bd d036 013d de23 82bc 40ee 2bbc
000001c0: ba7d be3c 8b81 5b3b 3824 e8bc e766 19bd
000001d0: 8626 dabb bf71 473d 3a0e 1dbc 2139 7abd
000001e0: 3cb9 4e3c 8837 183d 58af a13c d8dd 2c3d
000001f0: 8883 49bd 7f42 aebc b03b c5bc a0cd 6e3c
00000200: af59 143c cfa5 babc 398c e03c 1b17 7eb9
00000210: c8b9 c23c 1467 9fba 1c04 dbbc 176f 0ebd
00000220: fd27 76bd c9a5 71bd 228f ddbc e686 343d
00000230: a468 aebc b572 aebc 3ae3 f9bc d35f 0fbd
00000240: 8a0c 783c 3985 64bd 9375 153d e1f5 aab9
00000250: 97db a3bc 6137 d23c 8abf 27bb e5a6 2bbd
00000260: 442b 04bc 294c 8038 bfd2 b1bc 3f7b 2dbc
00000270: bf98 e03c ff6d e5bb 0501 993c 2902 8b3d
00000280: f337 853c e48e 853c 4fed ef3c bff3 3f3b
00000290: 44b5 7bbc ff62 a3bc c3f7 983b 2f6a 963c
000002a0: bb8a 01bd daa4 bd3b e737 7e3d cf78 74bc
000002b0: 1033 963c 4208 e33c e580 0abc 0046 0dbc
000002c0: fee4 f93c 5e53 f03c a647 5bbc faaa 813d
000002d0: 0283 e5bc 8dd4 b4ba 6d90 0fbd 585a 113d
000002e0: bb5b 353b c31c 5c3b c06d f33c b3e5 253c
000002f0: ada4 7cbd f7ea d1bb 8591 043d 930c a8ba
00000300: 63df 213c 3067 3abd c18e f3bb 378f feba
00000310: 41ad 4e3c 99f4 4e3b eca3 a039 c2cf e8bc
00000320: e237 63ba 8386 453b 8bad bc3c 4cae 9b3b
00000330: 0279 e13c 519f a7bb 68d2 6ebc 9026 6dbd
00000340: 40a2 92bc 6a2f 763c 7241 c53c a368 2d3b
00000350: d5ad b0bc d6b1 babb 8a0d f73c 919a 29bb
00000360: e5f8 753a 3b4a 8a3c 9119 b23c 5e8a 333c
00000370: 29de 78ba 56a4 28bd 4b3c 133d 3aae e13c
00000380: fdec 95bb 8681 2a3d a7ec 123d 359c 06bd
00000390: c19b 73bc 5e18 d9bc a149 bf3a 634a d1bb
000003a0: 5910 dd3a d36b 303d 829b 55bb b8ce 19bd
000003b0: 5a56 92bc 1996 373d 2cbf e43a 8ba3 1cbd
000003c0: 4e60 723c c235 17bd afd1 31bb 8bb2 56bd
000003d0: 5c75 463c 8241 60bd 10d3 b53b c491 673c
000003e0: 5963 443c cad5 f3bc d518 2cbd dee4 00bc
000003f0: e042 a43c e4a7 40bd 9f6c 203d 90b7 e1bb
0.015152344 -0.029171646 0.0011283241 0.0009909025 0.0443377 -0.011088043 -0.008455834 0.05391476
0.0011841321 -0.017902916 -0.016217738 0.012160148 -0.020916685 -0.0048205657 0.06416235 0.009571325
-0.00042088778 0.019707326 -0.024524162 0.066972025 -0.006983775 0.072573535 -0.06291247 0.041276105
0.04684746 -0.09496186 0.05064365 -0.06877581 0.0007041599 -0.0683815 0.042497672 0.07175781
-0.021892587 -0.03425563 0.039884612 0.022635106 -0.016657043 -0.037101604 -0.054201454 -0.027016679
-0.061687674 0.00519896 0.029747989 -0.029976197 0.015691593 0.029263807 0.005586598 -0.009975211
0.075418 0.020458797 -0.008514543 0.08270202 0.024779582 -0.057489082 0.0030298147 0.024191923
-0.005929501 0.020328628 0.015217453 0.0033439356 -0.032135256 -0.001899913 0.06657243 -0.010289248
-0.053371515 -0.008511527 0.016036844 -0.014434578 0.032337602 -0.0004501683 0.034027305 0.0142723285
0.004288234 0.0027049421 0.039913926 -0.02972785 -0.028542537 0.010927702 0.038087383 0.024947401
0.0020525604 0.032556728 -0.01865238 0.022683186 -0.017464323 -0.026277283 0.013154036 -0.038333733
-0.009203099 -0.044892177 0.0061352467 0.036539856 -0.0018185747 0.015642136 -0.08548891 -0.0077904146
-0.0252906 0.035629265 0.0303205 -0.021364367 0.0038659282 -0.017251125 0.024757046 0.027101526
-0.022479933 0.048121832 -0.019518819 0.015352586 -0.048133664 0.031546414 -0.015886243 -0.010493815
0.02325331 0.0033493962 -0.028337583 -0.03745165 -0.0066574244 0.04869246 -0.009585911 -0.06108964
0.0126174055 0.037162334 0.01973693 0.042203754 -0.049197704 -0.021271942 -0.024076313 0.014575392
0.009054585 -0.022784142 0.027410613 -0.00024231935 0.023770228 -0.0012161457 -0.026735358 -0.034773912
-0.06009673 -0.058995996 -0.02704579 0.04407396 -0.02129013 -0.021294931 -0.030503858 -0.035003494
0.015139708 -0.055791114 0.03648908 -0.0003260812 -0.02000217 0.025661172 -0.0025596344 -0.04190721
-0.008066956 6.1177016e-05 -0.021706937 -0.010588466 0.027416585 -0.007001638 0.018677244 0.067875214
0.01626203 0.016303487 0.029287962 0.002928957 -0.015363041 -0.019944666 0.0046682074 0.01836118
-0.031626444 0.005787474 0.06206503 -0.014921381 0.018334895 0.027713899 -0.008453582 -0.008622646
0.0305047 0.029336628 -0.013383782 0.06331439 -0.028016571 -0.0013796255 -0.035049845 0.03548655
0.0027673084 0.003358648 0.029715419 0.010125565 -0.061680485 -0.006406184 0.03236534 -0.001282113
0.00987992 -0.045508564 -0.007432789 -0.0019421343 0.012614549 0.0031578897 0.0003063971 -0.02841938
-0.000866769 0.003013999 0.02303197 0.0047510024 0.027523521 -0.0051154275 -0.014576532 -0.057898104
-0.017899632 0.015025953 0.024079058 0.0026460073 -0.021567265 -0.005697469 0.030157823 -0.0025879482
0.00093830965 0.016881099 0.021740707 0.010958282 -0.00094935537 -0.041172348 0.03594617 0.027548898
-0.0045753703 0.04162743 0.03587022 -0.032863814 -0.014868678 -0.026500877 0.0014594087 -0.0063870414
0.0016865834 0.04307158 -0.003259391 -0.037550658 -0.017863441 0.04482088 0.0017451993 -0.038241904
0.014793469 -0.0369165 -0.0027133038 -0.052416366 0.012112942 -0.054749973 0.0055488423 0.014133874
0.011986577 -0.029765029 -0.04201587 -0.007867066 0.02005142 -0.047035113 0.03916609 -0.0068883374

action_model._continuous_distribution.mu.bias f4 [6]
00000000: 8fbd b3bb 7282 bdbb 7351 2d3c 6b06 9d3b
00000010: fd99 5bbc 4e66 9039
-0.0054852436 -0.0057833726 0.010578501 0.004792025 -0.013403413 0.00027542043

onnx::LSTM_101 f4 [1, 256, 256]
00000000: e7fe 3f3b f2a5 0e3d 8118 8cbd 2f37 0a3c
00000010: 4dba d4bd b817 2e3d f9fb d6bd b0a8 6dbc
00000020: 3c97 683d cc10 9c3b 0584 f23d 88cd fcbd
00000030: 5d01 5dbd c1e7 93bd 4448 b43c 6c38 d5bd
00000040: 851c 92bc a443 5d3d c677 fa3a 42f6 d23c
00000050: c61c 2b3d d9d9 043e b666 84bd e573 ab3d
00000060: 37e1 7abc fc6c 103e 1697 ee3d 240f afbd
00000070: 75d8 04be e63f f13d 94b5 d93d 5ccc 2bbd
00000080: 774c b2bd e1f3 d53d 7105 ccbd 6feb 363d
00000090: 2502 303d ba79 38bd 052f ddbd 5ce2 b83d
000000a0: 195a 56bd 8027 b6bd c8a8 eabd b6dd e73c
000000b0: f93d 27bd 73e1 953d 76ae 43bd c26a c53d
000000c0: ed34 91bd c42a b7bd 8ba9 8b3c 85b1 523d
000000d0: 5800 e83d f687 323d 218c 04be 1521 be3c
000000e0: aec3 e23b f3b2 5a3c 7132 5e3d 76b0 00be
000000f0: b8bd b3bd de62 c03c 17e6 f2bc 17a9 7abd
00000100: 368e ffbd cf8c 6dbd d43a b7bd 35b1 813d
00000110: e23f b0bd ab8e 83bc 1401 86bd e8df 7cbd
00000120: 0997 90bd c078 ab3d bf5b 523c d9e8 b0bd
00000130: a0d3 41b8 be8b dc3d 3870 01be 328e d7bd
00000140: ae6a ddbc 1687 eabd 8f3f 173e dcf1 b93d
00000150: c712 7e3d 0e80 b3bd 737c a5bc 07ef e0bc
00000160: b819 c0bd 662f 15be aac2 123d 01b2 393d
00000170: 51a4 9e3d 4462 62bd d793 9d3d 8bd3 b5ba
00000180: 7838 8bbd 195d 02be 6580 5e3d f62a 22bd
00000190: 2726 a73b 9428 0abd 67d8 dabc f6c3 6f3d
000001a0: e927 fb3d abf9 113d 72c7 d83d 86c1 afbd
000001b0: e504 90bd 9429 c73c 1766 d3bd 6fe5 afbd
000001c0: e0b6 a43d 35a1 0ebe fde1 303d e9ab e33d
000001d0: 7ff3 f83d f865 cd3c e88a 1f3d 704a adbd
000001e0: d54a 0f3d 0e5a 743b 33fd 9f3c e9c6 c9bd
000001f0: 07a0 853d 3fdd 203b bf37 c63d caed 8fbd
00000200: 7948 003d 3f16 c2bc 3bc1 3b3d 401d 193e
00000210: 87ea d53c 7f98 febc 940a d0bd 3dc2 fdbd
00000220: d804 923d 903b ce3c 8722 82bc b26b 083e
00000230: eb63 80bd b1f4 f1bd 0285 bbbd 1286 e5bd
00000240: bcbe 2c3d da86 05be 1318 553c e72e febb
00000250: 7950 98bc d232 e1bc 2928 a6bd 64b3 003e
00000260: 4606 b6bd 5df8 c9bd b08e 223d 45bd bebd
00000270: 18eb f3bd 768c 5b3d d601 82bd dda2 70bd
00000280: 4599 e5bc 45a0 37bd 3f90 ca3d 6cc3 4e3d
00000290: f7a0 d8bc d403 183d 68b9 f33d 3bb2 90bc
000002a0: 4fd5 463d 37b0 753d f2b1 a73d 98d7 233d
000002b0: 48e8 163d 7d85 8b3d 9b64 be3d 1029 043d
000002c0: 062c 3b3d bf82 f93d 4a3d 05be 2aa6 20bc
000002d0: b615 a4bd 1a10 e53d c1d8 533d 8237 7a3d
000002e0: ca78 993d 79f7 a4bd 6334 b5bc b784 00be
000002f0: 846c babd 661a 04be f765 0d3c cfcb 8bbb
00000300: eeee 02be ec9c 323d 84c7 bd3c 698f 0c3d
00000310: 3343 213d 8ba9 e03d 00d2 e53c 4179 1fbc
00000320: 18f2 f9bd 8410 6abd 70fc 8c3d 902f 0cbe
00000330: c98d 1e3b 5aaf 543d 2a2f a13d 86ae c5bd
00000340: 3177 d33a 9840 943b 6a25 fc3c fde1 84bd
00000350: 5644 3dbd 46e4 353d 2ee4 cfbd 8f34 86bd
00000360: 79da a3bd 5d53 91bd ffbc 6a3c d533 f63c
00000370: efeb 033e c9a5 07be 765b edbd 0c11 6bbd
00000380: b68a c53d eb25 eebd 7c44 0bbe 7af0 a13d
00000390: 9fe5 0a3e 6d25 2d3c 1887 9f3c a588 c13d
000003a0: 349c bebc c292 87bd 3b59 8bbd 37d3 053d
000003b0: 6bef 483d e3f3 073e 2963 0fbe 15dd 19be
000003c0: 9e5b 3ebc ae7e a8bd 9721 5c3d e8d1 f73d
000003d0: cdd9 babc 21fa 12be b650 60bd 760f 7dbd
000003e0: 9bf9 843d b6b1 543d 37c8 b3bc 6b7a d9bd
000003f0: e233 893b 15d3 d9bc 68b3 fd3d 0527 973d
0.002929622 0.034826227 -0.06840611 0.008436008 -0.103870966 0.04250309 -0.10497279 -0.01450555
0.056784853 0.0047627445 0.11841587 -0.123438895 -0.05395638 -0.07221938 0.022007115 -0.10411152
-0.017835865 0.054019585 0.0019109182 0.02575219 0.041775487 0.12973727 -0.06464903 0.083717145
-0.015312484 0.14104074 0.11649911 -0.0854781 -0.12973197 0.11779766 0.106303364 -0.04194294
-0.08705991 0.10446907 -0.09961975 0.04465812 0.042970795 -0.045037962 -0.10799984 0.090275496
-0.052332018 -0.08894253 -0.11457974 0.028303962 -0.040830586 0.07318392 -0.0477738 0.09639503
-0.07090173 -0.08943704 0.017048618 0.051438827 0.113281906 0.043586694 -0.1294408 0.023209134
0.0069202995 0.013348329 0.054247323 -0.12567315 -0.0877642 0.023484644 -0.029650731 -0.061196413
-0.124782965 -0.057995614 -0.089467674 0.06332628 -0.08605935 -0.01605924 -0.065431744 -0.06173697
-0.07060058 0.083726406 0.012839257 -0.08638162 -4.6211877e-05 0.10768841 -0.12640464 -0.105251685
-0.027028408 -0.11451547 0.1477034 0.09079334 0.062029626 -0.08764659 -0.020200944 -0.027457727
-0.093799055 -0.14568862 0.035830177 0.045335773 0.077461846 -0.055269495 0.07694214 -0.0013872249
-0.0679788 -0.12730826 0.054321665 -0.039591752 0.0051009837 -0.033730105 -0.026714517 0.058536492
0.12263472 0.035638493 0.10584916 -0.085818335 -0.070321836 0.024311818 -0.103222065 -0.08588683
0.08042693 -0.13928683 0.04318427 0.11116774 0.12155818 0.025073037 0.03895083 -0.084614635
0.034983475 0.0037285122 0.019529914 -0.09852392 0.065246634 0.0024545935 0.096786015 -0.070277765
0.031319115 -0.023692248 0.045838576 0.14952564 0.026112808 -0.031078575 -0.101582676 -0.12390564
0.0712983 0.025174886 -0.015885605 0.13322333 -0.06269058 -0.11814249 -0.091562286 -0.112072125
0.042174086 -0.13039723 0.013006228 -0.007757056 -0.01859306 -0.027490053 -0.08113129 0.12568432
-0.08887915 -0.09861825 0.03968686 -0.09313444 -0.11910075 0.05360075 -0.063480064 -0.05874907
-0.028027186 -0.04483058 0.09890794 0.050479338 -0.026443942 0.037113026 0.11900598 -0.017663112
0.04854327 0.059982505 0.08188237 0.040000528 0.036842614 0.0681257 0.09296533 0.032265723
0.04569628 0.12183141 -0.13011661 -0.009805242 -0.080119535 0.11184712 0.051720385 0.061088093
0.07493742 -0.08055014 -0.022119706 -0.12550627 -0.09102729 -0.12900695 0.008630267 -0.0042662392
-0.12786457 0.043606684 0.023166426 0.034316454 0.039370727 0.10969838 0.028054237 -0.009733499
-0.12204379 -0.057144657 0.06884086 -0.13690019 0.0024193397 0.05192504 0.07870324 -0.09652428
0.0016133544 0.0045243017 0.03077956 -0.06488416 -0.04620775 0.04440715 -0.10150944 -0.065529935
-0.08000655 -0.070959784 0.014327287 0.030054012 0.1288297 -0.13246836 -0.115897104 -0.057389304
0.09645598 -0.11628326 -0.13600343 0.079071954 0.13564156 0.010568005 0.019473597 0.09449891
-0.023267843 -0.06619789 -0.06804129 0.032672133 0.04905645 0.13276629 -0.1400267 -0.15025742
-0.011618523 -0.08227287 0.05374297 0.12100583 -0.022808934 -0.14353229 -0.054764472 -0.061782323
0.06492921 0.05192729 -0.021946056 -0.106190525 0.004187093 -0.02658991 0.12387735 0.07380489

onnx::LSTM_102 f4 [1, 256, 64]
00000000: a04e 3abd f4d8 013e 8e3d 463e 3c15 f1bd
00000010: 9e76 f73d f516 2d3d de70 183c ab02 003e
00000020: 4b84 1a3e 931d 883d 8d5f 26be 1d5a 533e
00000030: 60a8 863c 079d 413e 9804 57bd c69e 003d
00000040: 4047 a13d 02fe 753d 97af d4bd 0b5b b53d
00000050: bf45 2fbd 2445 0ebe 61c6 4d3d b0e0 babd
00000060: 659c b0bd 8128 503e 24be 41be f07c de3d
00000070: 879e d8bd 1e35 493e 9ae2 0b3d 3f02 403e
00000080: 7f73 51bd 992a 413e 37e1 21be 7cfe 0cbe
00000090: 84d8 b63c 318f a13c 82db 0c3c e651 d1bc
000000a0: dc9c 09be 67e3 113d a715 593d 36db 2abe
000000b0: bbda 033d 290b 513e 9e15 b0bc 9a40 3e3e
000000c0: 9c9e b3bd baef 91bd e10b 17be 9403 f1bd
000000d0: 2104 f1bd b336 523e 1aa8 fb3d 683a 4bbe
000000e0: b700 923d adbc 5a3d 3e6c 073e e48f 003e
000000f0: f28e 3cbe a02b 7c3c 88d3 2a3e 8657 cb3b
00000100: d0af 73bd ce5e d73d d04e 97bb bf68 3a3e
00000110: 2fa5 473e 0ddf e13d 3a89 45be d897 5e3d
00000120: 9e86 443e ac58 09be d57e db3d 1293 50bd
00000130: 03f3 37be 5ba3 793d 7000 723d 51d6 b1bb
00000140: 04e3 59be c31d 223e ad50 353e 6d85 983d
00000150: 07eb 413d 3f73 393e 7962 363e e81e cfbd
00000160: a25d 363d 9a6c b3bc 6181 52bd 069e 613d
00000170: 8e3b e4bd 98d1 49be e654 4c3d 6037 24be
00000180: 7eeb 403e 155a 793d ee6c 17be e0a5 e43c
00000190: bd0a 24be a53f e5bc 7a2b 76bd 615e ef3c
000001a0: 2f2d 043e 5e10 9dbd c6b3 893d 7434 08be
000001b0: c729 c3bc ccc4 213e 58f9 a4bd f75e 203e
000001c0: 2be0 cebc f81d b53d eda3 34be 0cc1 533e
000001d0: 8d27 b03d d1c2 fc3d 0309 b8bd 84b8 443e
000001e0: 1c13 e63d bdb5 85bd 8daf b43d 391e d73d
000001f0: 5ed3 53be 30ae e8bd 662c 383d 2c26 083d
00000200: be2f a93c 01b4 c2bd 0cd1 06bc cc2b 5ebd
00000210: 90ce 223d b9d6 ae3d 3a9c 323e 4e16 1a3d
00000220: 34f6 39be daaa 00be 35e0 293e 425e 103e
00000230: 4fbc a6bd e537 92bc f55b 8cbc 6f7b fabd
00000240: 25c8 b23d 7163 223e 398b 17bd ea38 b73c
00000250: 594d 1fbe b103 193e 0cb1 03be 2b9b 12bc
00000260: 09b0 d7bd feb9 46be 50c6 27bd d8a3 0d3d
00000270: f20d 24be 3e6d 9e3d 9b7a 353c 67a2 c0bd
00000280: 933c 553e 2f8d da3d 1b12 c6bd f8e6 f3bc
00000290: 5fb3 a23d 54f6 83bd c12a 4f3e 4027 ea3d
000002a0: 7786 2a3e 680b 15be 8563 27be c7c6 cc3c
000002b0: 3c56 0fbd 177c 31bd d3fc d63d fffe 45be
000002c0: 97f7 413d d5ec 26be 3f90 dcbd c0dd bc3d
000002d0: a68b 13be 7d69 0abe 2ce6 2ebd eed9 03bd
000002e0: 26c6 93bd 2fcc 49be a6f0 e3bd da9e 7b3c
000002f0: 8ac1 743d f715 4ebe bfcc 333e fe71 39be
00000300: d717 84bc 6d50 ffbd e8e3 2ebe fc38 4b3e
00000310: 768c 29be d431 2ebc 256f 4dbe c489 a2bd
00000320: 4c02 bcbd 8a04 433e b7e4 f0bc d50a 03be
00000330: 3734 043e d6e0 47bd 0967 933d c14a 1ebe
00000340: b53e 1bbe 3a30 fc3d 8f7e c83c b9c4 b5bc
00000350: 412b 7dbd 96c7 2bbe 5853 943d 8a99 533d
00000360: a6bd 43be 7bda 503e fee0 edbd 9f16 1abe
00000370: f931 0fbe e9f0 9abd 8568 263e 803b 93bd
00000380: 8cb5 973a f67d e1bb 9378 693d de29 07be
00000390: 84e0 583e 7330 18be 1540 e5bd 3526 47bd
000003a0: d997 4d3e 4af7 d73d 3283 c6bd d573 e03d
000003b0: 0b1c 0fbe efc7 063d b166 32bd 4121 463e
000003c0: 6ea8 df3c b617 273e e451 323e 2fb6 143d
000003d0: 7cbf 483e 0bb9 9c3d 3bf4 c83d 9986 373e
000003e0: 1fd8 ecba a09a 133e 0cb2 2e3b 22c0 4ebe
000003f0: 92dd 4abe fb59 e5bc 210d 303e 112b 4dbb
-0.04548514 0.12680417 0.19359419 -0.11771628 0.12083171 0.04225822 0.009304253 0.12501018
0.15089528 0.06646266 -0.16247387 0.20639844 0.01643771 0.18907557 -0.052494615 0.03140142
0.07874918 0.060056694 -0.103850536 0.08855256 -0.042791124 -0.13893563 0.050238017 -0.09124887
-0.0862358 0.20327951 -0.18920189 0.10863674 -0.10577112 0.19649169 0.03415165 0.18750857
-0.051135536 0.18863906 -0.15808569 -0.13768953 0.02232004 0.0197216 0.008597257 -0.025551748
-0.13438743 0.03561726 0.052999165 -0.16685185 0.03219102 0.20414414 -0.021494683 0.18579331
-0.08770487 -0.07125802 -0.14750625 -0.117682606 -0.11768366 0.20528679 0.12287922 -0.19846499
0.071290426 0.05340259 0.13224885 0.1255489 -0.18413904 0.01539126 0.16682255 0.006205502
-0.05949384 0.105161294 -0.0046175495 0.1820402 0.19496606 0.11028872 -0.19290629 0.05434403
0.19191977 -0.13412732 0.10717551 -0.050921507 -0.17963795 0.060946804 0.05908245 -0.00542716
-0.21278006 0.15831666 0.17706557 0.07447324 0.04734328 0.18110369 0.17811002 -0.10113317
0.04452289 -0.021902371 -0.051392917 0.055082344 -0.11144172 -0.1970886 0.049885653 -0.16036749
0.18839833 0.060876925 -0.14787647 0.027911127 -0.16019721 -0.02798445 -0.060100056 0.029219808
0.12907861 -0.076691374 0.06723742 -0.1330126 -0.023823632 0.15797728 -0.08055371 0.15661226
-0.025253376 0.08843607 -0.17640658 0.2067911 0.08601294 0.12341846 -0.08986094 0.19211012
0.112341136 -0.065288045 0.08822546 0.105038114 -0.20686099 -0.11361349 0.044964217 0.03323953
0.020652648 -0.09506989 -0.008228552 -0.054240987 0.039747775 0.08537049 0.17442408 0.037618928
-0.18160325 -0.12565175 0.16589434 0.14098457 -0.08141386 -0.017848918 -0.017133692 -0.12230574
0.08729581 0.15858246 -0.036998007 0.022366006 -0.1555685 0.14942814 -0.12860507 -0.008948128
-0.10531623 -0.19406888 -0.04096061 0.03458008 -0.16020945 0.0773568 0.011076595 -0.09405976
0.20823888 0.1067146 -0.09671422 -0.02977322 0.079443686 -0.06443468 0.20231153 0.114332676
0.16652857 -0.14555132 -0.16346557 0.024997128 -0.03499435 -0.043331232 0.10497441 -0.19335555
0.04735526 -0.16301282 -0.107697 0.09221983 -0.1440874 -0.13516803 -0.042699978 -0.032190256
-0.07215528 -0.19706796 -0.111298844 0.015357697 0.059754886 -0.20125566 0.17558573 -0.18109891
-0.016124649 -0.12466512 -0.17079127 0.19845957 -0.16557488 -0.010631997 -0.2006193 -0.07936433
-0.091801256 0.190447 -0.029405935 -0.12797101 0.12910543 -0.048798405 0.07197387 -0.15458204
-0.1516064 0.12313886 0.02447441 -0.022188531 -0.06180883 -0.16775355 0.07242459 0.051660098
-0.19115314 0.20395844 -0.116151795 -0.15047692 -0.13983907 -0.07565481 0.16250809 -0.07189083
0.0011574491 -0.006881471 0.056999754 -0.13199565 0.21179396 -0.14862232 -0.11193863 -0.04862042
0.20077457 0.105452135 -0.09692992 0.10959593 -0.13975541 0.032905515 -0.043554965 0.19348623
0.027301993 0.16317639 0.17414051 0.036306556 0.19604295 0.07652482 0.09812208 0.17922439
-0.001806978 0.14414454 0.0026656417 -0.2019048 -0.19811085 -0.027997008 0.17192508 -0.0031306187
