code/selfparking/mla/results/test_18/Car/Car-1397972.onnx (onnx, 692944 bytes, 10 tensors)

network_body._body_endoder.seq_layers.0.weight f4 [256, 91]
0.14571832 -0.16846699 -0.049679127 -0.028729966 -0.168811 -0.21992157 0.00046726764 0.0918553
0.12111689 -0.011337332 0.11485397 -0.121351525 0.25661498 0.064988166 -0.06973756 -0.029359996
0.09668158 0.1098571 -0.05044973 -0.035088383 -0.2591168 -0.22282416 0.18332736 0.22892432
0.16039613 -0.07076858 0.07557896 -0.075358555 0.014978591 -0.009490927 0.018420562 0.014114125
-0.056558944 0.023671292 -0.06419181 -0.04929378 0.13893168 -0.15972008 -0.06469527 0.0024926984
0.12433509 0.073019415 0.068912916 -0.10734643 -0.03728049 0.06749736 0.16666955 0.2770008
-0.024694638 0.025478559 -0.061985876 -0.092172965 -0.06129709 0.11552161 0.042225398 -0.17247584
0.092243455 0.19596322 -0.019724965 0.12673943 0.058847275 0.06969 -0.05644175 0.10274054
0.13216229 -0.018559704 -0.19469357 -0.185886 0.032343756 0.14493726 -0.09007826 -0.07689262
0.04837379 -0.13580978 0.018511765 0.071701415 0.048417486 0.022593021 -0.117422976 -0.12195448
-0.15029271 -0.072974876 -0.01628585 -0.09180445 -0.16566241 -0.017815007 0.14089927 -0.15960181
0.10125017 -0.22221708 0.1148266 0.051246524 0.06461469 -0.039535403 -0.028776092 -0.026230555
0.083724745 -0.12578303 0.07254826 -0.27584493 -0.074321546 -0.021369278 -0.094418235 0.106900655
-0.021300912 0.057040114 0.049435038 0.13432084 -0.06158324 0.050856333 0.14101471 -0.11198312
0.050759804 0.13363665 0.14831223 -0.10046697 0.20249958 -0.0571357 0.0012253085 -0.28962186
0.15686952 0.20583092 -0.021631306 -0.033132534 0.10253279 0.09408574 -0.073056854 0.030922985
-0.083631575 0.13313454 0.054389846 -0.011860876 0.049798492 0.05591208 -0.08219812 -0.036134627
0.040664755 -0.110949434 -0.03779968 0.27460268 -0.048391603 -0.023132153 0.061267633 0.11122278
0.014790705 -0.03505016 0.01963234 -0.12807286 -0.02859194 -0.066678144 -0.04277797 -0.13165803
-0.20430604 0.08191599 0.15492514 -0.023615297 0.035657052 0.05611831 0.001412722 0.05122006
0.023829777 -0.16003965 -0.099227935 -0.088862345 0.11166236 -0.15934867 -0.035358857 0.15254223
-0.19781616 -0.10503077 -0.06309097 0.04222934 0.0099497195 0.022929871 -0.10287225 0.15321083
-0.10682552 0.15164356 0.055552594 0.037817284 0.026582941 0.005521751 0.1177156 0.089862965
-0.027122121 -0.16289507 -0.046176657 0.15251206 -0.12580542 -0.039195403 0.09565266 0.06008366
-0.043043442 0.08683917 -0.060221616 -0.06548049 0.021271003 0.0041161543 0.1399718 -0.06623892
-0.025676267 0.0072202072 -0.087482385 -0.011773088 -0.013186142 0.059848 0.06598441 0.070240155
0.1389283 0.009765263 -0.10125345 0.0866611 0.016897973 -0.042998083 0.16539788 -0.012686965
-0.11620133 0.1379224 0.036689173 0.0032626577 0.014045916 -0.012006385 -0.03425357 0.039560985
-0.1449464 -0.039377023 -0.09887621 -0.11057092 -0.07293861 -0.018550057 0.2109841 0.002123384
-0.07047864 0.033136703 -0.0016240426 0.03353541 0.02716521 0.10679543 0.12922369 -0.20933537
0.14969704 0.19072193 -0.005029279 -0.15088016 -0.00036676112 -0.08744172 -0.05552077 0.1701429
-0.106115334 -0.0860852 0.00812604 0.0155734485 -0.09488975 -0.14897516 -0.15282539 -0.03441612
00000000: 2f37 153e 9c82 2cbe 577c 4bbd 1b5b ebbc
00000010: cadc 2cbe 1f33 61be 9afb f439 a21e bc3d
00000020: 220c f83d 38c0 39bc 8f38 eb3d 2687 f8bd
00000030: 0a63 833e 8418 853d 91d2 8ebd 6084 f0bc
00000040: fe00 c63d c2fc e03d 60a4 4ebd d6b8 0fbd
00000050: f5aa 84be 042c 64be 2bba 3b3e 236b 6a3e
00000060: e23e 243e 1eef 90bd 24c9 9a3d 9655 9abd
00000070: c468 753c d57f 1bbc b8e6 963c ee3e 673c
00000080: 5aaa 67bd 4cea c13c ff76 83bd 46e8 49bd
00000090: 1b44 0e3e a98d 23be f47e 84bd 8a5c 233b
000000a0: 65a3 fe3d 348b 953d 3722 8d3d 72d8 dbbd
000000b0: 6db3 18bd 0e3c 8a3d 6cab 2a3e 0dd3 8d3e
000000c0: 694c cabc 69b8 d03c e7e4 7dbd 2ec5 bcbd
000000d0: a812 7bbd 9896 ec3d 8af4 2c3d 829d 30be
000000e0: 23ea bc3d 95aa 483e 4096 a1bc fbc7 013e
000000f0: d709 713d a1b9 8e3d 772f 67bd a269 d23d
00000100: 8d55 073e 850a 98bc c05d 47be e658 3ebe
00000110: e37a 043d 6f6a 143e f37a b8bd e179 9dbd
00000120: 9823 463d b811 0bbe fca5 973c 31d8 923d
00000130: 6a51 463d 0015 b93c 757b f0bd 45c3 f9bd
00000140: 55e6 19be da73 95bd e769 85bc f903 bcbd
00000150: 68a3 29be c7f0 91bc e647 103e a86e 23be
00000160: 405c cf3d e08c 63be 352a eb3d e0e7 513d
00000170: b554 843d e0ef 21bd d7bb ebbc 76e1 d6bc
00000180: e177 ab3d 44cd 00be 2f94 943d 8c3b 8dbe
00000190: e535 98bd a00e afbc 595e c1bd bbee da3d
000001a0: 407f aebc e5a2 693d 657c 4a3d 678b 093e
000001b0: b53e 7cbd bb4e 503d 2966 103e 6857 e5bd
000001c0: 83e9 4f3d 0cd8 083e 29df 173e a0c1 cdbd
000001d0: 0d5c 4f3e 2007 6abd 889a a03a 5149 94be
000001e0: 67a2 203e 57c5 523e 2334 b1bc fbb5 07bd
000001f0: b6fc d13d 06b0 c03d d59e 95bd 3352 fd3c
00000200: 0847 abbd 6c54 083e e3c7 5e3d 1f54 42bc
00000210: 81f9 4b3d 1104 653d 7d57 a8bd e701 14bd
00000220: 1690 263d 7539 e3bd d6d3 1abd b998 8c3e
00000230: 4636 46bd a47f bdbc c5f3 7a3d c5c8 e33d
00000240: b754 723c c290 0fbd 00d4 a03c 8825 03be
00000250: a539 eabc 8d8e 88bd f437 2fbd 5dd1 06be
00000260: 9a35 51be 92c3 a73d b2a4 1e3e de74 c1bc
00000270: 210d 123d 50dc 653d 162b b93a 20cc 513d
00000280: aa36 c33c 6fe1 23be 0438 cbbd 76fd b5bd
00000290: 3caf e43d 4c2c 23be 73d4 10bd 0834 1c3e
000002a0: 5290 4abe 5f1a d7bd d735 81bd acf8 2c3d
000002b0: 2604 233c 6dd7 bb3c b0ae d2bd 4de3 1c3e
000002c0: 57c7 dabd 7348 1b3e 1e8b 633d 4ce6 1a3d
000002d0: 78c4 d93c ceef b43b e014 f13d 130a b83d
000002e0: 362f debc f7cd 26be bc23 3dbd 1f2c 1c3e
000002f0: 23d3 00be 5c8b 20bd 8be5 c33d 491a 763d
00000300: 524e 30bd bcd8 b13d f1aa 76bd a31a 86bd
00000310: 8740 ae3c cee0 863b c454 0f3e 45a8 87bd
00000320: 0957 d2bc 7d97 ec3b f729 b3bd e9e3 40bc
00000330: b00a 58bc 2d23 753d d622 873d 12da 8f3d
00000340: 3843 0e3e 7bfe 1f3c f85d cfbd 607b b13d
00000350: 9e6d 8a3c c21e 30bd 105e 293e fddc 4fbc
00000360: f7fa edbd 883b 0d3e 6347 163d 50d2 553b
00000370: d720 663c 6eb6 44bc 794d 0cbd b30a 223d
00000380: d46c 14be cd49 21bd 9c7f cabd 0273 e2bd
00000390: d760 95bd 4af6 97bc 370c 583e 7928 0b3b
000003a0: 1b57 90bd 5aba 073d d4dd d4ba 6d5c 093d
000003b0: 9389 de3c 90b7 da3d 3753 043e 035c 56be
000003c0: 2e4a 193e 9c4c 433e a6cc a4bb 5480 1abe
000003d0: d849 c0b9 a514 b3bd bf69 63bd f139 2e3e
000003e0: ff52 d9bd 704d b0bd 1523 053c c727 7f3c
000003f0: 8f55 c2bd f28c 18be 427e 1cbe ebf7 0cbd

network_body._body_endoder.seq_layers.0.bias f4 [256]
-0.0032699471 -0.0029766783 -0.0054783574 0.0038007437 0.0061937696 0.0020480538 0.004613774 0.006818703
0.010185671 0.010997844 0.001671457 -0.008584926 0.008258501 0.0033109877 0.0075351354 0.009346781
0.00047440425 -0.005736755 0.012112868 0.0050791414 0.0113902055 0.0022930505 -0.0014084534 0.01076976
-0.0048384694 0.0054303305 0.021076938 0.0013967825 0.009068282 -0.006092708 0.00060440577 -0.0016252353
0.017389072 0.002136009 -0.0016277835 0.0060987887 -0.0005252942 0.0017876473 0.014097236 0.009256132
0.003985686 0.0030186493 -0.0069488306 -0.021791551 -0.004861957 0.013793235 0.012525743 0.008363824
-0.0017855805 5.3655487e-05 0.001568724 0.008128322 -0.015373784 -0.001280239 0.0020564285 -0.0037208735
0.009271746 -0.0110081555 0.0042860075 0.010741862 0.00057103974 0.0027803886 0.015371049 0.017729567
0.010221014 0.002205502 -0.007025314 0.004944578 -0.0019688003 -0.0009568716 0.0021819433 0.011146166
0.00029555496 -0.007335601 -0.0066320435 -0.0012704419 -0.0067297476 -0.0025672913 -0.013586431 0.0043275966
0.012053392 -0.0013026319 -0.006224983 -0.010469373 0.000273791 -0.0073584737 -0.0019171804 0.010204308
0.0026525476 0.007357695 -0.00042025038 -0.011892522 0.0004136473 0.007330043 -0.00071898807 0.0029818234
0.0069238613 0.0036374321 -0.0016425318 0.0017991648 -0.004076516 0.0044438667 0.016606657 0.0045914943
-0.0016809258 0.0017227991 -0.0095210355 -0.0022590547 0.0073801945 -0.0053502787 0.009750675 0.0053385086
-0.004367543 0.0050446545 0.0031808629 -0.012349002 -0.009760408 -0.0044627306 -0.00040964212 -0.001120523
0.0005245239 0.009057702 0.0061885314 -0.00023744706 0.011042185 0.018085117 0.011825749 0.0148007525
0.0025905983 0.0016897708 -0.00635422 0.0036502853 0.005771721 -0.0007411897 0.010908284 0.011239187
0.012193278 0.0018261333 -0.00024956127 0.0060760537 0.003177147 -0.0074666888 0.0028738668 0.0008357118
0.0030962334 -0.0079506375 -0.0003327891 0.004703022 -0.0033881078 -0.0044466616 0.010741059 0.014765432
-0.0052899243 0.0033196318 0.01294705 0.0025672964 0.0034079663 0.0122195305 -0.018773232 -0.0070548314
0.0026212302 0.0073893596 -0.016557079 0.014531593 0.0008277981 -0.0015967384 0.0044449647 -0.0041439543
0.0039627245 -0.008949773 0.0017922064 0.0018605551 0.006142087 -0.00039152574 -0.00254957 0.0063256235
-0.01138425 0.0026515655 0.009055966 0.003159362 -0.005685279 0.005487939 -0.006002693 0.0045831124
0.0056549227 0.0025935634 0.0015301844 0.0057868054 0.010286361 0.014666208 0.0041061393 -0.008388416
-0.0054437188 -0.0061845602 0.0028492052 0.0064011975 0.01280296 0.00073717744 0.0016470536 -0.008667233
0.0018478507 -0.0054676165 0.0024010963 0.00607338 -0.0050312136 0.0007837714 0.0016458944 0.018306067
-0.0045431345 0.008733748 -0.0026356615 -0.009519052 -0.0021483584 -0.0044659297 0.0069397436 0.01002045
0.009888133 0.004576664 0.003811545 0.0004641913 0.0025940335 0.009262382 0.0065193055 -0.014959636
0.007820496 0.00081939914 -0.0073843235 0.0013617399 0.01085631 0.0014009861 0.0071226126 0.003197212
0.020807073 0.0038546019 -0.0057027442 0.0015364067 0.00079946406 0.0035855074 -0.007747605 -0.0048685265
-0.0019712185 -0.0063892887 -0.007624892 0.014050108 0.0042822803 0.0063014715 -0.0017024311 0.0060798065
-0.0041517653 0.0029032046 0.008076803 -0.000645084 -0.0031164465 0.0024676323 -0.007930932 0.0075229476
00000000: 9c4c 56bb 6014 43bb cb83 b3bb e615 793b
00000010: 1bf5 ca3b a438 063b 242f 973b 6d6f df3b
00000020: cde1 263c 4d30 343c ca14 db3a caa7 0cbc
00000030: aa4e 073c 28fd 583b 4ce9 f63b 3e23 193c
00000040: 76b9 f839 64fb bbbb 0d75 463c ed6e a63b
00000050: fc9d 3a3c 0147 163b db9b b8ba a673 303c
00000060: 068c 9ebb eaf0 b13b 8ba9 ac3c 3e14 b73a
00000070: 2293 143c 57a5 c7bb fc70 1e3a d905 d5ba
00000080: 8773 8e3c 49fc 0b3b 5a5b d5ba 59d8 c73b
00000090: e6b3 09ba 7d4f ea3a 18f8 663c 08a7 173c
000000a0: 5c9a 823b 88d4 453b 04b3 e3bb 3284 b2bc
000000b0: 0d51 9fbb 05fd 613c c638 4d3c 6c08 093c
000000c0: 240a eaba 240c 6138 a59d cd3a a72c 053c
000000d0: 53e2 7bbc b1cd a7ba 25c5 063b e6d9 73bb
000000e0: 85e8 173c 8d5b 34bc a371 8c3b a2fe 2f3c
000000f0: d4b1 153a 2e37 363b dad6 7b3c 993d 913c
00000100: 0a76 273c 2f8a 103b 9b34 e6bb 2006 a23b
00000110: fd06 01bb 91d6 7aba effe 0e3b 699e 363c
00000120: b7f4 9a39 7b5f f0bb 9d51 d9bb f584 a6ba
00000130: 3785 dcbb 0040 28bb 9f99 5ebc 83ce 8d3b
00000140: 977b 453c 13bd aaba f1fa cbbb bc87 2bbc
00000150: 9b8b 8f39 5a1f f1bb e649 fbba f82f 273c
00000160: 5dd6 2d3b d218 f13b 0d55 dcb9 dad8 42bc
00000170: cdde d839 db30 f03b 797a 3cba b26a 433b
00000180: 8fe1 e23b fc61 6e3b 394a d7ba f4d1 eb3a
00000190: 4b94 85bb db9d 913b af0a 883c 3f74 963b
000001a0: 8352 dcba 8ccf e13a 1efe 1bbc a60c 14bb
000001b0: 8fd5 f13b 6451 afbb 4cc1 1f3c a8ee ae3b
000001c0: 9b1d 8fbb a14d a53b 0676 503b 7853 4abc
000001d0: 1eea 1fbc 193c 92bb 3cc5 d6b9 83de 92ba
000001e0: 3480 093a c166 143c 2ac9 ca3b 36fb 78b9
000001f0: 48ea 343c 3d27 943c c9c0 413c db7e 723c
00000200: 07c7 293b 4d7b dd3a 1037 d0bb a039 6f3b
00000210: b420 bd3b 664c 42ba a9b8 323c 9124 383c
00000220: 51c6 473c de5a ef3a 8cd7 82b9 a219 c73b
00000230: ae37 503b 20ab f4bb 7c57 3c3b ab13 5b3a
00000240: 2dea 4a3b 6443 02bc 327a aeb9 cf1b 9a3b
00000250: 040b 5ebb 4db5 91bb 44fb 2f3c b6ea 713c
00000260: 1a57 adbb 2e8e 593b dd1f 543c 1640 283b
00000270: 3058 5f3b 6d34 483c 52ca 99bc 372c e7bb
00000280: f2c8 2b3b 7122 f23b b6a2 87bc eb15 6e3c
00000290: 9700 593a a649 d1ba 11a7 913b 02ca 87bb
000002a0: bed9 813b 12a2 12bc 78e8 ea3a dfdd f33a
000002b0: 8f43 c93b b245 cdb9 b016 27bb 2d47 cf3b
000002c0: 0185 3abc e3c5 2d3b 795f 143c 4c0d 4f3b
000002d0: 944b babb 2bd4 b33b 3db2 c4bb ef2d 963b
000002e0: ee4c b93b c6f8 293b 7890 c83a 3e9f bd3b
000002f0: 2088 283c 894a 703c cb8c 863b 916f 09bc
00000300: 3961 b2bb daa7 cabb bbb9 3a3b 23c1 d13b
00000310: 82c3 513c 243f 413a f3e1 d73a 0301 0ebc
00000320: 9533 f23a b129 b3bb b65b 1d3b 3403 c73b
00000330: e1dc a4bb 0276 4d3a 0dbb d73a 9bf6 953c
00000340: 93de 94bb ff17 0f3c 10bb 2cbb ccf5 1bbc
00000350: 79cb 0cbb ef56 92bb ca66 e33b d02c 243c
00000360: d601 223c d7f7 953b 1dcb 793b b45e f339
00000370: a900 2a3b 3fc1 173c e69f d53b 4319 75bc
00000380: 8a21 003c f2cc 563a 32f8 f1bb 697c b23a
00000390: aade 313c 4ba1 b73a ce64 e93b 5188 513b
000003a0: 9873 aa3c 7d9d 7c3b 16de babb 4161 c93a
000003b0: 2093 513a d5fa 6a3b 9fdf fdbb 2988 9fbb
000003c0: 8f2f 01bb 3d5d d1bb 3bda f9bb 6d32 663c
000003d0: 5f52 8c3b 937c ce3b 1c24 dfba 1d39 c73b
000003e0: 880b 88bb b143 3e3b 9154 043c db1a 29ba
000003f0: 4c3d 4cbb 00b8 213b bdf0 01bc 0f83 f63b

network_body._body_endoder.seq_layers.2.weight f4 [256, 256]
0.024897719 -0.031656634 -0.10168043 -0.0152413035 -0.019065179 -0.055075128 -0.018902523 0.12228769
0.0068900175 0.069140784 -0.041331712 0.009731664 0.18903543 0.008238755 -0.01776176 0.1710137
0.07944243 -0.05971604 0.05773945 0.00077256036 0.014517481 0.0335507 -0.04674608 -0.016075816
0.026118046 -0.08098858 0.00822636 0.058622576 0.10034623 0.04529503 -0.024481388 0.011345822
-0.0148680555 0.04227544 0.029531037 -0.019086834 0.111646324 0.093638174 0.029463729 0.03785152
-0.12554938 0.055650443 0.05192592 0.0039476193 0.014647796 0.05131473 -0.049462512 0.075107716
-0.0784078 -0.093920775 -0.08758331 0.0997613 0.06786409 0.03060182 -0.03788885 -0.08153875
0.048901245 0.0014591566 -0.003454636 -0.037692863 0.072006136 0.017976375 0.03320821 0.0068450887
-0.07570524 -0.071249686 0.051003866 -0.016576022 -0.11294649 -0.02967206 -0.031104626 0.0775599
0.14062004 0.0009974985 0.021274488 -0.04576753 0.04954473 -0.06894939 0.113378175 -0.04404714
-0.07157334 -0.06674443 0.022526171 0.028932374 0.0005203369 -0.05348173 -0.053786043 0.12061986
-0.0601012 -0.026603315 -0.13630769 0.052749526 -0.118249305 0.06723928 -0.0094797835 0.019797785
0.00045964634 0.08521578 -0.013037199 -0.040340815 -0.050336678 -0.058321778 -0.10615718 0.09459142
-0.028564673 0.0074845115 0.012383155 0.00973957 -0.0243985 -0.022551237 -0.056883197 0.023624938
0.039753877 0.05282301 0.006882767 -0.001209652 0.03992494 -0.058424745 -0.08581454 -0.06519046
-0.05363956 -0.0023437794 -0.06301524 -0.008111319 -0.04615267 0.010200907 -0.009376652 0.049567457
0.017942408 -0.07370945 -0.010114597 0.003448016 -0.011144577 0.06967228 -0.031934604 0.06662442
-0.060770333 0.01868296 -0.07671357 -0.058750838 0.03942659 0.05407368 -0.18468201 -0.02321821
-0.016630914 0.03288611 0.09542421 -0.006369609 -0.059115548 0.0028694149 0.009398256 -0.054664325
-0.04311756 0.0664112 0.009875488 0.024468731 0.08684427 -0.061146107 0.00321408 -0.081196845
0.022797186 -0.0067525846 -0.029489676 0.049094234 0.048020493 0.018372167 -0.069439664 0.11838889
-0.06116827 0.018461501 0.08054243 -0.005600617 0.040395074 -0.023917573 0.01117354 0.027005492
-0.03536563 0.13239391 -0.07562514 0.02037105 0.10272078 0.011769983 0.038899705 0.0066024857
-0.014861714 -0.09233216 0.013763929 -0.016656017 0.05726325 -0.20257853 -0.035057798 -0.11647124
0.02200456 0.09849806 0.02203843 -0.05041187 -0.008697714 0.065750554 0.07121017 0.014466054
-0.01234254 0.09477983 0.093055315 0.05809353 -0.07938551 0.034985013 -0.021169625 -0.05005148
0.02207049 -0.09634514 0.03523163 -0.027643636 0.03353413 0.04676956 0.03356662 0.024731664
0.03829358 0.15373737 -0.060166232 -0.036949843 3.42461e-05 -0.06376496 0.030048963 0.011106607
0.054411445 -0.07551 -0.008274459 0.012863659 -0.0767082 -0.033967834 0.0505405 0.06867546
-0.06735088 -0.0008175721 -0.07580341 0.06540927 -0.031747866 -0.012157158 -0.022241354 0.005980264
0.0065009515 0.08981415 0.047690496 0.07442202 0.09265744 -0.010817689 0.07147863 -0.036096655
0.018310312 -0.01838549 0.027775068 -0.07707505 0.0049121906 -0.0445559 -0.026624417 0.035036813
00000000: 4df6 cb3c 63aa 01bd d43d d0bd a9b6 79bc
00000010: 942e 9cbc 7596 61bd 77d9 9abc f871 fa3d
00000020: a8c5 e13b af99 8d3d 714b 29bd 8f71 1f3c
00000030: 8192 413e d8fb 063c 1c81 91bc 371e 2f3e
00000040: b6b2 a23d ce98 74bd 3480 6c3d a685 4a3a
00000050: bbda 6d3c 756c 093d d178 3fbd 6eb1 83bc
00000060: 83f5 d53c 57dd a5bd dbc7 063c 3a1e 703d
00000070: 5382 cd3d 4887 393d 318d c8bc d4e3 393c
00000080: 2599 73bc 0329 2d3d 13eb f13c fe5b 9cbc
00000090: d4a6 e43d 5fc5 bf3d eb5d f13c 320a 1b3d
000000a0: 0490 00be b8f1 633d 46b0 543d 085b 813b
000000b0: 4ffd 6f3c 652f 523d 3499 4abd 13d2 993d
000000c0: 4594 a0bd 8959 c0bd e15e b3bd a74f cc3d
000000d0: 54fc 8a3d abb0 fa3c 5731 1bbd cafd a6bd
000000e0: ac4c 483d 2c41 bf3a 2d67 62bb d563 1abd
000000f0: f477 933d 3143 933c 5505 083d c44c e03b
00000100: 590b 9bbd 5beb 91bd 6ee9 503d 70ca 87bc
00000110: 7d50 e7bd d212 f3bc 21cf febc bad7 9e3d
00000120: b3fe 0f3e 7fbe 823a d647 ae3c bc76 3bbd
00000130: 6aef 4a3d 5635 8dbd d132 e83d c66a 34bd
00000140: 0b95 92bd 4eb1 88bd ce88 b83c 9603 ed3c
00000150: 3867 083a a90f 5bbd c14e 5cbd 8c07 f73d
00000160: ad2c 76bd 32ef d9bc 3e94 0bbe e30f 583d
00000170: b12c f2bd bfb4 893d 1851 1bbc f72e a23c
00000180: b0fc f039 9c85 ae3d fa99 55bc 693c 25bd
00000190: d52d 4ebd d1e2 6ebd f068 d9bd 25b9 c13d
000001a0: 7600 eabc a240 f53b b7e2 4a3c b892 1f3c
000001b0: 5ddf c7bc 5fbd b8bc 5bfe 68bd 1689 c13c
000001c0: f6d4 223d f15c 583d d688 e13b 308d 9eba
000001d0: 5588 233d c94e 6fbd 89bf afbd 9382 85bd
000001e0: 28b5 5bbd 189a 19bb 220e 81bd 56e5 04bc
000001f0: 950a 3dbd b421 273c 87a0 19bc 3f07 4b3d
00000200: f5fb 923c fbf4 96bd b2b7 25bc 1cf8 613b
00000210: be97 36bc 57b0 8e3d dccd 02bd 6272 883d
00000220: 50ea 78bd 020d 993c 011c 9dbd b8a4 70bd
00000230: c77d 213d 5d7c 5d3d 481d 3dbe 1e34 bebc
00000240: 8e3d 88bc 96b3 063d c56d c33d 27b8 d0bb
00000250: 2523 72bd cb0c 3c3b 25fb 193c b3e7 5fbd
00000260: 0a9c 30bd 9802 883d cccc 213c a672 c83c
00000270: 69db b13d 5774 7abd 50a3 523b 884a a6bd
00000280: 2ac1 ba3c c944 ddbb 5594 f1bc 0917 493d
00000290: 23b1 443d 3a81 963c 6236 8ebd e075 f23d
000002a0: 948b 7abd 933c 973c 6ef3 a43d 6185 b7bb
000002b0: 4e75 253d c9ee c3bc 3911 373c 9f3a dd3c
000002c0: 8ddb 10bd 4592 073e 5ae1 9abd 30e1 a63c
000002d0: 465f d23d e3d6 403c 4c55 1f3d aa59 d83b
000002e0: 8c7e 73bc a518 bdbd 1a82 613c 3372 88bc
000002f0: df8c 6a3d bf70 4fbe c498 0fbd 7988 eebd
00000300: e842 b43c 5ab9 c93d f089 b43c ad7c 4ebd
00000310: db80 0ebc 3aa8 863d a3d6 913d 0703 6d3c
00000320: 5d38 4abc ed1b c23d c993 be3d 7bf3 6d3d
00000330: df94 a2bd 724c 0f3d ec6b adbc c802 4dbd
00000340: 2ccd b43c 9a50 c5bd 0b4f 103d e874 e2bc
00000350: 155b 093d 7091 3f3d 277d 093d 0f9a ca3c
00000360: bbd9 1c3d 546d 1d3e de70 76bd b858 17bd
00000370: 78a3 0f38 3497 82bd 3e29 f63c 7cf8 353c
00000380: 89de 5e3d fda4 9abd 9991 07bc 19c2 523c
00000390: 3019 9dbd db21 0bbd 8e03 4f3d b8a5 8c3d
000003a0: 42ef 89bd 5652 56ba d13e 9bbd 4cf5 853d
000003b0: 0d0a 02bd d12e 47bc 8033 b6bc 17f6 c33b
000003c0: ef05 d53b 7bf0 b73d 1c57 433d 926a 983d
000003d0: 2fc3 bd3d ad3c 31bc 6363 923d 16da 13bd
000003e0: 82ff 953c 2b9d 96bc 8a88 e33c 86d9 9dbd
000003f0: 71f6 a03b 3f80 36bd 731b dabc c382 0f3d

network_body._body_endoder.seq_layers.2.bias f4 [256]
-0.008303849 -0.009630726 -0.0014110383 -0.0014721313 -0.007669745 0.011232464 -0.0029571536 -0.0035179649
-0.0021703956 -0.0020164899 0.008967113 0.00033068287 -0.0010034544 0.009047717 -0.004284271 0.0039742924
0.0030947425 0.004367802 0.006302006 0.0066433973 0.0009658742 0.002911062 -0.007547395 -0.009907818
0.007212853 0.003875112 -0.0003272257 0.006166925 -0.004583001 0.007286072 0.0034529131 0.0007204668
-0.0050304583 0.004170011 0.006229055 0.0015122043 -0.0042849355 0.0035643976 -0.0028325887 0.0014955857
-0.0019011743 0.006869814 -0.0015364588 -0.001573426 -0.0030212947 -0.004747177 0.0030586303 0.0017974875
0.0013034062 0.0059752916 0.0041224086 0.0057213265 -0.002526448 0.013750789 0.0030882265 -0.011025283
0.012330289 -0.0029477852 0.0033208667 -0.0055913567 -0.0010481196 0.0043802354 0.009432476 0.004160419
0.005813878 0.0068737753 -0.0013693232 -0.0020093455 0.0027233749 0.010356328 0.0034121864 0.0006446694
0.007831371 0.005673216 0.001018492 0.00026829998 -0.0019742993 -0.0017610758 0.005891398 -0.008532618
0.0058845477 -0.0058885594 0.010056801 0.0053253546 -0.002419789 0.0014535137 0.0033205007 0.00045822206
0.003593382 0.006374983 0.009322043 0.009852786 0.0016605136 0.0042630946 0.008049586 -0.001651511
-0.0023131971 0.002875653 0.013745988 -0.012554674 0.002133066 0.0014135474 0.00029854203 0.01851824
-0.0005310959 0.0026503874 0.0071678837 -0.00016192361 0.0027339682 -0.003131777 -0.0036898952 -0.005346499
0.000496515 -0.0077027595 0.00020907873 0.0017334621 -0.00010106933 0.001221603 -0.0007023992 0.0054089525
0.006648705 0.0007828162 0.0064586173 -0.0020908117 0.001822991 -0.0043608136 0.0029483952 0.0020674765
0.010419571 0.0063894773 0.0022512148 -0.0007956578 -0.0010306396 0.003021461 0.0042146556 0.001265446
0.012797306 0.004261873 0.0024321722 0.0055744336 0.010665946 0.0066107726 -0.0018258621 0.008449557
0.013456736 -0.009668802 -0.002919414 0.00323539 0.00030286866 0.0023757357 -0.0069429465 0.0076560336
0.009660133 0.002523892 0.0038665356 0.0040282975 0.00847815 0.0033220272 0.00017070335 0.004845247
-0.0071590873 0.008354127 0.0018105322 0.0033661618 -0.004008717 -0.0004461206 0.0018582363 -0.0059028007
0.005921485 -0.0064253723 0.010506581 -0.0028462037 0.011775759 0.0014033219 -0.0025606696 0.00055396225
0.003651442 0.00066778256 -0.0030798689 -0.00044475985 0.012963387 0.0010447177 -0.0036609014 0.00443101
-0.0018252629 -0.0026836814 0.002100816 -0.0058320942 -0.0067638885 0.005707506 -0.0025524069 -0.0014570197
0.0012342317 -0.0045695957 -0.00037790998 -0.0028069091 -0.0047689285 -0.0019579343 -0.0046431925 0.0008362307
0.01466001 0.005912185 -0.0065887636 0.000922773 0.0023383202 8.351719e-05 0.0020988083 0.012835097
0.0013871017 -0.0050193705 0.003889678 0.0009758224 0.014143143 0.0053280713 -0.0013645788 -0.012506689
0.00044339095 0.0059226034 0.006507609 0.0020125494 -0.00023863232 -0.0026516966 -0.0061523276 0.0004591164
-0.009961542 0.0030320059 -0.0035662982 -0.001341377 -0.0054230704 0.003703684 0.00022703606 0.007164157
0.0050775697 0.0021578227 -0.0029210162 0.007672831 -0.0031676937 -0.005358884 -0.0032452806 0.0076642265
0.006371286 0.0017025333 0.01846622 0.0031134412 0.007410275 0.004673703 0.0016405771 0.007033247
-0.009794708 -0.001670094 0.0039778263 0.0012690573 -0.000955664 0.008783359 -0.0011338941 -0.0014056104
00000000: de0c 08bc 31ca 1dbc 97f2 b8ba 88f4 c0ba
00000010: 7c52 fbbb 5e08 383c cecc 41bb a88d 66bb
00000020: 323d 0ebb 1627 04bb ccea 123c 815f ad39
00000030: 5886 83ba e03c 143c 1263 8cbb c83a 823b
00000040: 2ad1 4a3b c71f 8f3b 0f81 ce3b dbb0 d93b
00000050: b832 7d3a 84c7 3e3b 2350 f7bb 6754 22bc
00000060: cc59 ec3b 97f5 7d3b 7d8f abb9 eb13 ca3b
00000070: 002d 96bb 00c0 ee3b 454a 623b b5dd 3c3a
00000080: 8bd6 a4bb 96a4 883b 1a1d cc3b 2835 c63a
00000090: a568 8cbb ab98 693b f4a2 39bb 8707 c43a
000000a0: d330 f9ba 2d1c e13b 0163 c9ba 6a3b ceba
000000b0: ea00 46bb 358e 9bbb 4d73 483b ac99 eb3a
000000c0: 0ed7 aa3a 61cc c33b 4515 873b f779 bb3b
000000d0: c492 25bb fd4a 613c d863 4a3b 63a3 34bc
000000e0: fb04 4a3c a12f 41bb e6a2 593b b337 b7bb
000000f0: 0f61 89ba 1488 8f3b ac8a 1a3c 2054 883b
00000100: 5882 be3b 683d e13b dd7a b3ba 39af 03bb
00000110: a67a 323b 97ad 293c fd9e 5f3b 08ff 283a
00000120: 274f 003c 63e6 b93b ec7e 853a 9daa 8c39
00000130: 3f63 01bb e6d3 e6ba a10c c13b 65cc 0bbc
00000140: 2ad3 c03b d1f4 c0bb 48c5 243c 5080 ae3b
00000150: 5395 1ebb d483 be3a c29c 593b 863d f039
00000160: f27e 6b3b 3ce5 d03b 7bbb 183c 946d 213c
00000170: 97a5 d93a 6eb1 8b3b 69e2 033c 8377 d8ba
00000180: 0299 17bb 7475 3c3b da36 613c 1fb2 4dbc
00000190: e9ca 0b3b c846 b93a a285 9c39 90b3 973c
000001a0: 3e39 0bba 1fb2 2d3b 91e0 ea3b 0aca 29b9
000001b0: 602c 333b 803e 4dbb 2bd2 71bb af31 afbb
000001c0: 8f28 023a 6e67 fcbb 253c 5b39 5635 e33a
000001d0: 2ff5 d3b8 321e a03a 3621 38ba 953d b13b
000001e0: 61dd d93b e835 4d3a cfa2 d33b 0006 09bb
000001f0: 6df1 ee3a 28e5 8ebb dd39 413b 807e 073b
00000200: d9b6 2a3c d25e d13b 1e89 133b b193 50ba
00000210: 8716 87ba b403 463b 181b 8a3b 52dd a53a
00000220: cbab 513c 2fa7 8b3b 1465 1f3b bda9 b63b
00000230: 38c0 2e3c 2e9f d83b c451 efba 0370 0a3c
00000240: a479 5c3c e569 1ebc a453 3fbb d608 543b
00000250: 58ca 9e39 3bb2 1b3b a881 e3bb 77df fa3b
00000260: 8945 1e3c e267 253b b465 7d3b cfff 833b
00000270: f0e7 0a3c 5eb6 593b d5fe 3239 e1c4 9e3b
00000280: c796 eabb c0df 083c 614f ed3a d39a 5c3b
00000290: 8e5b 83bb 4be5 e9b9 1090 f33a 486c c1bb
000002a0: 0409 c23b ee8b d2bb cb23 2c3c 6087 3abb
000002b0: 1def 403c abef b73a e8d0 27bb c737 113a
000002c0: 084d 6f3b 210e 2f3a a0d7 49bb a82e e9b9
000002d0: 6364 543c e9ee 883a bceb 6fbb 0232 913b
000002e0: a93d efba b4e0 2fbb d8ad 093b 271b bfbb
000002f0: 9ca3 ddbb 0806 bb3b 4846 27bb 78f9 beba
00000300: f2c5 a13a 8cbc 95bb 3822 c6b9 1ff4 37bb
00000310: ac44 9cbb b050 00bb ec25 98bb 7e36 5b3a
00000320: 8a30 703c 01bb c13b 8ee6 d7bb 3fe6 713a
00000330: 813e 193b f325 af38 298c 093b 4c4a 523c
00000340: 69cf b53a 8879 a4bb f8e9 7e3b 55ce 7f3a
00000350: a4b8 673c 1a97 ae3b abdb b2ba dbe8 4cbc
00000360: ed76 e839 6612 c23b c83d d53b fae4 033b
00000370: 6039 7ab9 16c8 2dbb 7799 c9bb 8fb5 f039
00000380: bc35 23bc 9eb4 463b 8eb8 69bb 25d1 afba
00000390: 03b4 b1bb 82b9 723b 8710 6e39 4ec1 ea3b
000003a0: be61 a63b 426a 0d3b 856e 3fbb 5f6c fb3b
000003b0: 1599 4fbb 9499 afbb c6ae 54bb 3124 fb3b
000003c0: 39c6 d03b 8a27 df3a 7846 973c e00a 4c3b
000003d0: e4d1 f23b dd25 993b a208 d73a 2777 e63b
000003e0: fc79 20bc 0ee7 daba 6d58 823b 7f56 a63a
000003f0: 8785 7aba 14e8 0f3c 2c9f 94ba 753c b8ba

action_model._continuous_distribution.log_sigma f4 [1, 6]
-0.016096555 0.02261911 0.06480961 0.02580438 -0.0015396909 0.069208115
00000000: ecdc 83bc b64b b93c e7ba 843d b563 d33c
00000010: 74cf c9ba fcbc 8d3d

action_model._continuous_distribution.mu.weight f4 [6, 64]
0.018470867 -0.038517717 -0.00045453987 -0.002674773 0.040502377 -0.016942615 -0.016631195 0.057653144
0.0042034504 -0.01625288 -0.015176522 0.009585476 -0.021486634 -0.012765362 0.06387713 0.011809834
-0.004220257 0.023224758 -0.031307094 0.07326757 -0.00962934 0.075422324 -0.07007368 0.0460069
0.053894248 -0.10125799 0.056840803 -0.078184225 0.010267523 -0.0749593 0.045156814 0.073714055
-0.028063023 -0.03332943 0.039103363 0.025087427 -0.013877346 -0.04014232 -0.05220451 -0.031055182
-0.06120739 0.009186361 0.03033742 -0.027220426 0.029037395 0.03301383 0.0025385239 -0.009314366
0.08513172 0.022520414 -0.012510835 0.08684833 0.025769837 -0.058318548 0.0011011711 0.02297906
-0.0044492697 0.019188982 0.011530312 0.012428902 -0.028393732 0.0002894414 0.063346505 -0.014545886
-0.05965577 -0.0098393075 0.017447155 -0.018699301 0.03037978 -0.0011810691 0.028824853 0.014876521
0.008150121 0.007361127 0.051997863 -0.031551823 -0.041119725 0.008597296 0.032378603 0.029309323
0.0022422366 0.037602324 -0.023228668 0.026406301 -0.018894866 -0.031775456 0.0359666 -0.032357153
-0.010724519 -0.041684814 0.0068453685 0.03547909 -0.0013693713 0.0023977358 -0.09071631 -0.013925516
-0.029671513 0.04473504 0.017229369 -0.020113256 0.010342091 -0.017366916 0.036628354 0.028588656
-0.016781809 0.05358015 -0.023804417 0.00954148 -0.041223347 0.026089476 -0.027599359 -0.0042730793
0.020241441 -0.0023773431 -0.028314324 -0.044282023 -0.0024452028 0.05707934 -0.012095069 -0.06454381
0.0149007 0.0331809 0.018172994 0.061698 -0.051624052 -0.015593242 -0.020773226 0.014525171
0.016931916 -0.013752929 0.02551584 -0.00011996816 0.027263474 -0.009246057 -0.024504106 -0.037536375
-0.06084465 -0.056965746 -0.038658082 0.049677785 -0.026264535 -0.019908676 -0.049860988 -0.03194972
0.011590886 -0.057868626 0.03483989 0.0044112694 -0.02279533 0.008719528 0.0068451427 -0.045298044
-0.009360558 0.015623988 -0.033398584 -0.006408318 0.0315357 0.0015430937 0.016620727 0.06907679
0.019085798 0.015047849 0.02301575 0.00056490075 -0.014258893 -0.02407254 0.009671545 0.020777866
-0.02401627 -0.00471189 0.07687968 -0.0098488275 0.013682777 0.035799604 -0.012676957 -0.0012310427
0.02436632 0.02769244 -0.011940995 0.062061325 -0.02748485 -0.0038973675 -0.04160569 0.033967156
-0.00053264573 -0.0010147351 0.026559114 0.008009168 -0.062166546 0.0016584555 0.03710121 -0.0035119995
0.02030053 -0.032998167 -0.000936123 0.0024266308 0.016626801 0.004832616 -0.0035718917 -0.03318573
-0.006667017 -0.0037668126 0.03107013 0.012063185 0.03202554 -0.010007379 -0.015611022 -0.064417765
-0.011803573 0.0034833737 0.03024017 0.023944573 -0.022486547 -0.008381225 0.034054518 -0.005602458
-0.0006570207 0.029558536 0.018124703 0.016156014 0.00974889 -0.03659093 0.037414245 0.034346372
0.0031205793 0.0405549 0.04075895 -0.03794623 -0.022417538 -0.022030326 0.003900402 -0.0102385655
-0.0015551862 0.048035603 0.0034299346 -0.04049193 -0.028611638 0.047036096 0.003697476 -0.04089064
0.008919415 -0.04055573 -0.00065725227 -0.06137461 0.00857507 -0.0680462 0.00719258 0.020304857
0.0025578425 -0.026596524 -0.038922165 -0.025040189 0.014329108 -0.049798764 0.041908246 0.0011078699
00000000: 3750 973c c1c4 1dbd 4f4f eeb9 3f4b 2fbb
00000010: d2e5 253d 3dcb 8abc 253e 88bc b425 6c3d
00000020: 19bd 893b c324 85bc f2a6 78bc 660c 1d3c
00000030: bd04 b0bc cf25 51bc 03d2 823d 097e 413c
00000040: 154a 8abb d941 be3c de3b 00bd 4f0d 963d
00000050: 61c4 1dbc 0577 9a3d ca82 8fbd bb71 3c3d
00000060: 37c0 5c3d 5960 cfbd e7d1 683d 0d1f a0bd
00000070: 1d39 283c 4384 99bd 5af6 383d 65f7 963d
00000080: 6de4 e5bc 7184 08bd d92a 203d 2684 cd3c
00000090: cf5d 63bc 466c 24bd 65d4 55bd 7067 febc
000000a0: 9ab4 7abd 6482 163c 2e86 f83c 5ffd debc
000000b0: d5df ed3c 8339 073d 5d5d 263b 489b 18bc
000000c0: 8a59 ae3d bb7c b83c 3ffa 4cbc 8add b13d
000000d0: 441b d33c 6edf 6ebd 2c55 903a 953e bc3c
000000e0: 2ecb 91bb 3632 9d3c a2e9 3c3c 98a2 4b3c
000000f0: f999 e8bc 2bc0 9739 d0bb 813d de51 6ebc
00000100: 9c59 74bd 0c35 21bc 56ed 8e3c 472f 99bc
00000110: 04df f83c 1ace 9aba 1922 ec3c a7bc 733c
00000120: 1688 053c 9c35 f13b b6fb 543d 7c3c 01bd
00000130: 286d 28bd acdb 0c3c 6d9f 043d 1b1a f03c
00000140: 7df2 123b e504 1a3d 0c4a bebc 0752 d83c
00000150: 68c9 9abc fb26 02bd b751 133d ef88 04bd
00000160: e5b5 2fbc b2bd 2abd 1d4f e03b 8652 113d
00000170: 7a7c b3ba 5523 1d3b 79c9 b9bd d927 64bc
00000180: ac11 f3bc 173c 373d 9b24 8d3c 8ec4 a4bc
00000190: e071 293c 1045 8ebc 9d07 163d c232 ea3c
000001a0: 017a 89bc dc76 5b3d 7b01 c3bc de53 1c3c
000001b0: d0d9 28bd 99b9 d53c 0d18 e2bc 3005 8cbb
000001c0: 61d1 a53c 33cd 1bbb 71f3 e7bc 1161 35bd
000001d0: b23f 20bb 07cc 693d 652a 46bc 8c2f 84bd
000001e0: 1122 743c b2e8 073d 88df 943c 0bb7 7c3d
000001f0: be73 53bd cc7a 7fbc 9d2c aabc fcfa 6d3c
00000200: cdb4 8a3c f753 61bc 9806 d13c 6a97 fbb8
00000210: a657 df3c c67c 17bc d6bc c8bc bebf 19bd
00000220: 3d38 79bd ea54 69bd f057 1ebd ef7a 4b3d
00000230: b928 d7bc 8517 a3bc 093b 4cbd b6dd 02bd
00000240: b3e7 3d3c a707 6dbd 46b4 0e3d 698c 903b
00000250: 46bd babc 5adc 0e3c 384d e03b 718a 39bd
00000260: 075d 19bc c1fb 7f3c f4cc 08bd defc d1bb
00000270: 942b 013d a241 ca3a 3128 883c 2278 8d3d
00000280: d259 9c3c 418b 763c 878b bc3c d915 143a
00000290: 229e 69bc c733 c5bc 6675 1e3c 5836 aa3c
000002a0: c5bd c4bc 3366 9abb 1873 9d3d fa5c 21bc
000002b0: ba2d 603c 9ba2 123d 03b3 4fbc f05a a1ba
000002c0: e09b c73c 42db e23c 2aa4 43bc 0434 7e3d
000002d0: e827 e1bc fa6a 7fbb ba6a 2abd 2521 0b3d
000002e0: 40a1 0bba dc00 85ba 8092 d93c e338 033c
000002f0: 59a2 7ebd 8860 d93a 70f7 173d 9329 66bb
00000300: 4c4d a63c 1629 07bd 2766 75ba 1c08 1f3b
00000310: ee34 883c ec5a 9e3b 6616 6abb c3ed 07bd
00000320: fe76 dabb a1dc 76bb c986 fe3c aaa4 453c
00000330: 362d 033d fdf5 23bc 5fc5 7fbc 76ed 83bd
00000340: c663 41bc 5049 643b 3cba f73c 6927 c43c
00000350: b535 b8bc 6851 09bc c07c 0b3d d394 b7bb
00000360: ea3b 2cba be24 f23c 427a 943c 9e59 843c
00000370: cfb9 1f3c 5fe0 15bd ae3f 193d c8ae 0c3d
00000380: a282 4c3b e51c 263d dbf2 263d 826d 1bbd
00000390: fca4 b7bc f178 b4bc e39d 7f3b a8bf 27bc
000003a0: 64d7 cbba fbc0 443d c1c8 603b deda 25bd
000003b0: f462 eabc eca8 403d 5a51 723b f27c 27bd
000003c0: bd22 123c c41d 26bd 744b 2cba f163 7bbd
000003d0: 737e 0c3c ce5b 8bbd bcaf eb3b 5f56 a63c
000003e0: 7aa1 273b f4e0 d9bc d96c 1fbd 1521 cdbc
000003f0: a3c4 6a3c caf9 4bbd fba7 2b3d f235 913a

action_model._continuous_distribution.mu.bias f4 [6]
-0.009044862 -0.009215735 0.00858433 0.009110036 -0.012357501 -0.002910164
00000000: e730 14bc 98fd 16bc 4aa5 0c3c 4342 153c
00000010: 1e77 4abc 73b8 3ebb

onnx::LSTM_101 f4 [1, 256, 256]
-0.007132249 0.024676235 -0.059972167 0.0074037057 -0.1147051 0.046479143 -0.09670931 -0.016274055
0.059492037 -0.0013439525 0.12865128 -0.11377561 -0.050856385 -0.06788794 0.027118262 -0.10099254
-0.023899198 0.04499922 0.012953175 0.027751936 0.03509464 0.11849357 -0.07145213 0.07385268
-0.0037129826 0.15147781 0.11255813 -0.09155014 -0.13834009 0.11086061 0.11470137 -0.03465938
-0.09695538 0.09939559 -0.09073884 0.053395156 0.033724286 -0.05081367 -0.10527009 0.09647559
-0.0397768 -0.08174416 -0.10604259 0.035090253 -0.040376708 0.06853547 -0.037420902 0.09353172
-0.07985907 -0.07373498 0.021260388 0.045393478 0.11764777 0.057747886 -0.13042976 0.013436999
0.014802648 0.004268867 0.047714774 -0.13584694 -0.09656844 0.04879184 -0.025215885 -0.05099637
-0.11626115 -0.061630115 -0.092104405 0.054719348 -0.099333785 0.0013469597 -0.06449157 -0.06810604
-0.06816201 0.080947354 -0.00586211 -0.0751064 -0.002500843 0.100086056 -0.1271371 -0.11114496
-0.016942745 -0.12248774 0.15269256 0.09896195 0.06414809 -0.078446686 -0.033632707 -0.023908071
-0.07880945 -0.13597195 0.046403624 0.054798014 0.067884944 -0.05230992 0.08131719 -0.013113362
-0.08287306 -0.121330716 0.06723819 -0.041361354 0.0021015552 -0.033983544 -0.028436525 0.047589067
0.13729075 0.026402455 0.10531269 -0.08752315 -0.063230015 0.022287244 -0.1131345 -0.081247956
0.07367109 -0.13458009 0.04537641 0.10498675 0.112326086 0.017765772 0.025562499 -0.08552002
0.019527312 -0.0053434647 0.0056246486 -0.1068598 0.05991127 0.010297686 0.10258722 -0.0671684
0.043586094 -0.012618059 0.05649278 0.1509849 0.03539481 -0.025585629 -0.099353306 -0.13463332
0.0693677 0.026864791 -0.008536724 0.14431213 -0.06657788 -0.1145959 -0.10102713 -0.10110542
0.037105557 -0.12536438 0.02899875 0.0004724565 -0.012165374 -0.013002322 -0.090980865 0.14451946
-0.07078172 -0.09474762 0.03332765 -0.09359093 -0.112703614 0.0513583 -0.05230661 -0.048723437
-0.023536049 -0.028839001 0.11334836 0.05215627 -0.03034246 0.037182808 0.1261466 -0.024596274
0.053907182 0.04945562 0.09301333 0.031172214 0.047910847 0.07418113 0.09238345 0.037322406
0.046028852 0.12841485 -0.14430001 -0.021529362 -0.07256459 0.116802275 0.05216473 0.06967999
0.06765902 -0.09363344 -0.036682844 -0.1356196 -0.093300655 -0.123099536 0.015492608 -0.011743095
-0.13519123 0.033833448 0.02577626 0.017255364 0.02894164 0.11536993 0.034247145 -0.0013957387
-0.109327376 -0.048649535 0.05142256 -0.123551406 0.007481796 0.06751625 0.08162704 -0.08623574
0.0023237248 -0.0011205703 0.030492878 -0.067733265 -0.029895147 0.059823014 -0.09304246 -0.07679455
-0.08827629 -0.0797135 0.015733251 0.03863263 0.12385055 -0.13070957 -0.12540883 -0.04434295
0.086708516 -0.10822063 -0.12775378 0.08547314 0.13136041 0.010811355 0.020976115 0.08827046
-0.025967738 -0.052157294 -0.07916466 0.034566544 0.03791901 0.12369778 -0.15021197 -0.15868664
-0.006668742 -0.07497962 0.060413916 0.12879032 -0.031488303 -0.14392841 -0.051145233 -0.053008717
0.053426687 0.042370297 -0.01469402 -0.11544338 0.0025300959 -0.014053193 0.11408412 0.06669533
00000000: a4b5 e9bb d125 ca3c 60a5 75bd c99a f23b
00000010: 82ea eabd ea60 3e3d 880f c6bd 2b51 85bc
00000020: ecad 733d 9027 b0ba 29bd 033e 3003 e9bd
00000030: c94e 50bd d508 8bbd 1e27 de3c 2dd5 cebd
00000040: 40c8 c3bc 1a51 383d 8e39 543c 0758 e33c
00000050: 66bf 0f3d c2ac f23d 7f55 92bd 1340 973d
00000060: 8355 73bb 001d 1b3e e084 e63d a47e bbbd
00000070: 06a9 0dbe e30a e33d 8de8 ea3d fef6 0dbd
00000080: 8b90 c6bd ea8f cb3d 49d5 b9bd e1b4 5a3d
00000090: 7a22 0a3d ff21 50bd d897 d7bd fe94 c53d
000000a0: ffec 22bd 7b69 a7bd dc2c d9bd ccba 0f3d
000000b0: 0c62 25bd 535c 8c3d a946 19bd 8f8d bf3d
000000c0: 278d a3bd 5d02 97bd 442a ae3c 83ee 393d
000000d0: 50f1 f03d 0c89 6c3d 618f 05be dc26 5c3c
000000e0: ce86 723c dae1 8b3b 9170 433d 761b 0bbe
000000f0: adc5 c5bd f4d9 473d 8b91 cebc 92e1 50bd
00000100: 531a eebd dc6f 7cbd 3ca1 bcbd 6521 603d
00000110: 836f cbbd 788c b03a 2814 84bd 2e7b 8bbd
00000120: 8698 8bbd bac7 a53d f116 c0bb 62d1 99bd
00000130: 2fe5 23bb ebf9 cc3d 3a30 02be f89f e3bd
00000140: 83cb 8abc dada fabd 705b 1c3e 90ac ca3d
00000150: 1360 833d a8a8 a0bd 73c2 09bd dcda c3bc
00000160: d966 a1bd 3b3c 0bbe ba11 3e3d e273 603d
00000170: 4307 8b3d ed42 56bd a089 a63d 6dd9 56bc
00000180: 5ab9 a9bd 3d7c f8bd 2db4 893d 866a 29bd
00000190: 3fba 093b 5432 0bbd b7f3 e8bc c1ec 423d
000001a0: f295 0c3e f649 d83c 2eae d73d 563f b3bd
000001b0: bd7e 81bd bd93 b63c 10b3 e7bd 5465 a6bd
000001c0: dee0 963d 5dcf 09be 9ddc 393d 4b03 d73d
000001d0: 380b e63d 8689 913c 7268 d13c 1f25 afbd
000001e0: bef7 9f3c 3b18 afbb f94e b83b 50d9 dabd
000001f0: 8565 753d a0b7 283c 4019 d23d 968f 89bd
00000200: 5587 323d fabb 4ebc f964 673d c99b 1a3e
00000210: 26fa 103d f498 d1bc bf79 cbbd 51dd 09be
00000220: a710 8e3d 8d13 dc3c 9edd 0bbc 8fc6 133e
00000230: fc59 88bd 41b1 eabd 50e7 cebd 5c10 cfbd
00000240: fffb 173d 855f 00be c98e ed3c 0ab4 f739
00000250: 4751 47bc b107 55bc 2d54 babd e9fc 133e
00000260: 02f6 90bd 0a0b c2bd 9382 083d 9aac bfbd
00000270: 27d1 e6bd 155d 523d 753f 56bd 3a92 47bd
00000280: acce c0bc c53f ecbc 2f23 e83d d0a1 553d
00000290: c090 f8bc 004d 183d 932c 013e 207e c9bc
000002a0: c7cd 5c3d fa91 4a3d c67d be3d df5c ff3c
000002b0: 2a3e 443d 47ec 973d 8933 bd3d 61df 183d
000002c0: c088 3c3d 2f7f 033e 62c3 13be 585e b0bc
000002d0: be9c 94bd 0836 ef3d afaa 553d 62b4 8e3d
000002e0: d090 8a3d e4c2 bfbd c040 16bd dddf 0abe
000002f0: 6a14 bfbd 9c1b fcbd b5d4 7d3c 1c66 40bc
00000300: 926f 0abe f194 0a3d bc28 d33c 1f5b 8d3c
00000310: 0517 ed3c 1247 ec3d bc46 0c3d 38f1 b6ba
00000320: 08e7 dfbd bc44 47bd 76a0 523d 8508 fdbd
00000330: db29 f53b f645 8a3d 142c a73d 5d9c b0bd
00000340: a249 183b 1ae0 92ba 33cc f93c bdb7 8abd
00000350: abe6 f4bc fa08 753d 0c8d bebd 7646 9dbd
00000360: 33ca b4bd d540 a3bd 05e3 803c 403d 1e3d
00000370: 5ba5 fd3d bbd8 05be 2c6b 00be f4a0 35bd
00000380: 3c94 b13d c7a2 ddbd e3d1 02be 8b0c af3d
00000390: 5883 063e 1c22 313c 1ad6 ab3c 25c7 b43d
000003a0: 4bba d4bc e3a2 55bd 1521 a2bd a695 0d3d
000003b0: f750 1b3d 4355 fd3d 2bd1 19be c07e 22be
000003c0: 7685 dabb ea8e 99bd 9574 773d 9ce1 033e
000003d0: e1f9 00bd f861 13be aa7d 51bd ab1f 59bd
000003e0: f1d5 5a3d 7a8c 2d3d 30bf 70bc 946d ecbd
000003f0: f7cf 253b 5d3f 66bc efa4 e93d 9097 883d

onnx::LSTM_102 f4 [1, 256, 64]
-0.03710566 0.13891493 0.2074634 -0.10764362 0.12887667 0.051567618 0.017867973 0.115570486
0.14131723 0.056481905 -0.16200235 0.21639346 0.022195453 0.19460092 -0.05212581 0.021703187
0.087846145 0.046911024 -0.08886922 0.099047944 -0.039121877 -0.1475094 0.06234991 -0.11598126
-0.09254 0.21019669 -0.20245567 0.118080124 -0.09932177 0.22647186 0.042075858 0.19234827
-0.031898044 0.18118198 -0.14975844 -0.14999089 0.012281641 0.033191394 0.016502408 -0.029944967
-0.13940088 0.038892556 0.052002832 -0.16233914 0.02160547 0.19647078 -0.012249017 0.17894801
-0.09213679 -0.07086132 -0.13663043 -0.12603663 -0.12768082 0.19457175 0.12930876 -0.18993708
0.06128642 0.060509156 0.14055501 0.08520102 -0.18908682 0.008618552 0.16402858 0.014225511
-0.06657075 0.10863437 -0.011251191 0.18026404 0.19260499 0.113018505 -0.20064089 0.05568899
0.19410299 -0.13234694 0.11275259 -0.05495174 -0.17967625 0.06864546 0.060193982 -0.0020392162
-0.21579063 0.16162486 0.17498176 0.054755017 0.04832315 0.17487581 0.17367251 -0.10455811
0.04164383 -0.023798622 -0.05040936 0.06001942 -0.10967351 -0.20037141 0.038817607 -0.16700645
0.18836494 0.06448755 -0.15101656 0.02875755 -0.15632151 -0.02881551 -0.059298057 0.029898487
0.13034517 -0.07996442 0.058452215 -0.13778464 -0.021953901 0.15911476 -0.07686937 0.15826963
-0.02859374 0.08071953 -0.17748979 0.19958508 0.08705513 0.13097154 -0.09145747 0.18774989
0.11579164 -0.0647769 0.09000715 0.09601192 -0.206515 -0.112227276 0.046808098 0.035763428
0.015530647 -0.09836262 -0.015674388 -0.05606553 0.03603201 0.08372827 0.17338632 0.039514143
-0.1777657 -0.12218243 0.17123358 0.13926348 -0.08364932 -0.024861004 -0.01790099 -0.12128807
0.08978806 0.15704158 -0.041009605 0.027184822 -0.16186713 0.15485102 -0.13204558 -0.002491564
-0.097070396 -0.19207142 -0.03433322 0.021716595 -0.17006952 0.0715852 0.02179475 -0.09089382
0.2067489 0.10751748 -0.09983558 -0.023375794 0.08288827 -0.07537298 0.18840253 0.120126985
0.1673018 -0.13971834 -0.16721433 0.033001423 -0.032348994 -0.036585014 0.11782197 -0.19163957
0.05261649 -0.15884717 -0.11079713 0.08430411 -0.1405261 -0.13101788 -0.043296058 -0.03291413
-0.067417085 -0.20152228 -0.11610669 0.02696284 0.064249925 -0.20099683 0.19187824 -0.18970105
-0.017103994 -0.123597056 -0.16929166 0.1993786 -0.1637444 -0.009580797 -0.20041865 -0.080354705
-0.09322285 0.18939042 -0.029277634 -0.1269947 0.13049974 -0.047143795 0.073038846 -0.15651706
-0.1511905 0.12211008 0.026301062 -0.022686394 -0.061068628 -0.16810045 0.07217001 0.051241793
-0.19271289 0.20413734 -0.118025124 -0.14743796 -0.14093204 -0.07572398 0.16133808 -0.072373055
0.0028644921 -0.0074505294 0.05760706 -0.13303913 0.21032695 -0.14787602 -0.110902674 -0.04864783
0.1997009 0.10531066 -0.09421108 0.10847536 -0.14009233 0.03347875 -0.04297613 0.19275427
0.02568239 0.1630192 0.17538244 0.0360447 0.19498672 0.07609669 0.09884421 0.18074673
-0.0017353008 0.14489202 0.0049526775 -0.20200376 -0.19925568 -0.029066 0.16996667 -0.0016019266
00000000: 1bfc 17bd b73f 0e3e 4971 543e 4274 dcbd
00000010: 3ff8 033e 9138 533d db5f 923c 38b0 ec3d
00000020: 77b5 103e 9259 673d f2e3 25be 3f96 5d3e
00000030: 3dd3 b53c 7745 473e e081 55bd e2ca b13c
00000040: aee8 b33d c625 403d 1101 b6bd a6d9 ca3d
00000050: 433e 20bd b40c 17be 9f62 7f3d 9587 edbd
00000060: 9d85 bdbd cd3d 573e 8a50 4fbe fed3 f13d
00000070: 3669 cbbd 3de8 673e bc57 2c3d f2f6 443e
00000080: 86a7 02bd c587 393e 475a 19be 3697 19be
00000090: f038 493c b3f3 073d 0f30 873c 264f f5bc
000000a0: 1bbf 0ebe cd4d 1f3d ec00 553d 3b3c 26be
000000b0: f4fd b03c a32f 493e 1ab0 48bc 263e 373e
000000c0: 37b2 bcbd bd1f 91bd d9e8 0bbe bf0f 01be
000000d0: c3be 02be d13d 473e 8469 043e de7e 42be
000000e0: 7807 7b3d 73d8 773d a7ed 0f3e df7d ae3d
000000f0: fa9f 41be d434 0d3c 1cf7 273e 1e12 693c
00000100: 3f56 88bd b27b de3d ea56 38bc 2397 383e
00000110: 3e3a 453e 3f76 e73d ce74 4dbe 231a 643d
00000120: efc2 463e f585 07be d4ea e63d 1315 61bd
00000130: 0dfd 37be fe95 8c3d f78d 763d 5fa4 05bb
00000140: 38f8 5cbe fd80 253e 6b2e 333e cc46 603d
00000150: 7fee 453d a512 333e 35d7 313e 9022 d6bd
00000160: b892 2a3d 54f5 c2bc 0c7a 4ebd ecd6 753d
00000170: 819c e0bd 2a2e 4dbe 36ff 1e3d bd03 2bbe
00000180: bde2 403e 0c12 843d 16a4 1abe f494 eb3c
00000190: bf12 20be 810e ecbc 85e2 72bd aced f43c
000001a0: 3479 053e 63c4 a3bd 976b 6f3d 6b17 0dbe
000001b0: abd8 b3bc fbee 223e b06d 9dbd 6f11 223e
000001c0: 6b3d eabc 4850 a53d e2bf 35be 0860 4c3e
000001d0: f649 b23d 671d 063e 0e4e bbbd 8241 403e
000001e0: 2b24 ed3d c0a9 84bd ab55 b83d e6a1 c43d
000001f0: ab78 53be 6ad7 e5bd d9b9 3f3d ac7c 123d
00000200: 4174 7e3c 5772 c9bd 9367 80bc f8a4 65bd
00000210: 4d96 133d ba79 ab3d 2f8c 313e 95d9 213d
00000220: 3608 36be c83a fabd db57 2f3e 169b 0e3e
00000230: 5650 abbd 4ea9 cbbc 19a5 92bc e165 f8bd
00000240: cde2 b73d 82cf 203e b0f9 27bd b4b2 de3c
00000250: 7fc0 25be 4491 1e3e f536 07be 8249 23bb
00000260: d8cc c6bd 5fae 44be fea0 0cbd 00e7 b13c
00000270: b426 2ebe 439b 923d e78a b23c 8a26 babd
00000280: fcb5 533e 2032 dc3d 9976 ccbd 987e bfbc
00000290: 53c1 a93d 265d 9abd 98ec 403e 2305 f63d
000002a0: 2a51 2b3e 5312 0fbe 3c3a 2bbe 802c 073d
000002b0: 6180 04bd 2bda 15bd a54c f13d 2a3d 44be
000002c0: 6384 573d d5a8 22be 9be9 e2bd a2a7 ac3d
000002d0: 13e6 0fbe 8d29 06be 3557 31bd f7d0 06bd
000002e0: f811 8abd db5b 4ebe 58c9 edbd 2de1 dc3c
000002f0: 7795 833d 1dd2 4dbe bb7b 443e fe40 42be
00000300: ad1d 8cbc 7420 fdbd cb5a 2dbe e729 4c3e
00000310: 9dac 27be c6f8 1cbc 8c3a 4dbe 0291 a4bd
00000320: 9feb bebd 90ef 413e a6d7 efbc e60a 02be
00000330: b9a1 053e da19 41bd 6495 953d 0246 20be
00000340: afd1 1abe da14 fa3d 5375 d73c d1d8 b9bc
00000350: 1923 7abd 8622 2cbe dfcd 933d eae2 513d
00000360: 8756 45be 6109 513e 28b7 f1bd faf9 16be
00000370: 7d50 10be 2d15 9bbd cf35 253e 5338 94bd
00000380: 34ba 3b3b 9223 f4bb 61f5 6b3d 693b 08be
00000390: f35f 573e d06c 17be f120 e3bd f242 47bd
000003a0: 657e 4c3e 1ead d73d bdf1 c0bd 5428 de3d
000003b0: 5d74 0fbe 0421 093d bd07 30bd 6061 453e
000003c0: e063 d23c 81ee 263e 7497 333e 9ba3 133d
000003d0: 99aa 473e 95d8 9b3d d56e ca3d ac15 393e
000003e0: 0873 e3ba 935e 143e 124a a23b 13da 4ebe
000003f0: ae09 4cbe d21b eebc be0b 2e3e bdf7 d1ba
