code/selfparking/mla/results/run_08/Car/Car-3499903.onnx (onnx, 712368 bytes, 10 tensors)

network_body._body_endoder.seq_layers.0.weight f4 [256, 111]
00000000: 32e6 e63a 81c1 103e f510 32bd 4101 b5bd
00000010: b821 8ebd 2b12 afbc 5fdb 193d d48a 253d
00000020: f6f3 3d3e 27d6 11be 6fa5 a5bd 31d9 ee3c
00000030: f334 cb3d 91c9 723b c3ab 36bd 0aec 46bd
00000040: 0b39 213d 2c8e 6bbc bcb6 62be ebae c8bc
00000050: cea5 d8bd 1703 aebd 8c44 abbb fb88 343e
00000060: b39f 153c d394 63bd fb44 893c dcda 133d
00000070: e9cf edbb b4c4 12be a474 863e f69e a83c
00000080: 8f84 56bd bac3 13bd bee5 da3c 6411 24bb
00000090: 3eee 0b3e d57f 4a3d e02a 703d ba23 693c
000000a0: b71f 5a3e fb2c 453d 9f02 933d 319c b33c
000000b0: 3ab9 1ebc 671c 5abd 6b65 f9bd eb3b df3d
000000c0: d516 eabd da03 2e3d 0421 553c 4277 c8bd
000000d0: cc9f 753d 099d 8abe c543 833d 81b4 21bc
000000e0: a78e 1b3e 963e 503c a314 afb9 2b2b 4cbd
000000f0: 21de ebbd 5370 f0bd d458 b3bd 9bfe 8b3d
00000100: cce8 3d3e 3515 54be 12cd e13d 32a0 e2bc
00000110: 9efe bd3d 54c3 103e 5279 103d b758 97bc
00000120: 4731 86bd e007 dabd 7198 f2bd 53f0 d13d
00000130: e7fb fabd 8337 c13d 84c3 743d 22c3 b1bd
00000140: ff53 a2ba 22c4 7ebd 5786 28be 203d 283e
00000150: 21c6 7d3d d74a 9e3d f3f3 a53d 265b 743d
00000160: 0fc7 3e3e ee99 973d 3468 c73b ccfc 82bd
00000170: 0a25 edbd c2e9 623c 5e42 723c b01e 58be
00000180: c9ac a2bd ad80 793c d8ff 183c 332a 733e
00000190: 2d5e 7e3e 8448 38be 446c b5bd fd55 323e
000001a0: cb08 5cbe 545d b8bd 2344 cfbd 3e53 0bbe
000001b0: 4de0 40bb 2857 133d 4cbb ab3e 0e2f 923d
000001c0: 33aa 02be d737 53be 9027 d13b b60d 6c3d
000001d0: 3042 a63c d669 c53b 63d8 193d c07d de3d
000001e0: ec4a 7bbc 8ea0 d2bd 69db 0b3d d7e0 083d
000001f0: 8e01 91bd 01cd 14be aefd abbd 20af 35be
00000200: 2c06 33bc aad8 333e 334e aebd 1f6b a63b
00000210: 3ea4 223d 6fe4 9abd 06ec f9bc 91cd 14be
00000220: d239 b23b 4c0d 5c3c 0707 3bbe 15ca 1bbe
00000230: aefd 05be a9e0 a83e 52c2 be3d 22eb a0bd
00000240: 204f f8bd 65bf aa3c 938a 163d 9fbd ac3d
00000250: 0bfa 04be b596 d73c f101 eebc 3ee7 bbbd
00000260: d736 e53d c128 803c 08e7 643b e969 293c
00000270: 7a6a 6cbc 3015 bdbd e133 63bd 56a9 71be
00000280: 2028 cf3b 4a7f f93c 8b21 ef3d 82c8 45bc
00000290: 7778 df3d a6e1 543b 0f25 2fbe c652 193d
000002a0: 4790 ab3d 3e65 ba3c 0306 d53d 523e d13c
000002b0: f405 00be a155 70bc 3251 61bd f5bc 513d
000002c0: abe9 febd a938 ec3d b847 fabc 989d 08be
000002d0: fb12 abbd 61c2 1ebc 568d a43d 945f 3a3d
000002e0: f1f1 963d c981 373d 2c0a 343d 2b4f 3e3e
000002f0: 11fc 90bc c00c 74bd 7942 c43c 3174 2a3d
00000300: 5c40 8ebd f827 21bd 0bbe 8e3c d884 523c
00000310: b62a 2b3d b460 ebbd ed18 433c 7f8b ce3d
00000320: b4c9 28bd 9c76 80bd 3948 543d 7e66 0a3d
00000330: fd24 e9bd 090d a43c f63d 0ebb faee b23d
00000340: ee00 533d 77e0 59be 3bd7 c4bd 1ebb 483e
00000350: 9f2e 943d 4664 383e 79aa 2f3e 5ae5 30bd
00000360: d739 ce3d 3389 5fbe d537 d63d a410 023c
00000370: 4ed2 073d 0a41 993e 1810 3abd 0b56 1d3e
00000380: d994 ce3b 03d3 84bd 3ba1 66bd 9d14 723c
00000390: 3cbe 6e3e cb46 e43d 10a1 a43d a889 aabb
000003a0: 5f4b 653d dc85 473d 19f6 773e a01f 5f3d
000003b0: 10ce 1f3d d551 5a3e 98ae 0bbe 600d 593d
000003c0: c444 86bd 1d92 88bd 16dc 30be 7c39 0dbe
000003d0: b1f9 043e 6510 e13d 9ab0 1bbe edc9 b93d
000003e0: d620 f03c 1292 023c 0333 f73d 404b 9a3d
000003f0: 7006 443d b3de a2bd 71ed 1dbd cbca 0abc
0.0017616211 0.14136316 -0.043473203 -0.0883813 -0.06940025 -0.021370968 0.037562724 0.0404156
0.18550095 -0.14241849 -0.080881946 0.0291563 0.09922209 0.0037046412 -0.0445974 -0.04856495
0.03936104 -0.014377158 -0.2214002 -0.02449747 -0.105785 -0.08496683 -0.0052266773 0.17630379
0.009132314 -0.05556185 0.016756525 0.036097392 -0.007257451 -0.14332849 0.26260865 0.020583611
-0.05237251 -0.03607533 0.026720878 -0.002503478 0.13665101 0.049438316 0.05863464 0.014229709
0.21301161 0.0481386 0.07178234 0.021925064 -0.009687716 -0.053249743 -0.12177547 0.109001
-0.11430136 0.042484142 0.01300836 -0.097883716 0.059966847 -0.27072933 0.064094104 -0.009869696
0.15191136 0.012710234 -0.00033393977 -0.049845856 -0.11516977 -0.11740174 -0.08757177 0.068356715
0.18545836 -0.20711215 0.11025442 -0.027664278 0.0927708 0.14137012 0.03527195 -0.01847492
-0.06552368 -0.10646033 -0.11845482 0.10250916 -0.12255078 0.09434416 0.05975677 -0.08679797
-0.0012384652 -0.062198766 -0.16457497 0.16429567 0.06195653 0.07729118 0.0810317 0.05965724
0.18630622 0.07402407 0.00608542 -0.063958734 -0.1157933 0.0138496775 0.014786331 -0.21105456
-0.079431124 0.015228433 0.009338342 0.23746566 0.24840613 -0.17996413 -0.08858541 0.17415614
-0.21487729 -0.09002176 -0.10120418 -0.13605973 -0.0029430569 0.03597179 0.33541334 0.07137881
-0.12760238 -0.2062677 0.00638289 0.057630263 0.020295233 0.0060245795 0.037559878 0.10863829
-0.015337687 -0.102845296 0.034144793 0.03341755 -0.07080375 -0.14531328 -0.08397995 -0.17742586
-0.010926764 0.1756312 -0.08511009 0.005078688 0.039707415 -0.075631015 -0.030508053 -0.14531542
0.0054390216 0.013430905 -0.182644 -0.15213807 -0.13085052 0.32983902 0.093144074 -0.07857348
-0.12124467 0.020843217 0.03675325 0.08434605 -0.12986009 0.02631698 -0.02905366 -0.09174965
0.111921005 0.015644433 0.0034927744 0.010340192 -0.014429683 -0.09232557 -0.055469397 -0.23599753
0.006321922 0.030456204 0.1167632 -0.012071731 0.10911649 0.003248313 -0.1710398 0.037432455
0.08377128 0.022753354 0.10401537 0.025542412 -0.12502271 -0.014668853 -0.055009075 0.051205594
-0.124469124 0.115342446 -0.030551776 -0.13341367 -0.083532296 -0.009689898 0.0803477 0.045501307
0.073703654 0.044801507 0.043955013 0.18584888 -0.01769832 -0.05958247 0.023957478 0.041614715
-0.06945869 -0.039344758 0.017424604 0.012849055 0.04178878 -0.11493054 0.011907798 0.100852005
-0.041207984 -0.06272623 0.05182669 0.03378915 -0.11384008 0.020025747 -0.0021704412 0.087369874
0.05151456 -0.21277033 -0.096113645 0.1960263 0.07235455 0.18007001 0.17154874 -0.043187477
0.10069626 -0.21829681 0.10459868 0.007938538 0.033159547 0.29932433 -0.045425504 0.15364854
0.006304365 -0.0648556 -0.056306105 0.014775422 0.23314756 0.11146315 0.08038533 -0.005204398
0.055980083 0.048711643 0.24214973 0.05447352 0.039014876 0.21320279 -0.13640821 0.05299127
-0.06556085 -0.06668494 -0.17271456 -0.1379146 0.12985875 0.10989455 -0.15204087 0.090717174
0.029312532 0.007969396 0.120702766 0.07533884 0.0478577 -0.07952633 -0.03855652 -0.008471201

network_body._body_endoder.seq_layers.0.bias f4 [256]
00000000: d4a3 313b 7892 403c 921e b13b ae82 283a
00000010: e5c3 293b 0a3f 5abc c627 293c d040 6fbc
00000020: 8f21 1dbb 8751 763c dc5f 8d3b d6e4 65bc
00000030: fd31 983c 5b5f 21bc 40c0 b03c 85c1 54bc
00000040: ced9 96bc 4944 323a 3e1a 95bc 975a d0bc
00000050: cff6 d53b e2cc 273b a06e 8a3c e5f7 943b
00000060: e3eb 1fbd 113f a5bc f17d 7e3b 1c0f f9bb
00000070: f8f3 33bc 40b5 5dbc 6ad8 01bc 9687 b9bb
00000080: b98d 56bb c62e eebc 1eb3 9d3c e1c1 b3bb
00000090: 3d49 fabc ebec 8ebc 5250 f63c d6b6 a9bb
000000a0: 8836 04bc 9be2 10ba 6c00 28bc c700 243c
000000b0: 886d 0abc f7d1 d8bc ed07 e1bc eb0d ba3a
000000c0: e195 ce3b 6b69 aebc 9a05 b03b 1e95 7e3b
000000d0: c5dd 09bc 26bb 62bb a9a4 bf3b 9d4e d8bc
000000e0: 0b74 f93b e65a f4bc 390b debc 4d43 00bc
000000f0: 9892 18bd dd3d 09bd d432 b2bc fcc1 8f3c
00000100: ccbd ecbb 052b 36bc 765c 78bc 356f e2bb
00000110: 8219 87bc bbe3 c33c 0902 9bbb 524b 563c
00000120: 33e2 a83b f04e 7ebc f4a7 3f3b d171 10bc
00000130: a026 79bb f5a9 863c a204 debb 86c3 b5ba
00000140: 14bd ff3b 66dc 913b 0253 3ebc b3ec 9cbc
00000150: 65d4 6a3c eb80 0cbc cbaa 08bd d5bc 41bb
00000160: b542 913c 0689 b4bb 7ccf db3c 5662 8fbc
00000170: 8890 6cbc 07fd a8bc c75b ddbc d05e 7cbc
00000180: 380b 103c 2cc0 e0bc 84ad 8f3b 3120 2abb
00000190: 5970 aabc 02c4 a2bc 9a7c 053c 7198 64bc
000001a0: 9700 ce3b f895 263c f91f b2bb 7df1 443a
000001b0: c210 e0bb ab6d 233b 47cd c73c b188 ee3a
000001c0: 0560 0abb b784 83bb 67ae c1bc 732c 9739
000001d0: 796f 243b b102 e6bc d60c 103d b586 5dba
000001e0: 00b3 15bd 34ad 15bb 94d2 0f3c b1ec 1c3b
000001f0: 000c 2b3c f139 bd3b 3f62 883b bac0 ea3b
00000200: 9d6b acbb ee29 cbba 49cc fa3c 26e5 843b
00000210: a843 6e3c 3968 adbc c746 6bbc 2001 5a3c
00000220: 8810 abbb 073c 393b 2a59 e9ba a8f4 25bc
00000230: ffb3 893c 33a7 6f3a 9a8d c23c a5e6 4ebc
00000240: 96df 8dbb b616 77bc 911a efbb d0be 75bc
00000250: 8b74 cbbc c949 963a 58d4 b03c d82a 4fbb
00000260: 2e37 86bc 87f4 d33b 36f0 adbb 75c0 26bc
00000270: a6d5 cdbc cf3b ccbc 355e 84bc 5771 f43b
00000280: 9192 9e3c 6bd2 1abc ea6f abbc dbe5 0bba
00000290: 6496 c5bc 8c55 e83b 9a1e 6b3b 2834 c33c
000002a0: 0c0a 153c 50a9 b73c c639 53bc 0fd5 6d3a
000002b0: d307 57bc b957 86bc d724 303b 7cc1 bd3b
000002c0: cbba 2bbc 2987 77b8 83c8 d5bb 8745 43bc
000002d0: e15c 693b 62b6 e13c 8719 e03c 4fbc a0b8
000002e0: 64a0 6b3b bf66 56bc 7ea6 f4ba bb67 b7bc
000002f0: a3db 7d3a c872 e13c 7ad7 b2bb dc9d 6f3b
00000300: c00a dabb 59ea 11ba 99cc 2ebc 493d f2bc
00000310: a21d 17ba f3b9 823c a35f 253b add3 2dbc
00000320: 26a5 303d 1451 a93c 7998 993c 48e7 8b3c
00000330: 5af8 ddbc 46b7 e23a 1a31 52ba b9f2 3fbc
00000340: 0fe3 39bc fab4 b73c c5bb 3b3c 5f0d a7bb
00000350: bac0 35bc 2881 843c 13af 85bb da4f bc3b
00000360: 0c6d 66bc ecbf d93c fa5c debc f2b0 dbbc
00000370: bded 6bbb 3e41 023c fa9b 0939 23f3 38bb
00000380: 78ba 77bc 0996 82bb d4ec 76bc 64f5 8f3c
00000390: 97e3 9c3a 9bd4 5abd 8756 b8ba c9a2 35bb
000003a0: caad e23b a509 1ebb 4362 c3bc 81e3 4e3b
000003b0: 4dac 88ba 42c3 ca3c f296 ba3c 98d8 aebc
000003c0: 5ab5 9fbb 7df8 f13a dc40 283a af03 c7bb
000003d0: e440 cebc a6a9 3f3c 2a48 d5bc 32f7 9fbc
000003e0: a7f3 6fbc b838 d9ba 0e7c 403b fc07 f1bc
000003f0: 6c00 f43b 01dc 29bb 411b 8a3c 087b 233d
0.0027105706 0.011753671 0.0054052556 0.0006428164 0.0025904116 -0.013320694 0.010324424 -0.014602855
-0.0023976301 0.015034086 0.004314406 -0.0140316095 0.018578524 -0.009849395 0.021576047 -0.012985592
-0.018414404 0.00068003364 -0.01820099 -0.025433822 0.006529666 0.0025604297 0.016898453 0.004546153
-0.03904332 -0.020171674 0.003883239 -0.007600678 -0.01098346 -0.013531983 -0.007925132 -0.005661915
-0.0032738282 -0.029075038 0.019250449 -0.0054857587 -0.0305525 -0.017446956 0.030067597 -0.0051792664
-0.008069642 -0.0005526931 -0.010254007 0.010009951 -0.008448966 -0.026467307 -0.0274696 0.0014194822
0.006304488 -0.021290502 0.0053717615 0.0038846205 -0.00841469 -0.0034596412 0.0058484864 -0.026404673
0.0076127104 -0.0298285 -0.02710496 -0.007828546 -0.037249178 -0.033506263 -0.021752752 0.017548554
-0.007224774 -0.011118655 -0.015158763 -0.0069102296 -0.016491655 0.023912301 -0.004730467 0.013079481
0.005153918 -0.01552175 0.0029244395 -0.008816198 -0.0038017407 0.016438464 -0.0067754546 -0.0013867475
0.0078045223 0.0044513224 -0.01161647 -0.019155836 0.014332865 -0.008575658 -0.033366006 -0.0029562016
0.017732004 -0.0055094985 0.026832335 -0.017502945 -0.014438756 -0.020628465 -0.027021302 -0.015403464
0.008791737 -0.027435385 0.0043846983 -0.002595913 -0.020805525 -0.019868854 0.008147383 -0.0139523605
0.0062866914 0.010167591 -0.0054359403 0.0007512791 -0.006837935 0.0024937193 0.024389876 0.0018198696
-0.002111436 -0.0040136236 -0.023642732 0.00028834082 0.0025090857 -0.028077455 0.03516849 -0.0008450554
-0.03654766 -0.0022838833 0.008778233 0.002394479 0.010439873 0.0057747294 0.0041621025 0.007164088
-0.005261852 -0.0015500167 0.030614989 0.004055637 0.014542498 -0.021167861 -0.014360136 0.013305932
-0.0052204765 0.002826454 -0.0017803062 -0.010129131 0.016809462 0.0009142041 0.023749162 -0.012628232
-0.004329632 -0.015081098 -0.007296868 -0.0149991065 -0.024835845 0.0011466081 0.021585628 -0.003161123
-0.016383734 0.006468359 -0.0053081764 -0.010177721 -0.02512629 -0.024930863 -0.016158203 0.0074598
0.019356998 -0.009449582 -0.020927388 -0.00053366803 -0.024119563 0.007090276 0.0035876394 0.023828581
0.009096634 0.022419602 -0.012892192 0.0009072581 -0.013124424 -0.016399251 0.0026877427 0.0057908874
-0.010481547 -5.9015267e-05 -0.006524147 -0.011918432 0.0035608339 0.027552787 0.027355922 -7.66447e-05
0.0035953755 -0.01308602 -0.0018665341 -0.02238833 0.00096839125 0.027520552 -0.0054578157 0.0036562597
-0.0066541135 -0.00055662316 -0.010668897 -0.029570239 -0.00057646085 0.015957808 0.0025234006 -0.0106095495
0.043126248 0.020668544 0.018749462 0.017078057 -0.027095962 0.0017297051 -0.0008018181 -0.011715584
-0.011345639 0.022425164 0.011458342 -0.0050980295 -0.011093313 0.016174868 -0.0040797084 0.0057468237
-0.014064085 0.026580773 -0.027143944 -0.026817773 -0.0035999857 0.007950125 0.00013123444 -0.0028221093
-0.015120141 -0.0039851707 -0.015071113 0.017573066 0.0011969683 -0.053425413 -0.0014063873 -0.0027715436
0.00691769 -0.0024114635 -0.023850566 0.0031568708 -0.0010427326 0.02475131 0.022777054 -0.021343514
-0.0048739137 0.0018460896 0.0006418356 -0.006073437 -0.025177427 0.011698162 -0.026035387 -0.019527052
-0.014645494 -0.001657269 0.0029370817 -0.029422753 0.0074463394 -0.0025918486 0.016858699 0.039912254

network_body._body_endoder.seq_layers.2.weight f4 [256, 256]
00000000: 0ca9 a9bb c379 10bd f472 dfbd 3a66 753b
00000010: 3b2e 433d 808d a7bd 0313 b9bc 8817 723d
00000020: b933 f1bc 7a24 c53c 0011 493d 2750 a23b
00000030: 92c7 f73c 9f42 303d 7768 c8bd a31d 073d
00000040: c058 c53c c928 4f3c f082 743c 4a6d 343c
00000050: f83b a9bd 8037 b03d 4e46 6b3d aad5 aa3d
00000060: 7496 ccbc 5b44 7d3b a2df c13c aca9 dabc
00000070: a9d4 cebb 1a95 1dbe 572b 333d bb35 82bd
00000080: 414f 083c 00e5 943d 55ad b8bd 7e73 13bb
00000090: c6a1 a33d b6eb b0bd 67d4 ccbd bb5d 8d3d
000000a0: 60aa 203d ec92 043d b52d b2bb b072 84bd
000000b0: e917 d43b 20ae 1dbe 46b1 88bb 9dd0 a43c
000000c0: 63aa 213c 2748 db3d 3970 c23c 51b6 bcbc
000000d0: f25c 033d f2ad 04bc 2b62 01bd 0209 e1bc
000000e0: edb1 6e3d fb4f 46bc 57e3 d5bc d74a 533c
000000f0: 35f2 593d 3097 01be 32f4 453d 2a64 9d3c
00000100: e545 50bb 6a80 343c 62e2 6b3d 9870 b73c
00000110: f36e 033d fa27 9d3d 0e05 313c 2ad8 363d
00000120: 6e30 9eba bad1 f0bd 7694 3f3d 817b f7bd
00000130: 5227 2cbc 948f 233e dfd1 8cbd fc4e adbc
00000140: 94d7 613d 17b0 943d b6a8 38bd d206 19bd
00000150: 2e99 243c 9ebd 963d b52d abbd 0a39 963d
00000160: 526b 2e3d e165 c33c 13ee 1b3c f798 1cbd
00000170: 794a aa3c a295 43bd c55f 06bd 79c4 a63d
00000180: 143d 403e cf8d b83c cf1f ec3d 4075 5e3c
00000190: 9a26 cc3c fdf8 acbc a4f6 53bc 942d bfbc
000001a0: cdce 5cbd bed4 84bd 77a0 e9bc b265 583c
000001b0: a39b d03d 49f7 cc3c df35 dd3d 0c4f f23c
000001c0: 53a1 04bb fce4 3d3d 6212 8a3d 6b24 2f3d
000001d0: a90e 423d 5920 943d 96bf 803a f2f6 93bd
000001e0: d597 a43b 3136 0ebc e28f 98bc af09 5bbd
000001f0: 51ae bfbc 40a3 7a3c 7429 103e 7173 793c
00000200: e44b a4b9 4918 403d 2004 1a3d cc51 3fbd
00000210: 2ff0 f63c e40f 8dbd 9b6e a3bc a041 5e3c
00000220: ff2b df3d 376a 8bbd 11b0 093d f00f 30bd
00000230: d240 dcbb 80ba ef3b 2279 6ebc 87e9 97bd
00000240: 4ed0 b03a 7416 4dbd 7bbd 07be 18d4 cbbd
00000250: aa19 8c3c 5e2d ecbc 0daa bebc 0f4f ecbd
00000260: 8328 5b3d 80ce 5abd 1df3 74bd 1b95 2fbd
00000270: a48d 8c3b 691c 833d 9910 eb3b 01c5 90bd
00000280: 9db5 d6ba 4a3e 833d 4408 68bc bb45 cfbd
00000290: dae1 13be 0742 0ebc 2be2 c3bd 190e cabc
000002a0: e139 82bd 6956 a93d c8d8 cebc 07d9 1abd
000002b0: 94d6 67bc 50df 8cbc 8b7a 8bbd 232c 23bb
000002c0: 8c24 363d 995f abbd 47bf a03d a083 ab3c
000002d0: 96a6 5a3d 2ad1 65bd 1bb0 813c f3e7 f0bc
000002e0: 6ada cebd 88d5 71bd 9ce5 debd c032 053d
000002f0: 69f7 f23d 92fa 033e 67c9 a7bd 8b9f b03d
00000300: 40d9 c63c 9a79 743d 4c34 74bd bada 583d
00000310: 7958 bfbd eaf2 70bd e9b0 50bd 6604 fa3c
00000320: 070c 123d c0d2 b8bc a8c3 48bc 99b2 4d3c
00000330: 1352 443d def6 0c3d df51 19bd 0e3e 9fbc
00000340: 56b5 1fbd ccd4 dc3d 65c5 0fbc f130 073e
00000350: e35f 45bd 66dd 423c 90e7 8fbd 5651 9fbc
00000360: 436e 903c b862 283d eb88 b5bd c7f5 83bd
00000370: 526b b4bd fbc8 40bd 3fb8 0c3d 6d16 64bd
00000380: 9eb9 17bd ecbc 3c3c 2e8f e9bc 5004 90bd
00000390: 4759 6abd 7643 a73c 7b14 b73c 0f3b 29be
000003a0: 72a3 7bbd aa92 c83d 9794 f43d 44f0 72bd
000003b0: f409 a5bd 7f0d 9f3c 809f 8c3d 517a d13b
000003c0: 6ea6 4b3d 0de0 e93d 48ce 0b3d d857 993c
000003d0: 7771 12bc dc7b e4bd 4395 813d 1f99 a73d
000003e0: ed86 0dbe 3703 cb3b 56e6 0fbe 6e81 6fbd
000003f0: af90 303d 3feb b5bd 1b2c 6dbc 13a9 983d
-0.0051776227 -0.03527237 -0.109105974 0.0037444965 0.04765151 -0.08181286 -0.022592073 0.059104472
-0.029443609 0.024065245 0.049088478 0.0049534026 0.03024653 0.043032285 -0.0978555 0.03298725
0.02409017 0.012644001 0.014923796 0.011012385 -0.08263391 0.08604336 0.057440095 0.083415344
-0.024974085 0.003864548 0.023666207 -0.026692234 -0.006311972 -0.15388909 0.043742504 -0.063579045
0.008319677 0.07270241 -0.090174355 -0.0022499259 0.0798984 -0.08638708 -0.1000145 0.06902643
0.039224982 0.032366678 -0.0054375776 -0.064671874 0.006472577 -0.15398455 -0.0041715233 0.020119006
0.0098672835 0.10707121 0.023735153 -0.023036154 0.03207106 -0.008098112 -0.03158776 -0.027470116
0.058275152 -0.01210403 -0.02610938 0.012896261 0.053209502 -0.1265533 0.048328586 0.019212801
-0.0031779942 0.011016944 0.057588942 0.022392556 0.03208823 0.076736405 0.010804428 0.044639744
-0.0012068877 -0.11758752 0.046772443 -0.120841034 -0.010507422 0.1597274 -0.06875967 -0.021155827
0.055137232 0.07260149 -0.04508277 -0.03736002 0.0100462865 0.07360385 -0.08358327 0.07335098
0.042582817 0.02385229 0.009517211 -0.038231816 0.020787464 -0.047750123 -0.032806177 0.08142943
0.187733 0.022528557 0.115295045 0.013577759 0.02492075 -0.02111482 -0.012937222 -0.023337163
-0.053908158 -0.0648589 -0.028518898 0.01320784 0.10185935 0.025020259 0.10801291 0.029578708
-0.0020237758 0.046360955 0.067417875 0.04275934 0.047377262 0.07232732 0.0009822722 -0.072248355
0.0050229826 -0.008679912 -0.018623296 -0.053476032 -0.02339855 0.015297711 0.14078313 0.015225277
-0.0003133706 0.04689816 0.03760159 -0.046708867 0.030143825 -0.068877965 -0.019950202 0.013565451
0.108970635 -0.06807368 0.033615176 -0.04298395 -0.0067215944 0.0073159337 -0.0145552475 -0.07417589
0.0013489814 -0.05007024 -0.13255875 -0.09952563 0.017102081 -0.028830227 -0.023274446 -0.11538517
0.05350543 -0.05341959 -0.059802163 -0.042866807 0.004289346 0.06401903 0.0071736095 -0.070688255
-0.0016381029 0.06408365 -0.014162127 -0.10120722 -0.14441624 -0.008682734 -0.095646225 -0.024664925
-0.06358696 0.082684346 -0.025249854 -0.03780463 -0.0141502805 -0.017196327 -0.068104826 -0.0024898134
0.044468448 -0.08367843 0.07848983 0.020936787 0.053381525 -0.056107678 0.015831044 -0.029407477
-0.10100253 -0.05904153 -0.10883638 0.032519102 0.11863596 0.12888554 -0.08192711 0.086241804
0.024273515 0.05968628 -0.059620187 0.05294297 -0.09343047 -0.05882541 -0.050949965 0.030519675
0.035656 -0.02256143 -0.012253679 0.012554788 0.047929835 0.03441512 -0.037431594 -0.01943877
-0.038991295 0.10782775 -0.00877509 0.13202263 -0.048187148 0.011893606 -0.07026589 -0.019447964
0.017630702 0.04110977 -0.08864006 -0.06443363 -0.08809532 -0.04706667 0.0343554 -0.05568545
-0.037042253 0.011519652 -0.028510656 -0.070320725 -0.057214048 0.02041791 0.022348633 -0.16526435
-0.06143517 0.09793599 0.11942404 -0.059311166 -0.08058539 0.019415615 0.0686636 0.006392755
0.049719267 0.114196874 0.034132272 0.018718645 -0.008938185 -0.11156437 0.063272975 0.081835024
-0.13821001 0.0061954516 -0.1405271 -0.058473043 0.04310673 -0.0888276 -0.014475848 0.07454123

network_body._body_endoder.seq_layers.2.bias f4 [256]
00000000: 9c1a fbba ea39 4e3c 1ad1 afba 1688 d4bb
00000010: ed8e 2a3c 9a5f 5dbc 7f91 b2bb e8e6 013c
00000020: 8205 bbbb a637 823b c3cb 463c c426 56bb
00000030: fc68 203c 9553 8cbc 8068 123b d105 a3ba
00000040: 361b 5abc d95b 643c cf73 0abc 95c4 5ebc
00000050: 741e d63c e938 ae3a 0714 983c 03dd 1d3d
00000060: 1230 e6bb e8d1 523c 9913 0cbc 9b10 bbbb
00000070: 7c1d f73b 9214 a439 a88a 2a3c 4908 bd3b
00000080: 44ca 48bc 8eab 5a3c 9f77 c63a a239 76bb
00000090: 500a d73b b977 c93b e569 133c 2d1d 283b
000000a0: e067 703b a2a2 23bc 0f62 cb3b c778 56bb
000000b0: 808f 98ba 67b9 6fbc db4d 893c bdb3 c23a
000000c0: 471a f7bb 5081 c2ba 9743 23bc 2e20 9b3c
000000d0: 8d38 9f3b 8fac 493c dbaa 71bc d227 2c3c
000000e0: 6f86 063c 150f f7bb cabe 9fbb cefe bf3b
000000f0: 27a0 86bb cde4 5b3c 2e0d 073c 4435 123c
00000100: 408f c43b 0600 863b def3 1b3c 5ac4 abba
00000110: 21ca af3c 990c 49bc ea18 ba3b 840b f4ba
00000120: f962 833c 2876 de3b 3825 dc3b a292 89bb
00000130: 71ee 3ebc ca8b 05bc 30ae dd3c 057b 03bc
00000140: dffd 9cbb 7468 a83c dd79 90bb 4d53 0a3c
00000150: 0dbf 33bc 149e 48bc 0e10 b13b 79a0 92bb
00000160: 3753 503c b24a f7bb ef5e 89bc a14b a8bc
00000170: de89 643c bb9a 83bc 9bca beba 7bfd 403b
00000180: f324 913c ced5 75bc 3377 373c 1ec9 47bc
00000190: a44a 803c 609c b53b 055d 2a3c 6ce0 223c
000001a0: 6870 85bb 0a60 59bb 4e88 bdbb 9a3d 7a3b
000001b0: 3385 5a3c cb9d 5bba 7fd0 af3b dadf 8dba
000001c0: a0d7 3dbc 628b e6bb e520 dcbb 0874 4c39
000001d0: 181b 063a 6052 d0bb 4438 d4ba 9d22 24bc
000001e0: ac12 923c 5c0d ccba ed63 9e3b 7f3c 9d3c
000001f0: 62b8 9b3c 0ba4 123c 5339 49bc 28c5 f63a
00000200: 18d9 2c3c 4392 c53c 9e8d 63bc 2e16 15bc
00000210: 69a6 373c b7ba 1cbb 230c 093c 59d5 5dbb
00000220: 3c25 39bc 0e3e 8e3c a64d 243c 0ab3 4cbc
00000230: b10e 053d f7b1 713b aaae 9f3c d087 1fbb
00000240: 0cbf 2bbc cd50 95bc 9a17 3abc 5479 fe3b
00000250: 1351 8e3b 4870 da3b 6df8 833b fb32 183c
00000260: 2195 5f3c 435a 63bc ca31 ae3b 2ffa acbb
00000270: 34f0 dabb 17ef eabb 69ce 6a3b 8236 6abb
00000280: 8247 4abc b29c c5bc f30e 7ebb 2bb0 863b
00000290: bc6b a13a 2746 3b3d c6bd bd3b b8de 183a
000002a0: d73d 113c dda9 d7bc 74fa 923b 11e6 023c
000002b0: 6a37 fbbb 14a2 5139 8310 42bc fcf5 adba
000002c0: 2c43 543a 8e96 38bc fabf a4bc e5f2 013c
000002d0: 7969 963b 06b8 eebb 5d31 b7bb 12d8 94bb
000002e0: 0ad0 173c 9d44 273b b4db dd3a 6250 a33c
000002f0: b7f6 e0bb cdcc 8e3c aa3f 41bc 7084 ff3b
00000300: e5e2 5fbc b79b 6cbc 4226 773c be50 ac3c
00000310: 22d6 a13c f8ce 443a 87a8 02bc 6977 09bc
00000320: 1a22 bebb e79f 123c 8373 fa3b 05de 2abc
00000330: 8e7a 823c 0fca 0b3c 254b d3bb af25 c4bb
00000340: 510b 33bc 852e 0eba 78ed 26bc 7991 8bbb
00000350: b4e2 e6bb 5db6 923c 71b8 a2bc c3d3 503c
00000360: b3e6 cd3c 1404 28bb 5b24 84bc 2891 15bb
00000370: c21d a1bb 9ebe e7bb 934a 7dbc 920f 3dbc
00000380: da33 91bc a855 563a 025c 113c 0f08 e93c
00000390: e2d0 9c3c a0b5 98ba cd03 843b 8383 8cbb
000003a0: 8a89 dc3a c422 abbc f28e 99bc df90 f73a
000003b0: 4fc0 713c 2075 c83c 56f5 623c 31a6 0f3c
000003c0: 2b23 4abc 3ad3 3ebc 8048 0dbc f632 b9bc
000003d0: f48a ab3b 6e63 d33b 0a7d 7bbc 4df2 903b
000003e0: 7bf9 1abd 3632 d4bb 1e58 6bbc c8f6 b5bc
000003f0: 3791 ae3b df16 0a3c 1bed a2ba 028b 5d3c
-0.001915771 0.01258705 -0.0013413758 -0.0064859493 0.010410053 -0.013511563 -0.0054494734 0.0079285875
-0.0057074437 0.003973919 0.0121335415 -0.0032676915 0.009790655 -0.017129699 0.002234012 -0.0012437647
-0.013312152 0.013937914 -0.0084504625 -0.0135966735 0.026137568 0.0013292107 0.018564237 0.03854085
-0.0070247734 0.012867428 -0.008549594 -0.0057087666 0.0075413566 0.00031295844 0.010409035 0.00576881
-0.012255255 0.013346566 0.0015141851 -0.0037570973 0.0065625086 0.0061483053 0.008997415 0.0025652156
0.0036683008 -0.009987505 0.006206758 -0.0032725798 -0.0011639446 -0.014631606 0.016760757 0.0014854592
-0.0075409743 -0.0014839564 -0.009964845 0.018936243 0.0048590363 0.012309208 -0.014750208 0.010507541
0.008210762 -0.0075396397 -0.0048750388 0.0058592325 -0.004108447 0.01342125 0.008242888 0.008923832
0.005998522 0.0040893583 0.009518592 -0.0013104782 0.021458687 -0.01227107 0.0056792395 -0.0018619155
0.016038405 0.0067889877 0.006718304 -0.004198388 -0.011653529 -0.008151004 0.027060598 -0.008024936
-0.004791006 0.02055762 -0.0044090585 0.008442712 -0.010970843 -0.01224472 0.005403525 -0.0044746962
0.012715152 -0.007546746 -0.0167689 -0.020543875 0.013948886 -0.016064992 -0.0014556231 0.002944796
0.017717814 -0.015004588 0.011197853 -0.012193946 0.015660591 0.005542323 0.010398154 0.009941202
-0.0040722378 -0.0033168816 -0.005784071 0.003818369 0.013337421 -0.00083777 0.005365431 -0.0010824159
-0.011587054 -0.0070356587 -0.0067177885 0.00019498181 0.00051157316 -0.006357476 -0.0016191085 -0.010018018
0.01783117 -0.0015567946 0.0048336894 0.019193886 0.019008819 0.008950244 -0.012281734 0.0018827068
0.010549806 0.024117595 -0.013888745 -0.009099526 0.011209109 -0.0023915002 0.00836471 -0.003384909
-0.011300381 0.017363574 0.010028278 -0.012493858 0.032484714 0.0036879757 0.019492466 -0.0024342425
-0.010482561 -0.018227005 -0.011358166 0.0077659283 0.004343161 0.006666217 0.0040274174 0.009289498
0.013646395 -0.013876501 0.005315994 -0.0052788476 -0.0066814665 -0.007169615 0.0035828596 -0.0035738056
-0.01234615 -0.02412257 -0.0038766235 0.0041103563 0.0012315433 0.0457212 0.005790445 0.00058315275
0.008864841 -0.026326114 0.0044854227 0.007989422 -0.007666518 0.00019992172 -0.011844757 -0.0013272162
0.00080971676 -0.011266364 -0.020111073 0.007931446 0.00459021 -0.007285121 -0.0055906014 -0.004542359
0.009265909 0.0025523074 0.0016926439 0.01993579 -0.006865348 0.017431641 -0.011794964 0.00779777
-0.013664936 -0.014441422 0.015084805 0.021034595 0.019755427 0.00075076474 -0.00797475 -0.008390286
-0.005802405 0.0089492565 0.0076431646 -0.01042891 0.01592758 0.008532061 -0.006448167 -0.0059859375
-0.010927991 -0.0005423802 -0.010188453 -0.004259285 -0.007046068 0.017909223 -0.01986334 0.0127458
0.02513442 -0.0025637196 -0.016130617 -0.0022822116 -0.0049168775 -0.007072284 -0.015459674 -0.011539357
-0.01772492 0.0008176216 0.008872034 0.028446225 0.019142572 -0.0011650808 0.0040287734 -0.0042881384
0.0016825658 -0.020890601 -0.01874492 0.001888778 0.014755323 0.024469912 0.013852438 0.00876765
-0.012337486 -0.01164704 -0.008623242 -0.022607308 0.0052350704 0.006451062 -0.015349636 0.0044234158
-0.03783558 -0.006475712 -0.0143642705 -0.022212401 0.0053273696 0.008428304 -0.0012430282 0.013521912

action_model._continuous_distribution.log_sigma f4 [1, 2]
00000000: a1ae 28bd 6178 233d
-0.041182164 0.039909724

action_model._continuous_distribution.mu.weight f4 [2, 64]
00000000: fe06 563c ce8c ad3c 619a 173b 27be ca3c
00000010: 3add f13c 60f3 94bd 20d1 a53d 16f5 dcbc
00000020: 5d50 dd3c 6484 883d 308d 25bd ecd2 1d3d
00000030: df9b 6dbc 8d25 37bd c048 2bba 9bef ce3c
00000040: 0e25 2b3c e128 923d ba3e bc3c 014d a13c
00000050: 8cb9 2e3b 921e 023d 9ed3 913d 3f93 5bbd
00000060: e39a 2ebc 2a55 003c adec be3c 5cbb a63d
00000070: c8ad 223d ad13 333d 873a 8a3d 15ba ad3d
00000080: 2061 433d b7da 1ebb 111e 6abd b866 9bbb
00000090: 0ddb 853d a8c3 aabd fe2c c6bd b0af 7c3c
000000a0: 83af 0bbc 4a62 023d cf76 953d ab19 1e3d
000000b0: 2527 ddbc aec2 673d f784 8cbc e8f0 13bd
000000c0: 6ea5 95bd aec4 cfbc a3e4 f1bb 5cbf 86bd
000000d0: 327e 3d3c e969 96bd fbb7 c5ba 1caf 443c
000000e0: 97b0 873d 7a6f 9bbc 957d 483d 670f d6bc
000000f0: 4ee1 833d 1aae 94bd 0ae4 99bc 9d37 33bd
00000100: 862d 263d ef38 f03c 38bd 9bbc 7f08 b23c
00000110: 03f8 193d 10d6 0a3d e5c6 3a3d 0f20 1cba
00000120: 3afb 533d 65b6 733d fbfd 173d 7d4f bbbc
00000130: 5ab0 a7bd 3b4a 0d3d f9fb 2cbd 865c b3bc
00000140: e0a3 83bc 1d15 3dbc a9a5 f939 1344 fe3c
00000150: c938 523c 307b 203d 40e5 4a3d e71b 4e3c
00000160: 5ea7 c5bc df19 ce3c 685c 75bc f20c 4bbc
00000170: fb46 32bc 6237 a93c 0aee 71bd 6aff 51bc
00000180: c487 24bd 17e3 80bd 0a8a ca3c fca5 79bd
00000190: be39 98bd a19a d43c 70fe d23c 7ce6 c4bc
000001a0: af70 ba3c de9b 4cbd cdce 243d 6117 2a3d
000001b0: 0403 b5bb 21a0 3dbd d1a0 06bd a32d 463d
000001c0: 7c44 01bd 8852 0cbc cae5 063c 0905 44bc
000001d0: 6fab a23d 8be5 f83b d9ce 45bb cda2 bebc
000001e0: 78c1 40bd 51b6 a43c e4ae 5c38 60f0 123c
000001f0: cfce 023d 3127 bb3c 5003 373a 614f 17bb
0.0130631905 0.021185305 0.0023132788 0.024748875 0.029524434 -0.072729826 0.08096528 -0.026972335
0.02701586 0.066658765 -0.04041785 0.03853123 -0.014502495 -0.044713546 -0.0006533973 0.025260737
0.010445846 0.07136703 0.02297913 0.019690039 0.0026660888 0.031767435 0.07120441 -0.05360722
-0.010657045 0.007832805 0.023306215 0.08141205 0.039716512 0.043719936 0.067494445 0.08482758
0.047700047 -0.002423925 -0.05715758 -0.0047424696 0.06535921 -0.083381 -0.0967655 0.015422747
-0.008525732 0.031832017 0.072980516 0.038598698 -0.026996205 0.056582145 -0.017153246 -0.036118418
-0.07306944 -0.025362339 -0.007381992 -0.06579468 0.011565732 -0.073444195 -0.0015084738 0.01200464
0.06625479 -0.018974055 0.04894789 -0.026130391 0.06439458 -0.0725977 -0.018785495 -0.04375421
0.04057076 0.029324023 -0.019011125 0.021732567 0.037590038 0.033895552 0.045599837 -0.0005955705
0.05175326 0.059500117 0.03710745 -0.022865051 -0.08187933 0.03449462 -0.042232487 -0.021894705
-0.016069353 -0.011540678 0.00047616407 0.03103832 0.012830921 0.03917998 0.049535036 0.012579895
-0.024127658 0.02515882 -0.014975645 -0.012393223 -0.010881181 0.020656291 -0.059064902 -0.012817243
-0.04016854 -0.06293314 0.024724025 -0.06094931 -0.074328884 0.025952639 0.02575609 -0.024035685
0.02275881 -0.049953334 0.040236283 0.041526202 -0.005524041 -0.04629529 -0.03286821 0.048383366
-0.031559452 -0.008564599 0.008233497 -0.011964091 0.079428546 0.007595723 -0.0030183105 -0.023270989
-0.047059506 0.020106466 5.2614967e-05 0.008968443 0.03193551 0.022845836 0.00069813896 -0.0023088085

action_model._continuous_distribution.mu.bias f4 [2]
00000000: 2587 11bc d158 21bc
-0.008882319 -0.009847836

onnx::LSTM_101 f4 [1, 256, 256]
00000000: 65a6 2b3d 9700 df3d 3067 3b3d 7356 533d
00000010: de9b cc3d ef7d 85bd 24eb 6ebd 5ebc ecbd
00000020: 1c37 7bbc eda2 1abd a6e8 1d3e 0106 893b
00000030: 237b 66bd ae7e 9c3d 1099 32bd cca1 d8bd
00000040: cc67 05be e38e c0bd b283 9f3d 21ad 103d
00000050: 0066 f6bd dacc 413d 9db3 98bd b5b6 44bc
00000060: 17b7 0c3e 39e0 cd3d cbff 93bd e1b1 86bd
00000070: 0e82 073e f760 ffbd 7597 40be 7892 3ebd
00000080: ab29 ca3d 0687 9ebd 0076 823d cd49 9cbc
00000090: 1065 05bd fa18 853d cb52 20bd 7e5a fa3d
000000a0: 2f43 d53b 084c 9abb 5c08 363b 9799 b6bd
000000b0: 823b f03c 1d8a 44bd f80d fbbd 1b51 11be
000000c0: ac19 ee3c 40cc 9bbc 221a 0bbe dfa6 9bbc
000000d0: 4d5c c03d ae1c 7bbd 8842 083e 9b97 a8bc
000000e0: 8011 b3bd 2993 073e 2229 a9bd fe0a abbd
000000f0: 3608 ab3d 7fd8 ca3c fa0f 163c 1963 e5bd
00000100: f253 6e3d 9cbd 0cbd 27f4 a5bd 2f83 87bd
00000110: 0f1a b23d d583 b0bd d2de bebd 7e22 41bd
00000120: 6254 10be ce57 c2bc 1a7c 8d3d 8bc4 0a3e
00000130: 6f13 613c 6700 0abc ef6e 17be 9e86 f2bd
00000140: 3dcd 45bd d9e0 9fbc a433 47bd 9cd7 633c
00000150: 3bac eb3c 11e5 da3d 2b29 2ebe b5b9 f33d
00000160: 047e 0aba 523f c43a 0ecd 623d ba38 febc
00000170: f95c 3d3b fe96 033e 1cbc 40bd 8f3c f6bd
00000180: c0a5 fcbc 5560 073e ac36 af3c e5bd 27bd
00000190: cc8b 00bc 85db 863d 5866 4e3d 45ba ce3b
000001a0: f9ec 3c3d b91a 7dbc bc77 e23d 72df 703d
000001b0: 5830 d23d 0789 b0bc e6fd e53b 80a9 973d
000001c0: 861c f83d 3534 eebd fbd7 cbbd 1537 71bb
000001d0: eb94 5abd b65c eabd 7c12 903d 0d6e 2f3d
000001e0: 1133 483d 7e3b 82bc e408 1dbd 9cc4 73bd
000001f0: 71de 1abe 5fee bc3d c0fd 70bd f689 12be
00000200: 433b d03d 8bd2 36bc 9247 dfbd 7f48 10be
00000210: d2d6 1b3e 1847 8fbd 81f5 323d 50fc bcba
00000220: bbfe 64bd 9482 f23d 0596 833c e2c3 7a3d
00000230: 6c16 5b3d 42d8 7fbd cc0f 013e 347c 3abd
00000240: fa49 b5bd f314 dabb ed14 823d 0e69 03bd
00000250: 73b9 e13c 4579 b8bd 6ec8 00bd b818 2f3e
00000260: 15b5 073e d7ed 033d 01bd b53d 31d4 f53d
00000270: 6002 8ebd f9e2 df3b db61 0e3d 1fb2 1dbd
00000280: 161e 4f3d 5926 033e 7e00 d03d c2d2 5a3d
00000290: e4f9 a13d 3fb3 babd bfac 723c 972b 02be
000002a0: 8783 a73d b265 143e 2060 eabd 5c07 eebd
000002b0: d247 823d b904 afbd 44fa a1bd 4193 cebd
000002c0: 6371 95bd 1986 b53b 8f76 0c3e 0b05 1bbc
000002d0: 5366 9bbd 6327 843d 7c7b 793d 0a95 a93c
000002e0: 74ee 3e3d 981d c2bc 489a 60bb 8ef2 5ebd
000002f0: 670c ee3d 7293 573c 94ac c93b 2797 b8bd
00000300: eebb 493d 42d0 e2bc f956 4dbc f91d a73d
00000310: f850 b7bd 0df8 84bd d205 41bd 873f f0bd
00000320: 267a 4c3d 04bc 47bd 2b6b ad3d 6b35 e7bc
00000330: 8d28 72bd 1187 063e ce73 05be a3a8 a0bb
00000340: 4cf6 073d f727 b13c 5542 0ebc f849 a23b
00000350: 5bca 1abd 9a7c 2c3c d863 55bb ef10 e13d
00000360: 6cb6 8ebc 3f2d 933d eb37 973d de4a 27bc
00000370: 6216 06be 04d2 1abe 3db9 b93d 7fd3 e3bc
00000380: 20b7 c43c ae97 99bd a7dc 07be fac3 443d
00000390: be00 a3bd 48cd b7bd e3e2 663c 82be f5bc
000003a0: 3685 eabd abe2 103e c9d8 9cbb bbc9 f4bb
000003b0: c217 c0bd e8b3 eb3d 9215 603b 5b16 67bd
000003c0: af0c b63c ae63 51bd 6013 ff3d 5fab 7a3d
000003d0: 5a4c b9bc 7638 8abd c154 05bc 2a23 5a3c
000003e0: c1cb c9bd 7473 c53d a96b 8a3d 06f0 a23d
000003f0: b9a4 b5bd 4fac 833d c683 7f3d 71c8 c1bd
0.041906733 0.108887844 0.045752704 0.051596116 0.09990667 -0.065181606 -0.058329716 -0.11559366
-0.015332963 -0.037753034 0.1542078 0.004181624 -0.056269776 0.0764135 -0.043603003 -0.10577735
-0.13027877 -0.094022535 0.07788791 0.03532136 -0.12031174 0.047314502 -0.074561335 -0.012006451
0.13741718 0.10052533 -0.07226523 -0.065768965 0.13233206 -0.124696665 -0.18807776 -0.046526402
0.09871229 -0.077405974 0.06370163 -0.01907816 -0.032567084 0.064989045 -0.039141458 0.12224291
0.006508253 -0.0047087707 0.0027775979 -0.08916014 0.02932525 -0.047983278 -0.12258524 -0.14191096
0.029064976 -0.019018292 -0.13584188 -0.019000469 0.09392605 -0.061306648 0.1330663 -0.020580104
-0.08743572 0.13239731 -0.082597986 -0.08351706 0.083511755 0.024761437 0.009159083 -0.11200542
0.058185525 -0.034360513 -0.08103209 -0.06616818 0.086963765 -0.08618895 -0.09319843 -0.047152035
-0.1409469 -0.02372351 0.06908436 0.13551538 0.0137375435 -0.0084229475 -0.14788412 -0.118420824
-0.048291434 -0.019516395 -0.048633233 0.013906386 0.02876865 0.10688222 -0.17007892 0.11900655
-0.000528306 0.0014972484 0.055371337 -0.031032909 0.0028894527 0.12850568 -0.047054395 -0.120232694
-0.030840755 0.13220342 0.021388374 -0.040952582 -0.00784583 0.06584839 0.05039057 0.006308826
0.046124432 -0.015448266 0.11057994 0.058806844 0.10263127 -0.021549715 0.0070187924 0.074053764
0.121148154 -0.116310515 -0.099533044 -0.0036806513 -0.053364675 -0.114434645 0.070347756 0.042829562
0.048876826 -0.015897509 -0.038338557 -0.059513673 -0.15123917 0.09225153 -0.058835745 -0.1431044
0.10167553 -0.011158596 -0.10902323 -0.14090155 0.15218666 -0.06995982 0.043691162 -0.0014418457
-0.055906992 0.11841312 0.016062746 0.061221965 0.05348818 -0.0624621 0.12603682 -0.045528606
-0.088520005 -0.0066553294 0.063516475 -0.03208261 0.02755425 -0.09007505 -0.031441145 0.17099273
0.13252671 0.032209244 0.0887394 0.12003363 -0.06934047 0.006832477 0.03476129 -0.038499948
0.0505658 0.12807597 0.10156344 0.05342365 0.07908991 -0.0911622 0.014811694 -0.1271194
0.08179384 0.14491919 -0.11444116 -0.116224974 0.06361355 -0.08545823 -0.079090625 -0.1008668
-0.072970174 0.0055396673 0.13717102 -0.009461652 -0.07587876 0.06452825 0.06090878 0.02070095
0.046614125 -0.023695752 -0.0034271646 -0.054430537 0.11623459 0.013157712 0.006154606 -0.09013205
0.04925149 -0.027687196 -0.012532943 0.08160014 -0.089509904 -0.064926244 -0.04712469 -0.11730867
0.049921177 -0.04876329 0.08467706 -0.028223714 -0.059120703 0.13137461 -0.13032457 -0.0049029156
0.03319387 0.021625502 -0.008682807 0.0049526654 -0.037790637 0.010527754 -0.0032560732 0.10989558
-0.01742097 0.071863644 0.073837124 -0.010210721 -0.13094476 -0.15119177 0.090685345 -0.02781081
0.024013102 -0.07499634 -0.13267766 0.04803846 -0.07959126 -0.08974701 0.01409218 -0.029998068
-0.11451189 0.14148967 -0.004786585 -0.007470337 -0.093795314 0.11508924 0.0034192544 -0.056417804
0.022222845 -0.051120453 0.12454867 0.06119859 -0.022619415 -0.0674905 -0.008137883 0.013314048
-0.09853316 0.096411616 0.06758816 0.07955937 -0.08869309 0.0642935 0.06238153 -0.09462059

onnx::LSTM_102 f4 [1, 256, 64]
00000000: 1683 c2bd 32ae d8bc a97f 6c3c 8c3c 0cbb
00000010: c209 0a3e 171a 2abe 92bd 1c3c 7f44 5dbd
00000020: 8683 6f3d bcf6 46be 64f2 2e3e 6bc7 8bbc
00000030: e430 723e 2533 d23b fffc 32be b31c e1bd
00000040: daa3 0e3e 6e62 abbd 3e5a 723d e9eb 64be
00000050: a8ae a83d 47f9 453e 1535 bf3d 6351 533e
00000060: 4dab 41be c49e 333e 9464 353e 9da2 013d
00000070: e107 db3d 3ceb 0ebe f501 ec3d 5670 063e
00000080: 340a 40be 618c 07be 6492 1bbe 9d41 05be
00000090: cc83 b03d 6ed4 d33d 9302 103e be7e ae3c
000000a0: 66b6 b3bd bab0 b6bd efb6 353d f7da 81be
000000b0: ad00 42be 47be 453e c8f0 87bd 36f9 043e
000000c0: 17fc 153d fc7b f93d 4e55 f03d 3c0b cdbd
000000d0: b258 5a3d 0528 39be ff31 e1bd 4254 293e
000000e0: 086a 47be 1a4a 1e3e 1ff1 213e 6b89 43be
000000f0: 64b0 443e 999a d53d 5929 93bd f937 1a3e
00000100: 09ba 3b3e 67a1 6a3e 2e59 d83d 93ef 063e
00000110: 1b7a 3ebe a42b 623e 360a 2e3d f229 b1bc
00000120: 5389 923d f68d dabd 5c41 44be 2a7c 25be
00000130: ee31 64be 87c5 903d a8d2 ffbc 2252 313e
00000140: cbb1 093e 5c34 06be 6389 ba3d ef6c dcbd
00000150: b046 71be 8e77 0e3e 1de9 38be 4468 d53b
00000160: d78b 59bd 1b6d 093e 983e 3ebe f66a 023e
00000170: c237 26be 351c b53b 7d94 aebb 3c2a 2bbe
00000180: 8a92 c93d c18c 3ebd ef3d f73c 0509 253e
00000190: 0681 5f3e 3fca 61bc b3a6 40be 9d87 063e
000001a0: 6e20 923d f4d4 60be c10c 553e 8d24 0ebe
000001b0: 9129 c2bd 51c2 63bd c447 213e 6ccd 8c3d
000001c0: 79fc 9fbd 67bd 45bd 35b6 51be 71a8 2e3e
000001d0: 8924 a5bd d21c 873d e321 303e 4560 5abe
000001e0: 7e1f cbbd 5de8 5339 0c2f be3d 2f44 4bbe
000001f0: 3658 21be 3339 41be e565 2cbe 46bc d33d
00000200: 5851 a7bb 525a 183e 3a69 353e e7ff 2b3e
00000210: 4fff cabd 6b0e a23d 8db2 643d ab8d bcbd
00000220: 6889 1a3e 0276 203e fdb8 3c3d 5c0b 703a
00000230: d6cd 07be ff53 103e e710 5abe b18e 293e
00000240: b857 7dbd 05a1 9ebd c79f 3f3e 04cf 33be
00000250: 5b16 42be c4f2 5fbd e80a 14be 9613 2e3e
00000260: 7a9f bdbd db50 edbd 75f4 953c 556a 22be
00000270: 9f33 d53d d5d7 0a3e b5ab 093d 59d3 17bc
00000280: 6095 9ebd 754f 113e 9b90 5bbe 87f8 21bd
00000290: 66f4 32be 90b2 6bbc c0da 06be bdb6 36be
000002a0: bc82 ab3d 035b 043c ea8e c13d 32ae 1c3d
000002b0: 4e86 55be a97e ecbd 797b 113e 1583 56be
000002c0: 1fd4 11be 7465 53be 3902 78bb 9922 413e
000002d0: 09c5 c2bd 99dd 05bd 5231 ca3b da23 40be
000002e0: 08f1 3bbe 8615 efbd 10ad 2a3e e3f2 30be
000002f0: 7687 b8bd 8417 b73a 3e33 0a3d ca38 42be
00000300: ed0f 633d ec16 d8bd 6f8a d03d 3a77 e73d
00000310: 83b1 56be d9f0 49be 5598 22be 75bc 523e
00000320: 895b 3bbb d885 d6bd 51eb 33be c5d1 f2bc
00000330: bcfd 37be 1010 58bd 60b7 303e a51c fd3d
00000340: aba2 3ebe 5355 2d3d 3caf 273e 0d0d bf3d
00000350: 1cbb b83d 4d5c 0dbe bf30 a1bc ed2f f4bd
00000360: 8c95 493e 5a19 2a3d e8be 55be 60b6 38be
00000370: 08f4 3abd 35e1 72be 377e 1cbe d7f7 b9bd
00000380: 530f a8bb 93e0 383e 6f97 3bbe c5b7 14be
00000390: 3361 663d a9e6 83bd 28fd 4fbe 1e56 1ebe
000003a0: 7a7a 26be f720 f1bc 986e 88bd 2a8b 50be
000003b0: 5431 033d 1660 9f3d af5c be3d 272b 4ebe
000003c0: 51f3 a038 2462 a5bd ee00 e6bd e676 57be
000003d0: 08dc 05be 9762 343e 32b7 9c3d 5147 533d
000003e0: 46dc 053e c412 11be 3881 1cbe fad3 5a3e
000003f0: 2910 e73d 1c17 12be 6384 a53d eb10 693e
-0.09497659 -0.02645025 0.014434733 -0.0021398393 0.13480285 -0.16611515 0.009566681 -0.0540204
0.05847504 -0.19430059 0.17084652 -0.017062863 0.23651463 0.0064147883 -0.17479323 -0.10991802
0.13929692 -0.08368383 0.059168093 -0.22355618 0.08236438 0.19333373 0.093362965 0.20636515
-0.18913002 0.17541033 0.17714149 0.03164922 0.10694862 -0.13956922 0.11523811 0.1312879
-0.18753892 -0.13237144 -0.15192562 -0.1301331 0.08618888 0.10343252 0.14063482 0.02130067
-0.08775024 -0.08920427 0.044363912 -0.2536237 -0.1894557 0.19310866 -0.06637722 0.12985691
0.036617365 0.12181851 0.117350206 -0.100119084 0.053307243 -0.18081672 -0.10995864 0.16536048
-0.19474041 0.15457955 0.15814637 -0.1909539 0.19207913 0.10429878 -0.07185621 0.15060414
0.18332686 0.22913133 0.10563885 0.13177328 -0.18601267 0.2208696 0.042490207 -0.021626446
0.07155099 -0.10671608 -0.19165558 -0.16160646 -0.22284672 0.07068925 -0.031228378 0.17316487
0.13446729 -0.13105911 0.09108236 -0.10762965 -0.23562121 0.13912794 -0.18057676 0.0065126736
-0.053111877 0.13420527 -0.18578565 0.12736115 -0.16232207 0.005527044 -0.00532776 -0.1671533
0.09842403 -0.046520952 0.0301809 0.16116722 0.21826562 -0.013781129 -0.1881359 0.1313767
0.07135092 -0.21956235 0.20805646 -0.1388113 -0.094805844 -0.055605236 0.15750033 0.068751186
-0.07811827 -0.04827633 -0.20479663 0.17056443 -0.08063609 0.06597294 0.17200427 -0.21325786
-0.09918116 0.0002020909 0.09286317 -0.19850229 -0.15756306 -0.18869476 -0.16835745 0.10338645
-0.0051061325 0.14878204 0.17715922 0.16796838 -0.099119775 0.07912906 0.05583434 -0.092067085
0.15091479 0.15670016 0.046074856 0.0009156966 -0.13262114 0.14094542 -0.2129551 0.16558339
-0.061851233 -0.07745556 0.18713294 -0.17559439 -0.1895384 -0.05467488 -0.14457285 0.16999659
-0.09258933 -0.115876876 0.018305043 -0.15860875 0.104102366 0.13558896 0.03361102 -0.009266698
-0.07743335 0.14190467 -0.21441881 -0.039543655 -0.17476043 -0.014385834 -0.13169384 -0.17843147
0.08374545 0.0080783395 0.09451087 0.038252063 -0.20852014 -0.11547596 0.14207257 -0.20948441
-0.14241074 -0.2064417 -0.0037843122 0.18860854 -0.09510238 -0.032682035 0.00617043 -0.18763676
-0.18353665 -0.11674027 0.1666758 -0.17280154 -0.09010212 0.00139688 0.033740275 -0.18966976
0.05543511 -0.10551247 0.10182654 0.113020375 -0.20966153 -0.19720782 -0.15878423 0.20579703
-0.0028588495 -0.104747474 -0.17570235 -0.029641042 -0.17967886 -0.052749693 0.17257452 0.12358979
-0.1861674 0.0423177 0.1637544 0.09328661 0.09020063 -0.13804741 -0.019676564 -0.119232036
0.19685954 0.041528083 -0.20873606 -0.1803832 -0.045642883 -0.23718722 -0.15282522 -0.09080475
-0.00512878 0.18054418 -0.18319486 -0.14523228 0.05624504 -0.06440479 -0.20311415 -0.15462539
-0.16257659 -0.029434664 -0.06661719 -0.20365587 0.032029465 0.07781999 0.09295022 -0.20133649
7.674716e-05 -0.080753595 -0.11230646 -0.2104145 -0.13072217 0.17615734 0.07652129 0.051581684
0.13072309 -0.14167315 -0.15283668 0.21369925 0.11282379 -0.14266628 0.080818914 0.2276036

onnx::LSTM_103 f4 [1, 512]
00000000: 7052 c6bc b95f 593b 427d c3bb 9d42 b63c
00000010: 229d 73bc 46b5 063d 9088 97bb 9ec1 46bc
00000020: 2761 943c c36f 3e3d 7608 993b 1531 923c
00000030: 65b2 79bc 53b5 403b a039 b03a a4a4 2a3d
00000040: d2e0 a73b 1cfe d73c 98f8 893c 00f6 95b6
00000050: 66a4 5f3c 380b 9d3b b862 0a3d 83a6 cdbc
00000060: 7497 07bd 21a8 2b3c d8ab d53a 493b 29bc
00000070: d546 303c 2a03 793b 5459 c23b 29f9 023d
00000080: 8616 193d 8101 133c da5c fa3c 6923 8ebb
00000090: 6be1 a63b 525a f73b f3ea 88bb 1105 063c
000000a0: afd0 40bc 9270 dcbb 9360 5e3a 363e 0bbc
000000b0: 063c 4ebc 6b77 16bc 633d c23c 60ba e8bb
000000c0: 8951 cc3c fa7a 18bc 2996 2a3c bc5d 8fbb
000000d0: 031c 99bc 77e3 34bc a7e9 60bc d189 043d
000000e0: 2d55 7e3c 7163 19bc fc28 78bc 73ee 233c
000000f0: 2b8b 003c 2547 253a d622 b4bb 53fa b7bc
00000100: fdc6 4bbc 431b 72bc e4f8 d7bc 03c5 933b
00000110: 9c1e 87ba b5a8 d43c 1d97 a43a 1ce9 bd3b
00000120: 3de5 a73c d235 3e3d 5239 4d3c ea58 123d
00000130: 6521 0b3d 10bd 51bc 0699 cd39 e854 283c
00000140: 342a 23ba 1ec8 073d 1805 f9bc f0ab 863a
00000150: e126 b8bb a6b0 b33b c6f1 1b3d b864 853b
00000160: 1132 1c3c 8df7 48bc dc2c 90ba cc59 813c
00000170: dced 8abb e797 c1b9 6a05 833a 9112 593d
00000180: 4abc d43c 6ba1 293c cdff ef3c 6a18 513c
00000190: 0c94 103d 92b6 113d c869 763c 99b9 d2bc
000001a0: f1df eb3b 0a9d 703a cfc8 103d f4a4 df3c
000001b0: 1753 823c 0a56 1f3d 0691 b0bb 0ed2 96bb
000001c0: d0fc b33c 31c5 6abc 50a4 b4bc 736e 9abb
000001d0: c31a 6a3c 19de eabb 3054 adbc e257 c63c
000001e0: 5a2f c1bb 1d8e acbc 880f 9b3c 6329 363c
000001f0: c008 a13b e725 c33c 3409 49bc 8643 863c
00000200: e80d 793f 309d 833f 36f4 7c3f b6fb 803f
00000210: 0ab8 7a3f 5edf 813f 3977 823f 2bf2 823f
00000220: 8e45 823f da4f 763f 2aa7 803f b7e1 803f
00000230: 06cc 833f 1152 7b3f ae9f 843f d292 803f
00000240: 9881 7c3f 58cb 7c3f 703f 803f c90f 7b3f
00000250: 2a30 813f b84e 763f 8c44 7a3f ae6c 7b3f
00000260: 1d69 7a3f be78 7d3f a937 803f 0fe1 7c3f
00000270: 7056 803f 6cb3 813f efbb 7d3f e39d 7b3f
00000280: f8dc 7d3f d418 793f ebe4 783f ea28 7d3f
00000290: 7baf 7e3f ff48 793f 20a7 7d3f 733a 813f
000002a0: 8024 7a3f d593 823f 534e 813f 3ab1 863f
000002b0: 0d77 7d3f 7bc1 7a3f 01c8 803f cf3c 7d3f
000002c0: 18bd 783f 4daf 783f 4b20 803f a0b5 7a3f
000002d0: 1888 813f 6931 803f bcfe 7c3f f951 823f
000002e0: 3bc8 813f 1ada 7a3f cad7 823f 75d3 793f
000002f0: 6d18 823f 64f3 7f3f 799f 7c3f bcbe 7c3f
00000300: e0b1 5abc deb2 27bc 4daa 4fbb 839e 8dbc
00000310: 4be4 79bc 9c4e 69bb ef9b 97bc 965c a43c
00000320: ac87 51bc f8d3 bb3b d0eb 8fbc 9aa2 e13b
00000330: 2a30 de3b 72ea 2f3c 430e 72bc d1e2 dc3c
00000340: 81d4 b13b fb96 18bb 3f56 913c b3f9 10bc
00000350: 8b18 a03c 5045 23bc 1914 43bc 880a e2ba
00000360: ed72 473c 4441 b43b d810 41bc 0f16 0abc
00000370: 97be a7bc b5a5 16bc a1c5 82bb 0e46 73bb
00000380: cc40 153c d4b3 5e3b 9152 5fbc 5348 ca3c
00000390: aa2d cfbb ee5f a43b bcf7 d93a f177 55bc
000003a0: a27f 3fbc 2b91 88bb b716 29bc 60af 843c
000003b0: 2a2d f6ba 8fe0 08bc 5c4f e03c bd59 babb
000003c0: 3b4a d4ba 7839 00bc 3d9e 5abc 6f2f 1abb
000003d0: 6a32 33bc d595 553b 13b7 eeba e30d 9d3c
000003e0: 1592 633c 2d14 debb 5d05 8cbb b445 82bc
000003f0: 6d65 55bc e1df 9ebc 44d5 38bc ced5 64ba
-0.024209231 0.0033168627 -0.0059658596 0.02224856 -0.014869006 0.03288772 -0.004624434 -0.012131123
0.018112732 0.046493303 0.004670198 0.01784567 -0.0152402865 0.0029404953 0.0013444908 0.04166092
0.005123236 0.026366286 0.016842172 -4.469184e-06 0.0136500355 0.004792597 0.03378555 -0.025103813
-0.03310342 0.010477097 0.0016301824 -0.010329076 0.010759075 0.003799627 0.005931059 0.0319759
0.037374996 0.0089725265 0.030561853 -0.0043377173 0.00509279 0.007548609 -0.0041783988 0.008179919
-0.011768504 -0.0067272866 0.00084830186 -0.008498719 -0.012587553 -0.009183745 0.023710912 -0.0071022958
0.024941223 -0.009306664 0.0104117775 -0.0043751877 -0.018690115 -0.01104056 -0.013727582 0.032357994
0.015523237 -0.009362088 -0.01514649 0.010005581 0.00784568 0.0006304852 -0.005497317 -0.022458231
-0.012437579 -0.0147770075 -0.026363797 0.0045095696 -0.0010308805 0.025959352 0.0012557242 0.005795611
0.020495052 0.046438046 0.012525873 0.035729326 0.033967394 -0.012801424 0.00039214658 0.0102741495
-0.00062242453 0.03314983 -0.030397937 0.001027463 -0.005619869 0.0054837046 0.03807237 0.0040708445
0.009533421 -0.012266052 -0.0010999697 0.015789889 -0.004239781 -0.00036925005 0.000999612 0.052996222
0.02596869 0.010353426 0.02929678 0.012762168 0.03529744 0.035574503 0.015039869 -0.025723265
0.0071983268 0.0009178674 0.035347756 0.027300335 0.015908761 0.038900413 -0.005388382 -0.004602677
0.021971136 -0.014329241 -0.022051007 -0.0047128736 0.014288607 -0.0071675894 -0.021158308 0.024211828
-0.0058955373 -0.021063859 0.018928304 0.011118266 0.004914373 0.023821784 -0.012270261 0.01638962
0.97286844 1.0282345 0.98810136 1.0076816 0.9793707 1.0146291 1.0192634 1.0230154
1.0177476 0.96215594 1.0051014 1.0068883 1.0296638 0.981721 1.036123 1.0044806
0.98635244 0.9874778 1.001936 0.9807096 1.0092824 0.96213865 0.97760844 0.9821271
0.9781664 0.9901236 1.0016986 0.9878091 1.0026379 1.013288 0.9911489 0.9828779
0.99165297 0.9730351 0.972243 0.98890555 0.9948651 0.9737701 0.9908314 1.0095962
0.97711945 1.0201365 1.0102028 1.0522835 0.9900978 0.9795148 1.0061036 0.9892091
0.97163534 0.9714249 1.0009855 0.9793339 1.0119658 1.0015079 0.98826194 1.0181266
1.013923 0.97989047 1.0222104 0.9758828 1.0163704 0.9998076 0.98680836 0.9872854
-0.013348073 -0.010235516 -0.00316872 -0.017287498 -0.015252183 -0.0035599833 -0.018506972 0.02006368
-0.012788694 0.0057320558 -0.017568499 0.0068858387 0.006780644 0.010737048 -0.014773908 0.026963623
0.005426944 -0.002328335 0.01774132 -0.008848595 0.019542953 -0.009965256 -0.011906647 -0.001724557
0.012173397 0.0055009443 -0.011783801 -0.008428111 -0.020476623 -0.009194781 -0.0039908444 -0.0037120613
0.009109687 0.0033981698 -0.013630525 0.02469269 -0.0063225823 0.0050163185 0.0016629617 -0.013029085
-0.011688145 -0.004167696 -0.010320357 0.016196907 -0.001878177 -0.00835432 0.027381591 -0.005686967
-0.0016196439 -0.007826202 -0.013343391 -0.0023526808 -0.010937313 0.0032590528 -0.0018212519 0.01917166
0.013889809 -0.0067773075 -0.0042731003 -0.015902378 -0.01302467 -0.019393863 -0.011281315 -0.0008729369
