code/selfparking/mla/results/run_08/Car/Car-2499903.onnx (onnx, 712368 bytes, 10 tensors)

network_body._body_endoder.seq_layers.0.weight f4 [256, 111]
-0.0018915428 0.14136316 -0.043012008 -0.09033612 -0.07824911 -0.021370968 0.0472996 0.038676735
0.18049563 -0.14241849 -0.08086115 0.027398944 0.10067377 0.0037046412 -0.049124137 -0.0507097
0.043232378 -0.014377158 -0.22524513 -0.027061243 -0.09472297 -0.08245119 -0.010209864 0.17397715
0.006800229 -0.05556185 0.014864824 0.03400772 -0.007257451 -0.13527405 0.26049992 0.018322835
-0.05237251 -0.030417517 0.024413858 -0.00474536 0.13665101 0.037356287 0.0574903 0.01181286
0.21301161 0.0481386 0.06954232 0.019684924 -0.009687716 -0.07371193 -0.11638198 0.10736331
-0.11430136 0.042484142 0.010823391 -0.10012333 0.059966847 -0.29050595 0.05995479 -0.013486076
0.15032777 0.0066585126 0.0041919597 -0.052066777 -0.11121786 -0.09802295 -0.09673961 0.06413748
0.2181458 -0.18282193 0.10306407 -0.03019904 0.0927708 0.13175644 0.039963655 -0.019874658
-0.05546943 -0.08107362 -0.12308911 0.100175984 -0.12255078 0.09434416 0.057574425 -0.0890322
-0.000649547 -0.062198766 -0.16683133 0.16203395 0.06195653 0.07729118 0.078930706 0.057423636
0.18172228 0.07402407 0.0045771794 -0.06614698 -0.1157933 0.0138496775 0.012600918 -0.21329345
-0.08195049 0.01293222 0.009091386 0.23522602 0.24616674 -0.18220368 -0.092751645 0.17480262
-0.21676014 -0.09335593 -0.0800723 -0.10019616 -0.001198215 0.033115856 0.34404472 0.05461032
-0.12760238 -0.1871018 0.005712766 0.03966735 0.020295233 0.043727454 0.037925642 0.099260025
-0.015337687 -0.10131375 0.033054158 0.022196027 -0.07080375 -0.1396181 -0.08510207 -0.17150049
-0.010926764 0.17149597 -0.087575726 0.013957319 0.04902677 -0.0800878 -0.032646094 -0.15160753
0.0054390216 0.011725473 -0.18462814 -0.15213807 -0.120856695 0.3275931 0.09071776 -0.07857348
-0.106984906 0.018366255 0.034329124 0.08434605 -0.11947999 0.023083065 -0.031805847 -0.09174965
0.111921005 0.013220779 0.0010689432 0.010340192 -0.02411409 -0.09224967 -0.05805218 -0.23599753
0.006321922 0.028138168 0.11434074 -0.012071731 0.08039345 0.0047453884 -0.17432058 0.047709614
0.07554942 0.030082833 0.10228124 0.03049901 -0.109519534 -0.02330404 -0.05957177 0.08529577
-0.08934337 0.10502707 -0.033454504 -0.13341367 -0.090815544 -0.0065387315 0.07848767 0.052713636
0.09341141 0.0408117 0.04171286 0.18584888 -0.01769832 -0.06191103 0.021544702 0.042173512
-0.06945869 -0.04169142 0.014992941 0.012849055 0.04178878 -0.11714439 0.009495096 0.089765556
-0.041207984 -0.06392342 0.049641322 0.03378915 -0.11384008 0.017707834 -0.0045924094 0.084276386
0.04897034 -0.20951134 -0.098541036 0.19360632 0.06992713 0.17276515 0.17858014 -0.044475373
0.095783785 -0.20352226 0.13244548 0.0094963135 0.028808288 0.33812162 -0.039871518 0.15364854
-0.0021824602 -0.06556652 -0.055905443 0.014775422 0.24291474 0.11038759 0.087495334 -0.005204398
0.050535943 0.048304595 0.2490045 0.05447352 0.033187423 0.2125438 -0.13805148 0.05299127
-0.062096745 -0.065507956 -0.17305435 -0.13578504 0.13225684 0.11074863 -0.14601181 0.090717174
0.029459417 0.00889992 0.120702766 0.068117745 0.04959916 -0.077744365 -0.03855652 -0.011060174
00000000: a5ed f7ba 81c1 103e 5c2d 30bd 2502 b9bd
00000010: 1241 a0bd 2b12 afbc 3abd 413d 7f6b 1e3d
00000020: d9d3 383e 27d6 11be 889a a5bd c073 e03c
00000030: 0d2e ce3d 91c9 723b 6436 49bd f9b4 4fbd
00000040: 6f14 313d 2c8e 6bbc a9a6 66be 8aaf ddbc
00000050: 1efe c1bd 2bdc a8bd 4647 27bc 1127 323e
00000060: 75d4 de3b d394 63bd 978b 733c ae4b 0b3d
00000070: e9cf edbb 4885 0abe 3f60 853e c519 963c
00000080: 8f84 56bd 282e f9bc 92ff c73c f77e 9bbb
00000090: 3eee 0b3e e802 193d f37a 6b3d ba8a 413c
000000a0: b71f 5a3e fb2c 453d 346c 8e3d 4742 a13c
000000b0: 3ab9 1ebc 48f6 96bd ad59 eebd 4ce1 db3d
000000c0: d516 eabd da03 2e3d 9854 313c 760d cdbd
000000d0: cc9f 753d 32bd 94be 2793 753d b4f4 5cbc
000000e0: 86ef 193e a72f da3b b55c 893b f943 55bd
000000f0: 30c6 e3bd 42c0 c8bd 6b1f c6bd 835a 833d
00000100: 9d61 5f3e ac35 3bbe 4113 d33d fa63 f7bc
00000110: 9efe bd3d 29eb 063e eeb0 233d 2ed0 a2bc
00000120: ea33 63bd ed09 a6bd 2516 fcbd 1129 cd3d
00000130: e7fb fabd 8337 c13d 29d3 6b3d 8456 b6bd
00000140: 5c46 2aba 22c4 7ebd d5d5 2abe 3aec 253e
00000150: 21c6 7d3d d74a 9e3d 6ca6 a13d 0c35 6b3d
00000160: 6815 3a3e ee99 973d 2afc 953b 1178 87bd
00000170: 0a25 edbd c2e9 623c 1574 4e3c 9969 5abe
00000180: a9d5 a7bd a9e1 533c 09f4 143c 17df 703e
00000190: 2213 7c3e 9a93 3abe 93f4 bdbd 75ff 323e
000001a0: 5ff6 5dbe 6531 bfbd f2fc a3bd a533 cdbd
000001b0: 6c0d 9dba 7ea4 073d a126 b03e 12af 5f3d
000001c0: 33aa 02be 9d97 3fbe 2832 bb3b 3b7a 223d
000001d0: 3042 a63c 8f1b 333d eb57 1b3d d748 cb3d
000001e0: ec4a 7bbc 957d cfbd cc63 073d 71d4 b53c
000001f0: 8e01 91bd 0cf8 0ebe fe49 aebd d39d 2fbe
00000200: 2c06 33bc a49c 2f3e e75a b3bd 3dad 643c
00000210: 4bd0 483d 1305 a4bd e9b7 05bd 013f 1bbe
00000220: d239 b23b 331c 403c 290f 3dbe 15ca 1bbe
00000230: b783 f7bd 48ba a73e 3cca b93d 22eb a0bd
00000240: e71a dbbd d474 963c b29c 0c3d 9fbd ac3d
00000250: edb1 f4bd b218 bd3c d946 02bd 3ee7 bbbd
00000260: d736 e53d f79b 583c c81b 8c3a e969 293c
00000270: e98a c5bc 65ed bcbd 1fc8 6dbd 56a9 71be
00000280: 2028 cf3b 0482 e63c 7a2b ea3d 82c8 45bc
00000290: 52a5 a43d 347f 9b3b 1881 32be 286b 433d
000002a0: a8b9 9a3d 4670 f63c d478 d13d 0fd9 f93c
000002b0: c74b e0bd 1de8 bebc 8701 74bd 8caf ae3d
000002c0: a8f9 b6bd 6f18 d73d 9707 09bd 989d 08be
000002d0: 80fd b9bd db42 d6bb 25be a03d 41ea 573d
000002e0: 7b4e bf3d 2b2a 273d 1bdb 2a3d 2b4f 3e3e
000002f0: 11fc 90bc 6c96 7dbd 847e b03c 22be 2c3d
00000300: 5c40 8ebd 9fc4 2abd f4a4 753c d884 523c
00000310: b62a 2b3d 66e9 efbd 5291 1b3c 01d7 b73d
00000320: b4c9 28bd 48ea 82bd b354 4b3d 7e66 0a3d
00000330: fd24 e9bd 0510 913c ec7b 96bb 1999 ac3d
00000340: 2095 483d 248a 56be e2cf c9bd bc40 463e
00000350: f535 8f3d 59e9 303e b6dd 363e cf2b 36bd
00000360: 4a2a c43d 2468 50be ca9f 073e 6d96 1b3c
00000370: 5cff eb3c 471e ad3e 5150 23bd 0b56 1d3e
00000380: 9b07 0fbb bd47 86bd 1bfd 64bd 9d14 723c
00000390: a4be 783e e412 e23d c130 b33d a889 aabb
000003a0: c7fe 4e3d 0adb 453d 09fb 7e3e a01f 5f3d
000003b0: 89ef 073d 15a5 593e 5e5d 0dbe 600d 593d
000003c0: 2859 7ebd 0929 86bd 2935 31be 3c0b 0bbe
000003d0: 566e 073e 2dd0 e23d 1f84 15be edc9 b93d
000003e0: e054 f13c f8d0 113c 0333 f73d 5181 8b3d
000003f0: 7d28 4b3d 7038 9fbd 71ed 1dbd bb35 35bc

network_body._body_endoder.seq_layers.0.bias f4 [256]
0.000471022 0.009329772 0.0071379254 0.002680394 0.00047438598 -0.0067305686 0.008811212 -0.0069575394
-0.0026703032 0.013010753 -0.00075644604 -0.010185247 0.016412826 -0.010526646 0.021979671 -0.012916622
-0.014398023 0.0031107818 -0.016953316 -0.020308785 0.009398436 0.0004335096 0.0117453635 0.003894944
-0.029942077 -0.014889031 0.00557525 -0.0035472102 -0.0065322416 -0.009355767 -0.005713081 -0.010187272
-0.003928927 -0.01920774 0.01503284 -0.0057706274 -0.02819929 -0.012297944 0.018594822 -0.0046127113
-0.008793123 -0.0010046185 -0.008864543 0.012200119 -0.01128703 -0.023995833 -0.020813707 -0.00024179276
0.010222729 -0.012680824 0.004084378 0.0004573401 -0.006145338 0.00727252 0.0069012074 -0.022166077
0.007828033 -0.024653811 -0.021124363 -0.002609454 -0.028489415 -0.02305632 -0.020153781 0.015965506
-0.007782038 -0.012495434 -0.013152665 -0.0050925207 -0.017522005 0.02085453 -0.004797744 0.009738714
0.0063786954 -0.0055112634 -0.0014744289 -0.0052103456 -0.008023449 0.017860718 -0.003359866 -0.000522158
-0.0054175747 0.007075271 -0.016515816 -0.019278252 0.011892623 -0.0064048856 -0.029942967 -0.0031272692
0.011970711 -0.0057883016 0.019307785 -0.017841399 -0.006230091 -0.011887823 -0.030800035 -0.013326173
0.0059969993 -0.01958816 0.0044498583 -0.002920491 -0.017938424 -0.015926935 0.011591704 -0.005927868
0.0054628337 0.008252297 -0.00500821 0.0013810024 -0.009043101 -0.0039323587 0.020770587 0.0102087725
0.00044979365 -0.0011022649 -0.013265268 0.001537099 -0.0026779086 -0.017452294 0.03223026 -0.0027110148
-0.031873584 -0.00036819145 0.0118418345 0.0045698863 0.007882175 0.008404068 0.0063629034 0.0064054136
-0.0074473755 0.0015777928 0.025949452 -0.0013324675 0.012881863 -0.016179904 -0.009533922 0.018001257
-0.009011305 0.0064611267 0.002096159 -0.009931079 0.004093482 0.004763112 -0.001025445 -0.008814593
-0.0058448426 -0.0026576454 -0.001734219 -0.013214579 -0.016856456 -0.0027152982 0.019472234 -8.054942e-05
-0.017815711 0.003384787 -0.009393829 -0.0018590107 -0.011093684 -0.021928005 -0.018365651 0.009115849
0.014015974 -0.004570476 -0.023250185 0.00037391883 -0.018352343 0.008145995 0.0050410144 0.02376871
0.008423799 0.02132551 -0.009014653 0.002042822 -0.018037792 -0.010573118 0.0011999119 0.009116292
-0.011277382 -0.0016599975 -0.00080833246 -0.010513418 0.0017905666 0.029148087 0.026006816 -0.0012201589
0.0073949187 -0.013744289 -0.0019154573 -0.021372864 0.0017757674 0.0246416 -0.0052576815 0.0053664465
-0.0057015633 -0.0022239233 -0.011492085 -0.02287482 0.00093111664 0.016767103 0.004658158 -0.0062110457
0.04063284 0.013692166 0.009012419 -0.001591503 -0.018223736 0.003822002 -0.005465378 -0.005935008
-0.0122362105 0.023453075 0.009767899 -0.007414762 -0.0120221265 0.0041567865 -0.0071503925 0.005051074
-0.01537199 0.023177242 -0.022487871 -0.017257392 0.0008636458 0.009140791 0.00023321528 -0.0019335062
-0.011961592 0.0007441068 -0.0159092 0.00016892998 -0.00092688965 -0.044888288 -0.0012433482 -0.0015651811
0.0042879917 0.002304939 -0.020754976 0.0025834057 -0.0017263393 0.02238328 0.012742816 -0.0148549415
-0.0067635076 0.0023328604 0.0002608913 -0.010334753 -0.016043287 0.007828276 -0.016122872 -0.02229585
-0.009579935 0.0039546527 0.005746818 -0.021881258 0.007161734 -0.005804389 0.0159094 0.039442446
00000000: 81f3 f639 e6db 183c 42e5 e93b 8da9 2f3b
00000010: 02b7 f839 1a8c dcbb e75c 103c 12fc e3bb
00000020: 4100 2fbb 0e2b 553c 3c4c 46ba 06e0 26bc
00000030: 3174 863c f477 2cbc b60e b43c 3da0 53bc
00000040: afe5 6bbc 42de 4b3b aee1 8abc 9c5e a6bc
00000050: e6fb 193c ac48 e339 a06f 403c 5142 7f3b
00000060: 1649 f5bc 1ff1 73bc 96b0 b63b 5078 68bb
00000070: 6a0c d6bb ee48 19bc cc34 bbbb 84e8 26bc
00000080: 3abe 80bb 8d59 9dbc 4d4c 763c 8817 bdbb
00000090: 3302 e7bc 517d 49bc 2b54 983c 3a26 97bb
000000a0: 0811 10bc 67ad 83ba 973c 11bc 02e3 473c
000000b0: 3ced 38bc e992 c4bc 8281 aabc c089 7db9
000000c0: 3c7d 273c 3bc3 4fbc 3fd6 853b 26c7 ef39
000000d0: d55e c9bb 524e ee3b 8623 e23b a295 b5bc
000000e0: 2641 003c caf6 c9bc 000d adbc 6003 2bbb
000000f0: a262 e9bc 9ce0 bcbc 8b19 a5bc 18ca 823c
00000100: 7700 ffbb a6b9 4cbc 477e 57bc 29df a6bb
00000110: 4f8a 8fbc 1fd7 aa3c 6536 9dbb 218f 1f3c
00000120: 6004 d13b d497 b4bb a041 c1ba 8cbb aabb
00000130: c974 03bc a450 923c 3331 5cbb 6ee1 08ba
00000140: e985 b1bb add7 e73b 2d4c 87bc 6ded 9dbc
00000150: 47d9 423c 13e0 d1bb f44a f5bc dff2 4cbb
00000160: cd20 443c cbab bdbb 5c2b 9e3c 2028 92bc
00000170: cb25 ccbb 25c5 42bc 5b50 fcbc 0556 5abc
00000180: 7a82 c43b 5977 a0bc 1ed0 913b b565 3fbb
00000190: 9af3 92bc 3479 82bc 21eb 3d3c 903e c2bb
000001a0: 9201 b33b a434 073c e91b a4bb c002 b53a
000001b0: 8429 14bc 04db 80bb 1427 aa3c b242 273c
000001c0: 48d2 eb39 df79 90ba 9156 59bc 7c78 c93a
000001d0: da7f 2fbb 1df8 8ebc e103 043d 48ab 31bb
000001e0: e08d 02bd d209 c1b9 4104 423c fcbe 953b
000001f0: 3d24 013c 37b1 093c e77f d03b 81e4 d13b
00000200: 1d09 f4bb f1cd ce3a f293 d43c 31a6 aeba
00000210: 730e 533c b88b 84bc 2b34 1cbc 5f77 933c
00000220: 27a4 13bc dcb7 d33b b65f 093b f7b5 22bc
00000230: 9e22 863b e113 9c3b 3968 86ba 156b 10bc
00000240: 1886 bfbb e42b 2ebb bc4e e3ba f681 58bc
00000250: 8d16 8abc 25f3 31bb 3c84 9f3c a4ec a8b8
00000260: 41f2 91bc 4dd3 5d3b 93e8 19bc 0caa f3ba
00000270: 48c2 35bc 5ca2 b3bc 9073 96bc a45a 153c
00000280: 41a3 653c eec3 95bb 2c77 bebc 890a c439
00000290: a757 96bc c876 053c 182f a53b 99b6 c23c
000002a0: f903 0a3c d6b2 ae3c 32b2 13bc dee0 053b
000002b0: fec3 93bc df3a 2dbc 5d46 9d3a 805c 153c
000002c0: c5c4 38bc 4694 d9ba 46e6 53ba 7940 2cbc
000002d0: 72b1 ea3a f8c7 ee3c 3f0c d53c bded 9fba
000002e0: 1351 f23b ba2f 61bc 1510 fbba 2516 afbc
000002f0: dec0 e83a 2edd c93c a148 acbb 04d9 af3b
00000300: 2ed4 babb 3ebf 11bb 4c49 3cbc f963 bbbc
00000310: 2e16 743a 2a5b 893c 76a3 983b 0786 cbbb
00000320: 9f6e 263d 1b55 603c d3a8 133c fb99 d0ba
00000330: f249 95bc 8e7a 7a3b ea16 b3bb 757a c2bb
00000340: 637a 48bc aa20 c03c 8a09 203c 88f7 f2bb
00000350: 74f8 44bc a735 883b d74d eabb 7b83 a53b
00000360: cdda 7bbc 33de bd3c 7c38 b8bc 605f 8dbc
00000370: 4a66 623a 42c3 153c 408b 7439 b46d fdba
00000380: 8efa 43bc 2910 433a 0354 82bc cc22 3139
00000390: 83fa 72ba c8dc 37bd d8f7 a2ba c326 cdba
000003a0: 4882 8c3b 760e 173b 5706 aabc 5b4e 293b
000003b0: 5646 e2ba 245d b73c 3ec7 503c 2462 73bc
000003c0: 6aa0 ddbb e7e2 183b 3dc8 8839 1953 29bc
000003d0: 366d 83bc 2b42 003c 1d14 84bc c9a5 b6bc
000003e0: 29f5 1cbc 0896 813b ce4f bc3b 5340 b3bc
000003f0: fbac ea3b be32 bebb 6e54 823c 678e 213d

network_body._body_endoder.seq_layers.2.weight f4 [256, 256]
2.3237604e-05 -0.027615635 -0.1049324 -0.00390952 0.056113362 -0.0752534 -0.012487074 0.053548694
-0.020808814 0.030589212 0.047344796 0.0038832398 0.043788347 0.038434587 -0.09234004 0.028343307
0.022379212 0.0062111905 0.010433558 0.020246249 -0.07458318 0.09149648 0.062089033 0.081472896
-0.02555341 0.000633044 0.02663294 -0.02638254 0.00016165897 -0.1485066 0.040112317 -0.07147848
-0.0042254757 0.06650121 -0.0981482 -0.006362824 0.08096673 -0.09090828 -0.100526825 0.06544738
0.039420694 0.027413346 -0.010455481 -0.058803834 0.016330037 -0.14933068 0.0041861767 0.018308125
0.014939702 0.11199661 0.031932015 -0.01854569 0.036853295 -0.017933723 -0.031585008 -0.034672752
0.06586557 -0.0058221132 -0.023718722 0.015340721 0.059420228 -0.11955081 0.041245174 0.029338185
0.0034091654 0.006677612 0.06435735 0.015579699 0.029307257 0.09452651 0.01636123 0.044920903
0.0031352502 -0.1235344 0.047035143 -0.13209775 -0.013378809 0.1671523 -0.06446132 -0.030448686
0.049761686 0.08174084 -0.054841354 -0.042418472 0.009582793 0.07420501 -0.083996676 0.06859195
0.06536548 0.016967455 0.0276972 -0.044995002 0.025551166 -0.04601497 -0.02824854 0.08234285
0.18884368 0.02650144 0.1148386 0.008509082 0.029041925 -0.027851658 -0.027956989 -0.03103507
-0.04392332 -0.06791746 -0.03490079 0.023447216 0.10699695 0.01772795 0.10729428 0.038044903
0.0051655034 0.045562807 0.060252707 0.048115667 0.03931576 0.07786973 0.012323182 -0.06858888
0.005655176 -0.0019248963 -0.009869984 -0.043786157 -0.01838968 0.006748428 0.15355645 0.019451007
0.00507542 0.046249688 0.038764104 -0.044359658 0.03884772 -0.06645716 -0.014586035 0.007429303
0.113530025 -0.061441716 0.034561675 -0.045562074 -0.009194587 0.011114762 -0.022193348 -0.0685958
0.0060839094 -0.046659 -0.12705183 -0.09930828 0.018472865 -0.03243408 -0.01551036 -0.10881045
0.04644125 -0.059167687 -0.058050077 -0.038340718 0.0009496464 0.06481864 0.001211767 -0.06326782
0.004396892 0.070305236 -0.0052128946 -0.09315407 -0.15212636 -0.013532141 -0.08884966 -0.022625497
-0.048013907 0.081991345 -0.024100222 -0.028092382 -0.016571356 -0.022128498 -0.06956426 -0.011455561
0.05975537 -0.08202992 0.08220451 0.01546365 0.058768973 -0.047828276 0.01694901 -0.019203544
-0.095311716 -0.053800017 -0.10950925 0.025247028 0.12246405 0.14017417 -0.082818925 0.0920181
0.031390876 0.053216927 -0.06261469 0.058653377 -0.08634907 -0.051448505 -0.056265768 0.0351571
0.046224892 -0.03076772 -0.0014687338 0.0106746815 0.053534385 0.040540405 -0.020782571 -0.016869444
-0.044007186 0.11009715 -0.0023379456 0.1294844 -0.04716506 0.0090468945 -0.07067527 -0.01579918
0.015846044 0.046424817 -0.08516631 -0.068752155 -0.089492686 -0.039200563 0.031562015 -0.06177047
-0.03979079 0.0060376762 -0.032419946 -0.0737435 -0.055367094 0.016068697 0.030909805 -0.16206843
-0.06656509 0.10228163 0.124286674 -0.04911434 -0.08821872 0.040015105 0.0778458 0.014911439
0.04836354 0.12132646 0.041089356 0.013109187 -0.009428075 -0.10078209 0.07044722 0.08831217
-0.14500757 -0.002103298 -0.13789682 -0.05237829 0.043752626 -0.08948047 -0.011410681 0.0853401
00000000: 60ee c237 2f3a e2bc cce6 d6bd 6e1b 80bb
00000010: 20d7 653d 741e 9abd 9696 4cbc e055 5b3d
00000020: 3f77 aabc 3a96 fa3c 9eec 413d f47d 7e3b
00000030: 695b 333d 966d 1d3d c61c bdbd 3930 e83c
00000040: 9c54 b73c 3e87 cb3b 84f1 2a3c 76db a53c
00000050: 11bf 98bd 8262 bb3d 1251 7e3d 43db a63d
00000060: 6355 d1bc ddf2 253a 532d da3c 3220 d8bc
00000070: 0083 2939 1d12 18be d04c 243d 4f63 92bd
00000080: dc75 8abb c931 883d ec01 c9bd 3c7f d0bb
00000090: e3d1 a53d 1f2e babd 02e1 cdbd 4709 863d
000000a0: 9877 213d f491 e03c 774d 2bbc 4adc 70bd
000000b0: 92c6 853c 24ea 18be 322c 893b ecfa 953c
000000c0: a7c5 743c 7b5e e53d 25cb 023d 22ed 97bc
000000d0: 7bf3 163d bee9 92bc 485f 01bd 0405 0ebd
000000e0: 87e4 863d 6dc7 bebb c44d c2bc a657 7b3c
000000f0: a062 733d 0ed7 f4bd b3f0 283d a256 f03c
00000100: 4e6c 5f3b dfcf da3b c9cd 833d fe41 7f3c
00000110: c615 f03c 1d97 c13d fc07 863c fbfe 373d
00000120: c578 4d3b 9aff fcbd eca7 403d a244 07be
00000130: cb32 5bbc f929 2b3e 4c04 84bd 866f f9bc
00000140: e9d2 4b3d be67 a73d 54a1 60bd febe 2dbd
00000150: 2601 1d3c ccf8 973d 7306 acbd f079 8c3d
00000160: 56de 853d 55ff 8a3c 3de5 e23c ae4c 38bd
00000170: ae50 d13c 317a 3cbd 7b69 e7bc 5ea3 a83d
00000180: 3d60 413e 8c19 d93c 8030 eb3d ad69 0b3c
00000190: 55e9 ed3c 2929 e4bc 0e06 e5bc 423d febc
000001a0: f0e8 33bd 4f18 8bbd 21f4 0ebd 6014 c03c
000001b0: 3821 db3d 353a 913c 1abd db3d f9d4 1b3d
000001c0: 6243 a93b 11a0 3a3d 8bcb 763d ef14 453d
000001d0: 9009 213d 2a7a 9f3d 2ce7 493c 5478 8cbd
000001e0: 0e4f b93b cd4c fcba b7b5 21bc 1d59 33bd
000001f0: f4a5 96bc eb21 dd3b e73d 1d3e b857 9f3c
00000200: b54f a63b 5070 3d3d 1cc7 1e3d 79b2 35bd
00000210: c91e 1f3d b11a 88bd 44fa 6ebc 8371 f33b
00000220: 6e82 e83d 4faa 7bbd 8b90 0d3d 4c9f 3abd
00000230: e5a4 16bc b11a 363c d3ce b5bc f47b 8cbd
00000240: 885b c73b 821d 3fbd e019 02be 2462 cbbd
00000250: 6854 973c 99d9 04bd 2a1f 7ebc 03d8 debd
00000260: 2e39 3e3d d159 72bd ebc5 6dbd 280b 1dbd
00000270: b1f1 783a a3bf 843d 27d4 9e3a 8f92 81bd
00000280: ce13 903b 31fc 8f3d eed0 aabb 90c7 bebd
00000290: 03c7 1bbe eab5 5dbc cff6 b5bd 1b59 b9bc
000002a0: 3baa 44bd 14eb a73d d46d c5bc ff21 e6bc
000002b0: a7c0 87bc d346 b5bc b577 8ebd 1bb0 3bbc
000002c0: 0cc2 743d 4dff a7bd d75a a83d 405b 7d3c
000002d0: bcb7 703d 95e7 43bd a6d8 8a3c c050 9dbc
000002e0: ca32 c3bd 685d 5cbd 6346 e0bd dbd2 ce3c
000002f0: 6fce fa3d d189 0f3e f89c a9bd fc73 bc3d
00000300: b893 003d fef9 593d 213c 80bd 863e 703d
00000310: c8d7 b0bd abbb 52bd ef76 66bd e400 103d
00000320: 5056 3d3d 960c fcbc 8782 c0ba dce4 2e3c
00000330: df46 5b3d b20d 263d 3640 aabc ca31 8abc
00000340: e140 34bd 9d7a e13d 3838 19bb 8f97 043e
00000350: 2630 41bd 6d39 143c 32be 90bd 486d 81bc
00000360: 90cf 813c f327 3e3d ad6b aebd eecd 8cbd
00000370: f147 b7bd c590 20bd 2c47 013d 0803 7dbd
00000380: abfb 22bd b3d7 c53b c7ca 04bd d506 97bd
00000390: 9bc8 62bd 80a2 833c 8f36 fd3c 44f5 25be
000003a0: 4753 88bd 0879 d13d 038a fe3d 1e2c 49bd
000003b0: 04ac b4bd e1e6 233d 9e6d 9f3d 1c4f 743c
000003c0: d918 463d 027a f83d 504d 283d eac7 563c
000003d0: 3678 1abc d766 cebd a246 903d 03dd b43d
000003e0: dd7c 14be 7cd7 09bb d334 0dbe 9e8a 56bd
000003f0: f435 333d 8941 b7bd ddf3 3abc cac6 ae3d

network_body._body_endoder.seq_layers.2.bias f4 [256]
0.006039139 0.003009108 -0.012459137 -0.006438423 0.0071708537 -0.0043391823 0.0032709683 0.008451839
8.766484e-05 0.0060232733 -0.0013215921 -0.0011490334 0.012499785 -0.005700596 0.00430927 -0.021852586
-0.010565561 -0.0015825578 -0.0024121855 -0.008405979 0.021927968 0.0044409796 0.012445315 0.0200222
-0.0049879625 0.013064813 0.0059139393 -0.0057142633 0.008369074 0.0023988616 0.005575437 -0.009273285
-0.012098669 -4.0036044e-05 -0.0017701848 -0.00063742296 -0.0013294701 -0.0010176902 0.0014072416 0.0036777384
0.0035468633 -0.007601655 0.012622982 -0.018206604 -0.0039394535 -0.011197941 0.015075826 0.0054852166
-0.0029228507 0.006690088 -0.008277652 0.016653424 -0.0064117853 -0.000449318 -0.013478421 0.013226688
0.0047030402 0.006846243 0.00012746954 0.0029634875 0.0061895866 0.017250275 0.003686192 0.0076389643
-0.0011871053 0.0047290083 0.013231999 0.0020913265 0.013628789 -0.0050063143 0.008274316 0.0014658608
0.012390141 0.0032379397 0.004848897 -0.0065289005 0.00040355674 -0.0025218232 0.027329098 -0.0038323512
-0.0103299655 0.017415363 -0.0027802307 0.002547123 -0.0075761615 -0.010561098 0.0038235113 0.002898911
0.007855597 -3.651472e-06 -0.009578014 -0.006701394 0.008624129 0.002909422 0.005351018 0.00944562
0.017954292 -0.010360047 0.0077344454 -0.009659662 0.012486534 -0.000629373 0.009731407 0.0069224862
-0.0045840153 0.0014793884 -0.0012308019 0.0028473842 0.013768615 -0.0050017564 0.016049754 -0.00096854
-0.006906351 0.00038012702 -0.00658026 0.0025855396 0.008084345 -0.0062018884 -0.0059880256 -0.00149277
0.017082611 -0.009350799 0.0071564005 0.016806431 0.016384663 0.014411566 -0.010003849 0.003230944
0.015465907 0.014957518 -0.01390755 -0.0067966515 0.011285706 0.00051315833 0.006999088 -0.00394833
-0.00325944 0.016748477 -0.00059207785 -0.0035319184 0.02990527 0.0018328399 0.012032704 0.012913332
-0.0020377808 -0.010193611 -0.009179208 0.0033857906 -0.001238511 0.009569283 -0.00041937258 0.007715815
0.008989249 -0.014274427 0.008399262 0.0055674957 0.00068191875 -0.014859166 0.0025172678 -0.005359895
-0.01020539 -0.012282 -0.0006757659 -1.2209919e-05 0.0020924667 0.031242013 -0.0019248944 -1.0174641e-05
0.010397093 -0.019928144 0.011093883 0.012023635 -0.001913541 -0.0033244505 -0.0020728714 -0.0114712985
0.0032554946 -0.0070163235 0.0001927461 0.0066771675 0.0043469584 -0.0009357271 -0.0068113822 -0.013900234
0.011503167 0.008549081 0.004510081 0.014655347 -0.003590838 0.015770765 -0.011217228 0.008336949
-0.00829852 -0.009758088 0.015252488 0.021384813 0.014528594 0.010106001 -0.0040951706 -0.007151915
-0.00555098 0.001619615 -0.016006669 -0.020572389 0.01399075 0.0034636525 -0.0068420386 -0.007998143
0.0036783768 -0.010935219 -0.0069549507 -0.0015910638 -0.006467717 0.016142732 -0.011366783 0.005474552
0.01785375 -0.002829992 -0.010425137 -0.0004646307 0.0011482553 -0.0069524194 -0.002211025 -0.008401914
-0.0145550035 -0.011700707 -0.00072336517 0.018309016 0.007436821 0.0028694877 0.002108231 -0.003462176
-0.0049339966 -0.013799922 -0.012575239 0.0050847395 -0.0026239161 0.011672311 0.0028978982 0.008279599
-0.016689627 -0.014009714 -0.0026429556 -0.010694533 0.009699337 0.010368434 -0.0024393662 0.0044434792
-0.01588479 -0.0028459614 0.0022746213 -0.019137604 -0.0018118777 0.0093301665 -8.603897e-05 0.01274028
00000000: f8e3 c53b 7434 453b 6821 4cbc 68f9 d2bb
00000010: 7bf9 ea3b b32f 8ebb be5d 563b 9579 0a3c
00000020: b4d8 b738 e15e c53b 4639 adba 2a9b 96ba
00000030: e6cb 4c3c 11cc babb c734 8d3b 3204 b3bc
00000040: 2d1b 2dbc d46d cfba c215 1ebb 3bb9 09bc
00000050: 48a2 b33c a385 913b 6fe7 4b3c 9905 a43c
00000060: 1072 a3bb cc0d 563c b8c9 c13b b73e bbbb
00000070: 711e 093c 3836 1d3b 28b2 b63b faee 17bc
00000080: 7f39 46bc 60ec 27b8 8c05 e8ba bb18 27ba
00000090: 9d41 aeba 0464 85ba 3173 b83a 3606 713b
000000a0: 7e72 683b 4e17 f9bb a0d0 4e3c 0426 95bc
000000b0: 8816 81bb 9277 37bc 9900 773c 55bd b33b
000000c0: 4c8d 3fbb 8738 db3b fd9e 07bc c36c 883c
000000d0: f419 d2bb 7192 ebb9 98d4 5cbc c0b4 583c
000000e0: f61b 9a3b 7356 e03b 58a9 0539 1237 423b
000000f0: 04d2 ca3b 7350 8d3c 0a94 713b 4750 fa3b
00000100: a598 9bba ccf5 9a3b 07cb 583c a30e 093b
00000110: 494b 5f3c 020c a4bb ff90 073c 2022 c03a
00000120: 0500 4b3c 9d33 543b 7fe3 9e3b 63f0 d5bb
00000130: 7894 d339 2c45 25bb 46e1 df3c 2f28 7bbb
00000140: 043f 29bc aaaa 8e3c 8834 36bb a2ed 263b
00000150: 7341 f8bb 7508 2dbc e093 7a3b a8fb 3d3b
00000160: c3b4 003c d00b 75b6 1aed 1cbc 5e97 dbbb
00000170: 384c 0d3c 00ac 3e3b 9857 af3b cdc1 1a3c
00000180: e114 933c 30bd 29bc 3b71 fd3b 8f43 1ebc
00000190: 5294 4c3c 82fc 24ba 7b70 1f3c 06d6 e23b
000001a0: 8235 96bb 0ae8 c13a dc52 a1ba 2e9b 3a3b
000001b0: c295 613c c6e5 a3bb c67a 833c 9ee5 7dba
000001c0: ac4e e2bb c94b c739 399f d7bb 2872 293b
000001d0: 3374 043c 3639 cbbb 3337 c4bb 0da9 c3ba
000001e0: d5f0 8b3c 1834 19bc 3d80 ea3b a4ad 893c
000001f0: 2139 863c 7d1e 6c3c 2fe7 23bc 3fbe 533b
00000200: b764 7d3c 6110 753c 7edc 63bc 72b6 debb
00000210: afe7 383c 7985 063a 9b58 e53b fe60 81bb
00000220: 549c 55bb 1a34 893c ac35 1bba c277 67bb
00000230: e6fb f43c e73b f03a d224 453c 7192 533c
00000240: 4a8c 05bb 1a03 27bc 6464 16bc 24e4 5d3b
00000250: 8855 a2ba 7bc8 1c3c 3cdf dbb9 f3d4 fc3b
00000260: a547 133c 49df 69bc 0f9d 093c 8a6f b63b
00000270: cbc2 323a dc73 73bc bff8 243b 0fa2 afbb
00000280: 8234 27bc 713a 49bc e225 31ba 34d9 4cb7
00000290: c421 093b 40ef ff3c bd4c fcba c0b3 2ab7
000002a0: 9258 2a3c 5940 a3bc 1ec3 353c c8fe 443c
000002b0: c8cf faba 06df 59bb 03d9 07bb 1df2 3bbc
000002c0: 235a 553b 30e9 e5bb e31b 4a39 24cc da3b
000002d0: ee70 8e3b 954b 75ba 0432 dfbb cfbd 63bc
000002e0: c877 3c3c 7211 0c3c 4dc9 933b fb1c 703c
000002f0: 4454 6bbb b131 813c 77c8 37bc b397 083c
00000300: 84f6 07bc 63e0 1fbc 92e5 793c 342f af3c
00000310: 5709 6e3c a493 253c c830 86bb 9d5a eabb
00000320: ffe4 b5bb 4349 d43a 6b20 83bc 6d87 a8bc
00000330: 7539 653c 72fe 623b 2e33 e0bb a50a 03bc
00000340: ec10 713b a229 33bc 5be6 e3bb 3e8b d0ba
00000350: 24ef d3bb c33d 843c be3b 3abc df63 b33b
00000360: 0742 923c 6377 39bb 32ce 2abc ad99 f3b9
00000370: 0e81 963a 1fd1 e3bb d8e6 10bb 2ea8 09bc
00000380: 1c78 6ebc 52b4 3fbc 37a0 3dba cafc 953c
00000390: 93b0 f33b 040e 3c3b 3f2a 0a3b ade5 62bb
000003a0: 5dad a1bb 1119 62bc 6008 4ebc e39d a63b
000003b0: 02f6 2bbb 393d 3f3c aaea 3d3b 28a7 073c
000003c0: afb8 88bc 0089 65bc 7035 2dbb 1f38 2fbc
000003d0: f8e9 1e3c 5de0 293c c6dd 1fbb 9b9a 913b
000003e0: d220 82bc 4f83 3abb d011 153b 77c6 9cbc
000003f0: 877c edba 8edd 183c d26f b4b8 9bbc 503c

action_model._continuous_distribution.log_sigma f4 [1, 2]
-0.0096185235 0.045422055
00000000: 0397 1dbc 7a0c 3a3d

action_model._continuous_distribution.mu.weight f4 [2, 64]
-0.011789681 0.034845553 0.005448857 0.017093 0.039386865 -0.07016672 0.07111899 -0.0214989
0.013070009 0.05884445 -0.037566 0.035077132 -0.0020628376 -0.03519372 -0.010739151 0.027942324
0.011702009 0.071123034 0.022485148 0.011140053 0.0015610507 0.036217198 0.056779202 -0.04687695
-0.011061288 0.004726986 0.0034442293 0.07987168 0.03348462 0.036368746 0.06294168 0.07483001
0.04134983 0.003867074 -0.05466655 -0.008213459 0.056546498 -0.07380995 -0.06091011 0.010884706
-0.007726484 0.02274314 0.043665804 -0.00079999666 -0.031372007 0.05319919 -0.015575151 -0.022218576
-0.07488173 -0.024841636 -0.006822093 -0.055850983 -0.010181647 -0.079240486 -0.0060263053 0.011557759
0.057609063 -0.011453579 0.01792914 -0.017680187 0.055300962 -0.070303015 -0.011826205 -0.019513955
0.0046825726 0.023128392 -0.024386669 0.030021595 0.042599007 0.056144137 0.047702085 0.001619146
0.050678477 0.054789953 0.032076146 -0.024419496 -0.06216899 0.029977378 -0.050628327 -0.026396276
-0.023347428 -0.010594057 0.009865208 0.0337246 0.022998411 0.035620768 0.042885542 0.004713239
-0.024216954 0.027306287 -0.0041398304 -0.0022809126 0.0012298453 0.030239837 -0.059728537 -0.0037329593
-0.031312037 -0.0522864 0.017296072 -0.058015294 -0.055161167 0.00842014 0.007735578 -0.012315076
0.026539303 -0.038482785 0.031149423 0.030253595 0.0044910214 -0.039297387 -0.044316955 0.045980208
-0.026363572 -0.0139207225 0.0072769057 -0.018588431 0.03676214 0.022460919 -0.006525719 -0.008396521
-0.041530438 0.023732994 -0.0059951586 0.012351179 0.0463554 0.006502036 -0.0031522498 -0.010005563
00000000: 8229 41bc 36ba 0e3d 538c b23b 9e06 8c3c
00000010: 1f54 213d 92b3 8fbd d5a6 913d 761e b0bc
00000020: 9723 563c e106 713d cede 19bd 0aad 0f3d
00000030: ac30 07bb 4a27 10bd 44f3 2fbc 4de7 e43c
00000040: c8b9 3f3c f4a8 913d c632 b83c c584 363c
00000050: 2b9c cc3a 7c58 143d 4f91 683d 0b02 40bd
00000060: 683a 35bc d5e4 9a3b 94b8 613b c393 a33d
00000070: 2b27 093d 65f7 143d 91e7 803d 7a40 993d
00000080: 705e 293d bc6e 7d3b 08ea 5fbd be91 06bc
00000090: 4d9d 673d ac29 97bd e17c 79bd c455 323c
000000a0: 722e fdbb d24f ba3c eada 323d deb6 51ba
000000b0: ef7f 00bd 65e7 593d eb2e 7fbc bb03 b6bc
000000c0: 985b 99bd b080 cbbc dd8b dfbb 00c4 64bd
000000d0: ecd0 26bc d648 a2bd 5078 c5bb c15c 3d3c
000000e0: 7bf7 6b3d cba7 3bbc 22e0 923c 0ad6 90bc
000000f0: 4383 623d 07fb 8fbd b3c2 41bc bbdb 9fbc
00000100: 4470 993b c177 bd3c 8dc6 c7bc d9ef f53c
00000110: 4c7c 2e3d 65f7 653d 4363 433d 8639 d43a
00000120: 3c94 4f3d 6e6b 603d 4762 033d 650b c8bc
00000130: e9a4 7ebd 1e93 f53c a65f 4fbd 013d d8bc
00000140: 1b43 bfbc b292 2dbc aea1 213c ce22 0a3d
00000150: 2a67 bc3c 15e7 113d c0a8 2f3d 8471 9a3b
00000160: a262 c6bc 6fb1 df3c 6aa7 87bb 5d7b 15bb
00000170: c332 a13a 89b9 f73c e9a5 74bd aaa4 74bb
00000180: 0d41 00bd 442a 56bd 7eb0 8d3c 72a1 6dbd
00000190: adf0 61bd a0f4 093c bb7a fd3b 2cc5 49bc
000001a0: f468 d93c 20a0 1dbd 132d ff3c 63d6 f73c
000001b0: 6b29 933b 4cf6 20bd b285 35bd be55 3c3d
000001c0: 6bf8 d7bc be13 64bc 1c73 ee3b c446 98bc
000001d0: e693 163d f6ff b73c b3d5 d5bb 9091 09bc
000001e0: d21b 2abd b26b c23c 0973 c4bb 995c 4a3c
000001f0: 29df 3d3d 080f d53b fa95 4ebb 5fee 23bc

action_model._continuous_distribution.mu.bias f4 [2]
-0.008656764 -0.010134655
00000000: 1ad5 0dbc d30b 26bc

onnx::LSTM_101 f4 [1, 256, 256]
0.043090932 0.102645256 0.0556042 0.053885523 0.11035822 -0.0913818 -0.06893425 -0.12844867
0.0019292841 -0.026471352 0.11639897 0.017424446 -0.08549311 0.04731416 -0.074277185 -0.08278609
-0.14303492 -0.055261433 0.03485179 0.03540393 -0.10547187 0.033847038 -0.10499666 0.001879234
0.10887576 0.13457343 -0.07738516 -0.086123504 0.14646319 -0.12464131 -0.15951376 -0.0046287654
0.09123276 -0.058079027 0.08414097 -0.033455037 -0.015607221 0.055126797 -0.042904034 0.08244753
0.0030832076 -0.002817807 0.039300237 -0.098496534 0.020183092 -0.04746916 -0.070831016 -0.13765296
0.051588926 -0.04538045 -0.15385117 0.014173101 0.053714458 -0.032135732 0.12798195 -0.022609375
-0.10393329 0.10995486 -0.0997837 -0.08671535 0.07873722 0.01796978 -0.00848812 -0.10274387
0.083203696 -0.030279048 -0.06499852 -0.08824633 0.09952699 -0.08939293 -0.09414553 -0.031181892
-0.16147523 -0.0019076639 0.07063904 0.13380411 0.029740449 -6.398619e-05 -0.13507415 -0.07396134
-0.065316394 -0.039200697 -0.047236484 -0.03537523 -0.00068049924 0.11919156 -0.14841625 0.08470931
-0.022318475 0.0005073351 0.05461546 -0.032839958 0.08292882 0.102883965 -0.058934167 -0.11468717
-0.03564251 0.10587954 0.007811789 -0.039365444 0.009377194 0.0542517 0.08754289 0.0060349824
0.0622025 -0.009883036 0.108084306 0.055791877 0.10556676 0.0029243524 0.023704203 0.09208231
0.11110326 -0.15729949 -0.12248043 -0.013471878 -0.077195615 -0.13742577 0.03591581 0.02941806
0.061671346 -0.022792865 -0.0763037 -0.082516305 -0.1434855 0.08569835 -0.06906415 -0.15274751
0.092911154 -0.005900998 -0.11498945 -0.12610255 0.11627589 -0.06573754 0.063306674 0.017119369
-0.055906985 0.093780525 0.010806297 0.03529988 0.06747322 -0.06328747 0.11464182 -0.06073523
-0.09098686 -0.0031570806 0.06423538 -0.016654821 0.077102885 -0.07075052 -0.008769218 0.13114959
0.09449314 0.06607978 0.053500306 0.09793831 -0.037138008 0.014017637 0.006727394 -0.045085512
0.044748917 0.11532506 0.08535373 0.122713745 0.071066216 -0.07855002 0.070729874 -0.102498144
0.049181882 0.12391484 -0.13380152 -0.115221456 0.06880906 -0.1006011 -0.09719953 -0.072657354
-0.064903386 0.0037668615 0.138092 -0.011428097 -0.08085229 0.036233187 0.10429967 0.047364015
0.039617717 -0.009700699 -0.008433873 -0.05658139 0.11933394 0.027383793 -0.0016679988 -0.07792576
0.03743832 -0.044637654 0.0029537769 0.091043375 -0.10963978 -0.037680537 -0.078234665 -0.121638946
0.04855849 -0.01960748 0.09832096 -0.042379506 -0.015162757 0.10913719 -0.11570459 -0.0014401271
0.008530574 0.033577576 -0.012390127 -0.019594207 -0.043430656 -0.017344289 -0.037455194 0.11723191
-0.03708463 0.08129877 0.07601273 -0.003662449 -0.0875008 -0.12843895 0.07433882 -0.019049883
0.03215436 -0.06801387 -0.12794845 0.061849933 -0.03992559 -0.082156785 -0.0031746556 -0.045156218
-0.09171314 0.13786706 -0.0022036154 -0.01823543 -0.07289815 0.121723905 0.016690977 -0.039300356
0.010940298 -0.039987892 0.089625806 0.030672455 -0.019864414 -0.060519695 -0.040871486 0.003053994
-0.1037128 0.103504956 0.0477014 0.07476139 -0.07935727 0.08659632 0.052022673 -0.09174948
00000000: 1e80 303d ad37 d23d 3bc1 633d 11b7 5c3d
00000010: 7e03 e23d 6226 bbbd 662d 8dbd 0c88 03be
00000020: 08e0 fc3a 73da d8bc 9562 ee3d b6bd 8e3c
00000030: 0317 afbd 7ecc 413d a31e 98bd c18b a9bd
00000040: bf77 12be d059 62bd c0c0 0e3d b603 113d
00000050: a301 d8bd 31a3 0a3d 7d08 d7bd a150 f63a
00000060: 41fa de3d 9ecd 093e 1c7c 9ebd 8561 b0bd
00000070: 72fa 153e f143 ffbd 9357 23be e6ac 97bb
00000080: 3ed8 ba3d 46e4 6dbd 1a52 ac3d 2608 09bd
00000090: 6eb5 7fbc a3cc 613d 24bc 2fbd 40da a83d
000000a0: a40f 4a3b f5aa 38bb 49f9 203d 8db8 c9bd
000000b0: 0357 a53c 066f 42bd da0f 91bd e6f4 0cbe
000000c0: e94e 533d dae0 39bd 298b 1dbe 4b36 683c
000000d0: b103 5c3d c2a0 03bd b30d 033e 4c37 b9bc
000000e0: fada d4bd 0330 e13d 665b ccbd d197 b1bd
000000f0: fb40 a13d 5c35 933c c111 0bbc 616b d2bd
00000100: b366 aa3d c40b f8bc f21d 85bd 7eba b4bd
00000110: ced4 cb3d a413 b7bd 5fcf c0bd 2b71 ffbc
00000120: c359 25be 940a faba 33ab 903d f203 093e
00000130: 3ea2 f33c 5330 86b8 e150 0abe 0b79 97bd
00000140: 9ac4 85bd e990 20bd 0b7b 41bd 9ee5 10bd
00000150: 8863 32ba b41a f43d 6efa 17be 137c ad3d
00000160: 3cd5 b6bc affe 043a 76b4 5f3d 3183 06bd
00000170: 96d6 a93d d4b4 d23d f464 71bd 1be1 eabd
00000180: e1fd 11bd 5fd7 d83d 09fa ff3b a93d 21bd
00000190: cda2 193c 0837 5e3d b049 b33d 1ac1 c53b
000001a0: 0cc8 7e3d 75ec 21bc 4e5b dd3d 0686 643d
000001b0: 6333 d83d 7ea6 3f3b 512f c23c a695 bc3d
000001c0: 1b8a e33d 1e13 21be 05d7 fabd 27b9 5cbc
000001d0: bc18 9ebd 57b9 0cbe 751c 133d 25fe f03c
000001e0: 189b 7c3d 1ab8 babc 1d45 9cbd 4ffe a8bd
000001f0: dded 12be 9e82 af3d 8171 8dbd d869 1cbe
00000200: 3448 be3d 295d c1bb 977f ebbd 0721 01be
00000210: 0e22 ee3d 67a1 86bd eea6 813d eb3d 8c3c
00000220: b9fe 64bd 0110 c03d e50c 313c 9b96 103d
00000230: 662f 8a3d dc9c 81bd 55c9 ea3d 81c5 78bd
00000240: 5257 babd 06e7 4ebb d78d 833d b16f 88bc
00000250: 1ee8 9d3d a6e5 90bd c4ac 0fbc 144c 063e
00000260: 9f85 c13d d654 873d 2323 5b3d e193 c83d
00000270: 061e 18bd 3baa 653c 7971 dc3b 96ab 38bd
00000280: a44a 373d 8c2f ec3d f0cd ae3d 5851 fb3d
00000290: 2a8b 913d d5de a0bd d3da 903d 8cea d1bd
000002a0: f172 493d 10c7 fd3d 4403 09be 3af9 ebbd
000002b0: c4eb 8c3d f307 cebd 8c10 c7bd 61cd 94bd
000002c0: 11ec 84bd 73dd 763b fd67 0d3e ea3c 3bbc
000002d0: e395 a5bd 4069 143d 119b d53d c500 423d
000002e0: 3046 223d aeef 1ebc 3a2e 0abc e3c1 67bd
000002f0: 5a65 f43d fa53 e03c c1a0 daba 8a97 9fbd
00000300: ed58 193d f9d5 36bd 2794 413b f374 ba3d
00000310: d28a e0bd e856 1abd 7f39 a0bd d71d f9bd
00000320: 44e5 463d de9f a0bc 805c c93d 2296 2dbd
00000330: 366d 78bc 5283 df3d 87f6 ecbd a6c2 bcba
00000340: d2c3 0b3c a488 093d f6ff 4abc 0884 a0bc
00000350: 58e4 31bd 9c15 8ebc 9e6a 19bd 4917 f03d
00000360: 0ee6 17bd f87f a63d 90ac 9b3d b305 70bb
00000370: 9f33 b3bd 8085 03be f43e 983d 800e 9cbc
00000380: 4ab4 033d db4a 8bbd eb04 03be 5b56 7d3d
00000390: 0489 23bd d141 a8bd e20d 50bb baf5 38bd
000003a0: 19d4 bbbd 062d 0d3e 886a 10bb 7862 95bc
000003b0: a04b 95bd 624a f93d 84bb 883c 69f9 20bd
000003c0: f03e 333c 58ca 23bd bc8d b73d cd44 fb3c
000003d0: b2ba a2bc 80e3 77bd dc68 27bd 8425 483b
000003e0: 6067 d4bd 68fa d33d 8b62 433d 801c 993d
000003f0: 1086 a2bd 6959 b13d ba15 553d 27e7 bbbd

onnx::LSTM_102 f4 [1, 256, 64]
-0.096078664 -0.045598276 0.010295531 0.012847279 0.12515177 -0.16255125 0.024378052 -0.053973977
0.07136874 -0.16062267 0.1599593 -0.012999971 0.21429996 0.0142573295 -0.16479312 -0.11824874
0.1529155 -0.08296965 0.05699367 -0.21388182 0.08803198 0.20657708 0.1354989 0.1911646
-0.18504891 0.16247329 0.19510637 0.049729023 0.1288619 -0.113157295 0.12680201 0.13905063
-0.18430176 -0.13268118 -0.15953542 -0.107115366 0.15843342 0.04956305 0.13181894 0.026699351
-0.0884892 -0.10691784 0.07501688 -0.20758916 -0.16223669 0.18402997 -0.07296073 0.09909274
0.01876018 0.13839547 0.10071187 -0.11270058 0.018401645 -0.15954675 -0.11226869 0.16130474
-0.1791179 0.1401961 0.16912554 -0.2086676 0.19801007 0.08429142 -0.092579275 0.11536022
0.18328112 0.23224221 0.103711985 0.12768209 -0.18521701 0.21465608 0.03779603 -0.017123168
0.077417746 -0.11797412 -0.18666826 -0.16052058 -0.21484542 0.0774221 -0.03714194 0.16582914
0.1337841 -0.13115345 0.08968914 -0.106239274 -0.2370608 0.1369051 -0.18645942 0.0071763843
-0.053595558 0.135389 -0.19155155 0.13014333 -0.1706507 -0.002793666 -0.0035705972 -0.17584924
0.099243246 -0.047844186 0.03265451 0.15610832 0.19904816 0.003005381 -0.18224093 0.14127298
0.072738245 -0.2193328 0.21730794 -0.13135846 -0.09809564 -0.06293022 0.15781802 0.08963536
-0.07707252 -0.047780305 -0.20341067 0.17316054 -0.094841234 0.06789146 0.16968212 -0.22007678
-0.10543301 0.0018231241 0.08949489 -0.19502413 -0.15870693 -0.18394892 -0.16822155 0.10838861
-0.0035249097 0.15073094 0.1790132 0.16956344 -0.09879376 0.082179 0.05668265 -0.09343109
0.15176827 0.15907003 0.05043187 -0.0019257892 -0.118254244 0.143662 -0.21549864 0.1646156
-0.065497026 -0.07494424 0.18610549 -0.17472588 -0.18949734 -0.054315966 -0.14626288 0.1705366
-0.09292525 -0.11638628 0.021261435 -0.15826868 0.106615186 0.1355717 0.028010268 -0.0066018114
-0.080936916 0.1383651 -0.20448114 -0.041798763 -0.17889868 -0.012601758 -0.1293319 -0.17610681
0.08544134 0.016391657 0.08015356 0.025249515 -0.20491871 -0.115218304 0.14129357 -0.20404431
-0.14140877 -0.20898013 -0.002567079 0.19183655 -0.07772343 -0.026157532 0.0086843325 -0.1877518
-0.18695538 -0.115270115 0.16750999 -0.16644952 -0.08956036 0.01128363 0.038424473 -0.18902205
0.07366018 -0.10664745 0.100104585 0.116453126 -0.21301532 -0.19085921 -0.1554461 0.20891252
-0.004666006 -0.10078242 -0.17278282 -0.029310463 -0.185437 -0.04687872 0.17298363 0.12279254
-0.18618672 0.044448983 0.16334969 0.09464147 0.089646325 -0.13673554 -0.024760108 -0.11705262
0.19700742 0.03947854 -0.2058432 -0.17836772 -0.043198723 -0.23425922 -0.15210916 -0.08941606
-0.007057331 0.18441792 -0.18082389 -0.14518677 0.043778345 -0.060937002 -0.19901071 -0.15275623
-0.16278143 -0.026174664 -0.05594083 -0.1964812 0.03220093 0.08014775 0.091743216 -0.20285007
-0.0012542044 -0.080786854 -0.11177007 -0.21028487 -0.13371547 0.17276503 0.08623529 0.050527353
0.1299471 -0.14160152 -0.14377081 0.21512899 0.1374431 -0.1413299 0.082413666 0.22097582
00000000: e4c4 c4bd 42c5 3abd 96ae 283c 657d 523c
00000010: c927 003e d673 26be 7bb4 c73c d113 5dbd
00000020: c629 923d 457a 24be 5fcc 233e d5fd 54bc
00000030: 7371 5b3e 9397 693c 87bf 28be 652c f2bd
00000040: e195 1c3e feeb a9bd 3272 693d d603 5bbe
00000050: 1c4a b43d f188 533e 39c0 0a3e a7c0 433e
00000060: 767d 3dbe 665f 263e f7c9 473e a9b0 4b3d
00000070: 60f4 033e 03bf e7bd 63d8 013e 4a63 0e3e
00000080: 9ab9 3cbe 93dd 07be 415d 23be 4d5f dbbd
00000090: 5f3c 223e a002 4b3d 8bfb 063e 99b8 da3c
000000a0: d339 b5bd bef7 dabd 73a2 993d 4192 54be
000000b0: 6021 26be 5a72 3c3e 6f6c 95bd 22f1 ca3d
000000c0: f3ae 993c 8bb7 0d3e 0642 ce3d 90cf e6bd
000000d0: 0cbf 963c 3960 23be 20ed e5bd 122d 253e
000000e0: af6a 37be 918f 0f3e 3f2f 2d3e f6ac 55be
000000f0: 27c3 4a3e fba0 ac3d 349a bdbd fb41 ec3d
00000100: 0cae 3b3e e7d0 6d3e f366 d43d 18bf 023e
00000110: 87a9 3dbe cece 5b3e 03d0 1a3d e345 8cbc
00000120: 328d 9e3d 6a9c f1bd f725 3fbe 825f 24be
00000130: 7000 5cbe 7a8f 9e3d 2622 18bd 1dcf 293e
00000140: b3fe 083e 174d 06be f1ae b73d fa93 d9bd
00000150: 11c0 72be da30 0c3e 38ef 3ebe e027 eb3b
00000160: 0487 5bbd 6aa3 0a3e 1726 44be 4b44 053e
00000170: 0fbf 2ebe f015 37bb ae00 6abb d311 34be
00000180: 0b40 cb3d 44f8 43bd bcc0 053d dcda 1f3e
00000190: 48d3 4b3e edf5 443b 5e9d 3abe dda9 103e
000001a0: caf7 943d c798 60be f985 5e3e d582 06be
000001b0: 5ee6 c8bd 8fe1 80bd 0c9b 213e be92 b73d
000001c0: 33d8 9dbd 48b5 43bd e34a 50be ff50 313e
000001d0: 1f3c c2bd ae0a 8b3d 26c1 2d3e cf5b 61be
000001e0: 43ed d7bd e5f5 ee3a 1949 b73d 68b4 47be
000001f0: 1284 22be 1b5d 3cbe 4542 2cbe d9fa dd3d
00000200: 2c02 67bb 3659 1a3e 3c4f 373e 0aa2 2d3e
00000210: 6254 cabd 774d a83d 112c 683d cd58 bfbd
00000220: 2469 1b3e 41e3 223e a691 4e3d c36a fcba
00000230: 482f f2bd 221c 133e adab 5cbe fe90 283e
00000240: 4e23 86bd 5e7c 99bd 7092 3e3e 57eb 32be
00000250: 970b 42be 6b7a 5ebd f0c5 15be 25a1 2e3e
00000260: 984f bebd ee5b eebd 762c ae3c 2f11 22be
00000270: 1059 da3d 4fd3 0a3e ca75 e53c 0254 d8bb
00000280: 41c2 a5bd 95af 0d3e 8163 51be 2e35 2bbd
00000290: 3731 37be 9b77 4ebc 956f 04be 5855 34be
000002a0: dffb ae3d cc47 863c 8d27 a43d 12d8 ce3c
000002b0: 36d6 51be 93f7 ebbd 43af 103e fef0 50be
000002c0: 76cd 10be e3fe 55be 703c 28bb cd70 443e
000002d0: 762d 9fbd 5248 d6bc bb48 0e3c 0242 40be
000002e0: 3b71 3fbe bd12 ecbd bd87 2b3e be71 2abe
000002f0: 6c6b b7bd f9de 383c fb62 1d3d ff8e 41be
00000300: 26db 963d fa69 dabd a203 cd3d fa7e ee3d
00000310: b020 5abe 9970 43be 432d 1fbe 2aed 553e
00000320: 4ce5 98bb 0367 cebd fbed 30be 7f1c f0bc
00000330: 32e3 3dbe e703 40bd 9f22 313e a87a fb3d
00000340: bba7 3ebe 2310 363d 2445 273e 63d3 c13d
00000350: 7e98 b73d 6704 0cbe b6d5 cabc 49b9 efbd
00000360: 50bc 493e 40b4 213d 8fc8 52be 07a6 36be
00000370: 25f1 30bd a6e1 6fbe 81c2 1bbe c41f b7bd
00000380: 2f41 e7bb 0dd8 3c3e e629 39be d7ab 14be
00000390: ec50 333d 1499 79bd 77c9 4bbe 216c 1cbe
000003a0: 2db0 26be 406c d6bc 3622 65bd 5e32 49be
000003b0: 1fe5 033d 8124 a43d dee3 bb3d eeb7 4fbe
000003c0: 1e64 a4ba 9473 a5bd b5e7 e4bd eb54 57be
000003d0: b5ec 08be 51e9 303e 219c b03d c5f5 4e3d
000003e0: da10 053e fdff 10be a838 13be c64a 5c3e
000003f0: e2bd 0c3e c9b8 10be 7fc8 a83d 7c47 623e

onnx::LSTM_103 f4 [1, 512]
-0.022004534 0.0036203307 -0.008454005 0.02086323 -0.010684623 0.015592412 0.010875609 -0.016023483
0.0061940197 0.027940916 0.00605766 0.014445015 0.0023321596 -0.0044632126 -0.0050753853 0.023151519
0.01822308 0.02592992 0.015185817 0.0010066641 0.0133106625 0.0072995494 0.02928863 0.0046509975
-0.013681645 0.012324556 0.0054955175 -0.011579531 0.0041945204 0.01913894 0.0054449127 0.026812768
0.03012481 0.0073915026 0.016834237 0.0006213059 0.01321989 0.015315183 0.003350964 -0.007846924
0.004180716 -0.022254227 0.0008114221 -0.0084809 -0.014641444 -0.0060143 0.01490971 -0.016939882
0.023540845 -0.00051700743 0.010296219 -0.0068137664 -0.02267125 -0.00784265 -0.01565501 0.00861623
0.011595304 -0.0035314488 -0.003775808 -0.0010128019 -0.0004080885 0.0009771913 -0.020193616 -0.022806603
-0.016293075 -0.00810633 -0.017171573 0.00071735657 0.005165865 0.031644706 -0.00027087447 0.003892179
0.013682107 0.033068705 0.014667117 0.03416889 0.024319869 -0.015074925 0.0005207711 0.015546301
0.00431773 0.022109905 -0.02377728 -0.0030051172 -0.0043184166 0.0012655063 0.017789992 -0.00010743597
0.0112871565 -0.01078193 0.006188357 0.009233937 -0.0009305693 0.0062419754 0.022168193 0.041626725
0.028132139 -0.0030898189 0.014930651 0.013489901 0.030772349 0.029443974 0.005612683 -0.022895535
0.008257808 -0.01216142 0.021627484 0.0051898863 0.010665993 0.036595188 0.0025339627 0.0053932997
0.017538277 -0.011573165 -0.019965654 -0.006540219 -0.0017519387 0.00328552 -0.00671128 0.016288772
-0.010389649 -0.011296973 -0.000756699 0.0060051116 0.014022376 0.014324736 -0.01590792 0.013584111
0.9836035 1.0209627 0.98476344 1.0027403 0.98358625 1.0032492 1.017418 1.0150458
0.9929094 0.9632577 1.0145591 1.0058516 1.019592 0.9720038 1.0280913 1.0207863
1.0165393 0.98801494 1.0122232 0.9816256 1.0092545 0.9587859 0.97806984 0.9979584
0.99691033 0.9978987 0.99521476 0.9878204 0.99948704 1.0181944 0.9934636 0.9997951
1.0029731 0.9767942 0.9684502 1.0054339 1.0041159 0.9626985 0.9741958 0.9907867
1.0051216 1.0211207 1.0021106 1.0428864 0.9896536 0.9901537 1.0059148 0.9861483
0.9797673 0.9763579 0.99528736 0.9776714 0.99292314 0.9870488 0.9792703 1.0213654
1.0134075 0.995835 1.0048747 0.98223126 0.99758047 0.9765599 0.9782585 0.9696028
-0.0052190125 0.010166924 -0.0029366016 -0.012533875 -0.01200738 -0.0127979545 -0.008208808 0.011076169
-0.009074777 0.0010527272 -0.015521742 0.0068572853 0.0028746133 -0.006792465 -0.009419255 0.020169973
0.004835382 0.00092000957 0.013857005 -0.009847897 0.018859977 -0.01425244 -0.010742631 -0.017238742
0.012826196 0.001266156 -0.007269214 -0.0055109807 -0.015736021 -0.008328432 -0.006671887 -0.010620103
0.0071123587 -0.0010429175 -0.005689669 0.02058464 -0.002650188 0.0011947819 0.009164308 0.0021520578
-0.016854925 -0.00044227287 -0.014667035 0.011797561 -0.004806604 -0.0033768974 0.024612587 -0.0032228543
0.0008373767 -0.004278961 -0.0092878025 -0.004026395 -0.0002668535 -0.0006779779 0.0022164336 0.004673058
0.013397036 -0.009294369 -0.014884379 -0.0062770415 -0.009166123 -0.0027041198 -0.003091518 0.011224176
00000000: da42 b4bc 1243 6d3b ab82 0abc 5de9 aa3c
00000010: 8f0e 2fbc 5177 7f3c 9c2f 323c ae43 83bc
00000020: 34f7 ca3b 59e4 e43c 567f c63b c9aa 6c3c
00000030: 25d7 183b 2440 92bb 6b4f a6bb 41a8 bd3c
00000040: 9248 953c fc6a d43c efcd 783c 0bf2 833a
00000050: f714 5a3c 0f31 ef3b b5ee ef3c 6567 983b
00000060: fa28 60bc efec 493c be13 b43b 13b8 3dbc
00000070: 3072 893b 44c9 9c3c 3d6b b23b 73a6 db3c
00000080: 4ec8 f63c 6b34 f23b f4e7 893c 22df 223a
00000090: 3d98 583c 89ec 7a3c d99b 5b3b 6290 00bc
000000a0: 63fe 883b 7f4e b6bc 9eb5 543a 79f3 0abc
000000b0: abe2 6fbc 9b13 c5bb db47 743c 82c5 8abc
000000c0: bbd8 c03c c887 07ba 79b1 283c 0446 dfbb
000000d0: 0fb9 b9bc 757e 00bc ef3e 80bc 172b 0d3c
000000e0: 3bfa 3d3c e16f 67bb 8c73 77bb febf 84ba
000000f0: b6f4 d5b9 1915 803a 156d a5bc ead4 babc
00000100: 0e79 85bc 6ad0 04bc 66ab 8cbc fc0c 3c3a
00000110: 6b46 a93b e19d 013d 2804 8eb9 ee13 7f3b
00000120: eb2a 603c 0d73 073d 594e 703c aef4 0b3d
00000130: 763a c73c d1fc 76bc 5b84 083a eab5 7e3c
00000140: bf7b 8d3b d51f b53c 92c8 c2bc 80f1 44bb
00000150: 8181 8dbb 58df a53a 51bc 913c 3f4f e1b8
00000160: c4ed 383c b1a6 30bc b3c7 ca3b f049 173c
00000170: 73f1 73ba 7c89 cc3b 129a b53c c980 2a3d
00000180: 5f75 e63c 8f7e 4abb b09f 743c bf04 5d3c
00000190: 4b16 fc3c 7d34 f13c 99ea b73b 6b8f bbbc
000001a0: c24b 073c b140 47bc 1f2c b13c ec0f aa3b
000001b0: 6bc0 2e3c d6e4 153d d710 263b 47ba b03b
000001c0: 6fac 8f3c 5f9d 3dbc 038f a3bc 554f d6bb
000001d0: 4fa1 e5ba e151 573b 4cea dbbb 0870 853c
000001e0: 5939 2abc f016 39bc 365d 46ba 87c6 c43b
000001f0: 1cbe 653c 4cb2 6a3c 5451 82bc e48f 5e3c
00000200: 70cd 7b3f e8ae 823f 7519 7c3f cb59 803f
00000210: 4fcc 7b3f 786a 803f c13a 823f 05ed 813f
00000220: 4f2f 7e3f 0e98 763f 13dd 813f bfbf 803f
00000230: fe81 823f 3ed5 783f 7f98 833f 20a9 823f
00000240: f61d 823f 8cee 7c3f 8890 813f d14b 7b3f
00000250: 402f 813f fe72 753f c962 7a3f 347a 7f3f
00000260: 8435 7f3f 4a76 7f3f 65c6 7e3f cce1 7c3f
00000270: 62de 7f3f 3254 823f a153 7e3f 92f2 7f3f
00000280: 6c61 803f 2f0f 7a3f 5aec 773f 0fb2 803f
00000290: df86 803f 6973 763f e564 793f 32a4 7d3f
000002a0: d3a7 803f 15b4 823f 2945 803f 4d7d 853f
000002b0: f059 7d3f b67a 7d3f d1c1 803f 3774 7c3f
000002c0: 08d2 7a3f 97f2 793f 27cb 7e3f ac48 7a3f
000002d0: 3630 7e3f 3baf 7c3f 75b1 7a3f 1abc 823f
000002e0: 56b7 813f 0bef 7e3f bc9f 803f 8273 7b3f
000002f0: 6f61 7f3f d4ff 793f 266f 7a3f e437 783f
00000300: 4004 abbb 2c93 263c 0074 40bb e25a 4dbc
00000310: 9aba 44bc 83ae 51bc 3c7e 06bc d278 353c
00000320: 60ae 14bc aafb 893a e84e 7ebc 14b3 e03b
00000330: 0264 3c3b 5493 debb 3853 1abc 803b a53c
00000340: 2072 9e3b cc2c 713a 7e08 633c 1359 21bc
00000350: 3d80 9a3c 1183 69bc dc01 30bc 4338 8dbc
00000360: f724 523c 25f5 a53a 9632 eebb 7595 b4bb
00000370: d4e8 80bc fa73 08bc d89f dabb f1ff 2dbc
00000380: ca0e e93b 81b2 88ba 6770 babb 1ea1 a83c
00000390: c7ae 2dbb 3a9a 9c3a e525 163c 8a09 0d3b
000003a0: 5713 8abc dce0 e7b9 014e 70bc 8f4a 413c
000003b0: b780 9dbb f04e 5dbb 56a0 c93c 8636 53bb
000003c0: 6683 5b3a 8736 8cbb de2b 18bc d9ef 83bb
000003d0: 78e8 8bb9 54ba 31ba 9641 113b 7420 993b
000003e0: 3e7f 5b3c 6947 18bc 9cdd 73bc a4af cdbb
000003f0: 822d 16bc 9a37 31bb 119b 4abb 9be5 373c
