code/selfparking/mla/results/run_01/Car/Car-1499889.onnx (onnx, 710320 bytes, 10 tensors)

network_body._body_endoder.seq_layers.0.weight f4 [256, 109]
-0.064113975 0.02538212 0.14752382 -0.082165174 -0.27170599 -0.045163475 0.18434465 0.050709073
-0.13377996 -0.0031605135 0.11424841 -0.010731727 -0.27169254 -0.03166536 0.026116244 0.027576832
-0.087058395 -0.10153391 0.072185785 -0.12262 -0.11450643 -0.095851205 0.10929693 0.05162336
-0.26010865 -0.064069465 -0.045833185 -0.10272064 0.06885234 0.06855908 -0.19327165 0.11348391
-0.120943666 0.08268267 0.1355788 -0.046854608 0.19364387 0.101781085 0.023659587 0.06017493
0.088946156 -0.061601188 -0.08206756 -0.088646084 -0.11974661 -0.18902838 -0.020570617 0.13013364
0.0709237 -0.042431913 -0.18552096 0.20846178 0.12557937 -0.056020997 0.07089509 0.11966487
-0.04244184 -0.06566222 0.027189342 -0.10296638 -0.14820997 0.020209411 0.07748806 -0.05085199
-0.0075018057 -0.0019627737 0.12195018 -0.124494635 0.035223257 0.055349365 0.05470334 0.07050412
0.052643675 -0.011479998 -0.01398187 0.09594955 -0.009771352 -0.03587732 0.12562156 0.13380319
0.050731346 -0.056531824 0.0033302582 -0.05728255 -0.14441465 0.035893045 0.04247045 -0.055304777
-0.14633821 0.077978 -0.057999708 0.13641535 0.14771126 0.16579282 0.08251924 -0.12932639
-0.11958808 0.06301256 0.078836866 0.0023687538 0.057879593 0.03125537 0.20687297 0.12935622
0.028258102 -0.02083586 0.0515376 -0.124565944 -0.03580273 -0.046626266 0.07546517 -0.07864854
0.11568271 -0.051779132 -0.11383768 0.22635119 0.024220305 -0.026615178 -0.052512754 -0.17918964
-0.1016914 -0.15998578 -0.040108778 0.0038971233 -0.0094184205 0.21294694 -0.057193495 0.053342957
-0.04205726 -0.030585488 -0.04203104 -0.1372438 0.004246641 -0.05497558 -0.22692809 0.29664922
-0.026275868 -0.07808276 0.10262024 -0.019185057 -0.03459851 0.030716518 0.006287465 0.14273988
0.12826139 0.046607964 0.05004929 0.059451208 0.1306143 0.056426506 0.06870217 -0.110771306
-0.063196674 -0.008471058 -0.05064764 0.06923129 -0.004289408 0.268117 0.08709044 0.07553159
0.073894925 -0.12736668 0.08312837 -0.040690534 -0.03654937 0.104399726 -0.1274879 0.062223196
-0.05778834 0.008196594 -0.22512566 0.10265183 0.038888846 -0.0009814037 -0.06776102 -0.15327829
-0.008993878 0.09953195 0.03487696 0.15030204 -0.08508409 -0.06613312 -0.14099948 -0.018862832
-0.058264326 0.01520321 0.16095999 -0.01468699 0.008369418 0.031297885 -0.04481685 0.06738477
-0.016013334 -0.052184332 -0.010905401 -0.082093865 -0.24339631 -0.0654474 0.06861516 0.0065342872
0.15068562 -0.0413548 -0.043788135 0.018937182 -0.047383316 0.0940654 0.086091965 -0.054053627
-0.17346123 -0.020268584 0.15172979 0.27049452 0.039002243 -0.019779503 0.0055265543 0.05917205
0.196664 0.098052256 0.038966168 -0.09631938 -0.18869181 0.0453859 0.14469269 -0.069489814
-0.0670064 -0.3177785 0.15516938 0.10962113 -0.00693918 0.092930265 0.008626243 -0.091469355
0.001161039 0.043097503 -0.038699683 0.00055741885 -0.11811526 0.076885596 0.03274801 0.2000624
0.10830972 0.012493192 0.1370627 0.10771178 -0.05384766 -0.077380754 0.074958615 -0.20501266
0.13914251 0.061574012 -0.08926468 -0.07296261 -0.06121884 -0.05053322 -0.018471427 -0.12340528
00000000: 304e 83bd 2aee cf3c 7c10 173e 3746 a8bd
00000010: 0c1d 8bbe 56fd 38bd d8c4 3c3e 51b4 4f3d
00000020: 9dfd 08be 9e20 4fbb 12fb e93d 20d4 2fbc
00000030: 491b 8bbe 89b3 01bd bcf1 d53c cfe8 e13c
00000040: ac4b b2bd 03f1 cfbd 24d6 933d 3220 fbbd
00000050: 5982 eabd a34d c4bd 12d7 df3d 0473 533d
00000060: f62c 85be da36 83bd 94bb 3bbd 335f d2bd
00000070: 7502 8d3d b468 8c3d 01e9 45be 416a e83d
00000080: 50b1 f7bd 8855 a93d 2bd5 0a3e 9eea 3fbd
00000090: 944a 463e 9a72 d03d c0d1 c13c fd79 763d
000000a0: 6729 b63d 8751 7cbd 0913 a8bd 148c b5bd
000000b0: b63d f5bd a890 41be b683 a8bc c141 053e
000000c0: 7240 913d 16cd 2dbd 35f9 3dbe 0177 553e
000000d0: e197 003e 4676 65bd 7231 913d db12 f53d
000000e0: 7fd7 2dbd ea79 86bd 2fbc de3c 0ae0 d2bd
000000f0: 5bc4 17be 358e a53c 0fb2 9e3d 2d4a 50bd
00000100: b5d1 f5bb e1a1 00bb 04c1 f93d 0bf7 febd
00000110: 4346 103d 04b6 623d 9c10 603d 7764 903d
00000120: e5a0 573d 9a16 3cbc 3714 65bc 3381 c43d
00000130: 0518 20bc 19f4 12bd f0a2 003e b403 093e
00000140: accb 4f3d ea8d 67bd 7640 5a3b 1ba1 6abd
00000150: 6fe1 13be 9604 133d 7ff5 2d3d 4387 62bd
00000160: afd9 15be eeb2 9f3d 1a91 6dbd 77b0 0b3e
00000170: 9f41 173e 98c5 293e d9ff a83d 236e 04be
00000180: 98ea f4bd bb0c 813d 3975 a13d 183d 1b3b
00000190: 2713 6d3d a105 003d 82d6 533e f575 043e
000001a0: 897d e73c f7af aabc 1719 533d 6e1c ffbd
000001b0: e2a5 12bd 2ffb 3ebd 7c8d 9a3d 7c12 a1bd
000001c0: 0feb ec3d 5b16 54bd bb23 e9bd 9bc8 673e
000001d0: a969 c63c 1308 dabc 9d17 57bd 7d7d 37be
000001e0: 9543 d0bd 50d3 23be 1a49 24bd e166 7f3b
000001f0: b84f 1abc c30e 5a3e ba43 6abd 257e 5a3d
00000200: 3c44 2cbd 6b8e fabc bd28 2cbd a489 0cbe
00000210: 6827 8b3b 132e 61bd d65f 68be 68e2 973e
00000220: 7d40 d7bc dbe9 9fbd 8f2a d23d fb29 9dbc
00000230: 2bb7 0dbd 35a1 fb3c 1407 ce3b 672a 123e
00000240: f456 033e fee7 3e3d 7c00 4d3d 1c83 733d
00000250: c1bf 053e 7b1f 673d b9b3 8c3d 11dc e2bd
00000260: 426d 81bd 31ca 0abc e673 4fbd 22c9 8d3d
00000270: 2a8e 8cbb a246 893e 795c b23d 4eb0 9a3d
00000280: 3956 973d 696c 02be 353f aa3d 1eab 26bd
00000290: cbb4 15bd 86cf d53d 308c 02be c0dd 7e3d
000002a0: 77b3 6cbd 024b 063c 5787 66be 1f3b d23d
000002b0: e949 1f3d 72a2 80ba 4ac6 8abd fcf4 1cbe
000002c0: 0f5b 13bc 68d7 cb3d 25db 0e3d c7e8 193e
000002d0: 9140 aebd cd70 87bd 2b62 10be 3a86 9abc
000002e0: 93a6 6ebd e216 793c b2d2 243e b3a1 70bc
000002f0: e21f 093c 3632 003d e091 37bd 0701 8a3d
00000300: 652e 83bc 3dbf 55bd 91ac 32bc d420 a8bd
00000310: e23c 79be 4909 86bd 1b86 8c3d 931d d63b
00000320: 554d 1a3e a763 29bd 305b 33bd 2622 9b3c
00000330: 0215 42bd 5ca5 c03d fc50 b03d 5667 5dbd
00000340: d29f 31be 4d0a a6bc 0e5f 1b3e 427e 8a3e
00000350: d1c0 1f3d a008 a2bc 1918 b53b 645e 723d
00000360: 4a62 493e 9fcf c83d fd9a 1f3d 1843 c5bd
00000370: 6d38 41be 91e6 393d 522a 143e ad50 8ebd
00000380: a73a 89bd ddb3 a2be b9e4 1e3e 0b81 e03d
00000390: 1062 e3bb 3952 be3d 1655 0d3c 4954 bbbd
000003a0: 012e 983a 0287 303d 8f83 1ebd bf1f 123a
000003b0: 6ae6 f1bd 3276 9d3d c722 063d 28dd 4c3e
000003c0: 7dd1 dd3d 3fb0 4c3c 2a5a 0c3e fe97 dc3d
000003d0: 5d8f 5cbd cd79 9ebd e783 993d d7ee 51be
000003e0: 607b 0e3e 0835 7c3d 67d0 b6bd 6c6d 95bd
000003f0: 9bc0 7abd ecfb 4ebd 6451 97bc e8bb fcbd

network_body._body_endoder.seq_layers.0.bias f4 [256]
0.005713614 0.00025952456 -0.0060517723 0.00018958306 0.002613427 -0.005151364 0.0044479314 0.019127876
-0.007071686 0.003255898 -0.0046826936 0.0054343673 -0.0022074198 -0.0075352965 0.005190861 4.4627308e-05
0.013664726 -0.009821095 -0.003695292 -0.010526088 -0.002441813 -0.010296476 -0.01567209 0.00024326582
-0.007261438 0.00094943424 0.0053600227 -0.00082700874 0.0051947264 -0.0045918254 -0.004961235 0.0027273155
0.0017782609 -0.0067497226 -0.0013904326 0.003698357 -0.0047201207 0.0018819193 -0.007666095 -0.009879982
-0.001813968 0.0035468836 -0.00029884916 0.025995016 0.026914416 -0.011792209 0.0033471507 -0.016811175
-0.009499409 0.00022917271 0.017211694 -0.0015626737 0.0087595945 0.0014059738 0.0018125823 0.0022923548
-0.0010070064 -0.0009010818 -0.0040772306 0.021416666 -0.013057774 -0.009304864 0.0030516107 0.0066421414
0.0075557125 0.01278342 -0.0077486974 0.0034522167 0.005909198 0.016951052 0.0071349507 -0.004316578
-0.007836072 0.0043553105 0.0046095587 -0.011848705 0.0064659165 0.0057728984 0.006560897 -0.00037740928
0.0018769219 0.01877824 -0.014810345 0.01705246 -0.006599814 -0.0035597342 -0.0044788793 -0.014740023
-0.0065600704 0.034200244 0.0046742284 -0.0021117646 -0.013766355 -0.007820814 -0.0007708684 -0.0024998481
0.0006752264 3.4085708e-05 -0.0063934885 0.0022685663 -0.0011790302 -0.014998564 0.0015467427 0.0032772988
-0.009001796 0.0018065019 -0.0015207188 0.0019565306 -0.0015103975 0.0026314675 0.0032546872 -0.0056262007
-0.008960171 0.004449321 0.009794838 0.0022817363 0.011063143 -0.0005157619 0.011184586 0.014439619
-0.0014694975 0.013062988 0.005418179 -0.0059578735 9.909499e-05 0.0014063831 0.007474537 -0.0021191686
0.0111143775 -0.0039955424 0.007626388 0.006087528 -0.005929656 -0.009599214 -0.0008909526 0.0032882683
0.0003323915 0.006664839 -0.010172569 0.005039418 0.0006401916 -5.6762907e-05 0.014344553 0.0004238417
-0.004978707 -0.00127845 -0.011015498 -0.0028458363 -0.0072733685 0.0033069963 -0.002480471 0.0052823965
-0.0035478545 -0.021207985 0.0004796746 0.014950741 -0.0025219738 -0.0023995556 -0.009342727 -0.004781908
-0.0014167282 0.014708809 0.008979885 0.0118446285 0.009533574 0.016894743 -0.006584641 -0.015798343
0.0058531202 0.00642322 -8.715281e-05 0.0023995626 0.004535347 0.0037723451 0.0064266445 0.0012640655
-0.010754569 -0.008397845 0.008286069 0.003166057 0.0031437248 -0.0013074649 -0.0028150745 0.0019511525
0.000977476 -0.0032488988 0.007241692 -0.001551695 0.0013897796 0.0038999263 0.0038641621 0.0073408373
-0.0020150458 0.026120367 -0.014860494 0.00035873032 0.0007334677 0.01084584 -0.0017102868 -0.0043633436
0.0037469699 -0.00047575793 -0.0021478941 -0.0024636027 -0.006519734 -0.009594487 0.0058560995 -0.007926074
-0.0051406585 -0.0012283212 -0.0010409952 0.023178933 -0.0032656393 0.003388903 -0.0010144836 -0.0007540672
-0.004321103 0.005081737 0.003915682 0.004910511 -0.0025326633 0.0038787357 0.002747928 -0.003056139
0.011974611 -0.0060011703 -0.008670568 0.0010588368 -0.004280326 -0.007934346 0.0096989395 0.0020596646
-0.007163047 -0.0002649304 -0.012108894 -0.0050466266 0.0021147481 -0.009403468 -0.007899705 0.0064964723
0.0012170171 -0.013728416 -0.0020148589 0.018052766 -0.0039426326 0.0035717443 -0.012001954 -0.0058384286
0.005266956 0.0009244915 0.0031469066 -0.002216639 -0.009872163 0.00867391 -0.003677939 0.0031272848
00000000: 4539 bb3b cc10 8839 f24d c6bb d1ca 4639
00000010: 0746 2b3b c6cc a8bb f4bf 913b 10b2 9c3c
00000020: 9ab9 e7bb e760 553b 4871 99bb c712 b23b
00000030: 5caa 10bb a6ea f6bb 1918 aa3b 352e 3b38
00000040: 04e2 5f3c a8e8 20bc b62c 72bb 9d75 2cbc
00000050: d306 20bb 8db2 28bc c162 80bc 2c15 7f39
00000060: 5bf1 edbb 74e3 783a 21a3 af3b 9ecb 58ba
00000070: 8638 aa3b 0677 96bb db91 a2bb c3bc 323b
00000080: 8914 e93a c72c ddbb 2d3f b6ba 2260 723b
00000090: 3eab 9abb bcaa f63a de33 fbbb a6df 21bc
000000a0: aac2 edba d572 683b dbae 9cb9 80f3 d43c
000000b0: 9f7b dc3c 1c34 41bc df5b 5b3b 97b7 89bc
000000c0: 69a3 1bbc 154e 7039 8aff 8c3c a1d2 ccba
000000d0: 6784 0f3c a748 b83a 2b94 ed3a 553b 163b
000000e0: 87fd 83ba 9336 6cba 4a9a 85bb 0172 af3c
000000f0: 46f0 55bc 6e73 18bc 88fd 473b 52a6 d93b
00000100: e995 f73b 8d71 513c c9e8 fdbb 963e 623b
00000110: f2a1 c13b efdc 8a3c 4ecc e93b 1572 8dbb
00000120: de62 00bc feb6 8e3b c80b 973b 1221 42bc
00000130: 0ae0 d33b 952a bd3b cbfc d63b 04df c5b9
00000140: 0c03 f63a d3d4 993c 17a7 72bc 9ab1 8b3c
00000150: 4143 d8bb 6e4a 69bb 90c3 92bb 2380 71bc
00000160: dcf5 d6bb 8e15 0c3d 452a 993b 8865 0abb
00000170: 478c 61bc df22 00bc 1a14 4aba 7ed4 23bb
00000180: ad01 313a 40f7 0e38 7880 d1bb 3aac 143b
00000190: b089 9aba 89bc 75bc 13bc ca3a f3c7 563b
000001a0: 457c 13bc 25c8 ec3a db52 c7ba 2339 003b
000001b0: 88f8 c5ba b374 2c3b 974c 553b fe5b b8bb
000001c0: aecd 12bc 9ccb 913b 877a 203c 2f89 153b
000001d0: 2f42 353c 3234 07ba 8e3f 373c 2794 6c3c
000001e0: 279c c0ba 2506 563c fb8a b13b 443a c3bb
000001f0: 38d1 cf38 6356 b83a f6ec f43b c0e1 0abb
00000200: 1419 363c 0aed 82bb c8e6 f93b e379 c73b
00000210: 8f4d c2bb 0646 1dbc d18e 69ba fd7f 573b
00000220: d544 ae39 b964 da3b d9aa 26bc b421 a53b
00000230: 88d2 273a b514 6eb8 6b05 6b3c 1237 de39
00000240: 6c24 a3bb aa91 a7ba 597a 34bc 3681 3abb
00000250: 7055 eebb 31ba 583b 668f 22bb f417 ad3b
00000260: 1f83 68bb 5ebc adbc d67c fb39 f4f3 743c
00000270: b347 25bb dd41 1dbb 3d12 19bc 8db1 9cbb
00000280: 83b1 b9ba 37fd 703c 5e20 133c f90f 423c
00000290: b532 1c3c d866 8a3c f9c3 d7bb 876b 81bc
000002a0: 88cb bf3b e079 d23b cfc5 b6b8 fb41 1d3b
000002b0: 409d 943b 7339 773b 9a96 d23b 00af a53a
000002c0: ef33 30bc 1d97 09bc 4bc2 073c 9f7d 4f3b
000002d0: f306 4e3b 3e5f abba 1d7d 38bb d0bd ff3a
000002e0: a71e 803a 7aeb 54bb b74b ed3b 3f62 cbba
000002f0: 4429 b63a e895 7f3b e23d 7d3b 688b f03b
00000300: dc0e 04bb 61fa d53c 6e79 73bc f813 bc39
00000310: 2f46 403a c0b2 313c b42b e0ba 61fa 8ebb
00000320: b98f 753b 266f f9b9 afc3 0cbb 6574 21bb
00000330: 7ea3 d5bb 3232 1dbc 86e4 bf3b 5ddc 01bc
00000340: f872 a8bb 9fff a0ba 0172 88ba bfe1 bd3c
00000350: 5604 56bb 5c18 5e3b 6cf8 84ba 98ac 45ba
00000360: 0a98 8dbb b384 a63b 1f4f 803b 5ae8 a03b
00000370: 0afb 25bb 6332 7e3b 9516 343b 8149 48bb
00000380: 2931 443c 77a5 c4bb ff0e 0ebc abc8 8a3a
00000390: fa41 8cbb 0fff 01bc 4de8 1e3c 70fb 063b
000003a0: feb7 eabb 5be6 8ab9 6264 46bc 2c5e a5bb
000003b0: 9697 0a3b 0111 1abc c46d 01bc 5ce0 d43b
000003c0: 5184 9f3a 26ed 60bc b90b 04bb 65e3 933c
000003d0: 3331 81bb ed13 6a3b d8a3 44bc 4a50 bfbb
000003e0: 6e96 ac3b 9359 723a 553c 4e3b 0845 11bb
000003f0: dabe 21bc 041d 0e3c 9409 71bb 22f3 4c3b

network_body._body_endoder.seq_layers.2.weight f4 [256, 256]
0.13152558 -0.00435982 0.018232003 0.055171106 -0.062080782 0.029071018 0.0013505209 0.09528761
0.040056966 -0.104526825 -0.033260472 0.080449246 -0.10360895 -0.054504618 -0.1584103 -0.040577967
0.022941446 -0.088759765 0.029261047 0.03158055 -0.11882741 -0.14417328 -0.050094377 -0.028482512
-0.10978567 -0.013438771 0.14140177 0.06319543 -0.010391655 0.098074846 -0.07218345 0.031735215
-0.022842653 -0.052756775 0.009553213 0.040025357 0.063825294 0.024287144 0.0050077285 0.09158546
-0.021147056 0.010637576 -0.07601406 0.0071265423 -0.12581424 0.030315861 0.093025185 0.0042506703
-0.00243972 -0.0324636 -0.014072706 0.010214027 -0.10423616 -0.062499616 0.045875937 -0.075341254
0.024335947 -0.11685057 -0.0050341636 -0.06456214 0.028542757 0.017104996 -0.04564642 0.22994883
0.12667982 0.14958526 -0.01022549 -0.030183228 0.055589054 -0.037232347 -0.037537925 0.04012779
0.015960963 0.0037580691 0.07468466 -0.11946022 0.14540504 0.07063341 -0.041274466 0.0050689457
-0.1067839 -0.05902829 -0.06447223 0.038633816 0.12594326 0.02847606 0.03673622 -0.023760526
-0.031299893 0.004312391 0.09279391 0.0050352467 0.048119567 -0.0047581373 -0.003803147 -0.025576325
0.08253581 0.13515098 0.09102736 -0.15073872 0.019129142 -0.012027638 0.06387096 0.028627573
0.008490102 0.042696152 -0.061220113 0.010932697 0.03758553 -0.09003677 -0.10044536 -0.04317725
-0.013053431 0.0781978 0.006897901 -0.08055679 -0.045520842 -0.08734542 -0.041670483 0.10328068
-0.090260945 0.03679794 -0.118754745 -0.016908085 0.091108374 -0.054833483 0.00022559766 0.10800252
-0.11898233 0.030916011 -0.13938631 -0.088068165 -0.08235865 0.00068408373 0.054824684 -0.109034315
-0.1098651 0.031279188 0.029526254 -0.0043461863 0.010193486 -0.09164817 0.011209212 -0.026236352
0.04911853 0.02583826 0.039860345 -0.0480325 0.04387471 0.07690597 -0.032397702 0.02886669
0.075012065 0.07500559 -0.060755376 -0.019144174 -0.04107177 -0.008876498 -0.21583962 0.117878854
0.0024335217 0.0064036194 -0.054461204 0.025421942 -0.043853566 -0.09562523 0.06003292 0.051576264
0.12410399 0.0035667778 0.115708716 -0.003314143 0.0009324524 0.06275565 0.023766385 -0.074507676
0.03294465 -0.1011864 0.049901582 -0.05896582 -0.07055522 0.049483214 -0.066660434 0.1261685
-0.069305904 0.019570844 0.11874131 0.03838677 -0.0732775 0.015270841 -0.15887778 -0.015602047
-0.046336908 0.052702863 -0.0059197797 0.06984693 -0.054062776 -0.06706068 -0.053007167 -0.010140474
0.0623315 0.011799534 0.06111551 -0.042955592 0.0019273974 -0.0418953 0.07212515 0.063152194
0.08070732 -0.044771284 -0.024686353 0.071131594 0.023739774 -0.013925114 -0.03637245 0.075525254
0.097881526 0.041965652 -0.0918798 0.042576153 0.0058396067 0.100275695 0.12634741 -0.06284587
0.078609504 -0.050010495 0.046541538 0.02859677 -0.011877612 -0.03339792 -0.040919866 0.0830443
-0.0048014196 -0.039423186 0.09903184 -0.033218443 -0.011723841 -0.033262018 -0.09511898 0.007962091
-0.106310055 -0.037124384 -0.02075189 -0.0087387925 0.062778346 -0.08439894 0.0049050995 -0.013519445
0.052620124 -0.0025171211 -0.035696425 -0.04599132 0.005262654 -0.035470236 0.05766294 0.0031882632
00000000: a4ae 063e d2dc 8ebb 485b 953c 19fb 613d
00000010: 6b48 7ebd 5826 ee3c f603 b13a 2726 c33d
00000020: c612 243d 2912 d6bd 223c 08bd 93c2 a43d
00000030: ee30 d4bd 3c40 5fbd 4f36 22be 1535 26bd
00000040: b3ef bb3c aec7 b5bd ddb4 ef3c 9b5a 013d
00000050: c95b f3bd 29a2 13be c32f 4dbd 2854 e9bc
00000060: 4fd7 e0bd 4a2e 5cbc a0cb 103e 9b6c 813d
00000070: c341 2abc 77db c83d ebd4 93bd c9fc 013d
00000080: 8420 bbbc 7d17 58bd 1485 1c3c a1f1 233d
00000090: d6b6 823d d5f5 c63c df17 a43b 2891 bb3d
000000a0: 973c adbc 3a49 2e3c 42ad 9bbd c585 e93b
000000b0: 73d5 00be f858 f83c fd83 be3d 3549 8b3b
000000c0: b6e3 1fbb 8df8 04bd 3591 66bc bc58 273c
000000d0: c579 d5bd 99ff 7fbd 68e8 3b3d 844c 9abd
000000e0: 2e5c c73c 5a4f efbd a0f5 a4bb 2839 84bd
000000f0: 80d2 e93c c71f 8c3c bef7 3abd b577 6b3e
00000100: 5bb8 013e e12c 193e d088 27bc d142 f7bc
00000110: 59b1 633d f280 18bd 5ec1 19bd 0a5d 243d
00000120: 91c0 823c f049 763b 45f4 983d 8fa7 f4bd
00000130: 0fe5 143e 40a8 903d 6a0f 29bd 6619 a63b
00000140: 84b1 dabd a6c7 71bd 040a 84bd 7e3e 1e3d
00000150: 45f7 003e a046 e93c b878 163d 6fa5 c2bc
00000160: 5134 00bd f54e 8d3b bc0a be3d b6fe a43b
00000170: 0619 453d 26ea 9bbb 383e 79bb 7185 d1bc
00000180: 8908 a93d 0565 0a3e 8d6c ba3d 405b 1abe
00000190: b8b4 9c3c 920f 45bc c7ce 823d 5f84 ea3c
000001a0: 121a 0b3c 29e2 2e3d f1c1 7abd 0e1f 333c
000001b0: 49f3 193d 3365 b8bd 4cb6 cdbd a1da 30bd
000001c0: 0fde 55bc 2b26 a03d ca07 e23b f5fa a4bd
000001d0: 1074 3abd 28e2 b2bd abae 2abd d284 d33d
000001e0: bbda b8bd 70b9 163d b035 f3bd d382 8abc
000001f0: 0797 ba3d 1399 60bd 698e 6c39 6d30 dd3d
00000200: 02ad f3bd 9343 fd3c 49bb 0ebe 155d b4bd
00000210: a7ab a8bd 1554 333a d98f 603d 624d dfbd
00000220: f400 e1bd 9b1e 003d 0be1 f13c 746a 8ebb
00000230: 9402 273c 09b2 bbbd d8a6 373c 9eed d6bc
00000240: 8330 493d c2aa d33c 9a44 233d babd 44bd
00000250: f8b5 333d e180 9d3d 74b3 04bd d679 ec3c
00000260: ed9f 993d 889c 993d a1da 78bd 3ed4 9cbc
00000270: df3a 28bd bb6e 11bc 1005 5dbe 786a f13d
00000280: b87b 1f3b 74d5 d13b b612 5fbd ad41 d03c
00000290: cc9f 33bd 29d7 c3bd 14e5 753d a241 533d
000002a0: 3c2a fe3d 9ac0 693b b1f8 ec3d 1832 59bb
000002b0: d26f 743a 0986 803d b9b1 c23c 7b97 98bd
000002c0: f8f0 063d d13a cfbd 9a65 4c3d 2586 71bd
000002d0: 417f 90bd e9ae 4a3d 4485 88bd 5132 013e
000002e0: 41f0 8dbd 0953 a03c a52e f33d 723b 1d3d
000002f0: 8412 96bd 8d32 7a3c dbb0 22be ba9f 7fbc
00000300: c5cb 3dbd f5de 573d b6fa c1bb e80b 8f3d
00000310: ee70 5dbd 1c57 89bd 0b1e 59bd 3b24 26bc
00000320: 514f 7f3d d552 413c 4254 7a3d 34f2 2fbd
00000330: baa0 fc3a 689a 2bbd 5ab6 933d f055 813d
00000340: e149 a53d 1862 37bd 093b cabc 71ad 913d
00000350: ea79 c23c 2926 64bc 47fb 14bd fcac 9a3d
00000360: 1c76 c83d 2de4 2b3d 7a2b bcbd 5564 2e3d
00000370: 2c5a bf3b 585d cd3d 3761 013e 56b5 80bd
00000380: 05fe a03d ced7 4cbd 57a2 3e3d c643 ea3c
00000390: 519a 42bc 42cc 08bd 979b 27bd 2113 aa3d
000003a0: 3a55 9dbb 357a 21bd 35d1 ca3d 1010 08bd
000003b0: 5a15 40bc c13d 08bd bdcd c2bd 6e73 023c
000003c0: 16b9 d9bd bd0f 18bd deff a9bc 272d 0fbc
000003d0: ef91 803d 5ad9 acbd f5ba a03b aa80 5dbc
000003e0: 3388 573d 49f6 24bb 6a36 12bd 6561 3cbd
000003f0: 5772 ac3b 3d49 11bd fa2f 6c3d 2ef2 503b

network_body._body_endoder.seq_layers.2.bias f4 [256]
0.0015649818 -0.0016550159 0.008147942 -0.007134213 0.002594868 -0.00095818104 0.010833874 0.0029306542
0.0017020399 -4.4204466e-05 -0.0018292433 0.0013982238 -0.005212567 -0.008623165 0.016128777 0.013685541
-0.00077538606 0.009346904 -0.0030460572 -0.004036261 0.00036014232 0.0048787855 -0.002962581 -0.0045411987
-0.0010509606 0.0063858773 -0.0024631922 0.014222606 -0.008698136 -0.005554523 0.00074612204 0.0018119448
-0.0016572902 -0.0034599777 -0.0075638234 0.002822356 0.0032543514 0.003547218 -0.0023548084 0.0010826942
-8.307459e-06 -0.0014843184 0.009061341 -0.0030438947 -0.0061189835 0.0053028516 -0.010997422 -0.005860194
-0.00088623766 -0.0066390117 0.0076125707 0.019573335 0.0005346514 0.0070176283 0.005461029 0.008778281
-0.0012210542 -0.0027549886 -0.0010170776 -0.0006516842 0.001695555 0.00042888898 0.0028370433 0.0067678518
-0.009775347 -0.0019031324 -0.0012928769 -0.010773363 -0.00048519994 0.0016557677 0.0007040883 -0.008018632
-0.003225139 0.00025121428 -0.009051603 0.005022858 -0.0017523743 -0.004703368 -0.004024082 -0.010443298
-0.0051402054 -0.011104449 -0.004293363 0.0075964453 -0.007534283 0.0049066995 -0.0056953025 -0.0030249509
-0.000781319 -0.004122823 -0.0020926576 -0.004239906 0.0034602813 -0.0063489173 -0.00080567703 -0.009087078
0.0049293595 -0.0031605836 -0.010786608 -0.0109835705 0.0024889596 -0.0025722748 0.02781901 -0.0012214713
0.005304359 0.0020838561 0.00047970237 0.007272669 0.009641889 0.0069417427 -0.004418263 0.0028691604
-0.008980589 -0.0021739367 -0.0017192336 0.0017434361 0.005577496 0.005313421 -0.0015136276 0.002743672
0.0011455172 -0.0016435336 -0.009566194 -0.0005093462 0.01244562 -0.007532994 -0.003995015 -0.014669313
0.0098164445 -0.010908931 0.019498188 0.0072307033 -0.008165006 0.0024609382 0.0039578723 -0.0061567053
0.00013715393 -0.002619673 0.009930091 -0.002418408 0.001697091 -0.0010774198 -0.0043585375 0.005684565
0.008724027 -0.005212287 0.00421865 -0.005989252 -0.0012531666 -0.0013527678 0.0030667703 -0.006305393
-0.006328701 0.0056558056 -0.005829141 -0.0046939645 -0.00094148034 0.008277236 0.012043577 -0.0066985684
0.008239951 0.00562484 -0.0026265793 0.0026604428 -0.009750899 0.000820362 -0.0046002744 -0.0068579754
0.0048990073 -0.012395272 0.0053824806 0.008737805 -0.00045542506 -0.0004693656 0.0010765907 -0.0016143462
-0.0053190533 -0.0051581343 -0.010060914 -0.00043503763 -0.0016118255 -0.0051899664 -0.01375197 0.0011509487
-0.006456135 -0.0021145565 -0.004732416 -0.0019771815 0.009659819 -0.0051192828 -0.0039525493 0.01043228
0.013670491 0.006089595 0.006499071 0.0002363735 0.009676225 -0.013777406 -0.001855277 0.004118129
-0.003895144 0.0010922842 0.0007417285 0.0061517293 0.006498399 0.005900109 -0.0032465435 0.0006879046
0.0068717804 0.0051132375 -0.0007187785 -0.0060900473 -0.0046783583 0.0021710868 -0.012459112 0.007901997
0.011405437 -0.008851639 -0.0007464202 -0.012661887 -0.009726056 0.0031178081 -0.008501617 0.0048047006
-0.0010829155 -0.005898225 0.0018550435 0.0028688672 -0.0020586965 -0.005525076 2.0346106e-05 -0.0049852775
0.0034077582 -0.010341584 -0.0028271722 -0.014305114 -0.0029072042 -0.017788485 -0.0013520364 0.0014008377
-0.008840065 0.004127927 -0.0053904 0.0020855374 -0.0024484207 -0.006852624 0.013492359 0.0024457306
0.0058006044 0.012659017 0.0014666545 0.005174108 -0.0028410105 0.0093632825 -0.0080278525 -0.013815614
00000000: 1320 cd3a 1eed d8ba f27e 053c 1ec6 e9bb
00000010: a90e 2a3b 712e 7bba 9080 313c 3810 403b
00000020: fb16 df3a 2f68 39b8 38c3 efba 9b44 b73a
00000030: 2ece aabb 2d48 0dbc 7f20 843c 5239 603c
00000040: 4743 4bba c223 193c 5ca0 47bb 9c42 84bb
00000050: 7cd1 bc39 38de 9f3b dd27 42bb 56ce 94bb
00000060: 63c0 89ba 9f40 d13b 826d 21bb ef05 693c
00000070: a082 0ebc b702 b6bb 6797 433a c77e ed3a
00000080: 6e39 d9ba cbc0 62bb f3d9 f7bb 47f7 383b
00000090: f546 553b 7178 683b 2153 1abb 30e9 8d3a
000000a0: 4460 0bb7 768d c2ba 0576 143c 147c 47bb
000000b0: c181 c8bb 8bc3 ad3b 882e 34bc df06 c0bb
000000c0: 6752 68ba 118c d9bb df72 f93b 4258 a03c
000000d0: d927 0c3a 22f4 e53b 6ef2 b23b c7d2 0f3c
000000e0: c80b a0ba 0a8d 34bb 764f 85ba c9d5 2aba
000000f0: 633d de3a 81dc e039 b0ed 393b dbc4 dd3b
00000100: c728 20bc 8772 f9ba c075 a9ba c282 30bc
00000110: 6f62 feb9 5806 d93a 9192 383a 9560 03bc
00000120: db5c 53bb 69b5 8339 2d4d 14bc c996 a43b
00000130: edaf e5ba b61e 9abb 72dc 83bb 5e1a 2bbc
00000140: 2b6f a8bb 6fef 35bc 57af 8cbb 9aeb f83b
00000150: 26e2 f6bb 61c8 a03b a99f babb 413e 46bb
00000160: 6ed1 4cba bf18 87bb f824 09bb e9ee 8abb
00000170: e3c5 623b 940a d0bb 1234 53ba f8e1 14bc
00000180: 7786 a13b cb21 4fbb 50ba 30bc 6ff4 33bc
00000190: d01d 233b 9c93 28bb b1e4 e33c c719 a0ba
000001a0: 30d0 ad3b 4e91 083b 9080 fb39 924f ee3b
000001b0: 03f9 1d3c 8f77 e33b 14c7 90bb 8608 3c3b
000001c0: 5223 13bc 9b78 0ebb e857 e1ba 0284 e43a
000001d0: 6dc3 b63b 351c ae3b ea64 c6ba 2ecf 333b
000001e0: 2e25 963a d66b d7ba 87bb 1cbc a585 05ba
000001f0: b7e8 4b3c 55d7 f6bb 9de8 82bb 8f57 70bc
00000200: 27d5 203c 5fbb 32bc aaba 9f3c 89ef ec3b
00000210: 84c6 05bc b147 213b 0ab1 813b 30be c9bb
00000220: fad0 0f39 d2ae 2bbb d2b1 223c 277e 1ebb
00000230: ed70 de3a 3638 8dba 10d2 8ebb 9645 ba3b
00000240: 39ef 0e3c d5cb aabb 9a3c 8a3b 7d41 c4bb
00000250: 4b41 a4ba 5b4f b1ba defb 483b 789d cebb
00000260: fe60 cfbb 5654 b93b 6102 bfbb d4cf 99bb
00000270: adcd 76ba 3e9d 073c 6c52 453c aa7f dbbb
00000280: dc00 073c 9450 b83b b022 2cbb d35a 2e3b
00000290: 3cc2 1fbc 900d 573a e6bd 96bb deb8 e0bb
000002a0: da87 a03b 8a15 4bbc 855f b03b 0329 0f3c
000002b0: 1ec6 eeb9 2f15 f6b9 641c 8d3a 7898 d3ba
000002c0: 744b aebb 9105 a9bb 88d6 24bc c315 e4b9
000002d0: e443 d3ba 9810 aabb f14f 61bc 6edb 963a
000002e0: fc8d d3bb 5f94 0abb 6212 9bbb 9a93 01bb
000002f0: 3844 1e3c a8bf a7bb 6384 81bb 27ec 2a3c
00000300: 32fa 5f3c 3a8b c73b 29f6 d43b 07db 7739
00000310: 0789 1e3c a1ba 61bc c42c f3ba 5ff1 863b
00000320: ac45 7fbb fa2a 8f3a 8f70 423a 7294 c93b
00000330: 86f0 d43b b455 c13b f6c3 54bb 7f54 343a
00000340: ac2c e13b f28c a73b 696c 3cba 058f c7bb
00000350: ea4c 99bb cb48 0e3b 4e21 4cbc 6177 013c
00000360: dfdd 3a3c 7706 11bc 69ab 43ba ce73 4fbc
00000370: 095a 1fbc 2454 4c3b 5e4a 0bbc c070 9d3b
00000380: 9df0 8dba e645 c1bb ee24 f33a 9b03 3c3b
00000390: 32eb 06bb b20b b5bb eeac aa37 8a5b a3bb
000003a0: b254 5f3b bf6f 29bc 1448 39bb ff5f 6abc
000003b0: cb86 3ebb 28b9 91bc d036 b1ba 509c b73a
000003c0: ecd5 10bc 9043 873b f4a1 b0bb 83ad 083b
000003d0: af75 20bb fa8b e0bb 0e0f 5d3c 8d48 203b
000003e0: ff12 be3b c467 4f3c c23c c03a 908b a93b
000003f0: 3f30 3abb 7468 193c 4187 03bc e35a 62bc

action_model._continuous_distribution.log_sigma f4 [1, 2]
0.057654735 0.05982288
00000000: 5f27 6c3d d608 753d

action_model._continuous_distribution.mu.weight f4 [2, 64]
-0.0014219729 -0.042955715 0.031681973 0.037890945 0.056379847 0.031615976 0.0033247895 0.025950653
0.04531232 0.023215534 0.004743687 -0.04485817 0.058213618 0.05665728 0.035804115 0.020144798
-0.043761387 0.0010945086 -0.05473252 -0.031573698 0.06175732 0.021998532 0.013192022 -0.04266098
-0.03928421 -0.04311971 -0.023332277 -0.03984635 -0.08534485 -0.07138946 -0.095724754 0.008436021
-0.044562466 0.034361836 0.027169364 0.008821281 -0.029857378 0.016171437 0.009923806 -0.060937986
0.09100731 -0.00034848822 -0.034391865 0.062150642 0.06967579 0.04652981 0.0022092673 0.03233181
-0.016792456 -0.0041862563 -0.033322114 0.03704247 0.00414787 0.011747522 0.102735676 0.067553274
0.03991181 0.02746065 -0.1149057 0.046892103 -0.017260373 0.03238094 0.027302066 0.027063519
-0.04921232 0.03779923 0.000561507 -0.017445046 0.009686847 -0.041745495 -0.028468518 -0.030938027
-0.032572377 -0.005254464 0.028710429 0.062402613 -0.03930808 0.023146544 -0.024188617 -0.0033713821
0.0244406 0.016183363 0.017134987 -0.03822451 0.004476139 -0.01156901 -0.015896594 0.026965322
0.046936963 0.011476198 -0.007069566 0.043832865 0.046405945 0.012462338 0.027443202 -0.030769775
-0.084046066 -0.009167358 0.020319639 -0.04625934 -0.10512221 -0.01572564 0.0017159296 -0.010102324
-0.044414274 -0.043878824 0.05584164 -0.008624162 -0.03401144 -0.012131391 -0.0061433106 0.013730268
0.044433832 -0.043353345 0.010784292 -0.016222786 0.005926205 0.032323614 0.034431316 -0.025026768
-0.0069458354 -0.01122561 0.02534982 -0.07611337 -0.061721317 0.0025441449 -0.007065616 -0.06492509
00000000: 7e61 baba 55f2 2fbd f5c4 013d 8933 1b3d
00000010: 8eee 663d c17f 013d b6e4 593b 7796 d43c
00000020: 6999 393d 812e be3c ee70 9b3b 33bd 37bd
00000030: 6771 6e3d 7711 683d 56a7 123d b406 a53c
00000040: 243f 33bd 9d75 8f3a 352f 60bd 6c53 01bd
00000050: 3ef5 7c3d 4436 b43c 5a23 583c 48bd 2ebd
00000060: 7be8 20bd 4b9e 30bd 5523 bfbc ed35 23bd
00000070: 48c9 aebd a334 92bd 570b c4bd 3d37 0a3c
00000080: 2287 36bd ffbe 0c3d 4992 de3c 2287 103c
00000090: 7697 f4bc f679 843c 7697 223c 1c9a 79bd
000000a0: 0a62 ba3d 4cb5 b6b9 7cde 0cbd ac91 7e3d
000000b0: 2eb2 8e3d 0b96 3e3d 5bc9 103b 5c6e 043d
000000c0: 5590 89bc dd2c 89bb c57c 08bd d8b9 173d
000000d0: dbea 873b ae78 403c 1567 d23d 5f59 8a3d
000000e0: 917a 233d 28f5 e03c ae53 ebbd ef11 403d
000000f0: a065 8dbc e0a1 043d 95a8 df3c 50b4 dd3c
00000100: dc92 49bd 5ed3 1a3d 1932 133a eae8 8ebc
00000110: 95b5 1e3c 53fd 2abd cf36 e9bc bf71 fdbc
00000120: 9d6a 05bd a42d acbb 2232 eb3c e299 7f3d
00000130: 8201 21bd d29d bd3c 3527 c6bc 68f2 5cbb
00000140: a737 c83c f992 843c ac5e 8c3c 4e91 1cbd
00000150: 93ac 923b f28b 3dbc 9339 82bc 61e6 dc3c
00000160: f940 403d aa06 3c3c d1a7 e7bb 178a 333d
00000170: 2914 3e3d d62e 4c3c 91d0 e03c e510 fcbc
00000180: 5820 acbd b032 16bc 5f75 a63c 6f7a 3dbd
00000190: 504a d7bd 0fd3 80bc 0be9 e03a 3884 25bc
000001a0: beeb 35bd 48ba 33bd 34ba 643d 5b4c 0dbc
000001b0: 944f 0bbd bec2 46bc d34d c9bb ebf4 603c
000001c0: 4000 363d 4793 31bd 99b0 303c a6e5 84bc
000001d0: 9c30 c23b c465 043d da07 0d3d f004 cdbc
000001e0: e499 e3bb 9feb 37bc 6daa cf3c 54e1 9bbd
000001f0: 7ecf 7cbd abbb 263b af86 e7bb 72f7 84bd

action_model._continuous_distribution.mu.bias f4 [2]
0.008835601 -0.0103237275
00000000: 32c3 103c da24 29bc

onnx::LSTM_101 f4 [1, 256, 256]
-0.09146726 -0.015986444 0.14611565 -0.10525498 0.09404617 -0.03907824 0.11105712 0.061908424
0.017445682 -0.08290272 -0.10407962 0.018665636 0.09440669 -0.04894129 -0.06268365 -0.07322261
-0.0997565 -0.048018914 0.069503896 -0.030160043 0.011801125 -0.12510793 0.08587065 -0.06799502
0.09242253 -0.030040389 -0.06141061 0.010214401 0.07539935 0.06168816 0.07093488 -0.1345227
0.051114585 -0.06561349 -0.036822435 0.019897792 -0.115040034 0.07266573 0.10126875 -0.047428314
0.00924598 0.076796405 0.036854822 0.12872282 0.12094583 0.08138598 0.08606872 0.11846353
0.12264367 -0.12243745 -0.050893996 -0.07782748 0.03266609 -0.11362186 -0.05035192 0.103719644
0.09070285 0.10388334 0.028604476 0.13250716 -0.03312844 0.10723598 -0.048572857 0.055712275
-0.0153790545 -0.05579989 -0.12119923 -0.06109889 0.0992596 0.049258742 0.040322363 -0.07984951
-0.033941697 -0.09105893 0.021394996 0.008734905 -0.11863184 -0.07506294 0.0399053 -0.008582848
-0.07590857 0.12192408 -0.08771691 -0.11950426 0.06642047 -0.01913721 -0.072366 -0.044226862
-0.07558175 0.13095577 -0.12109633 0.07062087 -0.056525577 0.14400397 0.12986161 0.09420043
-0.12187835 -0.030556504 -0.12231878 0.024191406 -0.05500654 0.14468738 0.07996802 0.06508713
0.12533449 0.12811743 -0.118746154 0.027271926 -0.099769644 -0.032104064 -0.041568726 0.053999625
-0.046675958 -0.036966916 0.058930025 -0.029627062 -0.0028363846 0.1323085 0.08441808 0.035813548
-0.10485048 0.005238953 0.04747617 -0.037811585 0.034696203 -0.023746915 0.051435642 -0.04164006
0.073688954 0.10351151 0.08673555 0.051592696 -0.048126463 -0.043056805 0.038873643 0.033163745
-0.0030600023 -0.007993707 0.10166218 0.058373794 0.020574711 0.12949075 -0.0010599516 0.06276074
-0.03375442 -0.026658192 -0.09176164 0.01684656 0.054220106 0.12478039 0.032573823 0.020127172
0.02947297 -0.14112033 0.04213092 0.04641418 -0.12516738 0.11551397 0.11588904 0.04869778
0.07363677 -0.019422092 0.07619044 0.00068386865 -0.12152071 -0.13057955 0.12672152 -0.075365946
0.005595574 0.08961738 0.12901992 0.041122735 -0.03387326 -0.124035284 0.011581005 -0.04720285
0.122705705 0.05845722 -0.091025874 -0.12124259 -0.020368146 0.08120961 0.12257685 0.04979136
-0.13796866 -0.032110404 0.078967445 0.08950882 -0.046120882 0.122486755 -0.010069685 -0.072746836
0.08258238 -0.030980496 -0.063742094 0.051942103 -0.09307434 -0.009315301 -0.12601364 -0.03161087
0.12847917 -0.11563838 0.018261742 -0.018859124 0.09217962 0.11325072 -0.008094657 0.00984301
0.066263534 0.11336306 0.10839062 0.13189621 -0.012000759 -0.12502193 -0.053929158 0.11312024
-0.01597193 0.043953907 -0.0010713706 0.08121394 -0.13078997 0.100510605 0.108437076 0.109598696
0.046747565 -0.09252442 -0.02235385 -0.009701948 -0.01474898 0.10290275 -0.004395271 0.03419662
0.030684477 -0.044175886 0.08292422 -0.09356583 0.054077815 -0.06667403 -0.013159479 -0.028977249
0.028652124 -0.0766396 0.11649091 0.04039074 -0.08922761 -0.08306289 0.07619478 -0.07769524
-0.028444286 0.08371245 0.06702447 0.088617265 -0.13086963 -0.028612249 0.02368016 -0.10531555
00000000: 3053 bbbd 01f6 82bc 579f 153e ec8f d7bd
00000010: 479b c03d 8110 20bd ea71 e33d b093 7d3d
00000020: 3fea 8e3c e7c8 a9bd b227 d5bd ade8 983c
00000030: 4b58 c13d a976 48bd 4960 80bd bcf5 95bd
00000040: 234d ccbd 7baf 44bd 0f58 8e3d 3212 f7bc
00000050: 8159 413c 4b1c 00be f4dc af3d f940 8bbd
00000060: 0648 bd3d 4317 f6bc b189 7bbd 4e5a 273c
00000070: f96a 9a3d b9ac 7c3d 4e46 913d 52c0 09be
00000080: 875d 513d 5e60 86bd 1fd3 16bd b200 a33c
00000090: 1c9a ebbd c5d1 943d fe65 cf3d 3144 42bd
000000a0: 737c 173c 6f47 9d3d 15f5 163d eacf 033e
000000b0: 73b2 f73d b1ad a63d cc44 b03d 029d f23d
000000c0: 9b2c fb3d 7cc0 fabd 3976 50bd 0464 9fbd
000000d0: e1cc 053d 94b2 e8bd d13d 4ebd f76a d43d
000000e0: 6ac2 b93d cac0 d43d ef53 ea3c f5af 073e
000000f0: b0b1 07bd 8a9e db3d 55f4 46bd 8e32 643d
00000100: 6ef8 7bbc 6d8e 64bd 4d37 f8bd d442 7abd
00000110: 9e48 cb3d 89c3 493d 1029 253d 2488 a3bd
00000120: 7306 0bbd 1b7d babd 8f44 af3c d91c 0f3c
00000130: 40f5 f2bd 99ba 99bd bd73 233d 139f 0cbc
00000140: f475 9bbd 55b3 f93d eca4 b3bd a6be f4bd
00000150: 7507 883d a3c5 9cbc a034 94bd 3a27 35bd
00000160: 9bca 9abd 4519 063e 5a01 f8bd ada1 903d
00000170: 5d87 67bd c775 133e 71fa 043e 28ec c03d
00000180: 5b9b f9bd a251 fabc 4582 fabd 0e2d c63c
00000190: 8a4e 61bd ee28 143e 46c6 a33d 674c 853d
000001a0: af57 003e 3731 033e 2f31 f3bd 6069 df3c
000001b0: 0754 ccbd 8d7f 03bd f843 2abd b62e 5d3d
000001c0: 4a2f 3fbd 9f6a 17bd 9c60 713d 74b4 f2bc
000001d0: a3e2 39bb e17b 073e 63e3 ac3d 3ab1 123d
000001e0: d9bb d6bd 86ab ab3b 5f76 423d 52e0 1abd
000001f0: 9b1d 0e3d e488 c2bc 2eae 523d c48e 2abd
00000200: 3cea 963d d8fd d33d 68a2 b13d dd52 533d
00000210: 4120 45bd 555c 30bd f839 1f3d b5d6 073d
00000220: 528a 48bb 0af8 02bc 4334 d03d 5c19 6f3d
00000230: 4c8c a83c 3999 043e 13ee 8aba b488 803d
00000240: 1342 0abd 4862 dabc 87ed bbbd cc01 8a3c
00000250: e715 5e3d dc8c ff3d 216c 053d bde1 a43c
00000260: 4c71 f13c d981 10be 7991 2c3d cc1c 3e3d
00000270: e12b 00be 9792 ec3d 3c57 ed3d 5377 473d
00000280: e0ce 963d 141b 9fbc bc09 9c3d a645 333a
00000290: dadf f8bd a5b6 05be 49c3 013e 7659 9abd
000002a0: 145b b73b 5189 b73d cc1d 043e 5070 283d
000002b0: b0be 0abd 3606 febd 41be 3d3c c757 41bd
000002c0: 214d fb3d d770 6f3d c66b babd 094e f8bd
000002d0: 19db a6bc 3951 a63d 9209 fb3d 06f2 4b3d
000002e0: a847 0dbe 3386 03bd afb9 a13d 6650 b73d
000002f0: 40e9 3cbd 56da fa3d 52fb 24bc 4bfc 94bd
00000300: f320 a93d cfca fdbc 378b 82bd 3ec1 543d
00000310: c29d bebd 349f 18bc b809 01be 667a 01bd
00000320: 0b90 033e d1d3 ecbd a699 953c 737e 9abc
00000330: abc8 bc3d feef e73d 749f 04bc 9444 213c
00000340: 2db5 873d e42a e83d e7fb dd3d cd0f 073e
00000350: d59e 44bc c005 00be d2e4 5cbd 96ab e73d
00000360: 91d7 82bc 0309 343d 3b6d 8cba 7f53 a63d
00000370: ceed 05be 81d8 cd3d 4214 de3d 4875 e03d
00000380: 607a 3f3d 717d bdbd 6c1f b7bc ebf4 1ebc
00000390: b5a5 71bc adbe d23d 3506 90bb c111 0c3d
000003a0: 035e fb3c c6f1 34bd 2cd4 a93d 719f bfbd
000003b0: b380 5d3d 658c 88bd db9a 57bc b261 edbc
000003c0: dcb7 ea3c 39f5 9cbd c992 ee3d c370 253d
000003d0: f7bc b6bd e01c aabd 020c 9c3d af1e 9fbd
000003e0: fe03 e9bc 6f71 ab3d 2044 893d f87c b53d
000003f0: b002 06be 3c64 eabc e5fc c13c aeaf d7bd

onnx::LSTM_102 f4 [1, 256, 64]
-0.028337229 -0.12452414 -0.06282984 -0.02286012 -0.08873883 -0.13178174 0.1841038 0.057813644
0.055147585 0.04670036 -0.14788792 -0.055000488 0.096532136 0.12040226 -0.029013926 0.0018503956
-0.05227338 0.048066948 0.0118540265 -0.17900786 -0.20375088 0.10975013 -0.18539979 -0.17256926
0.1260756 -0.15805346 0.025071822 0.18819833 -0.14284375 -0.16187617 -0.08792549 -0.11931589
0.20306109 -0.20726033 0.11145524 -0.08094582 -0.06785167 -0.0083479155 -0.07363176 0.024676552
0.06477925 0.06929156 -0.023544438 -0.04813469 -0.010365655 0.17745091 0.04815313 -0.034206513
0.06849416 0.08655672 0.055270795 0.11092863 0.20479174 -0.19365156 -0.18617237 -0.00066410104
-0.03514282 -0.12389191 -0.03150613 -0.17201665 -0.12261917 0.20810656 -0.1078285 -0.17152841
-0.099902056 -0.21931304 0.17070822 -0.102249935 0.08215243 -0.031880364 0.06773798 -0.21728134
-0.12056269 0.129988 -0.038449615 0.009338358 0.08285642 -0.060826175 0.19146515 -0.111856565
-0.10317758 0.17652932 -0.06945143 0.1027019 0.19585127 -0.061781004 0.20327152 0.0069947727
-0.17414221 0.012364712 -0.013703283 0.15088958 0.06487423 0.18163897 -0.083636515 -0.12762353
0.06594394 -0.12190615 0.021255959 -0.14173476 0.21318363 -0.14826734 -0.09544635 -0.012120276
0.045300398 0.025493653 -0.13992457 -0.13330428 -0.1676485 0.10664635 0.06486664 0.026956724
0.19239038 0.15638208 0.22056304 0.1853135 0.13740192 -0.11253112 0.16859719 -0.11799049
0.08893551 0.069950156 0.1283683 -0.2018035 0.031290792 0.17803988 0.073459156 0.15435506
0.13323548 0.160772 -0.10284126 -0.022847285 -0.11564866 0.18415537 0.1952521 -0.0038114241
0.2049835 -0.14292206 -0.1646134 -0.051420014 0.11704449 -0.11494012 0.15849516 0.09634701
0.1498626 0.18093897 -0.2299483 0.02952475 -0.22013448 -0.054057073 -0.2111601 -0.13357486
-0.08448899 -0.104663335 -0.020534169 0.11722664 0.03248816 0.03672047 -0.20957772 0.045404926
-0.06724546 0.017660433 -0.1585121 -0.032741416 0.15819016 0.05179192 -0.08635784 -0.158851
0.18419111 -0.10177048 -0.08683976 -0.1276745 -0.07355809 -0.012825128 -0.07162021 -0.102924205
0.12192781 0.04330549 0.049585655 -0.11841513 0.17549296 0.13262667 0.024666624 -0.007379973
0.002074888 0.16159627 0.04347409 -0.13412024 -0.09418818 0.110456444 0.20271148 -0.16906434
0.1616404 -0.09939956 -0.004389702 -0.10587826 0.093319416 -0.061658204 -0.08620685 -0.095179126
-0.049238067 -0.22096515 -0.19344111 -0.09150913 -0.07887346 0.21641254 0.07042541 -0.20274687
-0.013095904 -0.0069623403 0.092288375 -0.18826304 0.047048606 0.13856724 -0.13314542 -0.19837683
0.16961052 0.060982186 -0.087307744 -0.19876726 -0.033238888 -0.16999665 0.027251488 0.20545834
0.1464149 -0.13034338 -0.14962839 -0.19471541 -0.028303182 -0.13055848 0.18114899 0.021139015
-0.0061563593 0.07025145 0.19735837 -0.12569655 -0.16560411 -0.013003297 -0.062165566 0.063255146
-0.052042965 -0.017072573 0.035962634 0.1368835 -0.19970068 0.15777521 0.045534182 -0.044718992
-0.13218863 -0.01485643 -0.16822182 -0.031974304 -0.17904443 -0.20418501 0.01148712 0.05589382
00000000: 7a23 e8bc 8306 ffbd eeac 80bd 2545 bbbc
00000010: b4bc b5bd cbf1 06be b585 3c3e 00ce 6c3d
00000020: 6fe2 613d e048 3f3d ee6f 17be 3148 61bd
00000030: a4b2 c53d 7695 f63d 9dae edbc f988 f23a
00000040: 9d1c 56bd d9e1 443d 6437 423c d64d 37be
00000050: 12a4 50be adc4 e03d 71d9 3dbe ffb5 30be
00000060: f619 013e c4d8 21be 6c63 cd3c 10b7 403e
00000070: a245 12be dec2 25be 4812 b4bd e45b f4bd
00000080: 3fef 4f3e 0d3c 54be a542 e43d ecc6 a5bd
00000090: d1f5 8abd b2c5 08bc 40cc 96bd 7b26 ca3c
000000a0: fcaa 843d bce8 8d3d 44e0 c0bc e128 45bd
000000b0: b5d4 29bc b1b5 353e 373c 453d 211c 0cbd
000000c0: ab46 8c3d a644 b13d a163 623d 8d2e e33d
000000d0: edb4 513e 984c 46be f8a3 3ebe 1117 2eba
000000e0: ebf1 0fbd 0bbb fdbd 920c 01bd 2225 30be
000000f0: c21f fbbd e319 553e 30d5 dcbd 25a5 2fbe
00000100: 7399 ccbd 9993 60be 23ce 2e3e 6a68 d1bd
00000110: 893f a83d fc94 02bd 36ba 8a3d 007f 5ebe
00000120: 92e9 f6bd 931b 053e 587d 1dbd eaff 183c
00000130: a0b0 a93d de24 79bd 710f 443e 0e15 e5bd
00000140: c44e d3bd 1ac4 343e 8d3c 8ebd 6055 d23d
00000150: 3c8d 483e 140e 7dbd 6926 503e 6834 e53b
00000160: 5652 32be 5c95 4a3c bc83 60bc cc82 1a3e
00000170: c8dc 843d 91ff 393e 9f49 abbd beaf 02be
00000180: 9e0d 873d eea9 f9bd fa20 ae3c eb22 11be
00000190: cf4c 5a3e 65d3 17be 6079 c3bd 1f94 46bc
000001a0: e98c 393d 11d8 d03c 6348 0fbe eb80 08be
000001b0: 0cac 2bbe 6769 da3d cdd8 843d 59d4 dc3c
000001c0: fc01 453e a022 203e 47db 613e d2c2 3d3e
000001d0: 17b3 0c3e b776 e6bd bea4 2c3e ffa4 f1bd
000001e0: d223 b63d 0742 8f3d fb72 033e 94a5 4ebe
000001f0: c62a 003d 1650 363e c171 963d 410f 1e3e
00000200: e26e 083e 6aa1 243e 709e d2bd 3b2a bbbc
00000210: 34d9 ecbd 3a93 3c3e 2bf0 473e 16c9 79bb
00000220: 32e7 513e 295a 12be 6a90 28be cb9d 52bd
00000230: 06b5 ef3d ba65 ebbd 8e4c 223e 9551 c53d
00000240: 9575 193e 1148 393e 9177 6bbe e3dd f13c
00000250: ef6a 61be f36a 5dbd 5a3a 58be d9c7 08be
00000260: 9008 adbd bb59 d6bd 4637 a8bc 8514 f03d
00000270: 4e12 053d 3468 163d 8b9b 56be 84fa 393d
00000280: fdb7 89bd 9dac 903c ff50 22be dd1b 06bd
00000290: 9afc 213e c423 543d 61dc b0bd d6a9 22be
000002a0: 989c 3c3e 0b6d d0bd 0bd9 b1bd 1bbd 02be
000002b0: a0a5 96bd 7c20 52bc 9ead 92bd edc9 d2bd
000002c0: 4ab5 f93d 1961 313d 541a 4b3d a283 f2bd
000002d0: 6db4 333e 49cf 073e a911 ca3c b3d3 f1bb
000002e0: d8fa 073b 7e79 253e e311 323d d156 09be
000002f0: bce5 c0bd fd36 e23d 9993 4f3e 341f 2dbe
00000300: 1085 253e ff91 cbbd 7dd7 8fbb b4d6 d8bd
00000310: 401e bf3d 508d 7cbd 388d b0bd 46ed c2bd
00000320: dbad 49bd b044 62be 6d15 46be 2469 bbbd
00000330: 6988 a1bd 409b 5d3e 333b 903d e09c 4fbe
00000340: 3490 56bc 5824 e4bb b001 bd3d 07c8 40be
00000350: 0ab6 403d 92e4 0d3e 4657 08be 4c23 4bbe
00000360: 61ae 2d3e 75c8 793d 67ce b2bd a589 4bbe
00000370: 8025 08bd 9a13 2ebe 833e df3c ac63 523e
00000380: caed 153e bc78 05be 2f38 19be 7a63 47be
00000390: 13dc e7bc 1fb1 05be 1f7f 393e ba2b ad3c
000003a0: 49bb c9bb fedf 8f3d 5018 4a3e 99b6 00be
000003b0: 2094 29be c80b 55bc 52a1 7ebd ea8b 813d
000003c0: 012b 55bd c8db 8bbc 8e4d 133d 302b 0c3e
000003d0: 567e 4cbe d38f 213e 0d82 3a3d 432b 37bd
000003e0: 755c 07be 6268 73bc 5742 2cbe 7df7 02bd
000003f0: 6c57 37be e015 51be 7934 3c3c ebf0 643d

onnx::LSTM_103 f4 [1, 512]
0.0027774945 0.009271043 0.011685295 0.008934223 0.0012804087 0.008876821 0.0037090876 0.004769843
0.009646658 0.0047412184 0.005033019 0.0038857092 0.007968394 0.019431721 -0.007748827 0.0044659213
0.001039875 0.0047909273 -0.005789419 -0.012421268 0.003926088 0.006596554 0.009871036 0.009704789
0.011974167 0.023711773 0.0032932586 0.012335636 0.0067720227 -0.004033409 0.02119638 -0.004741263
-0.00276919 0.0043842583 0.0098507395 -0.0014103913 -0.005354209 0.0099696405 0.006443263 0.0019443015
0.001949344 0.010908444 0.0065234164 0.018430637 0.00433518 0.0061183935 -0.0048878603 0.009918363
0.0031822873 -0.012205295 0.010252158 -0.005680064 -0.004159605 0.01538896 0.0139585305 0.012725041
0.014836877 0.015441888 0.0015929141 0.0117346905 -0.011097908 0.014562922 -0.0016763353 0.0017791634
0.01706515 0.013319714 -0.00016175947 0.020375537 0.002738368 0.011562275 0.004927504 0.011068745
0.0056749634 0.0073158387 0.0005172448 -0.00022117949 0.016849903 0.014434846 0.005129705 -0.0045480058
0.006390429 0.002995289 0.0015140494 0.0101686865 -0.013886904 0.0010103855 -0.002459903 0.015343817
0.012018156 0.021414556 0.0020794442 0.028052002 -0.0011132405 0.00028972432 0.044714686 0.014250965
0.004281724 -0.0048336782 0.0076355976 -0.0008101652 0.021194661 9.359646e-05 0.0044548013 0.017366618
0.004765673 0.008076805 0.0059491484 0.03000836 0.00796094 0.01615338 -0.012191484 0.0008234354
0.013020671 0.007266996 0.008849084 0.00054646 -0.0047510453 0.011087913 0.019217225 0.023071906
0.02221029 0.020636719 0.021975202 0.023857996 0.010356691 0.023776876 -0.0015109002 -0.0032112126
1.0099998 1.0002229 1.0005411 0.99341816 1.0085379 1.006349 1.0070761 1.0030848
1.0126053 1.0079063 1.0063789 1.0055467 1.0038683 1.0107625 1.0042379 0.9955138
0.99917734 0.9998925 0.9818877 0.9959016 1.0067276 0.98921376 1.0103272 1.0085405
1.0115609 1.0046053 0.995417 0.99995965 1.0095927 1.0092337 1.0064622 1.0167905
1.0028638 1.0043088 1.0069485 1.000103 1.0007442 1.010691 1.000124 0.9827031
1.0042561 1.0125718 1.0141748 1.0035084 1.0053293 0.9833884 0.9966821 0.99726725
0.99838156 1.0066803 1.0079631 0.9916104 0.9925875 1.0154171 0.9908036 0.99760604
0.99360436 1.0075492 0.9923024 1.010145 1.0212619 1.0085399 0.99140906 1.0117382
0.002195954 -0.001023852 0.0010064929 0.004893137 -0.0067771594 -0.0015105263 0.00936102 0.010628615
-0.00010829184 0.0035122563 0.010141877 0.00095539354 0.0008327568 -0.0075501576 0.00972558 0.0029702818
-0.005342944 0.0016059582 -0.010933644 0.006727081 -0.0015429246 -0.0015608066 -0.007917561 0.005971205
0.0012492181 -0.0028223298 -0.006780354 -0.008906632 -0.0034090593 -0.008770523 -0.007759419 -0.0050514704
0.0071148667 0.0035571158 0.0062482986 0.005878126 0.008879847 -0.008233039 -0.00063322036 -0.0026252854
0.0029828572 0.007166456 -0.0052827434 0.011698844 -0.00020474184 -0.0019005643 -0.000489851 -0.004083807
0.0015091294 0.0045045204 -0.01075966 0.0069731846 -0.003779787 0.0013188269 0.0009794856 0.00028142778
-0.0021707097 0.0088876495 -0.003283562 0.0008872809 0.010413888 -0.0063515455 0.0030155035 0.008954683
00000000: a006 363b 93e5 173c ae73 3f3c d960 123c
00000010: 63d3 a73a 1670 113c 2a14 733b 584c 9c3b
00000020: 040d 1e3c 395c 9b3b 06ec a43b 62a7 7e3b
00000030: de8d 023c 462f 9f3c dfe9 fdbb dd56 923b
00000040: 6a4c 883a 36fd 9c3b 2bb5 bdbb 9382 4bbc
00000050: 6aa6 803b e827 d83b 20ba 213c d600 1f3c
00000060: 4c2f 443c 313f c23c b6d3 573b 681b 4a3c
00000070: d8e7 dd3b b02a 84bb 08a4 ad3c 995c 9bbb
00000080: 4c7b 35bb d3a9 8f3b ff64 213c e1dc b8ba
00000090: 5c72 afbb b457 233c 0222 d33b efd7 fe3a
000000a0: 2181 ff3a 55b9 323c 62c2 d53b d9fb 963c
000000b0: 200e 8e3b ce7c c83b 582a a0bb a180 223c
000000c0: ec8d 503b b8f8 47bc abf8 273c d51f babb
000000d0: 4c4d 88bb fa21 7c3c 52b2 643c b17c 503c
000000e0: 5f16 733c f9ff 7c3c 54c9 d03a dc42 403c
000000f0: 00d4 35bc 5299 6e3c 7bb8 dbba d132 e93a
00000100: 37cc 8b3c ee3a 5a3c fa9d 29b9 99ea a63c
00000110: 3176 333b b26f 3d3c e676 a13b ae59 353c
00000120: 0bf5 b93b b4b9 ef3b b697 073a 6bec 67b9
00000130: cf08 8a3c 2280 6c3c 1617 a83b 7007 95bb
00000140: ce66 d13b 9c4c 443b 1173 c63a 909a 263c
00000150: e685 63bc e96e 843a 5336 21bb a264 7b3c
00000160: cde7 443c 946d af3c 4947 083b 50cd e53c
00000170: 27ea 91ba 24e6 9739 bf26 373d e17c 693c
00000180: b44d 8c3b d563 9ebb 0934 fa3b 4461 54ba
00000190: 6da0 ad3c 3849 c438 95f9 913b 7044 8e3c
000001a0: 5d29 9c3b 9354 043c 13f1 c23b 18d4 f53c
000001b0: 9a6e 023c 1854 843c cabe 47bc d0db 573a
000001c0: a754 553c fb1f ee3b c0fb 103c 4f40 0f3a
000001d0: a8ae 9bbb 14aa 353c 716d 9d3c 4b01 bd3c
000001e0: 5bf2 b53c 560e a93c 5705 b43c d871 c33c
000001f0: 1caf 293c b9c7 c23c 6609 c6ba 3573 52bb
00000200: ac47 813f 4e07 803f bb11 803f a750 7e3f
00000210: c517 813f 0bd0 803f dfe7 803f 1565 803f
00000220: 0d9d 813f 1303 813f 06d1 803f c1b5 803f
00000230: c27e 803f aa60 813f de8a 803f fed9 7e3f
00000240: 16ca 7f3f f4f8 7f3f fe5c 7b3f 68f3 7e3f
00000250: 73dc 803f 1d3d 7d3f 6752 813f db17 813f
00000260: d47a 813f e896 803f a6d3 7e3f 5bfd 7f3f
00000270: 553a 813f 922e 813f c1d3 803f 3126 823f
00000280: d75d 803f 318d 803f b0e3 803f 6003 803f
00000290: 6318 803f 535e 813f 1004 803f 6e92 7b3f
000002a0: 778b 803f f49b 813f 7bd0 813f f772 803f
000002b0: a1ae 803f 58bf 7b3f 8f26 7f3f e84c 7f3f
000002c0: ef95 7f3f e6da 803f ef04 813f 2eda 7d3f
000002d0: 371a 7e3f 30f9 813f 4ea5 7d3f 1c63 7f3f
000002e0: db5c 7e3f 5ff7 803f 8807 7e3f 6e4c 813f
000002f0: b6b8 823f d617 813f fccc 7d3f a380 813f
00000300: ffe9 0f3b c632 86ba 4cec 833a 9c56 a03b
00000310: ef12 debb dafc c5ba f75e 193c a423 2e3c
00000320: bd1a e3b8 e22d 663b 1e2a 263c 6073 7a3a
00000330: 5d4d 5a3a 5067 f7bb 0a58 1f3c 0fa9 423b
00000340: dd13 afbb 047f d23a 0723 33bc d86e dc3b
00000350: f53b caba fb93 ccba a8b8 01bc 19aa c33b
00000360: cebc a33a d6f6 38bb bb2d debb 1fed 11bc
00000370: 866a 5fbb 3db2 0fbc b942 febb ce86 a5bb
00000380: d423 e93b 801e 693b 87be cc3b 4b9d c03b
00000390: c77c 113c dee3 06bc b3fe 25ba fb0c 2cbb
000003a0: 0a7c 433b 97d4 ea3b dd1a adbb 82ac 3f3c
000003b0: f8af 56b9 5b1c f9ba 5869 00ba 75d1 85bb
000003c0: fbcd c53a a89a 933b 4949 30bc 507f e43b
000003d0: 4eb6 77bb 7ddc ac3a 1562 803a 998c 9339
000003e0: 7742 0ebb 819d 113c 0731 57bb 6a98 683a
000003f0: 039f 2a3c a020 d0bb c19f 453b aab6 123c
