code/selfparking/mla/results/run_01/Car/Car-48999991.onnx (onnx, 712368 bytes, 10 tensors)

network_body._body_endoder.seq_layers.0.weight f4 [256, 111]
000000 bc ad 8d 3d 87 8e 09 be dd 1a ee 3d 3c 48 a2 3d
       0.06917903 -0.13433276 0.116262175 0.07923934
000010 91 08 76 bd bc 89 04 be fc 97 e5 3c d7 b9 88 3e
       -0.060066763 -0.12943166 0.028026573 0.26704285
000020 24 44 bd 3d 26 e7 10 bd a5 1a 0b 3c 16 f9 8b 3d
       0.092415124 -0.03537669 0.008490239 0.06834619
000030 25 db 7c 3d 43 30 c5 bc fb 40 d2 3d c4 d3 5c 3e
       0.06173243 -0.024070865 0.102663 0.21565157
000040 ca 59 ae bd c2 92 89 3e d5 b6 8f 3d 5f b5 04 3e
       -0.0851322 0.2686978 0.07017294 0.12959813
000050 c2 a1 40 be e4 fa 4a bd 48 2c 12 3e cb c8 90 3d
       -0.18811706 -0.049555674 0.14274704 0.07069548
000060 4a 22 9e bd e4 5f 5b 3e 53 ca fc bb bc d6 9d bc
       -0.07721384 0.21423298 -0.0077145486 -0.019267432
000070 b7 af 49 3c fd bd b3 3d 25 46 8e 3c 70 37 04 bd
       0.01230996 0.08776472 0.017367432 -0.03227943
000080 74 1a 0a bd 0d 8a 22 bd f3 d2 a9 3d 79 50 f8 bd
       -0.033716634 -0.039682437 0.082921885 -0.12124724
000090 b8 40 dc 3c ea 81 e2 bd b9 f5 86 3d 49 69 18 be
       0.026886329 -0.110599354 0.065898366 -0.14883913
0000a0 39 27 03 be d8 ea 69 bd 8e 13 a2 3d 25 97 04 3e
       -0.12807931 -0.05710873 0.07913886 0.12948282
0000b0 48 dd a4 3d 70 90 46 be 0c de a7 3d 36 e9 88 3d
       0.080500185 -0.19391036 0.08196649 0.066851065
0000c0 8e 70 c0 3d 51 eb ae bd 15 d8 d0 bc 0a 6e 20 3d
       0.09396468 -0.08540977 -0.025493661 0.03916744
0000d0 f6 c8 2b be 11 8b bd 3d fb 59 0b 3e 65 53 ab 3d
       -0.1677588 0.092550404 0.13608544 0.083655156
0000e0 73 94 99 3d 86 75 01 3e b8 05 2e 3e 03 7a de 3d
       0.074990176 0.12642488 0.16994369 0.10863116
0000f0 ee 0e c2 bd 72 8b 3d 3e 40 c6 05 bd 35 4f 0a 3e
       -0.09475504 0.18510225 -0.03265977 0.13506778
000100 7a a7 25 be 02 57 01 3c ed 22 9e bd 1b 23 ad bc
       -0.16177168 0.007894279 -0.07721505 -0.021134904
000110 8e f8 ef bc 71 86 d7 bd da 7d a0 3d 3a ac 70 3e
       -0.029293325 -0.105236895 0.07836504 0.23503199
000120 f1 2d 5d be a2 76 7b bd 60 f3 37 3c 98 cd b5 3d
       -0.21599557 -0.061392434 0.011227459 0.088771045
000130 5c 59 6c bd 88 dc 01 be db 3d 24 3e f2 0a 0e 3d
       -0.057702407 -0.12681782 0.16039221 0.034678407
000140 bb b2 be bc 48 c8 35 3c 98 55 80 bd 42 4d a6 3d
       -0.023278585 0.011095114 -0.06266326 0.081202045
000150 ba 47 2d 3e ca 9c 8b 3d e1 fb 5b 3d 33 4d a5 bb
       0.16921893 0.068170145 0.053707007 -0.0050446033
000160 36 1c 5b 3e 61 7d 2a 3e 38 29 1b 3e 06 9e 2f 3e
       0.2139748 0.16649391 0.15152442 0.17150125
000170 10 71 3f 3e 90 fa 4d bd c0 f4 c2 3d bd 3d 5d 3d
       0.18695474 -0.050287783 0.095193386 0.054013956
000180 67 a0 94 3c 2d ff 0e 3e 45 1e 4d 3e 8c 3a 36 3e
       0.018142892 0.1396453 0.20031078 0.17795771
000190 3e ed 44 3d 60 94 a0 bc 64 3c db 3d cc c0 a7 3d
       0.048077814 -0.019602 0.10704878 0.0819107
0001a0 61 98 bd 3d 14 bf 03 be 7a 0b 42 3e 54 4e cb 3d
       0.092575796 -0.1286586 0.1894969 0.09927049
0001b0 19 36 07 3e 07 d4 e3 3d 3c 41 93 3d d1 6a a4 bc
       0.1320423 0.111244254 0.07190177 -0.020070465
0001c0 3d 3f 17 3e 02 b6 a7 3d cb 3e 1f 3d bc d1 b2 bd
       0.14770217 0.08189012 0.038878243 -0.0873141
0001d0 9e 74 1c 3a 99 8b 20 be 33 a4 9d 3d 29 78 d8 bd
       0.0005968305 -0.15678252 0.07697334 -0.10569794
0001e0 ea 67 aa 3d 86 45 be bd b7 0a 02 bb 0b f4 47 3c
       0.08320601 -0.09290604 -0.0019842812 0.0122041805
0001f0 31 93 53 bc c2 5b 0d 3b 91 7d d2 bd 66 9a 4a 3e
       -0.012913511 0.0021569584 -0.10277856 0.19785461
000200 8f a4 12 3e a9 9b 03 3e 13 e3 d2 bc 6f 21 79 bd
       0.14320587 0.12852348 -0.025743043 -0.0608229
000210 e4 bc c8 3d 23 38 65 3d 23 51 6c bd fe 88 06 be
       0.09801653 0.05596174 -0.057694566 -0.13138196
000220 a7 e0 31 3c 72 ac 34 3e fd 43 df 3d 01 8b cf bc
       0.010856784 0.17643908 0.109016396 -0.025334837
000230 60 a6 a8 be cb 5c 2f 3e 30 f9 18 be 56 d6 eb 3d
       -0.32939434 0.17125241 -0.14938807 0.11515491
000240 cf be 4a 3d b5 02 a0 3d 81 59 0e 3e f9 a3 f2 bd
       0.049498376 0.07813016 0.1390133 -0.118476816
000250 89 8e 08 bd c9 e3 6c be 89 8d af bd 24 c8 9f 3d
       -0.033339057 -0.23133768 -0.085719176 0.07801846
000260 ac 84 76 3e 04 0f 54 3e 1a 04 84 3d a9 63 23 3d
       0.24074048 0.20708853 0.06446095 0.039889965
000270 42 82 85 bc fb 79 78 3e 69 7c 0e 3e c4 c4 6e 3d
       -0.016297463 0.24265282 0.13914646 0.05829312
000280 63 a3 e0 bd ab 74 92 3e dd 4e 97 3e c4 a6 be bd
       -0.109686635 0.28604636 0.29552355 -0.09309152
000290 09 f2 b9 3d 6f 9f 03 3c ae 61 25 3e 58 b7 e8 3d
       0.09079368 0.008033617 0.16150543 0.11363095
0002a0 b3 f5 29 3e 62 f4 bb 3d 97 e1 b0 3d 41 1a 13 bb
       0.16597633 0.09177472 0.08636778 -0.0022446068
0002b0 55 6e 91 3d 88 ff 4b 3d 11 08 c5 3c 82 b1 a7 3c
       0.07101122 0.04980424 0.024051698 0.020470385
0002c0 85 f3 f3 bd 88 38 6a 3e b5 c4 a7 3d a3 36 78 3e
       -0.11911682 0.22873127 0.08191816 0.24239592
0002d0 3d a1 7f 3d 15 af 84 3e 2b 33 45 3e eb b1 7f be
       0.06240963 0.25914827 0.192578 -0.24970214
0002e0 fc 8d 6c 3d bc 3d 2d 3d 41 d3 54 be d0 b8 d4 bd
       0.057752594 0.042295203 -0.20783712 -0.10386813
0002f0 10 15 ca 3d 32 0f 20 3d 8e 0c 30 3e 59 36 54 3e
       0.098672986 0.03907699 0.17192289 0.20723857
000300 75 af ef bd 6a 78 34 3e 23 f7 2b bd ed 4c 2c be
       -0.11703388 0.1762406 -0.041983735 -0.1682622
000310 45 d2 08 3e 9e 03 8b 3e 21 c3 11 3e 6a 50 e4 bd
       0.13361461 0.27151197 0.14234592 -0.1114815
000320 52 b1 fe bd 4d 76 8f 3e b6 92 06 3e 6b a5 39 bd
       -0.12436165 0.28019944 0.13141903 -0.04532377
000330 a7 44 1d 3e 92 b6 a8 3d f2 4f 93 3c 0e 3f fc 3d
       0.1535822 0.082379475 0.017982457 0.12316714
000340 81 d2 16 bc 6b 01 a2 3b ad 44 93 bc f2 db a2 bd
       -0.0092054615 0.0049440167 -0.017977083 -0.079521075
000350 4b dd 9c bd fc 24 a4 3e 3d 1c 41 3e 5a e3 82 3e
       -0.07659396 0.32059467 0.18858428 0.2556408
000360 99 0a 57 3e 45 4e e7 bd 44 2f 50 be 8a bd 31 bb
       0.21000136 -0.112942256 -0.2033053 -0.002712103
000370 af d1 c1 3d 9a 1e a6 3d 85 cf a4 3c fb 6d 0c 3e
       0.09463822 0.081113055 0.020118484 0.13713829
000380 97 5c cd bc f0 cb 22 3e aa a9 0e 3e 0a 5e d8 3d
       -0.025068564 0.15898108 0.13931909 0.105648115
000390 8a 61 a8 bc 3a 7e 22 bd 1b cf 78 3d c5 09 35 3e
       -0.020554323 -0.03967116 0.060744386 0.17679508
0003a0 05 79 b3 3d 50 f2 f9 3d a7 61 e5 bd 13 c4 26 3e
       0.08763317 0.122044206 -0.11200266 0.16285734
0003b0 37 65 03 bc 34 9e 9c 3c c6 9a 05 3d db 8c 1c be
       -0.008019737 0.019118406 0.032618307 -0.15288107
0003c0 db 21 e1 3d 5a 8c 7e bd bd f8 91 bd 3b 6f 9c bd
       0.109927855 -0.06214557 -0.07127521 -0.07638403
0003d0 a2 df cb 3d 2c 87 a0 bd 4a 2c 4b 3d f6 aa b9 bd
       0.09954764 -0.07838282 0.049602784 -0.09065811
0003e0 84 87 d6 bc c9 d7 1d 3e 74 41 78 3e e4 95 60 be
       -0.026187666 0.15414347 0.24243718 -0.21932179
0003f0 72 1d 87 3e 5e 36 5d 3d a1 3f 30 3e 5d 3d 15 3e
       0.26389652 0.054006927 0.17211773 0.1457419

network_body._body_endoder.seq_layers.0.bias f4 [256]
000000 f3 58 70 3d 40 e0 b7 3c cf 77 04 3d 99 1a 91 bd
       0.05867858 0.022445798 0.03234082 -0.07085151
000010 40 a3 b1 3b b1 e1 b6 3c a6 76 49 3d 7f 1b db bb
       0.0054210722 0.022324415 0.049185418 -0.0066866274
000020 b7 7e 89 3c 8a dc d2 bb 52 5e 88 bd 68 53 59 bd
       0.016784055 -0.0064349817 -0.06658615 -0.053058058
000030 4d 26 0f 3d 4b 8b d6 3c f0 2b e7 3c a9 09 8a 3b
       0.034948636 0.026189467 0.028219193 0.0042125774
000040 5b 3e 1d 3d 3d 2b fe 3c 06 77 e6 bc 46 d0 83 3a
       0.038389545 0.031026477 -0.028132927 0.0010056577
000050 42 a7 dd 3c 09 b0 2c 3d f2 5a 78 bc b1 11 c0 bc
       0.027057294 0.042160068 -0.015158402 -0.023445936
000060 94 f5 0c 3b 1f f5 87 bd e1 96 76 bd 8f 78 73 3c
       0.002150868 -0.0663855 -0.060202483 0.014860286
000070 6a 20 1f 3c ba 96 35 3d 9c 4f 35 bd 5d 22 57 bd
       0.009712318 0.044333197 -0.044265375 -0.052523006
000080 b4 00 42 3d 9e 74 5b 3d 84 dd 4f bd 7e 39 78 3d
       0.04736395 0.05357801 -0.050748363 0.060601704
000090 c7 24 86 bd 92 10 ed 3c d2 b5 58 3d 6e 46 0b 3c
       -0.065499835 0.028938565 0.052907772 0.008500678
0000a0 bb e9 4c 3c 77 64 dd 3c cb f3 bd bc 45 d7 37 3c
       0.012506898 0.027025444 -0.023187539 0.011220758
0000b0 63 c9 8d 3c bc f5 89 3d 84 1e d3 3a 31 04 07 bd
       0.017307943 0.06736323 0.0016107117 -0.03296298
0000c0 f3 a1 09 3c 7b f7 56 3d 2c 37 a0 bd e4 09 71 bd
       0.008400428 0.05248211 -0.07823023 -0.058847323
0000d0 d1 44 84 3c ee d5 20 3d e8 5f 59 3d 56 d0 39 bd
       0.016146095 0.03926652 0.05306998 -0.0453647
0000e0 ec 9f 54 3d 58 27 76 bd 1d 11 58 3d 8f 4a 89 bd
       0.051910326 -0.060096115 0.052750695 -0.06703674
0000f0 a6 5e 07 3c 5e e9 9e 3c f1 54 eb 3c c8 c8 8e 3d
       0.008262312 0.019398388 0.028727027 0.0697189
000100 04 bc 2c 3d 02 66 9d ba 9b da 9e bd 9b 63 28 bd
       0.042171493 -0.001200855 -0.077565394 -0.041110616
000110 ec fe 8d 3b 21 11 9d bb f1 23 af 3c 2f a1 70 bd
       0.0043333676 -0.0047933017 0.021379443 -0.058747467
000120 d4 fb 1f bd 4d b9 97 bc 65 d0 12 bd a2 00 23 bc
       -0.03905852 -0.018520975 -0.03584327 -0.009948881
000130 ec 37 17 bc 05 31 4e b9 ad ca 0e 3d a5 85 59 bc
       -0.009229641 -0.00019663952 0.034861255 -0.013276492
000140 1d 29 4e 3d 6b 2d 39 3d 85 7a e9 ba 99 14 18 3d
       0.050332177 0.04520933 -0.0017813003 0.03712902
000150 3e 30 70 3d 29 c1 b4 ba 6c fd cd 3b b8 ba 90 3c
       0.058639757 -0.0013790476 0.0062863138 0.01766716
000160 a7 ee b8 bd 13 95 bf 3c 53 6c 37 bc e9 0c 0b bd
       -0.09029894 0.023386514 -0.01119526 -0.03394786
000170 42 e9 e6 3b 18 3c 83 bd 05 86 ce 3c 28 07 63 bd
       0.0070468495 -0.06407946 0.02521039 -0.055426747
000180 22 d0 b6 3d 32 9a bb bc 8a 6a 05 ba 22 4c 3a bd
       0.08926417 -0.022900674 -0.0005089423 -0.045482762
000190 e3 21 03 bd 29 06 65 bd af 28 c9 3c 2b a3 ec bd
       -0.03201474 -0.055914078 0.024555532 -0.11554559
0001a0 e1 21 01 be 4e 1b f7 bd d2 ac 82 3d 53 b6 12 3d
       -0.1261058 -0.12065755 0.06380619 0.03581841
0001b0 36 14 37 3d 55 cc cf 3c 3b 59 25 3d 66 12 b4 bd
       0.04469701 0.025365988 0.0403683 -0.08792572
0001c0 b3 90 86 3c 1d 80 08 3a 60 40 35 bd 56 34 69 3d
       0.01642642 0.00052070786 -0.044250846 0.056934677
0001d0 97 f4 1f 3d e6 79 57 3d 06 03 01 bd 4e ac 3f 3c
       0.03905162 0.052606486 -0.031497024 0.0116987955
0001e0 4e 78 1c 3d f8 5f 94 3d e4 24 0e bd 16 81 3c bc
       0.03820067 0.07244867 -0.03470315 -0.011505386
0001f0 b6 a3 45 3c 07 60 aa bc 8e af d6 3b 5b 58 3c 3d
       0.0120629575 -0.020797743 0.0065516895 0.0459827
000200 f1 72 98 3a 68 7a 2d 3c 57 07 19 3d 16 fa 1c bb
       0.0011630935 0.010588266 0.037360515 -0.0023952774
000210 ca d6 a3 bd 39 61 d9 3c fc ba f8 3c f4 b3 8f bd
       -0.07999952 0.026535617 0.030362599 -0.07016745
000220 58 ed e1 3c a4 fa 99 3d 9a 56 d4 bc 35 36 a1 3d
       0.027578995 0.07518509 -0.025920201 0.07871667
000230 d9 af d7 3c 67 61 62 3c 04 e2 26 3d d7 4e 12 3b
       0.026328968 0.013817168 0.04074289 0.0022324824
000240 8a 4b 40 3d 07 1a b1 3c 77 ea 85 3c 26 37 8f 3c
       0.04694704 0.021618856 0.016347153 0.017482352
000250 2c ca 5a bc 89 94 5a 3d 04 f4 43 3c df e8 ae 3d
       -0.013353866 0.05336431 0.011960033 0.085405104
000260 06 43 31 3d 3c 02 e6 bc b9 f7 52 3b dd d2 11 3d
       0.04327681 -0.028077237 0.0032191111 0.035601486
000270 fa e0 4e bc e7 9d b7 bc bb f5 fc bc 52 66 7c 3d
       -0.012626881 -0.02241416 -0.030878892 0.061621018
000280 60 5d 31 bd c7 28 df bc f7 04 73 3c 63 78 42 3d
       -0.04330194 -0.027241124 0.014832727 0.04747809
000290 ba b8 94 bd b3 7b 29 3d 80 d9 12 bb 15 6c 0e 3d
       -0.07261796 0.041377734 -0.0022407472 0.034771044
0002a0 09 44 0c bd 2b e6 0f 3d 04 dd e6 3c d7 71 f9 3c
       -0.03424457 0.035131615 0.02818156 0.03044979
0002b0 5b 1a 4c 3d b7 c2 00 bd 9b 57 18 3c a1 18 2c 3d
       0.049829822 -0.031435695 0.0092982305 0.042015675
0002c0 86 0b ec bb a6 85 76 bd a5 4a 90 3b f9 15 9a bd
       -0.007203522 -0.06018605 0.0044034296 -0.07523722
0002d0 12 06 59 3d 79 d1 2f 3d 60 e1 81 ba cf c0 08 bd
       0.052984305 0.042924378 -0.0009909086 -0.033387
0002e0 0f 6b 7a bc c7 9c 95 bd c4 8e af 3c 4a de 6b bd
       -0.015284314 -0.073052935 0.02143038 -0.05758504
0002f0 0e 3e 27 3d 04 c4 2a 3d da de 12 bd 7d 8b 00 3d
       0.040830664 0.04169084 -0.03585706 0.031383026
000300 37 58 3f 3d 11 82 87 bb 3d 39 38 bd fa bb 7a bd
       0.046714988 -0.004135378 -0.04497646 -0.061214425
000310 e2 a3 ac 3d 05 ee a3 bd 23 33 b5 3c d1 9b 53 3d
       0.08429696 -0.08004383 0.02211911 0.05166227
000320 d1 34 9e 3c e2 63 22 bc e6 06 3e bd 51 d4 ec ba
       0.019312294 -0.009911509 -0.046393298 -0.0018068646
000330 bf b8 cf 3b 3b 33 82 3c 71 57 83 3d ec 3d de bc
       0.006339162 0.01589357 0.064131625 -0.027129136
000340 a1 a5 33 bc af c4 6a 3c 67 3a 48 bc 21 64 f6 bb
       -0.010964782 0.01432912 -0.012220955 -0.0075192605
000350 7f cf 6f bd 54 3a d8 3c 76 b4 24 3d 16 a4 08 bd
       -0.058547493 0.026395 0.040211163 -0.03335961
000360 8e cc 14 bb 11 cb 72 bd 30 2e 78 bd f0 23 2c bd
       -0.0022704932 -0.05927569 -0.060590923 -0.04202646
000370 d1 c2 cc bc 13 ad 9e 3b 48 25 39 3d 57 d1 65 3d
       -0.02499524 0.0048424094 0.04520157 0.056107845
000380 f2 18 69 3a e4 b2 9a bb 6d 1b 96 37 0c f0 a2 bd
       0.0008891962 -0.0047210325 1.7894165e-05 -0.079559416
000390 d7 5f 33 bd ad f4 3c 3d 3b f3 dc bd d0 89 39 3d
       -0.043792572 0.04613178 -0.1078858 0.045297444
0003a0 6f 66 31 bd eb 76 63 bc 95 42 a6 bc f1 bb 81 3d
       -0.04331058 -0.013883333 -0.02029542 0.06334675
0003b0 ab 03 d7 3a 07 32 28 3d 50 f0 be bc 95 bd 25 bd
       0.0016404291 0.041063335 -0.02330795 -0.040464003
0003c0 d6 d6 1f 3d 5c 94 f4 3c d2 0a 5c bd 8d 03 3f 3d
       0.039023243 0.0298559 -0.053721257 0.046634246
0003d0 8a 25 89 bd f5 fe 8f bd 6d 4f eb b9 13 5b 32 3d
       -0.06696613 -0.07031051 -0.0004488187 0.043543886
0003e0 3e 9a 7d 3d 5a 11 df 3b 4c d6 85 3d 80 5a 71 bb
       0.061914675 0.0068074884 0.065350145 -0.0036827624
0003f0 69 da a0 bc 0f 51 a3 3d c3 78 fd 3c 9d 8c 2d bc
       -0.019635396 0.07974445 0.030941373 -0.010592607

network_body._body_endoder.seq_layers.2.weight f4 [256, 256]
000000 ec 00 ac bc 0f 1b ac bd 89 f8 06 be 09 aa 9c bb
       -0.020996533 -0.084035985 -0.13180746 -0.004781012
000010 d3 59 26 3c 5f f7 2d 3d ca 44 73 3c 9d 74 c9 bc
       0.010153252 0.04247224 0.014847944 -0.024591738
000020 78 e3 57 3d 3e 0e 20 bd dd 4c 1c be 7e 1e 76 bd
       0.052707165 -0.039076082 -0.15263696 -0.060087673
000030 86 17 90 3d 8d a9 53 bd a3 09 23 3c aa dd 4c bd
       0.07035737 -0.051675368 0.009951028 -0.050016083
000040 8a b1 a6 3d 85 90 9a bc 34 11 c2 bd ad 62 29 3d
       0.08139332 -0.01886774 -0.094759375 0.04135387
000050 81 3a bc bd a8 dd fd 3d 73 9e 40 bd e1 92 74 3d
       -0.09190846 0.12395793 -0.04702611 0.059710387
000060 30 03 f1 bc e5 4c 20 be 0f 5b fc 3b c0 33 2c 3d
       -0.029420465 -0.15654333 0.0077012847 0.04204154
000070 2c 1f ad bc ed df f3 3d 20 b7 3d be b9 07 ba 3c
       -0.021133028 0.11907945 -0.18526888 0.02270876
000080 1a ef bf bc 71 d7 47 bd 22 b3 81 bd 8a 81 a7 bd
       -0.023429442 -0.048789445 -0.06332995 -0.081790045
000090 0b c7 a6 bd 93 a2 94 3c 58 98 e5 bc 07 b8 ed bd
       -0.08143433 0.018143928 -0.028026745 -0.11607366
0000a0 b3 7d 97 bd 25 2d b5 bc bb 9c ad bd e3 e7 20 bd
       -0.07397022 -0.022116253 -0.084771596 -0.039283644
0000b0 5a a2 d4 bc 51 50 b3 bd a4 a0 39 3d 96 0f 53 bd
       -0.025956322 -0.087555535 0.045319214 -0.051528536
0000c0 c2 0b cb bd 5c ba fb 3d 27 bd c4 bd 92 94 5f bd
       -0.09914352 0.122914046 -0.096063904 -0.054585047
0000d0 69 84 03 3e 7f 87 b3 bd 77 94 f9 3d a0 a3 4b 3d
       0.12843479 -0.08766078 0.121865205 0.04971659
0000e0 3b 94 1a 3d 6b b5 8f 3c d4 55 be bd 30 95 51 3d
       0.03773902 0.017542562 -0.09293714 0.051167667
0000f0 95 83 21 bd f7 14 04 3e 4a 5b 26 3d 9e 0a 7c 3d
       -0.039432127 0.12898622 0.040614404 0.061533563
000100 35 91 76 bd 90 63 ee bc eb 8b 8a b8 ea 97 f7 bd
       -0.060197074 -0.02910021 -6.6064145e-05 -0.12089522
000110 21 69 d3 bd cd 4b 93 bd 86 88 f5 3d aa 16 cc bc
       -0.10322786 -0.07192192 0.119889304 -0.02491315
000120 ef 5a 4a 3c 20 dd ae bd f5 1c 24 be ac dc 76 bd
       0.012350782 -0.0853827 -0.16026671 -0.060269043
000130 97 98 9b bc 18 87 63 bd 1b 38 11 3e aa ca 27 bd
       -0.018993659 -0.055548757 0.14181559 -0.04096476
000140 c4 14 96 3d 6f 55 a9 bd 34 66 53 3d be ee e5 3c
       0.073281795 -0.08268248 0.05161114 0.028067943
000150 58 94 8c 3d d9 96 d0 bc 8f 5d 52 3d f8 2e c4 bd
       0.06864232 -0.025462555 0.051358756 -0.09579271
000160 9a 30 2a bc 63 09 15 3e 3c 6b 95 bd f8 88 19 be
       -0.010387564 0.14554362 -0.07295844 -0.14993656
000170 64 89 c5 bc dd ec 8a bd 9e 4a 2b 3e bd cf 22 3c
       -0.024113365 -0.06783459 0.16727683 0.009937224
000180 9d 9d d3 bd 7b fd f1 bc d1 a1 b2 bc a1 d2 0c bd
       -0.10332797 -0.029539814 -0.021805676 -0.03438056
000190 b8 02 82 bc fd 86 15 bd 49 9a 8a 3b c9 5c 82 bd
       -0.015870437 -0.036505688 0.004229818 -0.063653536
0001a0 ce 44 be 3c 41 1c 00 3c e0 44 b0 bd f1 ba 12 3e
       0.023226168 0.007819236 -0.08606887 0.14329125
0001b0 d5 15 b8 bd 07 2a 0b bc ce 42 bf bc dc 33 21 bd
       -0.08988539 -0.008493907 -0.023347285 -0.039356098
0001c0 da 76 00 bd b7 6d 10 bd 01 fe 0c be 89 39 c1 ba
       -0.031363346 -0.035260882 -0.1376877 -0.0014741878
0001d0 3b 6a 07 3e 0a c6 21 3d f3 c3 ff bd 0d 23 e1 ba
       0.13224117 0.039495505 -0.12488546 -0.0017176584
0001e0 bd b8 5c bd a5 ad b8 bd 90 b5 53 bd 79 af b6 bd
       -0.053887118 -0.09017495 -0.051686823 -0.089201875
0001f0 69 fe 5b bc fb d0 23 bd 69 af 3e bd 18 a7 09 3c
       -0.013427355 -0.03999422 -0.046554003 0.008401655
000200 98 c6 37 3d 7f a2 b4 3c 5b 8e 6f bd 30 8f e0 bd
       0.044867128 0.02205014 -0.05848537 -0.10964811
000210 a7 75 14 bd 92 17 2a bd 15 da c1 3c e9 35 a0 bd
       -0.036245015 -0.041526385 0.02366356 -0.078227825
000220 b0 8b 42 ba df 10 17 3d 92 75 2e bd 7b 3b cb 3d
       -0.0007421328 0.036881324 -0.042592593 0.099234544
000230 f1 32 1f 3e b6 0b af bc b8 f2 db 3d 1e cd da bb
       0.15546776 -0.021367889 0.10739654 -0.006677284
000240 54 5f a4 bd de 95 95 bd 25 e7 08 3e 1e 88 87 3c
       -0.08025995 -0.073039755 0.13369425 0.016544398
000250 38 94 66 bd 71 88 9b bd a4 db 0c bd dd 6b ac 3d
       -0.056293696 -0.075943835 -0.034389153 0.08419011
000260 b4 03 ef 3b 2b 7c 03 be b5 60 85 bc 4d c9 04 3b
       0.0072941426 -0.12840335 -0.016281465 0.0020261586
000270 7d 03 5e bd af 51 02 be ec be 09 bc 51 cf 83 3c
       -0.054202545 -0.12726472 -0.008407336 0.016090067
000280 94 aa a0 bd e5 a0 a2 bd 7b 46 1a bd ba 7a dd bd
       -0.07845035 -0.079408444 -0.03766487 -0.10814424
000290 d7 89 cf 3b e5 5f 07 3d b7 3d 72 bd a8 24 1f 3d
       0.0063335705 0.033050437 -0.059140887 0.038853317
0002a0 48 70 80 bd df b3 c0 bb 8b 58 93 3d 53 35 a5 bd
       -0.06271416 -0.0058808173 0.071946226 -0.080668114
0002b0 33 0d dc 3c f3 11 6e bd e6 5d 73 bc f2 d6 13 bd
       0.026861763 -0.058122586 -0.01485393 -0.03609366
0002c0 ba ca 47 bd f3 94 96 bd 17 8e e0 3c 73 b3 b4 bd
       -0.04877732 -0.073526286 0.027411504 -0.0882329
0002d0 6f 18 5e 3d e1 fd 4b 3c 1b ea c9 bd c1 f3 13 bd
       0.05422252 0.012450666 -0.09859105 -0.036121134
0002e0 1a 2e 3d be 7c 10 02 bd ae 6e a5 bc 80 4b 72 bd
       -0.18474618 -0.031754002 -0.020194378 -0.059154034
0002f0 0a bc 5a 3d 59 97 00 bd 26 b2 8e bd 7b bb 39 bd
       0.053401984 -0.031394336 -0.06967573 -0.04534481
000300 6f 37 17 bd 80 a7 e2 bc 89 cc 88 bd 4b 32 fc 3c
       -0.0369181 -0.02766776 -0.06679637 0.0307857
000310 52 6d 16 bd 54 e7 bb 3d aa 27 5c bd 2e d1 17 be
       -0.03672535 0.09174982 -0.053748764 -0.1482589
000320 6d 9d 02 3d 4a 9b 02 bd de 03 77 bd 70 59 c6 3c
       0.031888414 -0.031886376 -0.060306422 0.024212569
000330 c4 79 57 3d 13 8f 2e 3d 81 18 47 bd ce b6 8e 3d
       0.05260636 0.042616915 -0.048607353 0.06968461
000340 9b 5d cd 3d fc 52 58 bd fe 5e 80 3d d2 5f 1a 3d
       0.100276195 -0.052813515 0.06268118 0.037689038
000350 82 3e 6f bd 5d d5 83 bc cb 4f df bd e8 21 85 bd
       -0.05840922 -0.01609295 -0.10903891 -0.06500608
000360 5e 27 ab 3d 65 3a 4f bd d3 4d 48 bd 68 b3 84 be
       0.08357118 -0.0505928 -0.048902344 -0.25918126
000370 15 0f 3d bc 5c e8 01 bc 32 c3 5b 3d b1 4b b3 bb
       -0.01153924 -0.007928934 0.05365295 -0.0054716696
000380 4f 40 7d 3d 99 e7 0c bb 76 cd 66 bd b0 e9 d0 bd
       0.061828908 -0.0021500348 -0.056348287 -0.10200822
000390 06 b3 6b bd 25 2a f3 bc fa 1e bd 3d ed c9 be 3d
       -0.057543777 -0.029683182 0.09234424 0.09315858
0003a0 08 36 88 bd 58 75 a9 bd 31 b8 51 bd c1 4b 87 3d
       -0.06650931 -0.08274335 -0.05120105 0.06606246
0003b0 a6 46 aa bd 18 74 e3 bd ee c3 1e be fc 31 8a bd
       -0.08314256 -0.111061275 -0.15504429 -0.06747815
0003c0 91 1e b5 bd 67 70 99 bd d5 74 7f bd fe ee b5 bb
       -0.08843721 -0.07492142 -0.06236728 -0.0055521717
0003d0 de c6 fb bd d6 86 47 b9 45 21 de bd db 7f 29 3e
       -0.1229379 -0.00019028349 -0.108461894 0.16552679
0003e0 13 c5 9c bd 41 fb ae bd 23 ca ab 3d 02 4d bd 3c
       -0.076547764 -0.08544017 0.08388164 0.02310801
0003f0 41 ce de bc 69 20 48 3c 90 d9 4f bd b4 4c b4 ba
       -0.027197959 0.012214758 -0.050744593 -0.001375577

network_body._body_endoder.seq_layers.2.bias f4 [256]
000000 c1 4f 23 bd 67 a2 7a 3c 8e e6 88 3d d5 0f 2c 3d
       -0.03987098 0.015297509 0.066846 0.042007286
000010 13 d4 5e 3d 26 db 46 3c 9f 12 99 bd 19 40 ef 3c
       0.05440147 0.01213721 -0.07474255 0.029205369
000020 3d 92 89 bc 47 5a 2b bb b7 2a aa 3a 51 8a ed 3c
       -0.016793365 -0.0026146339 0.0012982701 0.028996618
000030 57 ef de 3b 44 9e b8 3c b9 16 33 3d 53 44 bc bd
       0.006803434 0.022536404 0.043722842 -0.09192719
000040 58 84 26 3d 16 81 b5 3b 8d 9a 0a 3d 58 ae 1d bb
       0.040653557 0.00553907 0.033838797 -0.0024060216
000050 d8 a1 4e 3d 7d 33 8a 3c 30 85 31 3d 5e b9 36 3a
       0.050447315 0.016870255 0.043339908 0.0006970371
000060 c2 9f bc 3c 7c 08 a8 3c 1b f6 b2 bc 83 bd 42 bc
       0.023025397 0.020511858 -0.021845868 -0.011886003
000070 93 97 f0 36 36 a2 3b 3c 25 3d 0c bd 1d 05 fc 3c
       7.170203e-06 0.011452248 -0.034238 0.030764157
000080 41 9c 1d bc de 5f 16 bd 23 bc 02 bd e2 a3 1f 3d
       -0.009619773 -0.03671252 -0.031917702 0.03897465
000090 18 4f 00 3d e5 02 d7 3b 9e 21 27 3b 3a bf e7 3c
       0.03132543 0.0065616244 0.0025502215 0.028289426
0000a0 77 36 69 3c 58 bd f7 3b 82 2d 14 3d 22 aa 4e 3c
       0.014234177 0.0075604133 0.036176212 0.012613805
0000b0 7b dd 73 3d 56 52 55 bb 39 8e 9c bb 73 56 92 3c
       0.059537392 -0.0032550297 -0.0047776964 0.017863488
0000c0 e1 d0 1f bd de af af ba 46 83 04 bd e4 7b 4b bc
       -0.03901756 -0.0013403853 -0.032351755 -0.012419675
0000d0 7d 2b cd 3b e2 09 27 bd 68 a5 4f bb a7 cc 0c bd
       0.0062612877 -0.04078091 -0.0031684283 -0.03437486
0000e0 e7 2b f7 3b cd 09 80 3b 7c f1 0e 3b bb 2d 14 bd
       0.0075430754 0.0039074183 0.0021811416 -0.036176424
0000f0 a5 a4 47 3d cf 61 b7 bb 66 88 66 bc 48 7b 08 3d
       0.048741 -0.0055963765 -0.014070606 0.033320695
000100 2c b3 23 3d c2 5f 51 3d 50 77 3b 3d cb 99 97 3b
       0.039965793 0.051116712 0.045768082 0.004626488
000110 be c5 3c 3c 1c bd 5e 3d 95 97 58 3a 1c 69 1f 3c
       0.011521755 0.054379568 0.00082623336 0.00972965
000120 42 b4 89 3d e5 02 05 3d 1d 5d a7 3d 77 ee 3a 3d
       0.067238346 0.032473464 0.08172057 0.045637574
000130 9d c3 5b 3d fe d7 5f 3d 02 66 0a 3d 75 94 f6 3c
       0.05365335 0.054649346 0.03378869 0.030100087
000140 a9 38 35 bd e9 e7 28 bd 1d 48 91 bd ed 08 fe 39
       -0.04424349 -0.04123679 -0.07093833 0.00048453305
000150 84 4e be 3b 65 7c cc ba 77 05 99 3c 2f 1d dd ba
       0.0058076996 -0.0015601037 0.018679364 -0.0016869659
000160 33 56 45 bc f4 0a 16 3d d8 79 68 3d d2 52 c4 3c
       -0.012044477 0.03663154 0.056756824 0.023965273
000170 a8 67 5d 3d 06 df 60 3d d1 c6 c3 bc 0d 99 b4 3c
       0.054053932 0.05490019 -0.023898514 0.022045637
000180 74 d4 6a 3c d3 1f 8b 3c ef fd 1b 3c ea 8b 19 ba
       0.014332879 0.016982948 0.009520992 -0.00058573356
000190 21 bc 5c 3d 1d 77 59 3d b3 a1 76 3d a1 0e c9 3c
       0.05389035 0.05309211 0.060212802 0.024543108
0001a0 78 00 28 3c c1 36 42 3d 3a 94 6e 3c 34 88 53 bd
       0.010254018 0.0474155 0.014561707 -0.051643565
0001b0 9d 92 20 3c 1e 4e 91 3c bc 3f fe 3b f4 4a 21 3d
       0.00980058 0.017737444 0.0077590626 0.03937812
0001c0 75 c2 02 bd 31 8a 0f 3d aa cd 80 bc b7 5a 1e bd
       -0.03192373 0.0350439 -0.015723068 -0.03866073
0001d0 cc 1b 31 3d 13 ec a4 3d 9d ca 97 bb 60 db 2c 3d
       0.0432394 0.0805284 -0.0046323077 0.0422014
0001e0 18 12 84 3d fc e9 7d 3c 0b dc e0 3c 5b 15 3f bd
       0.064487636 0.015497681 0.027448675 -0.046651226
0001f0 25 de 31 3b a5 59 18 bd b5 c3 b8 3c c0 b7 bf bc
       0.0027140465 -0.037194867 0.022554258 -0.023403049
000200 03 e5 8d 3c 5c 16 f8 bb 5d 7e 50 3d 60 e1 68 3d
       0.017321115 -0.007571025 0.05090176 0.05685556
000210 04 f7 ae 3a b7 29 e6 bb ce ef 1c bc 90 cd 94 3d
       0.0013348763 -0.0070240158 -0.009578658 0.072657704
000220 c1 ae bf bc 8a 78 96 3c db ca 44 3d c5 61 7e 3b
       -0.023398759 0.018368024 0.04804502 0.00388156
000230 a6 5c 6f bc e4 48 6e bc 72 30 53 3d e1 7a 32 bc
       -0.014609491 -0.014543746 0.051559873 -0.010893554
000240 b2 d7 22 3d c6 03 4c 3c e8 3a 3b 3d 30 51 d8 bc
       0.039756484 0.0124520715 0.045710474 -0.0264059
000250 27 82 c5 3c 02 fc e8 3c 24 23 04 3d 6b 4d ab bc
       0.024109913 0.02844048 0.032260075 -0.02091094
000260 a8 e7 85 3c 49 33 4f 3d 6f e6 80 3c bc 65 66 bb
       0.016345814 0.05058602 0.01573488 -0.0035155853
000270 34 71 39 bc d5 f4 51 3c 58 15 fb 3b 01 72 ce bb
       -0.011318494 0.01281472 0.0076624565 -0.0063002114
000280 a2 65 92 bb fd 80 ec 3b e9 eb 4f bd c0 4e 82 bc
       -0.004467682 0.007217525 -0.05076209 -0.015906692
000290 b5 1f a1 3d 34 10 06 3d 6f 53 5d 3d de 62 f2 ba
       0.07867376 0.032730296 0.054034647 -0.00184926
0002a0 6c 11 86 bc 82 a1 1e bc 9c 14 22 3d a8 10 43 bb
       -0.01636573 -0.009682061 0.039570436 -0.0029764567
0002b0 74 84 8a 3d 2e d7 a8 3b b3 8f 84 3c 2b 95 10 3d
       0.06763545 0.0051526045 0.016181802 0.035298508
0002c0 ad 5c 08 3c b4 57 59 bd 2d 17 54 3d 63 b6 39 bc
       0.008322877 -0.053062156 0.051779915 -0.011334988
0002d0 e2 5a 17 bd a2 35 04 3d 2e c0 24 3d 87 2d fb 3c
       -0.036951907 0.03227771 0.04022234 0.030661358
0002e0 44 f6 4f 3c 8c bf 35 3d 6a 93 22 39 dc 7c d8 3c
       0.012692992 0.044372126 0.0001550444 0.026426725
0002f0 ed ef 0c 3c 08 c1 2c 3d 46 a3 f4 3c 7d 0c fa 3c
       0.008602125 0.042176276 0.029863011 0.030523533
000300 66 fb 33 3d 16 4c 42 3c 04 47 32 3d a6 7f 7b bd
       0.043940924 0.011858961 0.043524757 -0.061401032
000310 74 d1 9e 3d 34 dc d4 bc d2 36 e6 bb 42 7a d5 bc
       0.07754794 -0.025983907 -0.007025578 -0.026059274
000320 d6 57 1c 3c 4a 72 f4 3b bc fa 42 3c e3 82 fa bb
       0.009542426 0.0074599134 0.0119006 -0.0076449974
000330 fe 3e d2 3b 60 02 07 3c 74 3c 85 bd 49 59 69 3c
       0.0064162007 0.008240312 -0.06505671 0.014242479
000340 1c 1e ad 3b 0e 1e 98 bc 8f 0d 23 bd 73 ad 98 3d
       0.0052831303 -0.018569019 -0.039807852 0.07454958
000350 bc e7 a2 bc 70 3d 67 bb 1e aa 17 3c 7d 15 8b 3d
       -0.01988589 -0.0035284422 0.009256868 0.06791208
000360 c3 6e 5f bd de 74 46 3d b1 a7 72 3b 38 01 e1 3c
       -0.05454899 0.048451297 0.0037026221 0.027466401
000370 72 34 89 3b 1f 0d c1 bd 09 27 c7 3c c1 71 fe 3c
       0.00418716 -0.09426331 0.024310606 0.031060101
000380 be fb b7 3d 76 78 06 bd 5d 53 2a bc 56 42 29 3d
       0.08983563 -0.032829724 -0.010395852 0.04132303
000390 05 34 9f bb 34 3a 19 3a 5c 55 9c 3d 78 09 91 3d
       -0.004858496 0.000584516 0.076334685 0.07081884
0003a0 83 4c 90 bb 69 b7 82 bc 4b 9d 99 bc 07 e6 e8 3c
       -0.004403652 -0.015956597 -0.018751761 0.028429998
0003b0 ec 0a bd bb e7 36 6a 3d d2 a7 20 3c e6 85 94 3b
       -0.0057691243 0.057181265 0.0098056365 0.0045325635
0003c0 e1 68 4e 3c 42 cc c2 3c 19 45 f6 3c 94 3d cf 3c
       0.012598247 0.023779038 0.030062245 0.025297917
0003d0 7f 2f 68 3d 4e 0f 13 3d 68 13 28 3d b4 6b a7 bc
       0.05668592 0.035903268 0.041034132 -0.020437099
0003e0 a2 b3 af 3c 68 61 cb 3c 93 d5 26 3d 73 a8 5a ba
       0.02144796 0.02482672 0.040731024 -0.0008341141
0003f0 f8 16 21 ba 73 1b 5c 3c 00 41 37 bc 06 34 c0 3a
       -0.0006145085 0.013434279 -0.011184931 0.0014663942

action_model._continuous_distribution.log_sigma f4 [1, 2]
000000 75 72 10 bf b6 fa 11 bf
       -0.5642465 -0.5702318

action_model._continuous_distribution.mu.weight f4 [2, 64]
000000 0b 6e 34 be 7c 64 00 3e 95 06 87 3d 7d 84 0a 3e
       -0.17620103 0.12538332 0.06593052 0.13527103
000010 9b 34 21 3e 90 dd 20 3e f6 90 9d 3d 18 42 c1 3d
       0.15742724 0.1570952 0.07693665 0.094364345
000020 04 18 2d be ed dd 88 be 01 32 ed 3d 22 17 4d 3e
       -0.16903692 -0.26731816 0.11581803 0.20028356
000030 be 1e 65 be 2f 91 65 bd 66 cd 7d 3e 31 49 2d be
       -0.22375008 -0.05604666 0.24785385 -0.16922452
000040 e5 39 fd 3d fe 29 b5 bd af d1 50 be 2a 27 88 bc
       0.12364558 -0.088459 -0.20392488 -0.016620237
000050 42 ea 17 3d 14 95 85 bd f4 4d 95 be f5 e4 43 3e
       0.03708864 -0.06522575 -0.29161036 0.19130309
000060 cb 95 6c 3d 76 1b 4f be f6 22 93 3d ef 6e 1b be
       0.05776004 -0.2022532 0.07184403 -0.15179037
000070 ad b9 65 be f9 f8 4f 3e 76 b6 f4 bd 29 2d c6 3d
       -0.22434111 0.2030982 -0.11948864 0.09676582
000080 40 86 0e be f2 8d d1 3c 48 f8 37 be 2a 6b 54 3e
       -0.139184 0.02558038 -0.17965806 0.20744005
000090 c3 a0 b4 bd df be 15 bd 5a ac aa 3d 43 dc 45 bd
       -0.08819725 -0.036558982 0.08333655 -0.04830576
0000a0 13 9e 8d bd 17 d5 86 3e 7f 56 20 3e 12 1a 11 3e
       -0.06914916 0.2633445 0.15657996 0.14170101
0000b0 56 bc 10 3d d1 2e 40 3e a2 8d 14 bd 10 dc 03 be
       0.03533586 0.18767859 -0.036267884 -0.12876916
0000c0 45 2a e4 3d 65 ff 4c 3c f5 25 9b bd 28 3a 34 3e
       0.11140875 0.012512063 -0.07575599 0.1760031
0000d0 00 0b 31 be fd 70 93 3d 8d 7b 0c bc 1a d6 83 be
       -0.17289352 0.07199285 -0.008574379 -0.25749284
0000e0 d3 dd 2c be b1 73 85 3c af 52 62 bd 3e e6 f6 bd
       -0.16881494 0.016290518 -0.055254634 -0.12055634
0000f0 f2 6a 82 3d d7 84 49 be af 39 52 3d 16 e6 3f 3e
       0.063680544 -0.1967958 0.051324543 0.18740115
000100 ef c1 1e 3e 8f 21 2b 3e 04 c2 a8 bd 1d 18 06 be
       0.15503667 0.1671202 -0.082401305 -0.13095136
000110 b5 66 15 be 4e 01 fe 3d 26 83 18 3e c9 c1 69 3e
       -0.14589961 0.124025926 0.14893779 0.2282783
000120 43 40 53 3e 6f d1 b4 bd fa bc 13 3d 56 39 a6 3c
       0.20629983 -0.08829009 0.036068894 0.020291012
000130 fd 19 7e 3d 6a f2 ef bd dd db 8b bb 1e 30 2c bd
       0.062036503 -0.11716159 -0.004268153 -0.042038076
000140 af f9 c2 3d b1 db 55 3e 31 b4 20 3e e5 6e 53 be
       0.095202796 0.20884587 0.15693738 -0.20647772
000150 a9 36 a7 be ce 68 20 be 93 d3 91 bd 54 35 35 bd
       -0.3265889 -0.1566498 -0.07120433 -0.04424031
000160 d0 ae 24 3e 7a c6 35 be 6b f8 10 be 10 b1 ca bd
       0.1608231 -0.17751494 -0.14157264 -0.09897053
000170 90 c9 ce 39 cd fa c1 3d 12 3d 0e be 7d 13 f9 bd
       0.00039441558 0.094716646 -0.13890484 -0.1216192
000180 ee 35 18 be 04 1d 25 3e 57 d0 87 be 63 94 0f bd
       -0.14864323 0.1612435 -0.26526138 -0.035053622
000190 28 79 a4 3d d6 32 08 3e 14 4e df 3d d4 4a 43 3e
       0.08030921 0.13300642 0.10903564 0.19071513
0001a0 3e f5 01 be d2 fb 21 be 77 37 03 3e 84 b9 93 3c
       -0.12691209 -0.15818718 0.12814127 0.018032797
0001b0 7c dc ff bd cc d0 4f be 80 4d 51 3e 29 d2 9e 3d
       -0.12493226 -0.20294493 0.2043972 0.077549286
0001c0 9f 3f 49 3e 7e 3d ea bd 53 c5 e9 3d dd 65 5d 3d
       0.19653176 -0.1143751 0.1141459 0.054052223
0001d0 68 e1 25 bd 13 d3 29 be 5d c1 44 3e 9d c6 66 3e
       -0.040498167 -0.16584425 0.19214387 0.22536702
0001e0 af 1f 51 3d 8f 58 4f 3e 60 7b 18 3e 7c 51 dd 3c
       0.051055606 0.20248626 0.14890814 0.027016394
0001f0 d3 13 0d 3e 2a cd a7 3c 3b db f1 3d 04 a8 9d 3c
       0.13777094 0.020483572 0.11809393 0.019245155

action_model._continuous_distribution.mu.bias f4 [2]
000000 aa 76 b7 bc d8 a9 2c bd
       -0.02239545 -0.042154163

onnx::LSTM_101 f4 [1, 256, 256]
000000 3c 45 e2 bd 50 f3 dd bc db 06 af bc da 3f b5 3d
       -0.11048362 -0.02709356 -0.021365574 0.08850069
000010 af fb b2 3d 4b a3 62 bd 41 6f df 3d d7 4c b1 3d
       0.08739411 -0.05533151 0.10909892 0.08657234
000020 2f 43 7c 3d 98 73 dc bc c8 c5 66 be 1f ab a6 3d
       0.06158751 -0.026910588 -0.22536385 0.081381075
000030 74 aa d4 3d 23 1a 09 3e 45 85 87 3d 71 6f 19 be
       0.10384074 0.13388877 0.06617216 -0.14983918
000040 d1 9d 94 bc c4 c6 90 3c 62 37 bb 3d 89 f6 09 3e
       -0.018141659 0.017672904 0.09141423 0.13472952
000050 e1 7f f7 bc 75 e0 09 3e ec 4e 47 3d 0b d9 8d bc
       -0.030212345 0.1346453 0.04865925 -0.017315408
000060 36 0a ed bc 52 2d 47 3d 04 76 ea 3d 49 e9 a9 3d
       -0.028935533 0.048627205 0.11448291 0.08296449
000070 68 93 02 be 80 e4 90 bd a7 72 ff bd c5 87 89 bd
       -0.12751544 -0.07074833 -0.1247304 -0.06715349
000080 cb ca c5 bd 03 65 18 be 7f 1e 00 3e fa e9 b8 3c
       -0.0965782 -0.14882283 0.12511633 0.022572506
000090 cb 96 27 3c 89 5b 6d bd 15 92 c4 bc 98 9d 81 bd
       0.010228823 -0.057948623 -0.023995439 -0.06328887
0000a0 e9 e7 dc 3d 07 cc ce bd 8c c3 e5 3d b5 9d 53 bc
       0.10786421 -0.10097509 0.11218938 -0.012916018
0000b0 2a 4d a7 bd 6d 9d 99 bd 60 78 9c 3d a3 27 3a bd
       -0.08169015 -0.0750073 0.07640147 -0.045447957
0000c0 35 08 09 3d 57 01 88 bd 80 e0 a5 bd 65 b9 9a bd
       0.033455092 -0.066408806 -0.080994606 -0.075548925
0000d0 88 dd 0d bd f0 8a f1 3d 7f f3 08 be de a3 49 be
       -0.034635097 0.11794078 -0.13374136 -0.19691417
0000e0 fe 54 21 3d ce dc 86 3d f2 4c a8 bc 7c 72 b6 bb
       0.039387695 0.06585084 -0.020544503 -0.005567847
0000f0 4c 81 09 3e a2 b6 f7 bd fa e1 f0 bd 68 e9 14 3e
       0.13428229 -0.12095381 -0.117618516 0.14542162
000100 8e 9b 60 bd 37 2c 1e be 77 70 7a 3c e1 78 db bd
       -0.05483585 -0.15446554 0.015285603 -0.10716415
000110 7a 38 d8 3d d9 96 1b 3d 01 1f bc 3c b5 d2 8b 3d
       0.10557647 0.037985656 0.022964003 0.068272986
000120 7c 74 ce 3d 2f 99 11 be 24 4b cb bd 7b 34 0e 3e
       0.100808114 -0.14218591 -0.09926441 0.13887207
000130 9c c4 ff 3d 78 07 ae 3d 5b 56 e4 3d 3e 63 ce 3d
       0.12488672 0.08497518 0.111492835 0.10077523
000140 90 74 70 3d 81 7c c1 bc 45 e5 26 3b 17 0e c1 bd
       0.058704913 -0.023618938 0.0025466245 -0.094265155
000150 c8 da 31 bd 94 14 3e bd d0 95 cc bc 00 d8 91 3b
       -0.043421537 -0.046406344 -0.02497378 0.004450798
000160 76 8a 9b 3c 05 5b ca 3d 2e d3 3c 3b 1c 09 44 3e
       0.018986922 0.09880642 0.0028812396 0.191441
000170 59 8b 6c bd 70 a0 18 3e 72 29 7a bd 86 f6 f9 3c
       -0.05775008 0.14904952 -0.06107468 0.03051306
000180 52 68 a2 3c 8b f0 08 3e 22 c0 96 3d 91 87 0b 3e
       0.019825134 0.1337301 0.07360865 0.13625933
000190 99 75 98 3d b1 5f 44 bd 25 d1 ae 3c 04 a9 09 3c
       0.07444305 -0.04794282 0.021339962 0.008402113
0001a0 8e 38 d0 3d 98 ed e2 bc 9b 09 98 bd eb 32 82 3c
       0.10167037 -0.027701184 -0.07423707 0.01589342
0001b0 8f 60 20 3c 35 0a 24 bd dd 13 d8 3d 18 9b a0 bd
       0.009788646 -0.040048797 0.105506636 -0.07842082
0001c0 a8 b1 8e bb 10 97 8c bc 73 bb 07 3c a1 75 ec bc
       -0.0043546744 -0.017161876 0.0082844375 -0.028864684
0001d0 3f 66 36 bd 7c 4e 51 3d 43 d8 13 bc 18 f9 e2 3d
       -0.044531103 0.05110024 -0.009023729 0.11082667
0001e0 52 d7 c0 bd 23 c2 2b ba e3 e4 00 3c 89 ce 94 3d
       -0.09416069 -0.0006552061 0.007867071 0.07265956
0001f0 0a 2f f6 bd ee f0 48 be 86 55 06 be 7b 6f cf 3d
       -0.12020691 -0.19623157 -0.13118562 0.10128685
000200 9c 23 4c 3c 73 15 a9 3d 02 52 e0 3d 49 02 8b 3d
       0.012459662 0.08256044 0.10953142 0.06787545
000210 6a 23 9c bb d5 35 20 3d 86 2c 00 be 65 9d 82 bc
       -0.004764964 0.03911384 -0.12516984 -0.015944192
000220 70 da fd bd 9a 7e 84 3d 64 2e c9 3d f1 aa f8 3d
       -0.12395179 0.0646946 0.098233014 0.121419795
000230 05 ca 87 bd ff 83 33 be cc fe a7 bd 0a 4f 24 bd
       -0.06630329 -0.17530821 -0.082028955 -0.04011444
000240 ab d8 25 bd a0 b0 f7 3a 89 60 53 3e 6c c7 c6 3c
       -0.040489834 0.0018897243 0.20642294 0.024265014
000250 1a cf 6b 3d 2d 29 65 bd 07 4a 01 bc d7 1e cc bd
       0.057570554 -0.05594747 -0.007891185 -0.0996682
000260 56 b2 09 be f8 f9 0e 3e 8d 4c f9 3d 93 da b1 bc
       -0.13446936 0.13962543 0.12172804 -0.02171067
000270 ca 01 48 3d 49 c0 c5 bd 1e ac 13 3d 14 78 97 bd
       0.04882983 -0.09655816 0.036052816 -0.0739595
000280 97 29 01 3e e6 e3 68 bd 63 c4 bc 3d b1 a4 50 3d
       0.12613522 -0.056857966 0.09217145 0.050938312
000290 02 64 27 3e 33 92 aa bd ae cb b2 3d 4a 70 09 3d
       0.16346744 -0.083286665 0.08730255 0.033554353
0002a0 00 68 53 bd 1d 26 b5 3d a7 24 a3 3d 04 bd 32 3e
       -0.051612854 0.0884516 0.07965975 0.17454916
0002b0 3c 8f 6a 3d a7 1b c0 bd 13 71 52 3d 41 68 ff bc
       0.057265505 -0.09380274 0.051377367 -0.031177642
0002c0 6d 26 64 bd 2a 14 0d be 42 74 1f 3d 98 65 75 be
       -0.05570071 -0.13777223 0.03892923 -0.23964536
0002d0 92 26 07 3d d1 20 27 3d 9f c0 d0 bc 71 7a e3 bc
       0.032995768 0.04080278 -0.025482474 -0.027768346
0002e0 73 28 4f 3c d9 63 11 3d cb 99 98 3d 77 38 1c 3e
       0.012643921 0.035495613 0.07451209 0.15255915
0002f0 95 40 29 3e 47 f5 ec 3d a9 de 0b 3e 8c fc 2e bb
       0.16528542 0.115702204 0.13659157 -0.0026700823
000300 8a b1 a9 bd 61 57 b6 bd 4c bf f9 3d 75 90 5a bd
       -0.08285816 -0.08903385 0.1219469 -0.05336042
000310 4e b7 14 3e e3 75 76 bd 41 b1 12 3e 8d ac c8 bd
       0.1452305 -0.06017102 0.1432543 -0.097985364
000320 d3 7a 9a 3d 35 59 a4 bd 56 eb a2 bd 85 de 0f be
       0.07542958 -0.080248274 -0.07955043 -0.14049728
000330 c5 93 2c 3d 03 5b d8 3d de d1 59 be 62 a9 5c 3d
       0.04213311 0.10564234 -0.21271464 0.053872474
000340 26 c3 18 3d 8f 15 4c bd 83 0b 20 3d 62 97 16 3d
       0.037295483 -0.049825247 0.03907348 0.036765464
000350 7e d9 ea 3d 6f 06 29 bd 11 b1 36 bc 7a 50 ba bc
       0.114672646 -0.0412659 -0.011150614 -0.022743452
000360 5b 1d 65 bd ab 28 52 3e 8f f7 08 3e f0 b8 12 bd
       -0.0559362 0.20523326 0.13375686 -0.0358209
000370 f5 0e c2 3d 13 30 1d be 1a b0 6b 3d 46 60 95 3d
       0.09475509 -0.1535037 0.05754099 0.07293753
000380 52 65 8a bd d6 43 24 be 32 c6 0f 3e dd fd f4 3c
       -0.067576066 -0.16041502 0.1404045 0.029906208
000390 f9 a3 8f bd cb 66 7e 3d 2e 6c ee 39 8e 1d 94 3d
       -0.07013697 0.06210975 0.00045475498 0.072321996
0003a0 6c 5f 9b bd 7e 84 d4 b9 3a 23 ea bc 64 01 96 3d
       -0.0758656 -0.00040534505 -0.02858125 0.07324484
0003b0 30 92 53 bd 91 71 fd bd f5 43 b0 bd 66 e6 d2 bd
       -0.051653087 -0.12375177 -0.08606712 -0.10297851
0003c0 56 ae d9 3d 90 d5 44 3e 57 8d d4 3d ac 7f 0f 3e
       0.10628955 0.19222093 0.10378521 0.14013547
0003d0 de e7 95 bd cc 2a 81 bd ce c0 86 bd 7d ad 9e 3d
       -0.07319616 -0.06306991 -0.06579743 0.07747934
0003e0 6b 2b 5b 3e d5 09 71 3e da cc ba bd 3d 12 0c bc
       0.21403281 0.23538907 -0.091211036 -0.00854927
0003f0 f6 70 29 be 99 61 2e 3e 32 ba fd bd ff 19 11 be
       -0.16546997 0.17029418 -0.123890296 -0.14170073

onnx::LSTM_102 f4 [1, 256, 64]
000000 de 0d 02 3e e8 de a8 3d 11 94 0b 3c 44 be 7a 3e
       0.12700602 0.08245641 0.0085191885 0.24486643
000010 65 ea e4 bd 31 f5 38 be 37 01 ce 3d 55 9c 07 be
       -0.1117752 -0.18062283 0.100588255 -0.1324323
000020 7e e7 c1 3d 6e 30 2d 3e 11 40 01 be 7a 2d 8c be
       0.09467982 0.16913006 -0.12622096 -0.27378446
000030 e4 b6 74 3e f0 a4 17 be 13 b4 64 be 48 30 56 3e
       0.23897892 -0.14809012 -0.22334318 0.20916855
000040 d5 75 d5 3d b7 fd 6f 3e c1 b2 15 3e 11 42 2f be
       0.10422865 0.23436628 0.1461897 -0.17115046
000050 fe 24 7c bd d0 ee 31 be ea 2b 01 be 8d b4 38 3d
       -0.061558716 -0.17376256 -0.12614408 0.04509406
000060 93 e2 e9 bd 8c 5e 6f 3e fb f3 4b 3d f9 ae 39 3e
       -0.11420169 0.2337591 0.049793225 0.18133153
000070 3e ea 41 3d 31 28 5b bc 02 4c 8d 3b ee 34 26 3e
       0.04734253 -0.013376282 0.0043120394 0.16231129
000080 e9 20 da bb 61 d5 34 be e4 01 bf 3c 55 15 ae bd
       -0.006656755 -0.17659523 0.023316331 -0.085001625
000090 d7 37 44 3e 53 e8 15 3d 22 28 85 bc 7e 45 34 be
       0.19161926 0.036598515 -0.016254488 -0.17604634
0000a0 20 e4 12 be 98 34 aa 3d 20 71 6d bd da f9 22 3e
       -0.14344835 0.08310813 -0.057969213 0.15915623
0000b0 60 5d 33 3e 2f 43 f7 bd f2 8c 36 3e 16 d6 ac bd
       0.17516088 -0.12073361 0.17827204 -0.08439271
0000c0 2c f3 8d 3d 2d 25 04 3e d3 52 42 3e a4 2e e9 bd
       0.06931147 0.12904806 0.18976907 -0.11385849
0000d0 10 7e 90 3e 7d a2 aa 3d 85 85 fe 3d 3b 0b a1 bd
       0.28221178 0.083317734 0.124278106 -0.0786347
0000e0 a3 0f 5f bc 87 dc b1 bd b7 48 85 3d 86 46 38 3e
       -0.013614568 -0.086846404 0.0650801 0.17995653
0000f0 e6 9d 07 be fd be 19 be d4 bb 66 3e 01 d9 35 be
       -0.13243827 -0.15014262 0.22532588 -0.17758562
000100 ea 7d 75 bc 19 5a 48 3e 0f 09 d4 3d 5b bd 09 3c
       -0.0149836335 0.1956562 0.1035329 0.008406962
000110 06 48 35 3e 7d 6e a0 bd 8a fd 61 be b0 bf b5 bc
       0.17703256 -0.07833574 -0.22069374 -0.02218613
000120 19 de 9a be d8 e3 cd 3d 96 ab a7 3d 23 b8 9d 3d
       -0.30247572 0.10053223 0.08187024 0.07701137
000130 41 ed 3b 3e 9a 58 31 3e fe 83 f7 bd 06 22 62 3e
       0.18352224 0.17318955 -0.120857224 0.22083291
000140 2f 57 ed 3d cf df 3f 3c 19 78 10 3e fe cf 7b 3d
       0.115888946 0.011711075 0.14108314 0.061477654
000150 f1 eb cb 3b 48 aa c0 3d 67 cb 21 bc 28 af bb 3d
       0.0062231948 0.094074786 -0.009875155 0.09164268
000160 49 29 6f 3e 9b c2 81 3e 70 10 48 be 0f a7 c5 3d
       0.23355593 0.25343785 -0.1953752 0.096510045
000170 94 04 a0 3d 11 7a 93 3d df 07 99 bd c8 bf 07 3c
       0.07813373 0.07201017 -0.074722044 0.00828547
000180 e9 20 3d be 2e 51 28 3e c5 4d 8f 3d 4b d0 59 bd
       -0.18469585 0.16437218 0.06997255 -0.05317716
000190 46 29 85 be cd 91 05 3e 56 93 df 3d 93 aa 14 bd
       -0.26008052 0.130439 0.10916774 -0.036295485
0001a0 07 3f 66 3c 8e f8 00 be 68 21 a8 bc 0b 76 08 3e
       0.014053113 -0.12594816 -0.020523742 0.1332628
0001b0 1e ca d8 3d 4f 30 bf bc 58 a9 22 bd f7 42 80 be
       0.10585426 -0.023338465 -0.03971228 -0.2505109
0001c0 26 72 50 be 39 2d 46 3e 16 28 f4 3c bf cb 0b 3d
       -0.20356044 0.19353189 0.02980427 0.034129854
0001d0 3e f3 0a be 13 58 20 bd 98 c3 0b be 1c 93 50 be
       -0.13569352 -0.039146494 -0.13648832 -0.20368618
0001e0 a9 ed f8 3d 03 45 4f 3e c4 42 98 bd cb a7 be 3d
       0.12154705 0.2024117 -0.074346095 0.09309348
0001f0 6e a8 c1 3d 83 f4 1e 3e 53 97 65 3e 66 19 fb 3d
       0.094559535 0.15522961 0.22421007 0.12260704
000200 43 9d af ba cc 63 67 be 09 a0 e5 39 cc 69 0d 3e
       -0.0013398308 -0.22596663 0.0004379752 0.1380989
000210 a1 7d fb 3d 04 c7 50 be 29 f5 17 3c 05 2f 18 be
       0.12279821 -0.20388418 0.009274759 -0.14861687
000220 6e 86 5f 3e f1 fb 3d bd ac b7 f4 bd af 7d 05 3e
       0.21828625 -0.04638285 -0.11949095 0.13036226
000230 b2 cb 25 be 50 b5 0c be 54 cf fa bd 1f 3b 53 3e
       -0.16190985 -0.1374104 -0.12246576 0.20628022
000240 b2 08 2d 3e 34 9f 01 3e 78 c7 19 be 4b 86 2a bc
       0.16897848 0.12658387 -0.15017498 -0.0104079945
000250 9f 36 c5 3d a3 3f 30 be 17 f4 1a 3e 32 5c 1d 3d
       0.09629559 -0.17211775 0.15132175 0.038418002
000260 38 d2 1f be 82 a7 11 3e d7 07 f2 bd 37 41 54 3e
       -0.15607536 0.14224055 -0.118179016 0.20728002
000270 b9 c6 ab bd 76 06 00 be 06 e5 21 be 2a a2 95 3b
       -0.08387513 -0.12502465 -0.15810022 0.0045664506
000280 15 0a 32 be b2 38 70 bd ab b0 99 3d f0 cb 5d 3e
       -0.17386658 -0.05864782 0.075044 0.21659827
000290 6e 87 37 3d dd a4 2d be dd b8 2b bd 36 33 2f bd
       0.04480689 -0.16957422 -0.041924346 -0.042773448
0002a0 df 3b 5d be 2b e0 47 bc 6d 41 70 3e d0 3e 07 be
       -0.2160487 -0.012199442 0.23462458 -0.13207555
0002b0 99 2e ad 3c bc 8f 69 3e 18 f4 09 be a2 50 e1 3d
       0.021140384 0.22808737 -0.1347202 0.110017076
0002c0 cf d6 c3 3c 4a fc 0f be 03 c7 03 bd 4b b0 19 3c
       0.02390614 -0.14061084 -0.032172214 0.00938041
0002d0 41 32 c7 3d 88 72 de bd 5c d8 dc bd 1b e4 03 be
       0.09726382 -0.10861689 -0.10783455 -0.12879984
0002e0 2d cf a7 3d 84 81 a4 3c 01 7d 83 bc e9 9b 10 3e
       0.081938125 0.02008129 -0.016050817 0.14121975
0002f0 35 e6 17 be 71 07 7e bd 06 ab e1 bd dc ba 17 3e
       -0.14833911 -0.062018815 -0.11018948 0.14817375
000300 f7 02 d2 3d 6f 6b 82 bd 84 d1 3d 3e bd 69 40 3e
       0.10254472 -0.063681476 0.18536955 0.18790336
000310 a1 f0 de bd a6 7c 68 bd e4 6f f9 bc 97 2a eb bd
       -0.1088574 -0.0567595 -0.030448861 -0.11482733
000320 22 85 1f bc c7 9d 0d bd 7e 37 b0 bd e7 07 18 be
       -0.009736331 -0.034574296 -0.08604334 -0.14846765
000330 1f 5f 06 3e c8 3d 51 3d 9a f4 a7 bd 4a b0 0b bc
       0.13122223 0.05108431 -0.08200951 -0.008525917
000340 cc a7 47 be 96 51 47 3d 7e bf 47 3e f9 60 02 3d
       -0.19497603 0.04866179 0.19506642 0.03183076
000350 59 aa e4 bc 4d 78 62 bd 3b 7c 38 be cd 24 8d bd
       -0.02791326 -0.05529051 -0.1801614 -0.06891785
000360 b4 21 6e 3d b3 53 ba 3d 12 f9 1f 3e 5f 3b 59 be
       0.05813761 0.090979956 0.15622357 -0.21214055
000370 70 4e b7 3d 26 06 28 3d ee 85 05 3e 56 71 16 be
       0.08950508 0.04102149 0.13039371 -0.14691672
000380 a1 20 50 bd c3 06 e7 bd bb 5d ca 3b 85 9a 9c bd
       -0.050812367 -0.112805866 0.0061757243 -0.0764666
000390 0a b0 38 3e 0c c0 d0 3c 91 3a 49 3d ae ad 83 3c
       0.18035904 0.0254822 0.04912812 0.016074028
0003a0 f9 4b b1 3d 6d 58 88 3d f2 56 29 be 69 f0 3d 3e
       0.08657069 0.06657491 -0.16537073 0.1854874
0003b0 33 b5 bd 3d 6c 1f 55 be 34 74 3f be ec 49 9e 3d
       0.09263077 -0.20812768 -0.18696672 0.07728943
0003c0 e6 5d 58 3d 75 6f 2e 3e 55 4a df bd e5 9a 6d 3d
       0.052823924 0.17034705 -0.109028496 0.058009047
0003d0 6c 5c 06 3e fc 42 27 be 85 55 92 3c 9d 1c 16 3e
       0.13121194 -0.16334146 0.017863045 0.14659353
0003e0 05 ad 9a 3d 6c 57 51 3e 9c 3e f9 bd 50 16 fb 3d
       0.07552532 0.20443505 -0.12170145 0.12260115
0003f0 f6 f6 2a bd 9b 20 dd 3d d4 58 1b be 5a 41 bf 3d
       -0.041739427 0.107972346 -0.15170604 0.09338637
