code/selfparking/mla/results/run_01/Car/Car-49499977.onnx (onnx, 712368 bytes, 10 tensors)

network_body._body_endoder.seq_layers.0.weight f4 [256, 111]
0.069002785 -0.13433276 0.11587492 0.0788738 -0.06036102 -0.12943166 0.02793695 0.26667234
0.092132434 -0.03537633 0.008318184 0.06799008 0.061430465 -0.024070865 0.10260913 0.2152831
-0.085005015 0.26868868 0.069568075 0.12923676 -0.1883758 -0.04948276 0.14255315 0.07033577
-0.07721602 0.21402049 -0.008180856 -0.019611156 0.012280471 0.08776967 0.01708911 -0.032566357
-0.03414276 -0.039843068 0.082621045 -0.12154069 0.02654024 -0.110703774 0.065669164 -0.14911328
-0.1280668 -0.057286657 0.07886271 0.12918429 0.08062415 -0.19381082 0.0817317 0.06656528
0.0940297 -0.08579432 -0.025842553 0.03885862 -0.16784416 0.09234994 0.13585751 0.08337687
0.074990176 0.12615514 0.1696679 0.108336695 -0.09475504 0.1846402 -0.032554414 0.13479966
-0.1616609 0.0075038406 -0.07758133 -0.021441812 -0.029290155 -0.105515584 0.07810313 0.23474759
-0.21594658 -0.06133364 0.010805887 0.08842161 -0.057702206 -0.12674193 0.15999742 0.034340046
-0.023278585 0.010867725 -0.063121155 0.08085666 0.16920863 0.067770384 0.053322762 -0.0053741354
0.21403903 0.16628559 0.15106107 0.1711566 0.18710335 -0.050513566 0.094798855 0.053699967
0.017847415 0.13933036 0.19990268 0.17764857 0.04776852 -0.019911304 0.106779106 0.08150878
0.09225038 -0.12896948 0.18919216 0.09894187 0.13240689 0.110984124 0.07154406 -0.020112893
0.14770217 0.08206582 0.039056726 -0.087390766 0.0005968308 -0.15660286 0.07715218 -0.105763204
0.083163746 -0.092737064 -0.0018051659 0.011980194 -0.012913511 0.0023513916 -0.10260034 0.19747303
0.14325982 0.12888002 -0.025541283 -0.06084325 0.09775982 0.056136563 -0.05751634 -0.13118437
0.010903896 0.17644253 0.10921008 -0.02517071 -0.3296027 0.17130356 -0.14930403 0.11530191
0.04967683 0.07827016 0.13913228 -0.118453346 -0.033289175 -0.23109822 -0.08557876 0.077986754
0.24068956 0.20692427 0.06456801 0.039937522 -0.015987812 0.24284875 0.1393005 0.058335263
-0.10954151 0.2859909 0.29566467 -0.09284573 0.09074916 0.0082047535 0.16165823 0.11363095
0.16613223 0.09173627 0.08644444 -0.0022446068 0.07119241 0.049659245 0.024040116 0.020225381
-0.11900543 0.22889996 0.08213158 0.24209043 0.062557556 0.25897843 0.19255598 -0.2497091
0.05780723 0.042462658 -0.2076658 -0.10403705 0.098474294 0.039140336 0.17222339 0.20723857
-0.11714034 0.17616269 -0.0417231 -0.16819832 0.13354217 0.27139387 0.14256535 -0.1113316
-0.124475025 0.28024545 0.1316638 -0.045610532 0.15341659 0.082530096 0.018219693 0.123319626
-0.009028162 0.005134756 -0.017806092 -0.07935008 -0.07642296 0.32082316 0.18837966 0.25573123
0.21009064 -0.11284634 -0.2031508 -0.002890358 0.09468917 0.081303 0.019965453 0.13713829
-0.024907265 0.15912494 0.13910735 0.105648115 -0.02037373 -0.039523695 0.060517937 0.17692779
0.08779896 0.12218409 -0.112366796 0.16285734 -0.0078121093 0.019262731 0.032501534 -0.15264824
0.11006971 -0.061995443 -0.071435064 -0.076435514 0.09970227 -0.07824795 0.049758274 -0.090731435
-0.026125314 0.15429866 0.24247244 -0.2195053 0.2639768 0.054062914 0.1722496 0.14601228
00000000: 5551 8d3d 878e 09be d44f ed3d 9688 a13d
00000010: 1e3d 77bd bc89 04be 08dc e43c 4789 883e
00000020: eeaf bc3d c5e6 10bd fe48 083c 623e 8b3d
00000030: 839e 7b3d 4330 c5bc bc24 d23d 2c73 5c3e
00000040: 1c17 aebd 9091 893e b579 8e3d a456 043e
00000050: 96e5 40be 6fae 4abd 74f9 113e 330c 903d
00000060: 6f23 9ebd 3028 5b3e ff08 06bc 93a7 a0bc
00000070: 0734 493c 96c0 b33d 76fe 8b3c 4d64 05bd
00000080: 47d9 0bbd 7c32 23bd 3935 a93d 53ea f8bd
00000090: eb6a d93c a9b8 e2bd 8e7d 863d 27b1 18be
000000a0: f123 03be 6aa5 6abd c682 a13d e348 043e
000000b0: 461e a53d 5876 46be f362 a73d 6153 883d
000000c0: a592 c03d efb4 afbd c3b3 d3bc 372a 1f3d
000000d0: 57df 2bbe f721 bd3d 3b1e 0b3e 7ec1 aa3d
000000e0: 7394 993d d02e 013e 6cbd 2d3e a1df dd3d
000000f0: ee0e c2bd 5212 3d3e c757 05bd ec08 0a3e
00000100: 6f8a 25be c7e2 f53b f6e2 9ebd bda6 afbc
00000110: e8f1 efbc 8e18 d8bd 89f4 9f3d ac61 703e
00000120: 1a21 5dbe fc38 7bbd 2d0b 313c 6416 b53d
00000130: 2659 6cbd a3c8 01be 5dd6 233e 26a8 0c3d
00000140: bbb2 bebc 8b0e 323c aa45 81bd 2d98 a53d
00000150: 0745 2d3e 33cb 8a3d f868 5a3d 8419 b0bb
00000160: 0c2d 5b3e c546 2a3e c1af 1a3e ad43 2f3e
00000170: 0598 3f3e 50e7 4ebd e725 c23d 7ff4 5b3d
00000180: be34 923c 9eac 0e3e 4ab3 4c3e 82e9 353e
00000190: eca8 433d 081d a3bc 01af da3d 13ee a63d
000001a0: c4ed bc3d 9310 04be 97bb 413e 09a2 ca3d
000001b0: ac95 073e a54b e33d b185 923d cbc3 a4bc
000001c0: 3d3f 173e 2012 a83d f2f9 1f3d eef9 b2bd
000001d0: a374 1c3a 805c 20be f601 9e3d 619a d8bd
000001e0: c151 aa3d eeec bdbd 519b ecba 9348 443c
000001f0: 3193 53bc ce19 1a3b 2120 d2bd 5f36 4a3e
00000200: b4b2 123e 20f9 033e f43b d1bc c636 79bd
00000210: 4d36 c83d 74ef 653d 4196 6bbd 3255 06be
00000220: 41a6 323c 5aad 343e 89a9 df3d ce32 cebc
00000230: afc1 a8be 336a 2f3e 28e3 18be 6823 ec3d
00000240: ef79 4b3d 1b4c a03d b178 0e3e ab97 f2bd
00000250: 3b5a 08bd 03a5 6cbe eb43 afbd 85b7 9f3d
00000260: 5377 763e f5e3 533e 3c3c 843d 8795 233d
00000270: dff8 82bc 58ad 783e caa4 0e3e f5f0 6e3d
00000280: 4d57 e0bd 666d 923e 5c61 973e e725 bebd
00000290: b2da b93d 3b6d 063c bc89 253e 58b7 e83d
000002a0: 911e 2a3e 3ae0 bb3d c809 b13d 411a 13bb
000002b0: 54cd 913d 7e67 4b3d c7ef c43c b3af a53c
000002c0: 1eb9 f3bd c064 6a3e 9a34 a83d 8ee6 773e
000002d0: 2d1e 803d d298 843e 652d 453e beb3 7fbe
000002e0: 46c7 6c3d 53ed 2d3d 58a6 54be 6011 d5bd
000002f0: e4ac c93d 9e51 203d 545b 303e 5936 543e
00000300: 46e7 efbd fe63 343e d7e5 2abd 2e3c 2cbe
00000310: 47bf 083e 23f4 8a3e a7fc 113e d201 e4bd
00000320: c3ec febd 557c 8f3e e0d2 063e 1cd2 3abd
00000330: 3d19 1d3e 8a05 a93d 7741 953c 008f fc3d
00000340: dbea 13bc 7541 a83b 15de 91bc 4b82 a2bd
00000350: a483 9cbd ef42 a43e 99e6 403e 34ef 823e
00000360: 0022 573e fb1b e7bd c306 50be 296c 3dbb
00000370: 65ec c13d 3082 a63d 978e a33c fb6d 0c3e
00000380: 520a ccbc a6f1 223e 2872 0e3e 0a5e d83d
00000390: cfe6 a6bc 99e3 21bd a8e1 773d 8f2c 353e
000003a0: f1cf b33d a73b fa3d 9020 e6bd 13c4 263e
000003b0: b9fc ffbb e0cc 9d3c 5420 053d d24f 1cbe
000003c0: 3a6c e13d efee 7dbd 8c4c 92bd 398a 9cbd
000003d0: b430 cc3d 7640 a0bd 55cf 4b3d 67d1 b9bd
000003e0: c104 d6bc 7800 1e3e b24a 783e ffc5 60be
000003f0: f827 873e 1371 5d3d 3362 303e 3e84 153e

network_body._body_endoder.seq_layers.0.bias f4 [256]
0.05836928 0.02261679 0.032472942 -0.07076787 0.005367166 0.02245698 0.04922144 -0.006561522
0.016860329 -0.00651871 -0.0665928 -0.052931298 0.034898095 0.026415918 0.02830443 0.0043809363
0.03808809 0.031102328 -0.027915359 0.0009888562 0.027335841 0.042343505 -0.015252655 -0.023485566
0.0024234152 -0.06617742 -0.06018954 0.015038946 0.009642909 0.04447452 -0.044387773 -0.052703034
0.047322467 0.053430032 -0.050580353 0.06080952 -0.06559866 0.02902765 0.052925613 0.008533686
0.012420569 0.027199822 -0.023089906 0.011249804 0.017387355 0.0673453 0.0017527461 -0.03297725
0.008321538 0.052576005 -0.07827488 -0.05858055 0.016404463 0.038980685 0.053296123 -0.045187864
0.05209362 -0.059959363 0.052545685 -0.06701218 0.008304995 0.019012583 0.028895503 0.06993677
0.042279486 -0.0011635985 -0.077445954 -0.041155126 0.004493973 -0.0047683036 0.021517085 -0.058537554
-0.039168764 -0.018418154 -0.03595126 -0.010075025 -0.009270197 -0.00014947876 0.03478037 -0.013359966
0.050364863 0.04519983 -0.0015469108 0.037427764 0.05885982 -0.0011113198 0.0065345373 0.017668948
-0.09064968 0.02345807 -0.011271406 -0.033647068 0.0070866523 -0.06400988 0.025346123 -0.055654164
0.08909309 -0.02285814 -0.0002303974 -0.045557432 -0.03204391 -0.055803146 0.024643179 -0.11554271
-0.12613441 -0.120649196 0.06366977 0.03590267 0.044578515 0.025548805 0.04025472 -0.08771226
0.016535057 0.00071369804 -0.043900218 0.057261012 0.039221495 0.05276054 -0.031610884 0.011860888
0.038243704 0.07257281 -0.03465199 -0.011563278 0.012015539 -0.02073272 0.0064205546 0.046266936
0.0010543109 0.010588943 0.037274383 -0.0022887222 -0.079867326 0.026559284 0.030502947 -0.070258215
0.027742257 0.07512144 -0.026101315 0.07872876 0.02632665 0.013732523 0.04071829 0.0025047937
0.046608303 0.021751044 0.016447855 0.01768813 -0.013221265 0.053566817 0.012096267 0.08551307
0.043475837 -0.027996369 0.0033566253 0.0358101 -0.012608469 -0.02240946 -0.031176595 0.06136461
-0.04348613 -0.027141482 0.015208573 0.04761613 -0.0724717 0.041548453 -0.0020908003 0.034486953
-0.033981014 0.035239886 0.027926417 0.030612834 0.04989231 -0.031554252 0.009365563 0.042005986
-0.006986201 -0.060242217 0.004531997 -0.07523941 0.05324544 0.043138288 -0.0010315663 -0.03338155
-0.015103154 -0.07289859 0.021539245 -0.057538792 0.04102035 0.041386794 -0.035812926 0.03151124
0.046594746 -0.0040815845 -0.044738416 -0.061163336 0.08429015 -0.08018186 0.022165649 0.05191493
0.019307029 -0.00972541 -0.046490908 -0.0016718382 0.006423223 0.016181786 0.06443467 -0.027099343
-0.010649658 0.014290152 -0.011914743 -0.007464043 -0.058608554 0.026485728 0.040458784 -0.033170786
-0.0020283125 -0.059145216 -0.06059639 -0.041795153 -0.024956014 0.004708236 0.04533895 0.056238934
0.0009674701 -0.0045391307 -4.8222148e-05 -0.079515114 -0.043879747 0.04635963 -0.10749872 0.04549239
-0.043351475 -0.013978555 -0.020162672 0.06321578 0.0018615315 0.041335035 -0.023370882 -0.040630244
0.038906597 0.029759457 -0.053588375 0.047051966 -0.066983834 -0.07004151 -0.00035485876 0.043712314
0.062025744 0.006730078 0.0655249 -0.0037614235 -0.01962533 0.079572655 0.031092234 -0.010513277
00000000: a014 6f3d d946 b93c 5902 053d bfee 90bd
00000010: 0ddf af3b b3f7 b73c 6c9c 493d 0902 d7bb
00000020: ac1e 8a3c e79a d5bb ce61 88bd 7dce 58bd
00000030: 4ef1 0e3d 3266 d83c b1de e73c f58d 8f3b
00000040: 4202 1c3d 4fca fe3c c0ae e4bc 829c 813a
00000050: 6aef df3c 6270 2d3d 46e6 79bc cd64 c0bc
00000060: 29d2 1e3b 0788 87bd 4f89 76bd e965 763c
00000070: 4bfd 1d3c ea2a 363d f4cf 35bd 23df 57bd
00000080: 34d5 413d 73d9 5a3d 582d 4fbd 6713 793d
00000090: 9758 86bd 65cb ed3c 87c8 583d e0d0 0b3c
000000a0: a47f 4b3c 29d2 de3c 0b27 bdbc 1951 383c
000000b0: ed6f 8e3c 55ec 893d 66bc e53a 2713 07bd
000000c0: 0f57 083c f059 573d 954e a0bd 29f2 6fbd
000000d0: a762 863c 36aa 1f3d 094d 5a3d e916 39bd
000000e0: 1f60 553d f397 75bd 253a 573d af3d 89bd
000000f0: ac11 083c 47c0 9b3c 43b6 ec3c 023b 8f3d
00000100: 412d 2d3d e383 98ba fc9b 9ebd 4792 28bd
00000110: 2e42 933b 6e3f 9cbb 9944 b03c 13c5 6fbd
00000120: 6d6f 20bd abe1 96bc a141 13bd b811 25bc
00000130: 06e2 17bc 66bd 1cb9 dc75 0e3d c2e3 5abc
00000140: 634b 4e3d 7523 393d b7c1 caba db4d 193d
00000150: ff16 713d b4a9 91ba ac1f d63b 78be 903c
00000160: 8aa6 b9bd 232b c03c b4ab 38bc 82d1 09bd
00000170: 2637 e83b 9d17 83bd aca2 cf3c 9ff5 63bd
00000180: 7076 b63d fe40 bbbc d596 71b9 6e9a 3abd
00000190: 7a40 03bd d791 64bd 7ee0 c93c a8a1 ecbd
000001a0: 6129 01be ed16 f7bd 4c65 823d ae0e 133d
000001b0: f697 363d ba4b d13c 22e2 243d 7ca2 b3bd
000001c0: 8774 873c 7717 3b3a b7d0 33bd 868a 6a3d
000001d0: b8a6 203d 701b 583d 6a7a 01bd 2c54 423c
000001e0: 6ea5 1c3d 0ea1 943d 3fef 0dbd e773 3dbc
000001f0: d3dc 443c aad7 a9bc 8463 d23b 6682 3d3d
00000200: ce30 8a3a 3f7d 2d3c 06ad 183d 63fe 15bb
00000210: 7b91 a3bd db92 d93c 51e1 f93c 8ae3 8fbd
00000220: bb43 e33c 45d9 993d 6dd2 d5bc 8b3c a13d
00000230: fdaa d73c 60fe 603c 39c8 263d 7727 243b
00000240: 59e8 3e3d 3f2f b23c a7bd 863c b2e6 903c
00000250: 019e 58bc e168 5b3d 6c2f 463c 7a21 af3d
00000260: b813 323d a458 e5bc d4fa 5b3b 9dad 123d
00000270: c193 4ebc 0b94 b7bc 0f66 ffbc 7559 7b3d
00000280: 831e 32bd d057 debc 612d 793c 2209 433d
00000290: 0b6c 94bd b62e 2a3d cf05 09bb 3142 0d3d
000002a0: ad2f 0bbd b357 103d f1c5 e43c c4c7 fa3c
000002b0: e15b 4c3d 083f 01bd 0572 193c 780e 2c3d
000002c0: 80ec e4bb 8bc0 76bd 2581 943b 1f17 9abd
000002d0: e417 5a3d c6b1 303d 9f35 87ba 18bb 08bd
000002e0: 3873 77bc db4b 95bd 1273 b03c ccad 6bbd
000002f0: f404 283d 3385 293d 93b0 12bd ee11 013d
00000300: 22da 3e3d d0be 85bb a13f 37bd 6886 7abd
00000310: 50a0 ac3d 6336 a4bd bc94 b53c c0a4 543d
00000320: c629 9e3c 5357 1fbc 406d 3ebd 9521 dbba
00000330: e679 d23b aa8f 843c 53f6 833d 71ff ddbc
00000340: e77b 2ebc 3e21 6a3c 0e36 43bc ee94 f4bb
00000350: 860f 70bd 99f8 d83c 1cb8 253d 17de 07bd
00000360: 70ed 04bb 4142 72bd ec33 78bd 6531 2bbd
00000370: 8e70 ccbc 8c47 9a3b 56b5 393d cc5a 663d
00000380: d29d 7d3a fdbc 94bb 2342 4ab8 d2d8 a2bd
00000390: 40bb 33bd 98e3 3d3d 4a28 dcbd 3a56 3a3d
000003a0: 5191 31bd 4f06 65bc 302c a5bc 4677 813d
000003b0: a2fe f33a ed4e 293d 4b74 bfbc e66b 26bd
000003c0: 865c 1f3d 1bca f33c 7c7f 5bbd 90b9 403d
000003d0: d22e 89bd ec71 8fbd 560c bab9 af0b 333d
000003e0: b50e 7e3d fc87 dc3b eb31 863d 3782 76bb
000003f0: 4dc5 a0bc fdf6 a23d 24b5 fe3c e13f 2cbc

network_body._body_endoder.seq_layers.2.weight f4 [256, 256]
-0.021038935 -0.08408425 -0.1318711 -0.0046103313 0.01008453 0.04241647 0.014826904 -0.024389824
0.05232503 -0.039220266 -0.15270098 -0.06033209 0.070316456 -0.05163857 0.00962561 -0.049879655
0.08155833 -0.018940628 -0.094734795 0.041271023 -0.0918144 0.12407661 -0.047280394 0.05954541
-0.029363994 -0.15666817 0.0074718487 0.042150617 -0.021361914 0.11918807 -0.18540157 0.022431215
-0.023471363 -0.04877244 -0.06347051 -0.08169305 -0.08152775 0.018253163 -0.028097345 -0.11605726
-0.07410882 -0.022009304 -0.08474995 -0.039362248 -0.026263893 -0.087577105 0.045452785 -0.051722594
-0.0992592 0.12291684 -0.096382536 -0.054401383 0.12854382 -0.08767981 0.12194268 0.049722463
0.03782666 0.017634932 -0.0929443 0.05099771 -0.03970431 0.12913193 0.040701877 0.06159855
-0.060102355 -0.029150816 -5.9343605e-05 -0.120960854 -0.10331126 -0.072066724 0.120000966 -0.025223559
0.0123605225 -0.08529244 -0.16046631 -0.060385175 -0.018999312 -0.05602806 0.14182405 -0.041037355
0.07331686 -0.08278068 0.051725175 0.028150963 0.06866707 -0.025367387 0.051136527 -0.095877856
-0.010336249 0.14565651 -0.07324469 -0.14983487 -0.02406703 -0.06806202 0.16732927 0.00972029
-0.10341497 -0.029562209 -0.021718312 -0.03457026 -0.016075214 -0.03634305 0.0042032367 -0.06361295
0.023132937 0.0074249795 -0.086038835 0.14333123 -0.09016822 -0.008386654 -0.023252752 -0.039544694
-0.031241592 -0.03512061 -0.13798943 -0.0013507919 0.13220607 0.039496925 -0.1252072 -0.00201301
-0.05383207 -0.09013366 -0.05186388 -0.089320295 -0.0133442255 -0.040080722 -0.046675857 0.008433784
0.04471699 0.021999374 -0.058458198 -0.10971546 -0.036217034 -0.04160345 0.023652421 -0.07839104
-0.00076067186 0.036774572 -0.042616654 0.09924527 0.15552115 -0.021508854 0.10753476 -0.0065708584
-0.080315426 -0.07296711 0.13362557 0.016633952 -0.055923343 -0.07591136 -0.03434093 0.08423358
0.0073258816 -0.12884131 -0.016213192 0.002109674 -0.05437006 -0.12732334 -0.008648639 0.016071875
-0.0785286 -0.079800434 -0.037613675 -0.10806498 0.0063221264 0.03298296 -0.059441384 0.03904788
-0.062792085 -0.0062581175 0.07196292 -0.08059542 0.026928645 -0.058292434 -0.014906748 -0.036121283
-0.04892076 -0.07373425 0.02735928 -0.08838845 0.054348722 0.012539158 -0.09861786 -0.03634475
-0.18497409 -0.031628434 -0.020395 -0.059376113 0.053422384 -0.031257473 -0.06989671 -0.045452446
-0.036908325 -0.027572857 -0.06673143 0.030320046 -0.036668215 0.09161062 -0.053923596 -0.14831853
0.0318927 -0.031764247 -0.060527116 0.024239887 0.05272479 0.042699154 -0.048517276 0.06941596
0.10035748 -0.052707087 0.06275626 0.03730593 -0.058602303 -0.016285677 -0.10916967 -0.06512454
0.083651654 -0.050700855 -0.049307514 -0.25931117 -0.01166772 -0.008025243 0.05375365 -0.005470257
0.0617328 -0.0021540488 -0.056490228 -0.101928435 -0.05766361 -0.029588161 0.09241286 0.093253665
-0.06660317 -0.08283872 -0.05113472 0.066011675 -0.08306719 -0.11100335 -0.15519041 -0.06756133
-0.088452466 -0.07502261 -0.0626115 -0.0054620462 -0.12316445 -0.00039510144 -0.10843314 0.16561016
-0.076471776 -0.08549443 0.0839758 0.0227356 -0.027546233 0.01223852 -0.050664674 -0.001465527
00000000: d859 acbc 5d34 acbd 3809 07be 4312 97bb
00000010: 9639 253c e4bc 2d3d 8bec 723c 2bcd c7bc
00000020: c552 563d 6ea5 20bd a55d 1cbe c81e 77bd
00000030: 1302 903d f782 53bd bcb4 1d3c 9c4e 4cbd
00000040: 0e08 a73d 6029 9bbc 5104 c2bd ce0b 293d
00000050: 3009 bcbd e11b fe3d 16a9 41bd e3e5 733d
00000060: c28c f0bc 9f6d 20be 69d6 f43b 20a6 2c3d
00000070: 2eff aebc e018 f43d e9d9 3dbe abc1 b73c
00000080: 0447 c0bc 9cc5 47bd d4fc 81bd b04e a7bd
00000090: 05f8 a6bd a887 953c 672c e6bc 6eaf edbd
000000a0: 5dc6 97bd db4c b4bc 6291 adbd 4f3a 21bd
000000b0: 6027 d7bc a05b b3bd b32c 3a3d 12db 53bd
000000c0: 6848 cbbd d3bb fb3d 3564 c5bd fcd3 5ebd
000000d0: fea0 033e 7991 b3bd 15bd f93d c8a9 4b3d
000000e0: 21f0 1a3d 2277 903c 9559 bebd fae2 503d
000000f0: fda0 22bd 293b 043e 03b7 263d c34e 7c3d
00000100: e32d 76bd b1cd eebc b6e7 78b8 53ba f7bd
00000110: db94 d3bd b897 93bd 11c3 f53d a3a1 cebc
00000120: ca83 4a3c cead aebd 4851 24be 7256 77bd
00000130: 72a4 9bbc ae7d 65bd 533a 113e c916 28bd
00000140: 2627 963d eb88 a9bd c7dd 533d d99c e63c
00000150: 52a1 8c3d 44cf cfbc 8974 513d 9c5b c4bd
00000160: 5f59 29bc fb26 153e 5001 96bd 506e 19be
00000170: 3828 c5bc 1a64 8bbd 5d58 2b3e da41 1f3c
00000180: 3acb d3bd 722c f2bc 9aea b1bc 8c99 0dbd
00000190: 2bb0 83bc 73dc 14bd 4ebb 893b 8247 82bd
000001a0: 4981 bd3c 3e4d f33b 2135 b0bd 6cc5 123e
000001b0: 1eaa b8bd 2d68 09bc 8e7c bebc 9ef9 21bd
000001c0: 5eee ffbc a1da 0fbd 1a4d 0dbe 0e0d b1ba
000001d0: 0761 073e 87c7 213d 5136 00be b4ec 03bb
000001e0: 047f 5cbd ff97 b8bd 386f 54bd 8fed b6bd
000001f0: bda1 5abc af2b 24bd 2f2f 3fbd db2d 0a3c
00000200: 2a29 373d 0838 b43c dd71 6fbd 80b2 e0bd
00000210: 5058 14bd 6168 2abd b9c2 c13c 7b8b a0bd
00000220: d367 47ba efa0 163d cd8e 2ebd 1b41 cb3d
00000230: f040 1f3e 5633 b0bc 2f3b dc3d 5b50 d7bb
00000240: 6a7c a4bd c86f 95bd 24d5 083e ed43 883c
00000250: e00f 65bd 6a77 9bbd 13a9 0cbd a882 ac3d
00000260: f30d f03b faee 03be 87d1 84bc 7542 0a3b
00000270: 24b3 5ebd 0d61 02be 05b3 0dbc 2aa9 833c
00000280: 9ad3 a0bd 696e a3bd cc10 1abd 2c51 ddbd
00000290: d729 cf3b 2419 073d cf78 73bd abf0 1f3d
000002a0: 2399 80bd e510 cdbb 4c61 933d 360f a5bd
000002b0: 7699 dc3c 0cc4 6ebd 6f3b 74bc e9f3 13bd
000002c0: 2361 48bd fc01 97bd 9220 e03c 0105 b5bd
000002d0: c49c 5e3d 0a71 4d3c 29f8 c9bd 3cde 14bd
000002e0: d969 3dbe d18c 01bd 6a13 a7bc 5e34 73bd
000002f0: 6ed1 5a3d d607 00bd 0226 8fbd 582c 3abd
00000300: 2f2d 17bd 79e0 e1bc 7daa 88bd bf61 f83c
00000310: 6931 16bd 599e bb3d fdde 5cbd d0e0 17be
00000320: eba1 023d 3a1b 02bd 48eb 77bd ba92 c63c
00000330: f3f5 573d 4fe5 2e3d 0dba 46bd f429 8e3d
00000340: 3988 cd3d 63e3 57bd 5b86 803d 1ace 183d
00000350: f808 70bd 8a69 85bc 5994 dfbd 0460 85bd
00000360: 8f51 ab3d b3ab 4fbd adf6 49bd 6fc4 84be
00000370: f729 3fbc 4f7c 03bc ca2c 5c3d d73f b3bb
00000380: 88db 7c3d f12a 0dbb 4c62 67bd dbbf d0bd
00000390: ad30 6cbd df62 f2bc f442 bd3d c7fb be3d
000003a0: 3e67 88bd 59a7 a9bd a472 51bd 2131 873d
000003b0: 221f aabd b955 e3bd 3cea 1ebe 985d 8abd
000003c0: 9126 b5bd 74a5 99bd 753a 80bd f7fa b2bb
000003d0: a53d fcbd 9e25 cfb9 3212 debd b695 293e
000003e0: 3c9d 9cbd b417 afbd 81fb ab3d 0240 ba3c
000003f0: a3a8 e1bc 1384 483c c385 4fbd ed16 c0ba

network_body._body_endoder.seq_layers.2.bias f4 [256]
-0.039977416 0.015275824 0.0670272 0.042171407 0.05485781 0.011913292 -0.07460262 0.029243896
-0.016724864 -0.0025874216 0.000828059 0.02940283 0.006066967 0.022051279 0.043763634 -0.091689594
0.041176837 0.0057774973 0.03377478 -0.0026451699 0.050426424 0.01688907 0.043256897 0.00065948034
0.023098664 0.020524012 -0.02201004 -0.0113286 -0.00038764966 0.011464349 -0.03425497 0.030807354
-0.009679137 -0.036786333 -0.031818014 0.039142363 0.03119527 0.0070188576 0.0027185446 0.027936097
0.014262882 0.0074159033 0.03664212 0.013343529 0.0597545 -0.0032150329 -0.0051478525 0.017890655
-0.038783364 -0.0014172363 -0.032373358 -0.012634738 0.0062871915 -0.04052541 -0.0028436151 -0.033894997
0.0074283034 0.0036801212 0.0024449117 -0.035900332 0.048522804 -0.005759095 -0.014200322 0.033636328
0.040010378 0.051160946 0.04640782 0.004119713 0.011872996 0.05446826 0.000711565 0.010169692
0.06737403 0.032547478 0.08184078 0.045509573 0.05362546 0.054510843 0.033637945 0.030231146
-0.04411402 -0.04129604 -0.07125227 0.0008204262 0.005830994 -0.0017871315 0.01868549 -0.0014198917
-0.01222114 0.037032068 0.057052128 0.023860661 0.053979967 0.054924827 -0.023777828 0.02153084
0.014466159 0.01686239 0.009154401 -0.00063655723 0.053461082 0.05327614 0.060744487 0.024369698
0.010411012 0.04760803 0.014198157 -0.051134128 0.009662958 0.017670263 0.007926134 0.039479457
-0.031822383 0.035389416 -0.014883588 -0.038279194 0.042983152 0.080821864 -0.0048515787 0.04209069
0.06421395 0.0156016555 0.027239738 -0.04692743 0.0027950462 -0.037043847 0.021963038 -0.02297096
0.017540352 -0.007550716 0.05089904 0.057239305 0.0011005043 -0.0069603147 -0.009604689 0.07261556
-0.023614602 0.01838272 0.04808282 0.0038780395 -0.014929116 -0.01493187 0.051615413 -0.010682961
0.03988075 0.011891517 0.0457018 -0.025840724 0.02444755 0.028664472 0.031751193 -0.021123113
0.016234806 0.0502925 0.015764344 -0.0036414342 -0.01144173 0.012606338 0.0074827727 -0.0067368904
-0.0048771333 0.0076789544 -0.050921936 -0.016211567 0.07806896 0.032584693 0.053986277 -0.001407184
-0.016539628 -0.009851512 0.039676167 -0.0033484849 0.06761905 0.0050938767 0.016298942 0.036106806
0.008500973 -0.05279635 0.051747933 -0.011384283 -0.03722937 0.032213602 0.040581737 0.031086162
0.012838276 0.044488944 -8.7826236e-05 0.026207453 0.008769816 0.042341657 0.029993681 0.030170968
0.044320673 0.012044558 0.043495208 -0.06115307 0.07785812 -0.025763215 -0.007236443 -0.026067847
0.009893764 0.0072658677 0.01190584 -0.00794147 0.0061850324 0.00789337 -0.06456681 0.014073508
0.005072758 -0.018527681 -0.039818093 0.07478045 -0.019836128 -0.0035448016 0.009152623 0.0679346
-0.054217517 0.048359986 0.0037509478 0.027710434 0.0038524377 -0.093584694 0.02388055 0.031111112
0.09009142 -0.032645464 -0.010594538 0.041332047 -0.0050151437 0.0006161986 0.0762927 0.07091365
-0.0047871144 -0.015760003 -0.018585792 0.028302616 -0.006074686 0.057117686 0.010155977 0.004517147
0.012794531 0.023580926 0.030471733 0.025245728 0.056516297 0.035680164 0.041091222 -0.020632926
0.021695023 0.024510283 0.040512882 -0.0012155111 -0.0006621812 0.013282089 -0.011377671 0.0018811005
00000000: 5cbf 23bd 7347 7a3c 8e45 893d edbb 2c3d
00000010: 95b2 603d f82f 433c 42c9 98bd e590 ef3c
00000020: 9502 89bc bb91 29bb 1912 593a 34de f03c
00000030: 68cd c63b e2a4 b43c 7f41 333d c1c7 bbbd
00000040: 0ba9 283d 2951 bd3b 6c57 0a3d 965a 2dbb
00000050: f08b 4e3d f25a 8a3c 252e 313d fae0 2c3a
00000060: 6939 bd3c f921 a83c 664e b4bc 989b 39bc
00000070: 753d cbb9 f7d4 3b3c f04e 0cbd b45f fc3c
00000080: 3e95 1ebc 44ad 16bd 9b53 02bd be53 203d
00000090: 398d ff3c 72fe e53b 9c29 323b 3eda e43c
000000a0: ddae 693c 1b01 f33b 0c16 163d d19e 5a3c
000000b0: 22c1 743d 4db3 52bb 51af a8bb 6c8f 923c
000000c0: 4edb 1ebd 8fc2 b9ba ed99 04bd ef01 4fbc
000000d0: c904 ce3b f9fd 25bd f25b 3abb 7bd5 0abd
000000e0: 2069 f33b 302e 713b d03a 203b 3a0c 13bd
000000f0: d9bf 463d cab6 bcbb 78a8 68bc 3fc6 093d
00000100: ece1 233d 248e 513d 2016 3e3d a8fe 863b
00000110: f486 423c 1c1a 5f3d 5288 3a3a c89e 263c
00000120: 65fb 893d 8150 053d 249c a73d 3f68 3a3d
00000130: 5fa6 5b3d c346 5f3d f1c7 093d 4fa7 f73c
00000140: e7b0 34bd 0926 29bd b6ec 91bd df11 573a
00000150: ec11 bf3b 2f3e eaba 5012 993c a91b baba
00000160: 2d3b 48bc f0ae 173d 7eaf 693d 6f77 c33c
00000170: 191a 5d3d dbf8 603d b8c9 c2bc 7261 b03c
00000180: 7803 6d3c ff22 8a3c 57fc 153c a2de 26ba
00000190: 02fa 5a3d 1538 5a3d 36cf 783d f6a2 c73c
000001a0: f392 2a3c a300 433d 639f 683c 0572 51bd
000001b0: 6251 1e3c 3ac1 903c 9edc 013c 36b5 213d
000001c0: 3058 02bd 7ef4 103d 4bda 73bc a5ca 1cbd
000001d0: 1a0f 303d ef85 a53d fef9 9ebb 4a67 2c3d
000001e0: 9a82 833d 169e 7f3c df25 df3c fa36 40bd
000001f0: 182d 373b 4abb 17bd d4eb b33c 982d bcbc
00000200: c9b0 8f3c ff6b f7bb 837b 503d c373 6a3d
00000210: cc3e 903a 5a13 e4bb fc5c 1dbc 77b7 943d
00000220: 6973 c1bc 5c97 963c 7ef2 443d b526 7e3b
00000230: 4099 74bc cda4 74bc af6a 533d 9607 2fbc
00000240: ff59 233d a3d4 423c d031 3b3d edaf d3bc
00000250: 3a46 c83c c1d1 ea3c 8a0d 023d 610a adbc
00000260: dbfe 843c 82ff 4d3d 3a24 813c 21a5 6ebb
00000270: 1876 3bbc d08a 4e3c 0c32 f53b 22c1 dcbb
00000280: 5cd0 9fbb bd9f fb3b 8593 50bd 1fce 84bc
00000290: 9ee2 9f3d 8777 053d b720 5d3d 4371 b8ba
000002a0: 1d7e 87bc 3c68 21bc 7a83 223d 4172 5bbb
000002b0: db7b 8a3d 89ea a63b 5c85 853c bbe4 133d
000002c0: aa47 0b3c fc40 58bd a4f5 533d 2585 3abc
000002d0: d37d 18bd 69f2 033d 0939 263d 68a8 fe3c
000002e0: a257 523c 0a3a 363d 5a2f b8b8 03b1 d63c
000002f0: 46af 0f3c 726e 2d3d 4fb5 f53c 1b29 f73c
00000300: 9889 353d 8a56 453c 0828 323d a47b 7abd
00000310: 1474 9f3d 610d d3bc af1f edbb 3d8c d5bc
00000320: 7419 223c 8416 ee3b b610 433c f01c 02bc
00000330: d0ab ca3b 3253 013c 9b3b 84bd 9294 663c
00000340: 6139 a63b 5dc7 97bc 4c18 23bd 7e26 993d
00000350: 607f a2bc e74f 68bb e2f4 153c 4c21 8b3d
00000360: 3013 5ebd 1f15 463d 76d2 753b fe00 e33c
00000370: 2e79 7c3b 55a9 bfbd 25a1 c33c bbdc fe3c
00000380: da81 b83d 40b7 05bd b794 2dbc cb4b 293d
00000390: 1356 a4bb 6388 213a 593f 9c3d 2d3b 913d
000003a0: 3add 9cbb 1f1b 81bc 3b41 98bc e3da e73c
000003b0: 290e c7bb 3cf4 693d 4165 263c 9304 943b
000003c0: 27a0 513c c92c c13c db9f f93c 21d0 ce3c
000003d0: a27d 673d 5d25 123d 454f 283d 6206 a9bc
000003e0: c3b9 b13c cac9 c83c d6f0 253d c951 9fba
000003f0: 3a96 2dba 1e9d 593c 6969 3abc 428f f63a

action_model._continuous_distribution.log_sigma f4 [1, 2]
-0.56433064 -0.57069284
00000000: f977 10bf ed18 12bf

action_model._continuous_distribution.mu.weight f4 [2, 64]
-0.17594884 0.1255834 0.06570882 0.13515292 0.15696849 0.15733914 0.07688694 0.09430086
-0.1692965 -0.26751322 0.1156286 0.20044443 -0.22401139 -0.055890713 0.24742427 -0.16946346
0.12393005 -0.08808974 -0.20416367 -0.016820142 0.036742836 -0.065450385 -0.29194185 0.19152586
0.05776175 -0.20232658 0.07198818 -0.1520947 -0.22449602 0.20327722 -0.11968968 0.09667404
-0.1388406 0.025471842 -0.18004413 0.20750612 -0.08804439 -0.03633625 0.08355605 -0.048360594
-0.06918647 0.26361364 0.15634938 0.14159112 0.035022918 0.1879097 -0.03586274 -0.12896062
0.111363254 0.012373111 -0.07563469 0.17621097 -0.1733697 0.07194205 -0.008499846 -0.2571567
-0.16873121 0.015897721 -0.05562101 -0.12044429 0.06383224 -0.19698682 0.051631145 0.18729763
0.1554688 0.1673949 -0.08283061 -0.13155073 -0.14628616 0.12448819 0.14932522 0.22752558
0.20543012 -0.08872793 0.035666488 0.020705305 0.061882604 -0.11682679 -0.0046695056 -0.042455018
0.095393114 0.20871797 0.15675697 -0.20630877 -0.32698485 -0.1566956 -0.07147661 -0.04381455
0.16041099 -0.17783542 -0.14107499 -0.099022806 0.00012862381 0.09522872 -0.13928655 -0.122001655
-0.14829457 0.16069971 -0.26549172 -0.034600407 0.08032314 0.1334332 0.109470755 0.19124447
-0.12688364 -0.15791184 0.12773779 0.017814815 -0.12521824 -0.2025441 0.20448528 0.07774936
0.19666736 -0.11493222 0.11463451 0.054399483 -0.040778216 -0.1660819 0.1924701 0.2246048
0.051294416 0.20192508 0.14904405 0.027254466 0.13796194 0.02077035 0.118548974 0.018901486
00000000: ef2b 34be ef98 003e 5992 863d 8765 0a3e
00000010: 59bc 203e 831d 213e e676 9d3d cf20 c13d
00000020: 105c 2dbe 7ef7 88be b0ce ec3d 4e41 4d3e
00000030: 3e63 65be a9ed 64bd ca5c 7d3e d487 2dbe
00000040: 0acf fd3d 6568 b4bd 4810 51be 65ca 89bc
00000050: a87f 163d da0a 86bd 6779 95be 5b1f 443e
00000060: 9697 6c3d b32e 4fbe 8a6e 933d b7be 1bbe
00000070: 49e2 65be e727 503e dd1f f5bd 0afd c53d
00000080: 3b2c 0ebe 53aa d03c 7d5d 38be 7c7c 543e
00000090: 9e50 b4bd 52d5 14bd 6f1f ab3d c215 46bd
000000a0: a3b1 8dbd 5ef8 863e 0d1a 203e 43fd 103e
000000b0: 3174 0f3d 676b 403e cfe4 12bd 410e 04be
000000c0: 6b12 e43d 97b8 4a3c 5ce6 9abd a670 343e
000000d0: d487 31be 5a56 933d f042 0bbc 0baa 83be
000000e0: e0c7 2cbe f03b 823c dbd2 63bd 7fab f6bd
000000f0: 7aba 823d eab6 49be 2e7b 533d f3ca 3f3e
00000100: 3733 1f3e 9269 2b3e 18a3 a9bd 3cb5 06be
00000110: 0acc 15be aaf3 fe3d b6e8 183e 77fc 683e
00000120: 465c 523e fdb6 b5bd 0617 123d 2c9e a93c
00000130: 9d78 7d3d e242 efbd a702 99bb 50e5 2dbd
00000140: 775d c33d 2aba 553e e684 203e 9b42 53be
00000150: 8f6a a7be d074 20be 5462 92bd e376 33bd
00000160: c742 243e 7d1a 36be f675 10be 78cc cabd
00000170: 31df 0639 4607 c33d 22a1 0ebe 01dc f9bd
00000180: 88da 17be 778e 243e 88ee 87be 28b9 0dbd
00000190: 7580 a43d b6a2 083e 3432 e03d 97d5 433e
000001a0: c9ed 01be a4b3 21be b2cd 023e 60f0 913c
000001b0: 3639 00be b867 4fbe 9764 513e 0e3b 9f3d
000001c0: 2b63 493e 9561 ebbd 7fc5 ea3d fed1 5e3d
000001d0: 0f07 27bd 6011 2abe e216 453e cdfe 653e
000001e0: 181a 523d 73c5 4e3e 019f 183e c244 df3c
000001f0: e545 0d3e 9526 aa3c cec9 f23d 4ad7 9a3c

action_model._continuous_distribution.mu.bias f4 [2]
-0.022619868 -0.04258273
00000000: 4d4d b9bc 3b6b 2ebd

onnx::LSTM_101 f4 [1, 256, 256]
-0.11053141 -0.0271216 -0.021087812 0.08883057 0.08754567 -0.05534046 0.109056674 0.086754054
0.06149478 -0.026702013 -0.22548427 0.08141765 0.10381832 0.13375872 0.06600548 -0.1498076
-0.018349005 0.017365547 0.09126828 0.13460918 -0.030068284 0.13457462 0.048403263 -0.017160587
-0.029072952 0.048369445 0.11462929 0.08289741 -0.12734807 -0.070574984 -0.12450012 -0.067386314
-0.09658297 -0.14861561 0.12515396 0.022383092 0.010346704 -0.05779807 -0.023817763 -0.063484
0.10786839 -0.10077074 0.112047516 -0.012541586 -0.08151876 -0.074849814 0.07663252 -0.045393314
0.03305016 -0.06630989 -0.0808698 -0.0755943 -0.034503102 0.11790843 -0.13365316 -0.19694157
0.039439935 0.065985225 -0.020415496 -0.0056700315 0.1342431 -0.12080292 -0.11775756 0.14534855
-0.054687105 -0.15436481 0.015482572 -0.10732438 0.10580294 0.03785469 0.023079222 0.068507574
0.101048395 -0.14241028 -0.09907367 0.13892977 0.12506537 0.08494064 0.111588426 0.10070552
0.058654167 -0.023458205 0.002578008 -0.09415042 -0.04344868 -0.04628536 -0.025026765 0.0043175314
0.019150387 0.099102356 0.0026513971 0.19140112 -0.058024187 0.1489709 -0.061191756 0.030435488
0.02000737 0.13363665 0.07375824 0.13640024 0.0743541 -0.048173632 0.021175694 0.008597946
0.101797275 -0.027763898 -0.07442702 0.015643133 0.009662512 -0.040193114 0.105272174 -0.0782167
-0.004408146 -0.017153112 0.008232961 -0.028917864 -0.044292167 0.05120965 -0.009180762 0.11097557
-0.09438417 -0.0009762788 0.007915414 0.07266772 -0.11997787 -0.19621855 -0.13101482 0.10106528
0.0123052765 0.082582764 0.109700814 0.068113245 -0.004816559 0.039395154 -0.12526557 -0.01623985
-0.12414939 0.064840004 0.09838926 0.12135667 -0.06619886 -0.17546967 -0.08192842 -0.03993487
-0.040527306 0.0018557725 0.20625103 0.024213541 0.057739478 -0.05591726 -0.008113698 -0.099803776
-0.13454433 0.13976765 0.12181823 -0.02154168 0.04897549 -0.0966369 0.036195066 -0.07415275
0.12592243 -0.05702966 0.09219029 0.051051863 0.16362295 -0.08317641 0.08709661 0.033547748
-0.051460717 0.08861076 0.07941822 0.17443365 0.057115022 -0.09392444 0.051602393 -0.031062733
-0.055348363 -0.13779192 0.039040808 -0.23937048 0.03294323 0.040831704 -0.02536602 -0.027618475
0.012856934 0.03542853 0.074680224 0.15276004 0.16514844 0.11545202 0.1363942 -0.0022015288
-0.082705244 -0.089113854 0.12211498 -0.05344737 0.14496557 -0.060403228 0.14339913 -0.09809861
0.075551115 -0.08020936 -0.0794516 -0.14056927 0.04214816 0.10596152 -0.21283475 0.053981386
0.037113193 -0.04992593 0.039036285 0.037028696 0.11456568 -0.041281246 -0.011092058 -0.022470854
-0.055814464 0.20496884 0.13380975 -0.03599875 0.094612084 -0.15344965 0.057603523 0.07278218
-0.067265995 -0.16042383 0.14022455 0.03007627 -0.07000203 0.062338084 0.00062477833 0.072546214
-0.075666 -0.00034381042 -0.028561091 0.073391 -0.051424675 -0.12377224 -0.08587193 -0.103119746
0.10630109 0.19239523 0.103677906 0.14011367 -0.072936215 -0.0632528 -0.06553949 0.07763071
0.21397942 0.23556864 -0.091024354 -0.008393503 -0.16549483 0.1703211 -0.12371086 -0.14175877
00000000: 4b5e e2bd 1e2e debc 59c0 acbc cdec b53d
00000010: 254b b33d aeac 62bd 1b59 df3d 1cac b13d
00000020: f3e1 7b3d 2ebe dabc 59e5 66be 4cbe a63d
00000030: b39e d43d 0cf8 083e e22d 873d 2a67 19be
00000040: a750 96bc 3142 8e3c ddea ba3d fdd6 093e
00000050: c351 f6bc eecd 093e 8042 463d 5c94 8cbc
00000060: 662a eebc 0a1f 463d c3c2 ea3d 1ec6 a93d
00000070: 8867 02be 9e89 90bd ebf9 febd d601 8abd
00000080: 4bcd c5bd b12e 18be 5c28 003e bf5c b73c
00000090: 3985 293c abbd 6cbd 781d c3bc e603 82bd
000000a0: 1aea dc3d e460 cebd 2b79 e53d 397b 4dbc
000000b0: 4ff3 a6bd dc4a 99bd 83f1 9c3d 57ee 39bd
000000c0: 9b5f 073d 7bcd 87bd 119f a5bd 2fd1 9abd
000000d0: 2053 0dbd fa79 f13d 60dc 08be 0dab 49be
000000e0: c58b 213d 4323 873d 663e a7bc accb b9bb
000000f0: 0677 093e 8567 f7bd e02a f1bd 40d6 143e
00000100: 96ff 5fbd cf11 1ebe 9daa 7d3c e2cc dbbd
00000110: 36af d83d 850d 1b3d a310 bd3c b34d 8c3d
00000120: 76f2 ce3d 00d4 11be 23e7 cabd 9b43 0e3e
00000130: 2311 003e 5cf5 ad3d 7988 e43d b23e ce3d
00000140: 5a3f 703d 6c2b c0bc ccf3 283b efd1 c0bd
00000150: 3ef7 31bd b895 3dbd ee04 cdbc 147a 8d3b
00000160: 46e1 9c3c 2df6 ca3d 10c3 2d3b a8fe 433e
00000170: c5aa 6dbd d48b 183e 35a4 7abd d853 f93c
00000180: 7fe6 a33c 0cd8 083e 8f0e 973d 81ac 0b3e
00000190: f646 983d b751 45bd a678 ad3c 66de 0c3c
000001a0: 177b d03d 1d71 e3bc 326d 98bd 0726 803c
000001b0: 834f 1e3c 89a1 24bd f098 d73d 1430 a0bd
000001c0: 3572 90bb af84 8cbc 8be3 063c 28e5 ecbc
000001d0: b46b 35bd 36c1 513d e86a 16bc 2947 e33d
000001e0: 7d4c c1bd f6ec 7fba a7af 013c d0d2 943d
000001f0: f5b6 f5bd 84ed 48be c028 06be 50fb ce3d
00000200: 129c 493c 2721 a93d d2aa e03d f57e 8b3d
00000210: 3ad4 9dbb d05c 213d 9e45 00be 6f09 85bc
00000220: 0942 febd d6ca 843d 4f80 c93d d989 f83d
00000230: 4593 87bd 52ae 33be 16ca a7bd bf92 23bd
00000240: f6ff 25bd 643d f33a 7833 533e 7a5b c63c
00000250: 3b80 6c3d 7f09 65bd 51ef 04bc ec65 ccbd
00000260: fdc5 09be 401f 0f3e d67b f93d 2d78 b0bc
00000270: 869a 483d 91e9 c5bd 4741 143d 66dd 97bd
00000280: cff1 003e ef97 69bd 43ce bc3d c21b 513d
00000290: c68c 273e 6558 aabd b55f b23d 5d69 093d
000002a0: 79c8 52bd 8f79 b53d 05a6 a23d bc9e 323e
000002b0: 71f1 693d 755b c0bd 085d 533d 4677 febc
000002c0: f7b4 62bd 5319 0dbe 41e9 1f3d 891d 75be
000002d0: 7bef 063d 253f 273d 66cc cfbc 2440 e2bc
000002e0: e4a5 523c 821d 113d f2f1 983d 216d 1c3e
000002f0: ac1c 293e 1c72 ec3d ecaa 0b3e 8647 10bb
00000300: 5e61 a9bd 5381 b6bd 6b17 fa3d a1eb 5abd
00000310: db71 143e 6069 77bd 39d7 123e ede7 c8bd
00000320: 8bba 9a3d ce44 a4bd 85b7 a2bd 64f1 0fbe
00000330: 8da3 2c3d 5a02 d93d 5af1 59be 961b 5d3d
00000340: 0104 183d 227f 4cbd 83e4 1f3d 67ab 173d
00000350: 69a1 ea3d 8616 29bd 77bb 35bc cc14 b8bc
00000360: b59d 64bd 5ae3 513e 6c05 093e 6d73 13bd
00000370: fbc3 c13d e821 1dbe acf1 6b3d d30e 953d
00000380: c1c2 89bd 2546 24be 0697 0f3e 8362 f63c
00000390: 395d 8fbd 3856 7f3d 2ac8 233a 1c93 943d
000003a0: c7f6 9abd 7441 b4b9 f3f8 e9bc 054e 963d
000003b0: aea2 52bd 4d7c fdbd 9fdd afbd 7230 d3bd
000003c0: 63b4 d93d 4103 453e 1555 d43d f579 0f3e
000003d0: 955f 95bd af8a 81bd 9139 86bd dafc 9e3d
000003e0: 6c1d 5b3e e838 713e fa6a babd e784 09bc
000003f0: 7a77 29be a868 2e3e 1f5c fdbd 3629 11be

onnx::LSTM_102 f4 [1, 256, 64]
0.12687556 0.08263197 0.00865202 0.24499564 -0.111627355 -0.18067253 0.10083109 -0.13231808
0.09487775 0.16898803 -0.12609048 -0.27358475 0.23900093 -0.14802319 -0.22320965 0.2092507
0.10422537 0.23428817 0.14615811 -0.17089128 -0.061354112 -0.1735754 -0.12609981 0.044964593
-0.11404549 0.23356295 0.049375556 0.18141186 0.047194626 -0.013205493 0.0043792347 0.1624316
-0.0067863227 -0.17644155 0.02335756 -0.08486265 0.19148536 0.03646165 -0.016387168 -0.17624892
-0.14338847 0.08313171 -0.057851683 0.15929063 0.17529419 -0.12115183 0.17814721 -0.08452327
0.06957151 0.12917732 0.18963943 -0.11373917 0.2823292 0.08335567 0.12414641 -0.07852782
-0.01349967 -0.08661557 0.06522868 0.17982358 -0.13238937 -0.15011942 0.2251107 -0.17745517
-0.014988094 0.19558702 0.103539735 0.0083825635 0.17708264 -0.07833631 -0.22090432 -0.022022953
-0.30245057 0.10083917 0.0818702 0.07677466 0.18380268 0.17291164 -0.12074788 0.22080575
0.11559239 0.011905715 0.14126787 0.061121028 0.005907774 0.09385247 -0.009676089 0.09163876
0.23370028 0.2535327 -0.195519 0.09645864 0.078298405 0.07178854 -0.07460417 0.008331692
-0.1847337 0.164439 0.069858514 -0.053625163 -0.2599376 0.130433 0.109176464 -0.03612731
0.014023034 -0.12596013 -0.02047735 0.13307688 0.10567642 -0.023330832 -0.039413735 -0.2502646
-0.20345698 0.19356757 0.029852223 0.03405619 -0.13576116 -0.038907964 -0.13643771 -0.20351079
0.12112965 0.20238547 -0.07462998 0.093017876 0.09450866 0.15492511 0.22418864 0.12270624
-0.0013375031 -0.22596663 0.00043565343 0.13809657 0.12279578 -0.20388417 0.009274759 -0.14861454
0.21828625 -0.04638285 -0.11949338 0.13036226 -0.16190985 -0.1374104 -0.12246819 0.20628022
0.16897848 0.1265861 -0.15017264 -0.0104079945 0.09629498 -0.17211775 0.15132175 0.038420316
-0.15607765 0.14224055 -0.118179016 0.20728002 -0.08387268 -0.12502693 -0.15810022 0.004564126
-0.17386436 -0.05864782 0.075044 0.21659595 0.04480917 -0.16957189 -0.041922264 -0.04277119
-0.21605101 -0.012201763 0.23462228 -0.13207783 0.021138115 0.22808504 -0.13471791 0.110019505
0.02390614 -0.1406127 -0.03217153 0.009378073 0.0972661 -0.10861689 -0.10783221 -0.1287975
0.081938125 0.02008129 -0.016050817 0.14122202 -0.14833687 -0.062018815 -0.1101919 0.14817148
0.10254472 -0.063681476 0.18536955 0.18790336 -0.1088574 -0.0567595 -0.030448861 -0.11482733
-0.009736331 -0.034574296 -0.08604334 -0.14846765 0.13122223 0.05108431 -0.08200951 -0.008525917
-0.19497603 0.04866179 0.19506642 0.03183076 -0.02791326 -0.05529051 -0.1801614 -0.06891785
0.05813761 0.090979956 0.15622357 -0.21214055 0.08950508 0.04102149 0.13039371 -0.14691672
-0.050812367 -0.112805866 0.0061757243 -0.0764666 0.18035904 0.0254822 0.04912812 0.016074028
0.08657069 0.06657491 -0.16537073 0.1854874 0.09263077 -0.20812768 -0.18696672 0.07728943
0.052823924 0.17034705 -0.109028496 0.058009047 0.13121194 -0.16334146 0.017863045 0.14659353
0.07552532 0.20443505 -0.12170145 0.12260115 -0.041739427 0.107972346 -0.15170604 0.09338637
00000000: abeb 013e f33a a93d 34c1 0d3c 23e0 7a3e
00000010: e29c e4bd 3802 39be 8880 ce3d 647e 07be
00000020: 444f c23d 330b 2d3e dd1d 01be 4d13 8cbe
00000030: a9bc 743e 6493 17be 1291 64be d145 563e
00000040: 1c74 d53d 3de9 6f3e 79aa 153e 20fe 2ebe
00000050: 734e 7bbd c0bd 31be 4f20 01be cb2c 383d
00000060: af90 e9bd 202b 6f3e 063e 4a3d 08c4 393e
00000070: 274f 413d da5b 58bc af7f 8f3b 7854 263e
00000080: cd5f debb 18ad 34be 5b58 bf3c 78cc adbd
00000090: bd14 443e d058 153d 623e 86bc 997a 34be
000000a0: 6dd4 12be f540 aa3d e3f5 6cbd 151d 233e
000000b0: 5280 333e 731e f8bd 396c 363e 891a adbd
000000c0: 827b 8e3d 0f47 043e d730 423e 15f0 e8bd
000000d0: 748d 903e 61b6 aa3d 7940 fe3d 32d3 a0bd
000000e0: b82d 5dbc 8163 b1bd 9d96 853d ac23 383e
000000f0: 1491 07be e8b8 19be 6b83 663e cfb6 35be
00000100: 9f90 75bc f747 483e a40c d43d 0557 093c
00000110: 2755 353e ca6e a0bd be34 62be 7b69 b4bc
00000120: cdda 9abe c484 ce3d 90ab a73d 083c 9d3d
00000130: c536 3c3e c00f 313e aa4a f7bd e71a 623e
00000140: b4bb ec3d 3010 433c 86a8 103e 0b5a 7a3d
00000150: 0096 c13b b935 c03d 7588 1ebc 1aad bb3d
00000160: 204f 6f3e 0acf 813e 2236 48be 1c8c c53d
00000170: ea5a a03d df05 933d 12ca 98bd a681 083c
00000180: d52a 3dbe b262 283e fb11 8f3d 0fa6 5bbd
00000190: 8b16 85be 3a90 053e e997 df3d 3bfa 13bd
000001a0: dec0 653c b1fb 00be 1ec0 a7bc 4e45 083e
000001b0: e16c d83d 4d20 bfbc 4c70 21bd af22 80be
000001c0: 0757 50be 9436 463e a68c f43c 817e 0b3d
000001d0: f904 0bbe f55d 1fbd 54b6 0bbe 2265 50be
000001e0: d212 f83d 233e 4f3e 9ad7 98bd 2880 be3d
000001f0: c28d c13d b0a4 1e3e b591 653e 694d fb3d
00000200: 284f afba cc63 67be 6a68 e439 3069 0d3e
00000210: 5b7c fb3d 03c7 50be 29f5 173c 692e 18be
00000220: 6e86 5f3e f1fb 3dbd f2b8 f4bd af7d 053e
00000230: b2cb 25be 50b5 0cbe 9ad0 fabd 1f3b 533e
00000240: b208 2d3e c99f 013e dbc6 19be 4b86 2abc
00000250: 4d36 c53d a33f 30be 17f4 1a3e 9f5e 1d3d
00000260: d2d2 1fbe 82a7 113e d707 f2bd 3741 543e
00000270: 71c5 abbd 0f07 00be 06e5 21be aa8e 953b
00000280: 8009 32be b238 70bd abb0 993d 54cb 5d3e
00000290: d289 373d 41a4 2dbe aeb6 2bbd d830 2fbd
000002a0: 7a3c 5dbe e7e9 47bc d340 703e 693f 07be
000002b0: d729 ad3c 208f 693e 7ef3 09be e851 e13d
000002c0: cfd6 c33c c7fc 0fbe 4bc6 03bd 7da6 193c
000002d0: 7333 c73d 8872 debd 22d7 dcbd 7ee3 03be
000002e0: 2dcf a73d 8481 a43c 017d 83bc 819c 103e
000002f0: 9fe5 17be 7107 7ebd 4aac e1bd 44ba 173e
00000300: f702 d23d 6f6b 82bd 84d1 3d3e bd69 403e
00000310: a1f0 debd a67c 68bd e46f f9bc 972a ebbd
00000320: 2285 1fbc c79d 0dbd 7e37 b0bd e707 18be
00000330: 1f5f 063e c83d 513d 9af4 a7bd 4ab0 0bbc
00000340: cca7 47be 9651 473d 7ebf 473e f960 023d
00000350: 59aa e4bc 4d78 62bd 3b7c 38be cd24 8dbd
00000360: b421 6e3d b353 ba3d 12f9 1f3e 5f3b 59be
00000370: 704e b73d 2606 283d ee85 053e 5671 16be
00000380: a120 50bd c306 e7bd bb5d ca3b 859a 9cbd
00000390: 0ab0 383e 0cc0 d03c 913a 493d aead 833c
000003a0: f94b b13d 6d58 883d f256 29be 69f0 3d3e
000003b0: 33b5 bd3d 6c1f 55be 3474 3fbe ec49 9e3d
000003c0: e65d 583d 756f 2e3e 554a dfbd e59a 6d3d
000003d0: 6c5c 063e fc42 27be 8555 923c 9d1c 163e
000003e0: 05ad 9a3d 6c57 513e 9c3e f9bd 5016 fb3d
000003f0: f6f6 2abd 9b20 dd3d d458 1bbe 5a41 bf3d

onnx::LSTM_103 f4 [1, 512]
0.061139263 0.031870656 0.035293162 0.014094568 -0.039229054 0.05621419 0.029848898 0.050103344
0.0029012011 0.062242907 0.028992677 0.011751712 -0.0144459205 0.021857897 0.011662143 0.018232765
-0.0130905155 -0.003653052 -0.007989829 0.0013779748 -0.0037398909 -0.0794282 0.06506436 0.051023364
0.0032053825 0.0598701 0.029945698 -0.012062821 0.01572831 0.016028106 0.015078465 -0.015019167
0.024134202 0.022589287 -0.014932417 0.027309442 -0.023526847 0.008955465 -0.009534195 0.0022095612
0.068689875 0.013511139 0.033661854 0.016418891 0.0072189164 0.011257107 0.0047906972 0.004313414
0.061335217 0.022142867 -0.03270999 0.00029606957 0.06804518 0.0025683185 -0.0075082323 0.0065147444
0.027286783 0.040998958 0.022167526 0.06724715 0.031955346 -0.038168862 0.037544083 0.028761324
0.03669653 0.045137987 0.020899652 0.015171376 0.024335187 0.08367143 0.014108445 -0.026336003
0.06118607 0.024414675 -0.02825916 0.05757062 0.009522595 -0.03309464 0.017321019 0.06686151
0.0068169967 0.04411038 0.024746165 0.0008263733 0.002838315 0.00035754585 0.03135386 0.08435646
-0.063646734 0.06137458 0.012374968 0.052738223 0.02256337 0.03824837 0.052691616 0.026499478
0.07812468 0.017542848 0.024689626 0.021628292 -0.00642293 0.052428838 0.040485203 0.015045736
-0.041659273 -0.061139777 -0.039264552 -0.05031183 -0.028735865 0.059348598 -0.066647574 -0.027383028
0.008812867 0.019622564 0.030969528 0.0020020932 0.011756435 0.010819313 0.057354294 0.0029858386
-0.047329362 0.015993873 -0.036499836 0.056236763 -0.0017411811 -0.039419897 0.05576369 -0.06213626
0.9987879 0.9897233 1.0260067 1.007955 1.0422331 1.0484712 0.99753356 0.9823948
0.9774264 0.99544847 1.0392221 1.0451111 1.0232826 1.0296528 0.98101854 1.0467981
1.0501183 1.0105629 0.9673099 0.9872607 1.0161135 1.0316117 1.0449148 1.002781
0.9975225 1.0588379 1.021177 1.067312 0.9299774 1.0427921 1.039493 0.99437726
0.9815764 1.0139539 1.0445675 0.8938622 0.9931087 1.0088495 0.99657166 1.0269531
1.0180753 0.9623424 1.0199598 1.0160699 1.0172024 0.9823439 0.99332374 1.0158496
0.9932059 1.0407869 1.0499591 0.9760089 0.9888685 1.0226654 0.9691483 0.9042704
1.0213736 1.0087026 1.0010242 0.9873117 1.0153023 0.9681197 1.0476571 1.0047373
-0.025895566 -0.02173677 0.01952393 0.018329678 0.01338207 -0.02719453 -0.013431105 0.012768738
0.016094457 0.016329806 0.008692824 -0.02241283 0.016876759 -0.0086879935 0.024779731 0.016487293
-0.028541649 0.015648723 0.014208315 -0.0015226258 -0.0013103092 0.034906458 0.037040204 -0.021159334
0.0172593 0.024392499 -0.05326912 0.02859527 0.047672544 0.016559621 0.038977504 0.03178248
-0.0059201736 0.029288875 0.036965966 -0.027616506 -0.0004244765 -0.013504099 -0.030138655 0.0025352351
0.013958769 -0.023139305 0.015558476 0.020167539 0.026177613 -0.082272634 -0.03628332 0.0053470246
-0.037519455 0.032532897 -0.007760218 -0.0038801562 0.06367338 -0.011126965 -0.013474762 0.012546564
-0.018543996 0.017012846 0.0642215 -0.015890475 0.0009020704 -0.0075144633 -0.0072175153 0.011443785
00000000: 2a6d 7a3d ce8a 023d 908f 103d e7ec 663c
00000010: a5ae 20bd da40 663d ad85 f43c 2a39 4d3d
00000020: 1422 3e3b 6bf2 7e3d 0d82 ed3c 418a 403c
00000030: 95ae 6cbc 550f b33c 9312 3f3c e15c 953c
00000040: 9a79 56bc 0b68 6fbb c6e7 02bc 299d b43a
00000050: f518 75bb 41ab a2bd 7740 853d e0fd 503d
00000060: 6511 523b 5a3a 753d ae50 f53c 23a3 45bc
00000070: a8d8 803c 604d 833c ab0b 773c f412 76bc
00000080: 17b5 c53c 2b0d b93c 19a7 74bc 0db8 df3c
00000090: 60bb c0bc f1b9 123c 5035 1cbc 49ce 103b
000000a0: 47ad 8c3d d35d 5d3c 03e1 093d e980 863c
000000b0: a98c ec3b bb6f 383c 48fb 9c3b 8a57 8d3b
000000c0: a33a 7b3d f564 b53c e9fa 05bd c939 9b39
000000d0: 455b 8b3d 3c51 283b 9e07 f6bb a379 d53b
000000e0: 8888 df3c 86ee 273d ac98 b53c e0b8 893d
000000f0: 9ce3 023d f456 1cbd d3c7 193d de9c eb3c
00000100: 1a4f 163d 9ce2 383d bf35 ab3c 5d91 783c
00000110: 965a c73c ed5b ab3d 1b27 673c 9abe d7bc
00000120: 3f9e 7a3d 4901 c83c c17f e7bc 2ccf 6b3d
00000130: a904 1c3c 3f8e 07bd cfe4 8d3c b0ee 883d
00000140: 1d61 df3b 16ad 343d 78b8 ca3c f9a0 583a
00000150: 0603 3a3b fe74 bb39 e86c 003d 14c3 ac3d
00000160: 3859 82bd e963 7b3d 61c0 4a3c 0904 583d
00000170: d1d6 b83c 53aa 1c3d 2ad3 573d 6f15 d93c
00000180: d5ff 9f3d 05b6 8f3c e641 ca3c d12d b13c
00000190: 7177 d2bb 9fbf 563d d0d3 253d 6482 763c
000001a0: eaa2 2abd b46d 7abd ded3 20bd c713 4ebd
000001b0: 7a67 ebbc 8417 733d 867e 88bd 5f52 e0bc
000001c0: d863 103c 80bf a03c cfb3 fd3c 8d35 033b
000001d0: 109e 403c 7d43 313c 56ec 6a3d 0fae 433b
000001e0: 6fdc 41bd 9505 833c da80 15bd 8558 663d
000001f0: 5838 e4ba c276 21bd 7868 643d 9782 7ebd
00000200: 90b0 7f3f 825e 7d3f 3054 833f ab04 813f
00000210: e567 853f 4e34 863f 5c5e 7f3f 3a7e 7b3f
00000220: 9e38 7a3f b6d5 7e3f 3b05 853f 33c6 853f
00000230: edfa 823f aacb 833f 0824 7b3f 7bfd 853f
00000240: 476a 863f 205a 813f 9fa1 773f 1ebd 7c3f
00000250: 0210 823f da0b 843f c5bf 853f 215b 803f
00000260: a25d 7f3f 0088 873f eeb5 823f ae9d 883f
00000270: 0013 6e3f 367a 853f 1b0e 853f 828f 7e3f
00000280: 9748 7b3f 3ec9 813f 63b4 853f 27d4 643f
00000290: 5f3c 7e3f fb21 813f 521f 7f3f 3373 833f
000002a0: 4b50 823f 125c 763f 0b8e 823f 940e 823f
000002b0: b033 823f e47a 7b3f 774a 7e3f 5c07 823f
000002c0: be42 7e3f 8138 853f 0f65 863f b8db 793f
000002d0: 7c26 7d3f b3e6 823f 1a1a 783f 447e 673f
000002e0: 5fbc 823f 2b1d 813f 9021 803f 76c0 7c3f
000002f0: 6df5 813f b1d6 773f a119 863f 3b9b 803f
00000300: f022 d4bc 5011 b2bc a6f0 9f3c 1f28 963c
00000310: 7840 5b3c 10c7 debc 230e 5cbc f833 513c
00000320: 86d8 833c 16c6 853c 596c 0e3c 1c9b b7bc
00000330: 2141 8a3c 1658 0ebc ddfe ca3c 5c10 873c
00000340: 2dd0 e9bc c031 803c fec9 683c d892 c7ba
00000350: aebe abba 13fa 0e3d 78b7 173d 5756 adbc
00000360: 6063 8d3c c7d2 c73c b930 5abd a140 ea3c
00000370: 4944 433d 0ba8 873c e0a6 1f3d 592e 023d
00000380: 04fe c1bb 39ef ef3c a069 173d 033c e2bc
00000390: 458c deb9 4c40 5dbc 57e5 f6bc 3026 263b
000003a0: 52b3 643c a48e bdbc fae8 7e3c 6536 a53c
000003b0: 6f72 d63c 8e7e a8bd d29d 14bd 1836 af3b
000003c0: 00ae 19bd 3741 053d 6d49 febb 384a 7ebb
000003d0: 3067 823d e04d 36bc 40c5 5cbc 1b90 4d3c
000003e0: 94e9 97bc 865e 8b3c 9086 833d be2c 82bc
000003f0: eb78 6c3a e33b f6bb e880 ecbb b77e 3b3c
