code/selfparking/mla/results/test_12/Car.onnx (onnx, 692944 bytes, 10 tensors)

network_body._body_endoder.seq_layers.0.weight f4 [256, 91]
000000 1f 6d 18 3e 59 e6 0c 3e 98 4e 0b 3c c7 9b 81 3b
       0.14885376 0.13759746 0.008502625 0.0039553377
000010 40 c0 4b 3d 5d 4d ed 3c 94 21 c0 3d 65 a3 95 3d
       0.04974389 0.028967554 0.093814045 0.07306556
000020 79 65 f7 3d 83 18 98 bd b0 d9 c9 3d ce d1 28 be
       0.12079901 -0.0742655 0.09855974 -0.16486284
000030 cd c8 92 3c b5 01 a4 bd dd 9c 2f be 24 98 38 3e
       0.017918015 -0.08008138 -0.17149682 0.18026787
000040 bc 66 13 bd 99 d7 3f be 9d 68 93 bd 68 4c 94 3c
       -0.035986647 -0.18734588 -0.07197688 0.01810284
000050 e8 51 ac bd a2 a0 86 3c 96 a0 c6 bc 89 59 a7 3d
       -0.0841406 0.016434018 -0.024246495 0.08171374
000060 23 6f ff bc 90 c8 7f 3d 77 d1 b8 3c 47 3e 66 3d
       -0.031180924 0.06244713 0.022560818 0.056211736
000070 cd 34 57 bd 11 69 c6 bd 4c b2 15 bd 78 8f 1e 3c
       -0.05254059 -0.096880086 -0.03654699 0.00967776
000080 8d 36 a9 bc 7b d2 42 be 9f 29 2f 3e a8 61 04 be
       -0.020655895 -0.19025604 0.17105721 -0.12927878
000090 2e c4 b2 bd 1f 25 6d bd 1b 28 ec bd 2b b6 ba ba
       -0.087288246 -0.05789673 -0.11531087 -0.0014244964
0000a0 93 d1 45 3e 40 ea c9 bd 6c 83 05 3e e1 7e 88 bd
       0.19318227 -0.09859133 0.13038415 -0.06664825
0000b0 81 19 d7 3d 1b e3 1b 3e 28 84 db 3c 22 bb d0 bd
       0.10502911 0.15223353 0.026796415 -0.10191943
0000c0 21 33 14 be ab 79 1d 3d 6e d5 14 bd c9 6e 9c bc
       -0.14472629 0.03844611 -0.036336355 -0.019095795
0000d0 ce c4 20 3e d3 65 8d 3d b5 fd ca b9 53 be 09 be
       0.15700075 0.06904187 -0.0003871747 -0.13451509
0000e0 e1 63 aa bd 2b 0a 2c bd 68 a0 29 3e cf f3 f0 bd
       -0.08319832 -0.042001884 0.16565096 -0.11765253
0000f0 5a 5b 98 bd b0 51 5b 3e 28 c4 14 be c2 e0 92 bd
       -0.07439299 0.2141788 -0.14527953 -0.071717754
000100 12 f0 6b 3e 88 51 ab 3c 9a 01 9a 3c 14 c5 4b 3d
       0.23040798 0.0209129 0.018799592 0.049748495
000110 e2 7f a1 3c d0 9b e2 3c 04 2b 0d 3c 1f ab 63 bd
       0.0197143 0.027662188 0.008616213 -0.055583116
000120 83 0d cd bc 13 3d 93 3d d1 07 06 bd a1 2c 81 bd
       -0.025030857 0.07189383 -0.032722298 -0.063073404
000130 95 91 ae 3d ca c8 ef 3d 69 b2 09 3e 20 74 cb 3a
       0.08523861 0.11708219 0.13446964 0.0015522279
000140 ec 2c 0f 3d 6e f5 0a bd c4 4c 1a bd 8a 61 1f 3d
       0.03495495 -0.033925466 -0.037670866 0.03891138
000150 ec 92 0a 3c aa 79 3c be 37 8d 11 3e 27 a2 1b 3d
       0.0084578805 -0.18405786 0.14214025 0.037996437
000160 19 0d df 3d e3 77 68 bd ba 96 64 3e b6 7e 4f be
       0.1089117 -0.056754958 0.22323123 -0.2026318
000170 85 8a d4 bd 5d fe 07 3d 3a 45 4e 3b 2d 5a c9 3b
       -0.10377983 0.033201564 0.0031474368 0.006144783
000180 7c a0 e5 bd a0 61 6e 3e ef 28 03 bd ee de f4 bc
       -0.112122506 0.23279428 -0.03202146 -0.029891457
000190 51 35 2d be 74 04 31 bd 30 e6 38 bd 78 e3 7a 3e
       -0.1691487 -0.043217137 -0.0451414 0.24500835
0001a0 61 b9 ec 3d 6d e8 84 3e 1f 84 db bd 29 f9 de 3d
       0.11558796 0.25958577 -0.107185595 0.10887367
0001b0 e0 87 fd bd 8d 20 4b 3e af 8f ea bb 2b 23 01 be
       -0.12379432 0.19836636 -0.0071582417 -0.12611072
0001c0 68 9e 01 be 18 77 9f bd 14 b8 56 3d 7b c9 1c be
       -0.12658083 -0.07786387 0.052421644 -0.15311234
0001d0 a7 4a 59 3d 0d 36 e6 3d 15 a5 e5 bb b1 a8 d0 3c
       0.05304971 0.11240778 -0.0070082047 0.025471063
0001e0 f5 19 67 3d 89 ea 89 3d f6 d2 94 bc ba 01 84 be
       0.05642124 0.06734187 -0.018167 -0.25782567
0001f0 15 e4 12 3e 00 bb 0f be 1a 14 e1 3c 94 f1 52 3d
       0.14344819 -0.14036179 0.027475405 0.051499918
000200 cc 99 5f 3d 72 40 0a be 7d de c2 bb d9 15 ab 3d
       0.05459003 -0.13501146 -0.005946933 0.083537765
000210 1a a9 df bc e0 8e 0c bd 04 eb 0c 3e 53 c5 2a be
       -0.027302314 -0.034315944 0.13761526 -0.16676836
000220 53 54 d6 3d 36 09 a0 bc 6d c9 86 bd 0b e2 0e 3e
       0.10465302 -0.019535642 -0.06581388 0.13953416
000230 58 89 d1 3d 79 24 83 bb 2c b9 13 3e 96 02 8c bd
       0.10231274 -0.0040021506 0.14426106 -0.06836431
000240 6a fc 04 3b 70 d2 2b be 4f 19 a1 bd 21 15 0a 3a
       0.0020292052 -0.16779494 -0.07866155 0.00052674307
000250 3d db e8 bc 8a 95 6b 3d 21 c7 b8 3c 07 ca 16 3c
       -0.028424853 0.05751566 0.02255589 0.0092034405
000260 48 c3 32 bd 2a a9 ae 3b 0e eb be 3d c4 39 b2 bd
       -0.043643266 0.0053302245 0.09322177 -0.08702424
000270 73 dd 17 3d 35 7b 32 bd a5 92 0f 3e 68 9c 10 bc
       0.037076425 -0.04357453 0.14020784 -0.008826353
000280 ef f1 e7 bd 3b 2b bd bd ba cc de 3d 98 72 35 3d
       -0.11325442 -0.09236761 0.10878892 0.04429874
000290 03 2d 98 bd 9c 23 c4 bd da 83 c5 bd ec 23 9a bd
       -0.0743046 -0.095771044 -0.09644289 -0.07526383
0002a0 2a 91 9e bd 60 e4 31 be 0b 91 90 bd 48 3e d6 bd
       -0.077425316 -0.17372274 -0.07058915 -0.10461098
0002b0 83 56 78 3e ce 61 5b bd 7a cb 8e 3c 49 97 73 bd
       0.24251752 -0.05356007 0.01743101 -0.05947045
0002c0 6d 1f b2 3d 8a ae cf 3d 39 af 7b bd 77 9f fa 3d
       0.086974 0.101407126 -0.061446402 0.12237447
0002d0 da 25 b5 bd 87 90 bd bc 7c 65 55 3d fa 7d 48 3d
       -0.0884511 -0.023140205 0.052098736 0.048948266
0002e0 58 f4 1c 3d d1 4f 66 bd da ad bc 3c 73 c0 43 bc
       0.03831896 -0.056228463 0.023032118 -0.011947739
0002f0 aa 3b a4 3a 03 bb 7c 3e 70 5b 78 bd 90 c3 81 3c
       0.0012529988 0.24680714 -0.060634077 0.015840322
000300 a8 10 01 3e a6 04 b7 3d 0f b1 16 3c 7a 05 85 bd
       0.1260401 0.089364335 0.0091974875 -0.06495185
000310 4c b6 c2 3d 73 4c 17 3d 87 68 16 be ee fd d9 bd
       0.095074266 0.036938142 -0.14688312 -0.10644136
000320 32 60 da bb f9 9d 61 bd f1 13 0c be 88 da e1 bc
       -0.0066642994 -0.055082295 -0.13679482 -0.027570024
000330 3e 64 08 3e fb e3 82 bd 60 b5 36 bd ba d2 01 bd
       0.1331949 -0.0639114 -0.044606566 -0.031695105
000340 9d bc dd 3c 93 ab 04 3d 8b f6 3c bd b8 d5 b4 3c
       0.027067477 0.03239019 -0.04613356 0.022074565
000350 76 04 05 be a5 49 24 3d a6 3a 7f bd 22 39 94 bd
       -0.12989983 0.040109295 -0.06231179 -0.0723746
000360 cc 89 b7 3d f8 5a fc 3c 03 03 20 be e8 33 8b 3e
       0.089618295 0.030805096 -0.15626149 0.2718804
000370 a1 ac 02 be 66 9a 5f be 9e 7d 89 3e 96 fb ac bd
       -0.12761165 -0.21836242 0.2685365 -0.08446424
000380 01 c0 82 b8 03 47 59 3e 6a d2 5a bd 0a 3c 63 3e
       -6.2346466e-05 0.21218495 -0.053423323 0.22190872
000390 f4 b8 27 bd bf ef b2 3d 54 7b d3 3d 13 07 70 3d
       -0.04094787 0.08737134 0.10326257 0.058600497
0003a0 41 6e 3b bd bc 8e 4b 3d b8 0d 39 3c 7e 65 7b 3b
       -0.045759443 0.04969667 0.011294775 0.0038360055
0003b0 93 4b f3 bc 41 29 1f be d2 d5 08 3c b2 07 96 3d
       -0.029699123 -0.15543081 0.00835176 0.073256865
0003c0 3d 5c 37 3d a7 74 88 3c 23 63 8b 3d c2 0c 42 3d
       0.0447657 0.016657187 0.06806018 0.047375448
0003d0 ec 0b c7 3d c4 66 5d be 35 a8 a6 bd 73 1f 8d bd
       0.09719071 -0.21621233 -0.08137552 -0.06890764
0003e0 03 35 1c 3e 9f d4 e0 3d 6e c9 b8 3d dd 11 d8 bd
       0.15254597 0.10978054 0.09022795 -0.10550282
0003f0 1a 30 54 bd 86 69 8c 3d 69 7a 2b 3d dd 13 b2 bd
       -0.051803686 0.068560645 0.041864786 -0.08695195

network_body._body_endoder.seq_layers.0.bias f4 [256]
000000 43 91 85 ba c3 6e 6b 3b 3f 34 99 3a e0 fb 88 3b
       -0.0010190386 0.0035924173 0.0011688544 0.0041804165
000010 2e 7f 89 39 29 53 66 3b a1 f4 00 3a 44 b7 55 3a
       0.00026225433 0.0035144782 0.0004919265 0.0008152614
000020 a7 42 4f bb 73 f3 51 3b e8 91 b5 ba f9 bd 7a ba
       -0.0031625421 0.0032035976 -0.0013852688 -0.00095650513
000030 6c 96 58 b9 47 07 a8 39 20 ed 82 36 48 19 b0 3a
       -0.00020655402 0.0003204888 3.901907e-06 0.0013435269
000040 f6 40 41 3b d8 73 13 3a 01 29 35 3b 03 df ad 3a
       0.0029488183 0.0005624867 0.0027642848 0.0013265315
000050 ac fd 83 3b f3 fd 35 b9 b7 94 57 ba cc ff 78 ba
       0.004028043 -0.00017356109 -0.00082237594 -0.0009498566
000060 22 e8 2b bb ee bd a4 3a 49 1c aa 3a b6 a8 e9 39
       -0.0026230891 0.001256881 0.00129784 0.00044566923
000070 41 5e 97 bb d8 14 28 39 2a 6e 09 39 5a 42 b4 ba
       -0.0046193902 0.00016029493 0.00013106377 -0.0013752684
000080 a8 ae 9a 3a 52 9a 9a ba 7f 21 0b ba 2b 05 42 3b
       0.0011801319 -0.0011795259 -0.00053074205 0.002960513
000090 b6 5b f5 3a 0d b6 a4 3b 25 17 fe ba d4 ad d2 3a
       0.0018719349 0.005026585 -0.001938556 0.0016073533
0000a0 6e b2 8e 3a c7 b6 5e 3a fc 2f 53 ba 4a 97 22 3b
       0.0010886916 0.0008495864 -0.00080561615 0.0024809414
0000b0 98 af c0 39 2f de 4f 3a 5c 75 0b bb 66 54 27 ba
       0.0003675192 0.0007929531 -0.0021279668 -0.0006383121
0000c0 84 17 b4 ba 96 ed 72 3a f4 82 0f 3b eb 45 15 ba
       -0.0013739918 0.00092669704 0.0021898123 -0.00056943175
0000d0 ab bc 41 bb d5 59 37 3b cf 7e 10 3b 06 66 0d bb
       -0.0029561918 0.0027977128 0.002204824 -0.0021575703
0000e0 8e e3 c5 ba cd 2a a5 3a 02 fd 20 bb 7d 29 ba 3a
       -0.0015097724 0.0012601257 -0.0024564867 0.0014203038
0000f0 1a bb f7 b9 cc 98 01 3a 0f 09 57 3a 5f e8 f5 3a
       -0.00047250913 0.0004943728 0.0008202949 0.0018761269
000100 db 40 d3 3a 35 d6 fa 39 ea 8a 2f 3b 09 99 56 3b
       0.0016117351 0.00047843312 0.002678568 0.0032745025
000110 3c d4 b3 ba 87 d0 99 3b 9b 36 fa ba 37 58 d2 3a
       -0.0013719867 0.004694048 -0.001908976 0.0016048019
000120 1b f6 69 3a fd 64 8c 3a b0 16 8a 3b ee da 28 3b
       0.0008924917 0.0010711249 0.0042141303 0.0025765258
000130 b0 72 a9 ba 19 d9 35 b9 a8 f6 3d 3b 3c bd ff b9
       -0.0012927856 -0.0001734238 0.002898613 -0.0004877838
000140 d2 87 46 3a 24 fc 95 ba ca 1c 02 3b 45 cc d9 ba
       0.00075733394 -0.0011442942 0.0019853585 -0.0016616663
000150 dd 76 b1 39 5c bd 2e 3b 10 6d 90 ba 86 38 87 ba
       0.0003384863 0.002666316 -0.0011018831 -0.0010316528
000160 67 98 37 3a 8e a7 de ba 20 b6 44 bb 38 56 b7 39
       0.0007003606 -0.0016987191 -0.0030015782 0.00034968718
000170 cd 3a 9f 39 c2 e3 0b bb 8a d6 b9 39 41 6e 4c 3b
       0.00030370653 -0.002134547 0.00035445794 0.0031193646
000180 59 17 2a bb 61 c4 0e bb 90 8d 4e ba 8f 71 89 bb
       -0.0025953858 -0.0021784531 -0.0007879371 -0.0041944454
000190 52 0e 01 3b fa a9 49 ba 05 c6 aa ba a0 ca 64 b9
       0.0019692373 -0.000769287 -0.0013028985 -0.00021819258
0001a0 48 b0 9d ba 01 cb 26 3a 1a 58 c4 ba 82 c5 13 3b
       -0.0012030685 0.00063626474 -0.001497987 0.0022548144
0001b0 9b 13 76 ba e2 7c 86 ba 14 0c 56 3b 90 be 48 3b
       -0.0009387077 -0.0010260607 0.0032661008 0.0030631162
0001c0 5d db bb 3a 2a 51 1f 3b c2 51 4e 3a e3 0d 9b ba
       0.0014332343 0.0024309852 0.0007870459 -0.00118297
0001d0 75 fb 3f 3b df ca 8b 39 99 5c ba 3a 56 85 09 bb
       0.0029294167 0.00026663297 0.001421827 -0.0020984015
0001e0 cb 9d 43 bb f9 48 81 b9 e7 bc 31 bb c5 21 f4 3b
       -0.002984869 -0.00024659166 -0.0027120651 0.0074503147
0001f0 cb 61 d4 ba be 9c 51 39 17 45 31 38 8a 89 cc ba
       -0.0016203461 0.00019990184 4.2264433e-05 -0.0015604955
000200 5d 51 e4 3b 26 c3 c9 bb 49 8d 8a 3a 89 f0 a9 3b
       0.006967707 -0.0061572967 0.0010570671 0.0051861447
000210 d6 de c5 3a ed 93 85 3a 90 34 9d 3a 0f ca 27 ba
       0.0015096318 0.001019118 0.0011993814 -0.00064006535
000220 86 f5 5a ba d4 41 ca 3b e0 e2 51 3a cb 22 e1 3a
       -0.0008352626 0.006172398 0.00080065243 0.0017176507
000230 f6 29 14 39 a1 f3 08 bb 80 6a 1b 3b 84 6b 1c bb
       0.00014130012 -0.0020897167 0.0023714602 -0.0023867795
000240 2a 12 18 3b de 1f 83 3a b2 4b 65 3b 5f d6 45 3a
       0.0023204186 0.0010004004 0.0034987745 0.00075468974
000250 de 4b b5 3b ff 74 17 39 3c 8c a6 ba d5 d3 10 ba
       0.0055327257 0.00014444067 -0.0012706588 -0.00055247295
000260 6f 98 10 bb c8 c1 af bb 8f 88 24 3b 82 2e 19 3a
       -0.0022063514 -0.0053636767 0.002510581 0.0005843417
000270 47 5a fd b8 0e bd 2b 3b 33 05 ea 3a f4 f1 83 ba
       -0.000120807956 0.0026205215 0.0017854333 -0.0010066614
000280 56 69 34 ba ab 8c 6c bb b4 49 ca 3a 58 4d 36 3a
       -0.00068821514 -0.0036094587 0.0015433342 0.0006954274
000290 0d fd 73 ba 04 69 94 3a 99 6d 47 bb 68 92 1a 3b
       -0.0009307422 0.0011322801 -0.0030430316 0.00235858
0002a0 5d 5a 71 3b 9c f1 41 3a 39 a5 16 3a 25 43 28 bb
       0.0036827542 0.00073983683 0.0005746666 -0.0025674787
0002b0 d1 9e 14 bb 75 5e ba b9 81 e4 c1 3a 44 cf 20 3a
       -0.002267767 -0.0003554706 0.0014792831 0.00061344006
0002c0 60 6e 59 39 59 0e 89 3b b9 6d 36 3a 49 69 09 3b
       0.0002073585 0.0041826186 0.0006959099 0.0020967296
0002d0 67 e4 43 3a 2d 54 78 3a 89 72 43 3a b5 7b e4 3a
       0.0007472694 0.00094729924 0.0007455727 0.0017431887
0002e0 c1 6b e5 ba 9a 75 00 bb ec 4d 51 ba ae 98 02 3b
       -0.0017503427 -0.0019601346 -0.00079843285 0.001992743
0002f0 64 f1 99 b9 f5 f4 d7 3a b6 39 3b bb ba c9 25 3a
       -0.00029362284 0.0016476201 -0.0028568334 0.000632431
000300 2d c7 35 3b 71 a8 5b 3a e6 5a 69 3a 36 d6 36 3b
       0.0027737126 0.0008379287 0.00089017896 0.0027898676
000310 f8 85 6a b9 d7 4e 74 bb e2 fd 2b bb 8f ae fd ba
       -0.00022365886 -0.0037278438 -0.0026243855 -0.0019354391
000320 37 7e 02 3b b3 91 27 3a 50 36 c8 3a a0 4a f3 b9
       0.0019911656 0.00063922553 0.0015274975 -0.00046404172
000330 e6 39 a6 b8 98 3b a7 3a 68 76 b2 3a 8e c4 07 bb
       -7.926281e-05 0.0012758849 0.001361561 -0.002071652
000340 f8 d6 8d 3a b8 b0 c5 bb e6 5b 35 3a 5e a1 86 38
       0.0010821512 -0.0060330294 0.0006918296 6.419675e-05
000350 c4 56 a6 39 82 5c 2f b8 71 f6 9d 39 aa 5e a8 3a
       0.00031726633 -4.1809406e-05 0.00030128987 0.0012845595
000360 38 f4 a6 ba 66 04 a1 3b ab b7 fa 3a 62 fd 94 bb
       -0.0012737578 0.0049138544 0.0019128224 -0.004546807
000370 32 32 42 3b c1 45 c6 3a 69 ea a2 39 bf 48 bf 38
       0.002963197 0.001512699 0.00031073697 9.12114e-05
000380 b9 d5 5a bb 7d b9 80 3a 8c 6b 87 bb 8e e8 1a 3b
       -0.0033391549 0.0009820905 -0.0041326936 0.0023637149
000390 30 e9 d5 3a 73 76 dd ba b4 cb 4d 3a 18 e9 6a b9
       0.0016320106 -0.0016896263 0.00078504835 -0.00022402813
0003a0 ee 05 d0 b9 30 87 e1 ba e0 2a bf 38 f1 37 a2 39
       -0.0003967727 -0.0017206427 9.115576e-05 0.00030940727
0003b0 15 d1 19 3b 67 f8 16 bb 45 4c f5 ba 06 ce 1d 3a
       0.002347057 -0.0023036243 -0.0018714747 0.00060197746
0003c0 cf 95 cc 3a 76 d4 9c 3a 7b b1 bc ba 9b 20 e8 ba
       0.0015608611 0.0011965174 -0.0014396155 -0.0017709912
0003d0 0f 76 10 bb 0b 3e ef 3a 04 9f c6 3b 22 40 4b 3a
       -0.0022043025 0.0018252743 0.0060614366 0.0007753392
0003e0 03 4d 76 3b 66 79 78 ba 54 00 13 bb ac 2a ad 38
       0.0037582524 -0.0009478539 -0.0022430615 8.257231e-05
0003f0 e9 42 91 3a 9c 3f 6e 3a 3b a4 b3 3a 61 c1 7b 3a
       0.0011082563 0.0009088458 0.0013705561 0.0009603706

network_body._body_endoder.seq_layers.2.weight f4 [256, 256]
000000 2a 5e 63 bd cf a6 0a bd 2d 28 95 3d 28 b2 5f 3b
       -0.055509724 -0.033850487 0.072830535 0.003413329
000010 d5 e9 15 3c 54 03 bb bd 5a de 36 bd 9f 88 24 3d
       0.009149988 -0.09131494 -0.044645645 0.040169355
000020 25 1e 6a 3a b6 6f ca bd f4 fb a4 bc 8e 2f c5 3c
       0.00089308835 -0.098845884 -0.020139672 0.024070527
000030 a7 80 31 bd 7b 57 03 bb 6d 49 38 3c 50 b8 1c 3d
       -0.043335583 -0.0020041156 0.011247975 0.03826171
000040 e7 11 b4 bc c6 9d f7 3c f1 86 82 3c 29 2e df bc
       -0.021981193 0.0302266 0.015933486 -0.02724369
000050 0c aa 9e 3d c3 60 71 bd 6b 62 fc 3d fe 9f 77 bd
       0.077472776 -0.05893017 0.12323459 -0.060455315
000060 91 62 a0 3c fb cc 80 bd af c7 e3 3c 01 de 83 bd
       0.01957825 -0.06289097 0.027805177 -0.06438828
000070 ae a5 11 3d 8d 6f ca 3d 77 49 4d 3c af 6b 2f 3d
       0.035558395 0.09884558 0.012529722 0.042827304
000080 1e 7c 4f bb 1f 7c 63 bd 2a c0 b9 bb 3a e7 eb 3d
       -0.0031659673 -0.055538293 -0.0056686597 0.11518712
000090 6e f6 23 3d ba cc 4d 3d 63 67 9e 3d 8e a0 9b 3d
       0.040029936 0.05024407 0.07734563 0.07598983
0000a0 52 a5 cd bc 97 41 b5 3d b8 62 d2 3c 88 91 89 3d
       -0.025103245 0.08850401 0.025681838 0.06717211
0000b0 9c 33 08 be f8 7e ab 3b 6a c1 1b 3d 57 ae dc bd
       -0.13300937 0.0052336417 0.03802625 -0.1077544
0000c0 0a 79 d0 3c 5a 39 24 3d f6 a6 54 bd 47 0f 3e bc
       0.02544834 0.040093757 -0.05191704 -0.011600322
0000d0 7e 00 0c 3d e1 b6 df bc 0a 5c 62 3d 6b e8 a2 3b
       0.034180157 -0.027308883 0.055263557 0.004971554
0000e0 00 95 8e bc d3 9b 3a 3d e1 00 e1 3c b5 78 61 bd
       -0.017405033 0.04555876 0.02746624 -0.055046756
0000f0 89 ae b3 3c 54 43 3a bd 03 7d d4 bd f6 b8 db 3c
       0.02193381 -0.045474365 -0.103754066 0.026821595
000100 3b 62 1b bd 06 3d 84 3c 19 92 0f bd 4f c9 14 be
       -0.037935477 0.01614238 -0.03505144 -0.14529918
000110 94 12 5a bd 68 c5 04 bc 8a f1 60 bc a3 b7 05 bd
       -0.053240374 -0.008103706 -0.013729462 -0.032645833
000120 f3 12 18 be 7b 2b c4 bb ae c9 af 3d 0f ca f7 bd
       -0.14850979 -0.0059866286 0.08583389 -0.120990865
000130 84 96 1d bd 08 43 ce 3d f0 fb 01 bd da d2 26 3d
       -0.03847362 0.10071379 -0.031734407 0.040728427
000140 f1 57 25 3c 2b 02 26 bc 77 f0 54 bb 0e 9f d4 bd
       0.010091768 -0.010132353 -0.003249196 -0.103819
000150 92 2f b5 bd 08 a5 6f 3c ac 29 eb bb 26 16 a5 3c
       -0.08846964 0.014626749 -0.0071765985 0.020152163
000160 cd 16 da bd 43 92 6f 3c 1a d5 a1 3d 5a c1 2d bb
       -0.1064888 0.014622274 0.07901974 -0.0026512952
000170 fa 86 04 3e 9d 35 04 bd 04 d9 b4 bd ee 7b 3d bd
       0.12942114 -0.032277692 -0.08830455 -0.046260767
000180 8e f5 1d bc 74 96 30 bc 42 52 1e be 12 86 1b 3e
       -0.009641064 -0.010778058 -0.15461066 0.15187863
000190 5e 8b 4c bc 85 d9 f6 3b 07 09 18 be 45 3f 2b 3d
       -0.0124844 0.0075332546 -0.14847194 0.041808385
0001a0 32 6c 82 3c 2a c3 ed 3c c7 60 d6 bc d8 62 d9 3d
       0.015920732 0.029023726 -0.026169194 0.10614556
0001b0 9d d4 26 3d 17 ab 34 3d 84 a7 19 bc cb 1a 4e 3d
       0.040730108 0.044108476 -0.009378318 0.05031852
0001c0 77 b9 30 bd a9 df cf bd e4 eb 1f bd 7f ec 52 3d
       -0.043145623 -0.10150082 -0.039043322 0.05149507
0001d0 a1 9f 48 bd 92 ca c3 3d cd 07 b7 bc 23 6f b2 3d
       -0.04898036 0.095601216 -0.022342587 0.08712604
0001e0 d7 71 8b bd ac 13 4c 3d a2 76 c3 bd d8 ec 44 bc
       -0.068088226 0.049823448 -0.09544112 -0.012019359
0001f0 5b f6 81 3b 20 2e 73 3d a0 0c 2f bd 46 03 9c 3c
       0.0039661354 0.05937016 -0.04273665 0.01904453
000200 83 0c 47 bd f9 47 39 bd 4a 32 e2 bd 40 e0 02 3d
       -0.048595916 -0.045234654 -0.11044748 0.031952143
000210 89 d2 22 3d 77 04 ae 3d 77 33 76 3b b2 9f fc 3c
       0.039751563 0.08496945 0.0037567297 0.030837867
000220 1c 94 26 bd 3c d7 28 3d cd 97 79 3c 11 e8 f6 bd
       -0.04066859 0.04122089 0.015233946 -0.12055982
000230 ad 71 89 3d 57 1e 0b bb 8c 1b 94 bd 15 01 e5 3a
       0.06711135 -0.00212278 -0.07231817 0.0017471636
000240 3c dc 1b bd a6 85 82 3d 18 c3 ce bb 67 a1 08 3d
       -0.03805183 0.06373148 -0.006309878 0.03335705
000250 3d c1 49 3c 27 3d 98 bd 8c 75 bd bd cd bb 64 bd
       0.012314138 -0.07433539 -0.09250936 -0.055843163
000260 f2 76 14 bd 5f 23 92 bd b4 19 51 3d 36 ea 97 bd
       -0.036246248 -0.07135653 0.051049903 -0.07417719
000270 2a 32 0d 3d b1 f8 15 3e 32 28 b2 bd 96 dc 9f 3c
       0.03447167 0.1464565 -0.08699073 0.019514363
000280 2b 41 d4 bc 19 3f 7d 3d 57 c2 4e bc d3 da 5a 3d
       -0.02590998 0.061827753 -0.012619576 0.053431343
000290 df 21 d3 bd 34 41 7d bc 55 63 47 3d 59 a2 99 3c
       -0.10309195 -0.01545744 0.048678715 0.018754171
0002a0 41 1a d3 3d 7c 84 8a 3c ab 3d a9 3c 7f 34 95 3c
       0.10307742 0.016908877 0.020659288 0.018213509
0002b0 2e cd c2 3d 8d 5e 82 3d e5 81 0f 3b ca f9 2c 3d
       0.09511791 0.063656904 0.0021897492 0.042230405
0002c0 26 31 5d bd d7 62 bb bd 51 0a cd 3c cf 7a bb bd
       -0.05400195 -0.091497116 0.025029333 -0.09154283
0002d0 dd 86 fa 3d fd 78 1d 3e 26 d8 e5 bd db a0 6a 3d
       0.122327544 0.15378185 -0.11222868 0.05728231
0002e0 91 a0 79 bd 02 ea 2e 3d 96 88 77 bc 44 53 b9 3a
       -0.060944144 0.042703636 -0.015108248 0.0014139195
0002f0 5b c8 1d bd f2 a5 f8 bc fa f1 07 3e 44 ba 50 3c
       -0.038521152 -0.030352566 0.132759 0.012739722
000300 e9 b0 a0 3b be 8b 20 3d 53 b2 cd bc a6 8c 90 3d
       0.004903902 0.03919577 -0.025109446 0.070580766
000310 5d 04 d6 3d 43 ed 63 bc 4a 69 f4 bc da 8a a6 bd
       0.10450051 -0.013911548 -0.029835362 -0.081319526
000320 b7 62 89 3d e5 55 dd bc 1b cb ff bc 77 29 5d 3d
       0.067082815 -0.027018497 -0.031224778 0.053994622
000330 0d 31 c1 b8 ff 98 08 3d 25 0b 20 be 96 26 c3 bd
       -9.2120936e-05 0.033349033 -0.15629251 -0.09528844
000340 a2 36 bf bc 6e 71 ad bd ad af 48 3d 07 ec 98 3d
       -0.02334148 -0.084689006 0.048995662 0.07466894
000350 8e bc 6b bd e4 53 1d 3c a3 72 ae bd a3 3a 57 bc
       -0.057552867 0.009602521 -0.08517959 -0.013136539
000360 11 1a b3 3d f5 ec 09 bc ad b5 73 bd 60 bb 9e bd
       0.08745206 -0.008418311 -0.05949943 -0.07750583
000370 9d 4e 18 3c eb a5 9b 3d 35 35 d1 3d 30 0e e2 3d
       0.009296087 0.07600006 0.102152266 0.11037862
000380 30 9f 2e bd 3f 11 82 3d 9f dc e0 bb 55 be 6f bd
       -0.04263228 0.06350946 -0.0068622376 -0.058531124
000390 1d b9 a4 3d eb 26 b7 bd c2 68 00 3d 4f f9 27 3d
       0.0804312 -0.0894297 0.031349905 0.041009244
0003a0 46 b6 88 3a b5 04 b4 bc d3 4c 38 3b 99 08 91 bd
       0.0010430298 -0.0219749 0.0028121963 -0.07081718
0003b0 66 63 2f bd ce c6 c1 bc 59 a8 83 bd 7e 58 38 3d
       -0.042819403 -0.023654368 -0.06428594 0.045006268
0003c0 fc fd cd bd 25 ca cc 3d 63 e4 7f 3d 1b c2 54 3d
       -0.10058209 0.099994935 0.062473666 0.051942926
0003d0 7c 89 51 bd 6f e5 80 3d 7f a3 3f 3c b7 80 e9 ba
       -0.051156506 0.06293761 0.011696695 -0.0017814849
0003e0 44 8a e4 3c ff 89 33 bc fc b3 07 3e 4a fb ce bc
       0.027897961 -0.010958194 0.13252252 -0.025266308
0003f0 74 d9 88 3d e5 34 4a 3d e9 e0 a7 bd a3 e5 e8 bd
       0.06682101 0.04936685 -0.08197195 -0.11371925

network_body._body_endoder.seq_layers.2.bias f4 [256]
000000 f4 5e d3 ba 4b 32 b9 3b 74 d8 80 38 20 11 85 3a
       -0.0016126321 0.0056517473 6.143833e-05 0.0010152198
000010 72 88 cf 39 0e a7 28 b9 b5 89 a8 39 97 ba 10 3a
       0.00039583776 -0.00016083961 0.00032146057 0.0005520968
000020 45 c8 18 b9 6f af 6a b9 15 01 b3 3a f1 62 3e 3a
       -0.00014570456 -0.00022381333 0.0013656939 0.0007262668
000030 80 6c 93 3a 93 4e dc 39 a7 e1 a4 39 db b4 41 b9
       0.0011247545 0.00042020212 0.00031448642 -0.00018473288
000040 94 20 74 3a ce be 09 3b cb ce e4 b9 f9 3c a0 3a
       0.0009312716 0.002101827 -0.00043641622 0.0012225203
000050 12 2c 3c 3a 6b c5 9b 39 0c 5c 5c 3b 0a 53 2b 3a
       0.0007178198 0.00029710992 0.00336242 0.0006535506
000060 ef 05 05 3b 01 14 5e 3a e1 41 e0 38 96 71 bc b7
       0.0020297726 0.0008471609 0.00010693423 -2.2464239e-05
000070 d3 5b f2 3a d9 42 66 3a 47 b4 54 39 c9 9d 27 bb
       0.00184905 0.0008783765 0.00020285054 -0.0025576225
000080 f8 60 db ba e4 c9 c8 ba 12 bb 31 ba b0 52 13 3b
       -0.0016737273 -0.0015318957 -0.000677989 0.0022479706
000090 c8 83 59 3a 25 9c e6 3a 45 b5 81 38 28 e4 f4 b9
       0.000829753 0.0017594142 6.1849634e-05 -0.00046709296
0000a0 34 6a f6 b9 e3 45 c3 3a 3f c8 a0 ba 27 05 23 3b
       -0.00046999904 0.0014898147 -0.0012266709 0.0024874897
0000b0 bf e5 1e bb 0d 5b 76 ba 33 85 41 3b b3 b3 50 39
       -0.0024245826 -0.0009397723 0.0029528856 0.00019903369
0000c0 da 9d 55 3a 4a 54 9a 3a c4 f7 6d 3a 2c 11 89 39
       0.0008148827 0.0011774388 0.00090777525 0.0002614347
0000d0 9d dc 80 3a 08 ac 0c 3b 68 da 02 bb c6 45 97 3a
       0.0009831373 0.0021464843 -0.0019966606 0.001154118
0000e0 9b 7c 05 ba 53 90 c5 ba ba d1 82 bb 59 65 e2 b9
       -0.0005092115 -0.0015072919 -0.0039922865 -0.0004318159
0000f0 cb 5b b8 3a 38 3a 4c 3a 40 db d3 3a 5d 51 63 3a
       0.0014065442 0.00077906577 0.0016163364 0.0008671487
000100 31 35 3f 3b 98 f6 91 3b cf 94 1b bb 2a 2d 24 3b
       0.0029175992 0.004454445 -0.002373982 0.0025051334
000110 29 6f 0e 3b 42 2b 51 3a a7 65 2c 3a 1b 2e ce ba
       0.0021733737 0.0007979163 0.00065764267 -0.0015730293
000120 f3 a1 b4 b8 33 d4 56 39 43 81 4a bb 37 75 8e 3a
       -8.613234e-05 0.00020487681 -0.00308998 0.0010868673
000130 82 bf a0 ba a8 59 7c ba cf 0b 24 3b c5 f2 06 ba
       -0.0012264105 -0.0009626397 0.0025031453 -0.000514787
000140 90 83 b5 ba ed 92 72 ba 03 1d c3 3a cd a1 32 b9
       -0.0013848413 -0.0009253461 0.0014885966 -0.00017035678
000150 4e d1 60 3a 4f 2b c9 ba 3a 34 02 ba 42 ae 0c 3b
       0.00085761107 -0.001534799 -0.0004966889 0.002146617
000160 96 1c 2d 3a 99 b0 57 3b 98 13 08 3b c5 9b 46 ba
       0.0006603686 0.0032911657 0.0020763632 -0.0007576312
000170 ba b5 95 b9 aa 1f 67 b8 24 f8 2b 3b 5b 44 36 bb
       -0.00028554891 -5.510418e-05 0.0026240433 -0.002781174
000180 a6 d4 65 bb d5 6a 4b ba 98 f4 a2 ba 5c 38 dd 3a
       -0.0035069375 -0.00077597547 -0.0012432514 0.0016877758
000190 ed bd 75 3b c6 a3 12 b9 27 36 c4 3a b6 0e ee 39
       0.0037497238 -0.00013984655 0.0014969752 0.00045405858
0001a0 a3 95 49 3b 0c 7d 4f bb 57 7b 0f 3b bd 7c db 37
       0.0030759356 -0.0031660227 0.0021893585 2.616492e-05
0001b0 9c ef e4 ba dd b2 f2 ba 9d de a9 39 de dd 1f ba
       -0.0017466429 -0.001851644 0.00032400052 -0.00060984294
0001c0 f0 cd 95 b9 00 c1 c1 36 e2 44 a1 bb d3 9c d9 3a
       -0.0002857293 5.7743164e-06 -0.0049215415 0.0016602523
0001d0 fa 41 6f ba b3 6f 7d 3b bb f1 a2 ba 61 1c 3c bb
       -0.0009126958 0.0038671314 -0.001243166 -0.0028703439
0001e0 9b 6f 1e 3b de b1 a4 39 33 57 79 b9 c0 14 33 bb
       0.0024175409 0.0003141304 -0.00023778975 -0.00273256
0001f0 07 19 6a bb b9 21 25 3b 49 4d ed b9 df b5 d5 3a
       -0.0035720484 0.0025197102 -0.00045261745 0.0016304812
000200 cd 4a 8d 39 05 9a b2 ba e2 e7 cd ba 26 44 25 ba
       0.00026949347 -0.0013626224 -0.0015709365 -0.00063044054
000210 60 f0 18 3b 0e c5 ce 3a 36 d8 28 3b 65 26 be ba
       0.0023336634 0.001577528 0.0025763637 -0.0014507292
000220 1a db 2b bb 7f c7 e9 39 75 1c de ba 9a 90 12 bb
       -0.0026223124 0.0004458986 -0.0016945737 -0.0022364021
000230 7c 03 57 3a be fc 99 b9 78 f3 39 ba d3 af 6d 3b
       0.00082021183 -0.00029370742 -0.00070934696 0.003626813
000240 a0 f2 d6 ba c7 26 6e bb 2a 31 e3 39 e0 b6 0e ba
       -0.0016399212 -0.003633903 0.00043333444 -0.00054441206
000250 62 83 be 3a e5 7b 48 bb e7 a8 83 3a fb e0 91 3a
       0.0014535005 -0.0030591425 0.0010044844 0.0011129671
000260 95 41 f1 b9 d9 52 8b 3a d3 cb c0 3a 15 a3 86 ba
       -0.00046015964 0.0010629549 0.0014709182 -0.0010271991
000270 9a 6d 20 ba 66 cb 93 3a 95 9a 36 bb 77 ac 9e 3a
       -0.00061198475 0.0011275827 -0.0027863134 0.0012105842
000280 ad bd a3 ba 75 dc 76 bb ef 30 9c 39 80 fa 12 b9
       -0.0012492441 -0.0037668024 0.00029791097 -0.00014016964
000290 99 21 24 b9 1c f2 01 ba e8 44 50 3b 13 d4 17 bb
       -0.00015652775 -0.00049570366 0.0031779353 -0.0023167178
0002a0 36 93 38 3a 6a ef 9a 3b e8 35 db 3a d8 99 fb 3a
       0.0007040979 0.0047282474 0.0016724439 0.0019195629
0002b0 a0 97 5e 38 94 82 48 ba 24 bd 5c 3a 2a 75 d0 ba
       5.3070136e-05 -0.0007648852 0.0008420518 -0.0015904058
0002c0 1a d1 b1 ba 38 07 77 bb aa a7 ff ba 70 9d fa ba
       -0.0013566345 -0.0037693512 -0.0019504924 -0.0019120406
0002d0 5e 1e e7 b9 71 86 da 3a 79 40 6c 3a 11 ef 67 3a
       -0.0004408238 0.0016672147 0.0009012293 0.00088475744
0002e0 55 6c 24 ba 9e 55 ae 3a 29 cf 83 3a fd 38 36 bb
       -0.0006272246 0.0013300662 0.0010056245 -0.0027804964
0002f0 2e c6 28 bb b0 56 02 bb 31 00 1f bb f6 24 e6 b9
       -0.002575289 -0.0019888096 -0.0024261589 -0.00043896557
000300 60 3e 15 bb 67 60 13 3b 80 fe 44 3a b4 62 12 3b
       -0.0022772774 0.002248788 0.000751473 0.0022336664
000310 1c 2a 29 3b 70 47 ac 3a fc 13 8a 3a 33 86 24 bb
       0.0025812453 0.0013143849 0.001053452 -0.0025104403
000320 ba 1a c3 3a 14 77 ae 3a c9 0e 32 bb 52 f1 da 3a
       0.0014885284 0.0013310635 -0.0027169457 0.0016703999
000330 e8 eb d1 ba 90 ac 7a ba b0 80 37 b9 da 39 58 3b
       -0.001601574 -0.0009562457 -0.0001750018 0.0032993467
000340 1b 77 a9 bb 60 0b 48 ba 5a d8 c4 ba c4 dc 5b 39
       -0.005171669 -0.00076310895 -0.0015018091 0.00020967709
000350 be b4 4e 3a a2 71 b3 ba b9 be 02 3b c7 d0 7d 3a
       0.0007885209 -0.0013690481 0.0019950105 0.00096822943
000360 6c bd e4 3a 3c fb ed 3a 2c 30 1f bb 43 f4 f9 ba
       0.0017451472 0.0018156539 -0.0024290187 -0.0019069988
000370 69 1a 34 bb 9b b9 82 3a 4b d1 af ba f4 1c 54 bb
       -0.0027481562 0.0009973528 -0.0013413815 -0.003236589
000380 6f 1a 73 3b 97 8c b3 b9 60 d3 9e 3a d3 22 11 3a
       0.0037094613 -0.00034246288 0.0012117438 0.00055365
000390 80 e6 ec 35 5a c8 dc 39 ee c8 01 3b b2 ea 1c ba
       1.7650455e-06 0.00042110943 0.0019803601 -0.00059859
0003a0 b0 ab 0a 3b 0c 69 b2 ba 86 82 9f ba 4c fe 10 39
       0.0021159463 -0.0013611629 -0.0012169636 0.00013827643
0003b0 a2 20 19 ba a7 38 99 ba be 92 1e 3b c4 1e b3 3a
       -0.00058413495 -0.0011689857 0.0024196352 0.0013665785
0003c0 98 db dd ba 9e 81 92 ba e7 e9 e8 39 d9 f8 da 3b
       -0.0016926406 -0.0011177545 0.0004442476 0.006682497
0003d0 92 7c 27 39 38 68 09 bb d3 f6 17 3b be 03 3a ba
       0.00015972767 -0.002096666 0.002318789 -0.00070958945
0003e0 f4 07 24 3b db 58 22 bb 70 90 e8 39 75 fc 66 ba
       0.0025029154 -0.00247722 0.00044358103 -0.0008811423
0003f0 98 19 d2 ba e2 ca e7 3a 3b 3e ac ba 6f a5 f4 ba
       -0.0016029356 0.0017684365 -0.0013141105 -0.0018665026

action_model._continuous_distribution.log_sigma f4 [1, 6]
000000 5b 28 15 3b d7 fe 1e 3c 54 eb b8 3b a6 91 dc 3b
       0.002275965 0.009704313 0.0056432877 0.00673123
000010 7c f1 3b bb b4 cf 16 bb
       -0.0028677871 -0.0023011984

action_model._continuous_distribution.mu.weight f4 [6, 64]
000000 77 d5 d7 3a 5a b7 db 3c 44 61 e4 3c b5 9f 79 3d
       0.0016466816 0.026820827 0.027878411 0.060943324
000010 7f cb 8f 3c 3f f4 2f bc 0e 7a 85 3b c1 11 14 bd
       0.01755309 -0.010739385 0.004073388 -0.036149744
000020 84 a8 02 3d a8 59 10 3d 6c 37 54 bc e0 8f 6e bc
       0.03189899 0.035241753 -0.012952667 -0.01456067
000030 1f 64 b5 3c 2f 2b 37 3d 3e 13 6b 3c 30 6d 6b bc
       0.022142468 0.044718917 0.014347849 -0.014369294
000040 7e 82 ff bc 90 a3 67 3b 40 97 ce 3c b0 e0 17 3d
       -0.031190153 0.0035345294 0.025218606 0.037079513
000050 2b 60 33 bc 4b b2 af 3c 81 7e 36 3d 99 7a 32 bb
       -0.010948221 0.021447321 0.044554237 -0.0027233718
000060 98 91 43 bd 90 27 c7 bc 21 68 39 3c a8 ef 5c bc
       -0.04774627 -0.024310857 0.01131633 -0.013484873
000070 13 bc 48 3d 3d 2c 8c 3c 4a 0c 04 bc 04 4b d9 3b
       0.049007487 0.017110938 -0.008059571 0.006631257
000080 db aa a2 ba 97 0e 03 bd ed 08 20 3d fa 77 14 3c
       -0.0012410538 -0.031996336 0.039071012 0.009061808
000090 f4 c0 8d 3c 06 54 2f bd 16 c7 54 bc 89 a4 96 3b
       0.017303921 -0.04280474 -0.012986919 0.004597251
0000a0 b5 67 d6 3c c6 40 5d bd 7a a2 a2 bc e5 bc a0 bc
       0.026172498 -0.05401685 -0.019852865 -0.019621322
0000b0 47 2f 52 3d 98 3b 35 3b 0d 96 8a 3c 52 c2 05 3d
       0.05131462 0.002765393 0.016917253 0.03265602
0000c0 e0 25 a3 3c b4 3c 66 3c 6b f2 c1 ba 98 50 aa 3c
       0.019915521 0.014052559 -0.0014796978 0.020790383
0000d0 00 8e a5 3b da cb 5b 3d b4 1d 3b 3d 23 33 1d 3a
       0.005052328 0.053661205 0.045682624 0.00059966947
0000e0 ff be e4 bb 86 43 52 3c 8c c6 30 bc 10 89 0f bd
       -0.0069807763 0.012833482 -0.010789525 -0.035042822
0000f0 9e 27 7f bb 41 b1 d3 bc 10 8f 4d bc 97 ed 05 bc
       -0.0038933526 -0.025841357 -0.012546316 -0.008174322
000100 2a 4d 5d 3c 9e 9c ee bc 26 96 dd bb 00 9e b4 3c
       0.013507167 -0.029127415 -0.006762284 0.022047997
000110 af 26 51 3c b6 22 21 3d f4 02 b8 ba bb 25 33 bc
       0.012765571 0.039339744 -0.0014038966 -0.010934289
000120 bf 34 50 3d 58 a3 00 3d 3f cf 0e bd ef e4 5c bb
       0.050831553 0.031405777 -0.034865614 -0.003370579
000130 1f 36 0e 3d 3d 1d f5 3c 87 0c 22 3d cf 07 2a 3d
       0.034719583 0.029921168 0.03956273 0.041511353
000140 eb 78 c4 3b 8e a1 90 bc 27 3c 34 3d 74 f0 8b bc
       0.00599586 -0.01765516 0.04400268 -0.01708243
000150 0b 21 46 3d 35 e3 21 3c 97 79 21 3c bc 62 45 3c
       0.048371356 0.0098808305 0.009855649 0.012047466
000160 ef 98 36 bd c7 93 89 b9 ca cc 9a bc 6c 17 f0 bc
       -0.044579443 -0.0002624078 -0.01889648 -0.029308043
000170 c3 81 14 bd 0d 5f c0 38 a7 61 84 bc ba 30 0b bd
       -0.036256563 9.172978e-05 -0.016159846 -0.033982016
000180 e5 2e 56 bc 72 79 c8 3c d4 58 84 3c 6d 68 54 3c
       -0.013072704 0.024471972 0.016155638 0.01296435
000190 4f 99 47 bc 2b a8 a3 bb ae 41 04 3d 88 b0 00 3d
       -0.012182548 -0.0049944124 0.0322892 0.031418353
0001a0 93 2d 81 3c 23 39 66 bc 1d cc 23 bd 68 9d 80 3c
       0.015768802 -0.014051708 -0.03998958 0.015700057
0001b0 ec 95 b5 ba f6 9c 92 3c 04 3d 12 bc 26 72 ef bb
       -0.0013853884 0.01789711 -0.00892568 -0.0073073087
0001c0 5e 1b e9 3c 80 0b 20 bc c6 1a 0e bd 81 71 97 bb
       0.028455433 -0.009768367 -0.034693502 -0.004621685
0001d0 58 c0 f3 bc 8a 83 b4 bc 48 91 88 3b 4e 3e 41 bc
       -0.029754803 -0.022035379 0.0041677095 -0.01179464
0001e0 ea e9 49 3c ea 33 0b 3d 5b cf 2d 3d 64 a2 36 bd
       0.012323836 0.033985056 0.042434078 -0.04458846
0001f0 58 a6 14 3d da b6 19 3d 50 b9 26 3c a9 81 c1 bc
       0.03629145 0.037527896 0.010176018 -0.023621397
000200 74 02 b5 3c b6 c5 99 3b 33 29 99 3b f2 69 18 bd
       0.022095896 0.0046927584 0.004674101 -0.037210412
000210 12 82 93 bc 7e 39 00 bd a2 44 ad bb 16 0d 0a bc
       -0.018006358 -0.03130483 -0.0052877227 -0.0084259715
000220 46 94 3f bc 74 ab a7 3b 04 16 ac 3c 35 98 cb 3c
       -0.011693066 0.0051168744 0.021006592 0.024852851
000230 24 30 60 bc 6f 9e a2 3b e8 d1 4d 3c c5 c2 58 3d
       -0.013683353 0.0049627344 0.012562253 0.05292012
000240 e3 44 b8 bc 61 34 3c bd db 74 03 bc 50 45 6b bc
       -0.022493785 -0.04594839 -0.008023466 -0.014359787
000250 bc 30 10 3d 29 4e 2f bd d3 8b cf bc 99 35 aa 3b
       0.035202727 -0.04279915 -0.025335228 0.0051943776
000260 a5 98 96 bc 79 02 cc 3c 27 be 49 3c 41 9d 5a bc
       -0.018383333 0.024903523 0.012313402 -0.013343156
000270 40 df 40 bb e1 24 bc ba 43 aa e5 bc 0c 37 1b ba
       -0.0029429942 -0.0014354252 -0.028035289 -0.00059209834
000280 0d 73 0d bd 7f 9d 46 bc 41 eb f9 bb 7d fd 1d 3c
       -0.03453355 -0.012122511 -0.0076269214 0.009642956
000290 86 2d d8 bc 16 b5 93 3c f6 d4 29 3c 21 c5 17 bc
       -0.026388895 0.018030684 0.010365715 -0.009263308
0002a0 8a d4 3f 3c be 12 6c bc 22 c8 e3 3c 29 4c 37 3c
       0.011708388 -0.014408765 0.027805392 0.011187592
0002b0 ef 6c 9b bb b3 3c 84 3d 5e e8 85 bc 2c ed fe 3a
       -0.0047432105 0.0645689 -0.016346153 0.0019449345
0002c0 cf d5 ac bc f9 51 cb bc 30 58 ad bd ef 2d 7d bc
       -0.021098046 -0.024819361 -0.08464086 -0.015452846
0002d0 b9 ba 11 bc d4 5f 74 3c 64 42 5a bc 2e 34 e0 3c
       -0.008894616 0.014915425 -0.013321493 0.027368631
0002e0 11 38 20 bc a2 9b da bc c7 50 f4 3c f0 cf e3 3c
       -0.009778992 -0.02668554 0.029823674 0.027809113
0002f0 65 04 00 bc 7b d8 d3 bb 03 0f 4c 3c 53 2f 05 3c
       -0.007813548 -0.0064650155 0.012454751 0.008128959
000300 ec 07 4a bc 75 f7 27 bd 5f 45 d9 bb 26 69 a1 3c
       -0.01233099 -0.041007478 -0.006630584 0.019703459
000310 4b 7c 48 3c b3 83 1d 3d f4 4a a8 3d df 3d 52 3c
       0.012236665 0.038455676 0.08217421 0.012832134
000320 50 a8 6b 3c 3f 7a 9d 3c b9 40 f3 bb 32 c2 91 bc
       0.014383391 0.01922333 -0.007423487 -0.017792795
000330 8d e8 cc 3c d1 e9 0d b9 af 29 9a 3c 8f 46 19 3c
       0.025013233 -0.00013533911 0.018818704 0.009355201
000340 c7 3d 12 ba e4 b2 f9 bc 70 0b 78 3c 89 42 a6 3a
       -0.00055786635 -0.03048081 0.015139446 0.0012684624
000350 a1 68 6a bd d5 b0 ca bb 60 1c b9 3c d6 d6 43 bc
       -0.05722869 -0.006185631 0.022596538 -0.011953076
000360 d4 bd 09 3b e2 0e da bb 58 b4 19 3d c8 5b 1a bd
       0.0021017687 -0.006654606 0.037525505 -0.037685186
000370 49 cd 36 bc df 46 de 3c 64 d9 64 3c 7c 91 7c bd
       -0.011157342 0.027133403 0.013967846 -0.061662182
000380 91 73 11 bd db 5b b5 bc 9f e0 de bc 96 77 45 3d
       -0.035510603 -0.022138527 -0.027206717 0.04820975
000390 36 e8 18 bd 26 05 a9 3b bd 7c ad bc a5 34 98 bc
       -0.03733083 0.0051580844 -0.021177644 -0.01857979
0003a0 24 68 dc bb 7e c5 df bb 23 40 10 ba e1 66 a6 3b
       -0.0067262817 -0.006828963 -0.0005502721 0.005078182
0003b0 65 e4 25 bd 6a 4a 3a 3d 85 10 ec 3c c7 38 cc 3c
       -0.040501017 0.045481123 0.02881647 0.024929417
0003c0 e4 11 51 3d 47 c6 33 3d 03 ab 69 3c 72 d0 c3 3c
       0.051042452 0.043890264 0.014261964 0.023903105
0003d0 1c 47 fa bb 1c ae 6f bb b8 c9 1d 3d cc e4 2a 3d
       -0.0076378714 -0.0036572283 0.038522452 0.041722104
0003e0 55 d5 2c 3d bc a4 5c bd 21 b2 3f 3c 45 25 03 3d
       0.042195637 -0.05386804 0.011700184 0.032017965
0003f0 f4 51 09 3c 5e 7b 52 bd f1 07 d6 bc bc cc 6e 3d
       0.008381356 -0.051387183 -0.026126834 0.05830072

action_model._continuous_distribution.mu.bias f4 [6]
000000 f8 21 d9 ba f4 55 9e ba 54 7a fe 3a 72 7a 2b ba
       -0.001656591 -0.0012080059 0.0019415119 -0.0006541378
000010 80 b5 68 b8 07 76 d5 ba
       -5.5482145e-05 -0.0016285785

onnx::LSTM_101 f4 [1, 256, 256]
000000 29 dd a8 bd 16 ea 09 bd 1d ed 9a 3d 5d 54 80 bd
       -0.08245308 -0.033670507 0.07564757 -0.06266091
000010 0a 65 d6 3d c2 a3 7b 3d 1f 70 3a bd 4e 0e 20 bd
       0.104684904 0.06143547 -0.045517083 -0.039076142
000020 12 5d c7 bb d0 d5 c5 3d a1 94 e7 3d 88 81 b7 3d
       -0.006084093 0.09659922 0.113076456 0.08960253
000030 00 6b 63 3d 02 07 2f bd 7e 4d 41 bd 76 51 da 3d
       0.055521965 -0.042731293 -0.047193043 0.10660069
000040 37 ff be bb b9 01 da 3d aa d9 19 bd ed ff d9 bd
       -0.005828764 0.1064486 -0.037561096 -0.10644517
000050 0b 57 53 bd 94 20 c0 3d 09 7b 97 3c db b5 24 3d
       -0.051596683 0.09381214 0.018491285 0.040212493
000060 c4 9e 19 3d ae 72 63 3d 04 1b d3 bd e1 a1 80 bc
       0.037504926 0.05552929 -0.10307887 -0.01570219
000070 31 34 39 3b 43 de a7 3b 95 a7 0e be ae 7a 15 3a
       0.0028259868 0.005122931 -0.13931115 0.00057021796
000080 dd d9 95 bb 0e 7f d3 3d de 5e e8 3c ac d2 bd 3d
       -0.0045730905 0.10326968 0.028365549 0.09268698
000090 1f c7 f2 3d 6e e5 a0 3c 2e 24 07 be da 58 b8 bd
       0.118543856 0.01964065 -0.13197395 -0.09001322
0000a0 6a fa 82 bd fa 7b 59 3d a0 de b2 3d 2c da 03 3e
       -0.06395419 0.05309675 0.087338686 0.12876195
0000b0 f3 08 99 bd 96 bb e1 3d bb 46 f1 3d ec c5 85 bd
       -0.0747241 0.11022107 0.11781069 -0.06531891
0000c0 84 b6 59 3d 51 3a f3 3d 3b 99 d2 3c 90 ed ec 3d
       0.053152576 0.11876357 0.025707832 0.11568749
0000d0 e2 bd 36 3d c9 ee f4 bd f3 b5 93 3d c9 81 ec bd
       0.04461468 -0.11959607 0.072124384 -0.11548192
0000e0 d3 c8 c1 bc 20 09 45 3d d1 a4 1c 3d 68 d4 ee bb
       -0.02365533 0.048104405 0.03824312 -0.0072885044
0000f0 72 01 7c bd 66 9a ca bd 8b 93 af bc 7c b1 09 3e
       -0.061524816 -0.098927304 -0.021432659 0.13446611
000100 57 af 07 be 46 63 bb bd be d0 9a bd 58 f8 79 3c
       -0.1325048 -0.09149794 -0.07559346 0.015256964
000110 1b 11 15 bd f1 51 8e 3d ed 98 6f bc a5 7c bb bc
       -0.036393266 0.06949223 -0.014623863 -0.022886584
000120 c2 35 7b 3d 6d 16 4b bb fe fd a5 3d b7 32 ec bc
       0.061330564 -0.0030988709 0.08105086 -0.028832776
000130 77 63 99 bd e4 32 20 bd 27 b4 01 be 7c f8 a1 3d
       -0.074896745 -0.039111033 -0.12666379 0.07908723
000140 ab fd 1a 3d e1 4e ca bd 07 9f 13 3d 17 e3 37 bd
       0.037839573 -0.09878326 0.036040332 -0.044894304
000150 0f 77 51 bd 3e 28 80 3c 3b de 1d bc f5 e2 ce bc
       -0.051138934 0.015644189 -0.009635503 -0.025254706
000160 2d 32 28 bd 76 ac 06 3e ec 01 01 be 50 97 ce bd
       -0.041063476 0.13151726 -0.1259839 -0.10087454
000170 7a a8 0c bd 98 0b 00 be d9 b4 c2 bb ef ef 48 3b
       -0.03434036 -0.12504423 -0.005941969 0.003066059
000180 be 76 10 bc 59 ba 7a bd ec d8 e3 bd 89 a1 b2 3d
       -0.008817373 -0.06121287 -0.11125359 0.08722217
000190 8d 8b af bd 8b 49 03 be 69 2b 03 3e f5 e3 eb bd
       -0.08571539 -0.12821023 0.12809528 -0.11518089
0001a0 8a 91 02 3e 64 4e 05 be 67 75 50 bc c1 d5 b3 bd
       0.12750831 -0.13018185 -0.012723303 -0.08781005
0001b0 85 3c 18 3d 5a 96 55 bc 4b b7 9f bd 3d 6e a8 3b
       0.03716709 -0.013036335 -0.07798632 0.0051400946
0001c0 c8 56 90 3d f0 63 80 bd fc 87 a2 bd d7 19 c7 bd
       0.07047802 -0.062690616 -0.07936093 -0.097217254
0001d0 fe eb dd bd 53 80 44 3d 78 cf 17 3b cd 7f 91 bd
       -0.108360276 0.047973942 0.0023164432 -0.07104454
0001e0 9c 4b dd 3d 3b 3b e1 3d b9 74 d0 3d 6a 91 d2 3d
       0.10805437 0.109976254 0.10178513 0.10281642
0001f0 b9 89 03 3e 44 7d 89 bc 1c c8 e9 bd 9d c6 95 3d
       0.12845506 -0.016783364 -0.11415121 0.07313273
000200 e3 54 c1 3d 06 11 c9 3a 32 65 bf 3c 3a 10 fe 3d
       0.09440019 0.0015340156 0.023363683 0.12405439
000210 f6 4f 45 3d 86 9b df bd e0 97 d0 3d 9c 48 25 bd
       0.04817196 -0.109183356 0.10185218 -0.04035245
000220 4f 8e ed ba b4 26 28 3a 8a 05 04 be 6e 40 b3 bd
       -0.0018124076 0.00064144586 -0.12892738 -0.08752523
000230 92 ac f0 3d f7 c2 55 bc 14 f7 90 bd 9f be 7d 3d
       0.11751665 -0.0130469715 -0.070783764 0.06194937
000240 9e f6 91 bd 90 51 bb bd b1 3c 6d 3b 20 7d e3 bd
       -0.071271166 -0.09146416 0.0036199505 -0.1110785
000250 60 4b ef 3b 8b cd ce bd f4 e1 5d 3d 6a 52 9b bd
       0.0073026866 -0.10097798 0.054170564 -0.075840786
000260 8c 5f 9c 3c f7 3c 9d 3c 2a 41 10 3c cb 3b c3 3d
       0.019088529 0.01919411 0.008804599 0.09532889
000270 4e 27 df 3b 07 6c af bc 4e ad 9b bd 07 25 9b bd
       0.0068101054 -0.021413816 -0.076014146 -0.07575422
000280 66 d5 e8 3d 5f 43 6e bd 1c a7 28 bd b5 01 43 bc
       0.113688275 -0.05816972 -0.041174993 -0.011902262
000290 d2 02 71 bd 28 c5 c5 bd 99 9c bb 3b ab c6 b3 3c
       -0.05884058 -0.09656745 0.005725455 0.021945318
0002a0 83 bf 07 3c 94 ed bf 3d 9d 50 fd 3d 5a a1 99 bd
       0.008285406 0.09371486 0.123688914 -0.075014785
0002b0 93 6b 67 3d b4 22 af 3d 84 19 29 3d f4 00 91 bd
       0.056499075 0.08551541 0.0412841 -0.0708026
0002c0 d8 7e 92 bd a5 37 09 bd 6f 39 10 bc ce 66 76 3d
       -0.071531 -0.033500332 -0.008802756 0.060156636
0002d0 1b cf 65 bd bc 81 0a be 91 85 07 3d cb 98 44 bd
       -0.056105714 -0.13526052 0.033086363 -0.047997277
0002e0 0d 29 c9 bd 65 71 04 3e 6e 0a a9 bd 9c d5 b1 bd
       -0.09822283 0.12933882 -0.082539424 -0.08683321
0002f0 b6 dd ad bd 48 8a a5 3d d9 20 be bc 7c 60 d0 bd
       -0.08489554 0.08083016 -0.023209022 -0.10174653
000300 9d 27 1c 3c 15 fa c0 bd 17 66 e5 bd dd 8b b5 bb
       0.009530929 -0.09422699 -0.11201113 -0.0055403546
000310 be c5 5c bd b4 29 8e bd 55 9e ad 3d ba 32 d6 bc
       -0.05389952 -0.06941548 0.08477465 -0.026147235
000320 10 67 69 3d 16 3a e8 3d 85 f4 d0 bd 8d 4b 24 bd
       0.056983054 0.11339204 -0.102028884 -0.040111113
000330 f8 f6 b6 bd 82 7a d8 3c dd ce 35 bc f7 af 8f 3d
       -0.08933824 0.026425604 -0.011096683 0.070159845
000340 5f e6 ba 3d ad 97 4b bd 30 de 48 bd b7 54 6a bd
       0.09125971 -0.049705196 -0.04904002 -0.057209697
000350 51 ce c0 3d 1a 75 c8 3d 1e 58 fb bc e4 96 98 bd
       0.09414352 0.0978796 -0.030681666 -0.07450655
000360 5a 0e ee bd 80 3b a5 bb d0 a8 99 bb e9 e1 09 be
       -0.11623831 -0.0050424933 -0.0046893135 -0.13465084
000370 24 2f ee bd ef 97 d4 3c dd 75 f1 bd 29 6e 07 be
       -0.11630085 0.025951354 -0.11790059 -0.13225617
000380 ec 07 0a be 2c 39 8a bd be ca 3f 3d fa 9d 81 bd
       -0.13479584 -0.06749186 0.04682421 -0.0632896
000390 32 3e 0b 3d c8 30 ef bd 7e 2c 14 3d 1f 19 ef 3d
       0.03399486 -0.11679226 0.036175244 0.11674713
0003a0 31 83 9d bd b2 a8 07 bd 9f 3c 7a bd 6d 36 f4 3d
       -0.076910384 -0.033119865 -0.06109297 0.119244434
0003b0 58 98 90 bd 16 7a 6e 3d 8f 45 1c 3d e6 04 06 be
       -0.07060307 0.0582219 0.038152274 -0.13087806
0003c0 b2 5e 72 3d fd e4 03 3d b0 b6 84 bd 56 e2 9b 3b
       0.05917234 0.032200802 -0.064801574 0.004757206
0003d0 49 52 69 bd d7 8f 95 3d ae 50 8c 3b 51 dd c9 bd
       -0.05696324 0.07302826 0.0042820787 -0.09856666
0003e0 b3 50 04 be 29 e6 22 3d 7c 81 c8 3d 15 b0 a3 bd
       -0.1292141 0.03977028 0.09790322 -0.07992569
0003f0 36 00 aa 3d 5d 4b 58 3d d0 37 8b 3d 8e d3 d2 bc
       0.083008215 0.052806247 0.06797755 -0.025735643
